situation_analysis/updated_model/model_window30_horizon1.pth (torch, 924074 bytes, 27 tensors)

adapt_adj f4 [30, 30]
00000000: ab1f 353f 9126 aeb7 0ac1 96bc c384 94bc
00000010: f497 89be 5f7a 16be 2fe4 33be b293 e8bd
00000020: 07d1 bf3d 8e13 d03d 3230 c3bd a38b f5bd
00000030: a3ea 15be cf9b 40bd 1da5 84be 9fe3 03be
00000040: 687b 64bd 2480 14bc 42a4 5bbe 892c 08be
00000050: 07b1 b13d 3acc 08bd 3813 11bd a0da 52bd
00000060: 1280 7d3d 8cbc 68bd 6d74 23be dd32 b2bd
00000070: 671b 07bb 8751 0dbe e0a5 cd3d 5488 553f
00000080: f740 18be 0d4e 553d b3ac 0c3e 9703 d23c
00000090: a7b9 41be ff66 2f3e 8b87 0bbd 395b b0be
000000a0: 036b 83bd c607 3bbd 3cda 1c3e 3cf1 3f3c
000000b0: e799 edbd 598b ed3d 80aa 543e 4b2b 95be
000000c0: f59c f63c 7c07 c3bd 2163 8f3c 4efc 59be
000000d0: 8933 083d 1acc 883b 9ada e3bd 3278 35bd
000000e0: adf2 57be 4a5a 843d 671b 5c3d 036a b73e
000000f0: 46e2 123e ce77 1ebe bff7 633f a501 fe3d
00000100: 352c 353e 55e1 c33c a077 e13d 17fe 95bd
00000110: de68 68be 7e3f 05be 7724 003d 1670 cf3d
00000120: ed8d f9bc 73b2 8abd 594c 7ebd a394 b3bd
00000130: bc51 09be 9f24 343e bb10 0e3d 60c1 0a3d
00000140: a2e4 b9bd 5610 163e a032 cb3d 7bf6 b4bd
00000150: c5ab b5be 2e0b a03d 8532 e5bd 20af a83c
00000160: dc08 d8bd b465 8bbd 92d8 b23d b76d 4d3e
00000170: e278 6d3e b09f 6a3f 7bee aebe 4fc4 043e
00000180: 68c9 31be e979 cd3c 850a c33d f470 d93e
00000190: 9b3a 16be 7c99 03be e7d6 01be 5e50 d9bd
000001a0: 0ab6 0fbe 137b 433e de22 23be d699 c7bd
000001b0: 5015 cabc 7976 b5bd 42a0 c6bd a3af ddbd
000001c0: 01a3 dd3d c5c6 adbd 9c04 84ba d62c e23d
000001d0: 1777 d23c 638d 623e d9b0 06be 1391 25bd
000001e0: ac6c a1be de44 a03d dd83 0bbe 7e63 0bbe
000001f0: 135d 203f f3b4 ebbd a96d 6bbd 9c6c ecbd
00000200: 700c 2ebd fbd9 eb3d aaf4 a2be f583 2bbe
00000210: 5288 76be 8520 21be 3794 35bd b9ce 72bc
00000220: 6039 c1be deb1 88bd 8325 aabe 25c9 d7be
00000230: 6eb3 173e 0fe5 78bd f85d 1bbd b44a e93c
00000240: 7dd7 23bd 8d21 f5bd e5e1 fdbb 4b9c 53bc
00000250: b92b debd 6e0b 6abe 0c7e 9fbe 06b4 9b3d
00000260: 1456 5cbc 385e c5be d113 bebb 55c1 253f
00000270: f9e5 0fbe 1f51 86bd e847 13be e8c1 803d
00000280: f20d 8dbe 3be9 58bd 44c1 f43d 5b99 513e
00000290: c2ea e33d 3378 db3c 35d0 9abd c8d4 14bd
000002a0: 3f7c 34be b9cc 38bd f2b2 1ebd 7342 4fbe
000002b0: 860b f83c fa1f 8fbd 6fdd f8bd 2787 3ebd
000002c0: 1b56 abbd 54da 08bc 36f0 0abe f6b7 7fbe
000002d0: d394 b0bc 5018 c33d 5d44 d13c e91a 0fbe
000002e0: 5736 b6bd 339b 52bc 75d9 1c3f fc13 d2bc
000002f0: c0a2 ca3b 3953 e13d e2dc e2bb b33d f7bd
00000300: 4ac6 143d ad10 c93d 4657 b0bd 10d0 af3c
00000310: 2742 b73c 4436 cdbd 1f2a dcbc f79a b33d
00000320: 3cd9 33bd 1d61 ffbc 32e1 e93c 8ea4 01bd
00000330: 5256 673d 055b 013e 4edf e33c dba5 bf3d
00000340: 3414 1d3e 500f 9cbc c9f5 6cbe f744 8abe
00000350: f3f4 0abe d9fa e03d 408e c93c b424 863c
00000360: d94b 87be feb0 243f af8e 8f3a 009b 0d3e
00000370: 4fa1 25bd fadb bebd 532c e0bd 65ee c4bd
00000380: 96d6 623c 1386 0b3d 7a1f ebbd 75c7 06be
00000390: fc9b 17be 011e e4bb 59f8 853e 8503 3cbd
000003a0: fc5a 0cbe 95a2 5bbd 2af0 38be 5a84 04be
000003b0: 019f 8fbd 3e02 8bbd 1a57 44bd d950 69be
000003c0: 38b5 86bd f231 edbd 20cf 903b e83b 183e
000003d0: 8f7f ae3d 5574 b23c 7e3a a5bb 148a ef3d
000003e0: aa90 2f3f 6e75 32be f9ee e5bd c985 09be
000003f0: 2343 d6bd 801e 51bc 08a6 043d 90e7 12be
0.70751446 -2.0760375e-05 -0.018402595 -0.018129712 -0.26873744 -0.14695118 -0.17567514 -0.11356296
0.09366041 0.1015998 -0.09530677 -0.11989524 -0.14640288 -0.04702359 -0.2590722 -0.128798
-0.055781752 -0.009063754 -0.21449378 -0.13298239 0.086763434 -0.03339789 -0.03541872 -0.05147803
0.061889715 -0.056820437 -0.15962382 -0.08701108 -0.0020615698 -0.13800631 0.10041404 0.83411145
-0.14868532 0.05207639 0.13737755 0.025636477 -0.18918477 0.17129134 -0.03406481 -0.34444597
-0.06416895 -0.04566171 0.15317625 0.01171523 -0.1160162 0.11598844 0.20768166 -0.29134592
0.03010414 -0.09522912 0.017503323 -0.21287653 0.033252273 0.0041747214 -0.11125679 -0.04430408
-0.21088667 0.06462534 0.05373707 0.35823068 0.14344129 -0.1547539 0.89049906 0.124026574
0.17692645 0.023911158 0.11009145 -0.073238544 -0.22696254 -0.13012502 0.031284776 0.101288006
-0.030463183 -0.06772318 -0.06208453 -0.087685846 -0.13410085 0.17592095 0.034683924 0.033875823
-0.090768114 0.14654669 0.09921765 -0.08836075 -0.35482612 0.07814632 -0.111912765 0.020591319
-0.10548565 -0.06806508 0.08732714 0.20061384 0.23190644 0.91649914 -0.3416632 0.12965511
-0.17361987 0.025082545 0.09523491 0.4246899 -0.14670794 -0.12851518 -0.12679635 -0.10611032
-0.14034286 0.19089918 -0.1593127 -0.09746139 -0.024668366 -0.088604875 -0.096985355 -0.10824516
0.10822106 -0.08485178 -0.0010072174 0.11043708 0.025691552 0.22124247 -0.131534 -0.040421557
-0.31528223 0.078256354 -0.1362452 -0.13612172 0.6264202 -0.11509123 -0.057477627 -0.11544153
-0.04249233 0.11516186 -0.3182729 -0.16749556 -0.2407544 -0.15735061 -0.0443308 -0.014819794
-0.37739086 -0.066745505 -0.33231744 -0.4214565 0.1481454 -0.060765322 -0.037931412 0.028478004
-0.040000428 -0.1196929 -0.007747876 -0.012915681 -0.10848183 -0.22855923 -0.31150854 0.07602696
-0.013448257 -0.38548446 -0.005800702 0.64748126 -0.14052571 -0.06558441 -0.14382899 0.06286985
-0.27549702 -0.0529568 0.11950925 0.20468657 0.11128761 0.026790714 -0.075592436 -0.036335737
-0.17625521 -0.045117114 -0.038744874 -0.20240192 0.030278932 -0.06988521 -0.1215161 -0.04651561
-0.08366033 -0.008352835 -0.13568196 -0.2497252 -0.02155534 0.095261216 0.025545293 -0.13975109
-0.08897083 -0.012854385 0.61269313 -0.025644295 0.006183952 0.110022016 -0.006923304 -0.12072315
0.036321916 0.09817634 -0.08610396 0.021461517 0.022370411 -0.10020116 -0.026875554 0.087697916
-0.043908343 -0.031174237 0.028549764 -0.031651072 0.056478806 0.12632377 0.02781644 0.09357806
0.15339738 -0.01905027 -0.23140635 -0.2700574 -0.13570003 0.109853454 0.024603963 0.016374923
-0.26425055 0.6433257 0.0010952557 0.13828659 -0.04043704 -0.09319301 -0.10945954 -0.09615783
0.013845107 0.03406341 -0.11480613 -0.13162024 -0.14805597 -0.0069615846 0.26166037 -0.045901794
-0.13706583 -0.053621847 -0.18060365 -0.12941113 -0.070127495 -0.06787537 -0.04793463 -0.22784747
-0.065775335 -0.11581792 0.0044192225 0.14866602 0.085204236 0.021783987 -0.005042373 0.11696258
0.68580115 -0.17427608 -0.11227221 -0.13429941 -0.10462024 -0.012763619 0.032384902 -0.14346147

gc1.fc.weight f4 [128, 36]
00000000: 8d56 1ebd 384a 823d e997 c93d dc4b 45be
00000010: 2617 d63d a684 313e 2d4e 6c3a 4402 e1bd
00000020: 3c76 a43d de96 98bd 854f 933c c81d ef3b
00000030: 4c10 8dbd 14f7 cc3d b576 6abd 1227 aabd
00000040: 3961 473e a34c b0bc 999c 013e 6127 bdbd
00000050: 9890 8cbc aae9 3fbe fccc 59bd c5ec 693e
00000060: e438 953d b278 fcbd e019 03be 9b66 323e
00000070: da19 17bd 026a 7bbd 189c 0e3d e452 8abd
00000080: 48ae 483d f598 eabd d5ed ccbc eea3 18be
00000090: 0e60 043e e31c 813b aca3 7bbd 373e 293e
000000a0: 8c2d 1abe 5049 90be 6b56 a6bc 9665 5cbd
000000b0: 50ca 02be 8446 8ebd b214 1cbd 4ecc 98bd
000000c0: deff 3dbe e3f3 52be e891 e23d 9dad 183c
000000d0: f085 853c 7126 16be 1a5e 213d b033 d13c
000000e0: da14 393d 5097 ba3d 2717 1bbe e3af 8f3c
000000f0: e58e 2c3c 6227 11bc 68d8 36bd dc28 12be
00000100: 3534 1d3e c8ed 8db6 236f a13c 7ecb e0bc
00000110: 931c e4bd 37fd 0bbe b220 0abd 9882 9cbc
00000120: 0fe2 12be 2949 193e 4644 45be d88e 05be
00000130: e360 84bd cb8f 533b bde3 ec3d b04b 153d
00000140: 6284 e13d fd40 57bb a338 c7bd ccd8 513e
00000150: dbf5 473d 267e 653c d8c5 c2bd 6698 183e
00000160: 2c51 59bd 1c1e 1e3e d989 9a3d b6df efbc
00000170: 5781 e23d d37f 35be 0c86 593e da06 603c
00000180: 22d3 383e 4fbe 463e ed27 ffbd 0a9b 733e
00000190: 0cf3 223e d0ae 98bc 8514 d43c 7a75 6a3d
000001a0: 5cc7 b5bd 6e6e a13d f7f9 3c3c 2eab 6a3e
000001b0: bc2d 2e3e 41d6 ac3d 417d 3fbe ac84 ba3d
000001c0: fc8f c83c 6b4f bc3d d8ce 1e3d 2c21 f93d
000001d0: c6b5 24be a3f5 0abd 103a 95bd d3fa 903d
000001e0: ffca 36bd 28dd 7a3e 586a d8bd 0c3e 9b3e
000001f0: 7f0d 8e3e 7c51 2fbc ba95 0f3e b6d5 633e
00000200: 215b 103e fd58 af3d 4ee6 993d fa14 e5bd
00000210: 2c99 813d 3f62 0f3e ebf7 1c3e 6008 3c3d
00000220: 2242 94bd 2cd7 a1bd bd3d f03d 3b33 723e
00000230: 575c 2f3e f40a 053e 8001 f5bd 8610 3fbe
00000240: 0440 013d cbd9 cf3d 75d0 0cbd 7694 4abe
00000250: 9358 f7bc 65be 203e ae91 9c3d e69e 823d
00000260: f95c 8b3d 0aec fdbc 2767 f5bd 5c76 f33d
00000270: cb47 923d dab3 473e ba4d 433e eea6 8abd
00000280: d9f3 e53d a51e 703d 7887 b23c 29d7 063d
00000290: 15cc b2bd 7705 3dbe 50d9 703d 8088 f93d
000002a0: 1be0 203e 11ba 4dbe 53b6 8bbc b1c3 7cbd
000002b0: 0408 7d3d e66c 93bd de64 e73d b0c4 303e
000002c0: 40f8 00bd 0a57 ea3d 167f d7bd abf0 a23d
000002d0: 1748 b4bd e70c d7bd 127f a4bd 9497 57be
000002e0: e8de 7b3d 842f 103e 03eb 06be aa98 34bd
000002f0: e355 dfbd cb32 233d 11cc c6bc 6978 9e3c
00000300: 73be 833d f18c 84bc 7b4f 22be e716 2dbd
00000310: cb9d 703d 38eb 37be a8a5 513e 21a2 97ba
00000320: 34f7 933c c397 97bc e7d9 153d 2822 393e
00000330: 16db c3bd 174a 5bbe 4baf a93d 5a13 dd3d
00000340: 6092 98bd 8e65 293c 983c e73d 333f 05be
00000350: e533 67bd 12f3 22be 7b8c da3d 19bb a6be
00000360: b8af 5dbe f9be 7c3d 69df d7bc 59b4 6e3c
00000370: 5a74 4b3e 751e 79bd 7f51 0a3e 93dc f9bd
00000380: da75 0f3e e696 d93d ee22 5fbe c639 223c
00000390: a0ba 993c d5f0 fe3d fe90 cc3d 0e89 303d
000003a0: 0463 8bbd 4042 9bbc 38b5 8bbd 5b66 66bd
000003b0: 88eb 9abd e0ca 08bd 42f4 293e bb29 013e
000003c0: 12f0 d63d 343a cabd e4d3 443c f003 e2bc
000003d0: 58fa e3bd 9b9b 783e ea2b 08be 40c0 d4bd
000003e0: efb5 463e d34b 603e e6e9 1e3d 0e97 5dbd
000003f0: 0588 033e 319c c8bc d10a 2dbd e2c1 ba3d
-0.03865676 0.06361812 0.09843428 -0.1926722 0.10453634 0.17335758 0.00090143346 -0.1098676
0.08030364 -0.07450651 0.017982254 0.0072972514 -0.06887874 0.10008064 -0.057242114 -0.08308233
0.19470681 -0.021520918 0.12657394 -0.092360266 -0.017158791 -0.1874148 -0.053174004 0.22844227
0.07286242 -0.12327708 -0.1280284 0.17421953 -0.03688989 -0.061380394 0.03481683 -0.067540914
0.048994333 -0.114549555 -0.02501575 -0.14906284 0.12927267 0.003940211 -0.061435387 0.1652764
-0.15056437 -0.28180933 -0.02030488 -0.053807817 -0.12772489 -0.069470435 -0.038105674 -0.07460843
-0.18554637 -0.20600848 0.11062986 0.009318736 0.016299218 -0.14663102 0.039396383 0.025537342
0.0451859 0.09110892 -0.1514555 0.017539924 0.010532116 -0.008859487 -0.044639975 -0.14273399
0.15351947 -4.229809e-06 0.019706314 -0.027440783 -0.111382626 -0.13670813 -0.033722587 -0.01910524
-0.14344047 0.14969315 -0.19264325 -0.13042772 -0.06463792 0.0032281752 0.11566875 0.036449134
0.11011578 -0.0032845133 -0.097275995 0.20492858 0.04881845 0.014007127 -0.09510392 0.14901885
-0.053055927 0.15441173 0.075458236 -0.029281478 0.11059826 -0.17724542 0.21242541 0.013673509
0.18049291 0.19408534 -0.12458787 0.23789611 0.15913028 -0.018638045 0.02588869 0.05724094
-0.088759154 0.07882391 0.011534206 0.22916862 0.17009634 0.08439303 -0.18700124 0.091073364
0.02448272 0.09194835 0.03877148 0.1216453 -0.16084966 -0.033925664 -0.07286465 0.07079091
-0.044627186 0.24498427 -0.105671585 0.30320776 0.27744672 -0.01070058 0.1402196 0.22249493
0.14097263 0.08561895 0.0751463 -0.111856416 0.06328043 0.14002322 0.15328948 0.045906425
-0.07239176 -0.07902369 0.11730526 0.23652355 0.17125069 0.1299246 -0.11963177 -0.18658647
0.03155519 0.101489626 -0.034378488 -0.19783196 -0.030193603 0.1569763 0.07644974 0.06377964
0.068048425 -0.030996341 -0.119825654 0.1188781 0.071426 0.19502202 0.19072619 -0.067701206
0.11228151 0.058622975 0.021793112 0.032920036 -0.08730332 -0.18459116 0.058800995 0.121842384
0.1571049 -0.2009051 -0.017054712 -0.061710063 0.061775222 -0.07198505 0.11298536 0.1726253
-0.03148675 0.11442383 -0.105222866 0.0795606 -0.088028125 -0.10500508 -0.08032049 -0.21053916
0.061491877 0.14080626 -0.13175587 -0.044090904 -0.109050535 0.03984336 -0.024267228 0.019344525
0.0643281 -0.016180487 -0.15850632 -0.04225817 0.058744233 -0.17960823 0.20473349 -0.0011568704
0.018062212 -0.018504983 0.03658476 0.18079436 -0.09563272 -0.21414982 0.082853876 0.10794707
-0.07449794 0.010339154 0.11290854 -0.1301239 -0.056445975 -0.15913036 0.10671326 -0.3256462
-0.21649063 0.061705563 -0.026351647 0.014569365 0.19868603 -0.06082006 0.13507651 -0.12200274
0.140098 0.10624485 -0.21790668 0.00990147 0.018765748 0.12448279 0.099885926 0.043099456
-0.06805995 -0.018952489 -0.06821674 -0.056249958 -0.07564455 -0.0333966 0.16597083 0.12613575
0.104950085 -0.098743826 0.012013409 -0.027589768 -0.11131734 0.24278109 -0.13298002 -0.10388231
0.1940534 0.21903925 0.03879728 -0.054099135 0.12844856 -0.02448854 -0.042246643 0.091190115

gc1.fc.bias f4 [128]
00000000: 891a 6dbe 67b6 abbd 9642 19be c29d cdbd
00000010: 2eee f8bd 4342 1dbe b05e bdbe a2a8 6dbd
00000020: 469f 843b 716a 32be 1489 003e c406 76be
00000030: 5352 b0be 981b 35bd 6200 b3be 10f3 e5be
00000040: 281f 02bf 9917 53be 44b5 e9be 410c c6be
00000050: 6a1c e1bd eb27 a3be 8d8c 9ebe 23ea 19be
00000060: dc56 6abe 9654 92be 4ca2 6fbe c2ce 46bd
00000070: 150d cbbe db8f e3be 3675 82be 9bb8 12bf
00000080: f1bc 79be 5b9d bfbe 6497 c4be 593b f3be
00000090: d1ae f2bd 2d70 18bb 6678 79be ba07 09be
000000a0: 07a9 13be ab77 43be d2af 18be 9ab2 b0be
000000b0: 4f85 84be 72ef a8be 7214 debe 8f2a 82be
000000c0: bf1c 70bd 6e06 bb3d 1fd7 a5bd ec32 60be
000000d0: 6976 99be 660d 90be ddf7 26be 42e0 fdbd
000000e0: 9f84 e0be 40c3 33be 5e6c 7fbe 9862 88be
000000f0: 16b6 d93a b68f d2bc 0232 1a3d 2ef3 d73d
00000100: 46e4 f33d 4a78 b03c b910 013e acaa 413d
00000110: d3df 1cbe 790e ab3d 64c8 6abe 5480 02bf
00000120: 5f87 92be 19f9 50be 0c62 25bf 89f4 39be
00000130: 4b45 3bbe 5b92 a0be ad6a a9be ca2f 04bf
00000140: 72b4 a9be 0769 fcbd df08 a0be dc78 8fbd
00000150: 599e c8bd e8eb 2abe 4b30 393d a797 8cbe
00000160: ced7 443e 15eb d0be 51c7 cabe ae06 85be
00000170: 9378 abbe bf4f 013d 7400 edbe 944c 853c
00000180: a2ac 8c3d c187 02be 3976 d5be 052b e4be
00000190: 165f b5bd 4ff9 d2be c1e6 b4be 78f0 8cbe
000001a0: 8dd7 5cbe 0c73 b8bd 3bbf 7cbe e89c b5be
000001b0: 921d 33be f0f1 30be b783 7ebe 1631 99bb
000001c0: a299 56be 8d82 8ebe 47c8 31bf 8438 46be
000001d0: d828 903d 9c36 2fbe 14ae 88be 3561 073c
000001e0: 15bc adbe c0bd e1be 1d8a d8be 9e32 0ebe
000001f0: ddfe 7dbe e4d2 b7be bede 9ebe b348 5cbe
-0.23154654 -0.083844 -0.14966807 -0.100398555 -0.12154804 -0.15357308 -0.36986303 -0.05802215
0.004047307 -0.17423417 0.12552291 -0.24026018 -0.34437808 -0.04421577 -0.3496123 -0.44912004
-0.5082879 -0.2061447 -0.45646107 -0.38681224 -0.10991748 -0.31866392 -0.30966607 -0.15030722
-0.22884697 -0.2858016 -0.23401755 -0.048537023 -0.39658418 -0.4444569 -0.2548005 -0.57312936
-0.24388482 -0.3742474 -0.38396752 -0.47506216 -0.1184975 -0.0023260221 -0.24362335 -0.13381854
-0.14419948 -0.19088618 -0.1491082 -0.34511262 -0.25882956 -0.32995182 -0.43374974 -0.25423095
-0.058621164 0.09132086 -0.08097672 -0.21894425 -0.29973152 -0.28135222 -0.1630549 -0.123962894
-0.43851182 -0.1755495 -0.24943683 -0.2663772 0.0016610052 -0.025703292 0.037645347 0.1054443
0.11908774 0.021541733 0.12604035 0.047281906 -0.15319757 0.0835237 -0.22928005 -0.50977063
-0.28618905 -0.20407523 -0.6460273 -0.18159689 -0.18288152 -0.3136166 -0.330892 -0.5163542
-0.3314548 -0.1232472 -0.31256768 -0.07005474 -0.097958274 -0.16691554 0.04521207 -0.27459452
0.19222948 -0.40804353 -0.3960519 -0.2598166 -0.33490428 0.031570192 -0.46289408 0.016271867
0.068688646 -0.12747099 -0.4169176 -0.4456407 -0.08856027 -0.41205832 -0.353323 -0.27527213
-0.21566601 -0.090063184 -0.24682324 -0.35471272 -0.17491749 -0.17279792 -0.24854933 -0.004675041
-0.20957044 -0.27833977 -0.69446224 -0.19357497 0.0703904 -0.17110676 -0.2669531 0.008262922
-0.33932558 -0.4409008 -0.42292872 -0.13886496 -0.24804254 -0.35903084 -0.31029314 -0.21512108

gc2.fc.weight f4 [128, 128]
00000000: 6ddb d2bd 5e1d 1ebd b7f0 b33d 8af5 7d3d
00000010: a1d5 e9bb a621 f8bd f949 003d 5291 7cbd
00000020: 89d9 11be 9771 123e 029d b8bd 0c56 5cbd
00000030: 5c96 83bc 4b19 a4bd c37b d8bb 2240 e6bc
00000040: 5f13 863d 9407 4cbb 61b8 2e3e f33e de3b
00000050: fc06 1cbe 1028 6c3d 62d3 453e b337 393c
00000060: 656c 283d c1b5 243e 9409 94bb 9a29 d5bb
00000070: 8988 303e 883b 523b c232 d63d d9a5 fbbc
00000080: 339d b1bd 709e 4e3d 6f31 5c3d 6703 41bd
00000090: 0c19 6a3d 4503 7c39 600c 843d 9697 c1bd
000000a0: 9864 453d 0b45 0cbe cb67 953d fb58 8d3e
000000b0: 8496 28bd 36b2 0c3d 1c5b d93d bc45 5fbd
000000c0: 88ae b7bc 9f54 733c b1fe 0e3d 77f1 c53d
000000d0: 2338 a8bb cf33 bd3c 31cc 0fbe 99b9 db3d
000000e0: 3115 ba3c 09fe c1bd 49a2 143d 7829 0dbe
000000f0: 8268 5b3d 2806 03be 1f7c f2bc 45d1 a5bd
00000100: b4af 0a3d 2440 b83d fd2d 1cbe 9beb 243c
00000110: 71c3 b73d 4b31 d3bd 4c1d 4cbe 2511 f6bc
00000120: ab77 f33d de07 36be 8425 6e3d 7c6f 97bd
00000130: e598 073e 868e 2d3e d3b9 9d3b 0fa6 823e
00000140: 5e0e 353e c81e a4bb 24fd 5c3e 3df3 5fbe
00000150: 85a7 1f3e 5e3c 44bd c3ac 36be 5489 693d
00000160: 7c6d 953d 674b 0ebc eb31 463d ef4c 0a3e
00000170: 3ff1 2d3e 70e9 3dbd dc0f a23c 5952 94bc
00000180: fef0 4ebe fbca 13be 3d5d c63c 3077 09be
00000190: f3a3 26bd ad88 493e 0c61 803d 6230 103e
000001a0: 5292 e33c 30e6 10bd e953 e9bc 69d3 143e
000001b0: fd72 d3bc 9bed ca3c 0afa 82bd d75b 02be
000001c0: 6885 333b 8270 90bd 868c fa3d e91f 063d
000001d0: 3e01 1cbd fa27 993d 4340 eb3d e5e3 f8bd
000001e0: 0a10 ddbc 5677 b23d f5bb d9bd 953c 82be
000001f0: b125 993d fbec 17be d92d 143e 2892 f5bd
00000200: ab0b c33c 4ef9 b1bd 05b6 1bbe 12b8 a4bc
00000210: 7ab5 4038 ea37 913e 9599 38bd d43d cc3c
00000220: 1831 afbd f7b0 0abd 97b2 c83c 5c6d e7bc
00000230: 1a0c 203c 69b3 e43d 7356 6b3d b4bf 71be
00000240: d6bb cabd 671d e6bc 8022 ab3d f3c7 5ebd
00000250: 0027 3f3d a301 3f3e 520d a6be 32ea 15bd
00000260: 6881 e0bc 5e5e e53d adb5 d9bd d871 04bd
00000270: a466 8d3e baa0 56bd 997f a33e d6da a63d
00000280: 1429 223e 64be b83c c821 0dbe b563 dfbc
00000290: ee84 ec3b 151c 523e 9179 503d 4a79 b53c
000002a0: 6fab bebd 2958 873d dbe3 8dbe a8b3 1f3e
000002b0: 13ff e53d a5da 8bbd 8ac6 65bd cffd 103d
000002c0: c67e 3a3e ea7e 5bbe 2bd1 ad3b 61f3 1fbe
000002d0: 9fec 6dbe 57bb 773d fe7d b13d 865f 2c3e
000002e0: 7224 79bd 866e 1d3e 2f4e 96be eb27 1b3d
000002f0: a44e e63d 5bbf 753d adb3 eabd 585a 763d
00000300: 6797 7e3e 5893 d6bd 4c9f 11be 480b 0bbe
00000310: c923 253e bd91 7f3e b266 933e b9ed a5bd
00000320: 17b8 a6bc 0dd1 103c f68a 243d dc6e 8c3d
00000330: d0e9 6e3e 59b0 823e c5ec 9d3d 5d4a 52bd
00000340: db21 093e a487 023e 9ab5 e6bd 9074 aebd
00000350: cc44 1ebe e58f 63be a1e2 69bd c3a2 febd
00000360: c52d a4bd cd12 fa3d aa18 48bc ad6a 3d3e
00000370: 1972 c93d 92fe 6ebd 89b1 0ebe 5078 8e3c
00000380: c649 933e 7894 00be 02a3 00be 95bd d33d
00000390: 9071 89bc 36df 7f3e 96fe 113e 6b81 8bbe
000003a0: 5fda 033c fd23 0c3d 7a1b 8fbc 1ab0 32bc
000003b0: 77e0 05bd 1759 26be 8b69 44bb bf0e 6c3d
000003c0: 6602 e3bd 7b1d a6bd 9d96 1b3e 6544 c43d
000003d0: 0df0 893d d4b2 88bd 5f77 a63d a88e 293d
000003e0: 1c23 023e cda6 ca3c fe22 3bbd 7f1c 3a3e
000003f0: db1d 373c a160 433d 70ce 67bd 19db a9bd
-0.102957584 -0.038602225 0.08786147 0.062001742 -0.0071360623 -0.12115793 0.031320546 -0.061662026
-0.1424314 0.14301144 -0.09014322 -0.053793 -0.016062908 -0.08012637 -0.0066065504 -0.028106753
0.065466635 -0.0031132447 0.17062522 0.0067824065 -0.1523704 0.057655394 0.19318917 0.011304784
0.041118998 0.16084959 -0.0045177434 -0.0065052034 0.17239584 0.003207894 0.104589 -0.03071873
-0.086725615 0.050444067 0.05375808 -0.047122385 0.057152793 0.00024033811 0.06447673 -0.09452741
0.048191637 -0.13698213 0.072951876 0.2760695 -0.041159168 0.034349643 0.10613081 -0.054509863
-0.02242209 0.014851718 0.03491086 0.096651964 -0.005133645 0.023095993 -0.14042737 0.10728759
0.022715183 -0.094722815 0.03628758 -0.1378535 0.053566463 -0.12795317 -0.029600201 -0.080965556
0.03385897 0.08996609 -0.15251918 0.010065938 0.08972824 -0.10312136 -0.19933051 -0.030037472
0.11888059 -0.17776439 0.058141246 -0.07394311 0.13241918 0.169489 0.0048134117 0.25517318
0.17681262 -0.005008552 0.2158094 -0.21870132 0.15591247 -0.047909133 -0.17839341 0.057015732
0.07296273 -0.0086849695 0.04838745 0.1350591 0.1698656 -0.0463652 0.019782953 -0.018105673
-0.20209119 -0.144329 0.024214381 -0.13424373 -0.040683698 0.19681044 0.0626851 0.14080957
0.027779732 -0.035375774 -0.028482394 0.14533772 -0.025811667 0.024771502 -0.063953474 -0.12730347
0.0027392749 -0.07052709 0.12233834 0.032745276 -0.038087122 0.07478328 0.11486866 -0.121528424
-0.026985187 0.08714168 -0.10631553 -0.25436845 0.07477892 -0.14836495 0.14470614 -0.11990768
0.023809275 -0.08690129 -0.15206154 -0.020107303 4.594538e-05 0.28362972 -0.045068342 0.024931826
-0.08554286 -0.033860173 0.02449922 -0.028250389 0.00976851 0.11167032 0.05745549 -0.23608285
-0.09899108 -0.028090192 0.0835619 -0.054389905 0.046668053 0.18652968 -0.32432038 -0.0366003
-0.027405456 0.1119964 -0.10630355 -0.032335132 0.2761737 -0.052399375 0.31933287 0.081472084
0.15835983 0.022551723 -0.13782418 -0.027269224 0.007217995 0.20518525 0.050897185 0.022152562
-0.09310042 0.06608612 -0.27712902 0.15595877 0.11230292 -0.068288125 -0.056097545 0.0353983
0.18212423 -0.21435133 0.005304476 -0.15620185 -0.23234795 0.060481396 0.08666609 0.16833314
-0.060825773 0.15374193 -0.29356524 0.037879866 0.11245468 0.059996944 -0.11460052 0.060144752
0.24862443 -0.10477322 -0.14220923 -0.13578522 0.16126932 0.24957938 0.28789288 -0.081019826
-0.020351453 0.008838904 0.040171586 0.06857082 0.2333138 0.25525168 0.07711176 -0.05134045
0.13391821 0.12747055 -0.112651065 -0.08518326 -0.15455931 -0.2222286 -0.057100896 -0.12433388
-0.08016542 0.12210617 -0.012212912 0.18497725 0.098362155 -0.058348246 -0.13934912 0.017391354
0.28767222 -0.12556636 -0.12562183 0.10338894 -0.016777784 0.24987492 0.14257273 -0.27247176
0.008047669 0.03421401 -0.017469157 -0.010906244 -0.03268477 -0.16244923 -0.0029970135 0.05763125
-0.11084442 -0.08111092 0.15194173 0.09583358 0.06735239 -0.06674734 0.08128237 0.041395813
0.12708706 0.02473774 -0.045687668 0.18174933 0.011176552 0.047699574 -0.05659336 -0.08293743

gc2.fc.bias f4 [128]
00000000: 5e32 a53c 2a52 e8bd b11e 4bbd 550a 1bbe
00000010: 4e56 13be 1427 143e 6785 0bbd b4e3 dbbd
00000020: 12f8 023e 822c adbe 4a3f 1ebf 696c 4ebd
00000030: 0bfd f3be 1b9a 873e a5d0 ccbe f19a aebd
00000040: 9287 b6be ca4d dfbd 4839 c1be 460f 5a3e
00000050: e33c 03bf 629a 57bb 5dc3 9abe be16 44be
00000060: 7c53 9bbd 9f68 dfbd f321 7abe 0587 70be
00000070: 9c19 29be 44ea 14be bc19 443e 0241 ac3d
00000080: 4c73 23be f5da aebe 834c b5be 8c43 a0be
00000090: 3e99 47be 4924 c93d d5f3 51be f06f 033e
000000a0: 482f 9ebd 86b0 b5be 8d85 8abe eec9 b8be
000000b0: 0ab1 02bf fc40 b9be 328c dbbe 3c86 4d3d
000000c0: c9af 78be af28 8fbe f6da debe 9ce8 61bd
000000d0: 3550 d5bd 545a 5cbe 333d a5be 6bec b8bc
000000e0: fef8 b23d 29d5 15bd f454 3ebd d9cc 72bd
000000f0: 4f42 6f3e 0ec2 a8bd 5273 84be 3a8e 11be
00000100: ee19 b0be b24d 053e c103 f5bd 32d1 70be
00000110: de51 e6b9 30b0 9abe 8c55 19be 0349 88be
00000120: 2dcb 8e3e 594f 5a3e bde8 ce3d 4f4b 90be
00000130: e16f 52be 709f 24bd dc2d 333e c107 26be
00000140: fc98 e9bd 8d4d a2bd d03c 98bd eed1 8c3c
00000150: c007 89be efb3 653e ddc4 51be e802 19be
00000160: 2bc2 ab3c 8628 b0be eec6 7a3e 4012 f5be
00000170: df6f 873e 9a30 aebe 3adf e93b d065 73be
00000180: 4af8 f43d d7f2 03bb 26bc a5bd b674 5bbe
00000190: c13f e8bd 7609 afbe a521 043e 8234 9bbc
000001a0: 0868 2e3d 958d cfbd 758b 863d 13d8 d0bd
000001b0: 6364 bfbd 2acc ecbc b42b 22be 862c 4dbe
000001c0: f87d 3dbe 9091 82be 3de4 1cbe 0f9c 87be
000001d0: 6a6c 2a3e e05e f53c 6228 c1bd 7b90 c0be
000001e0: adf4 d8bd 299c 9d3c d547 0cbe 1d00 c6bd
000001f0: 2bf1 243e 19f2 0cbe 9379 adbb f7e3 6d3d
0.020165619 -0.113437966 -0.049589816 -0.1514066 -0.14388391 0.14468032 -0.03406277 -0.1073679
0.12789944 -0.3382302 -0.6181532 -0.050396357 -0.47653994 0.2648476 -0.40002933 -0.085256465
-0.35650307 -0.10903509 -0.37739015 0.21294889 -0.5126478 -0.0032898416 -0.30227175 -0.191493
-0.07584283 -0.10908627 -0.24427013 -0.23489006 -0.16513675 -0.1454249 0.19150442 0.08410837
-0.15961951 -0.34151426 -0.35409936 -0.31301534 -0.19492051 0.09821374 -0.20503171 0.1283567
-0.07723862 -0.3548624 -0.27055016 -0.3609156 -0.5105139 -0.36182392 -0.42880398 0.050176844
-0.24285807 -0.27960727 -0.4352643 -0.055153474 -0.10415689 -0.21518832 -0.32273254 -0.02257367
0.08738898 -0.03658024 -0.046467736 -0.05927739 0.23365138 -0.08240138 -0.25869232 -0.14214411
-0.34394783 0.1301792 -0.119636066 -0.23517302 -0.00043930014 -0.30212545 -0.1497404 -0.26618204
0.27889386 0.21319331 0.10102985 -0.28182456 -0.20550491 -0.040191114 0.17497963 -0.16213895
-0.114061326 -0.07924948 -0.07433474 0.017189946 -0.26763725 0.2243192 -0.20485254 -0.14942515
0.02096661 -0.34405917 0.24489948 -0.47865486 0.26452538 -0.34021455 0.0071372064 -0.23769307
0.1196142 -0.0020133757 -0.08092527 -0.2143124 -0.11340285 -0.34186906 0.1290346 -0.018945936
0.04257968 -0.101344265 0.06569568 -0.10197463 -0.09345319 -0.028905947 -0.15836984 -0.20036516
-0.18505085 -0.2550168 -0.15321441 -0.2648625 0.16642919 0.029952466 -0.094315305 -0.3761023
-0.10593543 0.019239502 -0.13699277 -0.0966799 0.16107623 -0.13764228 -0.005294034 0.058078732

temporal_conv.weight f4 [128, 128, 3]
00000000: 9ab7 9abd 59b6 34bd 6ae5 c7bb 8548 c2bc
00000010: 3c99 fabc f291 eabc 04d4 0abd 4db1 023c
00000020: 635d 163d c6df 51bd 4f3e 4fbd 151d 383b
00000030: f711 a0bd e492 c4bb e9b3 ff3c 4ea0 04bb
00000040: 326d da3b faea acbc 7e63 82bc 7ba6 55bd
00000050: f9ed 0c3d 88a6 09bd 9d8a 5b3c 60b3 0dbd
00000060: fab8 edbc ccb3 efbd cd74 bfbc 3ac3 b3bd
00000070: 24f5 b9bc 577d 19bd 947a e83c d4c0 44bd
00000080: dffc 603c 0569 05bd 7204 2d3d 916d 0a3d
00000090: f003 51bd b0f0 3ebd 44b3 0d3d 2d94 3a3c
000000a0: b6cd 85bd 9bed 873c fe31 d0bc a066 e0bd
000000b0: b92b dabc d54e 4cbd c80a adbd 3016 1a3d
000000c0: 76a4 92bc 61bb debb 8ca9 3f3d 1a93 75bd
000000d0: be65 b7bc b279 cebc 52fb a3bd ee7f f2bc
000000e0: e4db 47bd 2b07 f7bc 3e2f f23a 6b55 0bbd
000000f0: 2dd5 47bd dbcc 4cbc e87c 3fbd ca50 0abc
00000100: 4ab8 963c 65ae 143c 505f ccbd 1ac9 f5ba
00000110: 3818 c33c a590 98bd e821 38bd 60fd 153d
00000120: 0d9f 0dbc a999 1abd 9493 33bd 6289 2dbd
00000130: ed46 aebc 6d8b 3f3d 9d05 163d d9ae 86bd
00000140: e8c1 4bbd db92 cbbd 07ce 18bd 81a9 43bd
00000150: 2f6d b5bc 65aa f63c b2a4 29bd 49aa 34bd
00000160: 376d fc3a e489 a2ba ce88 7bbd 6b65 b5bd
00000170: 94e4 3c3d c711 af3b 5de8 35bd 2dbe 4d3d
00000180: 08ef fdbd 72c3 93ba 7be3 2abd 6a30 97bc
00000190: 53cd 483c 9ad7 3bbd d8eb 3fbd f18d 93bd
000001a0: 95d2 95bc 0b8d 6d3d 8832 973c 0fcc b3bc
000001b0: fd1c d6bd 4ce5 e6bd 5029 a83c 04f8 c8bd
000001c0: 5743 27bd 940c 053d ab48 6dbd db20 b0bd
000001d0: 97dd f13b f529 07bd fdc3 f9bd ad83 4a3d
000001e0: 1db0 d1bb 19b7 e5bd 1e34 d1bc 2191 cdbd
000001f0: f9a9 24bd cc50 1fbc 70d7 54bd 842a f73c
00000200: 3ffb f83c 5342 813c e9fb 81bb b92f 983c
00000210: 0c7b 68bd 40fe 5a3d 5244 b13b 90e3 153c
00000220: 7675 80bc c224 3fbd 12ec 2b3d 7577 e6bc
00000230: 2e2c 72bc 69ba 643d 6b4a 2dbd 76f2 3d3d
00000240: 47f6 4dbd 9c91 96bd 7ba3 043d 9e10 17bd
00000250: abff e1bd d51f babb 1ab4 d6bd f228 543c
00000260: f643 063d 6dd5 d4bd 1d65 c5bc 1c40 e33c
00000270: 5b5a 8ebd 8e87 56bc e982 d5bc 1a74 a1bc
00000280: de6b 0dbd 7ac8 a4bc 6b75 43bd 4aed ca3c
00000290: 29fc 033d fdee 31bd 013e 30bd ae4c 4dbd
000002a0: 439c 14bd 74dc a0bd e1a1 fcba 7947 dabc
000002b0: efa9 46bd bdd1 bbbc df11 ecbd ae53 eebd
000002c0: 45ca e63c e970 fa3c 5473 20bd cd3c 1cbc
000002d0: e0ea 04bd 34c7 a2bd c92b 29bd 1ec9 b4bd
000002e0: aa66 e1bc f95f 0cbd 4bc2 ecbc 743e bcbd
000002f0: b409 e23c 4ed3 58bd 6f90 f5bc 8bd0 f4bb
00000300: c417 32bd 8405 e1bc ae19 1abd 06ec 84bd
00000310: b4ef 15bc d075 e13c bdbb d4bd b668 83bc
00000320: e316 843c 54ae 31bd 47b1 66bc 829b 43bc
00000330: dcb3 61bd c40c 2dbd 7643 193d add3 b8bd
00000340: 04d0 d5bd 262e 4cbd 5667 9abd 1d7e b1bd
00000350: 3826 2f3c 8974 71bd ddd3 2a3d 489a bbbb
00000360: 20cf b3bd d42e ec3c a7df c1bc d221 5abd
00000370: 5dc1 2dbd 8f91 03bc 5e7b 19bd 366d abbd
00000380: d009 84bc 1c6c df3c 8b77 113c c606 05bc
00000390: 3948 32bd a22a ccbc 8dfb 1dbd a660 abbd
000003a0: 3d0c 013c cbab 773c 5b94 c33c de6e e1bd
000003b0: 659b 0a3d f5f2 053d 86fb 473d ef86 58bb
000003c0: 7622 02bd 6404 3fbd 86ce 4fbd e5e9 97bd
000003d0: a529 08bd 4109 23bd 70f5 2fbd 3f3b 32bd
000003e0: a155 9bba d192 86bd 25cd 18bd a996 8c3c
000003f0: 927c 5c3d 4738 45bc cf98 bdbc d2ee b3bd
-0.075545505 -0.044119213 -0.0061003463 -0.02371622 -0.030590646 -0.028634045 -0.0338936 0.007976842
0.036710154 -0.051238798 -0.05059653 0.0028093506 -0.078159265 -0.005998956 0.031213718 -0.002023715
0.006665849 -0.02110814 -0.015916582 -0.05216072 0.034406636 -0.033606082 0.013399747 -0.034594893
-0.029018868 -0.117042154 -0.023371125 -0.08777471 -0.0226999 -0.03747305 0.028378762 -0.048035458
0.013732164 -0.032570858 0.042240568 0.033795897 -0.051029146 -0.046616256 0.03459479 0.011387867
-0.06533377 0.016592791 -0.025414463 -0.10957074 -0.026632177 -0.049879868 -0.08449322 0.037618816
-0.017900687 -0.0067972397 0.046792552 -0.05995474 -0.022387382 -0.025204513 -0.0800692 -0.029602017
-0.04879369 -0.030154785 0.0018477214 -0.034017008 -0.048787285 -0.012500013 -0.04674998 -0.008442113
0.018398423 0.009074782 -0.09979117 -0.001875195 0.02381526 -0.07449464 -0.04495421 0.03661859
-0.008643878 -0.037744198 -0.043841913 -0.042367347 -0.021274054 0.046763826 0.036626447 -0.06576318
-0.04974547 -0.0994012 -0.037305858 -0.047769073 -0.02214679 0.030110547 -0.04141683 -0.04410771
0.0019258623 -0.0012400714 -0.061409764 -0.088572346 0.046116427 0.0053426954 -0.044411052 0.050230194
-0.12399107 -0.0011273457 -0.04172085 -0.018455703 0.012255984 -0.04585991 -0.046855778 -0.072048075
-0.01828889 0.057995837 0.018456712 -0.021947889 -0.10454748 -0.11274204 0.020527512 -0.0981293
-0.040835705 0.0324827 -0.05793063 -0.08600017 0.007381152 -0.032998998 -0.12195585 0.049441982
-0.006399168 -0.11216564 -0.025537547 -0.10037447 -0.04020116 -0.009723853 -0.05196327 0.03017164
0.030393241 0.015778696 -0.0039667976 0.018577443 -0.05675797 0.053465128 0.0054097557 0.009148493
-0.01568101 -0.046665914 0.04197318 -0.028133133 -0.014781041 0.055841837 -0.0423073 0.046373807
-0.050283697 -0.073519915 0.03238247 -0.03688108 -0.11035093 -0.005680064 -0.104835704 0.012949215
0.032779656 -0.1039227 -0.024096066 0.02774053 -0.06950828 -0.013093842 -0.0260634 -0.019708682
-0.0345267 -0.020115126 -0.0477194 0.024771351 0.0322229 -0.043440808 -0.04302788 -0.050121956
-0.036281835 -0.07854548 -0.0019274318 -0.026645409 -0.048501905 -0.02292716 -0.11526846 -0.116370544
0.028172622 0.030571418 -0.039172485 -0.00953598 -0.032450557 -0.07948151 -0.041301522 -0.088274226
-0.027514774 -0.034271214 -0.02890124 -0.091915995 0.027592517 -0.05293589 -0.029976098 -0.0074711493
-0.043479696 -0.02746845 -0.037622146 -0.064903304 -0.009151388 0.027521998 -0.10387371 -0.016041141
0.016124194 -0.043379143 -0.014080352 -0.011938931 -0.055103168 -0.042248502 0.03741785 -0.09024749
-0.104400665 -0.049848698 -0.07539241 -0.08666632 0.010690264 -0.058949027 0.041705955 -0.005725179
-0.0877974 0.028830923 -0.023666216 -0.05325491 -0.042420734 -0.008030309 -0.037471168 -0.0837044
-0.01611796 0.02727323 0.008878599 -0.008119291 -0.04352591 -0.024922673 -0.038569976 -0.083680436
0.007876453 0.015116642 0.023874452 -0.11007474 0.033839602 0.032702405 0.048823856 -0.003303941
-0.031771146 -0.046635047 -0.050734065 -0.07417659 -0.03324284 -0.039803747 -0.042958677 -0.043513533
-0.0011851081 -0.06570972 -0.037305016 0.017161684 0.053829737 -0.012037343 -0.023144154 -0.08785786

temporal_conv.bias f4 [128]
00000000: 5c04 f4bd e88b a93e 3e7c 96bc 18da c8bd
00000010: 8c89 cebd 4583 fa3b 2837 b2bd 0081 cf3e
00000020: 11b4 14bb 160a edbd 33a0 afbd 59df c4bd
00000030: 9916 f83c 6f27 e5bd 3ebd dfbd db43 e83e
00000040: b4ea ddbd 12db 043f e745 49bd 952c c73e
00000050: b8fc 2ebd 410b 91bd be8c 9abd 7b7a d13c
00000060: 498f 81bd 904f eb3e 0adb dbbd f5fb 453e
00000070: 741e 873e fdc9 38bd 01f0 a4bc 95d6 e2bd
00000080: 4b5e 05be aa05 da3e 8065 50bd 0e32 2c3c
00000090: e747 88bd 8962 23bc 1cc2 a53d 5f34 b7bd
000000a0: 09c5 3ebe db09 603e e9fd 803e 4a07 25bb
000000b0: f31d 06bc b3aa c2bd feab c9bb ec0a 96bd
000000c0: 6efb 8e3c 69bb d1bd d0da 963d ba7d d23e
000000d0: 05c0 003f f76d e4bc e829 9bbd 2a07 a3bd
000000e0: 7ce1 793e 2e0c 6bbd 0146 2cbe dbd8 17be
000000f0: a85c 08be 78e8 923e 82c6 ecbd adae 29be
00000100: 376b b1bd 19d5 e2bc 8a12 da3e 84ba 8a3d
00000110: d967 76bd c2a1 9bbd 1c03 86bd 86b2 babd
00000120: 2f0b acbd d081 15be 4582 85bd bdaa d9bd
00000130: 0514 8ebd c2ec 22bb 90a3 8bbd 46b1 a6bd
00000140: 6f72 303d a843 9abc a986 c53e 56f9 033d
00000150: 4510 0dbd d5a5 113e 807b 56bc f2b1 b93c
00000160: 9f9e 04bd 74d7 003e f8cf 2f3e eff1 7cbd
00000170: a612 b4bd 951e 3abd 252a 78be f7cd 2dbd
00000180: b57d 8a3d e054 683d 0649 40bd 3b92 35be
00000190: 6ef5 55be f2f8 17be da44 7ebd 8fca e1bc
000001a0: 8b3c a7bd 97ff dcbd 8440 12bd 6ed2 a8bc
000001b0: f323 a73d f438 6f3e f16b 47be cd4e 09bd
000001c0: fe86 c8bd 0192 de3e d09e cebd 5e61 b23b
000001d0: a582 8cbd bca6 d4bd c9d2 c53e c595 bdbd
000001e0: 2434 54be 993f 1a3f 7fce a1bd 4a73 fbbd
000001f0: a994 e43d f87b 033f 5209 633e ad92 083e
-0.11914894 0.33114552 -0.01836979 -0.09807223 -0.10084829 0.007645043 -0.087019265 0.40528107
-0.0022690336 -0.11574189 -0.085754775 -0.09612913 0.030284213 -0.11189162 -0.10924767 0.4536427
-0.10835782 0.51896775 -0.04913893 0.389012 -0.04272148 -0.07082225 -0.07546376 0.025571099
-0.063261576 0.4595914 -0.10735138 0.19334395 0.2639042 -0.045114506 -0.020133974 -0.110760845
-0.13024251 0.42582446 -0.050878048 0.010509981 -0.06654339 -0.009972223 0.08093664 -0.08945536
-0.1862985 0.2187876 0.25193718 -0.0025181347 -0.008185851 -0.095052145 -0.0061545363 -0.07326302
0.017453875 -0.10240824 0.07365954 0.41111547 0.50293 -0.027884467 -0.07576352 -0.07960351
0.24402422 -0.057384662 -0.1682358 -0.14828818 -0.13316596 0.28692985 -0.115613 -0.1657054
-0.08663028 -0.027689504 0.4259227 0.06773856 -0.06015763 -0.07599212 -0.06543562 -0.09116082
-0.084005706 -0.14600301 -0.065189876 -0.10628269 -0.06937412 -0.0024860357 -0.068183064 -0.08139281
0.043077882 -0.01883109 0.385793 0.032220207 -0.034439344 0.14223416 -0.013090968 0.022667859
-0.032377835 0.12582189 0.17169178 -0.061754163 -0.087926194 -0.04543932 -0.24234827 -0.04243275
0.06762258 0.056721568 -0.04694464 -0.17731564 -0.20894405 -0.14841059 -0.06207738 -0.027562408
-0.081658445 -0.107909374 -0.03570606 -0.020608153 0.08161154 0.2336157 -0.1947477 -0.033522416
-0.09791373 0.43470767 -0.10088885 0.005443736 -0.06860856 -0.103833646 0.3863738 -0.09257082
-0.20723015 0.6025329 -0.07900714 -0.12277849 0.11161167 0.51361036 0.22171524 0.13337202

fc.weight f4 [36, 128]
00000000: 4244 a9bd 3497 5fbe 0770 bd3c 0db6 f8bc
00000010: aec7 843d 2099 c2bd 9123 67bd e3dd 8dbd
00000020: bc55 b1bd f0dc ffbd 80cf f0bd 2aaa bb3c
00000030: 8592 bbbd a0ed 1bbe 3bb3 27bd ed1f 90bd
00000040: 7ac6 27be f8d4 93bc d05d c43d 5750 4bbe
00000050: b65f 8b3d 093c 5ebd 5811 d5bd fd80 a1ba
00000060: fd87 46bd 1c80 73bd e9c9 15be 35b8 adbc
00000070: 2cb3 44be d379 8a3b 8ed3 743d ea02 c2bd
00000080: e007 45bd a657 3bbe 1fef 7dbb 2d56 a83d
00000090: a7a7 783a dd1b aebd 33f8 a9bd c4f9 b5bd
000000a0: 658e 26be d746 57be bc18 473d ac2b 5cbd
000000b0: 5d8b bdbd 8c52 0bbb 1e6e cbbc 33c3 343e
000000c0: 68cf 713d 9d0b b63d 6c71 f7bd 0b15 40bd
000000d0: 5cd2 13bd 3f12 05bd fa38 a63c d722 83bd
000000e0: 8671 92bd 64df 533d e601 493e 2b1b ba3d
000000f0: 7632 90bd cdc7 14be f3e6 5bbd 6ff6 3ebd
00000100: 1d88 153e cc27 833c 34a2 fc3c de1d e1bd
00000110: fc38 68bd 5de7 db3c f7da dbbc d756 8dbd
00000120: 254b c53b f62c f53c d496 d4bd 3e42 d7bb
00000130: f4f1 cabc 0e03 b13d 62b8 36be db43 ecbd
00000140: 6132 0abc a41d 9a3c 6451 dabc 4a49 98bd
00000150: e480 62bd 49e0 8d3c 2950 673d 1130 903d
00000160: 5397 f0bd 6a53 edbd 4571 d8bc 5d68 a9bc
00000170: 0bb3 f1bd d7c3 e73d 7de4 3abe d93c fc3c
00000180: d9c0 123d f38d 833c c4eb 42bd a0be 443d
00000190: 0b77 ffbd b932 bbbc 269b db3d 9008 723d
000001a0: 4eea 32bd 7a98 f2bc ed97 553d cd37 da3d
000001b0: 25f6 57bd b13f 9cbc 2735 2bbe 8954 823d
000001c0: dc17 58bd 6691 debd 80bf a6bd 9414 32bd
000001d0: faca 9abd 74f3 87bb a060 fdbd a66c 70bd
000001e0: 9298 903d c35c 56bd 2ac0 d83d 6a0d bbbd
000001f0: c81a 163e 409d 8fbd 62b7 92bc faa4 adbc
00000200: 9f23 91bd 2e2b 17be 6d89 823c 079c 1ebd
00000210: 4e9c 34bd e63f 8ebd 3eb8 22be ea44 81bd
00000220: 3756 a63b 30b0 b8bd 1276 edbb fa97 b0bb
00000230: 4c82 273d d27d d2bd 7600 eebd 761d 84bd
00000240: 0c69 72bd 3a88 11bd 19d0 bb3d 3282 c2bd
00000250: c569 3abd 3ba5 53bd 49cd b93a 74a1 b9bd
00000260: a9e3 4abc 6bc7 bebd 84f7 6fbb 13b1 acbd
00000270: 5010 0abe c451 ed3c 20d1 633d fe4c 6a3d
00000280: 8dea 863d 9af5 28be f30c 12bd e2a4 abbc
00000290: 9e59 d63c 6369 49bd 08c0 48bd bcb4 b2bd
000002a0: cb41 8ebd 50b8 96bc 25a5 6e3d 8333 3c3d
000002b0: 43af b0bc 3c6e 83bd 2d0d 903d 8ccf 223e
000002c0: 9040 5c3a 2b2e 7abd 7ea8 57bd d9b5 f0bc
000002d0: 41d8 9bba 1ee2 4c3c 3704 013c 8585 6abd
000002e0: 2450 18bd c6e2 8e3c f58f bc3d 8ecd bebd
000002f0: 8937 fabd a102 d7bd 639a 99bd 5be5 873c
00000300: e083 393c d6f1 03bd 9148 173e fda2 3dbd
00000310: ac03 f6bc 3501 6cbe 7535 f63c 7286 fabc
00000320: 2eba f6bd b818 d8bd cfb8 afbd 1187 c43c
00000330: e010 71bd 160f 323e 2e32 15be eb20 4dbd
00000340: c8f9 c2bd c08f 0fbd b9e1 8e3d 4ce6 1bbb
00000350: 1179 ddbd 6ee3 91bc 221b 273d 5c43 c3bc
00000360: a501 dbbb 6989 febd 8ad5 edbd a641 8cbd
00000370: 201e 1fbd 6075 093e f314 05be a3b7 5bbd
00000380: 921c 0fbd a9e1 fb3b bbf1 ce3c bd0f d33c
00000390: 92bf 77bd 8f7d f6bc 862e ce3c a668 6d3d
000003a0: b740 0d3e 562a 913d a831 03bd 2fb4 01be
000003b0: 0ac7 6dbd 251d 413c 40a5 bdbd f54e 6e3d
000003c0: b256 ccbc 5aba 0bbe b15c c7bd 1a00 89bd
000003d0: cb1d 1e3c 435e e1bb 1354 68be 4197 97bc
000003e0: ed03 19be d006 78bd 7bfe 7fbd ea31 adbd
000003f0: 8fa1 923d a19f 90bd 7eae 0ebd ddb6 81bd
-0.08264972 -0.21835023 0.023124708 -0.030360246 0.064833984 -0.095018625 -0.056430403 -0.06927087
-0.08658931 -0.12493312 -0.117583275 0.022908289 -0.09158806 -0.15227365 -0.040942412 -0.07037339
-0.16384307 -0.018045887 0.09588206 -0.19854866 0.06805365 -0.054256473 -0.10403699 -0.0012321767
-0.048469532 -0.059448346 -0.14627804 -0.021206 -0.19208974 0.0042259484 0.059772067 -0.09473212
-0.048103213 -0.18295154 -0.0038747264 0.08219562 0.00094854314 -0.08501408 -0.08299293 -0.0888553
-0.16265257 -0.21023117 0.048607573 -0.053752586 -0.09255097 -0.0021258919 -0.024832781 0.17652588
0.05903569 0.08888934 -0.120821804 -0.04689507 -0.036089286 -0.032488104 0.02029084 -0.064031295
-0.07150559 0.051726714 0.1962963 0.09087213 -0.07040875 -0.14529343 -0.053687047 -0.046621736
0.14602704 0.016010188 0.030839063 -0.10992025 -0.05669497 0.026843721 -0.026837809 -0.06901329
0.006020921 0.029928666 -0.10380331 -0.006569176 -0.024773575 0.08643161 -0.17843774 -0.1153638
-0.008434863 0.018812962 -0.026650138 -0.07435854 -0.0552987 0.017318862 0.05647293 0.07040418
-0.11747613 -0.115881756 -0.026421199 -0.020679647 -0.11801728 0.1131665 -0.18251224 0.030790733
0.035828445 0.016058898 -0.047588125 0.048033357 -0.124738775 -0.022851335 0.107229516 0.059090197
-0.04368048 -0.029613722 0.05214684 0.106551744 -0.052724976 -0.01907334 -0.16719495 0.0636378
-0.05275713 -0.10867576 -0.081419945 -0.043476656 -0.07558246 -0.004148895 -0.123719454 -0.058697365
0.070603505 -0.05233456 0.105835274 -0.09133418 0.14658654 -0.07012415 -0.01790971 -0.021196831
-0.07086872 -0.14762565 0.01593467 -0.038723018 -0.044094376 -0.069457814 -0.15890595 -0.063119724
0.0050761956 -0.0901798 -0.007246741 -0.005389211 0.040895745 -0.102779046 -0.11621182 -0.06450932
-0.05918221 -0.035530306 0.09170551 -0.09497489 -0.045511026 -0.051671248 0.001417556 -0.09063998
-0.01238338 -0.0931538 -0.0036616037 -0.08432212 -0.13482785 0.028969653 0.05561936 0.05720233
0.06587706 -0.1649994 -0.03565688 -0.020952646 0.02616578 -0.04917277 -0.04901126 -0.087258786
-0.06946143 -0.018398434 0.058262963 0.045947563 -0.021567946 -0.0641751 0.07033763 0.15899485
0.00084019545 -0.061079185 -0.05265092 -0.029383587 -0.001189001 0.012505082 0.00787454 -0.05725624
-0.037185803 0.017442118 0.09207145 -0.0931655 -0.12217624 -0.10498548 -0.0750015 0.016588857
0.011322945 -0.032213055 0.14773776 -0.046298016 -0.030031048 -0.23047335 0.030054787 -0.030581687
-0.1204723 -0.1055159 -0.08580171 0.023990186 -0.058853984 0.17388567 -0.14569923 -0.05008022
-0.09520298 -0.0350492 0.06976647 -0.002378839 -0.10814107 -0.017808642 0.04079736 -0.02383583
-0.0066835457 -0.12428553 -0.11612995 -0.06848459 -0.03884709 0.13423681 -0.12996273 -0.053641926
-0.034939356 0.007686813 0.02526175 0.02576434 -0.06048543 -0.030089168 0.025168668 0.05796113
0.13794218 0.07088153 -0.032029778 -0.12666391 -0.058051147 0.011786734 -0.092600346 0.058180768
-0.024943683 -0.13645306 -0.09734476 -0.066894725 0.009650658 -0.006877692 -0.22688322 -0.01850474
-0.14942904 -0.060553372 -0.06249855 -0.08456786 0.07159721 -0.07061697 -0.034834377 -0.063337065

fc.bias f4 [36]
00000000: ee8a acbe 2a2d 92be 0610 99be 3d0b c9bd
00000010: 7133 dabe 404a 1e3e d8f9 c4be 1776 cebd
00000020: a2c4 84be 5a48 dfbe bbb0 a5be b348 e83e
00000030: f274 c13d 885d 393e d7c5 7e3e b7be 013e
00000040: e8e7 193e 931e e2be b879 543d 73d7 723e
00000050: 8731 d2be 5af8 b7be 462e 283e 850e e93c
00000060: 4c68 323d 892f 173d bdb4 333e 9a78 cc3d
00000070: 13aa 4dbe 8a4a 01bb 7697 e63e 1842 473e
00000080: ae8d dabe e4c5 8e3e 62d8 893e 8f43 37bd
-0.33699745 -0.28550082 -0.29895037 -0.09816597 -0.42617372 0.15458012 -0.38471866 -0.100811176
-0.2593127 -0.43609887 -0.32361397 0.45367965 0.09446134 0.18102086 0.24880157 0.12670408
0.15029871 -0.4416395 0.051873893 0.23715 -0.4105341 -0.35931665 0.16423902 0.028449306
0.043556497 0.036910567 0.17549415 0.099839404 -0.2008441 -0.0019728267 0.4503743 0.19458807
-0.42686218 0.27885354 0.269229 -0.044742163

exp_avg f4 [30, 30]
00000000: a509 1a17 e0e8 8e16 9e3e 1c17 db31 6717
00000010: b8b9 a116 9f4c 2217 96d8 7416 54da 1f17
00000020: 4865 ec16 e2b8 1217 390b 3117 cfb2 1716
00000030: a126 4e17 2237 0f17 14e8 b016 5402 3317
00000040: bca9 1217 2c2f 9f16 c315 0517 1cc9 eb16
00000050: ffe4 7515 79f7 b316 f970 df16 94dd 3f17
00000060: 5495 9616 e442 1517 5493 5213 ddbc 0a17
00000070: b38d 4316 5f3e 7815 dd42 3016 9efe 8a17
00000080: ee77 ac17 a2c8 d717 6c75 3d96 662a e817
00000090: 7ede 0917 bda1 e617 1951 d817 8e9b db95
000000a0: 6a65 be17 97c7 1e16 31e1 f617 7c83 0318
000000b0: 6a4f c517 cff8 9617 95f5 c317 417b b817
000000c0: d85b ce17 1905 d695 48d4 a396 b7e9 9617
000000d0: dd41 d417 1bc2 b317 3350 7695 aa3c b517
000000e0: 2c0f 2096 3d83 9a17 4ab5 0814 2516 8c15
000000f0: c1ba 4596 f204 4217 b9bf 8e17 d1eb 8817
00000100: cdc8 f496 04ce aa17 96e5 2416 c54a a917
00000110: 8fbb a917 76d1 fa96 b5a4 6a17 f578 4796
00000120: 576e b317 48d6 c717 19d5 8817 41a8 5917
00000130: c40d a817 0dfe 8117 d490 aa17 bc9e da96
00000140: 525c cd96 3d7f 6317 c6a4 9017 634f 8317
00000150: 75c0 f796 0bd4 7d17 e6a5 2197 1b7d 8817
00000160: db23 4596 9da3 a196 005e da97 542c 2796
00000170: 3510 0297 6642 5597 ab3b a197 d21a e296
00000180: 0c44 f297 0e7f c096 ec4a bc95 88ae f797
00000190: dcc9 dd96 4b48 f197 dcd0 ec96 b9a9 0396
000001a0: 52de e896 3b6f 4497 9466 1497 6545 7e96
000001b0: c3f5 e396 1ee8 ed97 d769 d897 aebc e096
000001c0: df96 c196 ad25 8595 5fab cc97 4eeb 8996
000001d0: fd42 eb97 50b1 0197 c565 0d98 f748 d397
000001e0: cc61 d196 470d 9e16 da9b 0717 2cf9 1617
000001f0: f512 6196 4375 da16 f8ef e996 bb5b bf16
00000200: d429 9b16 493d d996 b2d9 1017 628b 0897
00000210: 63f6 dc16 b848 be16 bb17 dd16 143a c416
00000220: 410a 1a17 d8f8 2c16 7c47 1117 207d 8396
00000230: 3801 ec96 55c4 bc16 23e0 d416 378f d216
00000240: ca53 b696 4314 2817 f8cd 1597 4a24 bf16
00000250: e335 0697 2c55 1897 13db 6d15 6bfc ad16
00000260: 70eb e116 ea89 2017 8b8d 1e16 f9a2 2717
00000270: b631 ce94 cf43 0117 cea4 f216 8683 2016
00000280: 7555 1317 9f62 2d96 9d79 2517 592d ec16
00000290: a608 eb16 feb4 ed16 918b 1b17 0eb5 ab16
000002a0: 7158 0417 4334 cb15 1933 d994 c2dd ac16
000002b0: 74a1 c916 7eb0 e316 70d5 7615 00bb 1317
000002c0: 2bae 1796 606c d316 bd53 b615 b694 d494
000002d0: 5175 3197 d8e3 1d97 adea 5397 4603 6097
000002e0: 0b5b 0497 b0cf 3297 1a26 e296 ca88 1597
000002f0: 209d 5597 ef9d a596 7a2d 3797 4f1e 8f96
00000300: 8e47 6297 8bf4 4597 f797 2c97 d53f 2b97
00000310: 36d4 8997 128d 4a97 a1c9 4797 0900 e996
00000320: 59d3 be96 cda9 4497 ea2c 3d97 fd36 1997
00000330: b85f 5e96 54d2 6397 3f21 e496 903b 4697
00000340: 244b 2597 c8ca bf96 e6be b095 6c64 b916
00000350: 324d 8816 5ef2 e816 9d93 4596 a5cb d716
00000360: db47 8b96 6cf1 b316 b3af bd16 fa25 3896
00000370: 267a d016 bfed ce96 6f29 0317 8685 d716
00000380: 9cef 9e16 75a2 b016 6d96 d316 9079 9016
00000390: 016c 0017 a388 0c96 497c 4496 b8ba a716
000003a0: 7743 9916 5c88 0517 6193 4f96 1d2f 9c16
000003b0: c7fc b996 80f6 a916 2fd2 ab96 d0a3 8396
000003c0: 452d fd16 ce86 4b16 2c30 3817 e29a 2817
000003d0: 47f1 0717 c9e9 6d17 4e57 e916 e49b 1d17
000003e0: 1161 7217 7e21 d016 0247 6217 65b2 8e16
000003f0: 5b86 7717 9472 5617 ca7a 0317 91ab a116
4.9772257e-25 2.3088302e-25 5.0485353e-25 7.470305e-25 2.6128158e-25 5.2441733e-25 1.9778506e-25 5.165124e-25
3.8191774e-25 4.74085e-25 5.720595e-25 1.2254105e-25 6.6610946e-25 4.627538e-25 2.8580795e-25 5.784096e-25
4.738938e-25 2.5717605e-25 4.3002085e-25 3.8093216e-25 4.9658002e-26 2.9075187e-25 3.609889e-25 6.19951e-25
2.4328046e-25 4.8228924e-25 2.6578365e-27 4.4828584e-25 1.5796687e-25 5.0132403e-26 1.4238265e-25 8.982315e-25
1.1145514e-24 1.3944696e-24 -1.530435e-25 1.5003351e-24 4.454791e-25 1.490423e-24 1.3979145e-24 -8.869882e-26
1.2304063e-24 1.2826118e-25 1.5954224e-24 1.6997736e-24 1.2750874e-24 9.756331e-25 1.2663573e-24 1.1921835e-24
1.3335623e-24 -8.6441954e-26 -2.6468039e-25 9.752521e-25 1.3716805e-24 1.1616603e-24 -4.974257e-26 1.1712165e-24
-1.2929484e-25 9.985146e-25 6.901998e-27 5.658049e-26 -1.5972462e-25 6.2691023e-25 9.224933e-25 8.848322e-25
-3.954705e-25 1.1037998e-24 1.3320259e-25 1.0940244e-24 1.0968715e-24 -4.0521867e-25 7.5817367e-25 -1.6113259e-25
1.1595458e-24 1.2914166e-24 8.842587e-25 7.032885e-25 1.086022e-24 8.400561e-25 1.1022552e-24 -3.5319975e-25
-3.3177799e-25 7.3508253e-25 9.347377e-25 8.485717e-25 -4.002646e-25 8.2016345e-25 -5.22313e-25 8.820375e-25
-1.5924847e-25 -2.6114207e-25 -1.4111649e-24 -1.350414e-25 -4.202572e-25 -6.890782e-25 -1.0419443e-24 -3.6529195e-25
-1.5656061e-24 -3.1099456e-25 -7.60508e-26 -1.6006059e-24 -3.5831867e-25 -1.5592509e-24 -3.8259665e-25 -1.0635651e-25
-3.7621925e-25 -6.347141e-25 -4.795085e-25 -2.0539854e-25 -3.6828925e-25 -1.5374361e-24 -1.3985391e-24 -3.6308225e-25
-3.1276045e-25 -5.3777714e-26 -1.3226451e-24 -2.2282042e-25 -1.5203429e-24 -4.190595e-25 -1.8275203e-24 -1.3653974e-24
-3.382749e-25 2.5534656e-25 4.3817565e-25 4.8782113e-25 -1.8181337e-25 3.5293802e-25 -3.7794622e-25 3.0915604e-25
2.5067998e-25 -3.5096917e-25 4.680368e-25 -4.4119896e-25 3.569841e-25 3.0742048e-25 3.5719452e-25 3.170216e-25
4.9773026e-25 1.397257e-25 4.6942253e-25 -2.1243156e-25 -3.8128625e-25 3.049694e-25 3.4391897e-25 3.401771e-25
-2.9456564e-25 5.43093e-25 -4.8404466e-25 3.0880616e-25 -4.336575e-25 -4.922135e-25 4.8034588e-26 2.8108956e-25
3.6499292e-25 5.187286e-25 1.2807801e-25 5.416631e-25 -2.0820292e-26 4.1767735e-25 3.9201215e-25 1.2966199e-25
4.7606124e-25 -1.4005948e-25 5.3467873e-25 3.8156475e-25 3.7971756e-25 3.8403637e-25 5.025936e-25 2.7740802e-25
4.276313e-25 8.20735e-26 -2.1931555e-26 2.7928048e-25 3.2575193e-25 3.678521e-25 4.9847677e-26 4.773429e-25
-1.225264e-25 3.4157283e-25 7.364133e-26 -2.1465186e-26 -5.733986e-25 -5.1017015e-25 -6.847398e-25 -7.2382435e-25
-4.2766413e-25 -5.777704e-25 -3.6536315e-25 -4.831715e-25 -6.902233e-25 -2.6756858e-25 -5.918789e-25 -2.3122023e-25
-7.3114853e-25 -6.396279e-25 -5.5768004e-25 -5.5333647e-25 -8.906987e-25 -6.5447776e-25 -6.455486e-25 -3.7643202e-25
-3.0829535e-25 -6.3545334e-25 -6.1125883e-25 -4.950637e-25 -1.7963221e-25 -7.3613127e-25 -3.6856368e-25 -6.405243e-25
-5.3409216e-25 -3.0985687e-25 -7.138702e-26 2.9951737e-25 2.2020702e-25 3.7634577e-25 -1.5960112e-25 3.486364e-25
-2.2502008e-25 2.9071368e-25 3.0645479e-25 -1.4875385e-25 3.36813e-25 -3.3431134e-25 4.238068e-25 3.4819389e-25
2.5677491e-25 2.8536858e-25 3.418382e-25 2.3341171e-25 4.149535e-25 -1.1352225e-25 -1.5871971e-25 2.7098141e-25
2.476106e-25 4.3146727e-25 -1.6767831e-25 2.5232892e-25 -3.0047887e-25 2.7458986e-25 -2.7759184e-25 -2.1267572e-25
4.0902924e-25 1.6440746e-25 5.951441e-25 5.4479217e-25 4.3925387e-25 7.687391e-25 3.7698277e-25 5.09262e-25
7.831693e-25 3.362535e-25 7.3114163e-25 2.305392e-25 7.9979585e-25 6.9291747e-25 4.2483364e-25 2.6119226e-25
