situation_analysis/updated_model/model_window60_horizon10.pth (torch, 938130 bytes, 27 tensors)

adapt_adj f4 [60, 60]
000000 06 fd 7c 3f 75 fd 49 bc ad cc 5f bc 71 1a 8a bc
       0.98823583 -0.012328495 -0.013659638 -0.016858311
000010 54 91 79 bc ba 7e 80 bc 30 83 8c bc 4e b3 86 bc
       -0.015232403 -0.015685428 -0.017152399 -0.016442921
000020 d8 de 99 bc c8 60 9b bc 35 64 88 bc d4 08 81 bc
       -0.018783018 -0.018967047 -0.016649345 -0.01575128
000030 0c fd 83 bc ae 96 81 bc 65 ea 45 bc 1a 5f 46 bc
       -0.016111873 -0.01581892 -0.01207981 -0.012107635
000040 15 22 1b bc 68 a6 c1 bb 93 77 93 bb 39 52 7a bb
       -0.009468575 -0.0059097297 -0.0045003383 -0.0038195981
000050 71 43 22 bb ad d8 8c bb fb d7 bc bb 0f 0c bc bb
       -0.0024759436 -0.0042982907 -0.0057630516 -0.005738742
000060 2d 73 ef bb 1e 75 08 bc cb 1f e6 bb 25 2c fc bb
       -0.007307431 -0.008328704 -0.007022833 -0.007695692
000070 25 5d 01 bc f8 69 bf bb 61 b7 fd bb e6 59 01 bc
       -0.007895743 -0.00584149 -0.0077428077 -0.007894969
000080 c4 ba 98 bb c6 93 3c bb 5c c5 91 ba 50 9e cb ba
       -0.004660936 -0.0028774603 -0.001112144 -0.0015534852
000090 88 e1 11 ba 7c ae 00 3a f3 a9 16 3b 8a 0a 33 3b
       -0.0005564918 0.00049088127 0.0022989481 0.0027319514
0000a0 37 d4 72 3b 91 fe 43 3b 03 1b 95 3b 21 41 c8 3b
       0.003705276 0.0029906372 0.004550339 0.0061112796
0000b0 fe eb e5 3b 1d df da 3b 7d 95 e4 3b 32 13 03 3c
       0.007016658 0.006679429 0.006975828 0.008000182
0000c0 7d 5b 15 3c 5b 69 0e 3c 1f 93 1c 3c 69 dc 1c 3c
       0.009116051 0.008692111 0.009556561 0.009574034
0000d0 70 a3 2a 3c 8b 92 3b 3c 5f e9 3e 3c e8 1c 7a 3c
       0.010414943 0.011448513 0.01165232 0.015265681
0000e0 02 54 81 3c 93 ef 97 3c b5 13 b5 3c 96 f8 a3 3c
       0.015787128 0.018546855 0.022104124 0.020015996
0000f0 75 b0 9e bc ee 8e 7a 3f 1d 0a ba bc b7 ab c7 bc
       -0.01937125 0.97874343 -0.0227099 -0.024373872
000100 b9 72 b6 bc 12 f7 b5 bc 68 48 be bc 2b 2c bc bc
       -0.0222715 -0.022212539 -0.023227885 -0.02297028
000110 e0 99 cf bc 48 ed cd bc 84 96 bd bc 3c 25 b6 bc
       -0.025341928 -0.025137559 -0.02314306 -0.022234552
000120 d4 24 ad bc 4b 90 ad bc 0e 0f 93 bc 9e 4a 91 bc
       -0.021135725 -0.021186968 -0.017951515 -0.017735776
000130 82 d4 7a bc 6b 94 44 bc 29 02 33 bc 44 1b 2b bc
       -0.015309455 -0.011998276 -0.010925808 -0.010443512
000140 f9 55 13 bc 6e 37 2a bc e9 f0 42 bc c5 7b 40 bc
       -0.008992665 -0.010389192 -0.011898258 -0.011748259
000150 47 63 5e bc 90 a5 69 bc ed 0f 5c bc e5 9a 64 bc
       -0.013573474 -0.014260665 -0.013431531 -0.013952945
000160 7a 3c 42 ba fb e7 20 bc 71 a8 b8 3a ba 5c 3e bc
       -0.00074095244 -0.009820933 0.0014088285 -0.011618787
000170 a0 95 21 bc 75 90 06 bc 9e 8f cd bb 5b 69 e0 bb
       -0.009862334 -0.008213152 -0.006273224 -0.006848497
000180 b9 d7 b3 bb 35 a9 91 bb 18 c7 1c bb 80 75 99 ba
       -0.0054883626 -0.00444522 -0.002392238 -0.0011707991
000190 ac 61 f0 b9 5d f6 c6 ba ea da 78 ba fa 26 e2 39
       -0.00045849138 -0.0015179623 -0.000949307 0.0004313512
0001a0 44 8d d1 3a 87 9c 20 39 cc 03 dc 38 32 57 35 3a
       0.0015987535 0.000153171 0.00010491125 0.0006917595
0001b0 7c 5c 8e 3a c1 cf 03 3a e6 0b 9b 3a 3d ed f4 3a
       0.0010861303 0.0005028211 0.0011829108 0.0018686425
0001c0 60 fa 2a 3b 46 83 7c 3b 17 b0 8a 3b 88 be 03 3c
       0.0026089177 0.0038530394 0.0042324173 0.008041032
0001d0 b7 99 1a 3c 6d 1a 3a 3c 0c 28 76 3c 26 e9 50 3c
       0.009436063 0.011358839 0.015024196 0.012750899
0001e0 78 63 08 bd 9c 03 14 bd c2 8c 76 3f 12 0b 17 bd
       -0.033297986 -0.036136255 0.9630853 -0.03687579
0001f0 7d ea 14 bd 15 ac 10 bd 5c e4 0d bd d5 9d 12 bd
       -0.036356438 -0.03532036 -0.03464161 -0.03579505
000200 32 40 19 bd 13 66 15 bd 10 56 b1 bc a3 bf ac bc
       -0.037414737 -0.0364743 -0.021647483 -0.021087473
000210 0e d1 a4 bc 1b a1 a5 bc 41 ad 9d bc 17 f2 98 bc
       -0.020119216 -0.020218423 -0.019247653 -0.018670125
000220 b8 11 96 bc c4 49 87 bc 04 f6 8f bc d4 27 8a bc
       -0.018318996 -0.016514666 -0.017573364 -0.016864695
000230 cc ba 63 bc d1 ca 72 bc a7 e4 60 bc 20 7c 59 bc
       -0.013899516 -0.014818863 -0.01372639 -0.013274223
000240 87 bd 7e bc b6 e2 85 bc ad 11 8f bc f7 e1 8a bc
       -0.0155481165 -0.016343456 -0.017464483 -0.016953452
000250 df 66 80 bc 1d 50 4f bc 03 46 28 bc 49 2b 17 bc
       -0.015674053 -0.012653378 -0.010270598 -0.009226629
000260 0d 07 fb bb f8 e9 b1 bb 3e 01 74 bb ac d5 92 bb
       -0.0076607526 -0.0054295026 -0.0037232186 -0.004481038
000270 58 12 63 bb 72 c9 52 bb 29 3e 5a ba 0f 56 b0 3a
       -0.0034648385 -0.0032163528 -0.00083253026 0.0013453382
000280 ea c7 26 3b e6 17 04 3b b9 e8 84 3a ac ea 2d 3b
       0.0025448748 0.0020155846 0.0010140158 0.002653758
000290 8c 9e 2e bc 36 1c 37 bc 26 05 2b bc 10 cd 2d bc
       -0.010657918 -0.01117616 -0.010438239 -0.010607973
0002a0 d8 7d 38 bc ce 06 5a bc 14 3f 37 bc 28 d9 28 bc
       -0.011260472 -0.013307286 -0.011184473 -0.01030568
0002b0 87 cb 13 bc e7 01 0b bc a7 c7 16 bc 22 3a f9 bb
       -0.009020693 -0.00848434 -0.009202874 -0.007605807
0002c0 6f ac a2 bb 3d c8 b8 bb 9c 55 41 bb 53 ae 85 bb
       -0.0049644033 -0.0056391046 -0.002950049 -0.004079619
0002d0 0c 6e d3 3c ee 09 df 3c 0a c1 c8 3c 2f 05 84 3f
       0.02580931 0.027226415 0.02450611 1.0314082
0002e0 3e ac 1c 3d 16 f3 31 3d 91 46 2a 3d 34 a4 32 3d
       0.0382502 0.043444715 0.041571204 0.043613628
0002f0 f0 30 1d 3d 8d 86 12 3d cf d1 06 3d 74 9e 21 3d
       0.03837675 0.03577285 0.032914933 0.039457753
000300 82 64 2e 3d 7c 85 2d 3d 3e dd 1f 3d 21 23 33 3d
       0.04257632 0.04236363 0.039029352 0.043734673
000310 f8 7f 4a 3d e7 6e 46 3d 39 c1 48 3d 3f c0 37 3d
       0.049438447 0.04844561 0.049012396 0.044861075
000320 6f fd 2b 3d 0f 2e 42 3d 33 84 5c 3d ff 4a 67 3d
       0.04198974 0.047407206 0.053837012 0.056468006
000330 a0 15 68 3d 1f 26 59 3d d0 f3 40 3d 15 9b 3b 3d
       0.05666125 0.05301487 0.047107518 0.045802195
000340 cb fe 46 3d 8b 44 4f 3d 0b 2e 3c 3d 18 79 30 3d
       0.048582833 0.050602477 0.045942347 0.043084234
000350 df e4 3c 3d 60 dd 3d 3d 6c fe 4f 3d 0f e5 62 3d
       0.046116706 0.046353698 0.050779745 0.05539423
000360 10 68 57 3d 57 48 10 3d 2c fe 3a 3d a2 58 11 3d
       0.052589476 0.03522524 0.045652553 0.035484917
000370 ec 0e 03 3d e0 da 00 3d 99 b5 17 3d ff 5a 24 3d
       0.031996652 0.031458735 0.03703842 0.040125843
000380 71 d2 2b 3d 40 62 11 3d 4c 26 10 3d 71 dd f4 3c
       0.04194874 0.03549409 0.035192773 0.029890748
000390 35 6c d9 3c e2 44 01 3d b8 4a 04 3d f8 71 0e 3d
       0.026540855 0.031559832 0.03229782 0.034776658
0003a0 08 ff 16 3d df 89 05 3d cb 6e 0f 3d 04 c6 1a 3d
       0.03686431 0.032602187 0.03501777 0.0377865
0003b0 0a 1f 12 3d 2b dd 08 3d 23 b9 2e 3d 88 85 28 3d
       0.035674132 0.033414047 0.04265703 0.04114297
0003c0 db 61 a0 bd 05 84 a1 bd 19 9f a6 bd 46 0e 97 bd
       -0.078311644 -0.07886509 -0.08135814 -0.07375769
0003d0 85 5d 6e 3f 50 79 85 bd 7b f9 88 bd ab 44 85 bd
       0.9311145 -0.06517279 -0.066882096 -0.06507238
0003e0 2f ba 93 bd 90 37 98 bd f3 e3 9a bd 56 88 90 bd
       -0.07213246 -0.07432473 -0.07563009 -0.07057254
0003f0 10 d5 89 bd f5 85 89 bd 45 1f 8d bd 2e 2f 86 bd
       -0.067300916 -0.067150034 -0.0689073 -0.065519676

gc1.fc.weight f4 [128, 30]
000000 a2 a3 3e 3e aa 78 3f bd 5c 1c 01 3d 68 42 47 3e
       0.18617108 -0.046745934 0.031521186 0.19458926
000010 76 51 8a 3e 99 08 fd bd fe 84 a5 3c 98 f2 ff bb
       0.27015275 -0.123551555 0.020205017 -0.007810902
000020 1d 9c 6e 3e 9f 26 f9 bd 6d 45 5e 3e 42 6d 0a 3e
       0.2330174 -0.121655695 0.21706171 0.13518241
000030 73 47 0f bd 9c bc b5 bc d8 63 03 be 24 93 92 ba
       -0.03498025 -0.022184663 -0.12831056 -0.0011182767
000040 b0 ff 6d 3d e7 b2 d1 3d 04 6d 0c 3e ed 5d d5 bd
       0.05810517 0.10239201 0.13713461 -0.104183055
000050 e2 3d 29 3e aa d1 ea bd d2 9d b8 bb ed 69 66 be
       0.16527513 -0.114657715 -0.005634048 -0.22501345
000060 96 d7 b3 bd 87 0f 88 3d 8d 6e 24 3d 80 fb 37 3e
       -0.08781354 0.066435866 0.040144492 0.17967033
000070 26 de 85 bd d7 e0 4e bc 06 9e 98 3d cf 35 da bd
       -0.06536512 -0.012626848 0.074520156 -0.106547944
000080 23 c3 38 bc ae 68 45 be a9 45 98 3d e1 cb 24 3e
       -0.011276993 -0.19278213 0.074351616 0.16093399
000090 24 c2 a5 bd 31 74 6c 3d cd e5 82 bd dc 84 2a be
       -0.0809367 0.057727996 -0.06391487 -0.16652244
0000a0 51 f0 11 3d dc 1d 86 3c f8 c1 b4 bb d0 00 a3 3a
       0.035629574 0.01637166 -0.005516287 0.0012436155
0000b0 dd 0f 14 be 65 57 f0 bc 34 7c f6 bd b7 9e 29 be
       -0.14459176 -0.029338548 -0.120354086 -0.16564451
0000c0 6d 70 68 bc c6 9a 29 be 71 b8 15 3e 0f 62 e2 bd
       -0.014186961 -0.16562948 0.1462114 -0.110538594
0000d0 e0 b7 70 be 97 ad a2 bc 5d 96 fe bd 70 db a7 3c
       -0.23507643 -0.019858165 -0.12431023 0.020490378
0000e0 61 44 4e be 3c 15 a5 3d af aa d9 3c 38 d1 47 be
       -0.20143272 0.08060691 0.026570646 -0.19513404
0000f0 40 bb 32 bd 98 53 09 39 aa a3 43 bc 89 7b 98 3d
       -0.043635607 0.00013096479 -0.011940876 0.074454375
000100 d8 f9 b7 3c 5e c0 d9 bc b5 62 37 be c6 d1 9a bc
       0.022458002 -0.026580986 -0.17908747 -0.018898856
000110 48 37 a2 3d aa 80 38 3e 36 51 92 bd a9 dd ce bd
       0.079207 0.18017831 -0.07144396 -0.10100872
000120 65 3e 7c bc b3 14 35 3c 2b 43 4d 3e 25 52 e1 3d
       -0.015395735 0.011052298 0.20045154 0.11001996
000130 ed 49 06 be 0a 5b dc bd ce 3d 90 3d a3 2c 56 3d
       -0.13114138 -0.10759552 0.07043038 0.052288663
000140 e4 2d 00 3e 41 2e f5 bd 72 92 7a 3c e5 e7 87 3d
       0.12517506 -0.11971713 0.015293704 0.06636027
000150 74 99 f4 3c 5d 4b 74 3d 2c fb 8e bc 7b 39 a6 3d
       0.029858328 0.059642185 -0.017453752 0.08116432
000160 13 b0 d6 3d e7 d5 c6 3d bd 79 c9 bd b2 2a 3a 3e
       0.10482802 0.097087674 -0.09837673 0.1818035
000170 0a 71 01 be ba 96 0e 3e 38 56 93 bb 57 ae 0a be
       -0.12640777 0.13924685 -0.004496362 -0.13543068
000180 9d cc 50 bd a2 a7 9c bd dc 69 45 3d c7 73 50 be
       -0.050976384 -0.07649161 0.04819666 -0.20356666
000190 99 d4 42 3e 45 82 36 be 8b 65 6f bd 2e 5b e6 3d
       0.19026412 -0.17823131 -0.05844645 0.1124786
0001a0 16 45 52 3d 74 a5 d0 3d 5e 0b 25 bd 51 15 6d 3d
       0.051335417 0.10187808 -0.040294044 0.057881657
0001b0 fc 96 01 be 65 1a 16 3e 78 bf 55 bc 76 82 fc 3d
       -0.12655252 0.14658506 -0.013046138 0.12329571
0001c0 2b 3a 86 3d df f4 6a bd 04 e5 ab b8 47 f6 27 bd
       0.065540634 -0.057362434 -8.196573e-05 -0.041006353
0001d0 a5 ef ef bd 6d f6 26 3d 8c b0 81 3d 0b 94 18 3d
       -0.117156304 0.040762354 0.06332502 0.03725056
0001e0 31 e4 71 3d 74 53 b3 bc 05 ed 0f 3d 02 c9 c3 3c
       0.05905551 -0.02189038 0.03513815 0.023899559
0001f0 55 84 11 be 3a dc 6d bd 5a b0 2a be b4 ec 9c 3d
       -0.14210637 -0.058071353 -0.16668835 0.07662335
000200 18 cf 1d bd 98 90 d2 3d 76 e4 24 3e bf da cc bd
       -0.038527578 0.10281485 0.16102776 -0.1000266
000210 50 29 43 be c5 09 4e bd 27 14 06 be 45 b8 64 3c
       -0.19058728 -0.050302286 -0.13093625 0.013959949
000220 e5 4d 1e 3e 0a a1 8e 3d 8b 21 dd 3d 71 a5 2d be
       0.15459402 0.069643095 0.107974134 -0.16957642
000230 87 b0 3a 3c 5c 12 d8 bd 7c 28 a5 3d 56 f1 e6 bc
       0.011394626 -0.10550377 0.080643624 -0.02819125
000240 42 b3 1e be 6f 0e be bd e2 38 24 be 19 ee 81 3d
       -0.15498069 -0.09280097 -0.16037324 0.06344242
000250 47 42 ba bd 6c de 09 be 12 f0 d0 bd 34 2f c3 bd
       -0.09094673 -0.13463753 -0.1020204 -0.09530488
000260 6a 38 58 3d 14 97 10 3e 69 4e b3 3d 7d 98 5a 3d
       0.052788176 0.14120132 0.0875519 0.05336808
000270 db ec 7f 3d 51 65 11 bc 35 d9 de 3d d6 c0 c9 bd
       0.062481742 -0.008874253 0.10881273 -0.09851234
000280 26 cb ce 3d 23 47 57 bd aa 71 42 be 18 95 14 3d
       0.10097341 -0.052558076 -0.18988672 0.036275
000290 09 c0 98 bd de f3 04 3e d9 eb 8a 3d 26 53 13 3c
       -0.07458503 0.12983653 0.067832656 0.008991992
0002a0 18 8f 14 be da 09 48 be 20 ea 34 3e 38 fa 52 bd
       -0.14507711 -0.19535008 0.17667437 -0.05150816
0002b0 8c 64 b0 3d ea 6f 12 be f0 b8 e3 bd 02 62 e2 3c
       0.08612928 -0.14300504 -0.111192584 0.027634624
0002c0 39 33 31 bd ef 96 5b be d8 e7 c4 3d f9 ee 68 bd
       -0.04326174 -0.21444295 0.09614533 -0.056868527
0002d0 62 bd 3e be d1 a3 b2 3d 65 41 36 3e 3a ba cc 3d
       -0.18626931 0.08722652 0.17798384 0.099964574
0002e0 c8 83 6a be 9f 3b b1 3d b4 f3 a4 bd e8 dd 3f 3e
       -0.22901833 0.0865395 -0.08054295 0.18736994
0002f0 6a 93 39 bd b7 e7 f2 3d 32 ce d7 3d 00 cf c0 bd
       -0.0453066 0.11860602 0.105373755 -0.09414482
000300 84 c2 4c bd 65 67 b0 bd c0 cc 45 3d b2 e9 18 bc
       -0.049990192 -0.08613471 0.048290968 -0.009333061
000310 c3 01 91 3d 43 c5 bc 3d df be 80 bd c5 7c e7 3d
       0.07080414 0.09217312 -0.06286406 0.11303095
000320 56 7e 2a be d0 d9 dc 3d a2 61 23 be 38 2f 14 be
       -0.16649756 0.10783732 -0.15955213 -0.14471138
000330 96 fd be 3d fa 32 9b bd fa 89 0d be 30 86 20 3e
       0.093257114 -0.075780824 -0.13822165 0.15676188
000340 c6 e1 ea bd fe ec 55 3e a0 0e 81 38 72 ac c3 bd
       -0.11468844 0.20891187 6.1539235e-05 -0.09554376
000350 ad 4d 10 bc b3 a2 1c 3e 71 73 38 3e 3c cd 6a bc
       -0.008807582 0.1529644 0.18012787 -0.014331158
000360 d6 4f 0a 3c b7 17 00 3e 28 0c 1f 3e d5 46 cd 3d
       0.008441886 0.12509046 0.15531981 0.10023276
000370 67 40 99 bd fc 2e 03 3e c9 22 f5 bd 18 40 e6 bb
       -0.07482987 0.12810892 -0.11969525 -0.0070266835
000380 8a 1d 18 be 5d 00 01 3e 12 17 4c be a9 15 cb 3d
       -0.14855018 0.12597795 -0.19930676 0.09916241
000390 b4 ff 2d be 6d 6d 02 be 61 a5 26 be 2f 4b 8f bd
       -0.16992074 -0.12737055 -0.16274025 -0.06996762
0003a0 3f ee b3 bd 9d 6f 5c 3d 96 12 0d be 3f 6d 0c 3e
       -0.08785676 0.05381738 -0.13776621 0.13713549
0003b0 7e 01 68 3d c3 74 2f 3e 1b b1 f5 3b 87 2e 45 3d
       0.056642048 0.17134385 0.0074979193 0.048140075
0003c0 1f 27 47 3e 54 58 0a 3e fa bb 12 3e a3 98 20 3d
       0.19448517 0.13510257 0.1432952 0.039208066
0003d0 8c c1 2a be 7d 26 18 be 6b c6 48 bd c5 0f 90 3d
       -0.16675395 -0.14858432 -0.04901735 0.07034258
0003e0 04 b2 89 bc 73 a9 9e bd ca de 10 be 95 3f 0e 3c
       -0.016808517 -0.077471636 -0.14147487 0.008682151
0003f0 8b 89 25 3d 78 8a cc 3d e8 b3 aa 3c c7 57 51 be
       0.040414374 0.09987348 0.02083774 -0.2044364

gc1.fc.bias f4 [128]
000000 32 60 69 bc 19 4c c5 3c 03 8b 0c bd c6 ee 0e be
       -0.014244126 0.024084138 -0.03431226 -0.13958272
000010 cb bf 4b bb f5 0a 6e bc 6b fe 86 bc b6 fe 85 be
       -0.003108966 -0.01452898 -0.016478738 -0.26170892
000020 94 08 ab bc 11 14 14 bd 37 93 90 be cc 39 2c 3d
       -0.020878114 -0.03615195 -0.28237316 0.042047307
000030 80 5e 85 be b7 39 97 3c 5e da 88 be 3a 6e 84 3d
       -0.2604866 0.018460138 -0.267291 0.064663365
000040 04 a8 cc bd 84 4a c3 bd 32 1c 96 bd 71 52 3e be
       -0.09992984 -0.09535697 -0.073295966 -0.18586136
000050 d8 ea 55 bd 46 34 ff 3c 90 65 1c be fa 1c 59 3b
       -0.052225918 0.031152856 -0.15273118 0.0033128844
000060 23 af 65 be ba 23 a8 3d c1 93 fd bb 6a 65 0b be
       -0.2243009 0.08209939 -0.007738561 -0.13612905
000070 59 fc 43 3c 92 21 08 3b 47 60 0f be 93 95 e0 3c
       0.01196202 0.0020771963 -0.1400157 0.027415073
000080 c9 0a 1c 3e fe f8 0d be 0c 48 ae bc 86 91 3c bd
       0.15238489 -0.13864514 -0.021274589 -0.04603722
000090 46 a1 1e be 75 83 6d be af 29 e0 bc 59 ba 53 be
       -0.15491208 -0.23194678 -0.027363626 -0.20676555
0000a0 3a 27 ef be 45 8c 06 3d 41 24 8b be 08 d0 6e be
       -0.46709615 0.032848615 -0.27176097 -0.23321545
0000b0 3a 1f 25 3d 4a 39 4b bd ff a6 96 be 7e 98 d7 bd
       0.040312983 -0.049615182 -0.29424283 -0.105271325
0000c0 97 9f 3b bd d5 64 73 bd ff cc 67 be b2 f9 bb bd
       -0.045806494 -0.059422333 -0.22636794 -0.09178485
0000d0 02 f6 53 bd a8 1c 6d be 42 01 8f be 53 74 66 be
       -0.051748283 -0.23155463 -0.27930647 -0.22505312
0000e0 c0 c2 96 bd cb d4 be bd cf 69 42 bc 19 1b 67 bc
       -0.07361364 -0.09317931 -0.011866047 -0.014105582
0000f0 84 07 ca 3d 0f b0 5a be e6 3a b0 bd e4 c5 79 be
       0.09864715 -0.21356224 -0.08604984 -0.24391896
000100 24 07 51 be eb d9 78 be d4 43 9e 3c d2 f6 a5 bd
       -0.2041288 -0.24301879 0.019319452 -0.08103718
000110 c0 d7 11 3b 9a 2d 6b be 03 dd 12 bd ba 54 b7 bd
       0.002225384 -0.22966614 -0.035855304 -0.08951707
000120 27 6a 12 be 21 d9 82 bd 82 52 5c 3c ad 3a 5b be
       -0.14298306 -0.0638907 0.013447406 -0.21409102
000130 0a d2 cb bd d1 f6 3f bd 29 9b af 3c 9d 87 2e 3c
       -0.09952171 -0.04686624 0.02143629 0.01065245
000140 75 1f 3a be 78 a1 b6 bb 9a ef b8 be e2 ca 9f be
       -0.18176062 -0.005573448 -0.361203 -0.31209475
000150 13 6f ae bd 30 fe 16 be 7e 74 53 be a2 78 13 3e
       -0.085172795 -0.14745402 -0.20649907 0.14401487
000160 1f 34 90 be a4 d2 35 be c1 72 fc bd 4f dd f0 bd
       -0.28164765 -0.17756134 -0.12326575 -0.11760961
000170 de 37 4a be 23 d7 b3 bd be 25 36 3d 6b ef 71 3d
       -0.19747874 -0.087812684 0.044469588 0.059066217
000180 87 82 a7 be da 32 a6 be a9 8e 5a be ba 62 23 be
       -0.32716772 -0.32460672 -0.21343483 -0.1595563
000190 15 22 44 be a6 fb 58 bd 62 c4 b7 bc b1 75 bd be
       -0.19153626 -0.052974366 -0.02243251 -0.37003854
0001a0 eb 62 09 3e de ec ed bc 04 9a 26 be 9b 33 8f be
       0.1341664 -0.029043611 -0.1626969 -0.2796906
0001b0 95 e3 b2 3d f9 57 19 3d 9a 53 a2 bd 59 64 53 be
       0.08734814 0.037437413 -0.07926102 -0.20643748
0001c0 85 7e 91 be 04 7d 9e be ab 3b 0f 3d ad b1 6e bd
       -0.2841684 -0.30954754 0.034969013 -0.058274914
0001d0 54 01 6c 3d f1 32 c9 be e9 35 36 be 37 85 07 be
       0.057618454 -0.39296678 -0.17794003 -0.13234411
0001e0 f6 78 b0 bd 22 83 cf bd 24 1f 46 39 a0 71 c0 be
       -0.086168215 -0.101324335 0.00018894352 -0.3758669
0001f0 ca 7c 9f bd f9 85 46 be 19 d1 6e be b0 53 30 bc
       -0.077874735 -0.19387044 -0.23321952 -0.01076214

gc2.fc.weight f4 [128, 128]
000000 c5 ad 8e bd d5 0f e8 bc c2 02 53 be 4c fd 53 3d
       -0.06966738 -0.028327862 -0.20606521 0.051755235
000010 40 58 9b bd db 84 54 bd 30 07 81 bb 32 43 01 be
       -0.07585192 -0.051884513 -0.0039376244 -0.12623289
000020 13 3e 08 be 64 c2 dc bd 6f 0a bc 3d 0f 13 25 bc
       -0.1330493 -0.107792646 0.091816776 -0.010075345
000030 24 50 4b 3c 4c 57 a8 3c 6d 76 a4 3c 38 b8 67 3b
       0.012409244 0.020549439 0.020076001 0.0035357606
000040 11 3c ae bd f2 d9 d6 bc c8 8a ba bd 78 7e 71 bd
       -0.085075505 -0.026226971 -0.09108502 -0.0589585
000050 b2 16 94 39 ec d8 b2 3c 28 4c b0 bd 0f 74 1e 3d
       0.0002824567 0.021831952 -0.08608276 0.0386849
000060 26 17 02 3e 6c 22 bf bd 90 b8 cb bb da d5 30 bd
       0.12704143 -0.09332737 -0.00621707 -0.043172695
000070 38 54 ae be 13 40 1c be c9 4c 43 bd 52 71 e7 bd
       -0.3404863 -0.15258817 -0.04768065 -0.11300911
000080 6d e8 56 3d fb c5 54 be 53 19 da 3c 4c 4c 0c be
       0.052467752 -0.20778649 0.026623404 -0.1370098
000090 13 f1 29 3c 70 b1 a5 bd 80 ec 0a be 8a 5a 1c 3c
       0.010372418 -0.08090484 -0.1356678 0.009543071
0000a0 cc bf 0f bd 9c b6 d2 bd a7 8c 2c be 5f e0 80 be
       -0.03509502 -0.10288736 -0.1685053 -0.25171182
0000b0 c0 ee fc 3b 55 5e 6d 3c a0 7f 26 3d c3 db 31 bc
       0.007718891 0.014487823 0.040649056 -0.010855618
0000c0 6c ec 9b bd ee d1 53 be 11 a7 97 bd 4a 80 aa bd
       -0.07613453 -0.2068555 -0.07404912 -0.083252504
0000d0 c6 de e5 bd 89 78 0b bd 3d ab f0 bc e1 2b 49 3b
       -0.11224131 -0.0340505 -0.029378528 0.003069632
0000e0 69 3d b9 bd 7f f4 04 bd 1c 68 8e bd 27 1f 6f be
       -0.09044916 -0.032459732 -0.06953451 -0.23351727
0000f0 6f ad a1 bd 5b 77 ee bc 49 26 84 bd 12 3c 9b bc
       -0.07894408 -0.029109647 -0.06452615 -0.018949542
000100 c5 18 29 be 99 0e a2 3c ed 78 bb bd c6 d1 f7 bd
       -0.16513355 0.019782351 -0.09153924 -0.12100558
000110 fb bc 04 bd 2b b5 76 bd 37 eb 29 be 2c 7b 70 3d
       -0.03240679 -0.06023137 -0.16593634 0.058711216
000120 b6 56 f9 bd d0 e2 9a 3d 7e 7d 69 be de 14 3a 3d
       -0.12174742 0.07562792 -0.22801778 0.045430057
000130 09 4a af bd 03 92 05 be 7f ba 7e be d9 30 fe bd
       -0.08559043 -0.1304398 -0.2487583 -0.12411661
000140 0d 26 92 bc 1a d9 07 bd 5d 42 39 be 06 b7 03 bd
       -0.01784041 -0.03316603 -0.18091722 -0.032156967
000150 97 b7 9e bd 91 4f 8c be 6f e0 be 3d ba b0 ff bc
       -0.07749861 -0.27404454 0.09320151 -0.0312122
000160 d3 ba f6 bd e3 bf ac 3d c9 b3 85 3d aa 3c 14 be
       -0.12047353 0.08435037 0.06528432 -0.14476267
000170 31 c1 cd bc 00 68 95 bd c7 5b 4b 3e 5e 86 66 be
       -0.025116535 -0.07295227 0.19859229 -0.22512195
000180 df 28 bb be 84 ff 7b 3d 14 7b fd bd a7 19 98 bd
       -0.3655462 0.061522976 -0.12376991 -0.07426768
000190 82 b7 22 bd 1d 52 bc bd 57 27 26 bd ad 1b 6c 3c
       -0.039725788 -0.09195349 -0.04056486 0.014410895
0001a0 fe 59 18 3e b6 ac 43 be 77 31 74 bd b5 55 32 3d
       0.1487808 -0.19108853 -0.059617486 0.043538768
0001b0 e7 66 18 be 37 84 de bd 41 3d b0 bd 9d 96 98 bd
       -0.14883004 -0.10865062 -0.08605433 -0.07450602
0001c0 50 79 39 3e 35 b2 69 3d 44 2c c2 bc 71 56 1c 3d
       0.18112683 0.057054717 -0.023702748 0.038168374
0001d0 02 98 b5 bd c5 21 18 be f1 6d 14 be 5d af 15 bc
       -0.08866884 -0.14856632 -0.14495064 -0.009136048
0001e0 22 31 84 bd 52 d2 13 bd e8 0d 0f be f0 49 1e 3e
       -0.06454684 -0.03608925 -0.13970149 0.15457892
0001f0 f7 d7 3e be 15 7c c2 3b e9 73 3e 3d 80 4a aa ba
       -0.18637072 0.005935202 0.04649726 -0.0012992173
000200 cf 93 13 be cf e1 26 3e 21 04 eb 3c ba c6 17 be
       -0.14411853 0.16297077 0.028688492 -0.14821902
000210 2f 1b 04 3d 1a 8d 9d bc f0 d8 08 bc e4 a5 6a be
       0.032252487 -0.019232322 -0.008352503 -0.22914845
000220 a5 88 df bd 6a a9 90 3d 80 eb a8 bd 56 64 68 3d
       -0.10914735 0.07063563 -0.08248043 0.056736313
000230 dd a9 9d 3c 2a e5 1f be a6 e7 6f be 05 e9 17 bd
       0.019246036 -0.15614763 -0.2342821 -0.03708746
000240 8a 30 3a bd cf 50 bf bd 44 42 a6 bd f2 ea 94 be
       -0.045456447 -0.09341585 -0.08118108 -0.290855
000250 83 00 9c bd fd e7 40 be 80 45 57 be e5 ba af bd
       -0.07617285 -0.18838497 -0.21022606 -0.08580569
000260 d6 dc 97 3d f4 8e 61 bc 14 9b 06 be 8a a4 b4 bd
       0.07415168 -0.013766993 -0.13145095 -0.08820446
000270 2b 68 4a bc 48 ca 08 bd 26 96 37 3d 69 89 1a 3e
       -0.012353937 -0.033396035 0.044820927 0.1509148
000280 ad 18 aa bd a2 d2 53 bd ea 23 47 be 79 5f 6e 3d
       -0.08305488 -0.051714547 -0.19447294 0.05819652
000290 ed 26 ec 3c 81 a6 60 bd 8a 21 17 bd 85 b8 d8 bd
       0.028827155 -0.05484629 -0.03689722 -0.10582069
0002a0 f0 b8 0a 3e 85 3c c3 3c 31 16 f0 bd 29 98 cb 3d
       0.1354711 0.023832569 -0.11722983 0.099411316
0002b0 e8 20 cb bd 73 aa 0c bd 34 e5 9e bd 6b 63 76 be
       -0.09918386 -0.03434224 -0.07758561 -0.24061362
0002c0 4e 43 f7 bb af 37 64 bc 5b 9d 65 3d ad 43 79 3e
       -0.007545865 -0.013929292 0.05605827 0.24342223
0002d0 c7 77 1f bc d5 f8 d6 bd d6 52 00 be 4d 04 12 be
       -0.009733147 -0.1049668 -0.125316 -0.14259453
0002e0 26 c5 29 be e9 78 a7 bd 89 c2 f4 bd 51 39 16 3d
       -0.16579112 -0.08177359 -0.11951167 0.036675755
0002f0 4f 37 84 3c bb 7a 21 3c 59 d2 15 3e 78 71 36 3d
       0.016139654 0.009855921 0.14631023 0.044541806
000300 ed 28 51 3c 27 15 99 bd 79 39 85 3d 3d 8e 76 bc
       0.012766105 -0.074747376 0.06505103 -0.015048561
000310 df 58 26 bd 7e b2 37 be f5 5c d8 bd 3e 5e e9 bd
       -0.040612098 -0.17939183 -0.10564605 -0.113949284
000320 f5 3e 22 3e 68 00 b2 bd 7a ab f9 3d 92 b9 3a be
       0.15844329 -0.08691484 0.1219091 -0.18234852
000330 19 a8 d3 bd fb a2 4e be 71 8e 55 3d 54 66 42 bd
       -0.103347965 -0.2017936 0.052137796 -0.04746087
000340 2b b4 9b 3d 57 36 4c be 06 b7 94 bc 62 73 c9 bd
       0.07602724 -0.19942604 -0.018153679 -0.09836461
000350 45 6d 5b be 0c a5 36 be d1 6c 32 3e c7 17 da 3d
       -0.21428402 -0.17836398 0.17424323 0.106490664
000360 80 59 46 be 3b 11 48 bd 56 36 b6 3c aa c1 28 3e
       -0.19370079 -0.048844557 0.022242706 0.16480127
000370 9f ca 8e be 9b c0 ae bb e1 df e3 bd a4 c1 ee 3d
       -0.27888963 -0.005333019 -0.11126686 0.11658028
000380 c4 f9 b2 bd 76 0f a4 bc a1 ea 4f be f7 7e 86 3d
       -0.08739045 -0.020026904 -0.20304348 0.06567185
000390 eb e4 11 be 55 9b 55 be 59 10 ed 3c dc 03 2b bd
       -0.14247482 -0.20860036 0.02893846 -0.041751727
0003a0 a9 57 de bd 30 97 ef bc 68 66 88 bd 17 5d 18 3e
       -0.108565636 -0.029246897 -0.066601574 0.14879261
0003b0 c1 ae 8c 3d f9 94 92 bd 51 77 da bb 4c bd 64 be
       0.06869269 -0.071573205 -0.0066670557 -0.22337836
0003c0 f7 32 5c be ef 5c 80 3d c2 2a 8b 3d 56 1c 92 bd
       -0.21503817 0.06267726 0.06795265 -0.07134311
0003d0 d4 2e 05 bd 8d 87 41 3e 3c cb 0e 3d a0 72 fc bc
       -0.032515362 0.18899365 0.03486179 -0.030816376
0003e0 1a 95 9b bd 62 fd 9b be 8d d3 7b bd b6 b5 15 3c
       -0.07596798 -0.30466753 -0.061481047 0.009137562
0003f0 1d ca ee bd 5c db 62 be ca f1 02 be ac 8e 67 3e
       -0.11659644 -0.22153991 -0.12787548 0.22613019

gc2.fc.bias f4 [128]
000000 27 77 dc bd a9 1a a5 bd 86 b4 2a bd ac 6d f7 bd
       -0.10764914 -0.08061726 -0.041676067 -0.12081465
000010 d9 7e 28 bd 71 42 98 bc fc 1a 6f be 31 7a 2c bd
       -0.041136596 -0.01858637 -0.23350137 -0.04210872
000020 91 64 00 3d c4 30 ad be ec 79 ce bd a5 d4 50 bc
       0.031345908 -0.33826268 -0.100818485 -0.012746011
000030 e2 5c dc bd c1 ae f5 bd 56 d2 2e be a2 35 cf bd
       -0.107599035 -0.11996222 -0.17072424 -0.101176515
000040 35 33 71 bc 19 3d 1e 3d 59 73 70 be c9 90 6d be
       -0.014721681 0.038632486 -0.23481502 -0.23199762
000050 63 ac 81 bd 4e ef 30 be 82 f3 9b bc b7 93 9e be
       -0.06331708 -0.17278787 -0.019037012 -0.30972072
000060 ae 09 9e 3b 35 ee 3a be 41 4a 13 be 87 3e 35 3e
       0.0048229313 -0.18254931 -0.14383794 0.17699634
000070 2d 34 a2 be 83 36 8d be ef 19 5d be 8d fb 3f be
       -0.31680432 -0.27580652 -0.21591924 -0.18748303
000080 c2 f0 3b be b2 6e a1 bd 88 6f 9e bd 38 84 42 be
       -0.1835356 -0.078824416 -0.07736117 -0.1899575
000090 50 a7 5d be 2f d3 da bd 69 02 14 3e 9d 72 76 3d
       -0.21645856 -0.10684811 0.14454044 0.060167897
0000a0 31 ff 97 3d 86 d1 54 be 39 a5 af be 6c 0c b1 be
       0.07421721 -0.20783052 -0.34305742 -0.3457979
0000b0 f0 0b 00 3e b6 d1 31 bd 31 39 15 3d 69 f1 3a be
       0.12504554 -0.043412887 0.036431495 -0.18256153
0000c0 8d 4c 3b be ca d0 2d be f6 89 b5 bd 2d 3a 5f be
       -0.1829092 -0.16974178 -0.088642046 -0.21799536
0000d0 36 d7 3a 3c f5 f8 0e be 48 b7 41 bd b6 19 ce bd
       0.011403849 -0.13962157 -0.04729393 -0.10063498
0000e0 d9 3c c4 bd 14 55 86 be 27 fe 35 3d b3 de 19 3d
       -0.09581918 -0.26236784 0.04443183 0.0375659
0000f0 96 fa 8a be ff bd c4 3c ed 58 66 be 2a 49 e3 bd
       -0.27144307 0.024016378 -0.2249486 -0.11097939
000100 60 32 3d 3e ac cb a0 bd d1 86 34 be 11 55 52 be
       0.18476248 -0.07851347 -0.17629553 -0.20540263
000110 c3 52 80 be 14 b9 63 bc 4c 06 ae bd 12 d6 26 be
       -0.25063142 -0.0138991065 -0.08497295 -0.16292599
000120 06 d4 92 3d be ac fd bd 92 7a 09 3e 62 a1 13 bd
       0.071693465 -0.123864636 0.13425663 -0.03604258
000130 8e f0 4b be a8 90 32 be 4f 1d a2 bd 8b 82 23 be
       -0.19915983 -0.17437994 -0.079157464 -0.15967767
000140 ab 49 dd bc 91 0f aa bd 90 1a 89 bb 67 c2 45 bc
       -0.027012667 -0.0830375 -0.0041840747 -0.012070275
000150 79 9a bd bd 61 5d 32 be 50 21 83 bc fe e7 6b bd
       -0.09257979 -0.17418434 -0.016007096 -0.057594292
000160 4b aa ab 3d bf 7f 8b 3d 1f 10 32 be ef 10 9c bd
       0.0838209 0.06811475 -0.17388962 -0.07620417
000170 b7 d9 1f bd ef 50 28 be 0b 74 2b bd 33 8e a1 3d
       -0.03902599 -0.16437124 -0.041858714 0.078884505
000180 92 78 bf bd dc b1 98 3d 07 db 21 be 9f cd 73 3d
       -0.09349169 0.07455799 -0.15806209 0.059522267
000190 35 32 c4 3c ca a7 ca 3a 30 75 54 bc 67 53 94 3d
       0.023949722 0.0015461382 -0.012967393 0.0724247
0001a0 5c 9e 2b be 0a fd 75 be 95 ce 5d be 50 dd a4 be
       -0.16759628 -0.24022308 -0.21660836 -0.32200098
0001b0 e8 65 9f 3d 73 12 38 3d 61 9b a2 bd ea 6c 07 be
       0.07783109 0.04493947 -0.079397924 -0.13225141
0001c0 73 93 0d bc 26 3e 27 bd 6a 01 6c 3d 7e c1 06 be
       -0.008641112 -0.040830754 0.057618536 -0.13159749
0001d0 b1 cf 2e bc e7 76 96 3d d4 a1 eb bc 37 81 36 be
       -0.010669635 0.073468976 -0.02876369 -0.17822729
0001e0 3b 8f 55 bc 04 e4 c4 3b b4 2c 92 bb 7d 6e e2 bb
       -0.013034637 0.006008627 -0.0044608954 -0.006910144
0001f0 4e f4 22 be a6 69 2a be ee 0f 31 be e8 63 ac be
       -0.15913507 -0.16641864 -0.17291233 -0.33669972

temporal_conv.weight f4 [128, 128, 3]
000000 8f a9 0a bd 89 42 c3 bd f2 ca 2f bc 1f 14 a6 bc
       -0.03385311 -0.09534175 -0.010729538 -0.020273266
000010 6c bc 48 be 08 86 5b bb 52 ff 15 bb 46 c3 d7 bd
       -0.19603127 -0.0033496637 -0.0022887778 -0.10535292
000020 f5 6f 82 bb ef aa d4 bc 38 59 6a 3d 85 b2 f1 3b
       -0.0039806315 -0.025960414 0.057213992 0.0073760175
000030 7a b7 ef bd 12 14 9e bd d1 ea 25 3c 0d a9 ff bc
       -0.11704917 -0.07718672 0.010126785 -0.03120854
000040 00 d3 72 bc 98 c0 e8 3c 2b d3 07 bd af 62 ff bc
       -0.014820814 0.028412148 -0.03316037 -0.031174986
000050 43 05 19 bc 1a 6c 53 be 6a 08 4c 3d fb 75 ea 3c
       -0.009339633 -0.20646706 0.04981271 0.02862071
000060 5f ae 34 bd cb a8 21 bd c8 5c e2 3c 04 5b d4 3b
       -0.044111606 -0.039467614 0.027632132 0.0064805765
000070 a6 df f3 bc df 47 e6 ba e6 fa 6b 3d 1a 83 a3 bd
       -0.02976973 -0.0017569027 0.057612322 -0.0798399
000080 d5 fe 7d 3c ce 2c 17 bd 59 31 13 be d9 05 09 3d
       0.015502651 -0.036907963 -0.14374293 0.033452842
000090 ac ae 87 bd 6d 7c 4d 3c 1b 4c 1e bc 47 33 ff bd
       -0.06625113 0.012541872 -0.0096617 -0.12460952
0000a0 a1 87 18 be 9d 0f 0a bd bd fe 04 bd 99 fe cf bd
       -0.14895488 -0.033706296 -0.0324695 -0.101559825
0000b0 16 39 3b bd 31 03 a4 bd 3e 49 73 3c 9b 83 ee 3c
       -0.04570874 -0.08008421 0.014849005 0.029115489
0000c0 ea 3a 06 3d 55 d2 50 be 5c 15 1a bb 9c 5f 6e bc
       0.03277103 -0.20392735 -0.0023511266 -0.014549162
0000d0 11 7a 84 bd 1b 69 08 3d 37 30 af 3d 05 03 de bc
       -0.06468595 0.03330336 0.08554118 -0.02710105
0000e0 f5 f0 fb bc 3f 63 30 3d a4 36 43 bc 76 7a 19 3d
       -0.030754546 0.0430634 -0.011914883 0.037470303
0000f0 bd 69 25 be 14 52 65 bd c7 40 d4 bb 67 ef 96 bc
       -0.16153617 -0.05598648 -0.0064774486 -0.018424703
000100 b5 23 23 bd d2 8d 07 3d 31 e8 d0 bd 00 f7 ed bd
       -0.039828975 0.033094235 -0.10200537 -0.11619377
000110 6f e8 0f 3d fd c2 b8 bc 1f 02 8d 3d 85 1d 01 3b
       0.035133775 -0.022553915 0.0688517 0.0019701433
000120 75 80 f6 bd 0c c0 40 3d 42 d6 d5 bc b7 83 bc 3d
       -0.1203622 0.04705815 -0.026103143 0.0920481
000130 ac 89 b4 bc dd 50 1e bd 96 27 ac bc 94 cb 82 3c
       -0.022038303 -0.038651336 -0.02101497 0.015966214
000140 ff 07 d8 3c a4 78 73 bd bc ea a8 bd 9e 78 be bb
       0.026371 -0.059441224 -0.08247897 -0.0058127185
000150 d0 e8 e0 bd 83 d2 97 bd a8 b2 dc bc f5 21 14 bd
       -0.109819055 -0.07413199 -0.026940659 -0.036165196
000160 08 08 3a 3d ec 2a e3 3b 9f 5a 87 be f6 a9 19 3e
       0.045417815 0.006932607 -0.26436326 0.15006241
000170 2a 43 01 3d 17 78 85 3d 40 d4 a0 bd 33 65 3a 3d
       0.031558193 0.06517046 -0.078529835 0.045506667
000180 9c 86 16 3d 5c db 9e bc ef 97 48 bd 35 0a 64 3d
       0.036749467 -0.019391708 -0.04897302 0.055673797
000190 88 cf 4a 3d 59 3f 0b bd b9 59 e7 bd 76 27 e5 bd
       0.049514323 -0.03399596 -0.1129641 -0.11189167
0001a0 5e db 18 3c 1c 48 fb bd dc 77 af 3d c2 44 4b 3c
       0.009329645 -0.12269613 0.08567783 0.01240653
0001b0 a3 45 e4 bd 66 a6 a0 bc 3e 1c 2f 3c 9f ab 2c bd
       -0.11146095 -0.019610595 0.010687886 -0.042155858
0001c0 81 b4 5f 3d 8e d4 2e 3d b9 68 da bc 33 22 d1 bd
       0.0546155 0.042683177 -0.026661264 -0.10211601
0001d0 71 e9 14 bd 75 3d 35 be ac de 80 3d e4 51 45 3c
       -0.03635544 -0.17699225 0.06292471 0.01204345
0001e0 af 6c 61 bd 22 45 0f bd 04 7f 0b bd 88 41 21 3d
       -0.05503529 -0.03497804 -0.03405668 0.039369136
0001f0 d4 a0 ea 3d 44 65 4d 3d cb b4 16 bd 45 fe b6 bd
       0.11456457 0.050145403 -0.03679351 -0.08935217
000200 ed dd 15 3c 48 f8 03 bd 05 7d c4 3d cd 41 53 3c
       0.0091471495 -0.0322192 0.09594158 0.012894106
000210 35 f7 8d bd 81 ec 21 3d 02 27 ea bc 2b b6 49 bd
       -0.069319166 0.03953219 -0.028583053 -0.049245995
000220 1c 00 b6 bd db f7 31 3d 27 c9 04 be 99 c3 d1 3b
       -0.088867396 0.043449264 -0.12967359 0.006401491
000230 e5 9c 84 bc 6f 77 af 3b c8 ab b8 bc 8a 85 03 3d
       -0.016188094 0.0053548138 -0.02254285 0.032109775
000240 56 b8 e9 bb e3 95 4e 3d 43 ef 3e 3b 4f 67 c9 bd
       -0.0071325703 0.050435912 0.002913431 -0.09834158
000250 51 76 43 bd b8 f4 ae ba f1 87 67 bd a4 7d 73 bd
       -0.047720257 -0.0013348078 -0.05652613 -0.059445992
000260 eb 00 49 3d 76 b4 5f 3e 33 cb 11 3e 1b cc 7d bb
       0.04907314 0.21846184 0.1423767 -0.0038726393
000270 dd 99 63 bd 9d c8 79 bc eb 58 2a 3d f9 f5 ab bb
       -0.055566657 -0.015245584 0.041588705 -0.005247828
000280 df f6 07 3e 26 9c 47 bd 41 f7 83 bc f4 72 6c bc
       0.13277768 -0.0487329 -0.01610911 -0.014431704
000290 bc 8e 08 bc 80 e8 8c bd 82 ec fd 3d b0 48 ef 3b
       -0.008334812 -0.06880283 0.12398626 0.007302366
0002a0 43 a8 ee bb d6 cb cb 3c 42 7e 10 3b 01 97 4c bd
       -0.007283242 0.02487747 0.0022047912 -0.049948696
0002b0 26 43 f0 bc d2 71 bc bc 49 73 19 be ea 6c cb bd
       -0.029328894 -0.023003493 -0.14985384 -0.09932883
0002c0 9b ca 36 3d 59 02 d6 bb fe ca 4e 3d 30 97 2b bc
       0.044626813 -0.0065310416 0.050486557 -0.010473058
0002d0 9d 89 23 bb ed db 73 3b 74 cb 5e 3b 76 a6 98 bd
       -0.002495385 0.0037209943 0.003399578 -0.07453625
0002e0 2c d1 17 bd 8d ac f6 bc d3 e8 37 bd 1c db 0c bd
       -0.037064716 -0.030111575 -0.044899773 -0.034388646
0002f0 aa ca fd 3c 72 53 da bd d2 f1 5c 3c 9e 59 b4 3a
       0.030980427 -0.10660447 0.013485389 0.0013759618
000300 96 ad d1 bd 06 9b 29 3c 5f 63 2f bd ec a8 aa bd
       -0.10238187 0.010351902 -0.042819377 -0.083330005
000310 4e 59 eb bd 51 05 2e bd f4 21 85 bd 20 b3 cd bc
       -0.11491643 -0.04248554 -0.06500617 -0.025109828
000320 20 d0 19 3d 33 0b 95 3d f5 4c a6 3d 3e c6 ff 3c
       0.037552 0.07277527 0.08120147 0.031222459
000330 b8 fb bd ba c7 3b 6b bd a0 77 f4 3c bd c5 39 bc
       -0.0014494574 -0.057430055 0.029842198 -0.011338648
000340 b2 e0 1b 3c 40 82 cb bb 7d 93 22 be ad 11 08 bd
       0.009514021 -0.0062105954 -0.15876575 -0.033219982
000350 e8 de 48 3c f1 f0 14 be 09 49 c6 3c f1 d1 27 bd
       0.012260176 -0.14545037 0.024204748 -0.0409717
000360 ba cf 25 be 76 79 04 3c 96 f6 e3 3c 1a 3d ea bd
       -0.16192523 0.008085599 0.027827542 -0.114374354
000370 7e a0 37 be 14 7b fe bc 4d aa 86 bd 48 18 2d bd
       -0.17932317 -0.031064548 -0.06575451 -0.042259485
000380 d7 9c 2f bc 1b a2 43 bd 5e 45 4f 3c 4f a4 9f ba
       -0.010718546 -0.047762018 0.012650816 -0.0012179705
000390 62 1b 38 3b 77 0c a9 bb 56 b5 a5 3c cc a7 f9 3c
       0.0028092493 -0.0051589566 0.02022807 0.03047552
0003a0 04 31 b4 bd 04 76 3b bd c5 34 41 be de 64 e9 3d
       -0.087984115 -0.045766845 -0.18867786 0.11396192
0003b0 f4 f4 d1 3a 4c 81 a9 3d 23 ee bd bd a4 12 0d bc
       0.0016018436 0.082766145 -0.092739366 -0.008610401
0003c0 40 27 e2 bd 33 64 30 bd db e5 93 bc f9 fb 25 bd
       -0.110426426 -0.043064307 -0.01805394 -0.040523503
0003d0 9d bc 40 bd 91 e0 00 bd 9f 29 cb bc 07 fb 41 bd
       -0.047054876 -0.031464163 -0.02480012 -0.04735854
0003e0 9a ca 16 bd ff 65 c2 bd b3 17 7c bd 0f 4e 02 bd
       -0.03681431 -0.094921105 -0.06154604 -0.031812724
0003f0 09 e4 59 bd fe a8 41 bd 05 79 64 3b d6 42 89 bd
       -0.053195987 -0.047280304 0.0034862172 -0.06702201

temporal_conv.bias f4 [128]
000000 cf ed e6 bd ba 7e e3 3d 80 a7 00 be 61 b9 26 be
       -0.11275827 0.111081555 -0.12563896 -0.16281654
000010 12 c0 88 bd 13 a6 05 be ae 94 15 be f0 8d d2 3d
       -0.066772595 -0.13051634 -0.14607498 0.10280979
000020 c5 b0 cb 3c fb 38 88 bd f0 32 1a be 46 8a d7 bd
       0.024864564 -0.06651493 -0.15058494 -0.105244204
000030 81 2e ab 3e 93 39 88 bd 1f 0d 4f 3e 24 04 8d 3e
       0.33433917 -0.066516064 0.20219849 0.27542222
000040 14 87 a6 3d 70 74 07 3e 5e 5f c5 bc 9a 9a 57 3c
       0.08131233 0.13228011 -0.024093326 0.0131594185
000050 20 27 2e 3d dc b9 f7 bd 03 38 6d 3e e2 23 ae 3e
       0.04251778 -0.12095997 0.23165898 0.3401175
000060 ae 2e 48 3e 0c 25 b4 3c 37 09 98 3e 1e bc 44 3e
       0.19549057 0.021990322 0.2969453 0.19212386
000070 30 68 4c 3e 62 0f c1 3c 3f 66 9a bd 9a 3d f5 3c
       0.1996162 0.023566905 -0.07539033 0.0299366
000080 d9 15 7c 3e 0f b8 5b 3b f9 c3 4e bd 71 21 13 3e
       0.24617709 0.0033526456 -0.050479863 0.14368226
000090 57 85 77 bd e3 bf d9 3d fa 9b 10 3d f7 9e 04 3d
       -0.060429897 0.106323026 0.035305 0.032378163
0000a0 bc f8 c1 bd 78 43 aa 3e 56 bf 90 bc 99 d2 7f 3e
       -0.094712704 0.332546 -0.017669361 0.2498268
0000b0 c1 f2 a2 bd 86 40 8f 3e 51 d3 8d bc 24 24 af 3e
       -0.07956458 0.27978915 -0.017312678 0.3420726
0000c0 68 b3 65 3e 02 1e 3f 3e b6 2d 38 be 44 85 ce 3e
       0.2243172 0.18663791 -0.17986187 0.4033605
0000d0 c3 86 1d bb 08 31 e1 bd 85 23 c0 3d f6 5a 10 3e
       -0.0024036623 -0.1099568 0.09381775 0.14097199
0000e0 d0 06 4e 3e b5 8a ed 3d e2 d5 c1 3e 40 63 bd 3e
       0.20119786 0.11598722 0.37858492 0.36989784
0000f0 12 63 64 bc f8 23 8d 3c c1 5c 8d bd be 25 05 be
       -0.013939636 0.017229065 -0.06902457 -0.13002679
000100 15 a5 80 3e e4 50 81 3e e4 e7 16 3e 5f b9 38 3e
       0.25125948 0.25257027 0.14736897 0.18039463
000110 94 9f 69 3d 16 a3 bb bd 55 ff 9d 3e 7b 9c c8 bb
       0.05703695 -0.091619655 0.30858865 -0.0061221696
000120 53 64 4d 3d 52 14 32 bd 2b e1 5e be 41 ee 05 be
       0.050144505 -0.04347641 -0.21765582 -0.13079168
000130 4d 14 65 bc 4c 45 bf bd 88 3a 7d bc 7a 69 34 3d
       -0.013981891 -0.09339389 -0.0154558495 0.044045903
000140 71 27 4c 3c 7e bb 57 3e e4 42 a4 3d 64 9f 01 3c
       0.012460575 0.21067616 0.08020571 0.007911537
000150 eb 62 56 3e 2e 17 1e 3e b4 1d 5d 3e 2f 6c 02 3d
       0.20936172 0.1543853 0.21593362 0.031841453
000160 d7 8c fc 3b db c0 1a bd 43 7d 75 bd e5 86 24 3e
       0.007707219 -0.037781578 -0.059933912 0.16067083
000170 0a cd 39 3e e7 ea 47 3e 9f 70 7d 3e 59 10 a6 3b
       0.18144622 0.19523202 0.24749993 0.0050678668
000180 9c 5e ae bd 5c cc 2c be 89 26 91 bd f9 a5 00 bc
       -0.08514139 -0.16874832 -0.07087428 -0.007852071
000190 da 89 5b bc eb 7f 70 3e 64 0d 31 3e 8f bf 49 3e
       -0.013399566 0.23486297 0.17290264 0.1970198
0001a0 00 e4 29 3d 86 8e c6 3e 7a 02 1e 3e b8 f6 86 3e
       0.041477203 0.38780612 0.15430632 0.26360106
0001b0 75 33 b8 bd 4d 3b 47 3e 5d 33 8b bd 30 09 cb bd
       -0.0899419 0.19456215 -0.06796906 -0.09913862
0001c0 be c9 95 3e 73 68 9f 3e a0 ed 65 3d e5 d0 9f bd
       0.2925548 0.31134376 0.05613482 -0.07803515
0001d0 38 bb a5 3e 63 a5 04 be c4 69 71 3e 9d 0e 0a 3e
       0.323694 -0.12953715 0.23575503 0.13482137
0001e0 db 20 91 3e 7e 6a 08 bc 79 4f 51 3d c7 fe 9b 3e
       0.2834538 -0.008326171 0.05110118 0.30467817
0001f0 2f 7d be bd 29 d4 f2 3c 82 6d 61 3e d2 a5 6f 3e
       -0.093012206 0.029642181 0.2201443 0.23403099

fc.weight f4 [30, 128]
000000 ca 21 2a 3e 3e 28 42 bc d9 e7 c8 bd cc de e9 3d
       0.16614452 -0.011850415 -0.098098464 0.11419448
000010 0d e4 8a 3d 5c e9 09 be 19 9d c5 bd 55 d4 36 3c
       0.067817785 -0.13467926 -0.096491046 0.011159022
000020 89 09 c7 bd 5b d7 6b be 5b 70 bc bd 60 75 45 bd
       -0.097186156 -0.2303137 -0.092011176 -0.04820764
000030 93 ef b7 3d 76 f9 03 be f4 f9 ab bd c5 7c 58 3d
       0.08981242 -0.1288813 -0.08397284 0.052853364
000040 cc e1 2b bd 1f 31 5c 3c c2 2c 1e 3d 36 e7 38 3c
       -0.041963384 0.013439446 0.038616903 0.011285594
000050 9f fc 1d bc 02 17 5a be 82 7e 3a bd b3 6b c8 3d
       -0.009642749 -0.2129784 -0.045530804 0.09786167
000060 88 4b bb bd 4f e6 ac 3d 79 73 3b bd a9 43 32 3e
       -0.09145266 0.084423654 -0.04576442 0.17408623
000070 eb c2 a8 bd aa 03 19 bc 3e 46 4f 3d d1 49 35 bc
       -0.08240303 -0.0093392525 0.050604098 -0.0110649625
000080 15 bd 8c bd 57 30 28 bd c7 44 21 bd 91 4c 4a bd
       -0.06872002 -0.041061725 -0.03937223 -0.049389426
000090 ac ed 4f 3e 34 b0 00 3e b1 fd ec 3c 83 17 0f bd
       0.20305508 0.12567216 0.028929563 -0.034934532
0000a0 9d 87 42 3d c8 4f 84 3d 3f e1 20 bd 2e 27 03 3d
       0.047492612 0.064605296 -0.03927731 0.032019787
0000b0 22 ae 05 3e 2a e1 20 3e 5b b1 fc bd 0d 0f 1d 3d
       0.13054708 0.15710893 -0.12338515 0.03834443
0000c0 26 b7 69 bd 3f 9c cf bd 47 50 a7 bd 79 41 da 3d
       -0.05705943 -0.101372235 -0.081696086 0.10657019
0000d0 2d da 5a 3d 51 58 51 3d c0 39 37 bc 7a c0 2d 3d
       0.053430725 0.051109616 -0.011183202 0.042419888
0000e0 2e 61 af bd 6e 49 97 3d 84 9f d3 3c 15 67 f4 3d
       -0.085634574 0.073870525 0.025832899 0.11933724
0000f0 6d 4c 05 3d 6e c1 51 bd a7 3e 77 3a 53 7f be 3c
       0.03254359 -0.05120986 0.0009431638 0.023254072
000100 81 86 15 3e ca ee 48 bd 43 c5 97 3d ac 77 61 3e
       0.1460209 -0.049055852 0.074106716 0.22018307
000110 06 02 51 3e 83 03 17 3e a8 3c 27 3d 59 11 a0 3d
       0.20410928 0.14747433 0.04082933 0.07815809
000120 b0 b9 4b 3d f7 20 6e be 31 44 08 bc 9b c9 6d bd
       0.049737632 -0.23254763 -0.008317039 -0.058053594
000130 e3 2e 81 3d 94 ad 56 3d 34 dd a3 bb 11 d8 8c 3a
       0.06307771 0.05241163 -0.0050007347 0.0010745545
000140 eb 1e be bc d9 63 8d bd cf 78 cb 3c 9b ca 17 3d
       -0.023208102 -0.0690381 0.02483788 0.037058454
000150 6a a7 85 bd ae cf 39 bd 25 2f 84 bd d2 49 e3 3d
       -0.06526072 -0.045364074 -0.064543046 0.110980645
000160 bb 71 00 be b0 1b a5 bc 8a 6a dd 3d e0 b6 73 3c
       -0.12543385 -0.020154804 0.10811336 0.014875144
000170 a1 bc 59 bd a0 6a 6e 3d ba 85 3c bd 6b 81 07 3c
       -0.053158406 0.058207154 -0.04602597 0.008270602
000180 3c 48 86 3d 5d a7 a3 bd 4d 7a a2 3d 11 8c fa 3c
       0.06556746 -0.079909064 0.07933483 0.030584367
000190 93 26 be bc a4 4a 6b bc d1 b9 00 bd 39 ce 44 3c
       -0.023211753 -0.014361057 -0.03142721 0.012012058
0001a0 54 9a 3b bb d0 d1 e7 3d 8b b2 4e 3c 2b 16 5b 3e
       -0.0028625922 0.113193154 0.01261581 0.21395175
0001b0 9f 7a 11 3d 8f 12 92 bd eb e6 47 bd 95 5a 51 3c
       0.03551733 -0.07132446 -0.048804205 0.012777944
0001c0 b3 75 f1 bd f1 ce a5 3d 76 34 41 be 9d 92 af bd
       -0.117900275 0.080961116 -0.18867669 -0.08572886
0001d0 e1 4f 4f 3d aa 84 e3 3c a9 69 23 3e 2a e6 9f 3e
       0.050613288 0.02777322 0.15958275 0.3123029
0001e0 78 c4 cb 3d fc cd 93 bd 0a b3 a1 3c d7 f2 05 3d
       0.09949583 -0.07217023 0.019738693 0.032702293
0001f0 76 c4 fc 3d 77 37 11 be 51 94 a1 bd af fe aa bc
       0.123421595 -0.14181314 -0.07889617 -0.020873396
000200 6e cf b6 3d 61 2c 84 bd e0 15 cb bd d3 1d 3e 3d
       0.08926283 -0.06453777 -0.09916282 0.04641516
000210 65 04 75 3d 93 f1 83 3c 05 b7 92 bd 00 d3 6f 3e
       0.059818644 0.016106403 -0.071638145 0.23420334
000220 12 d8 8b 3c bb 6e 66 bd 61 f4 07 3e 02 e8 0b 3e
       0.017070804 -0.056257945 0.13276817 0.13662723
000230 58 11 cf 3c 0a 9d b9 3b 5b d4 1a bd 62 a6 18 3e
       0.025276825 0.0056644725 -0.037800174 0.1490722
000240 37 ba bb bd 06 63 b7 3b 99 07 30 3e 04 af b2 bd
       -0.09166377 0.0055965213 0.17190398 -0.08724788
000250 4a 9a d6 3d 71 64 e4 3d 55 82 76 bd c5 8f 49 3d
       0.10478647 0.1115197 -0.060182888 0.049209375
000260 28 fa 8f bd 18 75 bf bc 26 1e cb 3d 58 92 76 bd
       -0.070301354 -0.023371264 0.0991786 -0.060198158
000270 f0 d7 9e bd 81 00 f6 bc 3c 8f 11 3e 5f f7 8b bd
       -0.077560306 -0.030029537 0.14214796 -0.06834292
000280 c7 aa 95 bd b4 65 77 3d 38 61 22 3d a5 94 6a bd
       -0.07307964 0.060399726 0.039643496 -0.057270665
000290 e3 1b 01 be d1 ed 02 be 63 d7 ea 3d a5 e0 3f 3e
       -0.12608294 -0.12786032 0.11466863 0.18738039
0002a0 b0 af f4 3c 2e b5 0e 3d 57 9a fc 3d d7 19 85 3d
       0.02986893 0.034840755 0.123341255 0.06499069
0002b0 bc ca 6f bd 5f 39 b5 3b 24 d6 10 bd e1 6b 0e 3d
       -0.058542952 0.005530521 -0.03536047 0.03477085
0002c0 da 6f 1a bd 9c dd 3c bd 5a 9c d4 bb cb 26 18 3d
       -0.037704326 -0.04610978 -0.006488365 0.03714637
0002d0 fc 01 0d 3d ac f3 4e 3d 74 54 67 3e a1 10 1a 3d
       0.03442572 0.050525352 0.2259081 0.037613515
0002e0 d3 5a 85 bd e4 aa 48 bd 00 9b 9c 3d ab 5a 6b 3d
       -0.06511464 -0.0489911 0.076467514 0.057459515
0002f0 a9 1f 16 3e 32 cc 6d 3e 6c b3 b3 bd 80 7c d0 bb
       0.14660515 0.23222426 -0.087744564 -0.006362498
000300 04 2b ca 3d 59 24 56 bd cf 7a 21 bd 7b fd d1 bd
       0.09871486 -0.052280758 -0.03942376 -0.10253426
000310 c3 24 05 be e6 13 11 bd 55 68 76 3d 05 29 55 bc
       -0.13002305 -0.035419367 0.060158093 -0.013010268
000320 35 fc 93 bc 47 6c 85 bc 2d 9a ac 3d 7b 93 a4 3c
       -0.018064598 -0.016286982 0.08427844 0.020089855
000330 94 11 b6 3d 8b 6a 65 3d f0 90 94 bc 16 d3 83 bc
       0.088900715 0.05600981 -0.018135518 -0.016091865
000340 8f b1 3e 3d a6 b9 9c bd 1d ce d3 3d 95 69 b1 3d
       0.04655605 -0.07652597 0.10342047 0.08662716
000350 d2 39 a6 bd 63 dc 91 bc 01 cc 27 bd 32 cb 99 3c
       -0.08116497 -0.017805284 -0.040966038 0.018773649
000360 51 e1 08 3d b0 fa a4 bd e7 c1 be 3d 92 67 4f bd
       0.033418003 -0.08055627 0.09314328 -0.05063588
000370 5d 77 94 bd e2 c3 ed bc b9 2d cb 3d 8b ec f9 3d
       -0.07249329 -0.029024068 0.0992083 0.1220332
000380 6a bc 6b 3d 78 69 32 3d a0 02 5b bc da 91 98 3d
       0.057552733 0.043557614 -0.013367325 0.07449694
000390 98 37 3b bb c8 83 9f 3d 68 1d 04 3c ee 74 86 bd
       -0.0028567072 0.07788807 0.008063652 -0.06565271
0003a0 fa 53 a7 bd 05 d7 2e 3d 22 0d e0 bd 6d 66 19 3d
       -0.08170314 0.042685527 -0.10940005 0.037451196
0003b0 aa c0 da 3d b3 40 77 bd 05 b8 d5 bd 06 a5 88 bd
       0.10681279 -0.060364436 -0.104354896 -0.06672101
0003c0 08 1f d3 bd 9e c0 70 3d 68 49 56 bd 09 20 ca 3d
       -0.10308653 0.058777444 -0.0523161 0.098693915
0003d0 8e 09 4b bb db f5 66 3c d7 e1 24 be 1d df 0c be
       -0.0030981037 0.014096702 -0.16101776 -0.13756986
0003e0 a0 02 d8 bc 55 06 3a 3e 3d 3a ab 3c 08 e4 69 3d
       -0.02636844 0.18166478 0.020901794 0.057102233
0003f0 f0 d4 0d 3d d1 4b ac 3d 55 de b5 bc 31 a2 c2 bd
       0.0346269 0.08412898 -0.022200743 -0.09503592

fc.bias f4 [30]
000000 a2 ad 4f 3e 89 01 6d 3d 20 d1 8e be ca f8 aa 3e
       0.2028108 0.057862792 -0.27893925 0.33392936
000010 72 bd 84 be 15 41 5a be 7a a1 8f 3e af 4a fe bc
       -0.25925785 -0.2131389 0.28052884 -0.031041471
000020 42 c6 17 3e 9b bc d0 3c b0 e3 9c 3c ba 8e 00 3e
       0.14821723 0.02548056 0.019151539 0.12554446
000030 fd 6d 3d 3e 94 5b 68 3e 47 0f 8d be c3 6f 55 3d
       0.18498988 0.22691184 -0.27550718 0.052108537
000040 0f f7 3e 3d 7e 38 83 3e be f7 40 3e cf e6 b2 3d
       0.046622332 0.25629038 0.18844506 0.087354295
000050 b4 9a 68 3e 1d a2 a6 3d bf 9f ac be f2 39 ad be
       0.22715265 0.081363894 -0.33715627 -0.3383327
000060 a8 18 12 3e 40 21 03 3e 5c f4 bc bc d3 e9 37 3d
       0.14267218 0.12805653 -0.023065738 0.044900727
000070 c7 25 a7 3e b8 c8 f8 bd
       0.3264601 -0.12147659
