situation_analysis/updated_model/model_window30_horizon1.pth (torch, 924074 bytes, 27 tensors)

adapt_adj f4 [30, 30]
000000 06 58 5e 3f ce 3c 27 be 16 0a 85 3e c0 64 3c 3d
       0.86853063 -0.16331789 0.25984257 0.04599452
000010 0f 93 09 bd e8 fe d7 bd 69 af ee bd 9e ec 54 be
       -0.03358751 -0.105466664 -0.116545506 -0.20793387
000020 e8 c2 82 be 7b 5a 45 be 2f 65 9c bd 93 bc 47 bd
       -0.25539327 -0.19272797 -0.07636487 -0.048763823
000030 79 ac 7f be 5f e9 85 be f7 98 c4 3d 8d 9b 26 3e
       -0.24968137 -0.2615461 0.09599488 0.16270275
000040 cd a2 34 bd ca 38 e2 ba 46 dd 1f 3d c0 06 ea 3d
       -0.04410057 -0.0017259356 0.039029382 0.11427069
000050 46 d6 45 be 92 a9 05 3e 44 5e 1e be 45 f6 0c be
       -0.1932002 0.13052967 -0.15465647 -0.1376582
000060 6c c4 a9 3d ec 63 7a be ca b6 01 be 01 6f 7f bd
       0.082894176 -0.2445218 -0.12667385 -0.06236172
000070 f7 67 0f be 19 53 2b be bf 53 83 be 60 fc 32 3f
       -0.14004503 -0.16730918 -0.2564983 0.69916344
000080 e7 12 3c be d4 5e 89 bd 7a 25 89 be cb c4 2b be
       -0.18366586 -0.0670754 -0.26786405 -0.1677429
000090 04 7d 6c be c4 fd ab 3d 71 66 e2 3d b1 87 7c be
       -0.23094565 0.08398011 0.110546954 -0.24661137
0000a0 43 5c af be 0d 1a 34 be 66 8f b8 3d 5d 97 16 3e
       -0.34250078 -0.17588063 0.09011726 0.14706178
0000b0 d8 a4 38 be b6 de f7 3d b5 f5 f4 bc f7 e9 af bd
       -0.18031633 0.121030256 -0.029902318 -0.08589547
0000c0 4c 1c 43 3d 08 1c 9e be 67 bd e1 bd 94 fa 9b 3d
       0.047634408 -0.3088076 -0.11022454 0.07616153
0000d0 58 6d c3 bd e8 1a f2 be 9e 8e 85 bd 6c 9d af 3c
       -0.0954234 -0.47286153 -0.06521343 0.02143737
0000e0 ec f7 99 bd f6 54 f2 bd 36 7b 21 bd 3d f2 a6 be
       -0.075179905 -0.11832611 -0.039424144 -0.32606688
0000f0 e7 b2 04 be 6e 16 86 be 18 cb 15 3f c4 f2 dd bc
       -0.12958871 -0.26188987 0.5851302 -0.027093299
000100 b7 75 ad be 9d 83 5c be fa b7 d1 bd 6b 9e 38 be
       -0.33878872 -0.21534581 -0.10240169 -0.18029182
000110 b4 5a a4 bd 16 11 dc bd df da a7 be f9 9f 84 bd
       -0.08025113 -0.107454464 -0.32784173 -0.06475825
000120 8f 59 33 be 23 59 90 be 48 4a 8b be dc e1 d8 bd
       -0.17514633 -0.28193006 -0.2720511 -0.10589954
000130 d3 44 84 be 75 33 8c be a2 b9 5f 3d 9a 24 e2 bd
       -0.2583376 -0.2738301 0.054620393 -0.110421374
000140 79 b4 fb bd 67 4c 4c be f1 a3 ff bd 26 96 d2 bd
       -0.12290282 -0.1995102 -0.12482441 -0.10282545
000150 8e c1 a7 be 34 7e 41 be 0c da ad be f1 a6 bd be
       -0.32764858 -0.18895799 -0.3395542 -0.3704143
000160 d5 43 f7 bd 2d cc 2c be c4 83 b7 3d 8a 8f cb bd
       -0.12073485 -0.16874762 0.08960679 -0.09939487
000170 0a 36 2d 3e f4 49 45 3f 4c ed 85 be 1b 63 b0 3d
       0.16915146 0.7706597 -0.26157606 0.08612653
000180 fe 84 9e be 65 89 f1 bc 5a 1d 3a 3a 7e b6 b8 bd
       -0.3096084 -0.02948446 0.00070997106 -0.090191826
000190 fb 0e 53 bd e7 d3 e8 bd 4a 53 af be 84 5a 50 be
       -0.05152796 -0.11368542 -0.34243232 -0.20347029
0001a0 6d 5d 6f 3d f6 0f 04 ba 5c 63 d9 bd 89 ab 9e be
       0.058438707 -0.0005037779 -0.106146544 -0.30990246
0001b0 26 43 42 bd 3c 7c 7e be a5 91 67 be 84 54 0b 3d
       -0.04742732 -0.24852079 -0.22614153 0.034016147
0001c0 14 65 e0 bd 16 f0 55 be bd 6c 7b be 7a 4f fa bd
       -0.10956779 -0.20892367 -0.24553199 -0.1222219
0001d0 cd 2f 0e 3e e0 c5 a7 be 73 c5 48 be 42 a0 b4 3d
       0.13885422 -0.32768154 -0.19606571 0.08819629
0001e0 4e c8 d3 bd f0 7c 0c 3d 11 49 7b bd 29 9d 4d 3d
       -0.103409395 0.034298837 -0.06134898 0.050198708
0001f0 ee 2a 21 3f f5 57 80 be b8 45 fc 3c 3d 5c c9 bd
       0.6295613 -0.25067106 0.030794963 -0.09832046
000200 b9 a3 d0 3d 85 1c 1e 3e 45 e9 81 3d ce f9 b7 bd
       0.101874776 0.15440567 0.06343321 -0.08983193
000210 b1 2f f6 3d aa 69 c2 be 1f ca 16 be 88 71 2c be
       0.12020815 -0.3797124 -0.1472554 -0.16840184
000220 87 32 95 3c a3 78 a6 bd 7b 50 75 be 11 9f 89 3e
       0.01821257 -0.081284784 -0.23956482 0.2687917
000230 8c ba 1e be 50 51 1a 3e cc bb ab 3d de 08 8f 3d
       -0.1550085 0.15070081 0.08385429 0.06984113
000240 8d c0 b8 3d 28 c5 13 bd b3 6b 79 be 1d ff 8b bd
       0.09021101 -0.036076695 -0.2435749 -0.06835768
000250 e6 6d c6 be 6f b6 33 bc 8a f5 70 be a3 65 ba bd
       -0.3875572 -0.0109687885 -0.23531166 -0.09101417
000260 1e 90 02 be 61 23 98 be 32 c8 45 bd aa 50 09 3f
       -0.12750289 -0.29714492 -0.048286624 0.5363871
000270 f4 f9 a5 be c2 e9 45 be f2 de 9c be 3f 82 db bd
       -0.32417262 -0.19327453 -0.30638844 -0.10718202
000280 e3 f5 6a be 13 ac 01 be bf 5c e6 bd c1 66 c2 bd
       -0.22945361 -0.12663297 -0.11248159 -0.09492255
000290 0b 0f 81 3c 54 f5 fb bd 52 92 4d be 87 49 9d bb
       0.015754243 -0.12302652 -0.20075348 -0.004800025
0002a0 e9 07 32 be c4 94 e5 3d 43 17 2f be 4c 3f e6 bc
       -0.1738583 0.112100154 -0.17098717 -0.028106354
0002b0 95 05 f6 bd c8 e5 e8 bd e5 39 17 be 9e 66 63 3d
       -0.120127834 -0.11371952 -0.14768179 0.055517785
0002c0 72 4a b3 bd 69 c8 81 be 51 1e b6 bd 43 f9 07 be
       -0.08754434 -0.25348213 -0.08892501 -0.1327868
0002d0 8a d3 8b be 6f 9b 5a be fb 27 58 bd 50 cf 29 be
       -0.2730983 -0.21348356 -0.052772503 -0.1658299
0002e0 66 4d 48 be 55 96 83 bd 0d ec cc 3e 49 96 22 be
       -0.19560775 -0.06425158 0.40023842 -0.15877642
0002f0 3a 9a 0c be 0c f1 29 be 46 b1 39 be 91 7e 69 be
       -0.13730708 -0.16595858 -0.1813403 -0.22802188
000300 40 73 ae bd 67 eb 57 bc 93 63 0e be 5d bb a5 bd
       -0.08518076 -0.013178683 -0.13905172 -0.08092377
000310 51 26 8a bd ea 3d 7d bc ef 15 8c bd ff e3 d4 3d
       -0.067455895 -0.015456656 -0.06840121 0.10395049
000320 fc 57 81 bc e6 da 00 be 8b bb b8 bd 0e 26 7f bd
       -0.015789025 -0.12583503 -0.09020146 -0.06229215
000330 cb b6 7f be 6f 42 25 be 5a 60 0b be 42 a2 2f bd
       -0.24972074 -0.16138624 -0.13610974 -0.04287935
000340 8e 13 61 3d 50 ce 85 be da 79 8a be 4f ab 2b 3e
       0.05495029 -0.26133966 -0.2704609 0.16764568
000350 38 73 3d bd 58 d6 a7 bc ae 8a 02 be 75 9a c9 bd
       -0.04625246 -0.02048795 -0.12748215 -0.098439135
000360 5c bd 7c 3b 7b bb 11 3f bf 08 b7 3d 1d c8 e3 bd
       0.0038565015 0.569267 0.08937215 -0.11122153
000370 df 22 0a bd f3 a8 0b be 36 da 2f bc 99 71 3d bd
       -0.033724662 -0.13638668 -0.010733178 -0.046250913
000380 a1 dc 23 bd 50 d3 fc 3b 62 5b c6 3d 8b a4 14 be
       -0.04000533 0.00771562 0.09685399 -0.14515893
000390 9e 61 e2 3d 1b 85 d6 3d 36 15 5c 3d de dc da bd
       0.11053775 0.104746066 0.053731166 -0.10686658
0003a0 75 fa 5e 3e b9 06 7a bd 11 a6 f5 bd 5d d1 ac ba
       0.2177523 -0.061041567 -0.11994565 -0.0013184954
0003b0 db 13 25 bb 50 2d ce 3d 21 e9 16 3e 5e 9b 9e bd
       -0.0025188837 0.100672364 0.14737369 -0.07744478
0003c0 d4 5d dd be dd 6e 01 3e 11 70 3d be b9 25 c6 bd
       -0.43235648 0.12639947 -0.18499781 -0.09675164
0003d0 33 c9 2b be 0a b6 6d be d0 83 56 be f1 b7 83 bd
       -0.1677597 -0.23213974 -0.2094872 -0.064315684
0003e0 ad d8 e9 3e 82 2e ad bc 90 05 5e be 07 69 8e be
       0.45673123 -0.02114034 -0.2168181 -0.27814505
0003f0 e0 04 8d bd 29 0f 8c be 4e ef 79 be be ab 91 be
       -0.068856955 -0.27355316 -0.24407694 -0.2845134

gc1.fc.weight f4 [128, 36]
000000 e4 35 28 3e 06 4a 17 3e 83 c1 68 3d 40 53 20 bd
       0.16426808 0.14774331 0.056825172 -0.039141893
000010 2a e6 83 bb 1d 57 22 3d ed ae 04 bd f9 2c ac 3d
       -0.0040252404 0.03963386 -0.032393385 0.08407015
000020 31 d5 03 3e 6f d9 d8 bc ca 33 99 3d e5 8c ca 3c
       0.12874295 -0.026470868 0.07480581 0.024725387
000030 6f 87 38 be 99 25 11 3e 1f 39 3c 3e 83 a1 4f 3d
       -0.18020414 0.14174499 0.18381165 0.05069114
000040 99 7b 0d 3e a3 20 3c 3d 54 44 86 bd 34 14 2d bd
       0.1381668 0.045929562 -0.06556001 -0.042255595
000050 59 69 6f 3d 9c 18 38 be 62 ec c7 bd 14 97 86 3e
       0.058450077 -0.17978138 -0.09761883 0.26287138
000060 6d 28 71 3c 0b 7d 0f be 1d 10 dd ba b8 91 12 3e
       0.014719111 -0.14012544 -0.0016865764 0.143134
000070 40 c4 3b 3d 05 8b 12 be a6 95 9e bd 42 6f 9f bd
       0.045841455 -0.14310844 -0.07743387 -0.077848926
000080 1d b0 b4 3c 41 6c f8 3b f1 c3 ba bd 36 f3 84 be
       0.022056634 0.0075812642 -0.09119404 -0.25966805
000090 27 8c 0d bc 26 e5 63 be ea cf c2 bd f5 ed 36 3f
       -0.008639372 -0.22255382 -0.09512313 0.71456844
0000a0 fc 84 cc bd 50 f8 e3 bd 5c b2 09 be 9c d8 c4 bd
       -0.09986302 -0.11131346 -0.13446945 -0.096116275
0000b0 2d 3e 07 3d 1d 3b 27 3e a3 cc ba bc 6e bd 9a bd
       0.03301828 0.16331144 -0.022802657 -0.07555662
0000c0 0a 43 90 be 5c 79 14 be 17 ea e0 3c 8b 93 d3 be
       -0.28176147 -0.1449942 0.027455373 -0.41323504
0000d0 a4 09 b8 3d f8 5a 4c be b7 5b 8b 3d 8e 2c 0f 3e
       0.08986214 -0.19956577 0.068046026 0.1398184
0000e0 de 5e ac bb 73 ea af 3d 25 fa d7 be 84 c1 d0 3d
       -0.0052603325 0.085896395 -0.42183033 0.1019316
0000f0 99 9a 9e 3e e7 39 e3 3c c0 62 3f be fc 33 35 be
       0.30977324 0.02773757 -0.18690014 -0.17695612
000100 9a 06 d7 3e 4e 96 ed 3e 99 a3 94 3e 81 b1 e8 3e
       0.41997224 0.46403736 0.29031065 0.45447925
000110 88 d9 91 be 64 a4 0f bd 69 1b 03 3e 78 71 3b 3c
       -0.28486276 -0.035068884 0.12803425 0.011440627
000120 77 7b 45 be be fb cf 3e 80 03 86 bd ef 12 19 bf
       -0.1928538 0.40621752 -0.06543636 -0.59794515
000130 6a 97 18 3e d9 70 8e bd 5f b2 21 bc 55 f9 0d 3e
       0.1490151 -0.06955118 -0.009869187 0.13864644
000140 b6 b7 88 3e 8f 42 bf 3e cc f2 94 3d 88 7e 21 3e
       0.2670266 0.37355468 0.07272872 0.15770924
000150 1e a3 1d 3e ef 8f 00 3e 8d 82 93 3d ce ff 04 3e
       0.15394256 0.12554906 0.07202635 0.12988207
000160 62 57 cb bd 84 05 4d 3e 04 da a8 3e 7d dc fe be
       -0.09928776 0.20021635 0.32978833 -0.49777594
000170 ed 20 fa 3e 6f ae 9e be ae 1c ff 3e 63 58 05 3f
       0.48853245 -0.30992457 0.49826568 0.5208799
000180 c4 28 8b 3e 7b 83 7f 3d f3 13 98 bd 21 d2 cf 3e
       0.2717954 0.06238125 -0.0742568 0.40590003
000190 da c1 2d 3e f3 5c 88 3c ee 07 1b be 4b a8 fc bc
       0.1696848 0.016645884 -0.15139744 -0.030841967
0001a0 2d fc f6 3d 0a fe 4a 3e ff 4d ef 3d 61 32 9a bc
       0.120598175 0.1982347 0.116847984 -0.01882285
0001b0 19 76 32 3e ab 8e 86 3e 61 ee a0 3d 0f c4 56 3e
       0.17427863 0.26280722 0.07857967 0.20973228
0001c0 a8 22 5f 3b a0 fb e2 3e bd 29 53 bd 78 bf 32 3e
       0.0034047756 0.443326 -0.051553477 0.17455852
0001d0 28 24 90 be 1c a9 1d 3e 65 0b ca bc b8 f4 4e 3d
       -0.28152585 0.15396541 -0.024663636 0.05052635
0001e0 b6 0a ae 3d 8d 28 bc 3e dd 20 0b be d4 c1 a1 3e
       0.08498137 0.36749688 -0.13586755 0.31593192
0001f0 e1 76 b1 3e 6c 33 be 3d 34 b0 0b 3e 48 05 3c 3e
       0.3466101 0.09287152 0.13641435 0.1836139
000200 b5 48 73 3e 47 2e 27 bd 6c c0 0d be 2d fc 86 be
       0.23758204 -0.040815618 -0.13842934 -0.2636427
000210 9d a1 2b be 33 f9 9c 3e 26 f7 1d 3e fe 0e 43 3d
       -0.1676087 0.30658874 0.15426311 0.04762172
000220 19 31 69 3d 56 c8 fa 3d 81 fe db be 22 de a0 3e
       0.05693159 0.12245242 -0.4296761 0.31419474
000230 59 05 60 3e 68 01 3b bd 60 56 57 be 4c dd ba be
       0.2187704 -0.045655638 -0.21029043 -0.3649696
000240 30 85 dd 3d f1 12 be 3e a1 61 8e 3d 89 fc 82 3c
       0.10816419 0.37123826 0.06952215 0.015989559
000250 1c 8b 4a 3d e7 a6 79 3d 02 ef a0 3d 4f 13 98 3e
       0.04944907 0.060950186 0.07858087 0.2970223
000260 36 79 40 3c 18 64 4b bd e6 82 08 be 9f 67 26 bc
       0.011747649 -0.049656004 -0.13331184 -0.010156541
000270 64 1e 90 3e 01 4b 25 3d 88 46 43 3e 4d d3 1b be
       0.28148186 0.040354732 0.19069874 -0.15217324
000280 81 d6 62 3d 96 74 de 3d 75 3b 50 bd 69 8a a9 be
       0.055380348 0.10862081 -0.050837953 -0.3311341
000290 22 fb cd 3d ed 13 cd be 8f af 6b 3e c5 27 d5 3d
       0.100576654 -0.40054265 0.23016189 0.10407976
0002a0 36 eb 53 3e 52 fd 1c be 20 aa 23 3d ea c5 89 3c
       0.20695195 -0.15331009 0.039957166 0.016818006
0002b0 97 9f 8d 3e 28 6d 55 be 51 38 8a 3d 6f 5c 14 3e
       0.2766082 -0.20842421 0.06749023 0.14488386
0002c0 6c 8d b2 3d 49 d3 02 be 50 0d 33 be 22 11 25 3e
       0.0871838 -0.12775911 -0.17485547 0.16119817
0002d0 ee 11 18 be 83 51 7f be 55 ec 31 be 19 ec c5 bd
       -0.1485059 -0.24933438 -0.1737531 -0.09664173
0002e0 5b 25 ea be 9b cc f2 3d a9 16 e6 3e 77 df 21 3f
       -0.45731625 0.11855432 0.44939163 0.63231605
0002f0 2e 4d 27 3e b3 8c 73 be d5 43 3a be f0 dc d9 3e
       0.16338035 -0.23784141 -0.18189938 0.42551374
000300 ff 2f fd be ca c7 e4 bd ad d3 f1 be 42 c7 06 3f
       -0.4945068 -0.11170919 -0.47231808 0.52647793
000310 b3 b5 51 3c 53 9d 26 be ba 01 43 be 01 52 c3 3e
       0.012799668 -0.16270952 -0.19043627 0.38148502
000320 c4 ff 22 be 6d 5c 5a 3e 64 4a bd be e9 03 d4 3b
       -0.1591788 0.2132432 -0.36970818 0.0064701927
000330 48 5e 26 be 72 52 e4 3e 25 48 e6 3d 1d 95 74 3a
       -0.16246903 0.4459415 0.11244229 0.0009330081
000340 7a 82 bb bc 03 67 8d be 56 11 3c 3e a0 92 19 3e
       -0.022889365 -0.27617654 0.18365988 0.14997339
000350 72 43 ba be 6f fb 9f be bf dd c6 be a9 6b 42 bd
       -0.36379582 -0.31246516 -0.38841054 -0.047465954
000360 6c fb 65 be 61 cc 17 3e 20 4a 33 3d 13 4b dc 3e
       -0.22459191 0.14824058 0.043771863 0.43026027
000370 d1 55 37 bd 9b 3e 18 bd 7b 2b f0 3d ea cb 15 bc
       -0.044759575 -0.03716908 0.11727043 -0.009142855
000380 12 ba 5d 3e fc 35 63 bd 2c 2b 49 be 2c 47 02 3d
       0.21653011 -0.055471405 -0.19645375 0.031806156
000390 d2 c2 67 3c 91 13 32 3d 0f 23 de bc aa f9 0a be
       0.01414557 0.04347569 -0.027116327 -0.13571802
0003a0 1b 4c 24 be 8d 18 fa bd 6c 48 76 be 3a 54 a0 be
       -0.16044657 -0.12211714 -0.24051064 -0.3131426
0003b0 a2 09 86 be 7c 64 89 bd f6 4a c7 bd e9 64 46 3d
       -0.26179224 -0.06708619 -0.097310945 0.04843608
0003c0 3a be 0a 3e 77 94 97 3d ae 4f b1 be d8 2c b2 bd
       0.13549128 0.07401364 -0.34631103 -0.086999595
0003d0 e0 b4 51 3e a8 35 9d 3e 6b a1 d0 3e 51 1f 0e 3e
       0.20479155 0.30705 0.40748152 0.13879134
0003e0 74 4f e3 bc ca e8 dc bc c2 74 a7 3b 55 c3 ce 3d
       -0.027747847 -0.026966471 0.005110354 0.100958504
0003f0 f1 4c f4 3d f0 be 74 3e ad c5 b7 3d 2d 42 d1 3d
       0.11928738 0.23900962 0.089732505 0.102177

gc1.fc.bias f4 [128]
000000 74 73 41 bf a2 d5 02 bf fc ca 0b bf 2c 15 a8 bd
       -0.7556679 -0.5110723 -0.54606605 -0.08207163
000010 57 d2 a1 be a2 15 cb be 34 88 f6 be 75 6b e7 be
       -0.3160579 -0.39664942 -0.4815079 -0.4519917
000020 61 02 d2 be 0d 02 55 bf 6e 8d 18 bf 10 b0 19 bf
       -0.4101744 -0.83206254 -0.59590805 -0.60034275
000030 98 4a 09 bf fb 8d 84 be b4 4d 16 bf 5c 93 43 bf
       -0.53629446 -0.25889573 -0.58712316 -0.7639673
000040 e7 aa 55 bf b3 c0 e9 be 25 6f d3 be 1d 5e 77 bf
       -0.834639 -0.4565483 -0.41295734 -0.9662798
000050 ab a1 fc be 28 00 81 bf db 7f 04 bf 9d 69 60 be
       -0.49342093 -1.0078173 -0.5175759 -0.21915288
000060 e8 44 e2 be cf 48 34 bf 96 82 3d bf bf 16 e5 be
       -0.44193196 -0.704236 -0.74027383 -0.44743916
000070 84 f8 c1 be d7 08 2b bf 80 3c 00 bf b1 74 37 bf
       -0.37884915 -0.66810364 -0.50092316 -0.7166243
000080 55 65 29 bf 27 e7 23 bf 52 25 1b bf e1 7b 67 bf
       -0.66170245 -0.64024585 -0.6060382 -0.904234
000090 ca 9e ef be 1c be 37 bf 3d f9 67 be d0 fc d7 bd
       -0.46800834 -0.7177446 -0.2265367 -0.10546267
0000a0 3a 42 2e bf 95 45 4f bf 1d 71 13 bf bd 84 b8 be
       -0.68069804 -0.8096555 -0.5759447 -0.3603877
0000b0 a6 ec 81 bf 5b 3a 76 bf 07 f1 25 bf bc f2 d3 be
       -1.0150344 -0.96182793 -0.64820904 -0.4139613
0000c0 57 9f de be 52 df 3a bf 31 8f 9c be 7a f3 5f be
       -0.43480942 -0.7299701 -0.30577996 -0.21870223
0000d0 e1 78 70 bf 5e 4e 8d be db 62 19 bf 5a a4 fc be
       -0.93934447 -0.27598852 -0.59916466 -0.4934414
0000e0 8d bc 6c bf d3 f8 fc be c9 37 12 bf ca 1e 25 bf
       -0.92475206 -0.49408588 -0.5711637 -0.64500105
0000f0 22 73 37 bf 80 5b 23 bf 60 03 fb be 2b 15 d0 be
       -0.71660054 -0.6381149 -0.49026012 -0.4064115
000100 fa 60 50 be 53 41 ad be 7c fa 3c bf 75 38 dd be
       -0.20349494 -0.338389 -0.7381971 -0.43207136
000110 68 1e 66 bf b7 31 86 bf e7 63 e1 be a0 8d 43 bf
       -0.89890146 -1.0483922 -0.44021532 -0.7638798
000120 02 b1 5a be e6 0f 05 bf e7 9f 0c bf e2 29 65 be
       -0.21356586 -0.51977384 -0.5493149 -0.22379258
000130 d9 ef f6 be 39 92 14 bf df d7 ca be 69 03 0c bf
       -0.48229864 -0.5803562 -0.39617822 -0.54692703
000140 25 82 42 bf 4b 39 4f bf 94 4c ed be b2 a3 2b bf
       -0.75979835 -0.809468 -0.46347487 -0.67046654
000150 36 45 18 bf 74 73 af 3d ed 2a 8f be 49 37 3f bf
       -0.5948061 0.08566943 -0.27962437 -0.74693733
000160 6f 3e da bc e9 9e bb be 68 4d 3a bf cf 26 80 bf
       -0.026641099 -0.36644676 -0.7277436 -1.0011843
000170 8c 7b d3 be 79 1a 18 bf 4b bc 3c bf 34 57 f9 be
       -0.41305196 -0.59415394 -0.7372481 -0.48699343
000180 55 a2 d7 bd 8e 44 32 bf b3 74 36 bf f7 cd 36 bf
       -0.10529009 -0.69635856 -0.7127182 -0.7140803
000190 dd 4c 41 bf bd 75 71 bf 17 1b a4 bf 27 45 92 be
       -0.7550791 -0.9432028 -1.2820767 -0.28568384
0001a0 16 e3 11 bf 6a 2f 42 bf b6 4b 62 bf 07 bf 15 bf
       -0.5698713 -0.758536 -0.88396776 -0.5849461
0001b0 e8 c4 0a bf dd 1c 1a bf 44 7d 19 bf 88 7f 16 bf
       -0.54206705 -0.6020029 -0.59956765 -0.5878835
0001c0 93 cc 6c bf e8 8f ce be f9 ff 8c bf 6c 0b 0d bf
       -0.92499655 -0.40344167 -1.1015617 -0.55095553
0001d0 1d b0 10 bf 92 1b bd be db 0a 3c bf 31 12 f2 bd
       -0.5651873 -0.36935097 -0.73454064 -0.11819876
0001e0 85 6a 1c bf b0 8f 67 bf 30 ab 07 bf 08 95 a3 bf
       -0.61100036 -0.90453625 -0.52995586 -1.2779856
0001f0 d9 3f 14 bf 33 32 28 bf 0f f5 1d bf a4 a5 aa be
       -0.57909924 -0.657016 -0.61702055 -0.333295

gc2.fc.weight f4 [128, 128]
000000 94 07 09 3e 06 e6 12 be d0 30 f6 3d dd d3 44 bd
       0.13381797 -0.1434556 0.12021029 -0.04805361
000010 af d9 87 be 94 65 e1 bc 8a 8d 22 be 09 c6 cc 3c
       -0.26533267 -0.027514257 -0.15874305 0.024996774
000020 95 a0 e9 bd 62 77 a5 3c ef 1c 1b 3c 34 8b 26 be
       -0.11407582 0.020198528 0.0094673475 -0.1626404
000030 65 bf 06 bf dd e2 26 3e e6 29 4c be f2 2e 8d 3e
       -0.52635795 0.16297479 -0.19937858 0.2757488
000040 f4 95 26 3e c2 59 25 3d 27 cf 1f 3e 80 ef 81 be
       0.1626814 0.040368803 0.15606366 -0.25378036
000050 3c 59 35 be 83 fa 2e bd 4e f9 4b 3e 69 a6 63 3e
       -0.17709821 -0.042719375 0.19919321 0.22231449
000060 69 eb d9 3c 6a 8e 88 be 3a 0c 20 bd 5b 52 4b 3e
       0.02660151 -0.26671153 -0.03907416 0.19855635
000070 32 b0 2c 3d b9 6f c0 bc 69 6a b2 be 7b 2d 8a be
       0.04216022 -0.023490774 -0.3484681 -0.26987824
000080 ec c9 ea 3d 89 63 c7 3d 4b f8 6c be e9 06 c8 b9
       0.11464295 0.09735782 -0.23141591 -0.0003815212
000090 7a 28 a1 be 1e 27 54 be 72 a6 f3 bd a1 b0 e5 be
       -0.31476194 -0.20718047 -0.11896981 -0.4486132
0000a0 48 a5 23 bd a7 9e e2 be 4b 95 0c be c1 0b f0 3c
       -0.039952546 -0.44261667 -0.13728826 0.02930248
0000b0 c1 de b0 3d 5d fa 66 be b4 81 4f bd ad 8d a0 3b
       0.08636237 -0.22556444 -0.050660804 0.0048997016
0000c0 44 1d b9 bd 93 4c cb 3c eb ec 8a be d1 47 f8 3c
       -0.09038785 0.024816787 -0.2713388 0.030307682
0000d0 f1 d2 68 be 63 00 00 bd ae db c7 3e 0f ed 65 3d
       -0.22736718 -0.03125037 0.3903479 0.05613428
0000e0 fd 12 b5 be ae fb 11 bf 90 6e c5 be e9 85 a9 be
       -0.3536605 -0.5702466 -0.38560915 -0.33109978
0000f0 f5 aa fe 3d 30 77 b3 bc 92 52 5e 3e 13 8c ec 3d
       0.12434951 -0.021907419 0.21711186 0.115501545
000100 cc 43 e1 3b 55 a1 ec 3d e1 54 12 3e f2 ce 5c bc
       0.006874537 0.11554209 0.14290191 -0.013477074
000110 71 94 fa 3d 1d 63 be bd 6a 8d b5 3d 70 e8 3a 3d
       0.12235344 -0.09296248 0.08864863 0.045631826
000120 3d b4 8a be 88 54 0a 3d 96 20 dc 3d bd 48 5c bf
       -0.27090636 0.03377202 0.10748403 -0.8604849
000130 09 0f 91 be b3 81 9b bd 79 67 80 bd 60 12 5c be
       -0.28331783 -0.075930975 -0.06269736 -0.21491385
000140 b6 bc 70 be 67 e2 b7 3d 96 ac 1b 3e b4 1d 3a be
       -0.23509488 0.0897873 0.15202555 -0.18175393
000150 54 db 29 be 41 ad d3 be fa 86 8a 3d e6 88 cb be
       -0.16587573 -0.4134312 0.06764026 -0.39752883
000160 ed b3 68 3e 96 3a c1 be c0 b3 18 be 3d 7f 5c 3e
       0.22724886 -0.3774001 -0.14912319 0.21532913
000170 6a 93 ee 3d 96 87 03 3c 9d 13 16 be f6 bc 27 bf
       0.11649211 0.008027932 -0.1465592 -0.65522707
000180 5a fe 21 be a4 42 3b 3e c8 32 ea bd a2 fd 6a be
       -0.15819684 0.1828714 -0.11435467 -0.22948316
000190 7e f9 b1 be 2b 28 f9 3d d4 7a e3 3d 04 88 27 3e
       -0.3476066 0.121658646 0.11107412 0.1636048
0001a0 6a ed a7 be 2f 8f 13 be 2d 10 29 be 87 59 27 3c
       -0.3279832 -0.14410089 -0.16510077 0.010214216
0001b0 df bc d6 be db a1 8f bd ee 23 01 bd b7 c9 9e bc
       -0.41940972 -0.07013293 -0.031528406 -0.019383295
0001c0 37 33 29 bc 46 9e 2b 3e a8 e3 f7 bc 46 49 81 be
       -0.010327152 0.16759595 -0.030259922 -0.25251216
0001d0 2d 6d 25 3d 40 8f 61 3d 4a bb 8b 3e 5a f0 91 3c
       0.04038732 0.055068254 0.27291328 0.017814804
0001e0 c9 0f 73 bd 7b 06 f7 3c 7d e4 5c be 7c 16 e4 be
       -0.059341226 0.030154457 -0.21571536 -0.44548404
0001f0 c6 bc 09 be f6 3c fa bd a7 fb ac 3d 10 83 d5 be
       -0.13450918 -0.122186586 0.084464364 -0.41701555
000200 bc ec 85 be a1 46 06 be b9 78 e6 3e 72 14 2a 3e
       -0.26157176 -0.1311288 0.4501398 0.16609362
000210 3b 89 d8 3e 13 26 48 3f 2f 8e 9c 3e 00 f2 20 3e
       0.422922 0.78183097 0.30577227 0.15717316
000220 d8 7e b6 3e 77 42 c5 3e e8 28 84 bd c7 e2 ad ba
       0.3564365 0.3852727 -0.06453115 -0.0013266437
000230 c0 be f8 3b 69 4e ad 3e 9b 17 d4 3e e7 97 0b 3e
       0.0075910985 0.33848885 0.4142426 0.13632165
000240 06 44 9c 3d 32 33 8c 3d 6f fb e9 3d b4 61 21 3f
       0.07630162 0.06845702 0.1142491 0.6303971
000250 cf e2 6f 3e 73 26 87 3e fe 67 39 3d a3 72 72 3e
       0.23426364 0.26396522 0.04526519 0.23676543
000260 2a 81 2f 3e 1a 8f 58 3d 10 fb 21 be 4c 80 db 3d
       0.17139116 0.052870847 -0.15818429 0.1071783
000270 0c 59 0b 3e 47 39 25 3e 29 52 24 bf 8a ab ff 3d
       0.13608187 0.16135131 -0.64187866 0.1248389
000280 42 65 a0 3d 16 f0 7d be 36 13 02 3d cd 1a 3d 3e
       0.078318134 -0.24798617 0.031756602 0.18467255
000290 62 c1 6a 3e 6d 62 30 3e 9c 3b 07 bf 73 6b 85 3e
       0.22925332 0.17225046 -0.5282533 0.2605854
0002a0 e0 7d 9f bd c9 cb 4c 3f 9a 06 a8 bd 86 59 0f be
       -0.077876806 0.7999845 -0.08204384 -0.13998994
0002b0 e1 e6 dd be 8e cd e3 3e e6 e4 1e 3f 2c 7b 9e 3e
       -0.4334021 0.44492763 0.6206802 0.30953348
0002c0 ee d7 cf 3d 4a cf 13 3e 13 03 5b be 84 85 34 3e
       0.10148607 0.14434543 -0.21387891 0.17629057
0002d0 75 a5 75 3d fe 35 59 3e c1 4c cb 3e 81 fe 21 bd
       0.059972245 0.21212003 0.39706996 -0.039549354
0002e0 a8 ae 71 bf e7 ec 06 3f 4a 82 1a bf b6 52 34 bf
       -0.9440713 0.52705234 -0.60355055 -0.70438707
0002f0 55 39 5d be ab 83 ff be 4e ba 70 3e 5b aa 79 3e
       -0.21603902 -0.49905142 0.2350857 0.24381392
000300 c9 81 c7 3e 4e e2 3c 3e e2 a8 81 bc 49 16 69 3e
       0.38966206 0.18445703 -0.0158276 0.22762407
000310 73 aa 0b bf 57 a2 4e bd 3f 18 db 3d bb d5 3b be
       -0.5455696 -0.050447788 0.10697984 -0.1834325
000320 ca 33 bb bd a8 f6 57 be 9a 72 0d 3e ec 49 20 3f
       -0.09140737 -0.21090186 0.13813248 0.62612796
000330 3c 59 24 3e 7a e3 cc 3e f6 38 50 be db 15 2f 3f
       0.16049665 0.400173 -0.20334229 0.68392724
000340 a3 b4 a6 be 93 0c f9 bd df ad b2 bc 24 e7 32 3d
       -0.3255969 -0.121606015 -0.021811424 0.043677464
000350 64 07 ce bd 62 58 03 be 77 a9 33 3e fb 2e 1c 3e
       -0.100600034 -0.12826684 0.17545114 0.15252297
000360 1b c7 11 3e 79 d6 da 3e cf e5 bd 3a 6d 16 81 3d
       0.14236109 0.42741755 0.0014488044 0.063031055
000370 ee fe f1 3c 9c 36 a7 3e bc bc a8 be 3a 69 54 be
       0.029540505 0.3265885 -0.32956493 -0.20743266
000380 d7 b5 24 3f b3 21 8a 3e 0d 45 47 3f a8 c2 f6 3c
       0.64339966 0.26978835 0.7783974 0.030122116
000390 7d c1 bf bc f6 db 02 3e d4 d2 98 3e 48 ab 29 bd
       -0.023407692 0.12779221 0.2984835 -0.041423112
0003a0 d7 72 9c 3e 09 0c 03 be 5f ea 34 3e 32 11 ea 3e
       0.30556366 -0.1279756 0.1766753 0.45716244
0003b0 05 c1 df 3d 51 a9 41 3e a1 26 d0 3e 0f d7 2e 3e
       0.109254874 0.18912245 0.40654472 0.17074226
0003c0 a4 c4 55 3e a7 3c 25 be 83 e3 8a 3e e9 86 28 bf
       0.20875794 -0.16136418 0.27126703 -0.65830857
0003d0 3a 20 58 3e 54 32 d3 3d f2 fd c0 be 32 4f e8 3d
       0.21106043 0.10312334 -0.37693745 0.1134323
0003e0 d0 d7 95 3d 88 b5 a2 3e f6 3f 6f bd 66 72 9e 3e
       0.073165536 0.31779122 -0.058410607 0.30946654
0003f0 3d 26 c8 3d 3e 08 8d be c6 a6 d1 3e 41 b0 0d 3f
       0.097729184 -0.2754535 0.4094755 0.5534707

gc2.fc.bias f4 [128]
000000 e4 aa d9 bb ff 5f 36 bd 7b 12 6a be 39 ea be bd
       -0.006642686 -0.044525143 -0.22858612 -0.09322018
000010 ff 7f 90 be a5 22 90 bc 8d e0 7f 3d 86 99 aa be
       -0.28222653 -0.017594645 0.062470008 -0.33320254
000020 72 b8 46 be fc a6 04 bc df 7e ce be 44 c6 dd bc
       -0.19406298 -0.008096453 -0.4033117 -0.02707208
000030 d2 ad fb be ea b9 bc be 48 68 25 bf 99 cf 87 be
       -0.49156052 -0.3686059 -0.64612246 -0.26525572
000040 c6 c0 a9 be 60 62 ac bb 9c ec a4 bd ff 70 14 bd
       -0.33154887 -0.0052607507 -0.08052942 -0.036240574
000050 dc cd b1 be 37 5f e5 be bf 72 08 bf 80 79 f9 bd
       -0.3472737 -0.44799206 -0.5330009 -0.121813774
000060 4f d0 54 bd 61 11 55 bf 47 58 09 bf 51 e5 b2 be
       -0.05195647 -0.83229643 -0.53650326 -0.3494058
000070 94 b0 28 bf 71 f3 5d bf 7c 94 10 be f0 46 01 be
       -0.65894437 -0.8669959 -0.14119142 -0.12624717
000080 55 f7 bd be 89 e1 33 bf c8 66 22 bf 08 5e ae 3e
       -0.37102762 -0.70266014 -0.6343808 0.34056115
000090 1d 45 4e 3e 53 3f 5f 3e 42 a9 a4 be 4b 08 d6 be
       0.20143552 0.218015 -0.32160383 -0.41803202
0000a0 f5 c8 ac 3c ae 16 3d bf 77 14 a3 be 52 fb 02 bf
       0.021091918 -0.7386273 -0.3185155 -0.51164734
0000b0 f4 18 f6 be 6c 05 41 bf e9 13 c0 be a1 a1 18 bf
       -0.48065913 -0.753989 -0.3751519 -0.59621626
0000c0 77 cb 24 bf ec 63 b5 3d 4b a8 df bd 87 b0 9c 3d
       -0.6437296 0.08856949 -0.10920771 0.076508574
0000d0 4e bf bd be 9d 62 f8 3c 30 52 a5 be b6 c9 fd 3d
       -0.37060016 0.03032046 -0.32289267 0.12391989
0000e0 7e 78 61 be a5 04 9e 3c 3d 8c 29 be 9f 61 33 bf
       -0.2201862 0.019289324 -0.16557403 -0.7007083
0000f0 52 d5 02 bf d6 e3 4e bf 4d de 3d be 48 d0 37 be
       -0.5110675 -0.808164 -0.18541832 -0.17950547
000100 ff a3 3f bf 9b d1 a9 bd 4e 23 ef be 78 8f 1d bf
       -0.74859613 -0.08291932 -0.46706623 -0.6154704
000110 0a dc 92 be 13 a3 a7 be b1 e7 00 3d e0 83 36 bf
       -0.286835 -0.32741603 0.03147096 -0.71294975
000120 43 aa a1 be 3f bb 24 3d c0 c7 2e 3d ce 98 11 3e
       -0.31575212 0.040217634 0.042670965 0.14218447
000130 3d d0 97 be 78 f5 0d 3e fc e1 d6 3d 89 49 e7 be
       -0.2965106 0.1386317 0.10492322 -0.4517329
000140 e7 0c 5b be 6d f4 70 3b a5 fd 37 be c7 bd 86 bd
       -0.2139164 0.0036766783 -0.17967851 -0.06579166
000150 ef e2 c6 be 2d a2 a1 be 36 8b 84 be fc 98 61 be
       -0.38845012 -0.31569043 -0.2588746 -0.22031015
000160 f9 b8 33 bf e4 2c d1 be c0 e7 ff 3d c1 2f 84 bf
       -0.7020412 -0.4085456 0.12495375 -1.0327073
000170 79 58 ba be dd b9 ad be 24 ab 7c bd 03 81 8b be
       -0.36395624 -0.33930865 -0.06168665 -0.27246866
000180 46 7f 9a be 16 12 12 bc 73 e7 72 bb cf 26 03 3d
       -0.30175227 -0.008915445 -0.0037064224 0.032019433
000190 fc 5c a3 be ed a2 31 bf 19 fc 76 bf 0e d4 75 3d
       -0.3190688 -0.6938923 -0.9647842 0.060016684
0001a0 2a 6e 8a bd 6e 98 48 be aa f0 2c be 1a cb 72 be
       -0.067592934 -0.19589397 -0.16888681 -0.2371029
0001b0 12 f1 72 be 03 85 db be 09 d0 1f bf f2 96 21 3c
       -0.23724774 -0.42874917 -0.6242681 0.009862648
0001c0 0f 94 bb be 39 ef 8f be 35 a5 27 bd 64 5f 86 be
       -0.36636397 -0.281122 -0.040929038 -0.26244652
0001d0 d4 ee 75 be 48 b9 4c bc 86 27 14 be 04 f9 01 bf
       -0.24016887 -0.012495346 -0.14468202 -0.5077059
0001e0 11 8e 9f be e0 b1 bf be c4 42 2a bf 08 99 da 3d
       -0.31163076 -0.37440395 -0.66508126 0.1067372
0001f0 48 4b 8c bc 87 5a 1f bf c9 84 80 be c7 0d 8e be
       -0.01712574 -0.6224751 -0.25101307 -0.27744886

temporal_conv.weight f4 [128, 128, 3]
000000 9a b7 9a bd 59 b6 34 bd 6a e5 c7 bb 85 48 c2 bc
       -0.075545505 -0.044119213 -0.0061003463 -0.02371622
000010 3c 99 fa bc f2 91 ea bc 04 d4 0a bd 4d b1 02 3c
       -0.030590646 -0.028634045 -0.0338936 0.007976842
000020 63 5d 16 3d c6 df 51 bd 4f 3e 4f bd 15 1d 38 3b
       0.036710154 -0.051238798 -0.05059653 0.0028093506
000030 f7 11 a0 bd e4 92 c4 bb e9 b3 ff 3c 4e a0 04 bb
       -0.078159265 -0.005998956 0.031213718 -0.002023715
000040 32 6d da 3b fa ea ac bc 7e 63 82 bc 7b a6 55 bd
       0.006665849 -0.02110814 -0.015916582 -0.05216072
000050 f9 ed 0c 3d 88 a6 09 bd 9d 8a 5b 3c 60 b3 0d bd
       0.034406636 -0.033606082 0.013399747 -0.034594893
000060 fa b8 ed bc cc b3 ef bd cd 74 bf bc 3a c3 b3 bd
       -0.029018868 -0.117042154 -0.023371125 -0.08777471
000070 24 f5 b9 bc 57 7d 19 bd 94 7a e8 3c d4 c0 44 bd
       -0.0226999 -0.03747305 0.028378762 -0.048035458
000080 df fc 60 3c 05 69 05 bd 72 04 2d 3d 91 6d 0a 3d
       0.013732164 -0.032570858 0.042240568 0.033795897
000090 f0 03 51 bd b0 f0 3e bd 44 b3 0d 3d 2d 94 3a 3c
       -0.051029146 -0.046616256 0.03459479 0.011387867
0000a0 b6 cd 85 bd 9b ed 87 3c fe 31 d0 bc a0 66 e0 bd
       -0.06533377 0.016592791 -0.025414463 -0.10957074
0000b0 b9 2b da bc d5 4e 4c bd c8 0a ad bd 30 16 1a 3d
       -0.026632177 -0.049879868 -0.08449322 0.037618816
0000c0 76 a4 92 bc 61 bb de bb 8c a9 3f 3d 1a 93 75 bd
       -0.017900687 -0.0067972397 0.046792552 -0.05995474
0000d0 be 65 b7 bc b2 79 ce bc 52 fb a3 bd ee 7f f2 bc
       -0.022387382 -0.025204513 -0.0800692 -0.029602017
0000e0 e4 db 47 bd 2b 07 f7 bc 3e 2f f2 3a 6b 55 0b bd
       -0.04879369 -0.030154785 0.0018477214 -0.034017008
0000f0 2d d5 47 bd db cc 4c bc e8 7c 3f bd ca 50 0a bc
       -0.048787285 -0.012500013 -0.04674998 -0.008442113
000100 4a b8 96 3c 65 ae 14 3c 50 5f cc bd 1a c9 f5 ba
       0.018398423 0.009074782 -0.09979117 -0.001875195
000110 38 18 c3 3c a5 90 98 bd e8 21 38 bd 60 fd 15 3d
       0.02381526 -0.07449464 -0.04495421 0.03661859
000120 0d 9f 0d bc a9 99 1a bd 94 93 33 bd 62 89 2d bd
       -0.008643878 -0.037744198 -0.043841913 -0.042367347
000130 ed 46 ae bc 6d 8b 3f 3d 9d 05 16 3d d9 ae 86 bd
       -0.021274054 0.046763826 0.036626447 -0.06576318
000140 e8 c1 4b bd db 92 cb bd 07 ce 18 bd 81 a9 43 bd
       -0.04974547 -0.0994012 -0.037305858 -0.047769073
000150 2f 6d b5 bc 65 aa f6 3c b2 a4 29 bd 49 aa 34 bd
       -0.02214679 0.030110547 -0.04141683 -0.04410771
000160 37 6d fc 3a e4 89 a2 ba ce 88 7b bd 6b 65 b5 bd
       0.0019258623 -0.0012400714 -0.061409764 -0.088572346
000170 94 e4 3c 3d c7 11 af 3b 5d e8 35 bd 2d be 4d 3d
       0.046116427 0.0053426954 -0.044411052 0.050230194
000180 08 ef fd bd 72 c3 93 ba 7b e3 2a bd 6a 30 97 bc
       -0.12399107 -0.0011273457 -0.04172085 -0.018455703
000190 53 cd 48 3c 9a d7 3b bd d8 eb 3f bd f1 8d 93 bd
       0.012255984 -0.04585991 -0.046855778 -0.072048075
0001a0 95 d2 95 bc b6 53 3d be f2 8f 65 be 0f cc b3 bc
       -0.01828889 -0.18488964 -0.22418192 -0.021947889
0001b0 fd 1c d6 bd 4c e5 e6 bd 50 29 a8 3c 04 f8 c8 bd
       -0.10454748 -0.11274204 0.020527512 -0.0981293
0001c0 57 43 27 bd 94 0c 05 3d ab 48 6d bd db 20 b0 bd
       -0.040835705 0.0324827 -0.05793063 -0.08600017
0001d0 97 dd f1 3b f5 29 07 bd fd c3 f9 bd ad 83 4a 3d
       0.007381152 -0.032998998 -0.12195585 0.049441982
0001e0 1d b0 d1 bb 19 b7 e5 bd 1e 34 d1 bc 21 91 cd bd
       -0.006399168 -0.11216564 -0.025537547 -0.10037447
0001f0 f9 a9 24 bd cc 50 1f bc 70 d7 54 bd 84 2a f7 3c
       -0.04020116 -0.009723853 -0.05196327 0.03017164
000200 3f fb f8 3c 53 42 81 3c e9 fb 81 bb b9 2f 98 3c
       0.030393241 0.015778696 -0.0039667976 0.018577443
000210 0c 7b 68 bd 40 fe 5a 3d 52 44 b1 3b 90 e3 15 3c
       -0.05675797 0.053465128 0.0054097557 0.009148493
000220 76 75 80 bc c2 24 3f bd 12 ec 2b 3d 75 77 e6 bc
       -0.01568101 -0.046665914 0.04197318 -0.028133133
000230 2e 2c 72 bc 69 ba 64 3d 6b 4a 2d bd 76 f2 3d 3d
       -0.014781041 0.055841837 -0.0423073 0.046373807
000240 47 f6 4d bd 9c 91 96 bd 7b a3 04 3d 9e 10 17 bd
       -0.050283697 -0.073519915 0.03238247 -0.03688108
000250 ab ff e1 bd d5 1f ba bb 1a b4 d6 bd f2 28 54 3c
       -0.11035093 -0.005680064 -0.104835704 0.012949215
000260 f6 43 06 3d 6d d5 d4 bd 1d 65 c5 bc 1c 40 e3 3c
       0.032779656 -0.1039227 -0.024096066 0.02774053
000270 5b 5a 8e bd 8e 87 56 bc e9 82 d5 bc 1a 74 a1 bc
       -0.06950828 -0.013093842 -0.0260634 -0.019708682
000280 de 6b 0d bd 7a c8 a4 bc 6b 75 43 bd 4a ed ca 3c
       -0.0345267 -0.020115126 -0.0477194 0.024771351
000290 29 fc 03 3d fd ee 31 bd 01 3e 30 bd ae 4c 4d bd
       0.0322229 -0.043440808 -0.04302788 -0.050121956
0002a0 43 9c 14 bd 74 dc a0 bd e1 a1 fc ba 79 47 da bc
       -0.036281835 -0.07854548 -0.0019274318 -0.026645409
0002b0 ef a9 46 bd bd d1 bb bc df 11 ec bd ae 53 ee bd
       -0.048501905 -0.02292716 -0.11526846 -0.116370544
0002c0 45 ca e6 3c e9 70 fa 3c 54 73 20 bd cd 3c 1c bc
       0.028172622 0.030571418 -0.039172485 -0.00953598
0002d0 e0 ea 04 bd 34 c7 a2 bd c9 2b 29 bd 1e c9 b4 bd
       -0.032450557 -0.07948151 -0.041301522 -0.088274226
0002e0 aa 66 e1 bc f9 5f 0c bd 4b c2 ec bc 74 3e bc bd
       -0.027514774 -0.034271214 -0.02890124 -0.091915995
0002f0 b4 09 e2 3c 4e d3 58 bd 6f 90 f5 bc 8b d0 f4 bb
       0.027592517 -0.05293589 -0.029976098 -0.0074711493
000300 c4 17 32 bd 84 05 e1 bc ae 19 1a bd 06 ec 84 bd
       -0.043479696 -0.02746845 -0.037622146 -0.064903304
000310 b4 ef 15 bc d0 75 e1 3c bd bb d4 bd b6 68 83 bc
       -0.009151388 0.027521998 -0.10387371 -0.016041141
000320 e3 16 84 3c 54 ae 31 bd 47 b1 66 bc 82 9b 43 bc
       0.016124194 -0.043379143 -0.014080352 -0.011938931
000330 dc b3 61 bd c4 0c 2d bd 76 43 19 3d ad d3 b8 bd
       -0.055103168 -0.042248502 0.03741785 -0.09024749
000340 04 d0 d5 bd 26 2e 4c bd 56 67 9a bd 1d 7e b1 bd
       -0.104400665 -0.049848698 -0.07539241 -0.08666632
000350 38 26 2f 3c 89 74 71 bd dd d3 2a 3d 48 9a bb bb
       0.010690264 -0.058949027 0.041705955 -0.005725179
000360 20 cf b3 bd d4 2e ec 3c a7 df c1 bc d2 21 5a bd
       -0.0877974 0.028830923 -0.023666216 -0.05325491
000370 5d c1 2d bd 8f 91 03 bc 5e 7b 19 bd 36 6d ab bd
       -0.042420734 -0.008030309 -0.037471168 -0.0837044
000380 d0 09 84 bc 1c 6c df 3c 8b 77 11 3c c6 06 05 bc
       -0.01611796 0.02727323 0.008878599 -0.008119291
000390 39 48 32 bd a2 2a cc bc 8d fb 1d bd a6 60 ab bd
       -0.04352591 -0.024922673 -0.038569976 -0.083680436
0003a0 3d 0c 01 3c cb ab 77 3c 5b 94 c3 3c de 6e e1 bd
       0.007876453 0.015116642 0.023874452 -0.11007474
0003b0 65 9b 0a 3d f5 f2 05 3d 86 fb 47 3d ef 86 58 bb
       0.033839602 0.032702405 0.048823856 -0.003303941
0003c0 0f 91 8c be 64 04 3f bd 86 ce 4f bd e5 e9 97 bd
       -0.2745442 -0.046635047 -0.050734065 -0.07417659
0003d0 a5 29 08 bd 41 09 23 bd 70 f5 2f bd 3f 3b 32 bd
       -0.03324284 -0.039803747 -0.042958677 -0.043513533
0003e0 a1 55 9b ba d1 92 86 bd 25 cd 18 bd a9 96 8c 3c
       -0.0011851081 -0.06570972 -0.037305016 0.017161684
0003f0 92 7c 5c 3d 47 38 45 bc cf 98 bd bc d2 ee b3 bd
       0.053829737 -0.012037343 -0.023144154 -0.08785786

temporal_conv.bias f4 [128]
000000 27 42 b9 be b0 ca 09 3f 37 18 7f be df 3a 82 be
       -0.36183283 0.538249 -0.24911581 -0.2543554
000010 1d be f5 be 75 66 56 3e 6f c7 92 be 21 a8 09 3f
       -0.47996607 0.20937522 -0.2866778 0.5377217
000020 87 fd e6 3e 10 44 19 bf 3b ab a5 bd 59 df c4 bd
       0.451153 -0.5986948 -0.080893 -0.09612913
000030 87 27 3c 3f 7b e9 03 3f a0 2a c8 be a4 f8 21 3f
       0.73497814 0.5152814 -0.3909502 0.6327002
000040 c9 b4 37 3e 5d dd 25 3f c1 c4 e0 3e 84 1b 2e bd
       0.17940058 0.647909 0.4390011 -0.04250671
000050 48 80 cc 3e 41 0b 91 bd 9c b9 a9 be 71 a2 10 3f
       0.3994162 -0.07082225 -0.3314942 0.56497866
000060 13 7f 02 3f 03 08 f4 3e c7 67 a4 be 9e ab c8 bd
       0.5097515 0.47662362 -0.32110426 -0.097983584
000070 e5 2c 0d 3f 17 7f 28 3e 6d ea ed 3e df 92 0d bf
       0.5514663 0.16454731 0.46467915 -0.5530223
000080 5b 2c 02 bf 7a 22 2a 3f ed ab 81 be 1b 94 0d 3f
       -0.5084893 0.6645886 -0.2532648 0.55304116
000090 5f 96 56 be 91 b7 9a 3e 9f 23 b9 bd 76 ec 0c 3f
       -0.209558 0.30218175 -0.09039997 0.5504831
0000a0 a5 a3 5b be 43 6c 15 3f 19 82 0a 3f c5 84 46 be
       -0.21449144 0.5836832 0.54104763 -0.19386585
0000b0 09 89 ff be 03 6e fc be 4d 49 95 3e dd f5 15 3e
       -0.49909237 -0.49302682 0.29157487 0.1464457
0000c0 21 d3 20 3f f5 e2 10 3f a5 86 d7 3e bc 15 8a 3c
       0.6282216 0.5659631 0.42094913 0.016856067
0000d0 cb b3 cf 3c ef e1 ac be a9 4f a6 be c0 7e bf be
       0.025354287 -0.33766124 -0.3248265 -0.3740139
0000e0 ce ef d2 3e 76 f4 1f 3f 96 f3 77 3e 9f a8 b3 3d
       0.4119858 0.6248239 0.24214014 0.08772396
0000f0 73 63 f4 be b2 c8 13 3f ee f2 a3 be 1b 25 c6 be
       -0.47732124 0.5772811 -0.32021278 -0.38700184
000100 f7 81 00 3f c9 12 ff 3e e6 bd ad 3e 7d 1d 1c 3f
       0.5019831 0.4981902 0.33933944 0.60982496
000110 6d 42 c7 be 57 90 bd 3e a9 77 06 3f ff 8f 18 bf
       -0.38917866 0.37024185 0.52526337 -0.5959472
000120 0e 44 45 be 28 f2 d6 3e c0 0b b3 3e 20 47 b7 be
       -0.19264242 0.41981626 0.34969902 -0.35796452
000130 ed d5 02 3e f0 a8 00 3f be 53 e3 be 4a 89 90 be
       0.12776919 0.5025778 -0.44399828 -0.28229743
000140 68 22 6d 3e b2 c4 1f 3f 47 a2 01 3f 3f e5 45 3f
       0.23157656 0.6240951 0.5063824 0.77302927
000150 25 e7 07 be 48 dc 36 be ba 59 cd 3e 2e 25 57 be
       -0.13271768 -0.17857468 0.40107518 -0.21010277
000160 f3 5c 11 3f 03 58 a8 3c d3 d3 a7 3e c4 51 b7 3e
       0.56782454 0.02054978 0.32778797 0.3580457
000170 ef 6d 90 be cb 25 6e be 61 cd 01 bf 0d 44 68 bf
       -0.28208873 -0.23256604 -0.5070401 -0.9072884
000180 d0 1d b9 be e0 45 09 3f 50 ca c7 be ed a5 39 3e
       -0.36155558 0.53622246 -0.3902154 0.18129702
000190 be 29 8a be 4b 69 ac be b2 1f cb be ef a5 f9 3e
       -0.26984972 -0.33674082 -0.3967262 0.4875941
0001a0 f4 5d f9 3e c7 02 05 bf 90 98 cd bd 96 85 d4 bd
       0.48704493 -0.5195736 -0.100388646 -0.10377042
0001b0 08 4f ff 3e 65 53 ff 3e cb b8 57 be f4 b2 86 be
       0.49864984 0.49868312 -0.21066587 -0.26308405
0001c0 28 0e 52 be 82 14 b1 3e e5 2b c7 be 3d 42 e4 3e
       -0.20513213 0.3458596 -0.38900676 0.44581786
0001d0 51 29 97 be 6d f7 16 3f 48 ed 37 bd ac 42 90 3e
       -0.2952371 0.5897129 -0.044904023 0.28175867
0001e0 0b cc 30 3e e0 de 06 3f 92 b4 9d be 71 fc 8e be
       0.17265336 0.5268383 -0.30801827 -0.27926973
0001f0 c6 7d 28 3e 38 20 18 3f 40 0f 0c 3f bc 57 23 3d
       0.16454229 0.5942416 0.5471077 0.039878592

fc.weight f4 [36, 128]
000000 bf 5f 9f 3c 97 ee a7 3d e9 73 ae 3d ab 49 3b be
       0.019454835 0.08199804 0.08518202 -0.18289821
000010 a0 97 34 3e 8f 77 d3 bd c5 0f e1 3b e2 19 15 bb
       0.17635965 -0.10325538 0.006868335 -0.0022751023
000020 84 53 cd 3c c0 7c c0 be aa f8 bc bd 2a aa bb 3c
       0.025064237 -0.37595177 -0.092271164 0.022908289
000030 47 19 7f bd ca 3d 46 be 9b bb f1 bd f1 18 08 be
       -0.062279966 -0.19359508 -0.11803361 -0.13290764
000040 c8 8f 80 3c e9 c7 7e 3d 61 e0 67 be 3a 95 6f 3d
       0.01569356 0.062202368 -0.22644188 0.058491923
000050 60 2c 1f 3d 09 3c 5e bd dc 48 cb bd 46 f5 05 3e
       0.03886068 -0.054256473 -0.09926006 0.13081846
000060 b2 5e 59 bd fa 6c 3a be b8 6b b1 be c2 04 67 3d
       -0.053068824 -0.18205634 -0.34652495 0.05640102
000070 15 2b 7d 3c 69 2b 92 3b a5 32 48 3e a4 56 b2 3c
       0.015452166 0.0044607413 0.1955057 0.02176983
000080 da 1b d6 3a 70 ae 78 be 3e 81 50 be f7 20 50 bd
       0.0016335205 -0.24285293 -0.20361802 -0.050812688
000090 a9 69 d8 bd 31 fd 4b be 52 a0 f1 3c 9f ae d8 bd
       -0.10567028 -0.19920804 0.029495392 -0.10580181
0000a0 59 95 08 3e 2a 90 00 3e 44 2a 0f be 2d 0e 12 3d
       0.13338222 0.12554994 -0.13980967 0.03565805
0000b0 a1 93 61 bd 01 22 83 be b1 85 05 3d 44 18 1e bd
       -0.05507243 -0.2561188 0.0325982 -0.03859736
0000c0 5e 3d 8f 3c 47 f2 02 3e 9f 2a ca 3c 90 a6 4a be
       0.017485317 0.12787734 0.024678526 -0.19790101
0000d0 2b 18 fd bc 7e 5e 7f 3d 8d 87 89 3e 22 49 28 bd
       -0.030895313 0.062345974 0.2686123 -0.04108537
0000e0 1b 30 b4 3d 03 cc 38 bc 41 5f 01 be 07 03 35 bc
       0.08798238 -0.011279109 -0.12633993 -0.011048085
0000f0 0f 87 96 bd b5 65 2d bd bf 06 f2 3d 04 2b 65 3e
       -0.07349979 -0.042333324 0.11817693 0.2237969
000100 9f bf 81 bd c3 96 e6 3d 4e 93 d3 3a 98 03 8d bd
       -0.06335377 0.11259224 0.0016141923 -0.06885451
000110 05 b6 66 3e 07 8f b6 bd 93 59 39 bd 72 75 f9 3d
       0.22530372 -0.08913999 -0.04525144 0.12180604
000120 55 62 7f 3d 8c c7 8c bc d9 b4 ee 3d fd 0b 9e bd
       0.062349636 -0.017184995 0.11655588 -0.0771713
000130 45 5d 7d bd a7 f2 1d 3e 1a 69 37 3c d1 4f 7c bd
       -0.061856527 0.15424596 0.011194492 -0.061599556
000140 3e 31 80 bd 56 9b b6 bd 09 63 03 be d6 96 35 bd
       -0.06259392 -0.08916347 -0.12830748 -0.0443333
000150 fa de f5 3d 33 1f 1e be 66 32 0d 3c 0d 58 85 bd
       0.1200542 -0.15441589 0.008617973 -0.06510935
000160 9b 5c f9 3d d8 29 06 3d 5d 1f 9d 3d f5 69 d7 bd
       0.12175866 0.03275475 0.07671998 -0.105182566
000170 df 9a 22 3e ba a7 8d bd f6 51 c0 bd 48 ec b4 bd
       0.15879391 -0.06916757 -0.09390633 -0.088341296
000180 1d e3 77 3e df da 3c 3b f5 23 52 3e 40 02 72 3c
       0.2420773 0.002881698 0.20521529 0.014771044
000190 f7 d5 3b 3e 16 39 3b 3d 01 c0 ee be e9 de 58 3d
       0.1834334 0.04570874 -0.46630862 0.05294696
0001a0 39 64 b8 3c b0 02 08 be 98 fb d8 bc 98 2c 33 3e
       0.022508727 -0.13282275 -0.026487157 0.1749748
0001b0 da ce 55 3d 2f 71 84 3c 15 5b 7f bd 57 00 3d bc
       0.052199222 0.016167251 -0.062342722 -0.011535726
0001c0 dc 83 4b be d9 02 04 bd 1a 29 38 bd 00 32 d0 bd
       -0.19874519 -0.03222928 -0.044961073 -0.10165787
0001d0 e1 8a 5c be 72 fb 46 3d a5 8b 3c 3d 4a 73 52 be
       -0.21537353 0.04857964 0.046031613 -0.20551792
0001e0 33 d0 1c 3e e9 a8 6a 3d fe 98 48 be af fa 23 bb
       0.15313797 0.05728999 -0.19589612 -0.0025021245
0001f0 9b c8 3f 3d 90 d7 0e bc 5b 20 16 3e 30 4b d1 3d
       0.04682217 -0.008718386 0.1466078 0.10219419
000200 e4 1f 31 be c9 10 3b 3d 9e ce 12 be ec d9 43 be
       -0.17297322 0.045670304 -0.1433663 -0.191261
000210 b3 5b e9 bd 17 d8 86 bd 59 34 8d bd 01 ae 63 3e
       -0.11394443 -0.065841846 -0.0689475 0.22234346
000220 a4 47 b5 bd cb 2e 55 3e 7b 7a 4b 3c fa 97 b0 bb
       -0.08851555 0.20818631 0.012419338 -0.005389211
000230 df ab 89 bd 63 d1 4c be 78 ea 74 3d 90 61 67 3e
       -0.06722235 -0.2000175 0.05979392 0.22595811
000240 06 ab c0 bd b1 06 59 3d c5 bc bd bd 61 c1 8d 3b
       -0.0940762 0.052984897 -0.092645206 0.004326031
000250 7d a6 e0 bc 3b a5 53 bd d1 37 78 bd b2 82 42 3e
       -0.027423138 -0.051671248 -0.060600106 0.18995169
000260 38 da ab bc 2c 58 cf 3d 73 04 da 3d e8 ee 53 3d
       -0.020978078 0.10124239 0.1064538 0.05174151
000270 d2 60 48 3d 6b 7d 2e bb 36 de ec bc 1a e5 e2 3e
       0.04892046 -0.0026625048 -0.028914552 0.44315416
000280 c2 12 28 bf f7 a4 b4 bc be 0c 71 be 5e 6b c7 b8
       -0.6565362 -0.022051318 -0.23540017 -9.509058e-05
000290 86 87 52 3c ab 92 28 bd ed e3 32 3d 4c 60 a0 3d
       0.012849694 -0.0411555 0.0436744 0.07830867
0002a0 d5 02 68 3e 21 42 6a 3d d7 67 a2 bd 4f 3d f6 3d
       0.2265733 0.05719197 -0.07929962 0.120234124
0002b0 2f 1e e0 bd 12 3e b3 bd 9a 7f 1b 3d 51 3d a5 bc
       -0.10943257 -0.08752073 0.037963487 -0.02017084
0002c0 68 2e 03 3e 41 fa 79 bd e7 88 65 3d 32 3e c5 3c
       0.12810671 -0.061029676 0.056038763 0.024077509
0002d0 78 23 90 3d 6f 3d 26 be b3 37 76 be e9 dd 8b 3d
       0.07038015 -0.16234373 -0.24044685 0.068294354
0002e0 cc c6 ad bd c2 6d 7d 3d cf 44 70 3d 68 7e 0e 3d
       -0.08485183 0.06187225 0.05865937 0.03478852
0002f0 df 62 72 bd 62 32 05 3d 72 8b 18 be 31 b9 2c be
       -0.059176322 0.032518752 -0.14896944 -0.1686752
000300 32 51 91 3d dc e4 81 3d 78 b8 c0 bb 9c 37 82 bd
       0.07095565 0.063424796 -0.0058813654 -0.06358263
000310 4f 58 46 be d6 da be bd 68 f4 ba 3d 9d d3 ba bd
       -0.19369625 -0.093190834 0.09128648 -0.09122393
000320 e5 12 2d bd c5 f1 94 3d 92 36 ad 3d af 4f 80 3d
       -0.042254347 0.072726764 0.08457674 0.062651984
000330 6a d9 69 3d d4 55 f2 bd 74 58 86 bc a9 6f 71 3b
       0.057092108 -0.11832777 -0.0163996 0.0036840236
000340 4f 4d 1f be bb e0 84 bd 68 43 2b 3e 39 d2 6a 3d
       -0.15556835 -0.064881764 0.16724932 0.05732939
000350 e8 34 37 bd 73 20 1d be d2 22 28 3e c5 da 49 3d
       -0.04472819 -0.1534441 0.16419533 0.0492809
000360 ce 3b 34 3e 90 6f 97 3d 37 fe 86 bd 29 6a 3e 3d
       0.17600939 0.07394326 -0.065914564 0.04648796
000370 d3 06 7c 3e 33 37 fe bc 9e e1 b0 3d 62 85 1e 3e
       0.24611978 -0.03103218 0.08636783 0.15480569
000380 7b 61 30 3e 74 03 d3 3d a1 96 04 3e ba 4f ce 3d
       0.17224686 0.10303393 0.12948085 0.100738004
000390 76 f6 dd bd 60 57 86 bb a5 e7 02 3e da 21 79 3d
       -0.10838024 -0.0040997714 0.12783678 0.0608233
0003a0 be 8f ef 3d ad 8f ac be 35 95 e3 3d e2 3f 57 bd
       0.116973385 -0.33703366 0.11112443 -0.052551158
0003b0 6c b0 50 3d 68 4f 6b 3c 4d fd 2b 3d 30 fd 17 3d
       0.0509495 0.014362194 0.041989613 0.037106693
0003c0 e8 f8 55 3d 3d 30 aa bd 77 b4 b3 be 22 93 da 3c
       0.05223933 -0.08309982 -0.3509862 0.026681487
0003d0 09 c4 88 bd 8c c2 ec 3d b6 2c 76 3d 05 3a 75 bc
       -0.06678016 0.11560544 0.060101233 -0.014967446
0003e0 94 c6 01 3e 36 4e 0c bb 09 79 5b 3e 67 8d 0c be
       0.12673408 -0.0021408922 0.2143289 -0.13725816
0003f0 ce 1d a2 3d 35 8c d0 bc 96 a1 9e bd 13 a7 e8 bc
       0.07915841 -0.02545748 -0.07745664 -0.02839998

fc.bias f4 [36]
000000 50 56 43 3d 2f 30 3f bc fc 5b aa bd 60 20 87 3d
       0.047689736 -0.011669203 -0.08318326 0.06597972
000010 5e 0f cd be 2a e7 c7 3d 0a 4f 61 3d e8 03 52 3c
       -0.40050787 0.09760888 0.05500702 0.012818314
000020 e8 a3 3e be ca 65 2a 3d 1e cf e5 3b 48 2e 14 bd
       -0.18617213 0.04160098 0.0070132157 -0.03617695
000030 35 40 60 3d 36 c8 2a 3d 72 fe 73 3d 16 eb 9e 3d
       0.054748733 0.041694842 0.05956883 0.07759683
000040 77 d9 8c 3d e5 01 03 3d 90 cc 21 be e8 a2 38 3e
       0.068774156 0.03198423 -0.1580069 0.18030894
000050 d6 4b 98 bc 2f 25 05 3e e3 1a 0a 3d 89 58 25 be
       -0.018590849 0.13002466 0.033717047 -0.16147055
000060 47 df ef bd 47 2a 67 3e b4 23 d2 bb 7d 67 77 3d
       -0.11712509 0.22574721 -0.0064129476 0.06040143
000070 4b 26 d3 bd 14 74 3a be ba e5 43 3e 10 9b 40 3d
       -0.10310038 -0.18208343 0.19130602 0.04702288
000080 02 4b 7b 3c 74 8a 14 3e e8 05 33 3d 80 da 7d 3d
       0.0153377075 0.1450594 0.043706805 0.061975956
