situation_analysis/updated_model/model_window60_horizon10.pth (torch, 938130 bytes, 27 tensors)

adapt_adj f4 [60, 60]
0	0x3f86e5d4	1.0538888
1	0xbcbafe66	-0.022826385
2	0xbad5dab2	-0.0016315787
3	0xbe0d5731	-0.13802792
4	0x3ce1c957	0.027561827
5	0xbcedc138	-0.029022798
6	0xbd72ac7d	-0.05924653
7	0x3c965f4e	0.018355992
8	0x3ddb1d59	0.10698957
9	0xbd9cf741	-0.076643474
10	0x3dbae111	0.09124959
11	0x3d885da6	0.06658487
12	0xbd048d73	-0.03236146
13	0xbd4d5e77	-0.050138917
14	0x3ca24331	0.01980743
15	0xbd11d898	-0.03560695
16	0xbde29c74	-0.11064997
17	0x3e569ded	0.20958681
18	0xbd3eefc7	-0.04661539
19	0x3de0e8ff	0.109819405
20	0xbe986a90	-0.297688
21	0xbcf889ac	-0.030339085
22	0x3d5bf788	0.05370286
23	0xbe020eba	-0.1270093
24	0xbdbed332	-0.09317626
25	0xbe6086cb	-0.2192642
26	0xbdcdd304	-0.10050014
27	0xbe2382ba	-0.15967837
28	0xbd890f64	-0.06692389
29	0xbd621cec	-0.055203363
30	0x3e0e4840	0.13894749
31	0xbe2e3668	-0.17012942
32	0xbd6f4e45	-0.058424253
33	0xbde9a286	-0.11407952
34	0xbd4c92ab	-0.04994456
35	0xbdc12c70	-0.09432304
36	0x3db632fc	0.08896443
37	0xbd1ccf3d	-0.038283575
38	0xbdbfac52	-0.09359039
39	0xbe12407a	-0.14282408
40	0xbe0a004e	-0.13476679
41	0xbbd7d95c	-0.0065871906
42	0xbe321b67	-0.17393266
43	0xbd860dfd	-0.06545637
44	0x3ca27e42	0.019835595
45	0x3cefb4ba	0.029260982
46	0xbd645094	-0.055740908
47	0x3d6d8c63	0.05799521
48	0xbce85242	-0.028359536
49	0xbe3cf074	-0.184511
50	0xbcebb6ed	-0.02877375
51	0xbca13ce5	-0.019682357
52	0x3dc40918	0.09572047
53	0xbc90c0fe	-0.01767015
54	0xbb882751	-0.0041550775
55	0xbcd52f44	-0.026023515
56	0xbd3118bd	-0.043236483
57	0xbd49c46f	-0.0492596
58	0x3d009e70	0.031401098
59	0xbdd40be5	-0.10353831
60	0xbb635e21	-0.0034693556
61	0x3f458542	0.7715646
62	0xbe081919	-0.13290824
63	0xbdb6a5b5	-0.08918325
64	0xbdb72821	-0.08943201
65	0x39dc3dc8	0.000420077
66	0xbd2e3584	-0.042531505
67	0xbc65637a	-0.014000768
68	0xbcf79dbf	-0.030226586
69	0xbd5c86ea	-0.0538396
70	0x3dafbdf1	0.0858115
71	0x3d3872fa	0.045031525
72	0x3ccd064f	0.025027422
73	0xbcf847a3	-0.030307597
74	0x3ccfe5b4	0.025378086
75	0xbe5d1537	-0.21590124
76	0xbe3c4269	-0.18384708
77	0xbccc4af2	-0.02493808
78	0xbc6cd00f	-0.014453902
79	0xbd9325a0	-0.07184911
80	0xbe8bbca5	-0.27292362
81	0xbe056e4e	-0.13030359
82	0xbdb83ed6	-0.0899636
83	0x3d4c8c32	0.04993839
84	0xbbe4fd6d	-0.0069882185
85	0xbe59f231	-0.21283795
86	0x3d6fe30c	0.05856614
87	0x3e81b652	0.25334412
88	0x3b410ff1	0.0029458965
89	0x3dfd7a90	0.123768926
90	0xbd3dad64	-0.046307936
91	0xbdcdb658	-0.10044545
92	0xbd07d534	-0.03316231
93	0x3c732330	0.014839932
94	0xbdf17f9f	-0.1179192
95	0xbdb276e3	-0.08714082
96	0x3e5a3763	0.21310191
97	0x3c7b2c4b	0.0153303845
98	0x3c154b4a	0.009112189
99	0xbe086a3e	-0.13321778
100	0xbe32f864	-0.17477566
101	0x3b853773	0.004065448
102	0xbdd027b4	-0.10163823
103	0x3d03a485	0.03213932
104	0x3e0b7c81	0.13621713
105	0x3de5ab0b	0.112142645
106	0xbe5bf859	-0.21481456
107	0x3d547021	0.051864747
108	0xbd5e1d1b	-0.054226976
109	0xbd1da61e	-0.0384885
110	0xbc725404	-0.014790539
111	0x3cc25246	0.023720872
112	0x3d2fb02a	0.042892613
113	0x3dbf1ece	0.093320474
114	0xbdf27197	-0.11838072
115	0xbbfd1015	-0.0077228644
116	0xbe21c8f3	-0.15799312
117	0xbd951fd7	-0.072814636
118	0xbccaac89	-0.024740474
119	0x3d8f30e8	0.0699175
120	0x3ac755ec	0.0015208102
121	0xbdc3512a	-0.09536965
122	0x3f77a62c	0.96737933
123	0x3b61849c	0.0034411317
124	0xbd3903ee	-0.045169763
125	0x3b0d9ad7	0.0021607184
126	0x3ce8a6be	0.028399821
127	0xbe798555	-0.24367268
128	0xbe315239	-0.17316522
129	0xbd4ad7fb	-0.04952238
130	0xbdd02bbc	-0.10164592
131	0xbde1e50f	-0.110300176
132	0x3ab579f6	0.0013845551
133	0xbdd08588	-0.10181719
134	0xbc9a5bee	-0.018842664
135	0xbc9f7fc1	-0.019470097
136	0xbd06f91b	-0.03295241
137	0xbdcd096f	-0.10011565
138	0x3d48cc7b	0.049023133
139	0x3d6eb707	0.058280017
140	0x3da297a2	0.07939078
141	0xbd1ccd88	-0.038281947
142	0xbe198be8	-0.14994776
143	0x3dbb591d	0.091478564
144	0x3d958402	0.07300569
145	0xbcf7a64c	-0.030230664
146	0x3df71dce	0.12066232
147	0x3dd62db7	0.10457938
148	0xbd8dd013	-0.06924453
149	0x3c989bda	0.018629003
150	0xbe0e957f	-0.13924216
151	0x3a9ff876	0.0012204784
152	0x3ce9f8cf	0.028561024
153	0x3d22a61b	0.03970919
154	0xbc6e28aa	-0.014536062
155	0xbca26e1b	-0.019827893
156	0xbe3c6577	-0.18398081
157	0x3da51509	0.08060653
158	0x3d8f1372	0.06986131
159	0x3d1da5ef	0.038488325
160	0x3d5a1053	0.053238224
161	0xbd3ee4f4	-0.046605065
162	0xbc906b93	-0.01762942
163	0xb9260640	-0.00015833322
164	0xbb9270b8	-0.0044690035
165	0xbdf80a42	-0.121113315
166	0xbd5f88b4	-0.05457373
167	0xbd94e47a	-0.07270141
168	0x3d9fc5f7	0.07801431
169	0x3decc757	0.115614586
170	0x3e06acbd	0.13151832
171	0xbd4794c3	-0.048725855
172	0x3c69cc4a	0.014269898
173	0x3c3e355a	0.0116094
174	0xbdd521c0	-0.10406828
175	0xbd82342c	-0.06357607
176	0xbcf776e3	-0.030208057
177	0x3d9ed337	0.0775513
178	0xbc98a3c5	-0.018632779
179	0xbcfa28bf	-0.030537007
180	0xbe6850f4	-0.22687131
181	0xbdd9eb29	-0.10640556
182	0xbda9bd4d	-0.082880594
183	0x3f9a4eba	1.2055275
184	0xbda9f8cd	-0.08299408
185	0x3c4aedc3	0.012385788
186	0xbcdfd202	-0.02732182
187	0xbe4710e1	-0.19440033
188	0xbee06656	-0.43828076
189	0xbd80c267	-0.06287079
190	0xbe89a674	-0.26884806
191	0xbe8a8696	-0.27055806
192	0xbdec7352	-0.11545433
193	0xbdcc755b	-0.09983321
194	0xbda2e9d0	-0.079547524
195	0x3df76011	0.1207887
196	0x3e1fe8e7	0.15616189
197	0xbdf57af7	-0.11986344
198	0xbe109f23	-0.14123206
199	0xbd7c3868	-0.06157723
200	0x3d2559cd	0.040368844
201	0x3e21625d	0.15760179
202	0xbe51207d	-0.2042255
203	0x3a58dc22	0.00082725484
204	0x3e0bad9d	0.13640447
205	0x3de29552	0.11063637
206	0xbe04a835	-0.12954791
207	0xbbe25618	-0.006907236
208	0x3dc57ac4	0.09642556
209	0xbd073a83	-0.033014785
210	0xbe945d46	-0.28977412
211	0x3e01a076	0.12658867
212	0x3dffc00a	0.124878004
213	0x3d4429f3	0.04789157
214	0x3e1f8897	0.15579449
215	0xbd80047e	-0.06250857
216	0xbe57e103	-0.21081929
217	0x3ca3bca8	0.01998742
218	0x3d5f9e74	0.054594472
219	0xbcfa6789	-0.030566948
220	0xbd85ea33	-0.065388106
221	0xbd932ebe	-0.0718665
222	0x3e1e7991	0.15476061
223	0x3bca6b5c	0.006177349
224	0xbcf65d47	-0.030073775
225	0xbda68bc0	-0.08132124
226	0x3d9e0c8c	0.07717237
227	0xbcf3ba85	-0.029752025
228	0x3d379bb2	0.044826217
229	0x3dfb453e	0.12269066
230	0x3e60f612	0.21968868
231	0xbbc8c50d	-0.006127006
232	0x3e0f4011	0.13989283
233	0x3e43df3d	0.19128127
234	0xbe0af867	-0.1357132
235	0xbe529035	-0.20562823
236	0xbe4906d9	-0.19631518
237	0xbdbfa892	-0.09358324
238	0x3d2a3455	0.041553814
239	0x3d2b534c	0.041827485
240	0xbe2a62d0	-0.16639256
241	0xbdbf944e	-0.09354459
242	0xbcea3afc	-0.028592579
243	0x3c9ee953	0.019398367
244	0x3f6b680d	0.91955644
245	0xbe0be5a4	-0.1366182
246	0xbd916190	-0.07098687
247	0xbde2edfc	-0.11080548
248	0xbe062a34	-0.13102037
249	0xbaf98b72	-0.001903875
250	0xbdfffb18	-0.12499064
251	0xbd57dfb9	-0.052703593
252	0xbbd2df9c	-0.0064353477
253	0xbc85c412	-0.016328845
254	0xbc8d5671	-0.017253133
255	0x3bbb32bd	0.0057128356

gc1.fc.weight f4 [128, 30]
0	0x3da6d5c4	0.08146241
1	0xbd144de6	-0.036207102
2	0x3e49939f	0.19685219
3	0xbe1539c5	-0.14572819
4	0x3f003163	0.5007536
5	0xbd93504b	-0.07193049
6	0xbe1ea480	-0.1549244
7	0x3da22d68	0.07918817
8	0x3e29d37d	0.16584583
9	0xbd4091d9	-0.04701409
10	0x3e508987	0.20364963
11	0x3d6cf156	0.057847343
12	0xbdc0e6a8	-0.09418994
13	0xbdce9834	-0.10087624
14	0x3d7d7002	0.061874397
15	0x3dcea620	0.100902796
16	0x3dfa2146	0.12213378
17	0xbdc67117	-0.09689539
18	0x3db67cf5	0.089105524
19	0xbe1d7cb7	-0.15379606
20	0x3e488a98	0.1958412
21	0xbdf8827f	-0.12134265
22	0x3e8bfdf2	0.27342182
23	0x3db2b519	0.08725948
24	0xbd4a6704	-0.04941465
25	0xbe0c19b4	-0.1368168
26	0x3e2e7d4f	0.17039989
27	0x3e14187b	0.14462464
28	0xbdd46ebc	-0.103726834
29	0x3dc70dad	0.09719405
30	0x3cc56f06	0.024100792
31	0x3bce072e	0.006287477
32	0xbda68a48	-0.08131844
33	0xbe4228d7	-0.18960892
34	0x3da17f2b	0.078855835
35	0x3dd8f65e	0.10593866
36	0xbd8aa46f	-0.067696445
37	0xbe1ece8b	-0.15508477
38	0xbd9cb161	-0.0765102
39	0xbd57c2e3	-0.052676093
40	0x3e2abc19	0.16673316
41	0x3d70b3a7	0.05876508
42	0x3d992483	0.07477667
43	0x3c058f84	0.008151893
44	0xbe3ae344	-0.18250757
45	0xbd34c520	-0.044133306
46	0xbd70f22b	-0.0588247
47	0xbe5ef45d	-0.21772905
48	0x3dd6e1fd	0.104923226
49	0xbdb35858	-0.087570846
50	0x3e50a654	0.20375949
51	0x3a6e0d2c	0.0009080942
52	0xbe09db07	-0.13462459
53	0x3c0c8df3	0.008578765
54	0xbd03be03	-0.03216363
55	0x3cb50d52	0.022101078
56	0xbe81d7bf	-0.25359914
57	0x3d946dbf	0.07247495
58	0x3cbc5cf5	0.022993544
59	0xbe58ef6f	-0.21185087
60	0xbdc4f83d	-0.0961766
61	0xbc3d1b62	-0.011542173
62	0xbda6f7a9	-0.08152706
63	0x3dcc1b59	0.09966154
64	0xbde06abc	-0.10957858
65	0xbd67b110	-0.056565344
66	0xbe013e1e	-0.12621352
67	0xbd90d7e5	-0.070724286
68	0xbcb09e22	-0.021559779
69	0x3e004942	0.12527946
70	0xbd01b17e	-0.03166341
71	0xbd4aa974	-0.04947801
72	0xbd68dbd8	-0.056850284
73	0xbd26ca3c	-0.04072021
74	0x3dc5dab5	0.09660856
75	0x3d1f4f2c	0.038893864
76	0xbe0a5b56	-0.13511404
77	0xbdaa6d68	-0.08321649
78	0x3d1cbd57	0.038266506
79	0x3d70ad62	0.0587591
80	0x3da3e51e	0.08002685
81	0xbe3e26c1	-0.18569471
82	0xbdecf546	-0.1157022
83	0xbce2cc97	-0.027685447
84	0xbceef3da	-0.029169012
85	0x3dceec57	0.10103672
86	0xbda08bdc	-0.07839176
87	0xbae70748	-0.0017626071
88	0x3dddfb8d	0.10838995
89	0xbd2f528c	-0.042803332
90	0xbd539d57	-0.051663723
91	0x3dfc94d9	0.12333078
92	0xbe285f55	-0.16442616
93	0x3e0ecc47	0.13945113
94	0x3dc9dee0	0.09856963
95	0x3c513a7d	0.012770292
96	0xbd5b6470	-0.05356258
97	0xbd7f4c3a	-0.062328555
98	0x3e5c41ae	0.2150943
99	0xbe13d8b6	-0.14438137
100	0x3e975805	0.2955934
101	0xbe7559d4	-0.23960048
102	0x3d26bb71	0.0407061
103	0x3e6a8246	0.22901258
104	0x3e8bbcaf	0.27292392
105	0x3e31fb1f	0.17380951
106	0xbc26a510	-0.01017119
107	0x3d6179c8	0.05504778
108	0xbe540bc0	-0.20707607
109	0x3dc657e8	0.096847355
110	0xbdebcaba	-0.115132764
111	0x3e202a64	0.1564117
112	0x3e89d12e	0.26917404
113	0xbdf2164f	-0.11820661
114	0x3c796e37	0.015224031
115	0xbdbe0770	-0.09278762
116	0xbdd37fff	-0.10327148
117	0x3dd277ae	0.10276733
118	0x3d0588c5	0.032601137
119	0x3e7ff1ad	0.24994536
120	0x3cfe28ac	0.031025253
121	0xbce3a50e	-0.027788665
122	0x3d9ffce1	0.07811905
123	0x3e186b80	0.14884758
124	0xbdccfe42	-0.10009433
125	0xbc6aa4ac	-0.014321487
126	0xbe566749	-0.20937838
127	0x3d31200a	0.043243445
128	0x3c83f5ab	0.016108355
129	0x3d938bfb	0.072044335
130	0x3e64b6ad	0.2233531
131	0xbe4a2699	-0.19741286
132	0xbe3ce9d3	-0.18448572
133	0xbcd94897	-0.026523871
134	0xbe1f0e2c	-0.1553275
135	0x3db03ead	0.086057045
136	0x3e49fda9	0.1972567
137	0x3dd0f470	0.10202873
138	0x3e74d1c8	0.2390815
139	0xbe160837	-0.14651571
140	0xbd264656	-0.04059442
141	0xbb281df0	-0.002565261
142	0x3e1dffa1	0.15429546
143	0xbd2278f7	-0.039666142
144	0xbde8f11c	-0.11374113
145	0xbc84df0a	-0.016219635
146	0x3dad1a2e	0.08452259
147	0x3c6b4d99	0.014361762
148	0xbdc3f3b1	-0.09567965
149	0x3dc7e32d	0.09760127
150	0xbdf13c65	-0.117790975
151	0xbd1cfb74	-0.038325742
152	0x3d292fee	0.041305475
153	0x3e28aecd	0.16472931
154	0x3e1f0e84	0.15532881
155	0x3e0980fa	0.13428107
156	0x3da62afa	0.08113666
157	0xbdfc2745	-0.123121776
158	0x3e61b46a	0.22041479
159	0xbdc2ef9b	-0.09518357
160	0x3da6242d	0.08112369
161	0xbe029fb3	-0.12756233
162	0xbe3afac9	-0.1825973
163	0x3da7783b	0.08177229
164	0xbd7db113	-0.06193645
165	0x3e1f2597	0.15541683
166	0x3ade3b44	0.0016954918
167	0xbe188ef6	-0.14898285
168	0xbdfeeaf8	-0.124471605
169	0xbe30e6b4	-0.17275506
170	0x3e198750	0.14993024
171	0x3b2ace10	0.0026062764
172	0x3e38281c	0.1798405
173	0xbe2f679f	-0.17129372
174	0xbdd0a7c4	-0.10188249
175	0x3b919e33	0.0044439076
176	0xbde1836c	-0.11011395
177	0xbe5c345d	-0.2150435
178	0x3d9e742f	0.07737004
179	0x3dea0f9c	0.114287585
180	0xbe54fbc5	-0.20799167
181	0x3e39a509	0.18129362
182	0x3d73cab4	0.059519485
183	0x3e5116f9	0.2041892
184	0xbe457283	-0.19281964
185	0x3dd1e8ca	0.10249479
186	0xbc21c870	-0.009874448
187	0x3e53a324	0.20667702
188	0x3d82fd51	0.063959725
189	0x3e3431b6	0.17597088
190	0x3e86d506	0.263344
191	0xbd56a9a7	-0.052407887
192	0x3c69dec6	0.014274305
193	0xbd3fc46c	-0.046818182
194	0x3cecf6e0	0.028926313
195	0x3e14ecf2	0.14543512
196	0x3d55ceae	0.05219906
197	0x3e5a2466	0.21302947
198	0xbd08f92a	-0.033440746
199	0x3e3f54f9	0.18684758
200	0xbe130855	-0.14358647
201	0x3e3cfa93	0.18454961
202	0xbe42680b	-0.18985002
203	0xbe54eabf	-0.20792674
204	0x3e2fa35b	0.17152159
205	0xbd9809fd	-0.0742378
206	0x3c86d356	0.016458195
207	0x3e4d463e	0.20046327
208	0xbd362dfe	-0.044477455
209	0x3dfc483a	0.123184636
210	0xbd5f0e3c	-0.054456934
211	0x3c82dc24	0.015974112
212	0xbd411aaa	-0.04714457
213	0x3e4ebd76	0.20189461
214	0x3e3228f2	0.17398432
215	0xbc9eb759	-0.019374536
216	0xbcc2447b	-0.023714295
217	0x3e4d95f6	0.20076737
218	0x3e7f5d6d	0.24937983
219	0x3defef8c	0.11715612
220	0x3c920f10	0.017829448
221	0x3e1ffc15	0.15623505
222	0xbda18eb7	-0.07888549
223	0x3c397750	0.01131995
224	0xbe9268e8	-0.28595662
225	0x3e139ff2	0.14416483
226	0xbd805f61	-0.06268192
227	0x3d346cb2	0.044048972
228	0xbdf7b952	-0.12095894
229	0xbdc9308d	-0.098237135
230	0xbdebb302	-0.115087524
231	0xbd3411b2	-0.043962188
232	0xbb2f55c1	-0.0026753994
233	0x3dcf334f	0.10117208
234	0xbc9b7124	-0.018974848
235	0x3e82a1c8	0.25514054
236	0x3e24c5d8	0.16091096
237	0x3e5f7b75	0.21824439
238	0xbbcd76d6	-0.00627027
239	0x3d902d93	0.070399426
240	0x3e2f7d5c	0.17137665
241	0x3e1938cf	0.14963077
242	0x3de0b0ae	0.10971199
243	0x3de38989	0.11110217
244	0xbdebe144	-0.115175754
245	0xbe24e8b8	-0.161044
246	0xbd946c40	-0.072472095
247	0xbd938c44	-0.07204488
248	0x3c8e7a60	0.017392337
249	0xbdb3a557	-0.087717704
250	0xbdbc1d51	-0.09185279
251	0x3c32a44c	0.010903429
252	0x3d8738fc	0.06602666
253	0x3ded89ea	0.11598571
254	0xbcd21690	-0.025645524
255	0xbe340a62	-0.17582086

gc1.fc.bias f4 [128]
0	0xbdb84e86	-0.08999352
1	0xbe50a7bd	-0.20376487
2	0xbe537898	-0.20651472
3	0xbdd434ad	-0.103616096
4	0xbe132ebe	-0.143733
5	0xbe27f903	-0.16403584
6	0xbe849eb0	-0.2590232
7	0xbeff1966	-0.49824065
8	0xbe96e463	-0.2947112
9	0xbdac2507	-0.084055
10	0xbecb1368	-0.39663243
11	0xbd93e302	-0.07221033
12	0xbf250327	-0.64457935
13	0xbdb40647	-0.0879026
14	0xbdb0c87a	-0.08631988
15	0xbe3a4f41	-0.18194295
16	0xbe2aa39c	-0.16663975
17	0xbe887dba	-0.26658422
18	0xbef0cf57	-0.47033188
19	0xbea0d7ec	-0.31414735
20	0xbddcb698	-0.107770145
21	0xbe295917	-0.16537891
22	0xbe0fc464	-0.14039761
23	0xbe77045d	-0.24122758
24	0xbe67fdf4	-0.22655469
25	0xbe1a34f4	-0.15059263
26	0xbe3d5b2d	-0.18491812
27	0xbd885ddf	-0.066585295
28	0xbdf4c668	-0.119519055
29	0xbe03643c	-0.12831205
30	0xbea0ccf8	-0.3140638
31	0xbd821978	-0.06352514
32	0xbe1bd5f4	-0.15218335
33	0xbe980883	-0.29693994
34	0xbd9efc27	-0.07762938
35	0xbea0d86a	-0.3141511
36	0xbe011744	-0.12606531
37	0xbee65233	-0.44984588
38	0xbefc817c	-0.4931754
39	0xbef1d961	-0.4723616
40	0xbeb48520	-0.35257816
41	0xbe9fc3a9	-0.31203964
42	0xbe9a43c2	-0.3012982
43	0xbea5def9	-0.32396677
44	0xbe3e36be	-0.1857557
45	0xbe16e440	-0.14735508
46	0xbe8468a7	-0.25861093
47	0xbea838b6	-0.32855767
48	0xbe04daae	-0.12974045
49	0xbe683c81	-0.2267933
50	0xbe20a5fb	-0.15688317
51	0xbe6ad793	-0.22933798
52	0xbe799683	-0.24373822
53	0xbe5f3abe	-0.21799752
54	0xbea2e779	-0.31817225
55	0xbe825eef	-0.25463054
56	0xbec4f06e	-0.38464683
57	0xbe70f33c	-0.23530287
58	0xbd7db3d0	-0.06193906
59	0xbe4efd32	-0.20213774
60	0xbe7d0961	-0.24710609
61	0xbeb21d90	-0.3478818
62	0xbe535ae6	-0.20640144
63	0xbf0fc317	-0.5615706
64	0xbea487fc	-0.32134998
65	0xbe82cbe3	-0.25546178
66	0xbd4cc7a0	-0.049995065
67	0xbe0e625f	-0.13904713
68	0xbc6ba9c9	-0.014383742
69	0xbe927c6d	-0.28610554
70	0xbe502cd3	-0.20329599
71	0xbe60a35b	-0.21937315
72	0xbec858d6	-0.39130276
73	0xbe79a0c1	-0.24377729
74	0xbe516bf0	-0.20451331
75	0xbef738f7	-0.48285648
76	0xbe857f93	-0.26073894
77	0xbe0f076d	-0.13967676
78	0xbddf5686	-0.10905175
79	0xbdc3a8be	-0.095536694
80	0xbe83f88e	-0.2577557
81	0xbe889e82	-0.26683432
82	0xbe3f5d6a	-0.18687978
83	0xbee42460	-0.44559002
84	0xbecea85f	-0.40362832
85	0xbea54e5b	-0.32286343
86	0xbe8ef623	-0.27922162
87	0xbdae0851	-0.0849768
88	0xbe9fc95a	-0.31208307
89	0xbe8af61d	-0.27140895
90	0xbde86285	-0.11346916
91	0xbe95ca32	-0.29255825
92	0xbebb2fa4	-0.36559784
93	0xbdb25907	-0.08708387
94	0xbe405699	-0.18783034
95	0xbd86bb23	-0.06578662
96	0xbe833b56	-0.25631207
97	0xbf05204c	-0.52002406
98	0xbeb330b0	-0.34998083
99	0xbe7c2f2f	-0.24627374
100	0xbe0044f3	-0.12526302
101	0xbe82574f	-0.25457236
102	0xbe9d54f5	-0.3072888
103	0xbe9644e2	-0.29349428
104	0xbdd6356a	-0.10459407
105	0xbe814683	-0.2524911
106	0xbe28bfb0	-0.16479373
107	0xbec7b7f1	-0.39007524
108	0xbe2cef22	-0.16888097
109	0xbe201d04	-0.15636069
110	0xbe7c8bc0	-0.24662685
111	0xbec89b6c	-0.39181077
112	0xbee08578	-0.4385183
113	0xbec1e01f	-0.37866303
114	0xbe73776d	-0.23776026
115	0xbe9698af	-0.29413363
116	0xbe00a43f	-0.12562655
117	0xbe9b8d28	-0.3038113
118	0xbdf8547d	-0.1212549
119	0xbe511715	-0.20418961
120	0xbebab847	-0.36468717
121	0xbe8557a8	-0.2604344
122	0xbe09d2dd	-0.13459344
123	0xbeeee1cf	-0.46656653
124	0xbe9f531b	-0.31118092
125	0xbe11b9bd	-0.1423101
126	0xbedf15f0	-0.43571424
127	0xbea4fc03	-0.3222352

gc2.fc.weight f4 [128, 128]
0	0xbde2b741	-0.11070109
1	0xbd858ef8	-0.0652141
2	0xbdfd2ce6	-0.12362079
3	0x3d31a6ed	0.043372083
4	0xbde2cd91	-0.11074365
5	0xbdefac5d	-0.117027976
6	0xbcc13f29	-0.023589687
7	0xbd8041c6	-0.06262545
8	0xbe188525	-0.1489454
9	0xbd6df536	-0.05809518
10	0x3c8bb0e7	0.017052127
11	0xbd6688d1	-0.056282822
12	0xbde76d66	-0.11300163
13	0xbbd8b035	-0.0066128024
14	0x3d287488	0.041126758
15	0x3d797f57	0.060912456
16	0xbe0676c7	-0.13131247
17	0xbd17303d	-0.036911238
18	0xbdfb86bc	-0.12281558
19	0xbe23be83	-0.15990643
20	0xbc413eb9	-0.011794739
21	0x3cb45d15	0.022017041
22	0xbdcda6c1	-0.100415714
23	0x3c75804c	0.014984202
24	0x3c00689b	0.00783744
25	0xbd502c2c	-0.050823376
26	0x3dadee61	0.08492733
27	0x3d980c4b	0.0742422
28	0xbe59b7e8	-0.21261561
29	0xbdda68c0	-0.10664511
30	0xbd88d203	-0.066806816
31	0xbd66aa38	-0.056314677
32	0x3d389284	0.045061603
33	0xbe36c70a	-0.17849365
34	0xbca765f8	-0.020434365
35	0x3d0e4697	0.03473529
36	0x3dae271a	0.08503552
37	0xbd721ffc	-0.059112534
38	0xbdd634ee	-0.10459314
39	0xbd83b5e6	-0.06431179
40	0x3ce296f4	0.02765987
41	0xbe0f8f72	-0.14019564
42	0xbd39373e	-0.0452187
43	0xbde807b5	-0.11329595
44	0xbcc70767	-0.024295522
45	0x3c47f940	0.012205422
46	0x3ad8069e	0.0016481464
47	0xbd44ba83	-0.048029434
48	0x3de12773	0.109938525
49	0xbdf0bf96	-0.11755292
50	0xbd56c368	-0.052432448
51	0xbcae80b6	-0.021301609
52	0x3adba158	0.0016756458
53	0xbe033dfc	-0.12816614
54	0xbd04d24c	-0.032427117
55	0xbdbdaf3a	-0.092619374
56	0x3c2344ca	0.009965131
57	0xbd3004d7	-0.042973366
58	0xbd819836	-0.0632786
59	0xbd1cc3f9	-0.03827283
60	0xbd9df98c	-0.07713613
61	0xbd276ec6	-0.040877126
62	0xbdb22242	-0.086979404
63	0xbc2e821c	-0.010651138
64	0xbdb09447	-0.08622032
65	0x3c80636c	0.015672408
66	0x3d715a5c	0.058924064
67	0x3bb9eada	0.0056737484
68	0x3d087839	0.03331778
69	0xbd86214d	-0.0654932
70	0xbddd7cee	-0.10814844
71	0x3bf01f38	0.0073279403
72	0xbe0dcff4	-0.13848859
73	0x3e040d81	0.12895776
74	0xbe248391	-0.16065814
75	0xbd778d08	-0.060437232
76	0xbe348c54	-0.17631656
77	0xbdfc41dc	-0.12317249
78	0xbe22873c	-0.158719
79	0xbe34afba	-0.1764516
80	0xbd133b71	-0.03594536
81	0x3cb6170d	0.022227788
82	0xbd88df01	-0.066831596
83	0xbd97253c	-0.07380149
84	0xbd88cdf0	-0.066799045
85	0xbe0c4d41	-0.13701345
86	0xbd8efc56	-0.06981723
87	0xbd622c3a	-0.05521796
88	0xbdc12b7c	-0.09432122
89	0x3c1e363d	0.009656486
90	0xbd104bf4	-0.035228685
91	0xbcb488fa	-0.022037972
92	0xbd853b61	-0.06505466
93	0xbd1c6b71	-0.0381884
94	0xbd3238b3	-0.043511104
95	0xbe09421a	-0.13404122
96	0xbe7d1148	-0.24713624
97	0xbbe5bd29	-0.007011075
98	0xbe1f211e	-0.15539977
99	0xbdb01b7b	-0.085989915
100	0x3b6b0cf3	0.0035865873
101	0xbe0461ea	-0.12927976
102	0x3bf5c67d	0.0075004683
103	0x3cdac31c	0.026704364
104	0x3daed45b	0.08536597
105	0xbe48304f	-0.19549678
106	0x3c43a467	0.011941052
107	0xbc9874cc	-0.01861038
108	0xbe14e5cb	-0.14540784
109	0x3c3ffd20	0.011718065
110	0xbd06de35	-0.032926757
111	0xbe130321	-0.14356662
112	0x3d51ae83	0.051191818
113	0x3d7d6767	0.06186619
114	0xbca3d591	-0.019999297
115	0xbdb402f8	-0.08789629
116	0x3b681db4	0.0035418095
117	0xbd9bc61f	-0.07606148
118	0xbd53d796	-0.05171927
119	0x3cd67a44	0.026181348
120	0xbd849d20	-0.06475282
121	0xbe08b349	-0.13349642
122	0xbd6358aa	-0.05550448
123	0x3e090619	0.13381232
124	0xbdb95619	-0.09049625
125	0xbd8f0795	-0.06983868
126	0xbc5c2913	-0.013437527
127	0x3d9d0781	0.07667447
128	0xbe29ff8a	-0.16601387
129	0xbea49c54	-0.3215052
130	0xbe70b2fe	-0.2350578
131	0xbe8891d8	-0.2667377
132	0xbdaeab1d	-0.08528731
133	0xbea780d7	-0.32715484
134	0xbe82b8d2	-0.25531632
135	0xbe65ccf5	-0.22441466
136	0xbe029437	-0.12751852
137	0xbdf8357b	-0.121195756
138	0xbe6878d0	-0.22702336
139	0x3d4f97d5	0.050681908
140	0xbce00195	-0.027344504
141	0xbde45105	-0.11148266
142	0xbe91b2d4	-0.28456748
143	0xbd3184fb	-0.04333971
144	0xbcc8e4c6	-0.02452315
145	0xbe75a363	-0.23988108
146	0xbe8ed2a0	-0.2789507
147	0x3d2fa2b4	0.042879775
148	0xbc92c04c	-0.01791396
149	0xbdfadfce	-0.122497186
150	0x3dd216dd	0.10258267
151	0xbd72cf29	-0.059279595
152	0xbe170ae7	-0.14750253
153	0x3d35228a	0.044222392
154	0xbe3f4a5b	-0.18680708
155	0xbedc13ad	-0.4298376
156	0xbe64bee9	-0.22338451
157	0xbe9698f5	-0.29413572
158	0xbed54c85	-0.41659942
159	0xbe88a391	-0.2668729
160	0xbe24b903	-0.16086201
161	0xbdaf5bfa	-0.08562465
162	0xbe9edc08	-0.31027246
163	0x3d97b797	0.07408064
164	0xbe0d6796	-0.13809046
165	0xbebc41de	-0.36769003
166	0xbe82936d	-0.25503102
167	0xbee29ad8	-0.4425876
168	0xbe9af179	-0.30262354
169	0xbedbf790	-0.42962313
170	0xbe3f6bd3	-0.18693475
171	0xbea8a25f	-0.3293638
172	0x3d8b1fd6	0.067931816
173	0xbe0b5655	-0.13607152
174	0xbc65fac1	-0.014036835
175	0xbec4bc46	-0.3842489
176	0xbe732788	-0.23745549
177	0xbee442d8	-0.44582248
178	0xba91dc59	-0.0011128291
179	0xbe519ed0	-0.20470738
180	0xbec1e1f2	-0.37867695
181	0xbec2bb5e	-0.38033575
182	0x3ea04937	0.31305858
183	0xbdc1ac38	-0.09456676
184	0xbe009f9b	-0.12560885
185	0xbecafe59	-0.39647177
186	0xbe8b2a24	-0.27180588
187	0xbdfd5be9	-0.12371046
188	0xbd9848f6	-0.07435791
189	0x3bf848db	0.0075770444
190	0x3e467097	0.19378887
191	0xbcf9f657	-0.030512972
192	0xbe03ebc6	-0.12882909
193	0xbe9ed948	-0.31025147
194	0xbe923a37	-0.2856004
195	0x3d06e4cf	0.032933053
196	0xbef2e8b6	-0.4744317
197	0xbae833ec	-0.0017715669
198	0x3e63b412	0.2223666
199	0xbadf5b34	-0.001704073
200	0xbd067b99	-0.032832716
201	0xbece927a	-0.40346128
202	0xbd0198a1	-0.0316397
203	0xbdbf57ab	-0.09342893
204	0xbd104703	-0.035223972
205	0x3c2f19b1	0.010687278
206	0xbca8107d	-0.020515675
207	0x3e0c77c8	0.13717568
208	0xbdc2e772	-0.09516801
209	0xbec566ff	-0.38555142
210	0xbe6323c2	-0.2218161
211	0xbeb7702b	-0.35827765
212	0xbd236723	-0.03989328
213	0x3d201fed	0.039092947
214	0x3e3830d0	0.1798737
215	0xbe4da79e	-0.20083472
216	0xbeef20f3	-0.46704826
217	0xbe114031	-0.14184643
218	0xbdd1700f	-0.102264516
219	0xbe2598bc	-0.16171545
220	0xbe86e718	-0.26348186
221	0xbdb0e2c3	-0.08637001
222	0xbe070d54	-0.13188678
223	0xbd6aac74	-0.05729337
224	0x3c956430	0.01823625
225	0xbe5064ff	-0.20351027
226	0x3d78c210	0.060731947
227	0x3d100103	0.035157215
228	0xbf09dbb8	-0.5385089
229	0xbe9c0e25	-0.3047954
230	0xbdc860b6	-0.09784071
231	0xbe58ac6f	-0.21159528
232	0xbdb31b94	-0.087454945
233	0x3d110a11	0.03540999
234	0xbe84f05f	-0.2596464
235	0xbe5007be	-0.20315453
236	0xbb187e95	-0.0023268808
237	0xbec47478	-0.3837011
238	0xbe97b677	-0.29631397
239	0xbe5c477e	-0.21511647
240	0xbe0f8df1	-0.1401899
241	0xbd1abbb5	-0.037776668
242	0xbde60f7d	-0.11233423
243	0xbd911283	-0.07083609
244	0xbe5f13cb	-0.21784894
245	0xbcef2148	-0.029190674
246	0x3e15d317	0.14631306
247	0xbe90562a	-0.28190738
248	0xbeae160c	-0.34001195
249	0xbdc32178	-0.09527868
250	0xbf03ed71	-0.5153418
251	0xbe7e0878	-0.24807918
252	0xbe9d0d58	-0.30674243
253	0xbcd0aad7	-0.025472088
254	0xbd12485f	-0.03571355
255	0xbc91af76	-0.017783862

gc2.fc.bias f4 [128]
0	0xbda53f5b	-0.08068725
1	0xbed7a66d	-0.4211916
2	0xbe09ba8b	-0.13450067
3	0xbdfbed8f	-0.1230117
4	0xbdea9f52	-0.11456169
5	0xbe8de535	-0.27713934
6	0xbeb0b6dc	-0.3451451
7	0xbde541dd	-0.11194203
8	0xbe017aa9	-0.12644447
9	0xbea8adb2	-0.3294502
10	0xbe00d58d	-0.12581463
11	0xbdcd8b7c	-0.1003637
12	0xbdf1cf9d	-0.11807177
13	0xbe28c4f0	-0.16481376
14	0xbd6d3d7a	-0.057919957
15	0xbe25f6ce	-0.1620743
16	0xbe2d5b67	-0.16929398
17	0xbded8886	-0.115983054
18	0xbede88b4	-0.4346367
19	0xbe32c224	-0.17456871
20	0xbe50fd32	-0.20409086
21	0xbd1f4553	-0.038884472
22	0xbe24548e	-0.1604788
23	0xbe06aea0	-0.13152552
24	0xbdcfbdea	-0.10143645
25	0xbd919078	-0.07107633
26	0xbda88577	-0.082285814
27	0xbc07f1bc	-0.00829738
28	0xbea78e9e	-0.32725996
29	0xbee61969	-0.4494126
30	0xbf115b92	-0.5678035
31	0xbeb0edbb	-0.34556374
32	0xbe04c136	-0.12964329
33	0xbe637f40	-0.22216511
34	0xbd934412	-0.07190718
35	0xbeb26727	-0.34844324
36	0xbd470418	-0.04858789
37	0xba5433aa	-0.0008094857
38	0x3d19626f	0.03744739
39	0x3b6fd366	0.003659451
40	0xbe1d33d0	-0.15351796
41	0xbec57caf	-0.3857169
42	0xbe98da86	-0.2985422
43	0xbe7de75c	-0.24795288
44	0x3c3f0ce3	0.011660787
45	0xbd84348c	-0.06455335
46	0x3d0549c5	0.032541055
47	0xbe562646	-0.20913038
48	0xbe3c5dd6	-0.1839517
49	0xbe402d49	-0.18767275
50	0xbdb5bc4f	-0.08873808
51	0xbec750c0	-0.38928795
52	0x3c51136d	0.012760979
53	0xbe71fe14	-0.2363208
54	0xbec87060	-0.39148235
55	0xbe78c921	-0.24295475
56	0xbdbb596a	-0.09147914
57	0x3cde22d9	0.027116226
58	0xbcbb2b94	-0.022847928
59	0xbdf02bdf	-0.11727118
60	0xbe25e83f	-0.16201876
61	0xbde61d5d	-0.11236069
62	0xbe7d7b69	-0.24754108
63	0xbba0b37c	-0.0049042087
64	0x3c3cb988	0.0115188435
65	0xbbafc6ed	-0.00536429
66	0xbe51bf0c	-0.20483035
67	0xbe98adbe	-0.29820055
68	0xbeb5c849	-0.35504368
69	0xbdb9fb92	-0.09081186
70	0xbdc6ee16	-0.0971338
71	0xbe0b4ec0	-0.1360426
72	0xbd556050	-0.052093804
73	0xbdb550f0	-0.08853328
74	0x3cbebe60	0.023284137
75	0xbce64821	-0.028110566
76	0xbdb4bc14	-0.088249356
77	0xbe837927	-0.2567837
78	0xbdbc5c7b	-0.09197327
79	0xbe379f2e	-0.17931816
80	0x3d86c6d6	0.06580894
81	0xbe1d8455	-0.15382512
82	0xbead866f	-0.33891627
83	0xbccd4a5e	-0.025059875
84	0x3cf06648	0.029345647
85	0xbe3f194f	-0.18661998
86	0x3d9a4226	0.07532148
87	0xbe284772	-0.16433504
88	0xbe209efd	-0.15685649
89	0xbe330f59	-0.17486323
90	0x3d9d41a3	0.07678535
91	0xbe2ebdef	-0.17064641
92	0xbdb23084	-0.0870066
93	0x3d24fa7c	0.040277943
94	0xbe106779	-0.14101972
95	0x3d73a25e	0.059481017
96	0xbe7e8fed	-0.24859591
97	0xbc865efe	-0.016402718
98	0x3ce87576	0.028376322
99	0xbcc88dc4	-0.024481662
100	0xbdaf41e7	-0.08557492
101	0xbb58afdb	-0.0033063802
102	0x3da2a433	0.07941475
103	0xbe71fc3d	-0.23631378
104	0xbe93cce7	-0.28867266
105	0xbee1aed4	-0.44078696
106	0xbe70d37c	-0.23518175
107	0xbd976272	-0.07391824
108	0x3d93a65b	0.07209464
109	0xbda9234d	-0.08258686
110	0xbebedf96	-0.37279958
111	0xbe8f4f0b	-0.27989992
112	0xbd9efb29	-0.07762749
113	0x3c4a380d	0.012342465
114	0xbc659902	-0.014013531
115	0xbe1219ed	-0.14267702
116	0xbde60059	-0.11230535
117	0xbd53e8f9	-0.051735852
118	0xbc9fa9c5	-0.019490132
119	0xbe772cee	-0.24138233
120	0xbdc13d65	-0.09435538
121	0x3d0f9208	0.035051376
122	0xbdee6a5b	-0.116413794
123	0xbdc1762f	-0.0944637
124	0xbef83870	-0.48480558
125	0xbed3ad79	-0.41343287
126	0xbea5e592	-0.3240171
127	0xbf150f77	-0.5822672

temporal_conv.weight f4 [128, 128, 3]
0	0xbcf247bb	-0.02957522
1	0xbe56b5b9	-0.20967759
2	0xbc2fcaf2	-0.010729538
3	0xbca6141f	-0.020273266
4	0xbe48bc6c	-0.19603127
5	0xbb5b8608	-0.0033496637
6	0x3cbc74bd	0.023004884
7	0xbdda6b1a	-0.10664959
8	0xbb826ff5	-0.0039806315
9	0xbcd4aaef	-0.025960414
10	0x3d6a5938	0.057213992
11	0x3bf1b285	0.0073760175
12	0xbdefb77a	-0.11704917
13	0xbcb0f27f	-0.021600006
14	0x3c25ead1	0.010126785
15	0xbcffa90d	-0.03120854
16	0xbc72d300	-0.014820814
17	0x3ce8c098	0.028412148
18	0xbd07d32b	-0.03316037
19	0xbcff62af	-0.031174986
20	0xbc190543	-0.009339633
21	0xbe536c1a	-0.20646706
22	0x3d4c086a	0.04981271
23	0x3cea75fb	0.02862071
24	0xbd34ae5f	-0.044111606
25	0xbd21a8cb	-0.039467614
26	0x3ce25cc8	0.027632132
27	0x3bd45b04	0.0064805765
28	0xbcf3dfa6	-0.02976973
29	0xbae647df	-0.0017569027
30	0x3bce901f	0.0063038017
31	0xbd9ac027	-0.075561814
32	0x3c7dfed5	0.015502651
33	0xbd172cce	-0.036907963
34	0xbdb48b2f	-0.0881561
35	0x3d0905d9	0.033452842
36	0x3ca81c58	0.020521328
37	0x3c4d7c6d	0.012541872
38	0xbc1e4c1b	-0.0096617
39	0xbdff3347	-0.12460952
40	0xbdbf375f	-0.09336733
41	0xbd0a0f9d	-0.033706296
42	0xbd04febd	-0.0324695
43	0xbd3c57a0	-0.045982003
44	0xbd3b3916	-0.04570874
45	0xbcc8b10a	-0.024498481
46	0x3d9040c2	0.070436016
47	0x3cee839b	0.029115489
48	0x3d063aea	0.03277103
49	0xbe50d255	-0.20392735
50	0xbb1a155c	-0.0023511266
51	0x3d93f4f2	0.07224454
52	0xbd847a11	-0.06468595
53	0x3d08691b	0.03330336
54	0x3daf3037	0.08554118
55	0xbcde0305	-0.02710105
56	0xbcfbf0f5	-0.030754546
57	0x3d30633f	0.0430634
58	0xbc4336a4	-0.011914883
59	0x3d197a76	0.037470303
60	0xbe2569bd	-0.16153617
61	0xb9f89ea0	-0.0004742043
62	0xbbd440c7	-0.0064774486
63	0x3d182e37	0.03715345
64	0x3c81177d	0.01575827
65	0x3d078dd2	0.033094235
66	0xbd3e235b	-0.046420436
67	0xbd784330	-0.06061095
68	0x3d0fe86f	0.035133775
69	0xbcb8c2fd	-0.022553915
70	0x3d8d021f	0.0688517
71	0x3b011d85	0.0019701433
72	0xbd84a9a1	-0.06477667
73	0x3d40c00c	0.04705815
74	0xbcd5d642	-0.026103143
75	0x3dbc83b7	0.0920481
76	0xbcb489ac	-0.022038303
77	0xbd1e50dd	-0.038651336
78	0xbcac2796	-0.02101497
79	0x3c82cb94	0.015966214
80	0x3cd807ff	0.026371
81	0xbb7d38a1	-0.003863849
82	0xbda8eabc	-0.08247897
83	0xbbbe789e	-0.0058127185
84	0xbde0e8d0	-0.109819055
85	0xbc97fcde	-0.018553194
86	0xbcdcb2a8	-0.026940659
87	0xbd1421f5	-0.036165196
88	0x3d3a0808	0.045417815
89	0x3be32aec	0.006932607
90	0xbe875a9f	-0.26436326
91	0x3e5295b4	0.2056492
92	0x3d01432a	0.031558193
93	0x3d857817	0.06517046
94	0xbda0d440	-0.078529835
95	0x3d3a6533	0.045506667
96	0x3d16869c	0.036749467
97	0xbc9edb5c	-0.019391708
98	0xbd4897ef	-0.04897302
99	0x3d640a35	0.055673797
100	0x3d4acf88	0.049514323
101	0xbd0b3f59	-0.03399596
102	0xbcd66ca7	-0.026174856
103	0xbd6e64f2	-0.058201738
104	0x3c18db5e	0.009329645
105	0xbdfb481c	-0.12269613
106	0x3daf77dc	0.08567783
107	0x3c4b44c2	0.01240653
108	0xbde445a3	-0.11146095
109	0xbca0a666	-0.019610595
110	0x3c2f1c3e	0.010687886
111	0xbe5dd8e7	-0.21664773
112	0xbdd50e04	-0.10403064
113	0x3d2ed48e	0.042683177
114	0xbd54f6c3	-0.051993143
115	0xbdc86414	-0.097847134
116	0xbd14e971	-0.03635544
117	0xbe45ae9d	-0.19304891
118	0x3d80deac	0.06292471
119	0x3c4551e4	0.01204345
120	0x3db14319	0.08655376
121	0xbd0f4522	-0.03497804
122	0xbd0b7f04	-0.03405668
123	0x3d214188	0.039369136
124	0x3e2e39cb	0.17014234
125	0x3d4d6544	0.050145403
126	0xbd16b4cb	-0.03679351
127	0xbdb6fe45	-0.08935217
128	0x3c15dded	0.0091471495
129	0xbd03f848	-0.0322192
130	0x3dc47d05	0.09594158
131	0x3c5341cd	0.012894106
132	0xbe700b03	-0.234417
133	0xbcd051c6	-0.025429618
134	0xbcea2702	-0.028583053
135	0xbd49b62b	-0.049245995
136	0xbd085594	-0.03328474
137	0x3d31f7db	0.043449264
138	0xbd97baae	-0.07408653
139	0x3d7de800	0.06198883
140	0xbc849ce5	-0.016188094
141	0x3d7984d9	0.06091771
142	0xbcb8abc8	-0.02254285
143	0x3d03858a	0.032109775
144	0xbbe9b856	-0.0071325703
145	0x3dd92260	0.1060226
146	0x3b3eef43	0.002913431
147	0xbdc9674f	-0.09834158
148	0xbd437651	-0.047720257
149	0xbaaef4b8	-0.0013348078
150	0xbd6787f1	-0.05652613
151	0xbd737da4	-0.059445992
152	0x3d4900eb	0.04907314
153	0x3e5fb476	0.21846184
154	0x3e4ab72d	0.19796439
155	0xbb7dcc1b	-0.0038726393
156	0xbd6399dd	-0.055566657
157	0x3d253de1	0.040342215
158	0x3d2a58eb	0.041588705
159	0xbbabf5f9	-0.005247828
160	0x3e40e2f0	0.1883657
161	0xbd479c26	-0.0487329
162	0xbc83f741	-0.01610911
163	0x3d28929f	0.041155454
164	0xbc088ebc	-0.008334812
165	0xbe5b040e	-0.21388265
166	0xbdb96a22	-0.09053446
167	0x3bef48b0	0.007302366
168	0xbbeea843	-0.007283242
169	0x3ccbcbd6	0.02487747
170	0x3b107e42	0.0022047912
171	0xbe737135	-0.23773654
172	0xbe3afd7d	-0.1826076
173	0xbcbc71d2	-0.023003493
174	0xbd812c9d	-0.063073374
175	0xbdcb6cea	-0.09932883
176	0x3d36ca9b	0.044626813
177	0xbbd60259	-0.0065310416
178	0x3d4ecafe	0.050486557
179	0xbc2b9730	-0.010473058
180	0xbb23899d	-0.002495385
181	0xbe10c032	-0.14135817
182	0x3b5ecb74	0.003399578
183	0x3c48d586	0.012257939
184	0xbd17d12c	-0.037064716
185	0xbcf6ac8d	-0.030111575
186	0xbd37e8d3	-0.044899773
187	0xbd0cdb1c	-0.034388646
188	0x3cfdcaaa	0.030980427
189	0xbdda5372	-0.10660447
190	0x3c5cf1d2	0.013485389
191	0x3ab4599e	0.0013759618
192	0xbd3facf3	-0.046795797
193	0x3c299b06	0.010351902
194	0xbd2f635f	-0.042819377
195	0xbce34be0	-0.027746141
196	0xbd73032e	-0.059329204
197	0xbd2e0551	-0.04248554
198	0xbd8521f4	-0.06500617
199	0xbccdb320	-0.025109828
200	0x3d19d020	0.037552
201	0x3d950b33	0.07277527
202	0x3da64cf5	0.08120147
203	0x3cffc63e	0.031222459
204	0xbabdfbb8	-0.0014494574
205	0xbe4f60c4	-0.20251757
206	0x3cf477a0	0.029842198
207	0xbc39c5bd	-0.011338648
208	0x3c1be0b2	0.009514021
209	0xbbcb8240	-0.0062105954
210	0xbdd357f9	-0.10319514
211	0x3cb73abb	0.022366872
212	0x3c48dee8	0.012260176
213	0xbdb81585	-0.089884795
214	0xbe27a85f	-0.16372822
215	0xbd27d1f1	-0.0409717
216	0xbd99de6d	-0.075131275
217	0x3c047976	0.008085599
218	0x3ce3f696	0.027827542
219	0xbe15d943	-0.1463366
220	0xbdfe1236	-0.12405817
221	0xbcfe7b14	-0.031064548
222	0x3cf889b7	0.030339105
223	0x3c5a6095	0.013328691
224	0xbc2f9cd7	-0.010718546
225	0xbd43a21b	-0.047762018
226	0x3c4f455e	0.012650816
227	0xba9fa44f	-0.0012179705
228	0x3d6f2b89	0.058391128
229	0x3d4e89a7	0.050424244
230	0x3ca5b556	0.02022807
231	0x3cf9a7cc	0.03047552
232	0xbd04b3a4	-0.03239788
233	0xbd3b7604	-0.045766845
234	0xbe084902	-0.133091
235	0x3de964de	0.11396192
236	0x3ad1f4f4	0.0016018436
237	0x3da9814c	0.082766145
238	0xbd182f31	-0.03715438
239	0xbc0d12a4	-0.008610401
240	0xbde22740	-0.110426426
241	0xbd306433	-0.043064307
242	0xbc93e5db	-0.01805394
243	0xbd25fbf9	-0.040523503
244	0xbd40bc9d	-0.047054876
245	0xbd00e091	-0.031464163
246	0x3d7de8ce	0.061989598
247	0xbd41fb07	-0.04735854
248	0xbd16ca9a	-0.03681431
249	0xbd212434	-0.039341167
250	0x3ccecda7	0.025244547
251	0xbd024e0f	-0.031812724
252	0xbd59e409	-0.053195987
253	0x3c0805df	0.008302181
254	0x3b647905	0.0034862172
255	0xbd8942d6	-0.06702201

temporal_conv.bias f4 [128]
0	0xbe22170a	-0.15829101
1	0x3e9658da	0.29364663
2	0x3dc440d8	0.095826805
3	0xbe996f7e	-0.29967874
4	0xbafd13f0	-0.001930831
5	0xbe35d2ed	-0.17756243
6	0x3be6d963	0.0070449575
7	0xbe1c9aff	-0.15293501
8	0xbe0a2f33	-0.13494568
9	0xbd865bdd	-0.0656049
10	0xbe4369bf	-0.19083308
11	0x3e160469	0.1465012
12	0x3e8a8177	0.270519
13	0xbdffe938	-0.12495655
14	0x3e78a637	0.24282156
15	0x3ea84618	0.32865977
16	0x3df817e6	0.12113933
17	0x3e983a5b	0.29732022
18	0xbe55299d	-0.20816655
19	0xbe324151	-0.17407729
20	0x3cca1d70	0.02467224
21	0x3e0dd74a	0.13851658
22	0x37c532c0	2.3507862e-05
23	0x3eb9682b	0.36212286
24	0x3ed3bcb5	0.4135491
25	0x3dc20839	0.094742246
26	0x3eb9c63d	0.36284056
27	0x3da0bcc6	0.07848506
28	0x3c02040a	0.007935533
29	0x3ea27ff5	0.31738248
30	0x3e80c20c	0.25148046
31	0x3e5ae089	0.21374716
32	0x3eb79061	0.3585234
33	0xbcc4be6e	-0.024016585
34	0x3e1c1522	0.15242437
35	0x3e5cb565	0.21553572
36	0x3e678d5a	0.22612515
37	0x3e9dcc19	0.30819777
38	0xbdc68b03	-0.09694483
39	0xbdafed79	-0.08590216
40	0x3e48b909	0.19601835
41	0x3ec87c4f	0.3915734
42	0xbe3a5ed2	-0.18200234
43	0x3e82756a	0.25480205
44	0x3e869f35	0.2629334
45	0x3e99aac4	0.30013096
46	0xbe2f74cf	-0.17134403
47	0x3eae6c43	0.34066972
48	0xbea29235	-0.31752172
49	0x3e9cdc0b	0.3063663
50	0xbe538a70	-0.20658278
51	0x3eee8623	0.46586713
52	0xbd3c4208	-0.04596141
53	0x3e2f0299	0.17090835
54	0xbb8aa1b4	-0.0042307023
55	0x3eb96669	0.36210945
56	0xbd1e2c22	-0.038616307
57	0x3e6cc0a0	0.23120356
58	0xbdbabea5	-0.09118394
59	0x3edfa4c9	0.4368041
60	0x3ca5e667	0.020251466
61	0x3d759d0c	0.059964225
62	0x3e58ada4	0.21159989
63	0xbe8a3d22	-0.26999766
64	0x3eaeb05f	0.34118935
65	0x3e9ebbac	0.31002557
66	0x3ea8d75c	0.32976806
67	0x3e776d2a	0.24162737
68	0x3ea702c5	0.326193
69	0x3e44b42f	0.1920936
70	0x3ea5b7d2	0.32366806
71	0x3ecb7813	0.39740047
72	0x3e95e1ec	0.29273927
73	0xbde9f41d	-0.11423514
74	0x3e5a1216	0.21295962
75	0xbd78319a	-0.06059418
76	0x3f01c38f	0.50689024
77	0xbe3ff32e	-0.1874511
78	0x3e22aba0	0.15885782
79	0x3ebcce7f	0.36876294
80	0xbcac1425	-0.0210057
81	0x3e729e6d	0.23693247
82	0x3ec0cda7	0.376569
83	0x3ee6cea7	0.45079538
84	0x3eb08a07	0.34480307
85	0x3e6af1cc	0.229438
86	0x3cc19174	0.023628928
87	0xbd96ba43	-0.07359745
88	0xbc4361f7	-0.011925212
89	0xbe837b01	-0.25679782
90	0xbe930027	-0.28711054
91	0x3eb1de44	0.34739888
92	0x3e8fe107	0.2810137
93	0xbc139cf6	-0.00900959
94	0xbc78dd6b	-0.015189509
95	0x3e94b51b	0.29044423
96	0xbe10d8c0	-0.14145184
97	0x3dbe09ba	0.09279199
98	0xbbb51ac7	-0.0055268737
99	0xbe8f02e6	-0.279319
100	0x3edf1fdf	0.43579003
101	0x3e492851	0.19644286
102	0x3d90fc51	0.070793755
103	0x3edc4c70	0.43027067
104	0x3c459445	0.012059276
105	0x3edbd615	0.4293677
106	0x3e8db831	0.2767959
107	0x3e9e762f	0.30949542
108	0xbdb83375	-0.0899419
109	0x3d1e96cf	0.03871804
110	0x3da5ec35	0.081016935
111	0xbe098254	-0.13428622
112	0x3e5b74ab	0.21431224
113	0x3e8ba60f	0.2727513
114	0xbd6d4df6	-0.057935677
115	0xbe88b388	-0.2669947
116	0x3ebfbf40	0.374506
117	0x3e3a7c92	0.18211582
118	0x3eb9add2	0.36265427
119	0x3e4fb250	0.20282865
120	0x3eb6bd75	0.3569142
121	0x3eafa884	0.34308255
122	0x3ebe0472	0.37112767
123	0x3ec2bfb5	0.38036886
124	0xbe5cf5de	-0.21578166
125	0xbd93b363	-0.0721195
126	0x3e4a4160	0.19751501
127	0x3ed99c5f	0.42502114

fc.weight f4 [30, 128]
0	0x3d261ec3	0.04055668
1	0xbdf09ef2	-0.117490664
2	0xbe00683d	-0.12539764
3	0xbe3cccd8	-0.18437517
4	0xbcfefd47	-0.031126631
5	0xbdeea86a	-0.11653216
6	0x3e74a807	0.23892222
7	0x3d48eaa1	0.049051885
8	0xbe3f4279	-0.18677701
9	0xbe165acd	-0.14683075
10	0x3c33df6e	0.010978563
11	0xbcddd5b5	-0.027079443
12	0x3e340178	0.17578685
13	0xbd90b8de	-0.070665106
14	0xbd5ce006	-0.053924583
15	0x3cf2da57	0.029645128
16	0x3e9efe5e	0.31053442
17	0xbe0a6798	-0.1351608
18	0xbbff42a6	-0.0077899275
19	0x3e510edf	0.20415829
20	0xbdfc16a9	-0.123090096
21	0xbd66a6d7	-0.056311455
22	0x3b0679bb	0.0020519334
23	0x3e9daa59	0.30794027
24	0xb9c546ba	-0.00037627463
25	0x3e51f977	0.2050532
26	0x3db63074	0.088959605
27	0xbd7a5dd4	-0.061124638
28	0xbc3587ba	-0.011079723
29	0x3b913031	0.0044307937
30	0x3c9bee2a	0.019034464
31	0xbd10837e	-0.03528165
32	0xbddb478b	-0.10707005
33	0xbd55281d	-0.052040208
34	0xbe209d9e	-0.15685126
35	0xbc16b049	-0.009197303
36	0xbd78afa1	-0.060714368
37	0xbcfa8ffb	-0.030586233
38	0x3de3672a	0.11103661
39	0xbc81aaf0	-0.01582858
40	0x3e1ef14f	0.1552174
41	0x3dd2bd2d	0.10289989
42	0xbd8ece15	-0.06972901
43	0x3d818ed6	0.06326072
44	0xbc69bafd	-0.014265773
45	0x3e42de0a	0.19030014
46	0xbdd66d7f	-0.104701035
47	0xbd9adf11	-0.07562078
48	0xbce168e5	-0.027515838
49	0xbe62384c	-0.22091788
50	0x3a561801	0.0008167029
51	0x3da4900d	0.08035288
52	0x3d931352	0.071814194
53	0xbe25327e	-0.16132542
54	0xbd89db9a	-0.06731339
55	0xbe8c8fed	-0.27453557
56	0xbb8ae72c	-0.0042389836
57	0x3ca33d0d	0.019926572
58	0x3d0c158c	0.034200236
59	0x3df64dd9	0.12026567
60	0x3ab5479c	0.0013830545
61	0x3cfb4b58	0.030675575
62	0x3e87dfb6	0.26537865
63	0xbdeef357	-0.11667507
64	0x3dcce04b	0.10003718
65	0xbd9037bf	-0.07041883
66	0xbdc686b9	-0.09693665
67	0x3dea5dbc	0.1144366
68	0xbeb0bfe1	-0.34521392
69	0xbdbf9348	-0.093542635
70	0x3da72072	0.08160485
71	0xbd61d86f	-0.055138048
72	0x3d014b18	0.031565756
73	0x3da13894	0.078721195
74	0xbe8eebe7	-0.27914354
75	0xbdbe690a	-0.09297378
76	0xbcf15fd0	-0.029464632
77	0xbd289a84	-0.041162983
78	0xbc845f16	-0.016158622
79	0xbd04c3e8	-0.032413393
80	0x3bb2106b	0.005434086
81	0x3b87abdd	0.0041403607
82	0xbde2226c	-0.11041722
83	0xbd985069	-0.07437212
84	0xbd05e66e	-0.032690458
85	0xbd0fefc2	-0.03514076
86	0xbd57b0d1	-0.05265886
87	0xbe32ca4f	-0.17459987
88	0xbe874cb0	-0.26425695
89	0xbdd3fc21	-0.10350824
90	0xbc2399d8	-0.00998541
91	0x3eb8751b	0.36026844
92	0xbd0106c5	-0.031500597
93	0xbdfeabae	-0.12435089
94	0xbd826b75	-0.06368152
95	0xbd0c7f0b	-0.034300845
96	0xbcf82b46	-0.030294072
97	0xbda44351	-0.08020652
98	0xbdef0d76	-0.11672489
99	0xbe959909	-0.2921832
100	0xbdf4f6bc	-0.11961123
101	0x3dc527a8	0.096267045
102	0xbdcebf74	-0.100951105
103	0x3b52fa09	0.003219249
104	0xbe2ad413	-0.16682462
105	0x3dee113f	0.11624383
106	0x3dc140a4	0.09436157
107	0x3e5b3267	0.21405946
108	0x3d117a9f	0.03551733
109	0xbdc0b001	-0.0940857
110	0x3d9067d0	0.07051051
111	0x3d908cfd	0.070581414
112	0x3e3e3f8c	0.18578929
113	0x3e4c18e8	0.19931376
114	0x3cbdf4bd	0.02318799
115	0x3dd71043	0.105011486
116	0x3de78a5d	0.113056876
117	0x3dc509ba	0.09620996
118	0x3dbe2fbf	0.092864506
119	0x3e150dca	0.14556041
120	0x3da6d8f3	0.081468485
121	0xbe8e7510	-0.27823687
122	0xbea38e22	-0.31944376
123	0x3e00892b	0.12552325
124	0x3e417cb3	0.18895225
125	0xbdf94b09	-0.12172515
126	0xbdac4d04	-0.08413127
127	0xbe890b75	-0.26766554
128	0x3be11e5d	0.0068700747
129	0xbd16a284	-0.03677608
130	0xbddcb3eb	-0.10776504
131	0xbde0eff5	-0.10983268
132	0x3dd67d80	0.10473156
133	0xbd8dc4fc	-0.069223374
134	0x3cae25aa	0.021258194
135	0x3c5196aa	0.012792269
136	0xbd57ff59	-0.052733753
137	0xbd58e12a	-0.05294911
138	0x3d8f5695	0.06998936
139	0xbe13df6f	-0.14440702
140	0xbd2f45f9	-0.04279134
141	0xbd574076	-0.05255171
142	0xbd624371	-0.0552401
143	0x3e937ab8	0.28804564
144	0xbe108248	-0.14112198
145	0x3e09dd57	0.1346334
146	0xbbe15ea0	-0.0068777353
147	0xbe229cf3	-0.15880184
148	0x3e25a8d1	0.1617768
149	0xbe54406a	-0.20727697
150	0xbbe2c78b	-0.00692076
151	0xbce62bd7	-0.028097076
152	0xbe78fabd	-0.24314399
153	0xbc89819d	-0.016785437
154	0x3e78ca04	0.24295813
155	0x3d87e92a	0.066362694
156	0xbd5ae0ea	-0.05343715
157	0xbd095c59	-0.033535335
158	0x3d995de9	0.07488615
159	0xbd3260a2	-0.043549187
160	0xbd0ada45	-0.033899564
161	0x3e0f4c1b	0.13993876
162	0xbe2bfacd	-0.16794892
163	0xbdfd1eb8	-0.12359375
164	0xbd23ec1f	-0.040020104
165	0xbd26fc17	-0.040767755
166	0x3bf286d7	0.007401328
167	0x3e62c9b1	0.22147252
168	0x3cdb817f	0.026795147
169	0x3e5ac98f	0.21365951
170	0x3cc5d325	0.024148533
171	0x3ded50b8	0.115876615
172	0xbd03696c	-0.03208296
173	0xbc78dc6e	-0.015189273
174	0x3d18eb4a	0.037333764
175	0xbcf40434	-0.02978716
176	0x3dc701c0	0.09717131
177	0x3d0bd750	0.034140885
178	0x3cfc9ceb	0.030836543
179	0x3e2161a2	0.157599
180	0xba064752	-0.0005122322
181	0xbde691a1	-0.11258245
182	0x3e3c01c1	0.18360044
183	0x3eb7638a	0.3581813
184	0xb97c864c	-0.00024082622
185	0x3dfdbf26	0.12389974
186	0x3e5eb0bb	0.21747105
187	0x3d55a7d9	0.052162025
188	0xbd383055	-0.044967968
189	0xbd3e8999	-0.046517942
190	0xbe27294b	-0.16324346
191	0xbe15cd7a	-0.14629164
192	0x3e440124	0.1914106
193	0xbe485523	-0.19563727
194	0x3d51757d	0.051137436
195	0xbd049814	-0.032371596
196	0xbdbf3a88	-0.09337336
197	0xbb919da6	-0.004443842
198	0x3e137388	0.1439954
199	0x3b3de28f	0.002897415
200	0xbe0cbb3c	-0.13743299
201	0xbe1b9f14	-0.15197402
202	0xbe01094f	-0.12601207
203	0xbdc2f36f	-0.095190875
204	0xbd9cbeb1	-0.07653559
205	0x3e192ca8	0.14958441
206	0xbdb95e32	-0.090511695
207	0x3e5ec21e	0.21753737
208	0x3b896190	0.0041925386
209	0x3de87219	0.113498874
210	0x3dde13a8	0.10843593
211	0xbbc638ca	-0.0060492503
212	0xbd247375	-0.04014917
213	0x3d097a71	0.033564035
214	0xbcd339d5	-0.025784412
215	0x3ce06a28	0.02739437
216	0x3ea5ca99	0.32381132
217	0xbcada8e3	-0.021198696
218	0x3c20034f	0.009766414
219	0xbde6ef20	-0.11276078
220	0xbdb2a139	-0.08722157
221	0x3e0c1c2e	0.13682625
222	0x3de81fe0	0.11334205
223	0x3e89f46e	0.26944298
224	0xbdc8ecff	-0.098108284
225	0xbc3e1343	-0.011601272
226	0x3b042592	0.0020163995
227	0x3e5314d7	0.20613419
228	0xbdd67f6e	-0.10473524
229	0x3de13948	0.10997254
230	0x3c0b0d9c	0.008487131
231	0xbd5b4e79	-0.053541634
232	0x3c90bca8	0.017668083
233	0x3e193364	0.1496101
234	0xbe18004b	-0.14843862
235	0x3d223ef8	0.039610833
236	0x3ddac0aa	0.10681279
237	0xbd11a5ff	-0.035558697
238	0xbe10c143	-0.14136223
239	0xbc121ab8	-0.008917503
240	0xbe4e7a2b	-0.20163791
241	0xbd834a01	-0.064105995
242	0x3c4903f9	0.012269014
243	0xbdbc82d8	-0.09204644
244	0x3cf6cafe	0.030126091
245	0xbcb01f3b	-0.021499267
246	0xbde1d6a0	-0.110272646
247	0xbc84af90	-0.016196996
248	0xbd4f1e1d	-0.050565828
249	0x3e5e0ad5	0.2168382
250	0xbd865b5c	-0.06560394
251	0x3dca00ca	0.09863432
252	0x3d15402f	0.036438163
253	0x3cbb6cbc	0.022878997
254	0x3e4f2fbe	0.20233056
255	0xbe130b4f	-0.14359783

fc.bias f4 [30]
0	0x3cfc5465	0.030801961
1	0xbd7fea52	-0.062479325
2	0xbe017796	-0.12643275
3	0x3e8ac6cf	0.27104804
4	0xbdb5ee38	-0.08883327
5	0xbdb5ca8f	-0.088765256
6	0x3d1561b0	0.036470115
7	0x3e0462b6	0.1292828
8	0x3dde1a86	0.10844903
9	0xbe634c25	-0.22197016
10	0xbe033f24	-0.12817055
11	0xbe0b7fb3	-0.13622932
12	0xbd66c6ac	-0.056341812
13	0x3c9ef34b	0.01940312
14	0xbe6bc74e	-0.23025247
15	0xbd8a2407	-0.06745153
16	0xbc1a30d1	-0.009411053
17	0x3e4314b5	0.19050868
18	0x3d5c3085	0.05375721
19	0xbd93785f	-0.07200693
20	0x3d404c86	0.04694798
21	0xbd548bb1	-0.051891033
22	0xbe74ed25	-0.23918588
23	0xbdf02468	-0.11725694
24	0x3c1ce2fb	0.009575601
25	0x3dbbb489	0.09165294
26	0xbddc16c2	-0.10746528
27	0x3c9abe70	0.018889636
28	0x3e0cad5f	0.13738011
29	0x3e2936e4	0.16524845
