situation_analysis/updated_model/model_window30_horizon1.pth (torch, 924074 bytes, 27 tensors)

adapt_adj f4 [30, 30]
0	0x3f325c1c	0.696718
1	0xbcfdabbe	-0.030965682
2	0xbd50685f	-0.050880786
3	0xbe11a403	-0.14222722
4	0x3d260b02	0.04053784
5	0xbe30f7fd	-0.172821
6	0xbdc5862a	-0.096447304
7	0x3d6197e8	0.05507651
8	0x3d8ffb82	0.07030393
9	0x3d788cb5	0.060681064
10	0xbe4a5ddb	-0.19762366
11	0xbe90ebfe	-0.28305048
12	0xbd86dd63	-0.06585195
13	0xbce817f8	-0.028331742
14	0x3e181dcc	0.14855117
15	0x3d69b3a5	0.057056088
16	0xbc0378eb	-0.008024435
17	0xbdafcf7f	-0.085844986
18	0xbe626015	-0.22106965
19	0xbd25664d	-0.040380765
20	0x3cec2212	0.02882484
21	0x3cbfda9a	0.023419667
22	0xbc14ed5e	-0.009089796
23	0xbd2220bd	-0.039582003
24	0x3b357eae	0.0027693915
25	0xbd7ae3ae	-0.06125229
26	0xbd5d1a63	-0.053980242
27	0x3e1a7035	0.15081866
28	0xbd8c0ce2	-0.06838395
29	0xbcf99e68	-0.030471042
30	0xbddef5d8	-0.10886735
31	0x3f37e7ae	0.7183789
32	0xbe9ac0c7	-0.30225202
33	0xbd97a8bd	-0.07405231
34	0x3b635cb0	0.0034692697
35	0x3bb412dc	0.0054954123
36	0x3cd16886	0.025562536
37	0x3d970b03	0.07375147
38	0x3d82a411	0.063789494
39	0xbd953f69	-0.07287485
40	0xbe87ebfa	-0.26547223
41	0xbe523c1f	-0.20530747
42	0xbca8afcd	-0.02059164
43	0xbd39d2b7	-0.04536697
44	0xbe0119f5	-0.12607558
45	0xbda6ad98	-0.08138579
46	0x3d912ada	0.070882514
47	0xbe09ab94	-0.13444358
48	0x3db44e46	0.08803992
49	0xbe0102ca	-0.1259872
50	0x3d9cc186	0.07654099
51	0xbc1517cf	-0.009099915
52	0xbd7d9db8	-0.06191799
53	0x3d5ec573	0.05438752
54	0x3d7a0fc4	0.06105019
55	0x3a3736ee	0.0006989081
56	0xbe030b58	-0.12797296
57	0x3d39adba	0.045331694
58	0xbd7e063a	-0.062017657
59	0x3c4a6df1	0.012355314
60	0x3cd3163c	0.025767438
61	0xbdac817c	-0.08423135
62	0x3f4d0bc8	0.800961
63	0x3df16583	0.1178694
64	0x3d6dbae4	0.05803956
65	0xbccb17a9	-0.024791555
66	0xbd86e0b2	-0.06585826
67	0xbd765345	-0.060138006
68	0xbd59836a	-0.05310384
69	0xbcd1a9b6	-0.02559362
70	0x3c506010	0.012718216
71	0x3d3d177b	0.04616497
72	0xbd207146	-0.039170526
73	0xbd8dab59	-0.069174476
74	0xbdc011c8	-0.093783915
75	0xbc951364	-0.018197723
76	0x3b0e34f6	0.0021699048
77	0xbd43986f	-0.047752794
78	0xbd7568a9	-0.059914265
79	0xbdb8438d	-0.08997259
80	0xbcb21cfc	-0.021742336
81	0xbc44bda0	-0.012008101
82	0x3bbbfb3b	0.005736736
83	0xbdc2cc31	-0.09511603
84	0x3bd613cf	0.006533123
85	0xbdf5f06f	-0.1200875
86	0xbd35e414	-0.044406965
87	0xbdfcb6a6	-0.12339525
88	0x3c4ff623	0.012692961
89	0xbd815b70	-0.063162684
90	0xbe040055	-0.12890752
91	0x3e332fd1	0.1749871
92	0x3e0115ce	0.12605974
93	0x3f4b9b86	0.79534185
94	0xbe4309fa	-0.19046775
95	0xbb8be31c	-0.004269017
96	0xbd935c02	-0.071952835
97	0xbe2d1a8b	-0.16904657
98	0x3da35098	0.079743564
99	0x3d59da1f	0.053186532
100	0xbe97bb5d	-0.29635134
101	0x3aaf9299	0.001339513
102	0xbde674c8	-0.11252743
103	0xbe00cae1	-0.12577392
104	0x3b844940	0.0040370524
105	0x3e470584	0.19435698
106	0x3d41c904	0.047310844
107	0xbe243b97	-0.16038357
108	0xbd295207	-0.041337993
109	0xbd395552	-0.045247383
110	0x3bbe4ead	0.0058077187
111	0xbded6946	-0.11592345
112	0xbcbf74f3	-0.023371195
113	0xbdbb2e14	-0.09139648
114	0xbde60652	-0.11231674
115	0xbcd9715d	-0.026543314
116	0x3de71605	0.11283497
117	0x3d7ecbbc	0.062206015
118	0xbe123384	-0.14277464
119	0xbce0c6ce	-0.027438547
120	0x3e65a746	0.22427091
121	0x3c6bd1c0	0.01439327
122	0xbe841484	-0.25796902
123	0xbe046e9e	-0.12932822
124	0x3f22d8a0	0.63611794
125	0xbcd3d381	-0.025857689
126	0xbd9bed45	-0.07613615
127	0x3e214b55	0.15751393
128	0xbd607656	-0.054800354
129	0xbb6d86e9	-0.0036243743
130	0xbd8750e1	-0.06607223
131	0xbd583eef	-0.052794393
132	0xbdce5e3f	-0.1007657
133	0x3da1179c	0.07865831
134	0xbdec86a7	-0.115491204
135	0xbd6ff06f	-0.058578905
136	0xbd9aeff2	-0.07565297
137	0x3e83bf89	0.25732067
138	0xbd5a1447	-0.053241994
139	0xbe5b9d3f	-0.21446703
140	0xbe1877ef	-0.14889501
141	0xbd08de0e	-0.033414893
142	0x3e1579ab	0.14597194
143	0xbd1853e4	-0.03718938
144	0x3d9f363e	0.07774018
145	0xbdf3e539	-0.11908955
146	0xbcce5662	-0.025187675
147	0x3e870821	0.2637339
148	0xbd9143b6	-0.07092993
149	0x3d725775	0.059165437
150	0xbe178478	-0.14796627
151	0x3cb20249	0.021729605
152	0xbdab5610	-0.083660245
153	0xbebb652c	-0.36600626
154	0x3d848897	0.06471365
155	0x3f86596c	1.0496039
156	0xbe4234b5	-0.18965419
157	0x3d2328c4	0.0398338
158	0xbe285853	-0.16439943
159	0x3d1a70e2	0.03770531
160	0xbc5b2266	-0.0133749
161	0x3df6d223	0.12051799
162	0xbdb381ca	-0.0876499
163	0x3d11a779	0.035560105
164	0x3df5fd22	0.12011172
165	0xbdc30e91	-0.09524263
166	0xbe084521	-0.1330762
167	0x3dea1404	0.11429599
168	0xbd910cd3	-0.07082524
169	0x3c649d67	0.013953543
170	0xbe4a9fbf	-0.19787501
171	0xbc967818	-0.018367812
172	0x3e328e22	0.17437032
173	0x3ea3e3b0	0.3200965
174	0x3d62afb5	0.05534335
175	0x3d5ce1b9	0.053926203
176	0x3d9e1fee	0.07720934
177	0xbc30b977	-0.010786406
178	0x3d8ab03e	0.06771897
179	0x3c3f9efc	0.01169562
180	0xbea6d3c8	-0.3258345
181	0xbda131ec	-0.0787085
182	0x3d1c2600	0.038122177
183	0xbde41142	-0.11136104
184	0xbe4a5629	-0.1975943
185	0xbb9a783c	-0.00471404
186	0x3f270b93	0.65252036
187	0xbc9339ac	-0.017971836
188	0xbcb0fc44	-0.021604665
189	0xbe2ab8e3	-0.16672091
190	0xbe2c9f99	-0.16857757
191	0xbe239fbd	-0.15978904
192	0x3ab6e8f0	0.0013954919
193	0x3dacd74a	0.08439501
194	0xbcede841	-0.029041411
195	0xbe327eb4	-0.17431146
196	0xbd9801e4	-0.074222356
197	0xbd6aed4c	-0.05735521
198	0x3db1cb5c	0.08681366
199	0xbd054be6	-0.032543086
200	0x3e283519	0.16426505
201	0xbe66ef44	-0.2255221
202	0x3dcc4243	0.09973576
203	0x3bb5b077	0.005544718
204	0xbc984584	-0.018587835
205	0x3de2bc4b	0.1107107
206	0xbdb04620	-0.08607125
207	0x3e0aac74	0.13542348
208	0x3d0297ef	0.031883176
209	0xbd6e633e	-0.058200113
210	0xbe5f10b8	-0.21783721
211	0x3e0ae732	0.13564757
212	0x3c63370b	0.013868104
213	0x3d62ef20	0.05540383
214	0x3b92e9cf	0.0044834386
215	0xbde3ad99	-0.111170955
216	0xbc9de90d	-0.019276166
217	0x3f2fe7b6	0.6871294
218	0xbdaf9b38	-0.085745275
219	0xbca44739	-0.020053493
220	0x3cb5edd1	0.022208126
221	0xbc0e10c6	-0.008670991
222	0x3ccbb9a1	0.024868788
223	0x3c8fb6a9	0.017543154
224	0x3dfcbf96	0.123412296
225	0xba8e0cca	-0.0010837552
226	0xbe00c03e	-0.12573335
227	0xbe189b38	-0.14902961
228	0x3dafced5	0.08584372
229	0xbd66ee10	-0.056379378
230	0x3ddbf4b0	0.1074003
231	0xbe0315e3	-0.12801318
232	0xbc27a855	-0.010233005
233	0xbddc607f	-0.10760593
234	0xbdf2c5ca	-0.118541315
235	0xbded7b5d	-0.11595795
236	0xbc9b1c0e	-0.018934276
237	0x3db63086	0.08895974
238	0xbd6dd22f	-0.058061775
239	0xbd6878ec	-0.056755945
240	0xbe7a78e8	-0.24460185
241	0x3d79f2f5	0.061022718
242	0x3c9fe6e7	0.019519283
243	0x3e2b9acc	0.16758269
244	0x3d99d2d1	0.07510913
245	0x3c6c9e4d	0.014442039
246	0xbcc8528d	-0.024453426
247	0x3de1bd2a	0.11022408
248	0x3f387515	0.72053653
249	0xbd8963ed	-0.067085125
250	0xbde41f74	-0.11138812
251	0xbdc73619	-0.09727115
252	0xbe31d3cc	-0.1736595
253	0xbe5a3e4e	-0.2131283
254	0xbd91fd6d	-0.07128415
255	0xbc8451cc	-0.016152285

gc1.fc.weight f4 [128, 36]
0	0x3dc599fc	0.09648511
1	0xbcdb17e1	-0.026744785
2	0x3dc7ead3	0.09761586
3	0x3eb333b3	0.3500038
4	0x3e7806ec	0.2422139
5	0x3e3fc1df	0.187263
6	0x3e74136b	0.23835532
7	0x3e4257b5	0.1897877
8	0x3e04f432	0.12983778
9	0xbd1bafd4	-0.03800948
10	0x3cff7fab	0.031188807
11	0xbb581933	-0.0032974004
12	0xbe07339b	-0.1320328
13	0xbcacda96	-0.021100324
14	0x3d2592ed	0.040423322
15	0xbe852336	-0.26003426
16	0x3e8afbd4	0.27145255
17	0x3cc302c6	0.023805033
18	0x3db9d31f	0.09073471
19	0xbea05b6a	-0.31319743
20	0x3dad4111	0.08459676
21	0xbea4ad8b	-0.32163653
22	0xbdd29277	-0.10281842
23	0x3e6639be	0.22482964
24	0x3e6c6da0	0.23088694
25	0x3c971ff0	0.018447846
26	0xbe5a6fa9	-0.21331657
27	0x3d2ef307	0.042712238
28	0xbc8300b5	-0.015991548
29	0xbd76690a	-0.060158767
30	0x3d845e26	0.0646327
31	0x3e53915a	0.20660916
32	0xbcab0b82	-0.02087951
33	0xbeee220b	-0.46510348
34	0x3cad47d8	0.021152422
35	0xbdccd374	-0.10001269
36	0x3dc804b8	0.09766525
37	0xbd5f05ac	-0.05444877
38	0xbe12600f	-0.14294456
39	0x3ddb367f	0.10703754
40	0xbdd4c2a3	-0.103886865
41	0xbe4adfd4	-0.19811946
42	0xbd1a4d8f	-0.037671622
43	0xbdde4372	-0.10852708
44	0xbda29371	-0.079382785
45	0xbc92a9f2	-0.017903302
46	0xbdd55808	-0.10417181
47	0xbe01fb2d	-0.12693472
48	0xbdb9bce9	-0.09069235
49	0xbdee926f	-0.11649024
50	0x3da2deb0	0.079526305
51	0x3dc769dc	0.09736988
52	0x3e246771	0.16055085
53	0xbe0f8236	-0.14014515
54	0x3da493ab	0.08035978
55	0x3d385c84	0.045010105
56	0x3d931b30	0.0718292
57	0x3e2acb88	0.16679204
58	0xbd43126b	-0.047624987
59	0x3d3b963d	0.045797575
60	0x3e1cb835	0.15304644
61	0x3db651f6	0.089023516
62	0x3e3325ec	0.17494935
63	0x3a8dff0f	0.001083346
64	0x3dcfa3b3	0.10138645
65	0x3d944851	0.07240356
66	0x3c689387	0.0141953295
67	0xbd3986e4	-0.045294657
68	0xbdbf84b2	-0.093514815
69	0xbcbfb298	-0.02340059
70	0x3aef4b1c	0.0018256637
71	0xbe057546	-0.13033018
72	0xbe99d176	-0.3004262
73	0x3e29da46	0.16587171
74	0xbe6f85af	-0.2339084
75	0xbdcc289f	-0.09968685
76	0xbda1969c	-0.078900546
77	0x3d8f35cd	0.069926836
78	0x3db63a9f	0.088979
79	0xbded772b	-0.11594995
80	0x3e7fbf22	0.24975255
81	0xbd9e455e	-0.077280745
82	0xbdbc9a8c	-0.09209165
83	0x3e4964cc	0.19667357
84	0x3bf5f1a8	0.0075056143
85	0xbd11400d	-0.035461474
86	0xbe1f2a47	-0.15543471
87	0x3e772de8	0.24138606
88	0xbd931c74	-0.071831614
89	0x3e34e08b	0.17663781
90	0x3e019563	0.12654643
91	0xbec448d2	-0.38336807
92	0x3dbac7a4	0.0912011
93	0xbdddb3ab	-0.108252846
94	0x3d9f7ce4	0.07787493
95	0x3e38ffee	0.1806638
96	0x3e56f33e	0.20991227
97	0xbe68f73c	-0.22750562
98	0x3e175337	0.14777838
99	0x3e4a318e	0.19745466
100	0x3e4ced47	0.20012389
101	0x3c53d23e	0.012928544
102	0xbe8cb77a	-0.27483732
103	0x3cf353c3	0.029703027
104	0xbd221801	-0.039573673
105	0x3e298c3a	0.16557398
106	0xbdc828f9	-0.0977344
107	0x3e033c00	0.12815857
108	0x3e85f7ca	0.2616561
109	0x3e2a2f28	0.16619551
110	0xbe2feb71	-0.17179658
111	0x3e3bba0c	0.1833269
112	0xbd803aba	-0.06261201
113	0x3db9dcbf	0.09075307
114	0xbe2d09d9	-0.16898288
115	0x3e27e979	0.16397657
116	0xbd9d4cad	-0.0768064
117	0xbe1393f8	-0.14411914
118	0xbd7d8bfc	-0.061901078
119	0xbc202b5f	-0.0097759655
120	0xbe810060	-0.251956
121	0x3e987eeb	0.2978433
122	0xbe5672f9	-0.20942296
123	0x3deeaec2	0.11654426
124	0x3dc2d721	0.09513689
125	0xbd0680f9	-0.03283784
126	0x3d1731ac	0.036912605
127	0x3e164e11	0.14678217
128	0x3d4ac724	0.04950632
129	0x3e2cd692	0.16878727
130	0xbe0b13b5	-0.13581736
131	0xbec4ef80	-0.38463974
132	0xbd900112	-0.07031454
133	0x3ec66694	0.38750136
134	0x3c2b0202	0.01043749
135	0xbe24966f	-0.16073011
136	0xbda19d41	-0.07891322
137	0xbe7830f7	-0.24237429
138	0xb963b1be	-0.00021714621
139	0x3d971c92	0.07378496
140	0x3e24e0e0	0.16101408
141	0x3cc7a0e3	0.024368709
142	0xbe70dba0	-0.2352128
143	0xbe8f0f3f	-0.2794132
144	0x3df1cae7	0.11806279
145	0x3e0cc793	0.13748007
146	0x3c281a42	0.010260167
147	0xbe9c9663	-0.30583486
148	0x3d3af686	0.04564526
149	0x3d69d979	0.057092164
150	0x3e19e95b	0.15030424
151	0x3e2f9840	0.17147923
152	0x3d9d83b2	0.076911345
153	0xbc07f8fa	-0.008299107
154	0xbc550987	-0.01300276
155	0x3d527c41	0.05138803
156	0x3e367f87	0.17822085
157	0x3dafaca2	0.08577849
158	0x3e27e549	0.16396059
159	0xbdb15924	-0.0865958
160	0x3d9daf4d	0.076994516
161	0x3d14de7d	0.036344994
162	0xbd511bb6	-0.051051818
163	0xbe90674f	-0.28203818
164	0xbdcae441	-0.09906817
165	0xbe0592d7	-0.13044296
166	0x3d1adafa	0.03780649
167	0xbd1f29f5	-0.038858373
168	0x3d927178	0.07150549
169	0xbe0786e4	-0.1323505
170	0xbdf08741	-0.11744548
171	0xbdde58d0	-0.108567834
172	0x3af3f1de	0.0018611511
173	0xbe1a996e	-0.15097591
174	0xbc9c75af	-0.019099085
175	0x3e023964	0.12717205
176	0xbda23386	-0.079199836
177	0x3c6eba54	0.014570791
178	0xbddb689d	-0.10713313
179	0x3ddf07f2	0.10890187
180	0x3d1e0b46	0.03858497
181	0xbd203a72	-0.039118238
182	0xbc1232c2	-0.008923234
183	0xbb3445de	-0.0027507464
184	0x3cb8aeac	0.022544228
185	0x3ddbc55f	0.10731005
186	0x3e110a72	0.14164141
187	0x3e89b303	0.26894388
188	0x3e8a245e	0.2698087
189	0x3e168b5c	0.14701599
190	0x3d99c647	0.075085215
191	0x3e7166a3	0.23574309
192	0x3d6f4d69	0.058423433
193	0x3cb2866b	0.021792611
194	0xbe4564a0	-0.19276667
195	0x3d8dc265	0.069218434
196	0xbd765008	-0.060134917
197	0xbe71b2e8	-0.23603404
198	0x3d3c45a5	0.045964856
199	0xbdb3aa37	-0.087727
200	0x3cd0e8ea	0.025501687
201	0x3e0b8894	0.13626319
202	0x3d15ef15	0.03660496
203	0x3e8cf58e	0.27531093
204	0xbe13f088	-0.14447224
205	0xbda995ac	-0.08280501
206	0x3ea29edf	0.31761834
207	0x3d3fcd83	0.04682685
208	0x3d15758c	0.036489055
209	0xbe1f7ed2	-0.15575722
210	0x3e3d8413	0.18507414
211	0xbe239c65	-0.15977629
212	0xbde0ce2d	-0.10976825
213	0xbe923014	-0.28552306
214	0x3d1c6f1f	0.03819191
215	0xbe832932	-0.25617367
216	0xbe13901a	-0.14410439
217	0x3e0d792a	0.13815752
218	0x3d466376	0.048434697
219	0x3da97944	0.08275083
220	0x3d328dec	0.04359238
221	0xbddab979	-0.10679907
222	0x3de8c26b	0.11365207
223	0xbc47d017	-0.012195609
224	0x3e0a548c	0.13508815
225	0x3b3c6ad6	0.0028750203
226	0xbe40f033	-0.18841629
227	0x3d869c41	0.06572772
228	0xbca8e448	-0.020616665
229	0x3d2676dd	0.0406407
230	0x3dd8f562	0.10593678
231	0x3d636ccf	0.05552369
232	0xbe0d1374	-0.13776952
233	0xbe0b3769	-0.13595356
234	0xbe0915ee	-0.13387272
235	0xbde8304f	-0.11337339
236	0xbe0bca92	-0.13651493
237	0xbe1ae43b	-0.15126126
238	0x3e0cd98c	0.13754863
239	0x3dd7ed0d	0.10543261
240	0x3d821cc9	0.063531466
241	0xbd01a332	-0.031649776
242	0xbdc3007d	-0.095215775
243	0xbd4abd1c	-0.049496755
244	0x3d9c010b	0.076173864
245	0x3e1b1f98	0.15148771
246	0x3c540c3c	0.01294237
247	0xbdebba33	-0.11510124
248	0x3d853086	0.06503396
249	0x3e7e4ef7	0.2483481
250	0x3d98c375	0.074591555
251	0x3d2fb920	0.04290116
252	0x3e93dc81	0.2887917
253	0xbd3642f4	-0.044497445
254	0x3d238d2d	0.039929558
255	0x3e229a52	0.15879181

gc1.fc.bias f4 [128]
0	0xbf07830c	-0.52934337
1	0xbf000899	-0.5001312
2	0xbe139ce2	-0.14415315
3	0xbe254863	-0.16140895
4	0xbebd7795	-0.37005296
5	0xbe2bc8ae	-0.16775772
6	0xbea6c28b	-0.325703
7	0xbef40777	-0.47661945
8	0xbe482c8f	-0.19548248
9	0xbeec38ca	-0.46137077
10	0xbebc2daa	-0.3675359
11	0xbed75cd1	-0.42063
12	0xbe975947	-0.295603
13	0xbe86161a	-0.26188737
14	0xbf03fc1b	-0.5155656
15	0xbedb3a37	-0.42817852
16	0xbecb02de	-0.39650625
17	0xbe6c6670	-0.23085952
18	0xbefb9ba7	-0.4914219
19	0xbea393a0	-0.31948566
20	0xbea412aa	-0.3204549
21	0xbedb9833	-0.42889556
22	0xbf0f5f25	-0.56004554
23	0xbdf26688	-0.118359625
24	0xbf0f3e34	-0.5595429
25	0xbf08acef	-0.53388876
26	0xbe9db7e8	-0.30804372
27	0xbefec0d0	-0.4975648
28	0xbe9044c3	-0.2817746
29	0xbf0b51ac	-0.54421496
30	0xbe6036c4	-0.21895891
31	0xbebc745d	-0.36807528
32	0xbe3ea855	-0.18618901
33	0xbebd24e2	-0.36942202
34	0xbed237ff	-0.41058347
35	0xbf6aa9b8	-0.9166522
36	0xbe6ba264	-0.23011166
37	0xbeb39f6f	-0.35082576
38	0xbe2c8c48	-0.16850388
39	0xbeb24d72	-0.3482471
40	0xbecc7eda	-0.3994053
41	0xbead9997	-0.33906242
42	0xbe4fc3ba	-0.20289508
43	0xbed7f4bd	-0.42178908
44	0xbdcec8c5	-0.100968875
45	0xbf018705	-0.5059665
46	0xbf0694db	-0.52570885
47	0xbe0c3a18	-0.13694036
48	0xbdae6b80	-0.08516598
49	0xbe68a982	-0.22720912
50	0xbe22871f	-0.15871857
51	0xbca3c7cb	-0.01999273
52	0xbf2c214e	-0.6723832
53	0xbe828d19	-0.25498274
54	0xbeb198f4	-0.34687006
55	0xbeb8fb43	-0.36129197
56	0xbeadbdcb	-0.33933863
57	0xbef38a65	-0.47566524
58	0xbd7def1b	-0.061995607
59	0xbeaf8f54	-0.34289038
60	0xbe778689	-0.24172415
61	0xbe9fb3af	-0.31191775
62	0xbebfaeab	-0.3743795
63	0xbdc84b69	-0.09780008
64	0xbdb41384	-0.08792785
65	0xbe3a13cb	-0.18171613
66	0xbd0b0af9	-0.03394601
67	0xbe850519	-0.25980452
68	0xbe454eb9	-0.19268312
69	0xbf0893db	-0.5335061
70	0xbea3896b	-0.3194078
71	0xbf183d56	-0.5946859
72	0xbe849241	-0.25892833
73	0xbdea9e63	-0.11455991
74	0xbf14725f	-0.57987016
75	0xbea26897	-0.3172042
76	0xbe889902	-0.26679236
77	0xbeb0d76d	-0.34539357
78	0xbedbfad0	-0.42964792
79	0xbe9f90fb	-0.311653
80	0xbf0b17a7	-0.54332966
81	0xbf0746f0	-0.5284262
82	0xbf05d152	-0.5227252
83	0xbec6c47c	-0.3882178
84	0xbe6f3e81	-0.23363687
85	0xbe6e976d	-0.23299952
86	0xbda6ab18	-0.08138102
87	0xbead62e4	-0.3386451
88	0xbe079442	-0.1324015
89	0xbe581312	-0.21101025
90	0xbeb2fe0b	-0.34959444
91	0xbf034bf1	-0.5128775
92	0xbf0e09b4	-0.55483556
93	0xbe8ebc1d	-0.27877894
94	0xbf29b07a	-0.66284907
95	0xbe717a72	-0.23581865
96	0xbbee0914	-0.007264266
97	0xbf11de0a	-0.5697943
98	0xbe204b8c	-0.15653819
99	0xbed9b554	-0.42521155
100	0xbe89db89	-0.26925305
101	0xbef507f8	-0.47857642
102	0xbe810bd2	-0.2520433
103	0xbe41c09a	-0.18921128
104	0xbe5af0be	-0.21380898
105	0xbeae10c3	-0.33997163
106	0xbe9d009b	-0.30664524
107	0xbe6b9a3a	-0.23008052
108	0xbe9123cb	-0.2834762
109	0xbe9ef9ba	-0.310499
110	0xbd5219ec	-0.051294252
111	0xbed48622	-0.41508585
112	0xbea7b466	-0.3275482
113	0xbe6eca92	-0.23319462
114	0xbed37c66	-0.41305846
115	0xbd1d245a	-0.038364746
116	0xbeb99b1e	-0.36251158
117	0xbebfea61	-0.37483504
118	0xbd834d56	-0.06411235
119	0xbe194f93	-0.14971761
120	0xbe85b9df	-0.2611837
121	0xbf077f7e	-0.5292891
122	0xbeeacb3b	-0.45858178
123	0xbf045ed4	-0.51707196
124	0xbecd00ad	-0.40039578
125	0xbe8e9704	-0.2784959
126	0xbeaf4e14	-0.34239256
127	0xbe88335e	-0.2660169

gc2.fc.weight f4 [128, 128]
0	0xbea6d921	-0.3258753
1	0xbd44881c	-0.047981367
2	0x3e2daac2	0.1695967
3	0x3d8d05ea	0.06885894
4	0xbd22e744	-0.039771333
5	0xbcf783e7	-0.030214263
6	0x3b73bfa5	0.0037193086
7	0xbc72bfc3	-0.014816227
8	0xbd2b6dbf	-0.04185271
9	0xbd1dd2c1	-0.03853107
10	0xbe8dc6ad	-0.2769064
11	0xbd8c2a2d	-0.06843982
12	0xbd1d6c5d	-0.03843342
13	0xbd8c9149	-0.068636484
14	0xbdbbd1ab	-0.0917085
15	0x3b02c764	0.0019955272
16	0x3c9daecd	0.01924839
17	0xbd9143bb	-0.07092997
18	0x3d147fd4	0.03625472
19	0xbe207fa7	-0.15673696
20	0xbb9c4dda	-0.004770023
21	0x3e059067	0.13043366
22	0x3e49c50e	0.19704077
23	0xbe114a76	-0.14188561
24	0x3c83d39b	0.016092112
25	0x3de41e16	0.11138551
26	0x3e29135f	0.16511296
27	0xbdfb360f	-0.1226617
28	0xbcbd5cc0	-0.023115516
29	0x3d16de51	0.03683311
30	0xbd14de48	-0.036344796
31	0x3e042998	0.12906492
32	0xbb87e5e9	-0.0041472805
33	0x3c28b10c	0.0102961175
34	0x3d795571	0.0608725
35	0xbca5a8d3	-0.020222103
36	0x3dd86ad9	0.105672546
37	0x3d9f432a	0.077764824
38	0xbbb5c6ee	-0.005547396
39	0x3d1a7b75	0.037715394
40	0xbe40551f	-0.18782471
41	0xbe213d09	-0.1574594
42	0x3dcf2a04	0.10115436
43	0xbd8079af	-0.06273209
44	0xbde2cf46	-0.110746905
45	0xbc939ff0	-0.0180206
46	0xbd227fca	-0.03967265
47	0x3d58d5e0	0.052938342
48	0xbe0bdf8b	-0.13659494
49	0xbda09588	-0.07841021
50	0xbce5081f	-0.027957974
51	0xbdd9f1d9	-0.10641832
52	0xbd8c9ad1	-0.068654664
53	0x3d4b04b3	0.04956503
54	0xbe92d346	-0.28676814
55	0x3d3121ec	0.04324524
56	0xbe445def	-0.19176458
57	0xbda17815	-0.07884232
58	0xbd9017f9	-0.070358224
59	0x3b1e9a71	0.002420094
60	0x3def58a9	0.116868325
61	0xbddf379d	-0.10899279
62	0xbe488d03	-0.19585042
63	0x3ddf96e2	0.109174505
64	0xbe2e8569	-0.1704308
65	0x3dbaadff	0.09115218
66	0xbdc9fe29	-0.0986293
67	0xbe67b5b4	-0.22627908
68	0x3dbc44a2	0.09192778
69	0x3cf2df0f	0.029647378
70	0xbe81fa4c	-0.25386274
71	0x3ce691bb	0.028145662
72	0x3dd84d3d	0.10561607
73	0x3ce49177	0.027901394
74	0xbe15bb7c	-0.14622301
75	0xbe5cf923	-0.21579413
76	0x3dcacb06	0.09902005
77	0xbd894c34	-0.06703988
78	0xbc439bcc	-0.011939
79	0x3cb1271b	0.021625092
80	0x3de915f0	0.11381137
81	0xbe27b91d	-0.16379209
82	0x3d519a4e	0.051172547
83	0xbe5d5ed0	-0.216182
84	0x3b65265b	0.0034965489
85	0xbe43ec30	-0.19133067
86	0xbe252f92	-0.16131428
87	0xbc0289f4	-0.007967461
88	0x3dffcf16	0.124906704
89	0xbd7a79d9	-0.06115136
90	0x3c63093a	0.01385718
91	0xbc869ed4	-0.016433157
92	0xbe753073	-0.23944263
93	0xbddd8ab8	-0.10817474
94	0x3d903c66	0.0704277
95	0x3cafd7ad	0.021465147
96	0xbf09d75f	-0.53844255
97	0xbcb73a0b	-0.022366544
98	0x3e09e65a	0.13466778
99	0xbe02515e	-0.12726352
100	0xbe60383e	-0.21896455
101	0x3e220d13	0.158253
102	0xbe9c6077	-0.30542347
103	0xbc8d98af	-0.01728472
104	0xbe4b2c96	-0.19841227
105	0x3cfdbaa7	0.030972792
106	0xbc764522	-0.015031131
107	0xbda4db7e	-0.08049677
108	0xbec18275	-0.37794843
109	0x3d8d6981	0.06904889
110	0xbdcadea1	-0.09905744
111	0xbcb7b408	-0.022424713
112	0xbe2cdebd	-0.16881843
113	0xbe5bdadd	-0.21470208
114	0x3d471162	0.048600562
115	0x3df9fafa	0.12206073
116	0xbdb9c7bb	-0.09071299
117	0xbe579d30	-0.21056056
118	0xbd9bf9c9	-0.07616002
119	0xbe2f26d9	-0.17104663
120	0x3e378209	0.17920698
121	0x3ea30676	0.31840867
122	0xbd17845e	-0.03699147
123	0xbe0ebd34	-0.13939363
124	0xbe982904	-0.29718792
125	0x3e3d452c	0.18483418
126	0x3e1963f2	0.14979532
127	0xbdfe9766	-0.12431221
128	0xbe812840	-0.2522602
129	0x3e0295fe	0.1275253
130	0x3c765182	0.015034081
131	0xbe3bcacb	-0.18339078
132	0x3d365e83	0.044523727
133	0x3e0823b4	0.1329487
134	0xbcac941f	-0.021066723
135	0x3df0f00c	0.11764535
136	0xbe8ac6eb	-0.27104887
137	0x3d7bab2d	0.061442543
138	0x3e13f6be	0.14449593
139	0x3e1eb94f	0.15500377
140	0xbd9a66e5	-0.07539157
141	0xbe79df17	-0.24401508
142	0x3e10bb93	0.14134054
143	0xbcfdd6ff	-0.030986307
144	0x3d3bc658	0.045843452
145	0xbdd9fc83	-0.10643866
146	0x3e0ed9d9	0.1395029
147	0x3e808256	0.25099438
148	0x3e392068	0.18078768
149	0x3e515fa5	0.20446642
150	0x3e58bdba	0.21166125
151	0x3d0ebee8	0.03485003
152	0x3dd3b41f	0.1033709
153	0x3e85bd94	0.261212
154	0xbe32f6ac	-0.1747691
155	0x3de8d5d4	0.113689095
156	0xbebff577	-0.37491962
157	0x3df6b3ec	0.12046036
158	0x3d07f658	0.033193916
159	0x3dee54ed	0.11637292
160	0xbe1f96be	-0.15584847
161	0xbe40d831	-0.1883247
162	0xbd67ae62	-0.05656279
163	0xbe2ea3ce	-0.17054674
164	0xbd9b0e3e	-0.07571076
165	0x3cc0e711	0.023547681
166	0x3deec684	0.116589576
167	0x3d19e190	0.03756863
168	0x3e49b421	0.1969762
169	0xbe25217d	-0.16126056
170	0xbe74baf8	-0.23899448
171	0xbe340f68	-0.17584002
172	0xbdeb7161	-0.11496235
173	0x3e4f7325	0.20258768
174	0xbd88c450	-0.06678069
175	0x3e1840a1	0.14868404
176	0xbc271cd1	-0.010199741
177	0xbebdf687	-0.37102148
178	0xbe029dd4	-0.12755519
179	0xbec5ceed	-0.38634434
180	0x3c845bad	0.016156996
181	0x3e63b991	0.22238757
182	0xbe1a4293	-0.15064459
183	0xbdb12c33	-0.086510085
184	0x3e50732e	0.20356438
185	0x3b3a285f	0.002840541
186	0xbea1de3c	-0.31614864
187	0x3d0225b5	0.03177424
188	0xbe4b1c6b	-0.1983506
189	0xbec3f370	-0.38271666
190	0x3db67079	0.08908171
191	0x3e227534	0.15865022
192	0x3d039e77	0.032133546
193	0x3d197b34	0.03747101
194	0xbe06da60	-0.13169241
195	0xbe518517	-0.20460926
196	0xbd479365	-0.04872455
197	0x3e510610	0.20412469
198	0x3e9c85ec	0.30570924
199	0xbe8a8633	-0.2705551
200	0x3ddbce8a	0.107327536
201	0xbed6dbcd	-0.4196457
202	0xbdeec52a	-0.116587
203	0xbe43eb7a	-0.19132796
204	0x3de17a09	0.110096045
205	0xbde7d15d	-0.1131923
206	0x3c893db4	0.016753055
207	0x3d15c963	0.03656901
208	0xbdce4547	-0.10071807
209	0x3ebac536	0.36478585
210	0x3e3d2eb3	0.18474846
211	0xbeb58e19	-0.35459974
212	0xbe2f6ba8	-0.17130911
213	0x3d8913ba	0.06693216
214	0xbda3938c	-0.07987127
215	0xbc8703df	-0.016481338
216	0xbe88e4b0	-0.26736975
217	0x3cb0c5f3	0.021578765
218	0xbec82806	-0.39093035
219	0xbc74cec6	-0.014941877
220	0x3e31cd9b	0.17363589
221	0xbe22d359	-0.15900935
222	0xbd573b3e	-0.052546732
223	0x3e031f3b	0.12804882
224	0x3d173ca2	0.03692306
225	0x3dde3bcb	0.10851248
226	0xbe0165dd	-0.12636514
227	0x3e17f58e	0.14839765
228	0xbe9475de	-0.28996176
229	0x3df75f12	0.1207868
230	0x3cb08d8a	0.021551866
231	0xbe50a3a2	-0.20374921
232	0xbe6ba499	-0.23012008
233	0xbe403121	-0.18768741
234	0x3e2be97e	0.16788289
235	0xbe608d4e	-0.21928903
236	0xbe8553ac	-0.260404
237	0xbe59f18f	-0.21283554
238	0xbd8dfa1f	-0.069324724
239	0x3e2d1c1e	0.16905257
240	0xbde00aa3	-0.10939529
241	0x3b7572f0	0.0037452541
242	0x3cff12eb	0.03113695
243	0xbe305065	-0.17218168
244	0x3c8742d5	0.01651136
245	0xbe537048	-0.206483
246	0x3be27f58	0.006912153
247	0xbeecb98e	-0.46235317
248	0x3debc8bd	0.11512897
249	0xbdf8574d	-0.12126026
250	0x3d0732f8	0.033007592
251	0xbe3a8817	-0.18215977
252	0xbd75e4ce	-0.06003266
253	0xbed2bb2c	-0.41158426
254	0x3e18499b	0.14871828
255	0xbe01cfc2	-0.1267691

gc2.fc.bias f4 [128]
0	0x3dbcbaaf	0.092152946
1	0xbe277c3d	-0.16355987
2	0xbe2003ff	-0.15626524
3	0xbe33df73	-0.17565708
4	0xbd052ce8	-0.03251353
5	0xbc625ebd	-0.013816533
6	0xbe101943	-0.14072137
7	0xbe4d9702	-0.20077136
8	0xbe703121	-0.23456241
9	0xbde8d6e0	-0.11369109
10	0xbedc0136	-0.42969674
11	0xbd0cd822	-0.034385808
12	0xbe745527	-0.23860608
13	0xbe7ecf6f	-0.24883817
14	0xbe9ab37c	-0.3021506
15	0xbdcc62d8	-0.099797904
16	0xbe84e99c	-0.2595948
17	0xbe40bdb7	-0.1882237
18	0xbe707bcb	-0.23484723
19	0xbe8ef549	-0.27921513
20	0xbe83c58b	-0.2573665
21	0xbd1d8699	-0.03845844
22	0xbe64aabb	-0.22330754
23	0xbeb738fd	-0.35785666
24	0xbe42f4f8	-0.1903876
25	0xbe4a30b6	-0.19745144
26	0xbeb20a20	-0.3477335
27	0xbe9f62ac	-0.31129968
28	0xbe660961	-0.22464515
29	0xbe2b2685	-0.16713913
30	0xbe878c21	-0.26474097
31	0xbd4927b2	-0.049110122
32	0xbe7d19ac	-0.24716824
33	0xbec9fd28	-0.39450955
34	0xbe984eb8	-0.29747558
35	0x3df6cbcf	0.12050592
36	0xbd36edfa	-0.044660546
37	0x3bbb50d6	0.0057164235
38	0xbe37c8f8	-0.17947757
39	0x3e048dec	0.12944764
40	0x3e0c24ec	0.1368596
41	0xbec1906f	-0.37805507
42	0xbeac6a12	-0.33674675
43	0xbe77d026	-0.24200496
44	0xbeb30151	-0.34961942
45	0xbe7ecc6c	-0.24882668
46	0xbe734da7	-0.23760091
47	0xbd924d48	-0.071436465
48	0xbe80ebd1	-0.25179914
49	0x3e0db037	0.13836752
50	0xbed09f1e	-0.40746397
51	0xbcd91b44	-0.02650226
52	0xbe152f67	-0.14568864
53	0x3d9cabd6	0.076499626
54	0xbeb507c6	-0.35357493
55	0xbe6ce76e	-0.23135158
56	0x3d7a2089	0.061066184
57	0xbe2c3a2e	-0.16819069
58	0xbe1e4f3b	-0.15459912
59	0xbe166da3	-0.1469026
60	0xbe3b99f8	-0.18320453
61	0xbe7afa4b	-0.24509542
62	0xbe51369b	-0.20430987
63	0xbe500e56	-0.20317969
64	0xbed0fcee	-0.4081797
65	0xbdb998a4	-0.09062317
66	0xbe5b040f	-0.21388267
67	0xbccbcc19	-0.024877595
68	0xbde67ed4	-0.11254659
69	0xbe48664c	-0.19570273
70	0x3d0f141a	0.03493128
71	0xbeb746d4	-0.35796225
72	0xbe0ef42a	-0.13960329
73	0x3e15496a	0.14578786
74	0x3e0559e7	0.13022576
75	0xbe823cfe	-0.25437158
76	0xbe440513	-0.1914256
77	0x3e159633	0.14608078
78	0xbe0135db	-0.126182
79	0xbe78d02d	-0.24298163
80	0x3e02072d	0.1269805
81	0xbdbdb7db	-0.09263583
82	0xbce4607d	-0.02787804
83	0x3c998a9c	0.018742852
84	0xbe388090	-0.18017793
85	0x3e12ced1	0.14336707
86	0xbde847a4	-0.11341789
87	0xbde4c76c	-0.11170849
88	0xbe79b934	-0.24387056
89	0xbead289f	-0.33820054
90	0x3e734a5b	0.23758833
91	0xbef89c8c	-0.48556936
92	0xbe80a6f6	-0.2512738
93	0xbdd50015	-0.10400406
94	0x3e166ea2	0.1469064
95	0xbd8a90bf	-0.067658894
96	0xbc2c274c	-0.010507416
97	0xbe89556f	-0.26822993
98	0xbdf41f4a	-0.119200304
99	0xbdc6e9da	-0.097125724
100	0xbe35fdf2	-0.17772654
101	0xbcb54ac7	-0.022130383
102	0xbe94218d	-0.28931847
103	0xbdb58c63	-0.08864667
104	0xbd4d2894	-0.050087526
105	0xbde36589	-0.11103351
106	0x3b02eeaa	0.001997868
107	0x3e30bfbd	0.17260642
108	0xbe0cd68c	-0.13753718
109	0x3e0ac2e8	0.13550913
110	0xbdd20e7d	-0.1025667
111	0xbe003160	-0.12518835
112	0x3b1413ec	0.0022594882
113	0xbe68d00d	-0.22735615
114	0xbe09bdcf	-0.13451312
115	0xbd949783	-0.07255461
116	0xbde3b33d	-0.11118171
117	0xbda8b55e	-0.08237718
118	0xbd415774	-0.047202542
119	0xbe6ddf93	-0.23229818
120	0xbea518b9	-0.32245424
121	0xbe4c83e7	-0.19972192
122	0xbe117c44	-0.1420756
123	0xbe06b5e3	-0.13155322
124	0x3d153767	0.03642979
125	0xbdbb4778	-0.09144491
126	0xbe8ec968	-0.27888036
127	0x3d50f71e	0.05101692

temporal_conv.weight f4 [128, 128, 3]
0	0xbd9ab79a	-0.075545505
1	0xbd34b659	-0.044119213
2	0xbbc7e56a	-0.0061003463
3	0xbcc24885	-0.02371622
4	0xbcfa993c	-0.030590646
5	0xbcea91f2	-0.028634045
6	0xbd0ad404	-0.0338936
7	0x3c02b14d	0.007976842
8	0x3d165d63	0.036710154
9	0xbd51dfc6	-0.051238798
10	0xbd4f3e4f	-0.05059653
11	0x3b381d15	0.0028093506
12	0xbda011f7	-0.078159265
13	0xbbc492e4	-0.005998956
14	0x3cffb3e9	0.031213718
15	0xbb04a04e	-0.002023715
16	0x3bda6d32	0.006665849
17	0xbcaceafa	-0.02110814
18	0xbc82637e	-0.015916582
19	0xbd55a67b	-0.05216072
20	0x3d0cedf9	0.034406636
21	0xbd09a688	-0.033606082
22	0x3c5b8a9d	0.013399747
23	0xbd0db360	-0.034594893
24	0xbcedb8fa	-0.029018868
25	0xbdefb3cc	-0.117042154
26	0xbcbf74cd	-0.023371125
27	0xbdb3c33a	-0.08777471
28	0xbcb9f524	-0.0226999
29	0xbd197d57	-0.03747305
30	0x3ce87a94	0.028378762
31	0xbd44c0d4	-0.048035458
32	0x3c60fcdf	0.013732164
33	0xbd056905	-0.032570858
34	0x3d2d0472	0.042240568
35	0x3d0a6d91	0.033795897
36	0xbd5103f0	-0.051029146
37	0xbd3ef0b0	-0.046616256
38	0x3d0db344	0.03459479
39	0x3c3a942d	0.011387867
40	0xbd85cdb6	-0.06533377
41	0x3c87ed9b	0.016592791
42	0xbcd031fe	-0.025414463
43	0xbde066a0	-0.10957074
44	0xbcda2bb9	-0.026632177
45	0xbd4c4ed5	-0.049879868
46	0xbdad0ac8	-0.08449322
47	0x3d1a1630	0.037618816
48	0xbc92a476	-0.017900687
49	0xbbdebb61	-0.0067972397
50	0x3d3fa98c	0.046792552
51	0xbd75931a	-0.05995474
52	0xbcb765be	-0.022387382
53	0xbcce79b2	-0.025204513
54	0xbda3fb52	-0.0800692
55	0xbcf27fee	-0.029602017
56	0xbd47dbe4	-0.04879369
57	0xbcf7072b	-0.030154785
58	0x3af22f3e	0.0018477214
59	0xbd0b556b	-0.034017008
60	0xbd47d52d	-0.048787285
61	0xbc4cccdb	-0.012500013
62	0xbd3f7ce8	-0.04674998
63	0xbc0a50ca	-0.008442113
64	0x3c96b84a	0.018398423
65	0x3c14ae65	0.009074782
66	0xbdcc5f50	-0.09979117
67	0xbaf5c91a	-0.001875195
68	0x3cc31838	0.02381526
69	0xbd9890a5	-0.07449464
70	0xbd3821e8	-0.04495421
71	0x3d15fd60	0.03661859
72	0xbc0d9f0d	-0.008643878
73	0xbd1a99a9	-0.037744198
74	0xbd339394	-0.043841913
75	0xbd2d8962	-0.042367347
76	0xbcae46ed	-0.021274054
77	0x3d3f8b6d	0.046763826
78	0x3d16059d	0.036626447
79	0xbd86aed9	-0.06576318
80	0xbd4bc1e8	-0.04974547
81	0xbdcb92db	-0.0994012
82	0xbd18ce07	-0.037305858
83	0xbd43a981	-0.047769073
84	0xbcb56d2f	-0.02214679
85	0x3cf6aa65	0.030110547
86	0xbd29a4b2	-0.04141683
87	0xbd34aa49	-0.04410771
88	0x3afc6d37	0.0019258623
89	0xbaa289e4	-0.0012400714
90	0xbd7b88ce	-0.061409764
91	0xbdb5656b	-0.088572346
92	0x3d3ce494	0.046116427
93	0x3baf11c7	0.0053426954
94	0xbd35e85d	-0.044411052
95	0x3d4dbe2d	0.050230194
96	0xbdfdef08	-0.12399107
97	0xba93c372	-0.0011273457
98	0xbd2ae37b	-0.04172085
99	0xbc97306a	-0.018455703
100	0x3c48cd53	0.012255984
101	0xbd3bd79a	-0.04585991
102	0xbd3febd8	-0.046855778
103	0xbd938df1	-0.072048075
104	0xbc95d295	-0.01828889
105	0x3d6d8d0b	0.057995837
106	0x3c973288	0.018456712
107	0xbcb3cc0f	-0.021947889
108	0xbdd61cfd	-0.10454748
109	0xbde6e54c	-0.11274204
110	0x3ca82950	0.020527512
111	0xbdc8f804	-0.0981293
112	0xbd274357	-0.040835705
113	0x3d050c94	0.0324827
114	0xbd6d48ab	-0.05793063
115	0xbdb020db	-0.08600017
116	0x3bf1dd97	0.007381152
117	0xbd0729f5	-0.032998998
118	0xbdf9c3fd	-0.12195585
119	0x3d4a83ad	0.049441982
120	0xbbd1b01d	-0.006399168
121	0xbde5b719	-0.11216564
122	0xbcd1341e	-0.025537547
123	0xbdcd9121	-0.10037447
124	0xbd24a9f9	-0.04020116
125	0xbc1f50cc	-0.009723853
126	0xbd54d770	-0.05196327
127	0x3cf72a84	0.03017164
128	0x3cf8fb3f	0.030393241
129	0x3c814253	0.015778696
130	0xbb81fbe9	-0.0039667976
131	0x3c982fb9	0.018577443
132	0xbd687b0c	-0.05675797
133	0x3d5afe40	0.053465128
134	0x3bb14452	0.0054097557
135	0x3c15e390	0.009148493
136	0xbc807576	-0.01568101
137	0xbd3f24c2	-0.046665914
138	0x3d2bec12	0.04197318
139	0xbce67775	-0.028133133
140	0xbc722c2e	-0.014781041
141	0x3d64ba69	0.055841837
142	0xbd2d4a6b	-0.0423073
143	0x3d3df276	0.046373807
144	0xbd4df647	-0.050283697
145	0xbd96919c	-0.073519915
146	0x3d04a37b	0.03238247
147	0xbd17109e	-0.03688108
148	0xbde1ffab	-0.11035093
149	0xbbba1fd5	-0.005680064
150	0xbdd6b41a	-0.104835704
151	0x3c5428f2	0.012949215
152	0x3d0643f6	0.032779656
153	0xbdd4d56d	-0.1039227
154	0xbcc5651d	-0.024096066
155	0x3ce3401c	0.02774053
156	0xbd8e5a5b	-0.06950828
157	0xbc56878e	-0.013093842
158	0xbcd582e9	-0.0260634
159	0xbca1741a	-0.019708682
160	0xbd0d6bde	-0.0345267
161	0xbca4c87a	-0.020115126
162	0xbd43756b	-0.0477194
163	0x3ccaed4a	0.024771351
164	0x3d03fc29	0.0322229
165	0xbd31eefd	-0.043440808
166	0xbd303e01	-0.04302788
167	0xbd4d4cae	-0.050121956
168	0xbd149c43	-0.036281835
169	0xbda0dc74	-0.07854548
170	0xbafca1e1	-0.0019274318
171	0xbcda4779	-0.026645409
172	0xbd46a9ef	-0.048501905
173	0xbcbbd1bd	-0.02292716
174	0xbdec11df	-0.11526846
175	0xbdee53ae	-0.116370544
176	0x3ce6ca45	0.028172622
177	0x3cfa70e9	0.030571418
178	0xbd207354	-0.039172485
179	0xbc1c3ccd	-0.00953598
180	0xbd04eae0	-0.032450557
181	0xbda2c734	-0.07948151
182	0xbd292bc9	-0.041301522
183	0xbdb4c91e	-0.088274226
184	0xbce166aa	-0.027514774
185	0xbd0c5ff9	-0.034271214
186	0xbcecc24b	-0.02890124
187	0xbdbc3e74	-0.091915995
188	0x3ce209b4	0.027592517
189	0xbd58d34e	-0.05293589
190	0xbcf5906f	-0.029976098
191	0xbbf4d08b	-0.0074711493
192	0xbd3217c4	-0.043479696
193	0xbce10584	-0.02746845
194	0xbd1a19ae	-0.037622146
195	0xbd84ec06	-0.064903304
196	0xbc15efb4	-0.009151388
197	0x3ce175d0	0.027521998
198	0xbdd4bbbd	-0.10387371
199	0xbc8368b6	-0.016041141
200	0x3c8416e3	0.016124194
201	0xbd31ae54	-0.043379143
202	0xbc66b147	-0.014080352
203	0xbc439b82	-0.011938931
204	0xbd61b3dc	-0.055103168
205	0xbd2d0cc4	-0.042248502
206	0x3d194376	0.03741785
207	0xbdb8d3ad	-0.09024749
208	0xbdd5d004	-0.104400665
209	0xbd4c2e26	-0.049848698
210	0xbd9a6756	-0.07539241
211	0xbdb17e1d	-0.08666632
212	0x3c2f2638	0.010690264
213	0xbd717489	-0.058949027
214	0x3d2ad3dd	0.041705955
215	0xbbbb9a48	-0.005725179
216	0xbdb3cf20	-0.0877974
217	0x3cec2ed4	0.028830923
218	0xbcc1dfa7	-0.023666216
219	0xbd5a21d2	-0.05325491
220	0xbd2dc15d	-0.042420734
221	0xbc03918f	-0.008030309
222	0xbd197b5e	-0.037471168
223	0xbdab6d36	-0.0837044
224	0xbc8409d0	-0.01611796
225	0x3cdf6c1c	0.02727323
226	0x3c11778b	0.008878599
227	0xbc0506c6	-0.008119291
228	0xbd324839	-0.04352591
229	0xbccc2aa2	-0.024922673
230	0xbd1dfb8d	-0.038569976
231	0xbdab60a6	-0.083680436
232	0x3c010c3d	0.007876453
233	0x3c77abcb	0.015116642
234	0x3cc3945b	0.023874452
235	0xbde16ede	-0.11007474
236	0x3d0a9b65	0.033839602
237	0x3d05f2f5	0.032702405
238	0x3d47fb86	0.048823856
239	0xbb5886ef	-0.003303941
240	0xbd022276	-0.031771146
241	0xbd3f0464	-0.046635047
242	0xbd4fce86	-0.050734065
243	0xbd97e9e5	-0.07417659
244	0xbd0829a5	-0.03324284
245	0xbd230941	-0.039803747
246	0xbd2ff570	-0.042958677
247	0xbd323b3f	-0.043513533
248	0xba9b55a1	-0.0011851081
249	0xbd8692d1	-0.06570972
250	0xbd18cd25	-0.037305016
251	0x3c8c96a9	0.017161684
252	0x3d5c7c92	0.053829737
253	0xbc453847	-0.012037343
254	0xbcbd98cf	-0.023144154
255	0xbdb3eed2	-0.08785786

temporal_conv.bias f4 [128]
0	0xbdf4045c	-0.11914894
1	0x3e7bf5e4	0.24605519
2	0x3ef79bf4	0.4836117
3	0xbe165baf	-0.14683412
4	0xbe5f1771	-0.21786286
5	0xbc98d985	-0.018658409
6	0x3ed861c7	0.42262098
7	0x3ed5d326	0.41762656
8	0xbd41d409	-0.047321353
9	0xbdc2568d	-0.094891645
10	0xbd65c238	-0.056093425
11	0xbdc4df59	-0.09612913
12	0x3f0ffb46	0.5624279
13	0x3ef92598	0.48661494
14	0x3f0070b0	0.5017195
15	0x3e7ecd9e	0.24883124
16	0xbdce6b5a	-0.100790694
17	0x3efb7971	0.4911609
18	0x3eb74f11	0.3580251
19	0xbd685fd8	-0.05673203
20	0x3f029261	0.51004606
21	0xbe8b8145	-0.27247062
22	0xbd9a8cbe	-0.07546376
23	0x3ee39242	0.44447523
24	0x3f0d4c86	0.5519489
25	0x3eccbe1f	0.399888
26	0xbe24e1c9	-0.16101755
27	0x3ee721fe	0.4514312
28	0x3f14fe4a	0.58200514
29	0x3e28e420	0.16493273
30	0x3e056bcd	0.13029404
31	0xbde2d695	-0.110760845
32	0xbe1a660a	-0.15077987
33	0x3f008974	0.50209737
34	0xbd506580	-0.050878048
35	0xbe1b4401	-0.1516266
36	0xbd8847e7	-0.06654339
37	0x3efc00c4	0.49219334
38	0x3ee0e8a2	0.43927485
39	0xbcc137fb	-0.023586264
40	0xbe8b3f5f	-0.27196786
41	0x3f149846	0.5804485
42	0x3eea6127	0.45777246
43	0xbddfc6c2	-0.10926582
44	0xbd5a2a56	-0.05326303
45	0xbe521d4e	-0.20518991
46	0x3ed74d40	0.42051125
47	0x3ee5d321	0.4488764
48	0x3ebc80eb	0.36817107
49	0x3ee81c5e	0.45334142
50	0xbcd70b57	-0.026250524
51	0x3ea19032	0.31555325
52	0x3edac49d	0.4272813
53	0xbce46df7	-0.027884467
54	0xbd9b29e8	-0.07576352
55	0x3e4a9ad6	0.19785628
56	0x3f163043	0.5866739
57	0x3e97ea3d	0.29670897
58	0x3edfcd11	0.4371114
59	0x3e40b45f	0.18818806
60	0xbeaafcb8	-0.33395934
61	0x3f27c544	0.6553538
62	0x3e8088f4	0.25104487
63	0xbe29cea9	-0.16582741
64	0x3ee1c0c7	0.4409239
65	0x3edd1f7f	0.43188092
66	0x3e34f8eb	0.1767308
67	0x3f0eb036	0.55737627
68	0xbd8a2ca8	-0.06746799
69	0x3e9d7e8b	0.30760607
70	0x3ebefaa0	0.37300587
71	0xbd840b3a	-0.06447454
72	0xbdb8c817	-0.09022539
73	0x3e8db56a	0.2767747
74	0xbd35416f	-0.044251855
75	0xbdd9aabd	-0.10628269
76	0x3ea7917d	0.32728186
77	0x3efe2c2e	0.4964308
78	0xbdb6d014	-0.089264065
79	0xbe7e3f92	-0.24828938
80	0x3ef5f9cf	0.4804215
81	0x3f16682a	0.5875269
82	0xbd315224	-0.043291226
83	0x3ee53936	0.4477021
84	0xbdfdfcb0	-0.12401712
85	0x3f08ab1e	0.53386104
86	0xbca02fc0	-0.019554019
87	0xbc923116	-0.017845672
88	0x3f0c68be	0.54847324
89	0x3ecbec94	0.39828932
90	0xbe1632c7	-0.14667808
91	0x3ed992e0	0.4249487
92	0xbd58e807	-0.052955654
93	0xbe428829	-0.18997253
94	0xbdc300c2	-0.09521629
95	0xbcf76503	-0.030199533
96	0x3efdcce5	0.49570385
97	0x3ee03ff1	0.43798783
98	0x3da157ad	0.07878051
99	0x3ec7b0e0	0.39002132
100	0xbdbc01a7	-0.09180003
101	0xbdc72e7f	-0.09725665
102	0xbd7e44da	-0.06207738
103	0xbd08a130	-0.033356845
104	0xbe4adbc7	-0.19810401
105	0xbea9a8dc	-0.33136642
106	0x3eda3d00	0.42624664
107	0xbdab0649	-0.08350808
108	0x3eef3d4a	0.46726447
109	0x3ede6b11	0.4344106
110	0xbe2d9e6d	-0.16954966
111	0x3e94fbce	0.29098362
112	0xbe253cf9	-0.1613654
113	0x3bbefcbd	0.0058284686
114	0xbe6fa6aa	-0.23403421
115	0x3f07763f	0.52914804
116	0xbdbac29f	-0.09119152
117	0x3eba9bf5	0.3644711
118	0x3f055b42	0.52092373
119	0x3eecdf8f	0.46264312
120	0x3ea5542e	0.32290787
121	0x3ebaf90a	0.36518127
122	0xbe810886	-0.25201815
123	0xbe13c6f0	-0.14431357
124	0x3ec74d6d	0.3892626
125	0x3ef8f0af	0.48621127
126	0x3ee5d574	0.44889414
127	0x3e95899f	0.2920656

fc.weight f4 [36, 128]
0	0xbda94442	-0.08264972
1	0xbd771f36	-0.0603325
2	0x3c5ef254	0.01360758
3	0x3c8a87f3	0.016910529
4	0x3e34c969	0.17654957
5	0xbd9bd05f	-0.07608103
6	0x3bcf8f6d	0.0063342364
7	0x3e0b75ac	0.13619107
8	0xbd14a3df	-0.036289092
9	0x3bf4329d	0.0074523226
10	0xbdc6ab94	-0.09700695
11	0x3cbbaa2a	0.022908289
12	0xbe957340	-0.2918949
13	0xbdfedaa3	-0.124440454
14	0xbd507ff2	-0.05090327
15	0xbdf210c1	-0.11819602
16	0xbd03342a	-0.03203217
17	0x3d9c759a	0.07639618
18	0x3cdae4a0	0.026720345
19	0x3da31290	0.07962525
20	0x3ea92848	0.33038545
21	0xbe7c74ab	-0.2465388
22	0xbdd51158	-0.10403699
23	0x3e62b61a	0.22139779
24	0xbe099ab2	-0.13437918
25	0xbd210df0	-0.039319932
26	0xbdbdac66	-0.09261398
27	0x3e336f16	0.17522845
28	0xbdd7eb0b	-0.10542878
29	0xbe3a2ad6	-0.18180403
30	0xbe571571	-0.21004273
31	0xbdc202ea	-0.09473212
32	0x3d085706	0.033286117
33	0x3e29b90c	0.16574496
34	0xbb7def1f	-0.0038747264
35	0x3d1cb756	0.03826078
36	0x3a78a7a7	0.00094854314
37	0x3e0089b7	0.12552534
38	0xbe480318	-0.1953243
39	0x3d519370	0.051165998
40	0xbe13ca6e	-0.1443269
41	0xbe224de9	-0.15850033
42	0xbdd9a7c6	-0.10627703
43	0x3d591362	0.052997
44	0xbd9ed70e	-0.07755862
45	0x3e5767b8	0.2103566
46	0x3e9a841b	0.30178913
47	0x3c0ddd85	0.008658771
48	0x3ddf39c8	0.10899693
49	0x3e617f74	0.22021276
50	0xbe3de3fc	-0.18544
51	0x3ce21e6e	0.0276024
52	0xbc83a52a	-0.016069967
53	0xbd05123f	-0.032488104
54	0x3ca638fa	0.02029084
55	0xbdba20d6	-0.09088294
56	0xbdcc020b	-0.09961327
57	0x3dafda42	0.08586551
58	0x3c6545b3	0.013993668
59	0x3d8a2a0b	0.067463
60	0xbe8a88aa	-0.2705739
61	0xbe291ebc	-0.1651563
62	0x3eaceb44	0.33773243
63	0xbdf3e478	-0.11908811
64	0xbc564553	-0.013078052
65	0x3e4f3749	0.20235933
66	0xbe4ecf09	-0.20196165
67	0xbe69e5b0	-0.22841525
68	0x3d6ab0ee	0.05729764
69	0xbdab502d	-0.08364902
70	0x3e35bf10	0.17748666
71	0xbd00edfe	-0.031476967
72	0x3db503ed	0.088386394
73	0x3dd853b8	0.10562843
74	0x3d6f2482	0.058384426
75	0xbbd7423e	-0.006569176
76	0x3c899f83	0.016799694
77	0x3d43f9d7	0.047845688
78	0xbd02801e	-0.031860463
79	0xbe9064c7	-0.28201887
80	0x3d459fd6	0.048248135
81	0xbe158061	-0.14599754
82	0xbc4b839a	-0.012421513
83	0x3e24e436	0.1610268
84	0x3db26fea	0.08712752
85	0xbdc6699d	-0.09688113
86	0x3e21df40	0.1580782
87	0x3e3cf7d1	0.1845391
88	0x3e92f677	0.28703663
89	0x3be7472c	0.007058045
90	0x3d8dd5cf	0.069255464
91	0x3a1b53c4	0.0005925263
92	0x3c1970bf	0.00936526
93	0xbcdc753d	-0.026911372
94	0xbd118e05	-0.03553583
95	0x3bbe021e	0.005798592
96	0x3df92650	0.12165511
97	0x3d754296	0.059877954
98	0xbde185e2	-0.11011864
99	0x3e38ca3d	0.18045898
100	0x3bb126e2	0.0054062465
101	0x3ce6cec9	0.028174775
102	0x3ddb9b26	0.107229516
103	0x3d7c75e4	0.061635867
104	0xbe20e48f	-0.15712188
105	0xbe812a42	-0.25227553
106	0x3dee88f8	0.116472185
107	0x3e3f6573	0.18691044
108	0x3cda7bf1	0.026670428
109	0xbe55798e	-0.2084715
110	0xbd9b7b4e	-0.07591878
111	0x3de25f79	0.11053366
112	0x3d85c9b7	0.06532615
113	0x3d086797	0.033301916
114	0x3d4a2795	0.049354155
115	0xbea9c9d4	-0.33161795
116	0xbdae48b6	-0.08509962
117	0x3e1d4f78	0.15362346
118	0x3e7a2e80	0.24431801
119	0xbd528583	-0.051396858
120	0xbe86e41d	-0.26345912
121	0x3e7e53ea	0.24836698
122	0xbd82fb8c	-0.06395635
123	0xbd5c9ff7	-0.053863492
124	0x3e81a967	0.25324556
125	0x3e0bb712	0.13644055
126	0x3d4720b2	0.048615165
127	0xbe16f15b	-0.14740507
128	0xbd91239f	-0.07086872
129	0xbcf01cc9	-0.0293106
130	0x3e6eb851	0.23312499
131	0xbdd6b274	-0.10483256
132	0x3d8a7d01	0.06762124
133	0x3bb1d862	0.005427406
134	0xbdc626a1	-0.09675337
135	0x3de6cd70	0.11269653
136	0x3d8102b2	0.06299342
137	0x3d2cdfd0	0.04220563
138	0x3cd047f3	0.025424933
139	0xbbb097fa	-0.005389211
140	0xbe15ccb5	-0.14628871
141	0x3cd9e704	0.026599415
142	0xbe1eefe0	-0.15521193
143	0xbd1b7a64	-0.037958518
144	0x3d9a6a02	0.07539751
145	0x3d2a6c2f	0.04160708
146	0x3e8c45d4	0.27397025
147	0x3de703fa	0.11280055
148	0x3db997aa	0.09062131
149	0xbe79cef8	-0.24395359
150	0x3ab9cd49	0.001417556
151	0x3ddb1d5c	0.10698959
152	0xbdefe93a	-0.11714406
153	0xbe8aafe6	-0.27087325
154	0x3d4ccf6d	0.050002504
155	0x3e1be9ad	0.15225859
156	0xbe292375	-0.16517432
157	0xbe7f9fd9	-0.24963321
158	0xbe252491	-0.1612723
159	0x3d6a4cfe	0.05720233
160	0xbe11a6d5	-0.14223798
161	0x3e19946f	0.14998029
162	0xbd120cf3	-0.03565688
163	0x3c859106	0.016304504
164	0x3cd6599e	0.02616578
165	0x3e68ab3a	0.22721568
166	0xbd7c177f	-0.061545845
167	0x3d47964a	0.04872731
168	0xbd8b2eda	-0.067960456
169	0xbd9cdfff	-0.07659911
170	0xbd16c6af	-0.036810573
171	0x3e1c5ca8	0.1526972
172	0x3db7ac38	0.08968395
173	0x3d97a6cb	0.0740486
174	0x3e1c5062	0.15265039
175	0xbd0105ee	-0.031499796
176	0x3dea05b0	0.11426866
177	0xbce271bf	-0.027642129
178	0xbd6c042d	-0.05762117
179	0x3dc1f25b	0.09470054
180	0x3e797ae4	0.24363285
181	0x3c4ce21e	0.012505082
182	0x3c010437	0.00787454
183	0xbd34625f	-0.044039126
184	0xbe57dc4c	-0.2108013
185	0x3e2fcabc	0.17167181
186	0x3d078e35	0.033094604
187	0xbcd267fb	-0.025684347
188	0x3d9fb8aa	0.07798894
189	0xbd9ed85c	-0.07756111
190	0xbea44ee5	-0.32091442
191	0xbe1bf1dd	-0.15228982
192	0xbdd623e4	-0.10456064
193	0x3e429522	0.19002202
194	0xbd85c940	-0.06532526
195	0xbe01ec51	-0.12687804
196	0x3d6fdb93	0.05855901
197	0x3d0b508d	0.034012366
198	0x3e4bb319	0.19892539
199	0x3be3e3b9	0.006954637
200	0xbc17f5f0	-0.009274945
201	0x3dee1b35	0.11626283
202	0x3dae43fc	0.08509061
203	0x3cc48711	0.023990186
204	0x3d0f3062	0.03495825
205	0xbd121588	-0.035665065
206	0x3b24efc4	0.0025167326
207	0xbe5defd6	-0.21673521
208	0xbdba61bc	-0.091006726
209	0x3a46e63a	0.0007587407
210	0x3dfae54c	0.12250766
211	0x3e3e89a1	0.18607189
212	0x3c10ca2b	0.008837263
213	0x3db984fe	0.09058569
214	0x3d0fa3ec	0.035068437
215	0x3cb43304	0.021996982
216	0x3e62979b	0.22128145
217	0xbdefd71d	-0.117109515
218	0x3db82e20	0.08993173
219	0x3e853118	0.26014018
220	0x3d078113	0.03308208
221	0xbbbf667e	-0.0058410754
222	0x3c8b6059	0.017013716
223	0xbd93b2ed	-0.07211862
224	0x3e71d414	0.23616058
225	0x3e4571bd	0.19281669
226	0x3e041bc4	0.12901217
227	0x3e6b96ab	0.23006694
228	0x3d8ea9b0	0.06965959
229	0x3cab83f3	0.020936942
230	0x3cce2e86	0.025168668
231	0x3e0f55c1	0.13997556
232	0x3d0dbbcb	0.03460292
233	0xbe1b6c43	-0.15178017
234	0xbcd9e3d4	-0.026597895
235	0xbd240809	-0.040046725
236	0xba8e8cd7	-0.0010875714
237	0xbe3113a5	-0.1729265
238	0xbbbdc183	-0.0057908907
239	0x3e163742	0.14669517
240	0xbde1c17c	-0.11023232
241	0xbca9bb09	-0.020719068
242	0x3d755231	0.059892837
243	0xbdc305ca	-0.095225886
244	0x3ce75862	0.028240386
245	0x3df5b14c	0.11996707
246	0x3e41e87c	0.18936342
247	0x3dd6f9a9	0.10496838
248	0xbe40e226	-0.18836269
249	0x3dda9e14	0.10674682
250	0x3ddbbc78	0.10729307
251	0xbdafeda6	-0.0859025
252	0x3e081019	0.13287391
253	0x3e1b10b1	0.15143086
254	0x3d287c7b	0.04113434
255	0xbe4e39f4	-0.20139295

fc.bias f4 [36]
0	0x3e203755	0.15646107
1	0xbc988ae0	-0.018620908
2	0x3d07be41	0.033140425
3	0x3e2c36a2	0.16817716
4	0xbd98cf67	-0.07461434
5	0x3dcfff01	0.1015606
6	0x3e0b2f4d	0.13592263
7	0x3e30abe0	0.17253065
8	0xbe3f0bfb	-0.18656914
9	0x3e2e2beb	0.17008941
10	0x3e44b431	0.19209363
11	0x3e2e2d90	0.17009568
12	0x3e0397cb	0.12850873
13	0x3e39e778	0.18154705
14	0x3e5ef71a	0.2177395
15	0x3e4ebbf6	0.20188889
16	0x3e0fc807	0.14041148
17	0x3dce04d5	0.100595154
18	0xbc28e6bc	-0.010308918
19	0x3e1727bc	0.14761251
20	0xbdd6d3fa	-0.1048965
21	0xbc80f588	-0.015742078
22	0x3c39311e	0.011303214
23	0x3bbe151e	0.005800857
24	0x3d35eeb8	0.044417113
25	0x3df978f3	0.12181272
26	0x3dfd011b	0.123537265
27	0x3e0cff82	0.13769343
28	0xbda82331	-0.08209837
29	0x3cc18274	0.023621775
30	0x3b8bf851	0.004271545
31	0x3e3598ad	0.17734022
32	0xbd7f7c1f	-0.06237423
33	0x3e499d00	0.19688797
34	0x3cf83b6e	0.030301776
35	0x3e0208cf	0.12698673
