situation_analysis/best_models/model_window60_horizon2.pth (torch, 956906 bytes, 27 tensors)

adapt_adj f4 [60, 60]
000000 62 11 7a 3f f3 f0 bd bc 1c d2 bf bc 6d 14 c0 bc
       0.97682774 -0.023186183 -0.023415618 -0.02344724
000010 e2 77 bf bc 66 66 c1 bc 12 81 c1 bc 67 58 c4 bc
       -0.023372594 -0.023608398 -0.023621116 -0.023967935
000020 bd 60 c5 bc 5a a0 c5 bc 45 c6 c2 bc 88 3b c3 bc
       -0.02409398 -0.024124313 -0.023776183 -0.023832098
000030 ba 9e c3 bc 43 9d c5 bc d5 0b c7 bc db f7 c6 bc
       -0.023879398 -0.02412284 -0.024297634 -0.024288109
000040 53 74 c7 bc fa 98 c8 bc 74 76 c7 bc 7b 06 c8 bc
       -0.02434746 -0.024487007 -0.024348475 -0.024417153
000050 18 54 cb bc 13 ae cc bc 28 1a cd bc a5 bb cc bc
       -0.024820372 -0.024985349 -0.025036886 -0.02499182
000060 43 c4 cc bc 63 7e ce bc ab f3 d0 bc 06 94 d1 bc
       -0.024995929 -0.02520675 -0.025506815 -0.025583278
000070 3f cc cf bc 61 cf cd bc 65 99 cc bc c9 6f cd bc
       -0.025365947 -0.0251233 -0.024975488 -0.025077717
000080 d7 ab cf bc 04 70 d1 bc 4e 64 d1 bc 4f 90 d1 bc
       -0.025350494 -0.025566109 -0.025560524 -0.025581507
000090 bd f6 d1 bc 8d 89 d3 bc a2 93 d2 bc 6e 2f d4 bc
       -0.02563035 -0.025822425 -0.025705162 -0.025901522
0000a0 09 b9 d3 bc b3 ba d4 bc b0 45 d4 bc 9d 81 d3 bc
       -0.025845068 -0.025967931 -0.025912136 -0.02581864
0000b0 b4 61 d4 bc 6f 75 d2 bc 35 e8 d2 bc 72 f1 d1 bc
       -0.025925495 -0.025690762 -0.02574549 -0.025627825
0000c0 87 54 d2 bc a9 36 d2 bc f5 f5 d1 bc 90 1b d2 bc
       -0.025675071 -0.02566083 -0.025629977 -0.025647908
0000d0 dc 7e d1 bc dc cf d0 bc e1 62 d0 bc 42 ca cf bc
       -0.025573187 -0.02548974 -0.025437774 -0.025364999
0000e0 b9 1e d0 bc e3 ef cf bc 43 3b cd bc 87 d1 d8 bc
       -0.025405275 -0.025382942 -0.025052672 -0.026467098
0000f0 67 49 c0 bc 6b f0 79 3f 74 98 c3 bc ef a1 c3 bc
       -0.023472501 0.97632474 -0.023876406 -0.023880927
000100 13 bb c2 bc 7e ef c4 bc 0a c2 c4 bc e6 4a c7 bc
       -0.023770845 -0.02403998 -0.024018306 -0.024327707
000110 ae 22 c8 bc 52 ac c7 bc d5 f6 c4 bc 5f 01 c5 bc
       -0.024430599 -0.02437416 -0.02404348 -0.024048505
000120 61 3b c5 bc c9 c0 c7 bc 01 0f c9 bc 15 ca c8 bc
       -0.024076166 -0.02438392 -0.024543287 -0.024510423
000130 29 bf c8 bc 26 a8 c9 bc 43 e3 c8 bc 83 76 c8 bc
       -0.024505215 -0.024616312 -0.02452243 -0.024470573
000140 68 4b cb bc 1c 0b cd bc 2a 40 ce bc 49 1d cd bc
       -0.02481623 -0.025029711 -0.02517708 -0.025038378
000150 07 78 cd bc 0e af ce bc 14 d8 d0 bc 8a a1 d1 bc
       -0.025081648 -0.025229957 -0.02549366 -0.025589723
000160 48 ca cf bc e6 5d cd bc 89 6e cb bc 35 4c cd bc
       -0.02536501 -0.025069188 -0.02483298 -0.025060752
000170 d6 b6 cf bc 55 b6 d1 bc 5c 39 d1 bc 2c a4 d0 bc
       -0.025355738 -0.025599638 -0.025540046 -0.025468908
000180 0a e2 d0 bc 84 70 d2 bc bc a1 d1 bc 59 f8 d3 bc
       -0.025498409 -0.025688417 -0.025589816 -0.025875257
000190 22 05 d4 bc eb 5b d5 bc 3a cd d5 bc 3c 9f d4 bc
       -0.025881354 -0.026044806 -0.026098836 -0.025954835
0001a0 85 a8 d4 bc 91 fc d2 bc da 52 d3 bc 55 b6 d2 bc
       -0.025959263 -0.025755199 -0.025796343 -0.025721708
0001b0 3c c1 d2 bc 09 a8 d2 bc 96 66 d2 bc 8e aa d1 bc
       -0.025726907 -0.025714891 -0.025683682 -0.025594022
0001c0 12 fc d0 bc 03 1f d0 bc cb 59 d0 bc 77 b2 cf bc
       -0.025510821 -0.025405413 -0.025433442 -0.025353653
0001d0 0a f7 cf bc 7e 8c cf bc 85 72 cd bc 9a c4 d8 bc
       -0.025386352 -0.025335547 -0.025079021 -0.026460934
0001e0 37 54 ef bc 6d b5 ef bc 93 6e 78 3f ba 33 f1 bc
       -0.029214961 -0.029261315 0.9704372 -0.02944361
0001f0 31 9c ee bc 61 e0 ef bc 9b e0 ed bc 26 ba ef bc
       -0.029127212 -0.029281797 -0.029037764 -0.029263567
000200 13 6f f0 bc f5 a5 ef bc 03 67 eb bc 67 09 eb bc
       -0.02934984 -0.02925394 -0.028735643 -0.028691007
000210 8a 27 ec bc 64 08 ef bc 42 69 f0 bc 68 8b ef bc
       -0.028827447 -0.029178806 -0.029347066 -0.029241279
000220 29 7a ef bc 12 2d f0 bc 15 86 ed bc 6d 44 ee bc
       -0.029233055 -0.029318366 -0.0289946 -0.029085362
000230 35 2a f1 bc 3c ef f1 bc bf 20 f2 bc c1 6b f1 bc
       -0.029439071 -0.029533021 -0.02955663 -0.029470326
000240 e5 bd f1 bc de 14 f3 bc e4 11 f5 bc da a3 f6 bc
       -0.029509494 -0.029673036 -0.029915757 -0.030107427
000250 f8 b5 f4 bc 0b 55 f2 bc 8a 6f f0 bc 63 8d f1 bc
       -0.029871926 -0.029581567 -0.029350061 -0.029486364
000260 ad ef f3 bc 96 0f f5 bc 09 5f f3 bc df 4b f2 bc
       -0.029777372 -0.029914659 -0.029708402 -0.029577194
000270 4b 5a f1 bc 06 38 f3 bc dc 58 f2 bc 85 6c f3 bc
       -0.029462 -0.0296898 -0.029583387 -0.029714832
000280 3d ef f1 bc 1b fa f2 bc 50 50 f1 bc 5b 4b ef bc
       -0.029533023 -0.029660275 -0.029457241 -0.029210737
000290 8f b6 ee bc 1f 57 ec bc 4e 67 eb bc a6 94 ea bc
       -0.029139785 -0.028850136 -0.028735783 -0.028635334
0002a0 af 38 ea bc a5 46 e9 bc 8b 77 e9 bc 00 0a e9 bc
       -0.028591482 -0.028476069 -0.028499385 -0.028447151
0002b0 16 c1 e7 bc c8 e8 e6 bc db f5 e5 bc 51 f4 e4 bc
       -0.028290313 -0.02818717 -0.028071335 -0.02794853
0002c0 10 d2 e4 bc 94 6f e3 bc b2 aa df bc f6 4b ea bc
       -0.027932197 -0.027763166 -0.027303074 -0.028600674
0002d0 28 af f4 bc e8 66 f4 bc 42 f0 f4 bc 4b 6f 78 3f
       -0.029868677 -0.029834226 -0.02989972 0.9704482
0002e0 ac 9e ee bc 8c bc ef bc 1a 25 ed bc 96 9a ee bc
       -0.029128395 -0.02926471 -0.028948355 -0.029126447
0002f0 53 58 ee bc 22 75 ed bc 40 08 e9 bc ff e2 e8 bc
       -0.02909485 -0.028986517 -0.028446317 -0.028428553
000300 c4 29 e9 bc ab 0c eb bc 84 ec ec bc c9 de eb bc
       -0.028462298 -0.028692564 -0.028921373 -0.028792756
000310 a8 bc ec bc 67 8e ed bc 9c 2c ea bc 5f 48 ea bc
       -0.028898552 -0.028998567 -0.028585725 -0.028598962
000320 48 23 ed bc 1d 1e ee bc 11 62 ee bc f5 47 ee bc
       -0.028947487 -0.029067094 -0.029099496 -0.029087046
000330 32 7f ef bc 62 8a f0 bc 15 56 f2 bc 59 c9 f3 bc
       -0.029235456 -0.029362861 -0.029582063 -0.029759096
000340 80 e9 f1 bc 1e 1b f1 bc 76 1f ef bc c4 85 f0 bc
       -0.029530287 -0.029431876 -0.029189806 -0.02936066
000350 61 6d f2 bc 50 26 f3 bc 89 d2 f1 bc bf cc f0 bc
       -0.029593172 -0.029681355 -0.029519336 -0.029394506
000360 68 97 ef bc 99 7a f0 bc 71 5d f0 bc c6 4d f1 bc
       -0.029247 -0.029355334 -0.029341431 -0.02945603
000370 33 c7 f0 bc c3 50 f2 bc b7 89 f1 bc 1a f4 ef bc
       -0.02939186 -0.029579526 -0.029484613 -0.029291201
000380 ce fa ef bc 8d 24 ed bc 20 e0 eb bc 00 f1 ea bc
       -0.029294398 -0.028948093 -0.028793395 -0.02867937
000390 e4 85 ea bc b2 eb e9 bc aa 0b ea bc a3 19 e9 bc
       -0.028628297 -0.028554771 -0.028570015 -0.028454607
0003a0 44 66 e7 bc 71 0e e7 bc ac 7e e6 bc 43 3a e5 bc
       -0.028247006 -0.028205128 -0.028136574 -0.027981883
0003b0 77 2b e5 bc eb ee e2 bc 91 6a e0 bc 58 37 eb bc
       -0.027974827 -0.027701816 -0.027394565 -0.028712913
0003c0 f6 f7 ba bc 51 fe bb bc 74 83 bd bc a7 db bd bc
       -0.022823315 -0.022948416 -0.02313397 -0.023176027
0003d0 53 18 7a 3f 07 80 be bc 0b 52 be bc 5f 17 c1 bc
       0.97693366 -0.023254408 -0.02323248 -0.023570715
0003e0 23 28 c2 bc db 82 c2 bc 3f 51 c0 bc 4e 4a c0 bc
       -0.02370078 -0.023744037 -0.023476241 -0.023472931
0003f0 83 8b c0 bc aa d8 c2 bc 92 8c c4 bc 02 b2 c3 bc
       -0.023504024 -0.023784954 -0.02399281 -0.023888592

gc1.fc.weight f4 [128, 36]
000000 5d 4c c0 bd 86 fc 22 bd 50 38 f0 3d 5d 7b ca bd
       -0.09389565 -0.039791606 0.11729491 -0.09886811
000010 be 99 aa bd f2 02 14 3e 81 30 a9 bd c3 af f8 bd
       -0.08330105 0.14454249 -0.082612045 -0.12142899
000020 3b 8d 7a 3d fd 82 04 3e 2a 07 bc 3d c9 c5 90 bb
       0.061169844 0.12940593 0.09181054 -0.004418109
000030 8d 87 b5 39 35 82 01 be d6 c4 34 3e f4 7a bb 3d
       0.00034624003 -0.12647326 0.17653212 0.09154311
000040 75 62 50 3b d6 52 09 be 1e e1 7f bc 30 9e ad 3d
       0.0031796966 -0.13410506 -0.015617637 0.084774375
000050 f0 c3 93 3b e8 12 c9 bd e3 0f 05 be 81 bd d9 bc
       0.0045094416 -0.09818059 -0.12994342 -0.02657962
000060 2f d4 b4 3d af 92 22 3e fe 06 41 3e 21 1f 0f bd
       0.08829533 0.15876268 0.18850324 -0.034941796
000070 ba be 9f 3d ea 03 1d 3e 9a 03 9c 3d 44 88 0c be
       0.0780005 0.15333524 0.076178744 -0.13723856
000080 57 fe 10 3d 7f 48 38 3e ac 85 03 be 32 22 98 bc
       0.035398807 0.17996405 -0.1284396 -0.018570993
000090 0f 5b 45 3d 01 10 4d 3c af a3 26 be 50 26 d1 bd
       0.048182543 0.012516023 -0.16273378 -0.10212386
0000a0 01 f6 87 3d 5a 59 3e be 12 27 79 3d 48 a0 51 3d
       0.066387184 -0.18588772 0.060828276 0.051178247
0000b0 44 48 ea 3d b6 8c c7 bd 7c 3a 63 3d e8 e1 a4 bd
       0.11439565 -0.09743635 0.055475697 -0.08050901
0000c0 c0 ab b3 3d dd 66 79 3d 27 24 b0 3d bf f6 c1 bd
       0.08772993 0.060889114 0.086006455 -0.09470891
0000d0 ae d7 8a bd a7 60 79 bd c9 19 05 3e ba 6f 80 bd
       -0.06779419 -0.06088319 0.12998118 -0.0627131
0000e0 64 6b 9a 3d f8 bb ca 3d 63 9b da 3d 68 9b a4 3d
       0.075400144 0.098991334 0.10674169 0.08037454
0000f0 92 e0 83 bc 19 2e 8e bd 53 e5 0a 3e 6f 07 0b 3e
       -0.016098294 -0.06942386 0.13564043 0.13577054
000100 bf 5c 99 3d 98 d2 53 bd 27 85 e2 3d c8 88 13 bb
       0.07488393 -0.05171451 0.11060553 -0.0022511948
000110 4a 7d 62 bd d1 10 29 be 87 2c b5 3b 2f b2 50 3c
       -0.055295266 -0.16510321 0.0055289897 0.012737795
000120 0d 13 65 bd 87 df 3d ba d1 8c 02 3e ee 94 26 3e
       -0.05592637 -0.0007243086 0.1274903 0.1626775
000130 69 47 32 be 0b cd 97 3d e0 b2 26 3e 08 bf f3 bd
       -0.17410053 0.07412156 0.16279173 -0.11901671
000140 4f 49 25 bd ba f4 ad 3d bf f7 18 3e ed 0b 3c 3d
       -0.040353116 0.084939435 0.14938258 0.04590981
000150 e6 26 16 3e 0c c9 68 3d d7 09 34 be 18 4d da bd
       0.14663276 0.05683236 -0.17581879 -0.10659236
000160 bf 28 56 3d ce a4 65 bb e5 ee cb bc f8 84 6e bd
       0.052284952 -0.0035040858 -0.024894187 -0.058232278
000170 aa 59 24 be 08 b6 1a be b0 ea 4a 3d 4e 43 03 bd
       -0.16049829 -0.15108502 0.04954022 -0.03204661
000180 c5 88 ca 3d 1b 8e 23 bd 06 0c 91 3d 7f 14 1c be
       0.09889368 -0.039930444 0.070823714 -0.15242194
000190 e3 26 d3 3c dc f4 ce 3d e1 59 dd bd e6 bc b3 bd
       0.025775379 0.10105297 -0.10808159 -0.08776264
0001a0 24 f7 a6 3d bb 35 8b 3d 2c a7 66 bb b2 7b 1d be
       0.08152607 0.06797358 -0.0035194857 -0.15379217
0001b0 d2 53 b3 3d a0 85 00 be 8d 34 7a bd 13 59 55 bd
       0.08756222 -0.12550974 -0.061085273 -0.0520869
0001c0 d9 8a 6a 3c 7c 49 cc bd 7e bb 27 3e 69 b4 23 3c
       0.01431533 -0.099749535 0.16380116 0.009991744
0001d0 a4 74 db bd f5 1e 0f bd 29 d4 b8 3d 90 ee 21 be
       -0.10715607 -0.034941632 0.09024841 -0.1581366
0001e0 5e bd 45 bd 87 18 f2 3d a2 1b 91 3d f1 ca d0 bd
       -0.048276298 0.118210845 0.07085349 -0.10194958
0001f0 b5 69 e1 bd de 2b 93 3d 48 89 b3 3d 0e 69 4c 3e
       -0.1100649 0.071861014 0.08766419 0.1996195
000200 b4 20 14 be 0a 45 06 3d 3d 7a e2 bd 35 49 25 be
       -0.144656 0.032780685 -0.11058471 -0.16141208
000210 99 e9 cf 3d b3 73 ce bd d7 84 0b 3e e5 ee 85 3c
       0.10151977 -0.100806616 0.13624893 0.016349265
000220 9a 17 83 bd 20 0b 06 be 0c bb fc 3d 86 12 d8 3c
       -0.06400986 -0.13090181 0.12340364 0.02637602
000230 42 ef f9 3b 06 80 d1 bd 58 9a e2 3d a7 fb 29 3e
       0.0076273987 -0.10229497 0.11064595 0.16599904
000240 06 61 15 3e b2 14 2d 3e 11 59 4e bd 06 2d d6 3d
       0.14587793 0.16902426 -0.05037791 0.10457806
000250 c6 52 ff 3c 7f cc e8 3d ba 80 12 3e 43 54 c5 3d
       0.0311674 0.113671295 0.14306918 0.09635212
000260 61 08 f5 bc 8a 9b 2b 3e 6f 66 a4 bd 1a fb c1 bd
       -0.029911222 0.16758552 -0.0802735 -0.09471722
000270 2e f3 0f 3e da 32 dd bd c6 eb c0 3d 31 b0 5c 3d
       0.1405761 -0.10800715 0.0941997 0.053878967
000280 98 6c 1a 3e bc 5b 01 be 96 52 cf 3d 51 bf 92 3c
       0.15080488 -0.1263265 0.10123174 0.017913492
000290 d3 7e a0 bd 82 9d d0 bd 37 f3 1e 3d 4e 3b 2c 3e
       -0.0783669 -0.10186292 0.038806166 0.16819498
0002a0 a5 ac 3b 3d 80 48 29 3e 01 e5 02 bb e1 63 36 3d
       0.045818944 0.16531563 -0.0019972923 0.044528846
0002b0 59 32 96 bd d1 97 ec bd d1 c4 c4 3d 11 da 1b 3b
       -0.07333822 -0.11552394 0.09607852 0.00237811
0002c0 7e 93 b9 3d 2e c8 46 bd 4f 3b 12 be dc 76 30 3c
       0.09061335 -0.04853075 -0.14280437 0.010770526
0002d0 bf 5a d4 bd ad ba ec bd 6e de c4 bd be fe b4 3d
       -0.10368871 -0.11559043 -0.096127376 0.08837651
0002e0 59 c8 bf bd 68 68 0b be 08 89 a1 bc 67 6f 8b bd
       -0.09364385 -0.13614047 -0.019718662 -0.06808358
0002f0 4b 4c 88 3d 53 b5 87 bc ba 96 f0 3d 4e 5e e1 3d
       0.06655177 -0.016565954 0.11747499 0.11004315
000300 31 a0 56 3d f6 d3 d8 3d cd b2 26 3e 9d 86 70 3d
       0.052398864 0.10587303 0.16279145 0.058722127
000310 0a 4e d8 3b 44 f6 2e 3d 29 76 77 3d b9 68 e1 bd
       0.0066011 0.042715326 0.06041542 -0.110063024
000320 9d e9 b6 3d 40 04 f1 bd 9e 7b 1d 3d d8 f3 15 3e
       0.08931277 -0.11768389 0.03844797 0.146438
000330 0b f8 42 bd d1 b5 96 3d ba 57 f6 bc 0e 21 30 be
       -0.047599833 0.073588975 -0.030071128 -0.1720011
000340 98 41 b2 bd 9c f7 e8 3d e1 c7 a6 bd 68 13 26 3e
       -0.08703917 0.11375353 -0.081435926 0.1621834
000350 9f a4 b5 3b 2d a8 c5 3d 41 cb c3 3d c1 79 0a 3e
       0.005543306 0.096512176 0.09560252 0.13523008
000360 1f 00 b2 3d 3c 88 81 bd 5a ef 05 3c 29 f8 70 bd
       0.08691429 -0.06324813 0.008174742 -0.058830414
000370 7e 8e cf 3d cf 16 ba ba 7a ba df bd ec 7c 33 3d
       0.101346 -0.0014197471 -0.109242395 0.043820307
000380 77 3a 16 bd 93 5f bf 3d 81 4c ec 3d 2e d0 0a 3e
       -0.03667685 0.09344401 0.115380295 0.13555977
000390 5a f2 be bd a3 4b e9 bd fa c0 b2 3d 8a da 24 3e
       -0.09323569 -0.1139138 0.087282136 0.16098991
0003a0 16 44 22 be b3 83 2c be 2b 2d 9a 3d b9 1f 35 be
       -0.15846285 -0.16847114 0.07528146 -0.17687882
0003b0 d0 f2 94 bc d3 48 80 bd 01 76 74 3d e0 88 83 3d
       -0.018182188 -0.0626389 0.05968285 0.06422591
0003c0 b6 2b 77 3d ab 8d 00 be a6 b7 17 bd fa 46 8d bd
       0.06034442 -0.12554042 -0.037040375 -0.06898303
0003d0 fa 7a f1 3d 62 be 87 bd b4 40 0c 3d 3d 9f 8c 3d
       0.11791034 -0.066281095 0.034241393 0.0686631
0003e0 e3 64 2e 3d 64 77 3d be fb 6e 13 3d f4 ab 89 bd
       0.04257668 -0.18502575 0.03599451 -0.067222506
0003f0 33 25 84 bd 20 da 0c be 7b 0a 2f 3e ee d6 a5 3c
       -0.06452408 -0.13755083 0.17093842 0.020244088

gc1.fc.bias f4 [128]
000000 d9 70 02 3e ba 7a 08 be 16 28 e9 3d 86 6d bf 3d
       0.1273836 -0.13328066 0.11384599 0.09347062
000010 ae f9 c1 3c 4d ee 24 3d 59 a4 94 bd 4a f8 06 bd
       0.023678627 0.040266324 -0.07257909 -0.03295163
000020 86 bc 9b be 2c ca 77 be 74 6b 2a be 2c 4c a5 3c
       -0.3041727 -0.24198216 -0.16642553 0.020177923
000030 08 b9 61 3c ce c8 96 3d 82 a6 46 be fc 87 b5 bd
       0.013777025 0.07362519 -0.19399455 -0.088638276
000040 76 86 09 be 2a c4 95 be be ac 2a be e8 55 24 be
       -0.13430199 -0.29251224 -0.16667458 -0.16048396
000050 f5 da 1b 3e a3 f3 ce bc 02 b8 75 3d 02 97 b4 3d
       0.15220244 -0.02526266 0.059989937 0.08817865
000060 69 fa 02 bc 0c e2 c1 3c e3 a4 94 bd 58 15 91 3d
       -0.007994273 0.023667358 -0.07258012 0.07084149
000070 5a d7 30 bd 5b 55 31 be f2 7a cd bb 14 3e 98 bb
       -0.043174125 -0.17317717 -0.0062707597 -0.004646072
000080 01 f0 d7 bd 17 9c bf 3c 5f b8 1b 3d 3b 9a cc bd
       -0.10543824 0.02338986 0.038017627 -0.099903546
000090 80 9a 08 bb 52 8b 4f 3d a1 a0 00 be 52 cb 0c be
       -0.0020844042 0.050669976 -0.12561275 -0.13749436
0000a0 15 fe a1 bc 9e 9d 80 3d 37 2a 4d 3d 47 96 98 be
       -0.019774476 0.06280063 0.050089087 -0.29802153
0000b0 58 9d e9 3d 60 f9 f0 bc 33 95 df 3d b1 20 4d be
       0.11406964 -0.029415786 0.10917129 -0.20032002
0000c0 53 c4 fd 3d 55 39 b2 3c 26 82 c0 bd be df a9 3d
       0.123909615 0.021755854 -0.09399824 0.082946286
0000d0 2c 8c d1 3d f8 b5 9c 3c 1d 17 10 bd 00 14 ce bc
       0.10231814 0.019129738 -0.035178293 -0.025156021
0000e0 be c6 20 bc f8 fd b0 bd 40 ba 6a 3b 1b 3b c1 bd
       -0.009813009 -0.08642191 0.003581658 -0.094351016
0000f0 53 48 86 3d 0d 04 0f 3d c8 d7 ee bd 6c e6 fc 3d
       0.065567635 0.034915973 -0.11662251 0.12348637
000100 b7 5e ff bd 0c 1f 28 be d3 09 06 bd 94 ff dd 3d
       -0.12469237 -0.16418093 -0.032724213 0.10839763
000110 13 12 e8 3c 9f 70 fe 3d ef 08 5c be 76 85 5d 3b
       0.028328931 0.124238245 -0.21487783 0.0033801473
000120 45 92 08 3e 80 e7 87 3d f0 a0 3c be 25 cf da 3c
       0.13337047 0.06635952 -0.18420768 0.026710102
000130 a4 cc 27 be 14 8f 2e 3e 8d 76 04 3e d5 c3 47 3d
       -0.16386658 0.17046767 0.12935849 0.048770744
000140 3e 57 8a 3d f5 14 73 3d e9 67 46 bc ce d0 63 3d
       0.067549214 0.059346158 -0.012109735 0.055619054
000150 f3 61 ec bd 18 18 64 be fd 77 8e bd fd f7 d6 bd
       -0.1154212 -0.22274816 -0.0695648 -0.10496519
000160 e1 aa 69 3c 7a e9 84 be db 4e 5d be 19 87 30 3d
       0.014261932 -0.25959378 -0.21612112 0.04309759
000170 b5 6b 53 bd 97 da 8d 3d a3 85 af 3d fa 34 a7 3d
       -0.05161639 0.06926458 0.08570411 0.08164401
000180 c9 9d b7 bd 09 26 ce bd 5b 84 d7 3d 91 00 ab 3d
       -0.08965642 -0.100658484 0.10523292 0.083497174
000190 b0 88 59 be 62 e8 88 3d b8 6f 6a be c5 88 18 3e
       -0.21243548 0.066849485 -0.2289418 0.14895923
0001a0 c3 6f 4e 3c 06 5e ae 3c 4e b3 1d be 3c 6c b9 bd
       0.012599888 0.021285068 -0.1540043 -0.09053847
0001b0 1d a4 f8 bc 6c 54 c5 bd a6 5e c5 bc a0 d5 61 3d
       -0.030351693 -0.09635243 -0.024092983 0.05513537
0001c0 a2 d3 be bc 12 85 10 3e 25 de bb 3d 9a ef b4 bd
       -0.023294274 0.14113262 0.0917323 -0.08834763
0001d0 e0 ad 10 bd a0 d4 9b 3d 3d c3 df bc 3a ec 16 be
       -0.03532207 0.076089144 -0.027314777 -0.14738551
0001e0 3f ed 38 be c7 cb e1 3b be 99 ea bd be a8 4f be
       -0.18059252 0.006890747 -0.11455105 -0.20279214
0001f0 88 d2 00 bd 1b 7b 63 3d 3a d6 90 bc ac 2e 24 3e
       -0.03145078 0.055537324 -0.017680276 0.16033429

gc2.fc.weight f4 [128, 128]
000000 a7 8b 0c be 5c 9c 9e 3d 17 c3 0d 3c 16 c8 b8 bc
       -0.13725148 0.07744667 0.00865247 -0.022556346
000010 48 dd 90 3c ec 1b 38 3d 93 b1 25 3d d4 e0 61 bd
       0.01768364 0.044948503 0.04045255 -0.055146053
000020 aa cc 94 bc a2 25 d8 3d 99 2e 80 3d d5 83 42 3d
       -0.018163998 0.10554053 0.06258888 0.047489006
000030 a4 94 36 3d 36 64 4b bd 9a 61 6b bc 5a ca 3d 3c
       0.04457535 -0.049656115 -0.014366532 0.011583889
000040 1e cb b9 bc 45 44 15 3d ee 3f 73 bd c6 2d 46 bd
       -0.022679862 0.03644206 -0.05938714 -0.048383497
000050 56 ae e0 bb c5 c0 b5 bd bf fb a5 bd 2f 9e 06 bc
       -0.00685672 -0.088746585 -0.081046574 -0.008216425
000060 1a be f1 3b 61 e5 8d 3d 08 92 93 bb 57 49 b9 3c
       0.007377398 0.06928516 -0.0045034923 0.022617979
000070 f0 04 89 bd 85 20 39 bc 5e 67 98 3d 4c b6 1f bd
       -0.06690395 -0.011299257 0.07441591 -0.03899221
000080 fc 75 ef ba e6 1b 84 3c 2f 3b 36 3c 14 f3 0d 3d
       -0.0018269415 0.016126584 0.011122509 0.034655645
000090 1b 23 8c bd 09 b7 98 bc 1d 7e 7c 3c 4b 38 ce 3b
       -0.06842633 -0.018641965 0.015410927 0.0062933317
0000a0 3c cc 50 bc 4a 43 4e bd fd 47 4d 3d 95 7a 74 3d
       -0.012744006 -0.05035714 0.05011748 0.059687216
0000b0 2b c7 5c bd ad af 67 bd ce 4d a8 3d 37 67 fe 3c
       -0.05390088 -0.05656402 0.08217965 0.031055076
0000c0 5f e7 94 3d b7 7f ed bd 4e c7 b7 3d b8 07 9e bd
       0.07270693 -0.11596625 0.08973561 -0.07716316
0000d0 01 aa e5 bc c3 a4 33 bd 0f 62 a7 3d 50 3c 70 3c
       -0.028035166 -0.0438583 0.08173 0.014662817
0000e0 f5 f6 a1 bd 0a be b1 3d 47 59 81 bd f4 03 89 bd
       -0.079084314 0.08678825 -0.063158564 -0.06690207
0000f0 b9 9a 92 3d 56 0d 8b bb 60 aa 8a 3d aa 18 69 bd
       0.07158417 -0.004243533 0.06770778 -0.056908287
000100 dd 9a 15 3d fe 01 23 bb 8f cb e1 bd f3 83 50 3d
       0.036524642 -0.0024873014 -0.11025154 0.050907087
000110 e6 de c0 38 8f 10 50 3d 37 98 69 3d 65 79 6c bd
       9.1967915e-05 0.05079704 0.05702993 -0.05773296
000120 26 6f fd bc d8 7d b9 3d e1 30 4d bd 5e fa 95 3c
       -0.030936789 0.09057206 -0.050095443 0.018307861
000130 e9 f3 3b 3d 4c 3b c5 bd 9a a0 ec bd c4 c4 38 3d
       0.045886908 -0.096304506 -0.1155407 0.045109525
000140 8f 8d 32 3d 5e 50 d4 3d fd d0 0f bd c7 f9 e8 3c
       0.043592032 0.10366891 -0.035111416 0.028439416
000150 5a df 6c 3c 43 d5 24 3d aa f4 e3 3c e8 67 36 bd
       0.014457548 0.040242445 0.027826626 -0.044532686
000160 00 27 81 bd f0 00 16 be 40 1d 76 3d 38 e5 fe 3c
       -0.06306267 -0.14648795 0.06008649 0.03111516
000170 fe 09 4d 3d 67 0f 49 3b a8 0c 41 3d 8e 39 85 bc
       0.050058357 0.0030679347 0.04713121 -0.016262796
000180 b7 37 af bd 5d 36 a6 bc de ed 26 be 02 1b 3d bd
       -0.08555549 -0.020289594 -0.16301677 -0.046168335
000190 dd 11 80 3c f4 93 60 bd e8 c0 d6 3c 4c e9 41 3d
       0.015633518 -0.0548286 0.026215032 0.04734163
0001a0 51 d2 8f bc 5b 07 04 be d5 92 0b 3b 4b 3f f9 bc
       -0.017556341 -0.12893431 0.0021297236 -0.030425688
0001b0 bb 3b 35 bd fe f9 71 bd fc 5b c6 bc 93 de ad 3d
       -0.044246417 -0.0590763 -0.024213783 0.08489718
0001c0 a8 64 20 3d b8 5f 3f 3d ce 84 48 bb f5 77 0a 3c
       0.039158493 0.046722144 -0.0030596736 0.008451452
0001d0 9f f3 3e bd 9a b8 4b 3d ca 11 e5 bb 70 2a 3e 3c
       -0.046619054 0.049736597 -0.006990646 0.011606798
0001e0 99 cd 23 3c 1b 14 fc 3c c5 23 91 3c 1a 1d d8 3c
       0.009997749 0.030771306 0.017717252 0.026381064
0001f0 ad 1c 28 bd 5b 49 db bd 7e 52 25 bd d0 7a a4 3c
       -0.041042972 -0.10707351 -0.040361874 0.020078093
000200 f4 6a 8a bd 2f 74 92 3d 4a aa 39 bc 27 49 09 bb
       -0.06758681 0.071510665 -0.011332104 -0.0020948143
000210 66 8c 8b bd 7c a8 44 3d d7 cc 92 3d 45 ce ac bd
       -0.06813888 0.04801224 0.07167976 -0.0843778
000220 1e 62 15 bd 11 ea 88 bd 6d 71 3e bd 96 62 84 bd
       -0.036470525 -0.066852696 -0.04649489 -0.06464116
000230 16 a8 1d bd 1b dd 41 3d a0 22 7c bd f1 09 35 3c
       -0.038490377 0.047330003 -0.06155646 0.0110497335
000240 4e 97 1c bd 68 db 22 3a 8e 44 2e 3d 5e cb 3b bd
       -0.038230233 0.00062125036 0.042545848 -0.045848243
000250 6f 17 5c bd e6 f4 82 bd b2 b6 df ba 02 66 9f bd
       -0.053733286 -0.06394367 -0.0017067997 -0.07783128
000260 d3 a7 45 bd 5f c0 d0 3d 26 3a bf 3c 52 48 a5 3d
       -0.048255753 0.10192942 0.023343157 0.08070435
000270 c2 e7 1f 3d 17 0f 72 3d 5e bd bf 3c f6 95 f2 38
       0.03903938 0.059096422 0.023405727 0.000115673916
000280 24 8c 2b 3c 72 6a ef 3c cd d5 18 bc e0 42 85 3d
       0.010470424 0.029225562 -0.009328318 0.06506896
000290 3c 64 31 bd 94 0e 9f 3c 95 7f 14 3d 05 81 bd 3a
       -0.04330848 0.019416131 0.036254484 0.0014458006
0002a0 07 72 c6 bd 7a d4 bf bd 59 3d 22 bd c4 94 89 bc
       -0.09689718 -0.093666986 -0.039609287 -0.01679457
0002b0 1e a5 7d ba bc 36 1f 3d 35 a7 b5 bd 24 77 09 bb
       -0.00096757885 0.03887056 -0.08869783 -0.0020975554
0002c0 90 48 ab 3d bc 41 2b bc 48 1e c7 3c 6d 89 af bd
       0.083634496 -0.010452684 0.024306431 -0.08571134
0002d0 c3 15 ca bd 3a db ab bd 90 da b5 3d 3c b8 4d 3d
       -0.09867432 -0.083914235 0.08879578 0.050224528
0002e0 b6 55 c4 bc 63 79 ae 3d ef 48 78 bc f1 ae 2f bd
       -0.023966651 0.085192464 -0.0151541075 -0.042891447
0002f0 1a 27 5b bc 7c e3 26 bd 7a ab fc bc 27 b1 90 bd
       -0.013376022 -0.04074429 -0.030843485 -0.07065039
000300 9d 6b 5f 3d 4e 88 9a 3d 4a 1a 9d bd 50 6d 81 3c
       0.054545987 0.07545529 -0.0767103 0.015799195
000310 ef 08 fe 3c b1 bc 3d bd 51 a9 68 bd e4 88 52 bd
       0.03101012 -0.04632253 -0.056802098 -0.05140008
000320 ab 24 81 bd 47 1b c2 3a 09 c5 01 3c 7a 49 a0 bc
       -0.06305822 0.0014809155 0.007920512 -0.019566286
000330 39 c4 d3 bd 32 de bd 3a a1 02 fd bc 1e 97 03 bc
       -0.10340161 0.0014485775 -0.030885043 -0.008031635
000340 0c bd fa bc 95 12 98 3d 77 b6 9f 3d 2a 9d 6f bd
       -0.030607723 0.07425419 0.07798474 -0.058499493
000350 f1 d8 0c 3d 8c be 36 bd e9 43 c7 3d 21 28 b2 bd
       0.03438658 -0.044615313 0.0972975 -0.0869906
000360 be 31 91 3b 46 8c ff 3b c5 5f ba bd e4 46 14 be
       0.0044309786 0.0077987043 -0.09100298 -0.14480168
000370 ba 03 68 3c 62 05 18 3d 07 57 fc bb 6a de 5d 3d
       0.014161045 0.03711451 -0.007700804 0.05416719
000380 5c ee 79 3d 8f 17 3f 3d c8 6d ce bd d3 52 df bd
       0.061018333 0.046653327 -0.10079533 -0.10904469
000390 98 3e 2e bc 4f 86 00 3d 36 cb c0 3a 5f 2c 1c 3d
       -0.010635041 0.031378087 0.0014708999 0.038128253
0003a0 4c 55 a1 3d 7d 71 e7 3c 0d 11 26 bd 4b 60 8d bd
       0.07877597 0.028252358 -0.040543605 -0.06903132
0003b0 da 9e 6c bd 94 65 e1 3b 73 13 fd 3c db 7f c0 bd
       -0.05776868 0.006878564 0.030893063 -0.093993865
0003c0 af dd 95 bd 7f 5d fb bb 06 c8 89 bd f0 92 98 bb
       -0.073176734 -0.0076710577 -0.067276046 -0.004656188
0003d0 d2 eb b9 bd ad 7d e0 3c fd 47 3a bd 4f 09 84 bc
       -0.09078182 0.027403677 -0.04547881 -0.01611772
0003e0 bf 14 5e bd 75 1e 89 bd ac 8e 2d 3d 95 9c 88 bd
       -0.054219004 -0.06695262 0.04237239 -0.06670491
0003f0 67 3e 1f bc d0 fb 8c bc c5 26 e8 3c e6 9e d8 bd
       -0.009719468 -0.017209917 0.0283388 -0.105771825

gc2.fc.bias f4 [128]
000000 c1 c5 f6 bc 4b 28 97 bd a1 da 1f ba 44 18 ab bd
       -0.030123593 -0.07380732 -0.0006097947 -0.08354238
000010 4c d9 ea bd 10 cc 45 bd c5 9d 14 be dd c4 e9 bd
       -0.11467227 -0.048290312 -0.1451331 -0.11414502
000020 79 dc 5d bd 98 e1 35 bd d8 b3 c1 bb 18 c9 54 bc
       -0.054165337 -0.044404596 -0.0059113316 -0.012987398
000030 48 fc 67 3d c4 65 24 3d 84 2e 45 bd 2b 1d f7 bc
       0.05663708 0.040136114 -0.048140064 -0.030165276
000040 75 19 00 bd cf 71 a0 bc 75 10 e1 bd 45 fc c3 bd
       -0.031274278 -0.019585518 -0.10989467 -0.09569601
000050 cf ab 83 3c e5 1a b6 3b b1 e2 89 bd 6d 23 da bd
       0.016073136 0.0055574053 -0.06732691 -0.10651288
000060 cc 4b 14 bd ec 02 f6 bc 0a 1b 8a 3c 37 4d 31 3d
       -0.036205098 -0.03003069 0.016858596 0.04328653
000070 b0 03 75 bc a5 ce 18 bd c8 be 32 bb 5a f1 78 bd
       -0.014954492 -0.037306447 -0.002727436 -0.060777046
000080 64 50 f1 bd ca af b3 3c cd 8d ad 3c c3 80 1f bd
       -0.117829114 0.021934409 0.02118578 -0.038941156
000090 f2 53 8a bc c3 f3 ed 3c e0 c0 0d 3c 6e 34 25 3c
       -0.016885731 0.029046899 0.008651942 0.010083301
0000a0 c5 a7 82 bd 69 0f 9e bd da 89 3a 3d 01 26 23 be
       -0.06379656 -0.07717783 0.04554162 -0.15932466
0000b0 7d bf f3 ba de d0 45 bc 23 18 08 be e9 ab 39 bd
       -0.0018596497 -0.012073724 -0.13290457 -0.045329962
0000c0 28 4d dc bd 3d 95 a2 bd 21 86 94 3d 64 36 8f 3c
       -0.10756904 -0.07938621 0.072521456 0.01748199
0000d0 4d 5b 74 bd cc 8f 89 bd 77 b5 9f bb 17 0b 83 bd
       -0.059657384 -0.0671688 -0.004873927 -0.063985996
0000e0 b8 f5 4f 3d a3 85 11 bd 9c 37 a1 bd c0 63 1f bc
       0.050771445 -0.035527837 -0.07871935 -0.009728372
0000f0 f3 cd 83 3c eb 7a 9f bd 48 22 19 bd a4 2c 32 bd
       0.016089415 -0.077871166 -0.03738621 -0.043499604
000100 16 1c fc bd c2 c0 21 be 01 ed 9b bc eb 78 31 3b
       -0.123100445 -0.15796188 -0.01903391 0.002708013
000110 c3 c1 25 3d 92 15 f1 bd 4c d0 cd bc d6 5c af bd
       0.04046799 -0.11771692 -0.025123738 -0.08562629
000120 c0 59 56 ba 59 af 1e bd db 9f 1e be 24 ec c3 bd
       -0.0008176826 -0.038741443 -0.15490668 -0.095665246
000130 5c eb b3 bb 99 3e 8b 3d 76 46 16 bd 97 09 79 bd
       -0.0054907035 0.06799049 -0.03668829 -0.06080016
000140 e2 be a7 bc dd 7c b2 bd 58 51 6e be c1 cf d9 bd
       -0.020476762 -0.08715222 -0.23273218 -0.10635329
000150 c1 3d 9c 3d ec 81 71 bd bd 6b bd bd 49 fa 1f be
       0.07628966 -0.058961794 -0.09249065 -0.1562282
000160 08 19 f8 bc 7f 2d 1b bd b6 5b e9 3a 6b e8 79 bd
       -0.030285373 -0.037885185 0.0017803821 -0.061012667
000170 2c 79 d0 bd 1a 72 83 bd 67 65 43 be 36 6f 74 3d
       -0.10179362 -0.064182475 -0.1908165 0.05967637
000180 b0 fe 84 3d 7a a0 12 3d ac fe 8a bd a3 3f 81 3c
       0.0649389 0.035797574 -0.06786856 0.015777415
000190 d3 60 15 3d 3d ac 09 bd e3 65 33 be 37 18 26 bd
       0.036469292 -0.033611525 -0.17519335 -0.040550437
0001a0 a4 58 0b bc 21 c4 18 bc b0 22 c3 bd 5c ee 62 bc
       -0.00850502 -0.0093241045 -0.095281005 -0.013850775
0001b0 a6 05 c2 bc e3 f2 b1 3d 9c 5c 64 bd c7 d2 62 bd
       -0.023684334 0.08688905 -0.05575238 -0.055376794
0001c0 b0 49 10 3c ba 83 16 be 3b 21 da bc b1 bf 10 3c
       0.008806631 -0.14698687 -0.026627174 0.008834765
0001d0 b4 08 63 3d b6 18 e4 3c 93 c6 63 bc 6a 73 fe bd
       0.05542822 0.027843814 -0.013902324 -0.12424357
0001e0 1b 47 88 bd 51 60 29 3d 4e 71 99 bd 2e 4e 43 3d
       -0.06654187 0.04135162 -0.07492314 0.04768198
0001f0 01 e6 8c bd 65 06 3d 3d d4 66 30 bc e7 2a 49 be
       -0.06879807 0.046148676 -0.010766704 -0.19645272

temporal_conv.weight f4 [128, 128, 3]
000000 6d f5 e5 3b 7c 77 b1 3c 01 3c c2 bc 2f 45 12 bb
       0.0070177824 0.02166342 -0.023710253 -0.0022319069
000010 da 8b 95 3d c1 2d f4 bb 60 d6 e7 3b 93 e0 ef 3c
       0.07302065 -0.0074517434 0.007075116 0.02928189
000020 bd 57 c7 3c 3b 4f 43 bb fa cd a7 3b 0e 46 38 3d
       0.024333829 -0.0029801864 0.00512099 0.044988684
000030 2a d1 06 bc 47 c4 d9 bd 61 e9 ad 3c c7 75 e0 bd
       -0.00822858 -0.1063314 0.021229448 -0.10959964
000040 ff 64 60 bd ed d1 8e 3c 33 21 b9 bb 4d d0 3c bd
       -0.054783817 0.017434085 -0.0056497096 -0.04609709
000050 75 00 c1 3a e0 fd 1f 3d 37 74 18 bd e2 46 1b 3c
       0.0014724868 0.039060473 -0.037220206 0.009477349
000060 da db cd 3b 1b 86 ef bd 67 e3 98 bc 1f de 8d 3d
       0.006282312 -0.116955005 -0.018663121 0.06927132
000070 83 0b 4e 3b c6 41 41 bb dd ad 61 3d 0a f4 a9 3d
       0.0031439967 -0.0029488667 0.05509745 0.082985
000080 f6 55 ce 3c e6 01 95 3d d2 0d 2e 3d e7 bc b2 3c
       0.025187474 0.07275753 0.04249365 0.021818591
000090 d4 12 ef 3b df 79 c4 3c 90 66 2a 3d 1c 58 82 bd
       0.0072959457 0.023983894 0.041601717 -0.06364462
0000a0 68 5e b0 bd 61 a6 d4 3c 24 87 f5 3b 45 ea 03 3d
       -0.086117566 0.025958242 0.0074929167 0.03220584
0000b0 a9 91 2a 3d b7 34 43 bb ce 70 9a 3d b8 a1 a8 3c
       0.04164282 -0.002978606 0.07541047 0.020584926
0000c0 89 ad 31 bd 00 1d d7 bd 76 53 2d bd f9 ec 86 bd
       -0.043378387 -0.10503578 -0.042315923 -0.06588168
0000d0 b5 6d 06 bd 3f aa 38 3d 9c b1 35 bd ad 5a 84 bd
       -0.03281947 0.045084234 -0.044358835 -0.064626075
0000e0 3b c9 03 3a 87 b2 91 3d 02 28 90 3d 52 29 3c 3d
       0.0005027239 0.071141295 0.07038881 0.045937844
0000f0 e4 de f0 3c c3 9a b8 bb f6 62 a5 3c e5 25 2e 3d
       0.029403158 -0.0056336834 0.02018879 0.042516608
000100 4e dc 57 3d bf 0e f3 3c 0f 99 a4 3d b7 55 41 bc
       0.052700333 0.029670117 0.08037006 -0.011800221
000110 3c 06 08 3d 4e 2c 60 b9 2b 76 b5 bc 1f 66 d8 bc
       0.03320907 -0.0002137881 -0.022151073 -0.026415883
000120 77 55 bb bc ab 40 00 bc 60 c7 d3 b7 8e d9 8f 3d
       -0.022867901 -0.007827918 -2.5246001e-05 0.07023917
000130 db e4 54 3d 07 b4 23 3d d3 2f dd 3d 7b 3f 89 3d
       0.051976066 0.03996661 0.10800137 0.06701561
000140 07 d9 f4 3c d0 44 9b bb ba 34 37 bc 72 e4 6c 3c
       0.029888643 -0.0047384277 -0.011182005 0.0144587625
000150 63 fc 04 3d 83 31 88 3c 65 7d db bc 85 41 00 be
       0.032467257 0.016625172 -0.026793191 -0.12524994
000160 ba e5 18 bd 87 f8 c7 3c 23 7b 80 3d af df d6 bc
       -0.03732846 0.0244105 0.062734865 -0.026229708
000170 6f ef bc 3c 68 82 7d 3d dd 10 68 3d f9 df 0f 3d
       0.02306339 0.061891943 0.056656707 0.035125706
000180 86 6e be bc fa 70 69 bc 97 2c df bc 4b 04 fd bc
       -0.023246061 -0.014248127 -0.027242942 -0.030885836
000190 bb 7b 2f bd d1 5d 45 bd d5 5a 23 bc d6 d4 48 3d
       -0.042842608 -0.048185173 -0.0099703865 0.0490311
0001a0 43 2d 77 3c e6 cd 2a bb b7 a7 d4 ba 4e 92 2e 3c
       0.015086475 -0.0026062666 -0.0016224299 0.010654999
0001b0 9e e5 84 3d 01 cf 55 3d 41 5d 6f bb eb cf 89 bd
       0.064891085 0.052199367 -0.003652409 -0.0672911
0001c0 72 47 9e bd 73 c9 63 bc c3 ce 3f bc 2c aa 0c 3c
       -0.07728471 -0.01390301 -0.011707011 0.008585494
0001d0 14 32 21 bd d1 98 7f 3d c3 b8 ab 3c 91 3a f3 3c
       -0.0393544 0.062401596 0.020962125 0.029691013
0001e0 45 52 a7 bc 0f c4 e8 3c 54 e4 1f bc e3 a4 97 3c
       -0.020424971 0.0284138 -0.0097590275 0.018511241
0001f0 5a 6d 66 bd 22 63 27 3d 41 2a b8 3c ca b6 e8 3c
       -0.05625663 0.040866025 0.022481086 0.028407473
000200 ca 63 4e bd d4 e0 38 bd 2a 27 02 bd 8d f8 e2 ba
       -0.050388135 -0.045136288 -0.03177563 -0.0017316506
000210 18 38 86 bd c3 72 14 be 76 73 ac bc ba 3e 16 3d
       -0.06553668 -0.14496903 -0.02105115 0.036680914
000220 29 d7 96 3b c3 47 97 bb e8 e2 30 bb b9 00 86 3d
       0.004603286 -0.004616709 -0.0026990715 0.065431066
000230 4d ac e6 38 e0 0f c9 3c ba 0e af 3d 27 77 a2 bc
       0.00010999348 0.024543703 0.08547731 -0.019832207
000240 44 30 51 bd a2 a9 7d bd a0 f0 bf 3c a4 aa 10 bd
       -0.05107142 -0.061929353 0.023430169 -0.035318986
000250 6c e8 81 bd 90 35 b5 3b 28 ba 9b bd 7d 76 74 bd
       -0.06343159 0.005530067 -0.07603866 -0.05968331
000260 51 42 a4 bc 46 1a 53 3d 52 13 04 bd 20 8d 40 3c
       -0.020051153 0.05153873 -0.032244988 0.011752397
000270 b1 3e 7b bd bc 7e 9f bd 2c a3 c0 3a a0 e2 10 3c
       -0.061339084 -0.077878445 0.0014697067 0.008843094
000280 4b 60 97 bb b2 e6 d3 3c 08 0f f0 3c 8e 92 97 3c
       -0.0046196333 0.02586684 0.029304042 0.0185025
000290 d1 07 13 3d 5f 76 b5 3d c2 3c 46 3d 77 c5 12 3d
       0.035896126 0.08860468 0.048397787 0.03583285
0002a0 37 88 81 bd 13 da 7a bd 6e 54 ae bb 5d b5 b1 bc
       -0.06324809 -0.061243128 -0.0053201234 -0.021692926
0002b0 f8 f2 b9 3d 68 b0 70 3b ce 79 35 3d 1e de 0d 3b
       0.09079546 0.003672624 0.044305615 0.0021647285
0002c0 ca cd 47 3d 77 7a d7 3d c6 5e f9 3d 6b d5 10 bd
       0.04878024 0.10521405 0.1217628 -0.03535978
0002d0 09 61 29 3d bf a3 2c 3d 7a c0 09 3d b2 2d 3f 3d
       0.041352306 0.042148348 0.033630826 0.046674438
0002e0 23 14 71 3d 56 d2 fb bb ce 29 c9 bb 9c 1b d9 3c
       0.058857094 -0.007684986 -0.0061390167 0.026502423
0002f0 94 32 17 bd 7a d9 0b 3c c3 e3 20 3d 2f e0 1e 3d
       -0.03691347 0.008535737 0.03927971 0.038788017
000300 56 93 71 bc 04 13 f6 bd c2 37 f0 bc 25 d9 48 3d
       -0.0147446 -0.12015346 -0.029323462 0.04903521
000310 5f 63 9a 3c 5d 9b e0 3c 6c 15 51 bb b6 91 1d 3c
       0.018846212 0.027417833 -0.0031903638 0.00961726
000320 83 39 06 3d 72 98 08 3d 9e f2 a1 3d a4 8b 12 bd
       0.03276969 0.03334851 0.07907604 -0.035777703
000330 d4 a6 51 3d 36 00 79 3d 79 6f 33 bd 37 3a 02 3d
       0.05118449 0.060791217 -0.04380748 0.0317938
000340 48 27 14 3c 46 11 f6 bc a7 2e b0 bd 12 1a 8f bd
       0.0090425685 -0.030037533 -0.08602648 -0.069873944
000350 6c 6f 1c 3d 01 69 47 bd 8e 6d be bc 4e 32 e8 bc
       0.038192198 -0.048684124 -0.0232456 -0.0283443
000360 5d 95 63 3d 02 d9 0a bb ff e2 3c 3d 76 83 d9 3b
       0.055562366 -0.0021186476 0.046114918 0.006637986
000370 8c be 37 3d e9 2a f4 3c fc 82 f1 3c 85 c2 c6 3d
       0.044859454 0.029805617 0.029481404 0.097050704
000380 c1 83 82 bc 89 20 4e bc 29 ec e6 3c cc 93 2b bd
       -0.015931966 -0.012580999 0.028188782 -0.041888997
000390 3e 07 0b be 71 7e 15 be b2 99 43 3a fd 63 4a 3d
       -0.13576981 -0.14599015 0.0007461562 0.049411763
0003a0 ef d0 22 3c ec e8 21 bd 12 08 a0 bc e0 b1 cd 3c
       0.009937509 -0.039528772 -0.019535098 0.025109231
0003b0 60 0c 1f 3d ed db 82 3d e9 46 85 3d 0b a7 c7 3c
       0.03883016 0.06389604 0.06507666 0.024371644
0003c0 7c 25 ad 3d 3d 32 2f 3d f5 1d 8d bc 37 6d 8a bc
       0.08454415 0.04277252 -0.017226199 -0.01689778
0003d0 ea 77 d5 3c f7 d8 49 3d 41 b2 03 3c 3d 21 a3 bc
       0.026058156 0.04927918 0.0080381045 -0.01991331
0003e0 62 03 2d 3d 10 9d ae 3d a7 d0 dc 3c c8 0b e7 3b
       0.042239554 0.08526051 0.026954962 0.007050965
0003f0 a4 4f 9b bb 1e 6a 8a 3c 9e b5 52 3c d8 17 3d bc
       -0.0047397185 0.016896304 0.012860684 -0.011541329

temporal_conv.bias f4 [128]
000000 31 93 2e 39 d2 a8 23 bb e7 da ba bd ce ca 68 bd
       0.00016648766 -0.002497245 -0.091237836 -0.056834035
000010 dd 0e 63 3d 87 8e c8 bd 41 85 17 3e 35 fa 56 ba
       0.055434097 -0.0979281 0.14796926 -0.0008200736
000020 db 85 83 3d c7 47 f1 bd 2a 43 34 3d f9 12 d8 bc
       0.06422015 -0.117812686 0.044009365 -0.026376234
000030 0d 51 c1 bd 10 ba 3f 3d e4 a8 26 3e 62 28 b9 bc
       -0.09439287 0.046808302 0.16275364 -0.022602264
000040 d6 dd 06 3e 28 73 fb bd 86 0f 36 bd be 44 93 3d
       0.13170561 -0.12277824 -0.044448398 0.07190846
000050 74 31 72 3c 58 82 d7 bd ad d4 e8 bd 7a 82 2f 3d
       0.014782298 -0.10522908 -0.1136869 0.04284904
000060 74 de ab bd 3a 9c eb bd b0 b7 da 3d 3b fb 1e 3d
       -0.08392039 -0.11504407 0.10679567 0.03881381
000070 9d ce 80 3d 89 fa 0f be 75 be 72 bc b1 fb d3 bd
       0.06289408 -0.14060415 -0.014815916 -0.10350741
000080 15 1a b3 3d 53 9b c1 3d 91 35 25 bd 13 00 ea 3c
       0.08745209 0.09453454 -0.040334288 0.028564489
000090 02 e1 10 3e 68 87 83 3d 86 d1 b6 3d 8e 01 5a 3d
       0.14148334 0.06422311 0.08926682 0.05322414
0000a0 04 1d d7 3d 7c 6a 31 bd 14 2d 51 bd 70 46 00 be
       0.10503581 -0.043314442 -0.05106838 -0.1252687
0000b0 6b d6 6b 3c b2 7f de bd c1 02 1f bd 0e a0 ca 3d
       0.014394383 -0.108642 -0.038820986 0.09893809
0000c0 00 58 54 bd ef bd 9d 3d 1d 9b c9 3a 2e 23 0a 3c
       -0.051841736 0.077022426 0.001538131 0.008431239
0000d0 b1 7a 79 bd ab eb a5 3d 0e fe 98 bc af 98 c6 bd
       -0.060908023 0.08101591 -0.01867583 -0.09697091
0000e0 23 72 63 bd 5f 6a 8f bd f3 35 74 3d 27 97 62 3d
       -0.05552877 -0.070027106 0.059621762 0.05531993
0000f0 a3 c3 36 bd 54 e1 05 3d 1a 71 3b bd 36 85 22 bd
       -0.044620167 0.032685593 -0.04576216 -0.03967782
000100 69 05 e1 bd 30 e0 43 3d bf 5b 25 bd 88 da a0 bd
       -0.1098736 0.047821224 -0.0403707 -0.078541815
000110 53 de 3c 3d 75 3f a1 bd 3d a8 8f 3d a4 a6 c7 bc
       0.046110462 -0.078734316 0.07014511 -0.024371453
000120 1a 83 69 3d fb ec c1 bc 9f 64 61 3d 4a d5 b8 3d
       0.057009794 -0.023672571 0.0550276 0.09025057
000130 d6 ef 03 3d e7 b4 13 bd 57 6b 0d 3c 58 60 c0 3d
       0.032211147 -0.036061194 0.008631549 0.09393376
000140 66 d3 ec bd 3f 90 c5 bd 6e 5b 66 3d 0c f7 9c 3d
       -0.115637586 -0.096466534 0.056239538 0.07664308
000150 33 84 7f bd 7a 60 8b 3d 3e 7f b3 3d e9 3e 72 bd
       -0.062381934 0.06805511 0.08764504 -0.059142027
000160 d5 4a 93 bc 83 86 5e bd 1a a1 a8 bd a4 c1 8a 3d
       -0.017980019 -0.0543275 -0.08233853 0.06775215
000170 18 68 79 3d 18 ce a3 3d d4 a4 ba bd 8f ea 1f 3d
       0.060890287 0.07998294 -0.0911347 0.039042052
000180 85 fc 0b bc 34 9a 9f 3d ae 10 31 3c ae c4 ff 3c
       -0.008544092 0.07793084 0.010807199 0.031221714
000190 66 9b 17 3d fe e1 15 bd 47 19 8c 3d cc f4 d8 bd
       0.037013434 -0.036592476 0.06840759 -0.10593566
0001a0 a1 4f 04 3e 91 d0 0d 3b 98 07 07 3d ed 2d 0b bd
       0.12921001 0.0021639208 0.032966226 -0.033979345
0001b0 fa ab d6 bd da 7c e4 3d 0f 03 9f 3d fd 1d 6f 3b
       -0.10482021 0.11156626 0.07764255 0.003648638
0001c0 a6 3e c9 3a 72 34 91 bd 94 b4 94 bb 01 85 87 3d
       0.0015353754 -0.07090081 -0.004538128 0.06617165
0001d0 aa 4a 0a 3e 7a 9f ad 3d 09 0b f2 bd 51 4d 25 bd
       0.13505045 0.08477683 -0.11818511 -0.040356938
0001e0 70 e2 df 3d a3 d7 a4 bd 99 bd 58 bc 09 a4 73 3d
       0.109318614 -0.08048942 -0.013228797 0.059482608
0001f0 d4 b5 5d bd 71 10 4b bd 46 73 00 3e b4 a3 9e bd
       -0.054128483 -0.049576227 0.12543973 -0.07746068

fc.weight f4 [36, 128]
000000 78 7e f8 3c b9 6b d2 bc 1d 85 b0 3d 36 5d b0 bd
       0.030333742 -0.025686132 0.08619139 -0.086115286
000010 4b 88 a0 bd b6 66 b6 bd 90 3d 42 bd 60 63 37 bd
       -0.07838496 -0.08906309 -0.04742199 -0.044772506
000020 14 34 c0 3d 25 67 3e 3d ac c9 aa bd 63 89 15 bd
       0.09384933 0.046485085 -0.08339247 -0.036507975
000030 1a 34 8c bb 52 84 c5 bd db b4 80 bd dd bb ae 3c
       -0.004278672 -0.09644379 -0.062844954 0.021329815
000040 cc ed b1 bd 84 18 7c bd 8c 3b ac bd 18 e2 5f bd
       -0.08687934 -0.061546817 -0.08409795 -0.05465898
000050 83 23 00 bd be 4e d3 bd 04 8e ca 3c 64 3c 01 bb
       -0.031283867 -0.10317753 0.024725921 -0.0019719834
000060 2d ac ff 3d db 6c e7 3c 1a 5d 29 3d 4a 0a 80 3d
       0.12484012 0.028250149 0.041348554 0.062519625
000070 2a 46 09 3d 3f 89 3c 3d 36 ab 66 3d 30 a6 c2 bd
       0.03351418 0.046029326 0.056315623 -0.09504354
000080 b6 a3 8a bd 38 21 c5 bd b9 88 8f 3d e6 0c 5d bc
       -0.06769507 -0.096254766 0.070085 -0.013491845
000090 9e 98 5e bd c8 66 5a bd 69 ce 9e 3d b0 6c 27 3e
       -0.054344766 -0.053320676 0.07754213 0.16350055
0000a0 c8 15 03 3c 42 56 72 bc 37 76 b3 bc 3f 59 a0 3d
       0.0080007985 -0.014791073 -0.021906955 0.07829522
0000b0 a6 8f 12 bd 8a 53 d0 bd 1a 9f d0 bb cd 99 45 3d
       -0.035781525 -0.10172184 -0.0063666226 0.04824238
0000c0 83 1b ee bd 1b 7c de bd 14 d3 ef bc 90 69 6b bd
       -0.11626341 -0.10863515 -0.029275455 -0.05747372
0000d0 39 44 b4 3d f5 75 9e 3d 2e 9e cc 3d ef 28 7f bd
       0.08802075 0.07737342 0.09991108 -0.062294897
0000e0 02 7e 8b 3d d4 82 5c bd 40 3d d7 bd 39 6a 87 3d
       0.068111435 -0.053835705 -0.105097294 0.06612057
0000f0 98 78 65 3a 31 11 37 3c c1 95 2e 3d 66 44 fb 3c
       0.00087536266 0.011173532 0.042623285 0.030672263
000100 27 0d c4 bc a4 2d 9d 3c 2b 02 a0 bd 0d f8 54 3c
       -0.023932053 0.019186802 -0.078129135 0.012998593
000110 37 5c a8 3d 89 d7 d9 bd a0 2b b6 3c e6 ca 80 bd
       0.082207136 -0.10636813 0.022237599 -0.062887
000120 42 b3 a0 3d 25 23 60 3b 4b 58 ec bc 5e 1e e4 bd
       0.07846691 0.0034200635 -0.028850695 -0.111386046
000130 4d 87 11 3e cd 85 76 3c 2d 95 98 bb 07 ac e0 bd
       0.1421177 0.015046549 -0.004656455 -0.109703116
000140 cf 73 d3 bd b8 8d a5 bd 78 3c be bd 8a 91 49 3d
       -0.10324823 -0.08083671 -0.09288877 0.049211062
000150 8e b4 8d 3c bb ec b2 bd f8 55 22 bc d0 6c 66 3d
       0.01729801 -0.08736559 -0.009908192 0.056256115
000160 3c e4 21 3d ea 62 81 bc fa 0d 13 3d 14 c6 cd 3d
       0.039524302 -0.015794236 0.035902 0.10047546
000170 00 58 5f 3d 6a 26 da bd 1b dc 7a bc 01 05 7b bc
       0.054527283 -0.10651858 -0.015311266 -0.015321017
000180 3d 8a b9 39 6f 0a 12 bd ec 1a a9 bb 72 1f 90 3d
       0.00035388945 -0.03565448 -0.00516068 0.07037248
000190 11 e7 de 3d f9 db e4 bc ce d9 0f 3e b4 11 0e be
       0.10883916 -0.027936922 0.1404793 -0.1387394
0001a0 95 14 bc 3d ca 3b 11 3c 99 4a c8 bc 3c 25 3a 3c
       0.09183613 0.0088643525 -0.024449633 0.011361416
0001b0 35 6d 69 3c b4 3e 4f bd d8 61 95 bd 9f 99 ce 3d
       0.014247228 -0.050596908 -0.07294053 0.10087895
0001c0 f9 4e 5a 3d 0f b6 21 bd e1 8d 38 3d 7c 5d b8 bd
       0.05329797 -0.039480265 0.04505718 -0.09002206
0001d0 90 c8 66 bd 1d 87 eb 3d 11 64 93 3d 62 60 54 bb
       -0.056343615 0.1150038 0.071968205 -0.0032406081
0001e0 1b d3 f3 bd 98 2c 60 3d 15 04 cc 3d a9 c2 af 3c
       -0.119054995 0.054730028 0.09961716 0.021455126
0001f0 d0 f5 44 3c 93 b6 c3 3d b1 3f 8e 3d 1e 8d 12 bd
       0.012021497 0.09556308 0.06945742 -0.03577911
000200 ca 0e 04 3e f9 03 d9 3d 90 d0 bf 3d 3f 48 ec 3b
       0.12896267 0.10596461 0.09365952 0.007210761
000210 f8 c3 1b bd 43 97 2c bd c4 81 94 bd 4d 53 7a bd
       -0.038028687 -0.042136442 -0.07251313 -0.061114598
000220 18 f8 c0 3d 34 41 70 bd b4 3d 1e bd 24 9d 04 3c
       0.0942232 -0.058655933 -0.038633063 0.008094106
000230 1e 3d 08 3d 8c 1b a9 bd 1a 4d 94 bd d0 49 12 bd
       0.03326141 -0.08257207 -0.072412685 -0.035714924
000240 bc d6 91 bd 05 2f c8 bd 89 83 29 3d 96 1d 09 bd
       -0.071210355 -0.09774593 0.041385207 -0.03347548
000250 a7 bf 27 3d 1f d4 3d 3d 87 a1 22 3c 59 4a 79 3d
       0.04095426 0.046344873 0.009926206 0.06086192
000260 10 eb 97 bd 59 5b 07 bd 98 a4 2a bd 63 73 80 3d
       -0.074178815 -0.0330461 -0.041660875 0.06272008
000270 1f 0d 81 3d b8 e7 15 bd 24 8f 7b 3d db 4e 53 bd
       0.06301331 -0.036597937 0.061415806 -0.051588874
000280 fb 70 4e bd ab 91 06 bd 7f 79 2c be 9f d0 b3 bd
       -0.050400715 -0.032853764 -0.16843222 -0.08780026
000290 d2 25 97 bd 82 74 2d bc 96 ea d0 bc da 64 f3 3d
       -0.073802605 -0.01058686 -0.025502484 0.1188447
0002a0 07 16 9e bd 04 e5 4d 3d 62 18 11 3d 9e 25 cc 3d
       -0.07719045 0.050267234 0.035423644 0.099681124
0002b0 f4 1d 83 bc 96 ab 99 3c 08 61 ae bb 0e e3 79 bd
       -0.016005494 0.018758576 -0.0053216256 -0.06100755
0002c0 91 35 29 3c 58 13 90 bc 48 17 49 bd 6b c3 36 bd
       0.010327713 -0.017587349 -0.04909447 -0.04461996
0002d0 ab 45 8f 3d 2f 91 fa 3c f1 d5 1a 3d ba ee 04 bd
       0.0699571 0.030586807 0.037801687 -0.03245423
0002e0 15 44 c4 bd 31 fd 0a be c7 0d b9 bc 79 96 81 3d
       -0.09583298 -0.13573147 -0.022589577 0.063275285
0002f0 73 53 c3 bc 5d 1c 34 3d b1 61 f6 3d 51 74 06 bd
       -0.023843503 0.04397236 0.12030352 -0.03282577
000300 08 ea 9a 3d 91 c9 06 bd b5 54 d4 3d e1 7a ce bd
       0.07564169 -0.032907072 0.10367719 -0.10082031
000310 1e e8 2c bd f1 f0 dc bb 1a 54 e5 3d ee 74 a1 bd
       -0.04221355 -0.0067425896 0.11197682 -0.07883631
000320 19 32 d2 3d cf 89 19 3c 6c cf dd bd c8 23 ab bd
       0.102634616 0.009371235 -0.10830578 -0.08356434
000330 af 41 69 3d fa a6 97 bd 60 08 1a 3e 61 76 f7 bc
       0.056947406 -0.07404895 0.15042257 -0.030207815
000340 9d a6 b1 bd 16 68 25 bb c3 a2 bd bc 4e 44 7c 3d
       -0.08674357 -0.0025239042 -0.0231489 0.061588578
000350 c6 de 62 bd fa eb 5d bd b9 bf eb 3d db 73 79 3d
       -0.055388235 -0.054180123 0.115111776 0.060901504
000360 67 be 69 3d cf 6e c6 3d 4c 61 da bd c0 8f fc 3d
       0.057066347 0.09689104 -0.10663089 0.12332106
000370 72 be 85 3d 8f 6b 64 bd 18 a9 fb 3b 95 3e 7d 3d
       0.06530465 -0.05576664 0.0076800697 0.06182726
000380 ab 6a 3f bd 72 5b 0d 3e 41 77 1e bd 15 8f 59 3d
       -0.046732586 0.13804415 -0.03868795 0.05311497
000390 c8 46 86 3d 47 d8 ac bd 6c 37 26 bc 1d 8d 03 bd
       0.06556469 -0.08439689 -0.01014505 -0.032116998
0003a0 ae b6 a6 3c 53 db ba bb 36 09 04 be d5 90 17 3b
       0.02035078 -0.005702415 -0.12894139 0.0023127098
0003b0 24 ba 1a bd ed 03 70 bd 28 84 21 bd 3c 11 b4 3b
       -0.037775174 -0.058597494 -0.039432675 0.0054952186
0003c0 d6 25 a6 3d 9c ef 12 be 4a 78 6b 3c 18 5f a4 bd
       0.081126854 -0.14349216 0.014371941 -0.0802595
0003d0 ae 1f b6 bd 4f 24 28 bd 31 12 a4 bd 3f b5 55 bd
       -0.08892761 -0.04105025 -0.08011282 -0.052174803
0003e0 b8 ec 2a bc ee 18 ba bd 3d a0 ac bc a5 0e 20 3d
       -0.010432415 -0.09086786 -0.021072501 0.039076466
0003f0 b4 10 79 bd d6 64 8b bc 33 d0 56 bd f7 6d 80 3d
       -0.060806945 -0.017015856 -0.052444648 0.06270974

fc.bias f4 [36]
000000 c7 bb 5d 3c 09 f0 9f bd 59 24 00 bd fc 3c 15 3e
       0.013533539 -0.07809455 -0.031284664 0.14574045
000010 17 b5 9f bd 3b cf ca bb a0 e0 6a 3d d7 70 41 3d
       -0.07798212 -0.0061892546 0.057343125 0.047226753
000020 33 c0 4e 3c 51 a1 10 bd 79 d0 b8 bc 45 a0 e0 3d
       0.012619066 -0.035310093 -0.022560345 0.10968069
000030 04 cb 08 bd cc b6 77 ba 93 33 d3 bc 7b 2b 99 3d
       -0.033396736 -0.0009449541 -0.025781428 0.07478996
000040 6e b3 8b 3d 20 37 1e 3d f0 33 e1 bc df bf 80 3d
       0.06821333 0.03862679 -0.027490586 0.062865965
000050 15 88 8d bd a9 45 1b be 68 ea db bc d8 2f 9d bd
       -0.06910721 -0.15163292 -0.026845172 -0.07675141
000060 06 d9 b6 3c 91 58 34 3d f4 20 1c 3d 91 db c5 bb
       0.022320282 0.044029776 0.038117364 -0.0060381372
000070 44 46 c0 3c 87 8e 9f bd 09 f6 e3 3c f2 6e d1 3d
       0.023471005 -0.07790857 0.02782728 0.10226239
000080 46 2e 24 bc ab 4d a6 bb ad 17 44 bd a1 d3 c9 3d
       -0.010020798 -0.0050751767 -0.04787414 0.09854818
