situation_analysis/best_models/model_window60_horizon30.pth (torch, 938130 bytes, 27 tensors)

adapt_adj f4 [60, 60]
0.96825564 -0.03150587 -0.031561777 -0.031390563 -0.031210879 -0.031218072 -0.031161137 -0.030999308
-0.03089635 -0.030588936 -0.030405752 -0.03021764 -0.030098319 -0.029870931 -0.029720442 -0.02947443
-0.029076263 -0.028874429 -0.02868313 -0.028640091 -0.028281357 -0.028295625 -0.028389484 -0.028425826
-0.028459562 -0.028433662 -0.028356642 -0.028290082 -0.02824352 -0.028256573 -0.027998704 -0.027801745
-0.027413514 -0.027138185 -0.027050147 -0.026773907 -0.026520537 -0.026373252 -0.026084328 -0.026065456
-0.026114779 -0.026232088 -0.026337292 -0.026276665 -0.02632682 -0.02637755 -0.026273685 -0.026405
-0.026526334 -0.026593551 -0.026339453 -0.026165294 -0.025981734 -0.02578881 -0.025493475 -0.024937136
-0.024866316 -0.024474991 -0.024403693 -0.024822205 -0.0321706 0.96797884 -0.032125916 -0.0319697
-0.031791348 -0.031827804 -0.031730406 -0.031647813 -0.03153596 -0.031228427 -0.031049507 -0.03081513
-0.030685807 -0.030397981 -0.030267607 -0.030062186 -0.02964232 -0.029427355 -0.02924768 -0.029171433
-0.028779047 -0.028777942 -0.02880073 -0.028798023 -0.028841421 -0.028851155 -0.028780447 -0.02870827
-0.028692402 -0.028690213 -0.02840162 -0.028175438 -0.027816745 -0.027522719 -0.027435599 -0.027176589
-0.026876634 -0.026719613 -0.026446715 -0.026418751 -0.026434276 -0.026532978 -0.02662351 -0.026577288
-0.026635336 -0.026667371 -0.026563855 -0.026687233 -0.02682194 -0.026899008 -0.026637586 -0.026505899
-0.02633107 -0.026146341 -0.025833461 -0.025297066 -0.025230646 -0.024863632 -0.024792207 -0.025173368
-0.03303408 -0.032911427 0.9669033 -0.032935277 -0.032750286 -0.032752257 -0.032657627 -0.032544807
-0.03245052 -0.032141134 -0.031994864 -0.031730935 -0.031559248 -0.03130184 -0.031129057 -0.030904869
-0.030499374 -0.030268827 -0.030083157 -0.029999744 -0.029642085 -0.029659996 -0.029729515 -0.029728208
-0.029767785 -0.029777393 -0.029693317 -0.029607793 -0.029561946 -0.029542074 -0.029283462 -0.029037973
-0.028670127 -0.028372815 -0.02830827 -0.028021686 -0.027791778 -0.027692996 -0.027463676 -0.02740942
-0.027424822 -0.027494231 -0.027557867 -0.027534958 -0.027579086 -0.027642036 -0.027499126 -0.027612919
-0.027733954 -0.027815303 -0.027537934 -0.027380247 -0.027224164 -0.0270279 -0.026702363 -0.02618141
-0.026134761 -0.025794178 -0.025727341 -0.0260895 -0.032574628 -0.032484815 -0.032698598 0.9672782
-0.032545462 -0.03254049 -0.032467227 -0.032333568 -0.032242786 -0.03193638 -0.03179446 -0.03156608
-0.031381328 -0.031093774 -0.030964311 -0.030753339 -0.03035602 -0.030156754 -0.029999014 -0.029924981
-0.029554337 -0.029560668 -0.02958992 -0.029623128 -0.029655077 -0.02961031 -0.0295223 -0.029449718
-0.029408706 -0.02941221 -0.029151317 -0.028913084 -0.028527958 -0.028194726 -0.028125402 -0.027855443
-0.027611136 -0.027487136 -0.027217621 -0.027169187 -0.027233025 -0.027335882 -0.027420523 -0.027380353
-0.027441809 -0.027481701 -0.027350836 -0.027452068 -0.027554272 -0.027669646 -0.027449558 -0.027285753
-0.027085776 -0.026904767 -0.026598006 -0.026096169 -0.026022486 -0.02568316 -0.025606263 -0.025971511
-0.03216285 -0.032023054 -0.03224728 -0.03225605 0.96781236 -0.032204226 -0.032118782 -0.031998392
-0.0318886 -0.031609636 -0.03150568 -0.031259894 -0.031109065 -0.030830821 -0.030687919 -0.030456727
00000000: 9adf 773f 4d0c 01bd ec46 01bd 6493 00bd
00000010: f5ad ffbc 0bbd ffbc a445 ffbc 43f2 fdbc
00000020: 581a fdbc a695 fabc 7c15 f9bc fc8a f7bc
00000030: c090 f6bc e2b3 f4bc 4978 f3bc 5c74 f1bc
00000040: 5831 eebc 118a ecbc e2f8 eabc a09e eabc
00000050: 4eae e7bc 3acc e7bc 1091 e8bc 47dd e8bc
00000060: 0724 e9bc b6ed e8bc 304c e8bc 9ac0 e7bc
00000070: f45e e7bc 547a e7bc 8a5d e5bc 7cc0 e3bc
00000080: 4e92 e0bc e650 debc 4598 ddbc f454 dbbc
00000090: 9941 d9bc b80c d8bc cdae d5bc 3987 d5bc
000000a0: a9ee d5bc ade4 d6bc 4ec1 d7bc 2942 d7bc
000000b0: 58ab d7bc bb15 d8bc e93b d7bc 4c4f d8bc
000000c0: c14d d9bc b8da d9bc d6c5 d7bc 9958 d6bc
000000d0: a5d7 d4bc 0e43 d3bc b1d7 d0bc f748 ccbc
000000e0: 72b4 cbbc c77f c8bc 41ea c7bc f057 cbbc
000000f0: 52c5 03bd 76cd 773f 7796 03bd a9f2 02bd
00000100: a537 02bd df5d 02bd bef7 01bd 23a1 01bd
00000110: da2b 01bd c2d2 ffbc 895b febc 0370 fcbc
00000120: cd60 fbbc 3005 f9bc c6f3 f7bc f944 f6bc
00000130: 73d4 f2bc a311 f1bc d598 efbc eef8 eebc
00000140: 09c2 ebbc b8bf ebbc 82ef ebbc d5e9 ebbc
00000150: d844 ecbc 4259 ecbc f9c4 ebbc 9b2d ebbc
00000160: 540c ebbc bd07 ebbc 84aa e8bc 2dd0 e6bc
00000170: f1df e3bc 5377 e1bc 9fc0 e0bc 70a1 debc
00000180: 632c dcbc 17e3 dabc c8a6 d8bc 236c d8bc
00000190: b28c d8bc b05b d9bc 8c19 dabc 9db8 d9bc
000001a0: 5932 dabc 8875 dabc 719c d9bc 2f9f dabc
000001b0: afb9 dbbc 4f5b dcbc 1137 dabc e622 d9bc
000001c0: 42b4 d7bc da30 d6bc b2a0 d3bc cb3b cfbc
000001d0: 80b0 cebc d1ae cbbc 0719 cbbc 6138 cebc
000001e0: be4e 07bd 22ce 06bd fa86 773f 24e7 06bd
000001f0: 2a25 06bd 3b27 06bd 01c4 05bd b44d 05bd
00000200: d6ea 04bd 6ca6 03bd 0c0d 03bd 4cf8 01bd
00000210: 4544 01bd 5c36 00bd 5d02 ffbc 352c fdbc
00000220: d3d9 f9bc 55f6 f7bc f470 f6bc 06c2 f5bc
00000230: f5d3 f2bc 85f9 f2bc 508b f3bc 9288 f3bc
00000240: 92db f3bc b8ef f3bc 663f f3bc 0b8c f2bc
00000250: e52b f2bc 3802 f2bc dfe3 efbc 0be1 edbc
00000260: 9ddd eabc 1b6e e8bc bfe6 e7bc bc8d e5bc
00000270: 95ab e3bc 6cdc e2bc 81fb e0bc b889 e0bc
00000280: 05aa e0bc 953b e1bc 09c1 e1bc fe90 e1bc
00000290: 89ed e1bc 8d71 e2bc d945 e1bc 7d34 e2bc
000002a0: 5132 e3bc ebdc e3bc 3c97 e1bc 8a4c e0bc
000002b0: 3605 dfbc 9d69 ddbc eabe dabc 657a d6bc
000002c0: 9118 d6bc 504e d3bc 25c2 d2bc a6b9 d5bc
000002d0: f96c 05bd cc0e 05bd f7ee 05bd 8b9f 773f
000002e0: 644e 05bd 2d49 05bd 5bfc 04bd 3470 04bd
000002f0: 0311 04bd b9cf 02bd e83a 02bd 6f4b 01bd
00000300: b589 00bd 5fb8 febc dea8 fdbc 6dee fbbc
00000310: 30ad f8bc 4c0b f7bc 7ec0 f5bc 3c25 f5bc
00000320: f01b f2bc 3729 f2bc 8f66 f2bc 34ac f2bc
00000330: 34ef f2bc 5291 f2bc c0d8 f1bc 8940 f1bc
00000340: 87ea f0bc e0f1 f0bc bece eebc 22db ecbc
00000350: 77b3 e9bc a0f8 e6bc 3e67 e6bc 1931 e4bc
00000360: c030 e2bc b42c e1bc 7df7 debc ea91 debc
00000370: cb17 dfbc 80ef dfbc 01a1 e0bc c34c e0bc
00000380: a5cd e0bc 4e21 e1bc dc0e e0bc 29e3 e0bc
00000390: 7fb9 e1bc 74ab e2bc e5dd e0bc 5f86 dfbc
000003a0: fde2 ddbc 6367 dcbc 10e4 d9bc a2c7 d5bc
000003b0: 1c2d d5bc 7e65 d2bc 3ac4 d1bc 35c2 d4bc
000003c0: 31bd 03bd 9b2a 03bd b915 04bd eb1e 04bd
000003d0: 8dc2 773f 94e8 03bd fc8e 03bd bf10 03bd
000003e0: 9f9d 02bd 1b79 01bd 1a0c 01bd 600a 00bd
000003f0: 70d8 febc eb90 fcbc 3b65 fbbc 6380 f9bc

gc1.fc.weight f4 [128, 30]
0.041443303 0.122877195 -0.062193517 -0.02379655 -0.109875984 0.18708819 0.08846547 -0.11347161
0.008230191 -0.09241851 -0.07430947 0.058297474 -0.126262 -0.034865554 0.200904 -0.006259551
0.039373707 0.019537788 0.19715656 -0.04162791 0.028465087 0.20039062 0.07696072 -0.14968613
-0.10067374 -0.1784219 0.07147432 0.17745782 -0.14189495 -0.07168944 -0.14814602 -0.110270634
0.18870552 0.073662214 -0.00053612515 -0.0043730466 0.0769684 0.082953885 0.18248439 -0.04708475
-0.12714763 -0.010815627 -0.020902239 -0.08076129 0.13377768 -0.0069882222 0.12855397 -0.08833546
-0.09254127 0.13304578 0.04725322 0.061611485 -0.15817915 0.08142184 -0.08179409 0.18995482
0.16842857 -0.05111061 0.005802836 0.18441866 0.09250714 0.18263568 0.13981862 -0.09984729
0.09336258 -0.0012776223 -0.073952675 -0.029701525 0.16241537 -0.12411083 -0.123568565 0.09838647
0.09845622 0.0885278 0.12116106 0.07055466 0.18141568 0.09685412 -0.150628 -0.13351917
0.04924594 0.1183694 0.19159089 0.018317988 -0.040764175 -0.015277901 -0.019468252 -0.06534222
-0.139212 -0.09619112 -0.015086459 -0.016500117 -0.11251636 0.008646586 -0.01989819 -0.11353564
0.19086233 0.11017279 -0.01893413 -0.15538247 -0.18968156 -0.11814508 0.10203501 -0.17432551
0.16438214 0.0729981 -0.045786794 0.046400234 0.070834234 0.12916252 0.06355744 -0.051363382
-0.10691869 0.042734504 -0.0042277705 0.12099129 -0.13565631 -0.18859227 -0.02770654 -0.111565955
-0.060337044 -0.12088668 -0.13511033 0.12261824 0.0157488 0.1309756 0.14879814 0.09379531
0.015232454 0.11487151 0.05054615 0.084380835 0.19707371 0.07719768 -0.06338035 -0.034218535
-0.039229475 -0.06338804 -0.096189596 0.080136694 -0.1131685 0.0511062 0.121049084 0.08140232
-0.16033797 0.010713519 0.06281072 -0.1759318 -0.07914004 0.114859685 -0.054226615 -0.17413032
-0.026500946 0.039978903 0.015220746 0.057577725 0.15845221 -0.05163709 0.004338293 -0.046868864
-0.061960034 -0.017160637 -0.088957846 -0.0015128762 0.030524101 -0.06970337 -0.1557258 0.036922194
-0.1374884 0.16498908 0.12739258 -0.05176906 -0.003971365 -0.12818955 0.03459765 0.08972541
0.05540682 -0.1506019 -0.12037194 -0.05800732 -0.170579 0.11792269 -0.070810534 0.13043386
0.06251014 0.08005029 0.12001099 -0.061179798 -0.13931784 0.114628285 0.033044975 -0.0029375653
0.115570314 0.14641193 -0.02652838 -0.0887291 -0.12880394 0.12687759 -0.097165644 0.06324623
-0.10777616 -0.17054595 0.065071575 -0.13414845 0.050966475 -0.06457903 -0.06952514 -0.15199152
-0.03242243 0.17187145 0.059815224 0.084283344 -0.031482495 -0.070659615 0.13158706 -0.168649
-0.10773499 0.022198671 -0.1142923 -0.013277513 -0.12781447 -0.119118154 0.11136515 0.21495917
0.22334777 -0.09879804 0.16411759 0.04585477 0.04017818 0.050179098 -0.07718583 0.03616465
0.016343798 -0.11828454 -0.16494723 -0.09561619 0.085837804 0.13749337 -0.0745815 0.14331143
0.03816367 -0.12021865 0.048974168 -0.056454655 0.103195876 -0.17783011 0.14790837 0.099572584
0.15139176 -0.15458412 -0.076798335 -0.07140217 0.0991546 0.12327772 -0.18024425 0.1731706
00000000: 74c0 293d 0aa7 fb3d a1be 7ebd fcf0 c2bc
00000010: a906 e1bd 0c94 3f3e 622d b53d ce63 e8bd
00000020: ecd7 063c ea45 bdbd 902f 98bd 55c9 6e3d
00000030: d34a 01be 2fcf 0ebd c7b9 4d3e eb1c cdbb
00000040: 5346 213d b60d a03c 69e3 493e 0782 2abd
00000050: 9d2f e93c 3333 4d3e 959d 9d3d 5247 19be
00000060: 092e cebd 3bb4 36be 2161 923d 81b7 353e
00000070: e94c 11be ead1 92bd 97b3 17be 92d5 e1bd
00000080: 053c 413e 37dc 963d c08a 0cba c64b 8fbb
00000090: 9ca1 9d3d bae3 a93d 30dd 3a3e f0db 40bd
000000a0: fd32 02be 0734 31bc 2c3b abbc 2d66 a5bd
000000b0: 04fd 083e 75fd e4bb a7a3 033e 39e9 b4bd
000000c0: 4786 bdbd 273d 083e 988c 413d 535c 7c3d
000000d0: b7f9 21be 7ec0 a63d a983 a7bd 8483 423e
000000e0: 8a78 2c3e 5c59 51bd b725 be3b 3fd8 3c3e
000000f0: 6274 bd3d d904 3b3e 9d2c 0f3e bc7c ccbd
00000100: e134 bf3d e475 a7ba 8074 97bd 9d50 f3bc
00000110: 3750 263e d22d febd 8411 fdbd d87e c93d
00000120: 6aa3 c93d 104e b53d 4a23 f83d f67e 903d
00000130: 08c5 393e 745b c63d 3a3e 1abe 40b9 08be
00000140: 1cb6 493d a86b f23d 6730 443e 9b0f 963c
00000150: 56f8 26bd 2950 7abc e27b 9fbc 24d2 85bd
00000160: 978d 0ebe daff c4bd 322d 77bc 412b 87bc
00000170: fa6e e6bd 69aa 0d3c 8701 a3bc 6085 e8bd
00000180: 6a71 433e 46a2 e13d c01b 9bbc 951c 1fbe
00000190: e23b 42be 0cf6 f1bd bbf7 d03d 6382 32be
000001a0: cb53 283e 0780 953d ef8a 3bbd 2c0e 3e3d
000001b0: 8a11 913d 2e43 043e 672a 823d 6962 52bd
000001c0: 30f8 dabd 600a 2f3d 1c89 8abb 48ca f73d
000001d0: 7de9 0abe 551e 41be d3f8 e2bc b17c e4bd
000001e0: fa23 77bd 7093 f7bd 5d5a 0abe 461f fb3d
000001f0: a103 813c 781e 063e 8a5e 183e c117 c03d
00000200: 8b91 793c c141 eb3d 7b09 4f3d dccf ac3d
00000210: b1cd 493e d119 9e3d 8fcd 81bd bc28 0cbd
00000220: 16af 20bd 97d1 81bd 0dff c4bd b51e a43d
00000230: e3c4 e7bd bc54 513d 95e8 f73d 42b6 a63d
00000240: a32f 24be c187 2f3c e8a2 803d 7727 34be
00000250: 2c14 a2bd 8e3b eb3d ba1c 5ebd 384f 32be
00000260: 8318 d9bc ebc0 233d 7060 793c 9fd6 6b3d
00000270: 4c41 223e 6a81 53bd 3d28 8e3b 91f9 3fbd
00000280: cec9 7dbd 7794 8cbc 882f b6bd b44b c6ba
00000290: ae0d fa3c a4c0 8ebd 9676 1fbe ba3b 173d
000002a0: c2c9 0cbe e6f2 283e 3373 023e cb0b 54bd
000002b0: 3922 82bb 1f44 03be 44b6 0d3d f5c1 b73d
000002c0: 43f2 623d 6237 1abe 9085 f6bd 1599 6dbd
000002d0: 43ac 2ebe 7481 f13d 1d05 91bd 7490 053e
000002e0: 5105 803d 68f1 a33d 52c8 f53d ab97 7abd
000002f0: 56a9 0ebe 3cc2 ea3d 2b5a 073d 2b84 40bb
00000300: 21b0 ec3d 02ed 153e 0c52 d9bc 9ab7 b5bd
00000310: 2ee5 03be 33ec 013e c8fe c6bd 3d87 813d
00000320: bfb9 dcbd 99a3 2ebe 3f44 853d 365e 09be
00000330: 39c2 503d 0342 84bd 3263 8ebd aaa3 1bbe
00000340: 62cd 04bd 12ff 2f3e cf00 753d bf9c ac3d
00000350: caf3 00bd fdb5 90bd c2be 063e 53b2 2cbe
00000360: 2aa4 dcbd fdd9 b53c 1512 eabd ed89 59bc
00000370: cce1 02be 38f4 f3bd 6913 e43d 421e 5c3e
00000380: 47b5 643e a056 cabd 710e 283e 36d2 3b3d
00000390: e091 243d 9988 4d3d 9b13 9ebd 6221 143d
000003a0: 6ee3 853c 2a3f f2bd ede7 28be 6cd2 c3bd
000003b0: bbcb af3d 10cb 0c3e 2fbe 98bd 3bc0 123e
000003c0: 8251 1c3d 3235 f6bd 2399 483d ff3c 67bd
000003d0: 5c58 d33d 1919 36be 4b75 173e b6ec cb3d
000003e0: 7106 1b3e 4d4b 1ebe 7248 9dbd 4d3b 92bd
000003f0: 9111 cb3d 0779 fc3d f391 38be a253 313e

gc1.fc.bias f4 [128]
-0.080232784 0.049366906 -0.083731174 0.012456538 -0.05918073 0.13832678 -0.0541439 -0.24711873
-0.19416101 0.0654834 0.051095683 0.10285926 -0.13695198 -0.19707385 0.14295645 0.113035254
-0.161188 0.08614191 0.15502574 0.1149761 -0.0475076 0.14332056 0.072582304 0.008980328
0.051722456 -0.19567862 -0.07322889 0.0956412 -0.1341423 0.032902002 -0.11943001 -0.02970978
-0.10489051 -0.25175312 -0.0032297494 -0.3143846 0.01552314 -0.014371576 -0.13506772 0.07501038
0.085499935 0.07987814 0.015858423 -0.0781437 -0.16592856 -0.015743908 0.16760005 -0.06062852
0.09045302 -0.2541199 -0.10622255 -0.07193111 -0.23058699 0.052509278 -0.12354341 -0.20401154
-0.05966895 -0.033995233 -0.01524244 0.077203274 0.14317617 -0.046003066 0.055063702 0.06280265
0.042504363 -0.006384015 -0.20987073 -0.13503073 0.098273344 0.12977715 0.09004461 -0.06478962
0.011622316 -0.11041941 -0.17839527 -0.16557096 -0.28566533 0.021402264 0.07289448 -0.16180614
0.0534578 -0.10243059 0.086856484 -0.17825776 -0.21146567 -0.010493298 0.15272214 -0.1590392
-0.027799089 -0.18254587 -0.027050845 -0.14360403 -0.28080103 -0.06966617 -0.008903576 -0.15010747
0.035408426 0.12998322 -0.19465886 -0.19612005 0.12865336 0.16925892 0.0011185457 -0.13041137
-0.035485014 0.0007884059 -0.02417042 -0.18585767 -0.07604275 0.08128315 -0.039715372 -0.029290194
-0.0074404133 0.10421284 0.024449706 0.043637283 0.009760937 0.10795134 -0.06386269 0.032388162
-0.2498069 -0.07976387 -0.18857999 -0.017012693 0.11070038 0.06090413 -0.15244491 0.13541184
00000000: 1651 a4bd f434 4a3d 407b abbd 8216 4c3c
00000010: 7e67 72bd 89a5 0d3e fec5 5dbd b10c 7dbe
00000020: 25d2 46be 291c 863d b549 513d e0a7 d23d
00000030: 243d 0cbe bacd 49be 2d63 123e 077f e73d
00000040: 780e 25be 2b6b b03d 11bf 1e3e 9778 eb3d
00000050: 5497 42bd a0c2 123e 08a6 943d 3a22 133c
00000060: edda 533d fa5f 48be 07f9 95bd 89df c33d
00000070: 995c 09be 40c4 063d b997 f4bd ed61 f3bc
00000080: d6d0 d6bd c9e5 80be 34aa 53bb 05f7 a0be
00000090: c554 7e3c c276 6bbc 314f 0abe 0b9f 993d
000000a0: 971a af3d 2697 a33d 86e9 813c ce09 a0bd
000000b0: 2de9 29be 5ef9 80bc 599f 2b3e 9c55 78bd
000000c0: 6f3f b93d 011c 82be 358b d9bd 9e50 93bd
000000d0: ff1e 6cbe f813 573d 5404 fdbd 67e8 50be
000000e0: 6e67 74bd 963e 0bbd 6dbb 79bc c01c 9e3d
000000f0: c69c 123e b66d 3cbd 7a8a 613d ad9e 803d
00000100: 0e19 2e3d 0031 d1bb 5ae8 56be 7f45 0abe
00000110: 8943 c93d 4de4 043e 4f69 b83d 6cb0 84bd
00000120: 876b 3e3c 9223 e2bd 40ad 36be 6f8b 29be
00000130: ba42 92be cd53 af3c b349 953d 82b0 25be
00000140: 91f6 5a3d 21c7 d1bd d0e1 b13d 3489 36be
00000150: 758a 58be 15ec 2bbc 3163 1c3e 2cdb 22be
00000160: eaba e3bc 4eed 3abe bc99 ddbc ef0c 13be
00000170: 27c5 8fbe 23ad 8ebd 4ee0 11bc c6b5 19be
00000180: 6d08 113d 521a 053e a754 47be b2d3 48be
00000190: b5bd 033e 3652 2d3e 2a9c 923a 8f8a 05be
000001a0: bc58 11bd 06ad 4e3a 0b01 c6bc 7951 3ebe
000001b0: 4dbc 9bbd c877 a63d 96ac 22bd fdf1 efbc
000001c0: b6ce f3bb 8b6d d53d c04a c83c 02bd 323d
000001d0: 56ec 1f3c 9815 dd3d 71ca 82bd 73a9 043d
000001e0: 61cd 7fbe 3d5b a3bd 1d1b 41be 345e 8bbc
000001f0: e1b6 e23d 9c76 793d 851a 1cbe 67a9 0a3e

gc2.fc.weight f4 [128, 128]
-0.062022958 -0.04857018 -0.03682584 0.06241878 0.022366295 -0.027097356 0.06385381 -0.03627121
0.03993764 0.092090175 0.025193492 0.0075436058 0.10427407 0.036241155 0.03394594 -0.060290564
-0.07224003 0.095387414 -0.03263942 0.0059879203 0.057134673 0.12288218 0.062385798 0.02060062
0.08744212 -0.07497164 0.00053511205 0.050775677 -0.033091094 0.041175537 0.032687824 0.09702637
0.11011901 -0.015621058 0.16850972 -0.0071808673 -0.041127913 0.01590758 0.1134744 0.040750127
0.020929577 0.114313856 0.05369901 0.0720959 0.06672804 -0.055557378 -0.032530144 0.041253965
0.014004711 0.06178299 0.0036372226 0.05447523 -0.0070731076 0.050004274 0.071565524 -0.0031368318
-0.021150678 -0.0212893 0.016080666 0.050089017 -0.023479894 0.015651723 0.08254043 0.06760393
0.023035854 -0.023162507 0.14076747 -0.07175652 0.07764405 0.009825796 -0.031128678 0.08282406
0.014531725 -0.0762534 0.07214241 -0.044899583 0.04975097 0.06308606 0.010548611 -0.083467305
-0.11125568 0.09602207 -0.020860514 0.029946402 0.026875649 -0.05786353 0.07158575 0.097462974
0.10067931 -0.107776836 0.016792094 -0.06835462 0.043659315 -0.05411398 -0.03627657 0.06413208
-0.02238135 -0.018264722 0.042610537 0.05309453 -0.066699795 -0.040580284 0.018960817 -0.018170035
0.06897957 -0.072887465 0.09848539 -0.061822902 0.057676908 -0.035288204 0.10203987 -0.09818543
0.016624574 0.059772223 0.062489327 -0.07161181 -0.03874929 -0.040413048 0.07515406 -0.04374302
0.12060656 -0.02755117 0.0110560935 -0.03593617 0.011576249 0.09305172 -0.012412601 0.037945848
0.024025906 0.031733755 -0.08756022 -0.08976505 -0.08999535 -0.13735345 -0.061508 -0.005373507
0.11530015 -0.07415263 0.047389872 -0.041241836 -0.0057941927 0.039845813 -0.11250339 -0.02717797
-0.047680702 -0.008045057 -0.10891021 0.0059542973 -0.17052951 -0.19778001 -0.12888397 -0.113847636
-0.023029296 0.06887652 -0.10208021 -0.11114178 -0.043600682 -0.10455232 -0.03385836 -0.013092598
-0.08734625 0.0131719485 -0.036771864 0.0862148 0.08303892 0.03469845 -0.040186577 -0.13253547
-0.13895123 -0.064455286 -0.1496542 0.005658876 -0.07618119 -0.15143314 -0.08841104 -0.11859826
-0.04585451 -0.083105765 -0.04399946 -0.06619965 -0.037765387 -0.034257844 -0.05806101 -0.037818346
0.0681489 -0.057442937 -0.0022773833 -0.012628403 0.01173244 -0.051086072 -0.09962414 -0.080950566
0.018704142 -0.055885356 0.105589315 -0.038696513 -0.17688744 -0.042681012 0.027932707 -0.01225797
-0.04272747 -0.01768484 -0.0006581274 -0.120690696 0.11804433 -0.08048428 -0.101295896 0.035372518
-0.0051401537 -0.08253511 -0.11317031 -0.00437846 -0.09672746 -0.060549565 -0.07392582 0.035696756
0.029116029 -0.048414752 -0.0029063437 0.027697405 0.06872854 0.029964326 -0.1106551 -0.098619975
0.01965039 -0.121078245 -0.040417556 -0.09645331 -0.09366076 -0.0025085001 -0.0048595774 -0.076159514
-0.09190825 0.021850592 -0.08643408 -0.080405876 -0.14394236 -0.10302029 -0.1466281 -0.023266792
-0.110843845 0.027531395 -0.12083964 -0.11835872 0.046383917 -0.121463396 0.04454749 -0.03957718
-0.034328815 -0.09831737 0.012159087 0.0668786 -0.13711709 -0.05724007 -0.06682612 -0.06414219
00000000: c90b 7ebd 86f1 46bd b1d6 16bd d6aa 7f3d
00000010: 8539 b73c 46fb ddbc c9c5 823d 1f91 14bd
00000020: a795 233d c699 bc3d 9562 ce3c 5a30 f73b
00000030: a58d d53d 9b71 143d e60a 0b3d 3df3 76bd
00000040: 95f2 93bd 7a5a c33d eab0 05bd 5136 c43b
00000050: 0c06 6a3d a7a9 fb3d 4088 7f3d a2c2 a83c
00000060: db14 b33d bb8a 99bd c346 0c3a 28fa 4f3d
00000070: 878a 07bd aea7 283d abe3 053d c3b5 c63d
00000080: 1386 e13d 77ef 7fbc d08d 2c3e 7b4d ebbb
00000090: be75 28bd 9d50 823c 4465 e83d 9be9 263d
000000a0: 8174 ab3c 621d ea3d 7ef3 5b3d 04a7 933d
000000b0: b6a8 883d 2290 63bd 543e 05bd ebf9 283d
000000c0: 0474 653c 2910 7d3d 785e 6e3b 6b21 5f3d
000000d0: 87c5 e7bb 48d1 4c3d f290 923d 4e93 4dbb
000000e0: 3044 adbc e666 aebc 9abb 833c 242a 4d3d
000000f0: e858 c0bc 0b38 803c f50a a93d ee73 8a3d
00000100: b0b5 bc3c 4cbf bdbc 5925 103e 15f5 92bd
00000110: d803 9f3d 60fc 203c 9201 ffbc a99f a93d
00000120: 7916 6e3c be2a 9cbd 66bf 933d a0e8 37bd
00000130: acc7 4b3d 4433 813d 15d4 2c3c e8f0 aabd
00000140: 05da e3bd 38a7 c43d abe3 aabc 2852 f53c
00000150: 522a dc3c 4f02 6dbd 8d9b 923d ab9a c73d
00000160: f430 ce3d 1aba dcbd 938f 893c 82fd 8bbd
00000170: 1cd4 323d 9fa6 5dbd be96 14bd ae57 833d
00000180: 1859 b7bc e69f 95bc 6388 2e3d a679 593d
00000190: e799 88bd 8337 26bd b753 9b3c 53d9 94bc
000001a0: 2945 8d3d 0646 95bd b5b2 c93d 033a 7dbd
000001b0: 9f3e 6c3d 5d8a 10bd 48fa d03d 7115 c9bd
000001c0: 4230 883c b8d3 743d cff4 7f3d 36a9 92bd
000001d0: 93b7 1ebd 2788 25bd 5fea 993d e22b 33bd
000001e0: 9200 f73d feb2 e1bc 9e24 353c ce31 13bd
000001f0: 4faa 3d3c e691 be3d 395e 4bbc 1b6d 1b3d
00000200: fad1 c43c 41fb 013d c652 b3bd bdd6 b7bd
00000210: 7b4f b8bd 62a6 0cbe d0ef 7bbd 3e14 b0bb
00000220: 7c22 ec3d 56dd 97bd e21b 423d 33ed 28bd
00000230: 36dd bdbb 5d35 233d 2d68 e6bd 56a4 debc
00000240: d74c 43bd 6acf 03bc 510c dfbd 441c c33b
00000250: 4a9f 2ebe d886 4abe 29fa 03be f328 e9bd
00000260: efa7 bcbc 220f 8d3d 6e0f d1bd 4d9e e3bd
00000270: a196 32bd 871f d6bd 10af 0abd 5682 56bc
00000280: 97e2 b2bd 28cf 573c 189e 16bd 6391 b03d
00000290: 4f10 aa3d f61f 0e3d ae9a 24bd 61b7 07be
000002a0: 3b49 0ebe 2201 84bd f33e 19be 186e b93b
000002b0: e204 9cbd 4a11 1bbe d910 b5bd a5e3 f2bd
000002c0: f0d1 3bbd 5b33 aabd c738 34bd af93 87bd
000002d0: e1af 1abd f451 0cbd 62d1 6dbd 69e7 1abd
000002e0: a791 8b3d 4949 6bbd 2740 15bb 5ce7 4ebc
000002f0: 6c39 403c a13f 51bd be07 ccbd 69c9 a5bd
00000300: 6e39 993c 0be8 64bd 363f d83d 3c80 1ebd
00000310: fb21 35be 49d2 2ebd 22d3 e43c a7d5 48bc
00000320: 0003 2fbd ccdf 90bc 2f86 2cba af2c f7bd
00000330: 3ac1 f13d f1d4 a4bd 3974 cfbd c6e2 103d
00000340: bc6e a8bb 2b08 a9bd d6c5 e7bd 2f79 8fbb
00000350: 0c19 c6bd d202 78bd 6c66 97bd c336 123d
00000360: bd84 ee3c 8c4e 46bd 5b78 3ebb abe5 e23c
00000370: 8cc1 8c3d bf77 f53c 249f e2bd 45f9 c9bd
00000380: dbf9 a03c dff7 f7bd e18c 25bd 5089 c5bd
00000390: 36d1 bfbd a665 24bb 173d 9fbb 85f9 9bbd
000003a0: 643a bcbd 0300 b33c 5a04 b1bd d6ab a4bd
000003b0: a065 13be 4dfc d2bd ad25 16be 009a bebc
000003c0: 1902 e3bd 8589 e13c c67a f7bd 0e66 f2bd
000003d0: 10fd 3d3d cdc1 f8bd 6e77 363d ae1b 22bd
000003e0: 5f9c 0cbd 9e5a c9bd e836 473c a6f7 883d
000003f0: 6c68 0cbe 9074 6abd 22dc 88bd fb5c 83bd

gc2.fc.bias f4 [128]
-0.032656312 -0.105575435 0.027805705 -0.11588036 -0.045197777 -0.098743476 -0.09449442 -0.08000365
0.019927138 -0.1389136 -0.08357569 -0.02863411 0.010004356 -0.10941171 0.0380627 -0.01164799
0.03220041 -0.2153584 -0.020966856 -0.013476036 -0.019857092 -0.04860205 0.006244709 -0.03818299
-0.072179385 -0.047177322 0.011034285 -0.06630297 0.00049366575 -0.05897542 -0.18333529 -0.07310242
-0.123253815 -0.024189038 -0.04183629 -0.11232134 -0.028125603 -0.08413542 -0.014942855 -0.09103946
0.0013144866 -0.048094526 0.082436614 -0.0070168255 -0.11275374 -0.15611753 0.024101738 -0.0069321916
-0.04616947 -0.09823894 -0.030132594 -0.006846442 0.014549412 -0.14568503 -0.13085844 -0.035997175
0.0030767978 -0.03720133 -0.16976672 -0.1064794 -0.09102347 -0.06758882 -0.093635894 -0.069288634
-0.11098284 -0.04531485 -0.12037545 -0.00478377 -0.12102266 -0.109813 0.0603029 -0.08187165
-0.046955597 -0.031676166 -0.15936032 0.020706885 -0.029494429 -0.15169875 -0.016628942 -0.054646503
-0.21204841 -0.083037145 -0.009182548 -0.16236314 0.016641123 -0.026762452 -0.022866897 -0.0132042775
0.06556004 0.063433796 -0.18027477 -0.040000502 -0.0065956586 -0.2360408 -0.10584406 -0.089154005
-0.14016117 -0.051024612 0.00836534 -0.1149894 0.06209507 -0.12848397 -0.09358329 -0.102253124
0.04226707 -0.10229972 0.012401762 -0.0651949 0.061517425 -0.076680996 0.070095904 -0.033517398
-0.084691495 -0.027773893 0.026411442 -0.044795137 -0.054468695 -0.06958209 -0.07640911 -0.1348561
-0.046083424 -0.055943206 -0.0051017595 0.033131447 -0.08118019 -0.054313507 0.008786287 -0.09637689
00000000: a0c2 05bd ef37 d8bd cac8 e33c af52 edbd
00000010: 4e21 39bd 053a cabd 4a86 c1bd f4d8 a3bd
00000020: 3d3e a33c 5e3f 0ebe bb29 abbd 1592 eabc
00000030: 4fe9 233c 3f13 e0bd a2e7 1b3d 36d7 3ebc
00000040: 94e4 033d ea86 5cbe afc2 abbc 97ca 5cbc
00000050: 57ab a2bc f112 47bd 6aa0 cc3b c465 1cbd
00000060: c9d2 93bd 023d 41bd 25c9 343c dac9 87bd
00000070: 5969 013a 3690 71bd 3fbc 3bbe b9b6 95bd
00000080: 7f6c fcbd 1728 c6bc 885c 2bbd bb08 e6bd
00000090: aa67 e6bc 314f acbd e0d2 74bc e572 babd
000000a0: da4a ac3a c4fe 44bd 87d4 a83d 66ed e5bb
000000b0: 6feb e6bd 46dd 1fbe 0271 c53c 7027 e3bb
000000c0: 331c 3dbd 7f31 c9bd a1d8 f6bc 1e58 e0bb
000000d0: a860 6e3c 752e 15be c1ff 05be c671 13bd
000000e0: 1aa4 493b 6c60 18bd 54d7 2dbe df11 dabd
000000f0: 836a babd 026c 8abd 2dc4 bfbd 33e7 8dbd
00000100: f94a e3bd 109c 39bd 6787 f6bd 2cc1 9cbb
00000110: bada f7bd a3e5 e0bd 2c00 773d 53ac a7bd
00000120: 8354 40bd debe 01bd 5a2f 23be 7ca1 a93c
00000130: 4d9e f1bc eb56 1bbe 6b39 88bc 03d5 5fbd
00000140: 3823 59be 610f aabd 6672 16bc 8642 26be
00000150: f752 883c ee3c dbbc 5c53 bbbc c156 58bc
00000160: 5844 863d 94e9 813d f399 38be 91d7 23bd
00000170: 6520 d8bb aeb4 71be c5c4 d8bd 6096 b6bd
00000180: 6986 0fbe 2fff 50bd c70e 093c 907f ebbd
00000190: 6657 7e3d 4d91 03be 99a8 bfbd 166a d1bd
000001a0: 3c20 2d3d 8482 d1bd c330 4b3c e784 85bd
000001b0: b2f9 7b3d ed0a 9dbd 718e 8f3d 8a49 09bd
000001c0: bc72 adbd 1386 e3bc cf5c d83c 1b7b 37bd
000001d0: 911a 5fbd 0e81 8ebd 617c 9cbd b817 0abe
000001e0: f9c1 3cbd b424 65bd a92c a7bb d7b4 073d
000001f0: cd41 a6bd d777 5ebd 5cf4 0f3c 3f61 c5bd

temporal_conv.weight f4 [128, 128, 3]
-0.10201148 -0.00057097693 0.0495452 -0.05585795 -0.11833119 0.02765834 -0.04135074 -0.0449106
-0.042040303 -0.029702866 -0.033834226 0.0067520584 -0.0860575 -0.026884668 -0.04550988 -0.06886573
-0.08385569 0.01275891 -0.068998925 -0.026989995 -0.033512216 -0.11248276 -0.09084926 0.026638942
0.1204043 0.054812692 -0.020265628 -0.08017388 -0.11482715 -0.028924027 -0.11441617 -0.05107667
-0.028603671 0.03408219 -0.0027395957 0.009165071 -0.057817638 -0.12286572 0.013162687 -0.07061812
-0.084320426 -0.026251687 0.038355947 -0.0036809107 -0.048307803 -0.037806075 -0.021785494 -0.016578313
-0.02606202 -0.038519014 0.030906752 -0.056627713 -0.15400667 -0.035172686 0.11094231 -0.020920942
0.03838038 0.025153976 0.0136140045 0.0383463 -0.029872578 -0.08027154 0.005696946 -0.10869296
-0.04082347 0.036002558 -0.074883796 -0.028362319 0.018667782 -0.087086014 -0.108402394 -0.0060803927
-0.016428739 -0.019820783 0.03274991 -0.077356055 -0.08443609 -0.04120841 -0.08499139 -0.060935654
0.016406842 -0.13594572 -0.12065575 -0.013509111 -0.0049981223 -0.073040605 -0.009218757 -0.07739302
-0.045491453 -0.009900782 -0.08901197 -0.070628725 0.00819953 -0.006802167 0.022060134 -0.037720628
-0.0018662008 -0.043243468 -0.020036316 -0.035851855 -0.026968848 -0.038121566 0.01143042 -0.004328721
0.046266735 -0.08742235 -0.1366566 0.04931785 -0.047410704 0.014975177 0.023016158 -0.05024758
-0.014440874 0.036314595 -0.07587581 -0.007872881 0.014042093 -0.048081286 -0.10033823 0.045673702
-0.009330745 -0.05575859 -0.04512528 -0.048247356 -0.09850667 -0.013953252 -0.0850095 -0.024109604
-0.020168513 -0.051920466 -0.077844836 -0.009521879 -0.03898674 -0.10128206 0.009899012 -0.03165387
-0.02347157 -0.035435908 -0.04107169 -0.043869596 -0.04809705 -0.020615583 -0.10235699 0.048791163
0.001136977 0.026060482 0.008734119 -0.028749032 -0.081322335 -0.048432007 -0.022365114 -0.08264487
0.031836003 -0.08968326 -0.117570035 0.00750372 -0.05034741 -0.017549649 0.0063674124 0.0063319467
-0.03575749 0.030237604 -0.107877865 -0.13456187 -0.050846525 -0.08664556 -0.05831277 -0.009471539
0.00017479784 0.052042246 0.029066209 -0.05359299 -0.07790546 -0.028144857 0.0032816124 0.017481728
-0.0065528764 0.0818492 0.09287128 0.03998801 -0.063804395 -0.08733903 -0.0008834093 -0.037591007
-0.10518347 0.031795733 0.0031029852 0.06883087 -0.007352116 -0.0992364 -0.049574435 0.028019205
-0.11675461 -0.02075301 0.015437558 0.016914617 -0.044095084 -0.010314482 0.03859361 -0.024583459
0.006980349 0.015404718 0.09168044 0.039500818 0.05139191 -0.073232755 0.019096471 -0.14553559
-0.14599395 -0.0494719 -0.0924951 -0.039702073 0.009707677 -0.021768639 0.019902349 0.03929862
-0.035867937 -0.067237176 -0.021068063 -0.06884991 -0.031010957 -0.021477133 0.10269354 0.05890138
-0.041914858 -0.08314651 -0.14926614 0.01950275 0.0035799723 -0.03754924 -0.013447383 -0.081454776
-0.03714628 0.0019465397 -0.035031058 -0.08703294 0.027327312 -0.091555715 -0.09992981 0.03948611
-0.051987935 -0.07212552 0.024193607 -0.07225689 -0.039216917 -0.04553266 -0.05322414 -0.007995201
0.015047621 0.02573067 0.010361321 0.008302911 -0.12173818 -0.097262315 0.007455132 -0.03546224
00000000: 65eb d0bd 9dad 15ba e8ef 4a3d 4ecb 64bd
00000010: 9f57 f2bd be93 e23c 655f 29bd 2df4 37bd
00000020: 7432 2cbd 6d53 f3bc c295 0abd 5f40 dd3b
00000030: ea3e b0bd 3c3d dcbc 9168 3abd 7a09 8dbd
00000040: 88bc abbd bf0a 513c 4f4f 8dbd 1f1a ddbc
00000050: 1b44 09bd 5c5d e6bd 2d0f babd e939 da3c
00000060: 8896 f63d 4683 603d 1a04 a6bc 3432 a4bd
00000070: 7f2a ebbd 15f2 ecbc 0653 eabd c535 51bd
00000080: 3f52 eabc c499 0b3d ca8a 33bb 1829 163c
00000090: 30d2 6cbd 06a1 fbbd 50a8 573c 3ca0 90bd
000000a0: 30b0 acbd c70d d7bc 201b 1d3d 6f3b 71bb
000000b0: 67de 45bd 8bda 1abd 7e77 b2bc 3ecf 87bc
000000c0: 0480 d5bc 1dc6 1dbd 2830 fd3c 76f2 67bd
000000d0: edb3 1dbe 3c11 10bd b935 e33d 6562 abbc
000000e0: bf34 1d3d b60f ce3c 460d 5f3c 0311 1d3d
000000f0: 56b7 f4bc 6865 a4bd 72ad ba3b 6a9a debd
00000100: 8336 27bd 6b77 133d ad5c 99bd 1858 e8bc
00000110: 2ded 983c 275a b2bd 1302 debd 083e c7bb
00000120: 9095 86bc 325f a2bc c524 063d da6c 9ebd
00000130: d4ec acbd 26ca 28bd f70f aebd aa97 79bd
00000140: a467 863c 5b35 0bbe 5d1a f7bd 5155 5dbc
00000150: 4ac7 a3bb 5096 95bd 450a 17bc 3b80 9ebd
00000160: 3f55 3abd e436 22bc e84b b6bd cba5 90bd
00000170: 5257 063c b6e4 debb 74b7 b43c f280 1abd
00000180: 4f9b f4ba 1020 31bd 3323 a4bc 65d9 12bd
00000190: c6ed dcbc 5c25 1cbd a846 3b3c f2d7 8dbb
000001a0: 3082 3d3d 7d0a b3bd b5ef 0bbe 8401 4a3d
000001b0: ba31 42bd 725a 753c 628c bc3c 68d0 4dbd
000001c0: 6a99 6cbc 9dbe 143d c764 9bbd 42fd 00bc
000001d0: cf10 663c e2f0 44bd 217e cdbd 5914 3b3d
000001e0: fbdf 18bc 1f63 64bd 49d5 38bd 059f 45bd
000001f0: ddbd c9bd 2e9c 64bc 7619 aebd 8181 c5bc
00000200: 7038 a5bc 8eaa 54bd 1d6d 9fbd a801 1cbc
00000210: 8fb0 1fbd f86c cfbd 772f 223c 7da7 01bd
00000220: 7347 c0bc 3e25 11bd ca3a 28bd 9bb0 33bd
00000230: 6a01 45bd 03e2 a8bc 8ba0 d1bd 3ed9 473d
00000240: 9e06 953a cb7c d53c 8d19 0f3c 1783 ebbc
00000250: 538c a6bd a460 46bd 0b37 b7bc b741 a9bd
00000260: 7866 023d dbab b7bd 8fc8 f0bd c4e1 f53b
00000270: 1639 4ebd 48c4 8fbc baa5 d03b 387c cf3b
00000280: 7276 12bd dab4 f73c 12ef dcbd 96ca 09be
00000290: 7244 50bd 3a73 b1bd 5fd9 6ebd 842e 1bbc
000002a0: f049 3739 402a 553d 421c ee3c 5384 5bbd
000002b0: e68c 9fbd 0b90 e6bc 5210 573b d735 8f3c
000002c0: 83b9 d6bb 8ea0 a73d 4c33 be3d 78ca 233d
000002d0: e1ab 82bd cede b2bd 9894 67ba 07f9 19bd
000002e0: 6e6a d7bd 3e3c 023d 745b 4b3b 33f7 8c3d
000002f0: 05ea f0bb 743c cbbd 900e 4bbd 8888 e53c
00000300: 0a1d efbd 3702 aabc d0ed 7c3c 8690 8a3c
00000310: 0c9d 34bd 13fe 28bc 5514 1e3d 4063 c9bc
00000320: 69bb e43b 1264 7c3c f4c2 bb3d 9ccb 213d
00000330: 5380 523d 0efb 95bd 3470 9c3c 4807 15be
00000340: 707f 15be 0ca3 4abd 126e bdbd a49e 22bd
00000350: f30c 1f3c 2554 b2bc 400a a33c 97f7 203d
00000360: 42ea 12bd a5b3 89bd ee96 acbc 2e01 8dbd
00000370: b10a febc d0f0 afbc fe50 d23d 9342 713d
00000380: eaae 2bbd b848 aabd 39d9 18be 3bc4 9f3c
00000390: f89d 6a3b 3bcd 19bd 6a52 5cbc c3d1 a6bd
000003a0: b326 18bd 0923 ff3a ba7c 0fbd 533e b2bd
000003b0: 87dd df3c 9081 bbbd 00a8 ccbd 30bc 213d
000003c0: 4df1 54bd 8bb6 93bd ac31 c63c 6cfb 93bd
000003d0: eba1 20bd 7480 3abd 8e01 5abd 4efe 02bc
000003e0: 4c8a 763c 20c9 d23c 88c2 293c ef08 083c
000003f0: de51 f9bd 7731 c7bd 2e4a f43b db40 11bd

temporal_conv.bias f4 [128]
-0.037042573 -0.10032976 0.011889985 -0.07250742 -0.02784066 0.09581573 0.05634954 0.05089789
0.16965954 -0.035773635 -0.081488684 0.05822194 0.042130522 0.10022089 0.11734321 -0.02634758
0.024702262 0.07664426 -0.09107451 0.11265609 0.13430592 0.02788695 0.078278586 -0.040231477
-0.069455 -0.049479418 0.029253922 -0.043642364 0.032202527 0.0016967279 -0.029897403 0.029291201
0.08227999 -0.08192715 -0.1056715 0.044717494 0.075912625 -0.0030178959 0.0065441336 0.038428914
-0.098308966 0.067839295 -0.039196927 -0.15865362 0.0670567 0.13721077 0.10632172 -0.13302253
0.007210779 0.08204084 -0.061322927 -0.0923924 -0.015884358 -0.031184828 0.02953022 -0.10469377
-0.098330826 0.023628524 -0.03262149 -0.07163995 -0.08530886 -0.054662142 -0.07770895 -0.08003943
-0.051463533 -0.07112245 0.0497828 0.0046727876 0.09056739 0.009040676 -0.05464597 -0.016291827
-0.081732966 -0.024716564 -0.14077704 -0.08408775 -0.121357396 0.087671354 -0.060426787 -0.08215426
0.025832918 -0.047040913 0.005262441 -0.13654329 -0.03987831 -0.030593641 0.105170265 -0.08391166
-0.10618865 0.086551525 0.005474543 0.024857502 -0.10894375 -0.11417976 -0.051138446 0.11887605
-0.1009598 0.06417674 -0.039639585 -0.0766468 0.060924403 0.07384107 0.042027783 0.06857895
-0.013905674 -0.06812455 0.036286715 0.036664914 0.035211366 -0.06966305 0.026909588 -0.09661089
-0.084317446 -0.021897307 -0.049810532 -0.034041934 0.02194026 -0.064626224 -0.10709451 -0.045006145
-0.11171075 0.008953723 -0.009808061 -0.07162154 -0.1328654 0.077456884 -0.05694635 0.087873966
00000000: f4b9 17bd b079 cdbd 36ce 423c c57e 94bd
00000010: 1912 e4bc 0a3b c43d c6ce 663d 4e7a 503d
00000020: 3bbb 2d3e 6087 12bd 8ae3 a6bd 217a 6e3d
00000030: 0e91 2c3d 9c40 cd3d a351 f03d e1d6 d7bc
00000040: 665c ca3c aaf7 9c3d 4685 babd 3cb8 e63d
00000050: 7e87 093e 2c73 e43c 8650 a03d c3c9 24bd
00000060: 6c3e 8ebd eeaa 4abd eca5 ef3c 56c2 32bd
00000070: cce6 033d be64 de3a 66eb f4bc 1af4 ef3c
00000080: 6982 a83d 6cc9 a7bd 4d6a d8bd b129 373d
00000090: 1478 9b3d e4c7 45bb 2c70 d63b a367 1d3d
000000a0: 3656 c9bd 54ef 8a3d f58c 20bd 1876 22be
000000b0: 0655 893d fb80 0c3e 34bf d93d 0f37 08be
000000c0: 6648 ec3b 0705 a83d c02d 7bbd 3a38 bdbd
000000d0: ea1f 82bc 5377 ffbc 5ce9 f13c b069 d6bd
000000e0: ac61 c9bd 9b90 c13c 1d9e 05bd f7b7 92bd
000000f0: 69b6 aebd 69e5 5fbd df25 9fbd b6eb a3bd
00000100: 6dcb 52bd a6a8 91bd 0de9 4b3d 2f1e 993b
00000110: 657b b93d 581f 143c 74d4 5fbd 7076 85bc
00000120: 9d63 a7bd 647a cabc db27 10be 3336 acbd
00000130: 3a8a f8bd 0a8d b33d 1482 77bd 7e40 a8bd
00000140: 8e9f d33c f9ad 40bd 8e70 ac3b 01d2 0bbe
00000150: 7057 23bd 849f fabc 8263 d73d e0d9 abbd
00000160: 6f79 d9bd ed41 b13d cc63 b33b f6a1 cb3c
00000170: e71d dfbd 14d7 e9bd 8c76 51bd 4975 f33d
00000180: 03c4 cebd 186f 833d 1e5d 22bd fff8 9cbd
00000190: de8b 793d fd39 973d 5325 2c3d 1f73 8c3d
000001a0: a0d4 63bc e284 8bbd 61a1 143d f32d 163d
000001b0: cb39 103d 80ab 8ebd 7f71 dc3c eedb c5bd
000001c0: a0ae acbd fb61 b3bc 2106 4cbd 8e6f 0bbd
000001d0: 0fbc b33c c15a 84bd 5e54 dbbd 5d58 38bd
000001e0: 9bc8 e4bd a3b2 123c fdb1 20bc 50ae 92bd
000001f0: de0d 08be b7a1 9e3d 9340 69bd 44f7 b33d

fc.weight f4 [30, 128]
0.03947326 0.13519946 -0.015661335 0.06993301 0.10487192 0.09466991 0.16328797 -0.1271439
0.032926816 -0.002757007 -0.08026896 -0.12902312 -0.024936596 0.15792166 -0.072790466 -0.11871042
-0.035248358 -0.18949206 -0.046711918 0.037659824 0.013070968 -0.053998172 -0.09100715 -0.003642049
-0.0664672 0.039586727 -0.0044235545 -0.022887675 -0.018186336 -0.14147554 -0.050375715 -0.12822647
0.016070172 0.016765554 -0.028287718 0.025380718 0.037494555 -0.02493836 -0.070442095 0.04243671
0.059711415 0.06504585 0.05731485 -0.017457796 -0.06791316 0.10763629 0.108086064 0.051849563
-0.13280123 -0.06109612 0.020285431 0.01670133 -0.043545116 0.08950327 -0.13469662 -0.08868927
0.024784153 -0.103299774 -0.03311617 0.036833405 0.033778984 0.057448164 -0.114862554 -0.040468384
-0.04781941 -0.0068867304 -0.025786672 0.05261164 0.14825948 -0.058292143 -0.035695896 -0.053908087
0.03916552 0.0037481883 -0.03459072 0.004537078 0.0077424487 -0.07749898 -0.088415615 0.0010211543
-0.07279007 -0.062454537 -0.06006941 -0.02686952 0.123493984 0.07692197 0.05556583 -0.07554817
0.06043711 0.010253332 0.014961033 0.024887448 0.085989915 -0.069697455 -0.108098045 0.102192275
0.13145275 0.08090545 0.053959906 0.07333795 0.03609179 -0.09032911 -0.085961156 -0.025424568
-0.12105236 0.098042935 -0.0468221 0.046690095 0.08794085 0.07515828 0.023531735 -0.082756884
0.036927395 0.0023837262 0.05286147 -0.05935012 -0.06322546 -0.015149987 0.06770339 -0.079172604
0.028898248 0.03482221 0.16524738 -0.07810142 0.008072585 0.09939807 -0.112800844 0.08548049
-0.09819641 -0.026277525 0.012367593 0.054527216 -0.0017979108 -0.12345913 -0.019561408 -0.10621863
-0.09964188 0.12301883 0.00746718 -0.07604496 -0.06525796 -0.058858387 -0.042441316 -0.023080425
0.05912655 0.18977146 0.0028745302 -0.07139102 0.015524745 -0.058276176 0.14575009 0.02843079
-0.04078428 0.09730374 0.1063577 0.036202382 0.058028545 -0.052065935 -0.008539806 -0.04132718
-0.08643561 0.004920302 0.03808594 -0.055150542 0.049586143 -0.009429425 -0.020448934 0.06438344
-0.044866327 0.06952291 0.05712615 -0.055802964 0.11628558 -0.11557923 -0.07285566 0.11190069
-0.04230026 0.15909465 0.05388885 0.06270753 0.09427793 -0.017751312 0.1253088 -0.0012708494
0.073537014 -0.08792402 0.038549192 0.042517953 -0.0667997 0.02881127 -0.016942244 -0.10583142
-0.0059879627 0.07366181 0.07257736 0.07279309 -0.042604856 0.088975385 -0.0019836917 0.06642894
0.05860134 -0.065517865 -0.05870313 0.063121505 -0.121590294 0.03207539 -0.067748345 -0.04815539
0.06651152 0.09335263 -0.119058356 -0.057167083 -0.04076898 0.05510795 -0.076715514 -0.028690567
-0.120679945 -0.075024605 -0.028206551 0.028644092 -0.011340706 -0.06343911 -0.044534244 -0.00874734
0.088367 -0.0032469858 0.052171003 -0.0077302377 0.024741963 0.09527747 -0.05178025 0.059636425
-0.09080203 0.0017214435 -0.033396684 -0.08601527 0.0864497 0.022590673 0.021983478 0.044868976
0.062726736 0.091648854 0.030688783 0.05902319 -0.088464856 -0.129911 0.022101177 0.008837809
0.046326865 -0.06325879 -0.06310754 -0.00329513 0.11195381 -0.07206126 0.105916455 0.020383736
00000000: b7ae 213d ba71 0a3e 334c 80bc 0a39 8f3d
00000010: 17c7 d63d 4ce2 c13d f634 273e 0332 02be
00000020: 45de 063d e7ae 34bb 0d64 a4bd a31e 04be
00000030: d547 ccbc 37b6 213e 2b13 95bd 731e f3bd
00000040: 9560 10bd 350a 42be ff54 3fbd 3041 1a3d
00000050: 9d27 563c 302d 5dbd f561 babd 71af 6ebb
00000060: f51f 88bd b125 223d 77f3 90bb ef7e bbbc
00000070: 83fb 94bc f7de 10be c456 4ebd cd4d 03be
00000080: 98a5 833c ea57 893c a5bb e7bc 39eb cf3c
00000090: e493 193d 884b ccbc f243 90bd 1ed2 2d3d
000000a0: f593 743d c236 853d fac2 6a3d a703 8fbc
000000b0: 0e16 8bbd 6a70 dc3d 3a5c dd3d 3560 543d
000000c0: 0cfd 07be ed3f 7abd a22d a63c 3ad1 883c
000000d0: 5d5c 32bd 7e4d b73d e9ed 09be b8a2 b5bd
000000e0: 2308 cb3c d58e d3bd d2a4 07bd a0de 163d
000000f0: d55b 0a3d c44e 6b3d 0f3d ebbd 2dc2 25bd
00000100: 49de 43bd 15aa e1bb 923e d3bc 4e7f 573d
00000110: 55d1 173e bec3 6ebd dc35 12bd bace 5cbd
00000120: 066c 203d 2aa4 753b 00af 0dbd c5ab 943b
00000130: 5eb4 fd3b c9b7 9ebd 3f13 b5bd 41d8 853a
00000140: f612 95bd 54d0 7fbd 570b 76bd 781d dcbc
00000150: 6aea fc3d 4489 9d3d ff98 633d 00b9 9abd
00000160: e78c 773d 97fd 273c 1f1f 753c c3e0 cb3c
00000170: 7b1b b03d 8abd 8ebd 8262 ddbd 2f4a d13d
00000180: 8d9b 063e c2b1 a53d 1005 5d3d 3532 963d
00000190: fcd4 133d 78fe b8bd 670c b0bd 2f47 d0bc
000001a0: 4dea f7bd bcca c83d 88c8 3fbd 1d3e 3f3d
000001b0: 551a b43d 96ec 993d a0c5 c03c 717c a9bd
000001c0: 2e41 173d 4a38 1c3b 4585 583d 1d19 73bd
000001d0: 5a7c 81bd a737 78bc 13a8 8a3d 3f25 a2bd
000001e0: 05bc ec3c bca1 0e3d 9c36 293e a3f3 9fbd
000001f0: e042 043c 3791 cb3d 2104 e7bd 6510 af3d
00000200: 331b c9bd f743 d7bc 72a1 4a3c ee57 5f3d
00000210: e0a7 ebba 24d8 fcbd 3f3f a0bc 2789 d9bd
00000220: 0b11 ccbd 4cf1 fb3d 3faf f43b 76bd 9bbd
00000230: f7a5 85bd 7e15 71bd f2d6 2dbd 2913 bdbc
00000240: ae2e 723d 7353 423e 9d62 3c3b 7535 92bd
00000250: 805b 7e3c 00b3 6ebd 833f 153e b0e7 e83c
00000260: 6b0d 27bd 2f47 c73d 11d2 d93d f348 143d
00000270: 57af 6d3d 1743 55bd 8bea 0bbc b046 29bd
00000280: 2705 b1bd 7c3a a13b 0100 1c3d 89e5 61bd
00000290: d71a 4b3d e07d 1abc 8684 a7bc 77db 833d
000002a0: c1c5 37bd 0762 8e3d 1cfd 693d a691 64bd
000002b0: 2227 ee3d ceb4 ecbd 5935 95bd 302c e53d
000002c0: 0a43 2dbd b5e9 223e 8eba 5c3d ce6c 803d
000002d0: ca14 c13d 336b 91bc f350 003e a192 a6ba
000002e0: 939a 963d 8211 b4bd c2e5 1d3d 4e27 2e3d
000002f0: 48ce 88bd 9d05 ec3c 76ca 8abc 25be d8bd
00000300: ac36 c4bb 01dc 963d 70a3 943d 8b14 953d
00000310: 6e82 2ebd ba38 b63d d300 02bb e50b 883d
00000320: f507 703d 3b2e 86bd b172 70bd d945 813d
00000330: 5504 f9bd 7c61 033d a5bf 8abd 963e 45bd
00000340: 3137 883d aa2f bf3d ded4 f3bd 0828 6abd
00000350: 60fd 26bd e0b8 613d 061d 9dbd 7b08 ebbc
00000360: 0c27 f7bd 80a6 99bd 6d11 e7bc 04a7 ea3c
00000370: 5ece 39bc 5dec 81bd 8a69 36bd 0151 0fbc
00000380: c2f9 b43d 62cb 54bb 43b1 553d ef4d fdbb
00000390: a8af ca3c d620 c33d 8717 54bd 5345 743d
000003a0: 6af6 b9bd 0fa2 e13a f6ca 08bd c628 b0bd
000003b0: 8a0c b13d 1310 b93c b216 b43c 88c8 373d
000003c0: e076 803d 65b2 bb3d 0b67 fb3c 4dc2 713d
000003d0: 102d b5bd 6407 05be 870d b53c 75cc 103c
000003e0: 3dc1 3d3d d38d 81bd 873e 81bd 1cf3 57bb
000003f0: 0a48 e53d db94 93bd baea d83d cbfb a63c

fc.bias f4 [30]
0.095610246 0.025495565 -0.091983445 0.16027167 -0.104080215 -0.06388004 0.14784268 0.15853624
0.16787931 -0.0028048113 -0.014516411 0.051660355 0.030830266 0.09135385 -0.063907444 0.07410659
0.013772918 0.092325576 0.10793056 0.010807103 0.054297496 0.06948376 -0.05368109 -0.12041667
-0.033159003 0.13895081 0.012885775 0.056670725 0.06131941 0.009549224
00000000: 4ecf c33d 13dc d03c d161 bcbd 421e 243e
00000010: 0228 d5bd 8ad3 82bd 1264 173e 5357 223e
00000020: 8ee8 2b3e edd0 37bb 3ed6 6dbc cf99 533d
00000030: c18f fc3c ba17 bb3d e8e1 82bd 32c5 973d
00000040: cea7 613c 3115 bd3d b30a dd3d 4610 313c
00000050: 0d67 5e3d 804d 8e3d b4e0 5bbd 049d f6bd
00000060: bcd1 07bd 1f49 0e3e dc1e 533c 901f 683d
00000070: 102a 7b3d 5974 1c3c

exp_avg f4 [60, 60]
3.953855e-05 3.9059152e-05 4.0433944e-05 4.0857012e-05 4.1032035e-05 4.1053634e-05 4.147365e-05 4.1651238e-05
4.1770338e-05 4.0532064e-05 4.065066e-05 3.982443e-05 3.941404e-05 3.866841e-05 3.8399376e-05 3.7859594e-05
3.638178e-05 3.602009e-05 3.5718815e-05 3.557148e-05 3.422259e-05 3.438757e-05 3.4992307e-05 3.5480563e-05
3.5704623e-05 3.578867e-05 3.5354213e-05 3.528022e-05 3.561854e-05 3.5892328e-05 3.4943703e-05 3.374501e-05
3.2505326e-05 3.1078776e-05 3.0218387e-05 2.8767865e-05 2.7664242e-05 2.6706097e-05 2.5452637e-05 2.5313226e-05
2.5434807e-05 2.6219994e-05 2.661376e-05 2.664378e-05 2.6617727e-05 2.6620844e-05 2.5994232e-05 2.581125e-05
2.613954e-05 2.5970123e-05 2.4528808e-05 2.355625e-05 2.1976686e-05 2.089619e-05 1.9356145e-05 1.7057857e-05
1.559872e-05 1.3171086e-05 1.2424418e-05 1.3671044e-05 3.6283458e-05 3.540747e-05 3.6974187e-05 3.7458038e-05
3.7539776e-05 3.7639482e-05 3.7943184e-05 3.810684e-05 3.8201906e-05 3.7061094e-05 3.7145946e-05 3.6151898e-05
3.5575475e-05 3.4852957e-05 3.4789082e-05 3.4268578e-05 3.2791864e-05 3.222815e-05 3.200721e-05 3.178001e-05
3.0350215e-05 3.0499681e-05 3.1166463e-05 3.159252e-05 3.175439e-05 3.2130818e-05 3.1797223e-05 3.1771582e-05
3.2093893e-05 3.2233816e-05 3.1228705e-05 3.0127709e-05 2.8965476e-05 2.7426524e-05 2.6687465e-05 2.5484871e-05
2.408794e-05 2.328891e-05 2.2157716e-05 2.2115228e-05 2.2006368e-05 2.2931732e-05 2.3138933e-05 2.3257255e-05
2.3301409e-05 2.3264394e-05 2.2470227e-05 2.2256441e-05 2.2554883e-05 2.2271162e-05 2.0767447e-05 1.9972353e-05
1.8351107e-05 1.7231656e-05 1.5621348e-05 1.3359269e-05 1.196971e-05 9.502193e-06 8.779552e-06 1.0052041e-05
3.7846527e-05 3.6996124e-05 3.819417e-05 3.8668477e-05 3.860748e-05 3.866674e-05 3.892669e-05 3.9059018e-05
3.9175535e-05 3.79521e-05 3.8273036e-05 3.7136553e-05 3.6306414e-05 3.5528086e-05 3.5403486e-05 3.493367e-05
3.3421922e-05 3.2951903e-05 3.26241e-05 3.235804e-05 3.1113683e-05 3.1286218e-05 3.1973326e-05 3.2554453e-05
3.2522894e-05 3.2762277e-05 3.2417065e-05 3.245776e-05 3.268803e-05 3.2874486e-05 3.183543e-05 3.0553056e-05
2.9433812e-05 2.7814212e-05 2.7102496e-05 2.5769423e-05 2.4519713e-05 2.3865301e-05 2.2729944e-05 2.282518e-05
2.279847e-05 2.3531886e-05 2.3618195e-05 2.3826475e-05 2.389178e-05 2.3829312e-05 2.2808754e-05 2.2582579e-05
2.2899738e-05 2.2705726e-05 2.114254e-05 2.0305199e-05 1.8641014e-05 1.7507951e-05 1.5898637e-05 1.3645289e-05
1.2336455e-05 9.919138e-06 9.153871e-06 1.0442695e-05 3.750524e-05 3.6912836e-05 3.8341354e-05 3.8743536e-05
3.882209e-05 3.8771923e-05 3.892168e-05 3.8919366e-05 3.8992766e-05 3.7804188e-05 3.8031216e-05 3.7072874e-05
3.634076e-05 3.5541496e-05 3.5393816e-05 3.4774337e-05 3.333129e-05 3.2954875e-05 3.2798114e-05 3.255828e-05
3.118539e-05 3.135925e-05 3.196824e-05 3.25379e-05 3.2651657e-05 3.2680226e-05 3.22584e-05 3.2249904e-05
3.251747e-05 3.2629592e-05 3.160126e-05 3.027273e-05 2.9122872e-05 2.7431894e-05 2.6778982e-05 2.54826e-05
2.4306808e-05 2.359135e-05 2.2320533e-05 2.2230213e-05 2.2413287e-05 2.3201816e-05 2.337617e-05 2.3485218e-05
2.3760816e-05 2.378399e-05 2.2925951e-05 2.2780565e-05 2.2985054e-05 2.2902917e-05 2.1405298e-05 2.0535173e-05
1.8924711e-05 1.7820768e-05 1.6317255e-05 1.4236935e-05 1.2982894e-05 1.072403e-05 1.0066183e-05 1.1256096e-05
3.2363718e-05 3.162099e-05 3.2896354e-05 3.3243687e-05 3.3114626e-05 3.327626e-05 3.3439865e-05 3.3527547e-05
3.3594195e-05 3.246983e-05 3.2731215e-05 3.1696687e-05 3.122173e-05 3.0447382e-05 3.0219906e-05 2.9667073e-05
00000000: 32d6 2538 72d3 2338 9e97 2938 e25d 2b38
00000010: d019 2c38 0131 2c38 fef3 2d38 adb2 2e38
00000020: 8f32 2f38 f900 2a38 5080 2a38 2809 2738
00000030: 8150 2538 e42f 2238 040f 2138 6ecb 1e38
00000040: a498 1838 4714 1738 c9d0 1538 9632 1538
00000050: 3a8a 0f38 5f3b 1038 b4c4 1238 f7d0 1438
00000060: 8cc1 1538 cb1b 1638 4c49 1438 d9f9 1338
00000070: 1e65 1538 188b 1638 8490 1238 6e89 0d38
00000080: 5456 0838 955a 0238 7e7d fd37 8552 f137
00000090: 8210 e837 e806 e037 1f83 d537 bd57 d437
000000a0: d55c d537 02f3 db37 9d40 df37 1581 df37
000000b0: 2249 df37 d44f df37 300e da37 3d85 d837
000000c0: 3c46 db37 6ada d937 37c3 cd37 a99a c537
000000d0: 935a b837 3a4a af37 015f a237 7817 8f37
000000e0: ffd9 8237 62f9 5c37 7872 5037 b05c 6537
000000f0: 112f 1838 7b82 1438 bb14 1b38 431c 1d38
00000100: 0774 1d38 16df 1d38 2f25 1f38 e8d4 1f38
00000110: fc3a 2038 0c72 1b38 28cd 1b38 cea1 1738
00000120: e036 1538 142f 1238 7eea 1138 9bbb 0f38
00000130: ff89 0938 b62c 0738 7b3f 0638 874b 0538
00000140: 9798 fe37 91d9 ff37 bcb8 0238 3682 0438
00000150: 0430 0538 34c4 0638 025e 0538 7a42 0538
00000160: 8e9c 0638 cc32 0738 91fb 0238 c3ba fc37
00000170: e3fa f237 0312 e637 e5de df37 58c8 d537
00000180: 7510 ca37 8e5c c337 55df b937 1784 b937
00000190: 519a b837 855d c037 7b1a c237 9318 c337
000001a0: 6577 c337 e827 c337 727e bc37 58b3 ba37
000001b0: 3e34 bd37 f5d2 ba37 c135 ae37 4d8a a737
000001c0: b4f0 9937 b38c 9037 970a 8337 a021 6037
000001d0: 83d1 4837 9c6b 1f37 e44b 1337 30a5 2837
000001e0: 66bd 1e38 492c 1b38 ae32 2038 f62f 2238
000001f0: 77ee 2138 192e 2238 3745 2338 4dd3 2338
00000200: 6950 2438 c22e 1f38 5c87 2038 12c3 1b38
00000210: b747 1838 fe03 1538 347e 1438 be85 1238
00000220: 842e 0c38 d635 0a38 dcd5 0838 2eb8 0738
00000230: 1080 0238 5239 0338 191b 0638 148b 0838
00000240: 3169 0838 3a6a 0938 8ff7 0738 4123 0838
00000250: 811a 0938 b6e2 0938 0887 0538 1826 0038
00000260: a1e8 f637 9152 e937 2b5a e337 6a2b d837
00000270: afaf cd37 5832 c837 2fac be37 b378 bf37
00000280: 573f bf37 5766 c537 b01f c637 f7de c737
00000290: 356b c837 0fe5 c737 6d55 bf37 b86f bd37
000002a0: d018 c037 2d78 be37 425b b137 1555 aa37
000002b0: 465f 9c37 0ade 9237 105e 8537 12ee 6437
000002c0: acf8 4e37 606a 2637 9493 1937 0933 2f37
000002d0: f24e 1d38 dbd2 1a38 b7d0 2038 8e80 2238
000002e0: e7d4 2238 099f 2238 d63f 2338 5a3d 2338
000002f0: 2a8c 2338 f08f 1e38 b583 1f38 b27e 1b38
00000300: 986c 1838 6412 1538 d273 1438 a9da 1138
00000310: 33cd 0b38 0739 0a38 b590 0938 308f 0838
00000320: 0fcd 0238 bd87 0338 a315 0638 4e79 0838
00000330: 73f3 0838 2012 0938 314d 0738 1244 0738
00000340: 5e63 0838 c2db 0838 988b 0438 31f2 fd37
00000350: e44c f437 8b1d e637 6da3 e037 78c3 d537
00000360: 79e6 cb37 0ae6 c537 fb3c bb37 057b ba37
00000370: 2b04 bc37 85a1 c237 f117 c437 1f02 c537
00000380: f751 c737 bb83 c737 1b51 c037 e418 bf37
00000390: 07d0 c037 a41f c037 878f b337 f342 ac37
000003a0: 82c0 9e37 cf7d 9537 0ae1 8837 2cdb 6e37
000003b0: 1bd1 5937 5ceb 3337 ede1 2837 90d8 3c37
000003c0: 47be 0738 c8a0 0438 31fa 0938 236f 0b38
000003d0: 8fe4 0a38 1d92 0b38 c841 0c38 ee9f 0c38
000003e0: 7ee7 0c38 3730 0838 e048 0938 0ff2 0438
000003f0: 14f4 0238 4169 ff37 c180 fd37 8edd f837
