situation_analysis/best_models/model_window30_horizon10.pth (torch, 905682 bytes, 27 tensors)

adapt_adj f4 [30, 30]
000000 50 23 72 3f 3a bc 5d bd f5 56 5b bd 12 aa 5b bd
       0.9458513 -0.054134585 -0.053549726 -0.05362899
000010 31 26 59 bd 52 f7 57 bd 72 9d 57 bd 62 e8 56 bd
       -0.053014938 -0.052726097 -0.052640386 -0.05246771
000020 c3 5b 53 bd 70 6f 53 bd 1f a8 55 bd 2b 8a 57 bd
       -0.051601183 -0.051619947 -0.052162286 -0.052622
000030 03 7c 59 bd 14 d3 58 bd d6 eb 56 bd 65 10 55 bd
       -0.053096782 -0.052935675 -0.052471004 -0.05201759
000040 ab 73 56 bd bd 97 55 bd b4 7e 54 bd 5e 47 53 bd
       -0.052356403 -0.052146662 -0.051878646 -0.051581733
000050 81 f6 50 bd 14 78 4d bd 66 77 49 bd 71 25 45 bd
       -0.051016334 -0.050163344 -0.049186133 -0.04813141
000060 e0 5a 40 bd 5c 8e 3b bd 7d 52 35 bd 21 a0 2e bd
       -0.046961665 -0.04579006 -0.04426812 -0.04263318
000070 fd ba 25 bd 6e b2 2a bd 24 08 5b bd a3 57 72 3f
       -0.04046153 -0.04167407 -0.05347456 0.94664973
000080 d1 79 58 bd 40 db 58 bd b9 50 56 bd e2 12 55 bd
       -0.05285055 -0.052943468 -0.052323077 -0.05201996
000090 d0 b7 54 bd ab 05 54 bd c4 ad 50 bd df dd 50 bd
       -0.05193311 -0.051763218 -0.050946966 -0.050992843
0000a0 6c 51 53 bd 91 20 55 bd fa 10 57 bd ec 80 56 bd
       -0.05159132 -0.05203301 -0.052506424 -0.052369043
0000b0 35 5e 54 bd b0 5f 52 bd 15 11 54 bd 23 22 53 bd
       -0.051847655 -0.051360786 -0.051774103 -0.051546227
0000c0 77 22 52 bd c5 b7 50 bd cd 0f 4e bd e7 65 4a bd
       -0.0513024 -0.050956506 -0.050308038 -0.049413588
0000d0 6a ae 46 bd c9 58 42 bd 2c 80 3d bd 31 bd 38 bd
       -0.048506178 -0.047447953 -0.046264812 -0.045102302
0000e0 06 7c 32 bd f5 e9 2b bd da 0d 23 bd 71 97 27 bd
       -0.04357531 -0.041971166 -0.03980813 -0.04091591
0000f0 e6 ec 5b bd 82 86 5b bd a4 72 72 3f 48 8c 59 bd
       -0.05369272 -0.053595074 0.9470618 -0.0531123
000100 e3 d6 56 bd 4c b5 55 bd 49 3b 55 bd 84 81 54 bd
       -0.052451026 -0.05217485 -0.05205849 -0.05188133
000110 16 2e 51 bd 11 68 51 bd 22 e0 53 bd 0d bb 55 bd
       -0.05106934 -0.051124636 -0.05172742 -0.05218034
000120 35 45 57 bd 51 c8 56 bd 20 ab 54 bd e0 e2 52 bd
       -0.052556235 -0.05243713 -0.05192101 -0.051485896
000130 55 75 54 bd a8 76 53 bd d4 8d 52 bd 5c 74 51 bd
       -0.05186971 -0.05162683 -0.05140479 -0.05113636
000140 25 8e 4e bd ae d5 4a bd 09 e7 46 bd 0e 48 42 bd
       -0.05042853 -0.049520187 -0.048560176 -0.047431998
000150 b4 58 3d bd 4d 75 38 bd 74 28 32 bd 84 54 2b bd
       -0.046227172 -0.04503374 -0.04349561 -0.041828647
000160 b7 a8 22 bd 3e 1e 27 bd 77 7d 5a bd 7d 2f 5a bd
       -0.03971168 -0.040800326 -0.05334231 -0.053267945
000170 5f 9f 57 bd dc 88 72 3f c7 02 55 bd a5 ad 53 bd
       -0.052642222 0.9474008 -0.0520046 -0.051679272
000180 8a 94 53 bd ab c5 52 bd 2f 56 4f bd 1d b8 4f bd
       -0.05165533 -0.051458042 -0.0506193 -0.050712693
000190 9e 39 52 bd 84 11 54 bd 87 cd 55 bd ff 40 55 bd
       -0.05132448 -0.051774517 -0.05219796 -0.05206394
0001a0 4e 19 53 bd fe 4a 51 bd 1d e2 52 bd 94 ec 51 bd
       -0.051537804 -0.05109691 -0.05148517 -0.05125101
0001b0 f9 23 51 bd d9 f6 4f bd af 41 4d bd 4a 62 49 bd
       -0.051059697 -0.05077252 -0.05011147 -0.049166
0001c0 08 5a 45 bd 99 c0 40 bd 33 b9 3b bd d5 81 36 bd
       -0.048181564 -0.047058675 -0.045830917 -0.04455741
0001d0 1e 15 30 bd 53 59 29 bd ce 95 20 bd c5 3d 25 bd
       -0.04298889 -0.04134495 -0.039205365 -0.04034211
0001e0 eb 40 5a bd 74 cb 59 bd a2 5e 57 bd a6 61 57 bd
       -0.053284567 -0.053172544 -0.052580483 -0.05258336
0001f0 12 b8 72 3f 90 62 53 bd e9 1d 53 bd 94 78 52 bd
       0.9481212 -0.05160767 -0.051542196 -0.051384524
000200 8b 24 4f bd f8 7d 4f bd dc 37 52 bd dd 45 54 bd
       -0.05057196 -0.050657243 -0.051322803 -0.05182444
000210 25 ed 55 bd 48 4d 55 bd f1 6a 53 bd 97 5c 51 bd
       -0.05222811 -0.052075654 -0.05161566 -0.05111369
000220 cb dc 52 bd 70 b9 51 bd 63 e2 50 bd 76 c3 4f bd
       -0.051480096 -0.051202238 -0.05099715 -0.050723515
000230 bc 96 4d bd 98 88 49 bd 4e 99 45 bd d3 be 40 bd
       -0.05019258 -0.04920253 -0.048241906 -0.047056984
000240 7e a5 3b bd e6 87 36 bd 32 28 30 bd d8 53 29 bd
       -0.045812123 -0.044563197 -0.043007083 -0.041339725
000250 cf bc 20 bd 2b 91 25 bd ef ad 58 bd ed 21 58 bd
       -0.039242562 -0.040421646 -0.05290025 -0.05276673
000260 8a d8 55 bd 8d e8 55 bd 28 0e 53 bd d7 e6 72 3f
       -0.05220846 -0.05222373 -0.051527172 0.94883484
000270 30 41 51 bd d6 89 50 bd d5 0f 4d bd fe b4 4d bd
       -0.05108756 -0.0509127 -0.050063927 -0.050221436
000280 c8 82 50 bd ec 2c 52 bd a5 f7 53 bd a6 52 53 bd
       -0.050905973 -0.051312372 -0.051749844 -0.05159249
000290 d1 37 51 bd 37 1d 4f bd 81 af 50 bd f5 79 4f bd
       -0.05107862 -0.05056497 -0.050948624 -0.050653417
0002a0 e7 bf 4e bd 60 af 4d bd fb 31 4b bd 7e 3c 47 bd
       -0.05047598 -0.05021608 -0.049608212 -0.048641674
0002b0 c2 8c 43 bd 5d b7 3e bd cb 83 39 bd 92 4c 34 bd
       -0.04774166 -0.046561588 -0.045291703 -0.044018336
0002c0 5d c1 2d bd 22 02 27 bd 29 30 1e bd 27 17 23 bd
       -0.042420734 -0.04077352 -0.038620148 -0.039817
0002d0 85 8b 58 bd b0 12 58 bd 14 c3 55 bd ac f4 55 bd
       -0.05286743 -0.052752197 -0.052187994 -0.05223529
0002e0 5a 06 53 bd c3 d1 51 bd 4d f0 72 3f 70 7b 50 bd
       -0.05151973 -0.051225435 0.9489792 -0.05089897
0002f0 8f 8e 4c bd f6 21 4d bd 61 d2 4f bd e2 b6 51 bd
       -0.049940642 -0.050081216 -0.050737742 -0.0511998
000300 b8 b4 53 bd 29 37 53 bd 03 4e 51 bd 1d 46 4f bd
       -0.05168602 -0.051566277 -0.05109979 -0.050603975
000310 7e d3 50 bd 85 77 4f bd db b5 4e bd a2 87 4d bd
       -0.050982945 -0.050651092 -0.0504664 -0.050178178
000320 da 3a 4b bd 69 55 47 bd 89 ac 43 bd 92 27 3f bd
       -0.049616672 -0.048665438 -0.047771964 -0.046668597
000330 dc c2 39 bd aa a3 34 bd a4 23 2e bd 4a 3b 27 bd
       -0.045351848 -0.044101395 -0.04251446 -0.040828027
000340 1f 8c 1e bd a8 0a 23 bd f4 89 53 bd 03 6d 53 bd
       -0.03870785 -0.039805084 -0.051645234 -0.051617634
000350 2a 19 51 bd f4 67 51 bd 3b af 4e bd 83 69 4d bd
       -0.05104939 -0.051124528 -0.05046008 -0.050149452
000360 3f 8a 4c bd f6 4e 73 3f 93 1c 47 bd 1a 88 47 bd
       -0.04993653 0.9504236 -0.048611235 -0.04871378
000370 8a 8b 4a bd 10 81 4c bd 62 58 4e bd 43 ff 4d bd
       -0.04944948 -0.04992777 -0.050377257 -0.050292265
000380 75 27 4c bd bb 36 4a bd f0 3b 4c bd 32 f8 4a bd
       -0.049842317 -0.0493686 -0.04986185 -0.049553104
000390 a4 1e 4a bd 2a 29 49 bd 78 82 46 bd a3 ed 42 bd
       -0.049345627 -0.049111523 -0.04846427 -0.04758991
0003a0 be 61 3f bd e3 cd 3a bd 8e b2 35 bd 6a 95 30 bd
       -0.046724074 -0.045606505 -0.044359736 -0.043111242
0003b0 71 23 2a bd be 1c 23 bd 16 48 1a bd 97 f6 1e bd
       -0.041537706 -0.039822333 -0.037666403 -0.038809385
0003c0 83 bd 55 bd 33 94 55 bd db 1d 53 bd 32 3e 53 bd
       -0.052182686 -0.052143287 -0.051542144 -0.051572986
0003d0 4a a5 50 bd 90 88 4f bd d9 6e 4e bd 45 0f 4d bd
       -0.050938882 -0.050667346 -0.05039868 -0.05006339
0003e0 6c 73 73 3f 70 70 49 bd d0 7f 4c bd da 9c 4e bd
       0.95097995 -0.049179494 -0.04992658 -0.050442554
0003f0 f6 a7 50 bd a8 63 50 bd 38 8c 4e bd 58 7b 4c bd
       -0.05094143 -0.05087629 -0.05042669 -0.049922317

gc1.fc.weight f4 [128, 30]
000000 71 d1 4c be 1e c3 e4 bd ee 70 0e be 86 dd 00 3e
       -0.2000177 -0.11170028 -0.13910267 0.12584504
000010 8f 1e 10 bd f6 cc 5f 3d d4 65 38 be 3a 6e 15 be
       -0.035185393 0.054638825 -0.18007594 -0.1459283
000020 ff 76 11 bd 37 90 49 bd 6b d5 27 3d c5 b9 28 be
       -0.035513874 -0.0492098 0.040975016 -0.16477115
000030 0e 3a d0 bb b5 43 b7 3d 79 d1 d0 bd 73 19 f2 3d
       -0.006354577 0.08948461 -0.10196204 0.1182126
000040 a4 43 47 be ea c8 01 be d5 c1 a6 3d 25 0f 19 3d
       -0.19459397 -0.12674299 0.08142439 0.03736796
000050 95 a0 dd bc 38 f9 32 3e e5 ca 7b 3b 3a 9f 04 bd
       -0.02705411 0.17477882 0.0038420495 -0.032378413
000060 9b 3f 3a 3b aa e4 f4 3d 9a ac f1 bd e2 d4 01 be
       0.002841926 0.11957677 -0.11800499 -0.12678865
000070 39 33 96 bb 24 24 30 3d 21 fe 37 3e 7a ce ca bd
       -0.004583743 0.043003216 0.17968036 -0.099026635
000080 02 54 21 3d 4a b6 01 3d 92 e5 1b 3e 5f e8 e2 bd
       0.039386757 0.031667985 0.15224293 -0.110794775
000090 02 5b 24 3e 26 26 95 bc 45 05 93 bd f0 f2 a1 bd
       0.16050342 -0.018206667 -0.071787395 -0.07907665
0000a0 fd 8c a1 bd ae ee c3 3d 18 1c 73 3b d7 c4 a9 bd
       -0.078882195 0.09567009 0.0037095603 -0.08289497
0000b0 be 06 ea bc e1 bd b1 bd ee dc 80 bd 71 7e d2 bd
       -0.028567668 -0.08678795 -0.06292139 -0.10278023
0000c0 22 d2 5a 3e ae 76 29 3d 95 a5 35 3e 62 f9 99 bd
       0.21369222 0.041372947 0.17738946 -0.07518269
0000d0 9e 77 2b 3e 50 33 1e 3d c3 d7 2a bd 0a fd f4 bc
       0.16744849 0.038623154 -0.041709673 -0.029905815
0000e0 ed bc 7a bc 79 97 a1 3d 15 40 81 3d a2 8e 05 3e
       -0.0153038325 0.07890219 0.06311051 0.13042691
0000f0 23 d5 13 3e ce 91 1f be 66 31 af 3d ac 28 eb bd
       0.14436774 -0.15582964 0.08554344 -0.11482367
000100 75 ea 75 bd 47 16 01 3e 58 85 4d 3e 0f 98 17 bd
       -0.06003805 0.12606154 0.20070398 -0.03701025
000110 df dd 10 bb 5c eb 16 3e 62 60 b5 bd fd 17 2f 3e
       -0.0022104902 0.1473822 -0.08856274 0.17098995
000120 63 57 ca bd 23 cf 21 3e 79 40 85 3d ed 8d 03 3e
       -0.09879949 0.15801673 0.06506438 0.12847109
000130 99 ad 2a 3d c5 64 c4 bd fa e4 fd bd c6 60 10 3e
       0.041669462 -0.09589533 -0.123971894 0.14099416
000140 e9 6d 6c 3c 6d 21 e0 bd 28 4d 53 be 16 45 fb bc
       0.0144305015 -0.109438755 -0.20634902 -0.030672591
000150 c9 2a 5d bd 0c 15 2a 3d 86 00 ed 3c 23 0d b3 3a
       -0.05399588 0.041523978 0.028930914 0.0013660531
000160 c7 09 f8 3c 61 e5 b9 bd 0c 9d 18 3e a1 6f 2b be
       0.0302781 -0.09076954 0.14903659 -0.16741802
000170 6a 23 da bc f7 67 a0 3d 83 6f 15 3c 9e f1 5e 3d
       -0.026628215 0.0783233 0.009120825 0.054429643
000180 9c 33 0a be 56 f9 3d 3d a3 26 12 be 17 2c 2a be
       -0.1349625 0.046380363 -0.14272551 -0.16618381
000190 00 86 46 be b1 6c c7 3d f2 67 0a be 7c 5b ef bd
       -0.19387054 0.09737528 -0.13516214 -0.11687371
0001a0 7a ca d5 bc 8a 7a e6 3d a9 59 c0 3c f3 00 06 be
       -0.026097525 0.11253841 0.023480253 -0.130863
0001b0 63 c4 2d be 96 01 2f be a2 35 64 3d f6 84 9e bc
       -0.16969447 -0.17090449 0.05571521 -0.01935051
0001c0 df fc c6 3d 5b f2 b3 bd 24 a0 cf 3d e8 5e 40 bb
       0.097162 -0.0878646 0.10137966 -0.0029353444
0001d0 dc ca 25 3e 4b ce f2 3d 38 f2 a4 3d 3d e6 ab 3d
       0.16190666 0.118557535 0.08054012 0.08393524
0001e0 cb 44 99 3c 14 6e 89 bd ac 48 7c bd 11 26 e6 3d
       0.01870956 -0.06710449 -0.061592743 0.11237729
0001f0 7a a6 d7 bc 52 f4 2b bd e8 e3 41 be 99 90 02 3d
       -0.0263245 -0.04198105 -0.18934596 0.03187618
000200 12 83 25 be 0c 22 05 bb 04 8d 21 bd a5 b5 5e 3d
       -0.1616328 -0.0020314483 -0.039441124 0.05437245
000210 c1 1d 3a 3d ba 26 3d 3e bb 25 0d be f0 86 b1 bc
       0.04543853 0.18471804 -0.13783924 -0.021670789
000220 6b fd 05 3e 9c bf 28 3d 52 0e 64 bd c8 e7 46 3e
       0.13084953 0.041198358 -0.05567772 0.19424355
000230 29 84 8c 3d ca c2 13 be ad 21 46 3d 83 e2 7c 3e
       0.06861145 -0.14429775 0.04837196 0.24695782
000240 84 2a 0b be 49 f2 e2 3c 38 b5 57 3d 5c 7d fb bd
       -0.13590437 0.027703421 0.052663058 -0.1227977
000250 5e ff 0c be a2 bc 52 be 86 12 a9 bd c6 95 af bc
       -0.1376929 -0.2057977 -0.08255486 -0.021433722
000260 20 99 bd bc 27 1a 9a bd f8 c0 00 3e a2 17 ba bd
       -0.023144305 -0.075245194 0.12573612 -0.09086539
000270 17 e2 04 be 19 5d 8c be 2c f3 1c 3e e8 16 11 be
       -0.12976871 -0.27414778 0.15327138 -0.14168894
000280 6d 67 9a 3d 37 69 7d 3c f6 62 8f bd ad 77 ef 3d
       0.07539258 0.01546698 -0.07001297 0.11692748
000290 48 e7 b0 bd 50 7f 17 3d 00 ff 85 bc 40 7a 37 be
       -0.086378634 0.03698665 -0.016356945 -0.17917728
0002a0 ff e4 a9 bc ac 89 1b 3e 9f a3 54 3d 62 48 38 be
       -0.020739077 0.15189236 0.051913854 -0.17996362
0002b0 57 f4 1b 3e 62 96 0b be f5 76 0f 3e d8 a9 84 3c
       0.15229927 -0.13631585 0.14010222 0.016194269
0002c0 0d f6 c8 bc db a4 1c 3d f9 0d bd bd c7 0d 0c be
       -0.024531389 0.038243156 -0.09231181 -0.1367713
0002d0 f7 cc ac 3d ce 46 d6 bd 9e d2 9e 3d 03 21 e0 3d
       0.084375314 -0.10462724 0.07755016 0.109437965
0002e0 e9 29 fd 3b 86 8a 08 be 4e 90 d7 3c c7 ba af 3d
       0.0077259433 -0.13334092 0.026313927 0.08580547
0002f0 f2 19 27 bd 20 3b 1b 3e 79 f2 83 bd 78 48 ff bd
       -0.040796228 0.15159273 -0.06442732 -0.12464994
000300 d8 9b a8 bd 20 10 1e 3e 56 84 2f 3e 50 e7 62 bd
       -0.0823285 0.15435839 0.17140326 -0.055396378
000310 ae 8b d7 3d 00 1c df 3c de f9 07 3e 85 6e 3d 3d
       0.10524689 0.027235031 0.1327891 0.046247978
000320 ff 8e de bd dc 2d c7 bd 39 ab 90 3d 2c 71 f3 3c
       -0.10867118 -0.09725544 0.07063908 0.02971705
000330 9d f9 a0 bd d8 31 1e be f4 07 c1 bd f4 7a ec 3d
       -0.0786011 -0.15448701 -0.09425345 0.11546889
000340 f4 7c 71 3b c3 f4 11 be 2a 47 27 3d 42 85 08 be
       0.003684816 -0.14253525 0.04083935 -0.13332084
000350 8f 5f e3 bd 41 f5 2d 3a c4 d6 00 be d0 e6 1c be
       -0.11102211 0.0006635972 -0.12581927 -0.15322423
000360 d9 49 e9 bd f1 58 f0 bd b8 a2 ea bd 24 42 c8 bb
       -0.113910384 -0.11735714 -0.114568174 -0.0061114
000370 81 bf 48 3d f0 c6 29 be 83 62 15 3e eb f9 1f be
       0.049010757 -0.16579795 0.1458836 -0.1562268
000380 00 fa 2f be f4 a8 e4 3d d5 e7 b5 3d 74 98 8b 3d
       -0.17185211 0.11165038 0.08882109 0.068161875
000390 cf 8c ec bd 47 f2 5f 3d 09 07 9e 3d eb 4d 09 bc
       -0.115502946 0.054674413 0.077161856 -0.0083803935
0003a0 17 b6 c3 3d 75 15 d6 bd a6 03 22 3e f2 2f 39 3e
       0.09556215 -0.10453311 0.15821704 0.18084696
0003b0 a1 ef b1 bd 16 2c 87 3c 8f f5 29 3e e4 fa b9 bd
       -0.08688284 0.016500514 0.1659758 -0.09081057
0003c0 dd 77 8b 3d 01 f1 3c 3e 95 86 a6 bb df 0f 94 bc
       0.068099715 0.1845131 -0.0050819614 -0.018073974
0003d0 9d 57 9d bd 45 2b 0e 3e 2f c7 98 3d c0 ac 03 3e
       -0.076827265 0.13883694 0.07459866 0.12858868
0003e0 a2 d6 19 bd bb f3 15 3d 97 4a 56 3c 12 38 1e be
       -0.037558205 0.036609393 0.013079307 -0.15451077
0003f0 f8 86 33 bd aa 18 06 3e 22 d4 3d 3e 45 74 b8 3d
       -0.043829888 0.13095346 0.18537953 0.09006552

gc1.fc.bias f4 [128]
000000 1e 67 1c 3e 4a 32 bb bd cc a1 01 be 27 27 f9 3d
       0.15273711 -0.09140451 -0.12659377 0.12165671
000010 87 23 8c 3b f8 64 94 3d 7e bc 28 be 44 42 28 be
       0.004276696 0.07245821 -0.16478154 -0.16431528
000020 44 99 07 be 31 61 9b bd c2 c2 27 be db 50 a8 3d
       -0.1324206 -0.07586897 -0.16382888 0.08218547
000030 b4 3b 84 bc 28 5a a2 3d 8d 57 6c 3d bc 23 02 3e
       -0.01614175 0.07927352 0.057700682 0.12708944
000040 82 22 22 be f6 24 c6 bd 98 65 7b 3d 7f f1 90 3d
       -0.15833476 -0.096750185 0.061376184 0.07077312
000050 ea 4a d7 3c 8b d7 47 be 83 8a cc 3d 56 f7 f5 bd
       0.026280839 -0.19515817 0.099873565 -0.12010066
000060 dd b6 22 be 8c 62 d1 3c 8b 4d c7 3d 76 b8 22 bd
       -0.1589007 0.025559686 0.09731587 -0.039726697
000070 5c 0b 0d be 9a 6f ab bd 0b a6 31 be 18 26 88 3d
       -0.13773865 -0.08370896 -0.17348497 0.06647891
000080 6f 78 86 bc 1c 6c ae 3d 04 58 10 be 48 ed 1e 3d
       -0.01641485 0.08516714 -0.14096075 0.038800508
000090 57 f0 cb 3d 9a f1 48 be 22 9e 8e 3d 75 13 29 bd
       0.099579506 -0.19623414 0.06963755 -0.04127832
0000a0 2d e3 4a be d6 1e c8 3b 17 fc 1f 3d 2a 22 77 3d
       -0.19813223 0.0061071916 0.03905877 0.060335316
0000b0 6f f1 0b be ee e0 2c bd af 7d e4 bc 6e 00 8b 3d
       -0.13666318 -0.042206697 -0.027891962 0.06787191
0000c0 8d 8f d8 bd 69 fd bb 3d e8 9a 40 be f0 a1 27 bd
       -0.10574255 0.091791935 -0.18809092 -0.04092592
0000d0 90 28 a1 3d 3f a7 4f bc e0 15 ca 3d d3 5e 34 3c
       0.07869065 -0.012674152 0.098674536 0.011008936
0000e0 19 89 54 3d fc f0 99 bd 9d c1 81 3d 80 02 da bd
       0.05188856 -0.07516667 0.06335757 -0.10645008
0000f0 e4 34 91 bd fb c7 d5 bd 08 97 83 bd 48 66 b0 bd
       -0.07090166 -0.10438534 -0.06425291 -0.086132586
000100 b6 d5 41 3d bb ba 3f be 11 e6 3a 3c c7 d4 02 3e
       0.04732295 -0.18723576 0.011407391 0.1277648
000110 c2 30 eb bd 76 8d 54 3c 1f f3 a6 3d b3 fd f8 bd
       -0.11483909 0.01297318 0.081518404 -0.12157764
000120 30 41 7f bc f1 79 33 bc cc 91 80 be 02 d9 ec 3b
       -0.015579507 -0.010954366 -0.25111234 0.007228018
000130 f2 ce 3f 3c 3f d2 9d bc df a7 17 3d e6 90 fd 3d
       0.011707054 -0.019265292 0.03702533 0.12381153
000140 f6 fc 52 3d 68 42 24 3e a1 40 19 be b6 a6 f0 bc
       0.051510774 0.16040957 -0.1496606 -0.029376369
000150 ea 01 de bd be 60 e3 bd e6 5a 04 3d 79 42 f3 bd
       -0.10840209 -0.111024365 0.03231325 -0.11877913
000160 a2 81 04 be 74 d8 95 be 6f d1 9a 3d ff ff 56 be
       -0.12940076 -0.29266703 0.075594775 -0.20996092
000170 7e 1a 07 be 57 8c 1c be 24 cc 37 be f9 c3 3d be
       -0.131937 -0.1528791 -0.17948967 -0.18531789
000180 bb cd 22 be b7 08 9e bd 8c a0 eb bd c8 7c 7d bc
       -0.15898792 -0.07716506 -0.11505231 -0.015471645
000190 3d d9 9b 3d d9 1f 8a 3d 6d 70 0e be 09 fa b7 3d
       0.07609794 0.06744356 -0.13910075 0.08983237
0001a0 8d 34 ca bd 25 c7 5f be a3 f0 94 bd da 87 19 bd
       -0.098733045 -0.21853311 -0.0727246 -0.037483074
0001b0 40 a7 81 be 8c ba 93 3d 80 b1 19 3e 84 06 9f bd
       -0.25322914 0.07213315 0.15009117 -0.07764915
0001c0 f3 6f 97 bc be fa 07 be 69 79 1f 3d af 90 07 3e
       -0.018485999 -0.13279244 0.038934145 0.13238786
0001d0 77 f6 e1 bb 13 4e 67 3d 9a 74 96 bd e5 3d 83 3d
       -0.006895836 0.05647094 -0.07346459 0.0640829
0001e0 e9 a2 22 3d a4 aa 04 be b5 43 13 3e 96 3a 46 be
       0.039706144 -0.12955719 0.14381297 -0.19358286
0001f0 f9 57 8b bd 84 fb 0c be a8 70 8e bd 72 0b 60 3b
       -0.06803889 -0.1376782 -0.06955081 0.003418651

gc2.fc.weight f4 [128, 128]
000000 71 ed e4 3c f2 c6 02 b8 ac 32 04 bd 74 aa ce bc
       0.027945252 -3.1179698e-05 -0.032274887 -0.025227763
000010 0c 92 9b bd ae cc f3 3c df 07 13 be d5 87 af 3d
       -0.075962156 0.029760685 -0.14358471 0.0857083
000020 e9 eb f2 bd 33 62 44 bb 91 84 eb bd ac 11 1d be
       -0.118614025 -0.0029965758 -0.114998944 -0.15338773
000030 3f dc d2 bd 92 4c cb bd 6e 2e cd bd 7b b6 65 bd
       -0.10295915 -0.09926714 -0.100186214 -0.05608223
000040 af 39 3c bd a2 5f 92 bd cd 05 94 3d fa 24 a1 bd
       -0.04595345 -0.07147147 0.07227669 -0.07868381
000050 2b 34 f1 bd 68 3c 1a bd ce d7 04 bc f4 6c 25 3c
       -0.117775284 -0.037655264 -0.0081080925 0.010096777
000060 cb 91 df bd 6f ae 39 bd e0 43 56 bd 97 62 c4 bd
       -0.1091648 -0.04533237 -0.052310824 -0.09589117
000070 c1 42 00 be 78 74 11 be a6 91 8a bb 73 ff f0 bd
       -0.12525465 -0.14204586 -0.0042287884 -0.11767473
000080 e2 5f ce bc 41 da c8 bd c0 e1 ef bd 9c 5e ca bd
       -0.025192205 -0.09807254 -0.1171298 -0.098813266
000090 78 a7 b4 bc 48 c4 11 3d 62 f2 46 3b a8 ad 66 3d
       -0.022052512 0.03558758 0.0030356874 0.056317955
0000a0 a3 6d f1 bb da 17 35 bc 91 b1 a0 bc 52 77 a1 bd
       -0.007367806 -0.01105305 -0.01961592 -0.07884087
0000b0 d3 e8 58 bd f6 38 ec bd f1 05 1c bd f1 4b 01 bd
       -0.052956413 -0.11534302 -0.038091604 -0.031566564
0000c0 3d c9 b5 bd a6 47 e3 bd c8 e4 ec bc ec 92 21 3b
       -0.08876274 -0.1109765 -0.028917685 0.0024654223
0000d0 29 1a 43 bd 8e 7a 66 3d 9e 9c 4a bd fc 28 8b 3c
       -0.04763237 0.05626922 -0.049465768 0.016987316
0000e0 d8 33 63 bd d4 18 21 bd b8 37 ff 3c 52 fa fa 3c
       -0.055469364 -0.03933032 0.031154498 0.03063694
0000f0 b7 b7 a0 bd e2 a1 81 3d 2a 11 82 bd bc 16 a3 bd
       -0.07847541 0.06329705 -0.0635093 -0.079633206
000100 f8 d7 31 bd 36 ad 37 bd 61 82 f6 bd bc df 85 bc
       -0.043418854 -0.04484292 -0.120365866 -0.016342036
000110 33 9c c9 bb 06 c4 86 bc 8e 53 97 bd 82 24 e7 bc
       -0.0061526536 -0.016450893 -0.07388984 -0.02821565
000120 26 fa 0d bd 2a a2 04 3d 2a 29 78 bc b8 85 42 bd
       -0.03466239 0.032381214 -0.015146533 -0.047490805
000130 37 d8 3f bc 40 d0 07 be 6e a5 1f bd 07 17 35 3c
       -0.0117092645 -0.13263035 -0.038976125 0.011052853
000140 5a 6f c3 bc aa 33 cc bc 0c f4 2b 3d b2 96 d7 bd
       -0.023856808 -0.02492698 0.041980788 -0.1052679
000150 3b 29 e3 bb 79 14 08 bd c4 6f a3 bd 44 a4 b5 bd
       -0.0069324053 -0.03322265 -0.07980302 -0.08869222
000160 c5 6d 21 bd b5 e9 c5 bd fd 48 08 bc 04 e2 e7 bd
       -0.039411325 -0.09663717 -0.008318183 -0.11322406
000170 55 ba 82 bd ab d1 98 bd bf 1b 37 bd a5 1c 55 3d
       -0.06383196 -0.07461866 -0.044704195 0.05202927
000180 9d 83 32 bd 2b 21 15 bd c3 32 f7 bd c2 da d0 3c
       -0.043582547 -0.036408585 -0.12070229 0.025494937
000190 64 21 14 3d d8 19 19 bc 84 6a c3 3c 48 d8 9c 3d
       0.036164656 -0.009344541 0.023854502 0.0765844
0001a0 2b 80 c3 3c 59 42 11 3d d8 9e 45 3d 20 41 83 bd
       0.023864826 0.035463665 0.04824719 -0.06408906
0001b0 2f 9d 34 bd 73 7e 06 bd a2 9a 90 bd cb be 21 3c
       -0.044095214 -0.032835435 -0.07060744 0.009872149
0001c0 a0 e8 d6 bb 66 eb 19 bc bd 64 14 be 04 ae 27 3c
       -0.006558493 -0.009394502 -0.14491554 0.01023436
0001d0 bd a7 6b be 99 c9 ca bd 98 4d 3d bd c9 8e 26 be
       -0.23013206 -0.09901733 -0.046216577 -0.16265406
0001e0 eb eb 79 bd e0 af 32 3c b7 eb 23 3d 93 40 0a bc
       -0.061016005 0.01090619 0.040019717 -0.008438247
0001f0 88 f6 42 3c d8 46 2a bc c0 3c 0e bd 0b 88 e6 bd
       0.011899598 -0.010392867 -0.034725904 -0.11256417
000200 8b df 5f 3d 42 1c b7 39 e8 3c da 3c 20 1c 67 3c
       0.054656547 0.00034925534 0.02664037 0.014105827
000210 8a 45 10 bd 40 8f 96 3d 55 6e 70 bd 38 98 09 3d
       -0.035222568 0.073515415 -0.05869897 0.033592433
000220 9e c3 d8 bc 4f 93 a7 3c c5 51 9d 3d c2 d4 1f bd
       -0.026460465 0.020455984 0.07681612 -0.03902126
000230 5c 94 1b bd a9 a4 fa 3c c5 1d ba 3a 26 d3 09 3c
       -0.037983283 0.030596094 0.0014199546 0.008412158
000240 c1 18 67 bd d3 05 71 bb 87 d0 71 bd 06 2d 68 bb
       -0.05642009 -0.0036777153 -0.059036758 -0.0035427227
000250 07 3c 82 bd 24 49 2c bd 3e 1b b8 bd 8d df 55 3b
       -0.063591056 -0.04206194 -0.08989571 0.0032634467
000260 0b 14 8a bd 54 46 ac bd 27 0f c7 3d 95 e7 d5 bc
       -0.06742104 -0.084118515 0.09719687 -0.026111403
000270 99 ec 9a 3d 27 a6 94 3d 8b 18 7f bd 82 84 90 bd
       0.07564659 0.072582535 -0.062279265 -0.07056524
000280 a5 7b 14 3d ef 56 1c 3d 8e ef 21 3d 79 21 0d bd
       0.03625073 0.038168844 0.039535098 -0.03445575
000290 d6 df d5 bd 3f 61 e2 bc 76 47 f1 3b 82 64 8a bd
       -0.10443084 -0.027634261 0.007363255 -0.067574516
0002a0 9b 54 0c bd 54 db 94 3c e3 be 38 3d 8d e2 f4 3c
       -0.034260374 0.01817099 0.04510392 0.029893184
0002b0 5f 4c 01 3d c2 7a cf 3c ce fc 39 3d 8b b5 6c 3d
       0.031566974 0.02532709 0.04540711 0.05779032
0002c0 ad 89 b9 3c 5c 19 84 bd 94 33 f2 bc 8f 44 4c 3d
       0.022648657 -0.064501494 -0.02956561 0.04987007
0002d0 61 fa 62 bd 37 b0 05 3d 62 b7 b2 3c 21 01 c7 bd
       -0.05541456 0.032638755 0.02181596 -0.09717012
0002e0 9a 9c c3 bd 40 23 17 bd 59 67 ab bc 04 51 6a 3d
       -0.09551354 -0.03689885 -0.020923303 0.05720617
0002f0 6e cf d8 3c 5a 22 ba bb c6 1f 3b 3d d0 52 ce bd
       0.026466098 -0.0056803646 0.0456846 -0.10074389
000300 50 f0 c9 3c da b8 9e bd b4 39 44 bd d3 d2 51 3d
       0.024650723 -0.077501014 -0.047906592 0.05122645
000310 05 e6 93 bd 58 d1 52 bd dc 29 c3 3d 33 15 bf 3a
       -0.07221607 -0.051469177 0.095294684 0.0014578461
000320 64 98 e1 bc 66 39 4a 3d 90 e3 f8 3c b5 fb dc bd
       -0.027538486 0.049371146 0.030381948 -0.10790197
000330 50 b7 f4 3a 0a 2a 7f bd 9f b0 8f 3c 4f 05 c6 3b
       0.0018670354 -0.06229595 0.017540274 0.0060431133
000340 e5 62 88 3d a4 ad 5c bd 34 11 55 bd c6 a8 1e bd
       0.06659488 -0.053876534 -0.05201836 -0.038735174
000350 d7 6b c3 3c c2 c7 f3 3c 6d 4c 43 bc 96 dc a7 bd
       0.023855133 0.029758338 -0.011920077 -0.0819637
000360 90 ff 77 3d 8e b9 45 bb 7f 4b 48 3d 25 45 39 bd
       0.060546458 -0.0030170414 0.048900124 -0.045231957
000370 40 8e ef bc 11 07 c7 3b 67 30 b0 bd 55 5f b1 3b
       -0.029242635 0.0060738404 -0.08602982 0.005412976
000380 57 47 a0 3d 5b b8 d1 bd 93 4e 0b 3d 71 54 e4 3c
       0.07826107 -0.10240241 0.03401048 0.027872296
000390 d5 84 10 bc 67 8f 2c 3d ef f8 29 bc 0b 85 2b 3d
       -0.008820732 0.042128947 -0.010374292 0.041874927
0003a0 91 31 3f 3d d6 69 a6 3c bf 8b 29 bd ea 26 8b bd
       0.04667813 0.020314138 -0.041393038 -0.06794532
0003b0 87 7f ac 3d 80 d8 43 bd e0 45 ea bc 88 c2 db bd
       0.084227614 -0.047813892 -0.028597772 -0.10730463
0003c0 a4 84 77 3d 46 6d fe bc 1d c0 15 3d c9 df 23 3d
       0.06042923 -0.031057965 0.036560167 0.04000834
0003d0 14 42 9a bc 71 9b 7b bd 99 04 09 bc e0 2b 97 bc
       -0.018830337 -0.061427537 -0.008362913 -0.018453538
0003e0 17 ce 90 bd 9b de a4 bd d4 87 91 3c 21 6d 7a bd
       -0.070705585 -0.08050271 0.017764963 -0.06113923
0003f0 9d 85 8b bc 46 d0 19 bd ec d6 9d 3d 5f b9 c6 3d
       -0.017031485 -0.03755214 0.07707009 0.097033255

gc2.fc.bias f4 [128]
000000 d5 a9 c9 3b 51 ae be 3d 7e ed 99 3d 76 50 e7 3c
       0.0061542788 0.09310592 0.07516001 0.028236609
000010 e7 b5 90 bd 25 9c 60 3d a8 d7 7a 3d 9d e7 1a bc
       -0.07065945 0.05483641 0.061240822 -0.009454635
000020 79 7c e5 bb 50 74 94 bc a7 77 ef 3c 08 e1 27 3d
       -0.0070033637 -0.018121868 0.02923186 0.04098609
000030 c0 eb 02 bd a3 8b 49 bd 64 7a 02 bd fa 98 c7 3d
       -0.03196311 -0.049205434 -0.031855002 0.09745975
000040 1f 71 9a 3c 43 8d 93 bd 20 9c fa bd 1a d3 c1 bc
       0.018852768 -0.07204678 -0.1223681 -0.023660231
000050 b6 b5 62 3c 29 62 07 bb 97 3a 74 3d 75 ce 69 3c
       0.013837269 -0.0020657873 0.059626188 0.014270415
000060 07 6f af 3d d4 5b 87 3c 26 c6 cc 3c 1b 73 8f bc
       0.08566099 0.01652328 0.024996828 -0.017510941
000070 3d 09 79 bc 0f de 9e 3d 21 4e aa bd 51 7e 49 bd
       -0.0151999565 0.07757198 -0.08315683 -0.04919273
000080 16 63 2e 3d 49 02 86 3c 25 f1 18 be af eb a1 3d
       0.042574964 0.016358512 -0.1493574 0.07906281
000090 6a 4f e2 bc 53 5a 95 bc 55 87 ce 3d cd 21 93 bd
       -0.027625758 -0.018231547 0.10084406 -0.07184181
0000a0 34 ec 31 3d 2d a5 55 3c 77 ae 43 3c 59 3e 45 3c
       0.04343815 0.013039869 0.011943451 0.012038791
0000b0 a6 a0 d1 39 18 53 7d 3c 3a 67 5b bd a7 c3 36 bd
       0.0003998328 0.015461706 -0.05356524 -0.044620182
0000c0 d1 da d1 bd 89 d6 ba 3d 9d d3 d3 bc ee 8f 8e 3d
       -0.10246814 0.091229506 -0.025857741 0.06961046
0000d0 4c 2e af 3d 43 c6 be 3d 3b 58 92 bd 19 61 2c bd
       0.08553752 0.09315159 -0.07145735 -0.042084787
0000e0 9e 65 7b 3d f6 dc f3 3c 54 bd 85 bd 95 84 8b 3d
       0.061376207 0.029768448 -0.06530252 0.068123974
0000f0 fa 36 12 3d 03 da 94 bd 54 76 7b bd 2d 33 0f 3d
       0.03569696 -0.07268145 -0.061392143 0.034960914
000100 ca fc ac 3d 72 6d ed 3d b9 c4 d7 bd 3c 43 6c 3d
       0.08446653 0.11593141 -0.10535569 0.057681307
000110 49 d0 51 3d ac 7e 22 bd 01 0f 54 3b 8b a9 8f bc
       0.051224027 -0.039671585 0.0032357576 -0.0175369
000120 6b fb 60 3d b2 e1 08 bd b4 14 fd bd 49 b0 bd 3d
       0.05492727 -0.033418365 -0.123574644 0.09262139
000130 b7 f8 df 3d c2 8d e6 3c 60 a2 f3 bc bb 27 3c 3d
       0.109361105 0.028143767 -0.029740512 0.045936327
000140 a6 66 52 bd 5c 4a d2 bb 50 90 eb 3d c1 2e 56 bd
       -0.051367424 -0.0064175557 0.11502135 -0.05229068
000150 2c 29 52 3d 8b c2 f5 bb 79 b9 60 3c 1c 8b a9 3d
       0.051308796 -0.007499998 0.013716095 0.08278486
000160 4f 09 cc bb 15 6c a5 bc 8c f8 54 3d 5d 3c f0 bc
       -0.0062266956 -0.02019314 0.051994845 -0.029325658
000170 4c 2a 2a 3d 14 c5 e3 bc 80 d8 51 3d 92 8d b4 3d
       0.041544244 -0.027803935 0.05123186 0.08816065
000180 7c b7 45 bd e6 4a 7d bc 98 bd af 3c 1f 4c 27 3d
       -0.048270687 -0.015459752 0.02145271 0.04084408
000190 4c 51 28 3d 77 cd fe 3c 52 da 6f bd 4d 89 dc 3d
       0.041093156 0.031103833 -0.058557816 0.107683755
0001a0 cd 17 ce bd 19 bd 51 bc 07 2c 85 bd e7 9d 6d bb
       -0.100631334 -0.012801432 -0.06502538 -0.0036257447
0001b0 70 54 79 3d 20 95 da bc 0c 58 20 3c 95 14 b8 bd
       0.06087154 -0.026682436 0.009786617 -0.08988301
0001c0 0a eb c6 bd 40 0b 30 be 4d 8a 0e bd 6b 8c 27 3d
       -0.09712799 -0.17191792 -0.034799863 0.040905397
0001d0 fb 00 0a be e5 34 4e 3d c3 83 10 3d 73 90 ba bd
       -0.13476937 0.050343413 0.035281908 -0.09109583
0001e0 ce 4f 1b be a4 90 cb bd 99 55 19 3d 8d 68 12 be
       -0.15167162 -0.099396974 0.037435148 -0.14297695
0001f0 a3 b2 a5 bc 67 dc 01 3d b5 f7 32 3b e1 44 3a bd
       -0.020226782 0.031704333 0.002730829 -0.045475844

temporal_conv.weight f4 [128, 128, 3]
000000 a2 44 f9 bd 3d da dd bc e2 58 34 bd 4f 12 a7 bd
       -0.12171294 -0.027081603 -0.044030078 -0.08157789
000010 cf 81 2a be a9 eb 12 3c 1b 34 5b 3d 60 2f 0e bc
       -0.1665108 0.008967319 0.05351649 -0.008678287
000020 18 ff 41 3d e8 cd 70 bd ca 09 54 bd 54 f7 cf bc
       0.047362417 -0.058790118 -0.051767148 -0.02538649
000030 9b 43 a8 3d eb 58 8a 3d aa 26 21 bc fa 52 d1 bd
       0.0821602 0.06755241 -0.009835878 -0.10220905
000040 6c aa 94 bc 35 41 c4 bc f3 62 61 bd 7b 49 9d bd
       -0.01814767 -0.023956874 -0.055026006 -0.07680031
000050 1c 5a 68 3c 29 87 a4 3c 52 71 63 3c b2 ba a5 3c
       0.01418164 0.02008398 0.013881998 0.020230625
000060 e4 02 85 bc 6b 7f 0a bc dd d6 50 bd a7 4b ce 3d
       -0.01623673 -0.00845323 -0.05098616 0.10073023
000070 80 c5 a4 3d 6e a5 8d 3c 5d 9f 9e 3d 5b 6c e9 3d
       0.08045483 0.017290797 0.0774524 0.1139762
000080 93 aa b1 3c 7e 8a c0 bd 93 37 f5 bd db 26 6f bc
       0.021687781 -0.09401415 -0.119734906 -0.014596666
000090 0b 24 b1 bd a9 dc 84 bd ab 55 e9 ba 0a 01 34 bd
       -0.08649453 -0.064874 -0.001780202 -0.043946303
0000a0 14 2c a9 bd 55 06 75 bb 97 44 aa bd d0 22 66 bd
       -0.0826036 -0.0037387807 -0.08313864 -0.056185544
0000b0 24 46 0c 3d c8 9a 06 3b 33 5a 11 3e f0 30 42 bd
       0.03424658 0.0020539034 0.14194565 -0.04740995
0000c0 09 78 f6 bc db 3a 02 3d 55 c7 d4 bc dd 65 95 bc
       -0.030086534 0.03179441 -0.025973955 -0.018237049
0000d0 ea 7c b9 bc ec 19 1c bd 67 65 f3 3b a3 ca a4 3d
       -0.022642571 -0.03811066 0.0074278596 0.080464624
0000e0 1a 4d 1e bc 9f 9c 1f 3d e5 e8 34 3d 7a cd 24 3d
       -0.009661937 0.038967725 0.044167418 0.04023502
0000f0 97 14 94 3d be f0 99 3d d8 b5 3d bd 7d a8 22 be
       0.0723049 0.07516621 -0.046315998 -0.15884586
000100 44 a3 fe bd 8b 28 2c 3d d4 2f f5 3b c2 6b cd 3c
       -0.12433484 0.042030852 0.007482508 0.025075797
000110 7e 33 26 bd ef 93 9e bd 73 11 d5 bd 58 72 14 3d
       -0.04057645 -0.0774306 -0.10403719 0.03624186
000120 a5 59 e8 bd f4 b1 07 be cc 74 12 bd 7c a1 53 3c
       -0.11345223 -0.13251477 -0.035755917 0.012916919
000130 7a 97 6f 3a 11 ef 2b bd e0 b5 0e 3d 85 42 64 3d
       0.0009139698 -0.04197604 0.03484142 0.0557275
000140 56 c5 13 bc b1 87 5d bc af db d1 bd 08 89 68 3b
       -0.0090192165 -0.013521121 -0.102469794 0.0035482068
000150 97 3b 07 3d cd 84 bc 3c 29 c1 81 bc 98 c0 88 bd
       0.033015814 0.023012543 -0.015839176 -0.06677359
000160 5c d7 d6 bd 63 d6 09 bd 39 03 2a bd cb 8d 76 bd
       -0.10490295 -0.03365172 -0.04150698 -0.060193818
000170 f5 a1 8e 3c 27 ba 08 bd 25 0f 15 bd da 8c 32 bd
       0.017411212 -0.033380654 -0.036391396 -0.043591358
000180 d6 d6 f5 3d c2 b1 97 3d ce 1f 3e 3d 3c 5c 1a 3d
       0.12003867 0.074069515 0.04641705 0.037685618
000190 b8 14 35 3d a6 df d0 bc f2 5a 9e bd 6d c2 ac bd
       0.044209212 -0.025497269 -0.0773219 -0.08435521
0001a0 da d8 ea bc 22 44 1a be db 06 0e 3d b2 fe 89 bc
       -0.028667856 -0.15065053 0.034674507 -0.016845081
0001b0 88 bb fc 3d 24 d7 cd 3c 30 c3 70 3b f3 ca 4d be
       0.12340456 0.025127001 0.0036737435 -0.2009695
0001c0 59 9f 76 be 48 49 ed 3c 2a d9 48 be 55 c4 2b be
       -0.24084224 0.028965607 -0.19614092 -0.16774113
0001d0 e4 7d 45 bd ff 53 9f 3d 2a 18 b9 3d 00 ac c9 bc
       -0.04821576 0.07779693 0.09037812 -0.024618149
0001e0 63 52 99 bc ba 43 3f bd 14 71 1d bc 46 96 b3 3d
       -0.018716043 -0.04669545 -0.009609479 0.08768897
0001f0 2a d0 5f bc 09 84 23 bd a7 4d 48 bd ee fe 85 bd
       -0.01366047 -0.03992084 -0.04890218 -0.065427646
000200 c5 d9 ab bc cd 02 dc bd 79 aa 8e bd 49 b9 b1 3c
       -0.020977864 -0.10742722 -0.06966109 0.021694796
000210 89 b8 54 bd bb eb 4f bd 0a c6 1f bc b2 2f c3 bd
       -0.0519338 -0.05076192 -0.009751806 -0.095305815
000220 7c 12 c0 bd a9 e3 c1 bc 39 1c d6 bd 18 2d 21 be
       -0.093785256 -0.023668127 -0.10454602 -0.15739858
000230 09 ef 34 3a 96 1d 76 bd a2 75 2b bd ae c2 08 3d
       0.0006902074 -0.06008681 -0.04186023 0.033388786
000240 17 5a 27 bd 21 ce 75 bd c9 70 4b 3d 80 82 7d bd
       -0.0408574 -0.060011033 0.049668107 -0.061892033
000250 1d b2 f4 bd c1 79 94 ba ef 40 fa bc 04 f5 4d bd
       -0.11948035 -0.0011327789 -0.03054854 -0.050282493
000260 22 9c fe bc ad 0b 40 be 86 a4 f4 bd 9e 4b e3 bc
       -0.03108031 -0.18754454 -0.11945443 -0.027746018
000270 6b 0a bd 3d d9 02 f1 3d 87 01 ef 3c 74 2b 09 3e
       0.09230503 0.11768121 0.029175533 0.13395482
000280 f3 a6 6d 3d 71 86 ed bc 9b 40 bb bc 74 b8 33 bd
       0.058020543 -0.02899477 -0.022857955 -0.04387708
000290 15 81 c9 bb 79 9c 59 3d 79 71 74 3d df 81 1c 3c
       -0.006149421 0.05312774 0.05967853 0.009552448
0002a0 bc 73 78 bd 3e 32 92 bd 79 72 fc bb 40 57 93 bc
       -0.060657248 -0.07138489 -0.007704076 -0.01798594
0002b0 3c 15 2d 3d 23 6b d3 3c e5 67 0b bd 37 2a f2 bc
       0.04225658 0.025807923 -0.03403463 -0.029561145
0002c0 83 2e 4c 3d 76 03 e5 bd 9c 5a 98 bc f0 13 30 3d
       0.049849045 -0.11182301 -0.018597893 0.042987764
0002d0 5d 78 1e be 47 5d ae bd 9c c6 36 3d 0e 93 00 bd
       -0.15475602 -0.08513885 0.044623002 -0.031390242
0002e0 b7 c1 88 bc 2f 20 44 bd 43 71 ce bd fd 89 d8 bc
       -0.016693933 -0.047882255 -0.10080197 -0.026432985
0002f0 5c d3 92 bc 18 3f 48 bc 46 f0 55 bd d9 e7 e8 3b
       -0.01792305 -0.012222074 -0.052231096 0.0071077165
000300 1e 19 20 3d 46 45 64 3d 24 38 e2 bc 3a 25 cf 3c
       0.039086454 0.055730127 -0.02761466 0.025286306
000310 48 cd 17 3d 98 94 50 3d 9d 57 95 bc 22 d7 68 bd
       0.037061006 0.05092296 -0.018230254 -0.05684579
000320 e1 4d 3c 3d 2e b4 ca bd 23 38 3b bd 56 87 ad bc
       0.04597271 -0.09897648 -0.045707833 -0.021182697
000330 55 2e 92 bd e2 10 b8 bd a9 fb ff 3b 69 3f 27 bd
       -0.071377434 -0.08987595 0.0078119827 -0.040831957
000340 74 40 84 bd 64 cd 4c bd 75 a9 8a 3d d9 87 2e 3d
       -0.06457606 -0.050000563 0.067706026 0.042610023
000350 48 92 24 bd 8e fb ae 3c 81 a1 cd 3a 5b 12 18 bd
       -0.040178567 0.021360185 0.0015688391 -0.03712688
000360 3b 3b 9f 3d 6c fb 85 3c d9 b1 cc 3c 33 e2 9d bc
       0.07774969 0.016355239 0.024987148 -0.0192729
000370 3e 83 29 bd 9a ce 51 bc 3b 25 8f 3d d4 ce 66 3c
       -0.041384928 -0.012805605 0.06989523 0.014087398
000380 a9 3e b8 3b dc 32 85 3d e7 f1 24 3d f2 71 32 3d
       0.005622704 0.06503841 0.04026976 0.043565698
000390 14 66 e2 3c d5 f6 7e 3b 37 63 2c 3d 27 9b b9 bd
       0.027636565 0.0038904448 0.042086806 -0.09062796
0003a0 6a a5 c2 bd d3 af 4f bd 9b d3 9b bd 65 ac 54 bd
       -0.095042065 -0.05070479 -0.0760872 -0.05192222
0003b0 08 9d 11 bd 56 95 3c be f7 64 0b be d9 9d c6 bb
       -0.035550147 -0.18416342 -0.13612734 -0.0060612974
0003c0 ce db 35 bd c3 97 81 bd f0 ed 62 bb 63 cf 2e be
       -0.044399075 -0.063277744 -0.0034626685 -0.17071299
0003d0 02 ef 4e be 9b e8 e2 bc 61 3c ac 3d 4f 2b 51 3c
       -0.20208362 -0.027698806 0.08409954 0.012766673
0003e0 bd 0d 69 bc 94 e5 d6 bd 98 f9 dd bd 73 c2 cb bc
       -0.014224467 -0.10493007 -0.10838622 -0.024872994
0003f0 d6 21 4d bd 44 82 3d bd 65 83 04 3c 36 8a fa ba
       -0.050081097 -0.04626681 0.0080879675 -0.0019114676

temporal_conv.bias f4 [128]
000000 ee 63 39 3d 2b ea b4 bd 75 1c a8 3d 90 cc a0 bd
       0.045261316 -0.088337265 0.08208553 -0.07851517
000010 b0 85 a1 bd 30 2e 2e 3c b1 c5 4d bd aa a3 0f bd
       -0.07886827 0.010631129 -0.05023736 -0.03506819
000020 5e c2 d0 bb ff 47 2b be b8 bd d8 bd 97 18 d5 3c
       -0.0063708266 -0.16726683 -0.10583061 0.026012702
000030 19 73 ce 3d a5 9a d5 bd b3 e5 30 3d 4d 6b 70 3d
       0.10080547 -0.10429887 0.04318781 0.05869608
000040 71 7f cd bd 8d dd af 3d d2 3d 8c 3c b7 48 34 3d
       -0.10034073 0.08587179 0.017119322 0.04401466
000050 66 8f 1a bd cf 40 f4 bc 8d 38 46 3d 3b 3b b2 3d
       -0.03773441 -0.02981606 0.048393775 0.087027036
000060 c1 b9 d3 bc ed fa 9a 3c 86 59 ec bd 8f d8 c6 bd
       -0.02584541 0.018918479 -0.11540513 -0.09709274
000070 80 ad e3 bb 24 74 1c 3c 59 f4 8d 3d ba 4a 52 bc
       -0.006948173 0.009549174 0.06931371 -0.012835199
000080 29 ce 97 3c cd 2f 71 ba 70 72 fc 3c 8b 3b bb 3c
       0.018530922 -0.0009200543 0.030816287 0.02285554
000090 bd fb ce bd b6 7a 13 bd 7d 3a c3 3d bd 2f 55 bc
       -0.10106609 -0.0360057 0.0953264 -0.01301187
0000a0 38 ad e9 3c 5e c3 5f 3d 46 05 1f bd cc 4b 38 bd
       0.02852498 0.054629676 -0.03882339 -0.04499416
0000b0 70 51 cd 3d 20 0f 37 bd bf b1 51 3d 49 74 ab 3d
       0.100252986 -0.04469216 0.051194903 0.08371789
0000c0 77 27 ee 3c 8e 0e a8 3d be d0 c6 3d 08 fd 50 3d
       0.029071553 0.08205901 0.09707783 0.05102256
0000d0 91 d4 ac 3d 8c 26 c0 3d cb 81 9d 3d eb e3 e0 3c
       0.08438981 0.09382352 0.07690772 0.02745243
0000e0 54 20 cc 3d fb 62 99 3d 46 5b 42 bd d3 35 ee 3d
       0.099671036 0.07489582 -0.047450326 0.1163136
0000f0 02 26 65 bc 78 39 c1 3d 3e 76 c9 3d 60 bd c2 bd
       -0.013986113 0.094347894 0.09837006 -0.09508777
000100 52 c4 c4 3d 66 f0 cd 3d b0 21 2b bd 8a 32 a0 3d
       0.09607758 0.10055618 -0.041780174 0.078221396
000110 35 9e 2f bd 19 42 dc bd 20 bb 3d 3d f8 2c 2f 3d
       -0.042875487 -0.107547946 0.046321034 0.042767495
000120 ee 3d 70 3d 1a 7b b3 3d 9f 02 e1 3c b0 a3 6f bb
       0.05865281 0.08763714 0.02746707 -0.0036566071
000130 77 bd 89 bd 83 61 cd bd 0b dd 75 3d fe b7 64 bc
       -0.06725591 -0.100283645 0.060025256 -0.013959883
000140 fc 47 7e bc 69 9a c0 3d e0 bf 00 3c ed 24 cd 3d
       -0.015520092 0.094044514 0.007858247 0.10016809
000150 b1 02 3b be 61 96 0f 3c 5e ae 21 3d f2 86 91 3d
       -0.18262745 0.0087638805 0.03947293 0.07105817
000160 45 0a 7f bc d8 97 b4 3b fe d1 a3 3c de b3 a5 ba
       -0.015566413 0.0055112652 0.019997593 -0.0012642106
000170 c1 90 66 bc 07 c3 0c 3d da ce 30 3d d2 94 f1 bc
       -0.014072598 0.03436568 0.04316602 -0.029489908
000180 6c 62 e4 3c d2 30 5b 3d 2d 1c 1e 3c 1c 82 c0 3c
       0.027878962 0.053513356 0.009650272 0.023499541
000190 30 fd f8 3d 5a 09 c6 3c ae 7d aa bd 49 80 0a 3d
       0.12157667 0.024174381 -0.08324753 0.03381375
0001a0 58 1c 63 bd 38 55 8b 3c 9e 3d da 3a b5 c7 0c bc
       -0.055446953 0.017008409 0.0016650443 -0.008592536
0001b0 27 fe c4 bb 55 27 9a bd bd 02 09 be ab 53 a1 3d
       -0.0060117426 -0.07527033 -0.13379951 0.078772865
0001c0 18 58 e1 3c 92 0e 3a bd 4d 68 6d 3d 7f 0b c4 3d
       0.027507827 -0.04542405 0.057960797 0.09572505
0001d0 42 60 09 bc 33 18 15 3d b5 04 e2 bd ef 9b 99 3d
       -0.008384766 0.03640003 -0.11036054 0.07500445
0001e0 62 38 f2 3b 2c 4c 61 3d 65 84 6a 3c a3 3f 5d 3d
       0.0073919753 0.055004284 0.014313792 0.054015767
0001f0 ba 3c c3 bc 1e 03 8a bd 15 c7 9c 3d 70 9d 8b bd
       -0.023832668 -0.06738876 0.076551594 -0.06817138

fc.weight f4 [30, 128]
000000 4c 5c 81 3e 9a db 5c 3d db b5 35 39 94 53 57 ba
       0.2526573 0.053920366 0.00017329252 -0.0008214053
000010 4b 62 af bd 69 99 09 3e 7d 8c 10 3c 25 6e b7 3d
       -0.0856367 0.13437428 0.0088225575 0.08956555
000020 f6 f9 df 3c 39 2d 50 bd 62 b2 1b 3c c8 6e 36 3d
       0.02734087 -0.050824378 0.009502979 0.044539243
000030 51 d5 0b be 1a 22 7b 3c 37 2f d6 3d d1 0c 99 bc
       -0.13655593 0.015327955 0.10458224 -0.01868287
000040 9f c6 81 39 bd a0 d3 bd 2e c2 a1 bd 74 a1 2e bd
       0.00024752782 -0.10333393 -0.07898365 -0.042634442
000050 69 31 92 bd da a2 a2 bc be b5 06 bb ce 0e 2f 3c
       -0.071383305 -0.019853044 -0.0020555104 0.010684682
000060 ea bf 07 be aa 5c bb bb 8a e6 94 ba f1 76 91 3d
       -0.13256803 -0.0057178335 -0.001136021 0.071027644
000070 34 bd ad bd 24 d1 6a 3d a9 fd 20 3e 81 e2 3c bd
       -0.08483353 0.05732836 0.15721764 -0.04611445
000080 e5 73 91 3d ec ec e8 3c 32 9b b2 bc 44 9f 0e bd
       0.07102183 0.028433286 -0.021802519 -0.034819856
000090 31 f1 dd 3c ed 1b 5c bc 69 43 4f bd 3a f5 08 3d
       0.027092548 -0.013434392 -0.050601397 0.03343699
0000a0 ae 4a 83 bc d7 77 b5 bd bb 9d 1e 3d 8d c7 e4 bd
       -0.016026821 -0.08860748 0.038724642 -0.11170874
0000b0 17 33 bd bd 4d 77 d4 3b b0 53 1a 3d aa 52 99 bd
       -0.0923826 0.0064839483 0.037677467 -0.0748647
0000c0 ea ba 35 bd 8c ad a0 3d f0 7b 27 3e 7a 91 a4 bd
       -0.04436771 0.078456014 0.16355872 -0.0803556
0000d0 aa 1e 11 be 63 04 d3 3d fb 14 86 3d 15 35 e1 3c
       -0.14171854 0.10303571 0.065469705 0.027491132
0000e0 63 17 87 3d 23 56 be bd 87 4a 84 3d 9a a2 63 bd
       0.065962575 -0.09293773 0.064595275 -0.05557499
0000f0 e0 9c 8c bd a8 1a 16 3d f4 96 21 bd 3a 2a 4e bc
       -0.06865859 0.036646515 -0.0394506 -0.01258331
000100 6b 64 1b be 30 72 0e be ec 60 28 3d c6 2d 11 be
       -0.15175025 -0.13910747 0.041108057 -0.14177617
000110 7f bd 02 bd c6 94 c5 bd eb bd 75 3d 0d aa 60 3d
       -0.031919 -0.09647517 0.059995573 0.054849673
000120 9b bc 90 bd 91 08 62 3d c2 8d 9b bd 34 e4 8a 3d
       -0.07067224 0.05518395 -0.075953975 0.067818075
000130 2e 6f c6 3d 03 09 52 3c 03 74 a2 3b 46 b1 e3 3d
       0.096891746 0.012819531 0.0049576773 0.111177966
000140 d0 fd 32 3e eb 9d 2a bd b6 92 a6 bc 25 4a 2b 3a
       0.17479634 -0.04165451 -0.02033363 0.0006534181
000150 68 c2 84 bd 5b 1a e2 bd 0e 45 63 3d 74 9a fa 3d
       -0.064823925 -0.11040183 0.055485778 0.12236491
000160 32 0f 80 3c db 7c 29 3d 1e 11 28 3e 19 ef db bc
       0.015632246 0.041378837 0.1641278 -0.02684741
000170 3c bc 65 3d c8 85 2a 3e 97 0b b8 bd 7d 6d a3 3c
       0.056087717 0.16652596 -0.089865856 0.019949669
000180 95 07 35 3c 42 d5 d0 bd a3 ab 4d bd 47 cd e7 bd
       0.011049171 -0.10196926 -0.050212514 -0.113184504
000190 d4 35 18 3e 9c 75 86 bc 2d 7c f9 bd 6b dc c8 3d
       0.14864284 -0.016413502 -0.12181888 0.098076664
0001a0 fd 6b 5c 3d f2 8b 3c be 8f 08 60 3b e7 ce 8d 3d
       0.053813923 -0.1841276 0.0034184789 0.06924229
0001b0 d9 6e 85 3c a7 88 c5 3d bd ad 3d bd 06 09 11 be
       0.016288208 0.09645205 -0.046308268 -0.14163598
0001c0 48 70 05 bd aa fd b5 3c 86 f0 1e 3d aa 3c 81 bd
       -0.032577783 0.022215683 0.0388036 -0.06310399
0001d0 a7 01 50 3d 27 31 d5 3d 94 25 c1 3c 96 26 66 bd
       0.050782826 0.10409766 0.023577489 -0.056189142
0001e0 f0 7e 12 3e af 22 c0 bd b0 f1 81 bd 09 52 01 3d
       0.14306235 -0.09381615 -0.06344926 0.031572375
0001f0 02 15 eb bd 7b 28 d6 3c d4 15 7d bd dd 88 97 bc
       -0.11478616 0.02614235 -0.061788395 -0.018497879
000200 ae fc 87 bd 8a 18 53 bc ea 65 a7 3c cb 66 c5 3d
       -0.06639992 -0.012884269 0.020434339 0.09638747
000210 0d 22 a7 bd e4 39 08 bd 17 77 2b 3e 95 3d 0b bd
       -0.081607915 -0.033258334 0.16744648 -0.033994276
000220 e8 46 00 3e e5 c1 d1 3c 46 b7 89 3d e4 e1 b9 3b
       0.12527049 0.025605151 0.0672441 0.00567268
000230 70 1c 8a bd 05 59 03 be 8b fd 0b be 30 26 0e be
       -0.06743705 -0.12826927 -0.13670938 -0.13881755
000240 a5 29 a5 bd 45 3f 0d be 63 6c 93 3d e7 86 d6 bc
       -0.08064584 -0.13793667 0.071984075 -0.026187373
000250 a1 f5 0d 3e 9d 12 1a 3a 59 ea f9 bd df 7f 3a 3d
       0.13863231 0.00058774074 -0.122029014 0.045532104
000260 ca 09 8d 3c cf 9c 43 3d 24 8e 90 bb b4 34 ef 3c
       0.017216582 0.047756966 -0.0044114757 0.029199935
000270 63 3d 93 3d b0 65 4a 3d 97 04 53 bc 90 cd 06 bd
       0.07189443 0.049413383 -0.012879512 -0.032910883
000280 ae d9 cd 3a 62 a8 b4 bd a2 e9 fa 3d eb 42 0e bd
       0.0015705132 -0.08821179 0.12251593 -0.034731787
000290 fb 2f 0e be 84 74 56 bc 06 b2 26 3d ea ae c9 3c
       -0.1388549 -0.013089303 0.04069712 0.024619538
0002a0 c2 f5 1f 3d 77 49 18 3c 6d 45 fb ba 1a 68 35 3d
       0.039052732 0.009294859 -0.0019170471 0.044288732
0002b0 5b aa 8e bc 0d b9 51 3d 6d 9d ab 3d ce 35 10 bd
       -0.017415216 0.05120187 0.08379636 -0.035207562
0002c0 52 51 1f 3d ae c7 03 3d 5c 23 3a bd 00 12 64 bb
       0.038895912 0.03217285 -0.045443878 -0.0034800768
0002d0 8b 16 23 3e 9c c8 38 3d b7 cc 24 3c ef 5f c8 3a
       0.15926568 0.04511319 0.010058573 0.001528738
0002e0 17 7e 9c bd 18 c5 f7 3d 0d 99 f8 bd a0 eb 83 bd
       -0.07641237 0.120981395 -0.12138567 -0.06441426
0002f0 61 5a b4 bc c6 c1 18 3e 2b 4c 7d 3d 2a 81 5a 3d
       -0.022015752 0.14917669 0.061840218 0.053345837
000300 57 39 7d 3e cc 80 40 3a 62 88 ca 3d 86 f0 ba 3b
       0.24728905 0.0007343411 0.09889294 0.005704942
000310 04 eb cb bd b9 68 87 bd 6e 28 a1 bd b3 e8 e1 bd
       -0.09956935 -0.06611771 -0.078690395 -0.11030712
000320 31 56 9d bb 1b 27 94 3d d4 b7 0e bd 24 4f f2 bb
       -0.0048015346 0.07234021 -0.03484328 -0.007394688
000330 66 9f 8c bc c9 8b cf 3d c1 06 82 bd 82 45 11 3e
       -0.01716585 0.10134084 -0.063489445 0.14186671
000340 7d 80 fa 3b 3b 7a fb bd ac e2 67 bd 6b a9 dc 3b
       0.0076447115 -0.12279173 -0.056612656 0.0067340634
000350 10 3e 30 be 8c 30 c7 bd 43 1f 69 bd 3c 54 68 3b
       -0.17211175 -0.097260565 -0.05691458 0.0035450598
000360 f0 8a 03 bd a7 4e ae 3d 0c 27 f5 bc 43 78 04 3e
       -0.032114923 0.085110955 -0.029925846 0.12936501
000370 c6 77 c8 3d 58 03 95 bd 3f ec b7 3c c7 59 5a 3d
       0.0978847 -0.072760284 0.022451518 0.053308275
000380 f7 f3 1f bc af 4e d0 3d 52 73 d3 bd 2c 6b da bc
       -0.009762756 0.10171258 -0.1032473 -0.026662432
000390 f7 0f 3b bd 2c de 60 bd 24 ca bd 3b f4 6f c1 ba
       -0.045669522 -0.05489938 0.0057919193 -0.0014758096
0003a0 98 03 83 3d 9e ec 16 3e f6 1a 0c 3d c7 cb c2 bd
       0.0639717 0.147387 0.0342054 -0.09511524
0003b0 00 27 30 bc 4f 35 c3 3d 35 1a a4 bd a4 34 16 bb
       -0.010751486 0.09531652 -0.08012811 -0.002291956
0003c0 ab 65 03 bd fc 0e c2 3d 60 5f a7 bb 48 8a 93 bd
       -0.03207938 0.09475514 -0.005107805 -0.072041094
0003d0 6d eb 05 3d a5 13 2b bd 04 ed 39 3d 15 32 17 3d
       0.032695223 -0.04176678 0.04539205 0.036912996
0003e0 d9 14 63 bd 2e 44 c1 3d a3 a3 b9 3d a9 33 97 3d
       -0.055439804 0.09436832 0.09064414 0.073829
0003f0 12 a5 76 3d 18 b5 8d 3c 8a 48 ce bc 41 49 ce bd
       0.060216017 0.017298266 -0.025181074 -0.10072566

fc.bias f4 [30]
000000 54 ff 45 bc 06 61 f1 3c 49 f6 da bb 17 01 b3 bc
       -0.012084801 0.02946521 -0.0066821915 -0.021851106
000010 56 9e 45 bd 64 f7 c4 3d d8 bb 0b bd 22 3b d8 3d
       -0.048246704 0.096174985 -0.03411469 0.10558154
000020 52 ff 02 bd c2 53 92 bd 74 06 1c bd b7 72 56 bd
       -0.031981774 -0.07144882 -0.03809209 -0.052355494
000030 78 2a 23 bd 9f b1 fc 3b 5f 8c df 3c 54 8a bf bc
       -0.039835423 0.007711604 0.027288614 -0.02338139
000040 af d8 a6 bc 12 dc 83 bc 13 22 aa bd 50 89 9c 3c
       -0.020366995 -0.016096149 -0.083072804 0.019108444
000050 3b 26 be bd cf 38 4a bd 36 f6 83 bd 5a 96 37 bd
       -0.09284636 -0.049370583 -0.064434454 -0.04482112
000060 9f b1 a0 bd 02 0b c1 bc c2 09 ab bd f6 41 32 bc
       -0.078463785 -0.02356482 -0.083514705 -0.010879984
000070 f5 9b 2d bd 70 39 53 bc
       -0.04238506 -0.012892112
