situation_analysis/best_models/model_window60_horizon10.pth (torch, 956946 bytes, 27 tensors)

adapt_adj f4 [60, 60]
000000 3d ac 7a 3f 9d 34 ae bc 2d bb b3 bc cb 89 b9 bc
       0.97919065 -0.021265322 -0.021939838 -0.022648713
000010 75 59 bc bc cb 0a bf bc e7 d6 c2 bc 58 e9 c7 bc
       -0.022991875 -0.023320576 -0.023784114 -0.02440326
000020 a5 29 ca bc 82 44 cc bc 71 28 cb bc cf 1e ce bc
       -0.02467806 -0.02493501 -0.024799557 -0.025161175
000030 1c 78 d0 bc b5 c5 ce bc 72 51 d0 bc 2d 57 d0 bc
       -0.025447898 -0.025240758 -0.025429461 -0.025432194
000040 94 df ce bc ce 44 cd bc e3 7d ce bc de ea cc bc
       -0.025253095 -0.025057223 -0.025206512 -0.025014337
000050 c7 9c cc bc 6e a3 c9 bc a5 a5 c4 bc 82 3a bf bc
       -0.024977101 -0.024614062 -0.024004767 -0.023343328
000060 1e 10 bd bc ac a6 ba bc 70 47 ba bc af 74 b7 bc
       -0.023078974 -0.022784553 -0.022739142 -0.022394506
000070 6b 2c b5 bc fe 49 b3 bc e3 e4 b1 bc 29 aa ac bc
       -0.022115907 -0.021885868 -0.021715587 -0.021077232
000080 15 d5 a7 bc 65 f2 a3 bc 35 db a0 bc dd f6 9b bc
       -0.020487348 -0.020013044 -0.019635776 -0.019038612
000090 1a fa 9a bc 42 11 99 bc a8 2e 96 bc 91 fc 92 bc
       -0.018918086 -0.018684987 -0.018332794 -0.017942699
0000a0 24 c7 91 bc 93 49 8d bc 7a f2 8a bc a3 6e 88 bc
       -0.017795153 -0.017246997 -0.016961325 -0.016654318
0000b0 dd d7 82 bc 8b 8c 80 bc 27 cd 74 bc 60 96 67 bc
       -0.015972072 -0.015692016 -0.01494149 -0.014134973
0000c0 1e 39 5e bc 7f 59 5b bc 2d 9b 55 bc ff d9 4e bc
       -0.0135634225 -0.013388037 -0.013037485 -0.0126252165
0000d0 64 ec 4a bc b5 a9 3b bc fd 78 33 bc 74 07 28 bc
       -0.0123854615 -0.0114540355 -0.010954139 -0.010255683
0000e0 12 a5 19 bc ab 86 0b bc 8f b5 00 bc bb 14 08 bc
       -0.009377735 -0.008515994 -0.007855787 -0.008305724
0000f0 21 3a a0 bc 96 f6 7a 3f 67 cb a6 bc 31 1c ad bc
       -0.019558968 0.9803251 -0.020360662 -0.021131607
000100 d5 37 b0 bc 18 07 b3 bc d4 70 b7 bc 6f 90 bc bc
       -0.021510998 -0.021853969 -0.022392668 -0.02301809
000110 44 90 be bc 94 78 c0 bc 21 c5 bf bc ce 80 c2 bc
       -0.02326215 -0.023494996 -0.023409428 -0.02374306
000120 ae 80 c4 bc 87 9c c2 bc 2b 2f c4 bc e9 5e c4 bc
       -0.02398714 -0.023756279 -0.023948273 -0.023971038
000130 a0 d0 c2 bc df 66 c1 bc be 48 c2 bc b9 f2 c0 bc
       -0.02378112 -0.023608623 -0.023716327 -0.02355324
000140 f3 84 c0 bc 6c 25 bd bc be ae b8 bc 24 9c b2 bc
       -0.023500895 -0.023089133 -0.022544261 -0.02180297
000150 26 e2 af bc 73 a8 ad bc 65 72 ad bc d7 c8 ab bc
       -0.02147014 -0.021198487 -0.021172712 -0.020969791
000160 15 24 a9 bc cd 1d a7 bc f6 f5 a5 bc d1 51 a1 bc
       -0.020647088 -0.020399952 -0.020258885 -0.019692333
000170 e3 0f 9c bc e4 4d 98 bc 23 6d 95 bc bd 79 90 bc
       -0.019050544 -0.018591829 -0.018240517 -0.017636174
000180 07 ff 8e bc d5 04 8e bc 57 28 8b bc 56 31 87 bc
       -0.01745559 -0.017336288 -0.016987009 -0.016503017
000190 a5 e1 85 bc 9a ad 81 bc d7 ae 7c bc b6 03 78 bc
       -0.016342947 -0.01582985 -0.015422544 -0.0151376035
0001a0 92 c5 6e bc 24 76 6b bc 8b 4e 5f bc 59 49 51 bc
       -0.014573472 -0.014371429 -0.013629566 -0.012773835
0001b0 d4 da 46 bc 1e f1 43 bc e1 be 3f bc 7f 2b 39 bc
       -0.012137134 -0.011959342 -0.011703224 -0.011301874
0001c0 cf cf 35 bc 03 4a 27 bc 42 8d 20 bc 30 af 14 bc
       -0.011096909 -0.010210517 -0.0097993035 -0.009074971
0001d0 4c 75 07 bc 6d 74 f1 bb a0 e3 dd bb d7 29 ee bb
       -0.008267712 -0.0073686154 -0.00677152 -0.0072681713
0001e0 56 29 b3 bc 13 32 b4 bc a9 4b 7a 3f 62 8a bc bc
       -0.021870296 -0.021996533 0.977717 -0.023015205
0001f0 d5 ba bf bc 5f 56 c2 bc df 2b c6 bc 4f dc ca bc
       -0.023404518 -0.023722826 -0.024190841 -0.024763254
000200 d4 49 cc bc d2 45 ce bc 49 85 cd bc cb 4e d0 bc
       -0.024937548 -0.025179777 -0.02508797 -0.025428196
000210 b9 00 d2 bc 11 74 d0 bc f2 ae d1 bc c3 f8 d1 bc
       -0.02563511 -0.02544597 -0.025596116 -0.025631314
000220 5b c3 d0 bc a5 a7 cf bc 36 d3 d0 bc f5 9a cf bc
       -0.025483778 -0.025348494 -0.025491338 -0.025342444
000230 2d e0 cf bc d9 cd cc bc 96 74 c8 bc 28 3a c3 bc
       -0.02537545 -0.0250005 -0.024469655 -0.023831442
000240 65 98 c0 bc 98 19 be bc 6e 6d be bc d2 cb bc bc
       -0.023510167 -0.023205563 -0.02324554 -0.023046408
000250 3f 81 ba bc 79 29 b8 bc 9c 44 b7 bc a0 bc b2 bc
       -0.022766707 -0.022480713 -0.022371583 -0.021818459
000260 b3 b1 ad bc 26 72 aa bc e4 26 a7 bc 93 2a a3 bc
       -0.021202898 -0.020806383 -0.020404287 -0.019917762
000270 55 ca a1 bc 1b 5f a0 bc da 13 9e bc 2f 61 9a bc
       -0.0197498 -0.0195766 -0.019296575 -0.018845169
000280 ae 87 98 bc 2b 0a 94 bc 72 45 91 bc 4f 99 8e bc
       -0.018619385 -0.018071255 -0.01773331 -0.017407088
000290 f4 2a 8a bc c1 ad 88 bc 56 39 82 bc 62 75 77 bc
       -0.016866185 -0.016684415 -0.01589648 -0.01510367
0002a0 d7 05 6c bc ac cc 68 bc c1 a5 64 bc 32 c9 5e bc
       -0.014405689 -0.014208954 -0.013955534 -0.013597773
0002b0 4e 65 59 bc 9c 82 49 bc 47 80 41 bc 9b b5 34 bc
       -0.013268782 -0.012299206 -0.011810369 -0.011029626
0002c0 f8 b5 27 bc 64 f6 18 bc 74 24 0e bc b9 0d 16 bc
       -0.010236256 -0.009336088 -0.008675683 -0.009158545
0002d0 ae 2d b7 bc b7 b1 b7 bc 9f 31 ba bc a2 1a 7a 3f
       -0.022360649 -0.022423608 -0.02272874 0.9769689
0002e0 bb 01 c0 bc 48 a6 c2 bc ea cc c6 bc 6e 8e cb bc
       -0.023438325 -0.02376093 -0.024267633 -0.02484819
0002f0 65 e6 cc bc 88 c8 ce bc 28 97 ce bc 44 01 d1 bc
       -0.025012204 -0.025242105 -0.025218561 -0.025513299
000300 2b 0b d3 bc 51 a8 d1 bc ee 3d d3 bc 7f d7 d2 bc
       -0.025762161 -0.025592955 -0.025786366 -0.025737522
000310 96 7c d1 bc f4 b6 d0 bc 98 3b d2 bc d9 8b d1 bc
       -0.025572103 -0.025477864 -0.025663182 -0.02557938
000320 33 a7 d1 bc 09 35 ce bc fd c4 ca bc 99 6c c5 bc
       -0.025592422 -0.025171774 -0.024752134 -0.024099635
000330 ac f1 c2 bc 39 54 c0 bc 9d 24 c0 bc 67 e0 bd bc
       -0.023796879 -0.02347766 -0.023454959 -0.023178292
000340 da 01 bb bc cf 85 b9 bc f7 b3 b8 bc 24 f2 b3 bc
       -0.022828031 -0.022646813 -0.022546751 -0.021966048
000350 0b 5f af bc bb 42 ac bc 46 02 a9 bc ed 5d a5 bc
       -0.021407625 -0.021027913 -0.020630967 -0.020186389
000360 96 1b a4 bc 54 3d a2 bc 12 8d 9f bc a7 8d 9b bc
       -0.020032685 -0.019804634 -0.019476447 -0.018988444
000370 49 e3 99 bc 0e 83 95 bc 79 ad 92 bc 03 53 90 bc
       -0.018785136 -0.018250968 -0.017904984 -0.017617708
000380 82 9f 8b bc 91 e1 89 bc d1 48 84 bc b5 26 7b bc
       -0.017043833 -0.016831191 -0.016148003 -0.015329053
000390 12 ca 70 bc fc 72 6b bc 70 50 65 bc fe 86 5f bc
       -0.014696615 -0.014370676 -0.013996229 -0.0136430245
0003a0 94 18 5a bc fb 97 4b bc 9e 59 44 bc a8 a9 37 bc
       -0.013311524 -0.012426372 -0.011984257 -0.011209883
0003b0 fe 84 2a bc 31 82 1c bc d7 21 12 bc df 3d 19 bc
       -0.010407684 -0.009552524 -0.008919201 -0.00935313
0003c0 7f 21 ba bc 80 26 bb bc bb dd bd bc f8 8c c0 bc
       -0.02272105 -0.022845507 -0.023177018 -0.02350472
0003d0 8c f4 79 3f 42 bd c4 bc 5d 36 c9 bc 03 b5 cd bc
       0.97638774 -0.024016026 -0.024562055 -0.025110727
0003e0 0e ca ce bc 85 ee cf bc 0b 70 cf bc 52 f9 d1 bc
       -0.025242832 -0.02538229 -0.025321981 -0.02563158
0003f0 6a a2 d3 bc bf ae d2 bc 95 54 d4 bc f4 38 d4 bc
       -0.025834281 -0.025718091 -0.025919238 -0.025906064

gc1.fc.weight f4 [128, 36]
000000 a8 b7 86 bd 3a 5e 31 be e6 4a 17 bc c0 38 1d 3c
       -0.065779984 -0.17321101 -0.009234166 0.00959605
000010 3a 8e 95 bd 8a 4e 83 bd 65 83 6a bd 4c 85 2c be
       -0.07302518 -0.064114645 -0.057254214 -0.16847724
000020 34 9b 2f be bf bc fd 3c a9 0e 1a be 2b 81 00 be
       -0.17149049 0.03097379 -0.15044655 -0.12549274
000030 ab 8e 9f 3d 50 f3 4d bd f3 7a c4 3d 7a e8 c8 bd
       0.07790884 -0.05028087 0.09593763 -0.098099664
000040 19 aa 91 bd 7f 7a 9e bc 88 5d 9a 3d f9 ad f9 3c
       -0.07112522 -0.01934552 0.07537371 0.030478464
000050 5a 3c 89 3d 5f 98 d6 3d 95 f9 23 3e 6e 7e d7 3d
       0.06700964 0.10478281 0.16013177 0.105221614
000060 e5 22 db 3d 66 a1 03 3e d0 80 14 3e 74 98 43 be
       0.10700015 0.12854537 0.14502263 -0.19101125
000070 42 d1 26 be 67 2c 26 bd c2 95 1b be f9 03 c0 3c
       -0.16290763 -0.04056969 -0.15193847 0.023439394
000080 b8 34 fb bd b6 53 2a be b3 0c 00 3d 94 57 c9 3d
       -0.12265915 -0.16633496 0.03126211 0.09831157
000090 9e 41 3b 3e e6 e6 2f 3d f6 03 f7 3c 02 fb 13 3d
       0.1828675 0.04294481 0.030153256 0.03612805
0000a0 af 3d d4 bd 50 a7 19 3e 19 bb 11 be 10 77 25 be
       -0.10363328 0.15005231 -0.14231528 -0.161587
0000b0 05 71 05 3e 61 f9 0a 3e 73 3c 24 3e 7a 5e f5 3d
       0.13031395 0.13571693 0.16038685 0.119809106
0000c0 82 a8 8f bd 90 8d 30 3e 33 c4 18 3c ee 92 89 bb
       -0.07014562 0.17241502 0.009324121 -0.0041984236
0000d0 99 d6 0d 3d dd 32 4b 3e 1a f4 92 bd 27 34 27 be
       0.034628484 0.19843622 -0.07175465 -0.16328488
0000e0 93 57 3e bd 01 20 ff bd 61 89 b1 3b 7c cd 24 3e
       -0.046470236 -0.12457276 0.005417988 0.16094011
0000f0 72 0a f0 bd 4b b4 07 be 9b a6 76 bd 99 95 17 bb
       -0.11720742 -0.1325237 -0.06021748 -0.0023129939
000100 7b 65 5e 3d bf 29 13 3d be a6 7b bc 97 eb d0 bd
       0.054295998 0.035928484 -0.015359579 -0.10201185
000110 57 bc 75 bd 7b 54 3d 3c 72 2f 74 bc cc cc 6c 3d
       -0.059994068 0.011555786 -0.01490389 0.057812497
000120 08 28 d9 3d 67 39 0a 3e 6c fb ae 3c 85 30 b4 bd
       0.106033385 0.1349846 0.021360122 -0.08798317
000130 ee 29 8b 3d be e1 83 3d 60 6a dd bc e0 46 39 ba
       0.06795107 0.06439541 -0.027028263 -0.0007067751
000140 2e e9 bb 3d 72 c2 1e 3e 97 1c 08 be e9 2a be 3d
       0.09175335 0.15503863 -0.13292156 0.09285528
000150 f3 5c 26 be 5a c4 0a be 61 12 06 3e f6 02 da 3d
       -0.16246395 -0.13551465 0.13092948 0.10645096
000160 3c 5a 8f bd 8f 86 1c 3e 0c d0 29 bd 7c a7 9b 3d
       -0.06999633 0.15285705 -0.041458175 0.076003045
000170 b5 56 11 bd 0f 3d 9a 3d 7d 9f 10 be 77 6c 22 3e
       -0.03548308 0.07531177 -0.1412334 0.15861689
000180 a2 44 a5 3d 82 e9 01 be 0b 2b 4f bd 50 cd 14 be
       0.08069731 -0.12686732 -0.05057816 -0.14531446
000190 63 e9 b0 3d 70 31 12 be 17 27 37 bd f7 2f 20 bd
       0.08638265 -0.14276671 -0.044715013 -0.039108243
0001a0 42 9a 6d 3d 9d 6e 33 3e bc c9 dd 3d 54 5e 99 3c
       0.05800844 0.17522664 0.108294934 0.018721737
0001b0 d9 41 28 3e 53 f8 80 3d 29 46 9c 3c 22 38 38 3e
       0.16431369 0.06297364 0.019076424 0.17990163
0001c0 82 20 db 3d 8a 36 ef 3d 0c 6f f4 bd 34 ba 76 3c
       0.1069956 0.116803244 -0.11935243 0.015059043
0001d0 80 2b 2c be 0f 96 f9 3c e1 19 fa 3d c2 28 39 3e
       -0.16813469 0.030467061 0.12211967 0.18081954
0001e0 cc 42 27 bd 92 68 15 3d e6 8c 13 3e 9d 6d 13 3d
       -0.040835187 0.03647668 0.14409217 0.035993207
0001f0 8e 1f 3a be 81 ea a3 bd 3f 68 20 3e ea 05 51 3e
       -0.181761 -0.080037124 0.15664767 0.20412412
000200 62 c0 53 3d 10 f2 32 3d f7 db 81 bb ef 84 8c 3c
       0.051697142 0.04368788 -0.0039629894 0.017153231
000210 c7 e3 0e bd bb 3b 2a be ea 8f 62 3e af bd b9 bd
       -0.034885194 -0.16624348 0.22125211 -0.090693824
000220 7d 26 dc bd 2d 9f 36 3c 06 84 30 3d 0f 6d c5 bc
       -0.107495286 0.011146349 0.043094657 -0.024099855
000230 a5 7a 05 3e a2 e2 ce 3d b9 13 c1 bd d3 7c c8 3d
       0.13035066 0.101018205 -0.0942759 0.09789433
000240 28 cc d2 bc cf 02 c2 3d bd c1 3a bd 22 2e 18 be
       -0.025732115 0.09473192 -0.04559492 -0.14861348
000250 69 66 60 bd ad 8c fc bc 4b 40 8f 3d f8 a0 5a bd
       -0.054785166 -0.030828798 0.06994685 -0.053376168
000260 65 1b 79 bd 61 5b e0 3c 44 09 dd 3d 6d 1f ed 3d
       -0.06081714 0.027387323 0.10792783 0.115782596
000270 2b 64 44 bc 73 c2 84 bb 93 43 b0 3d a4 92 5e 3c
       -0.0119867725 -0.0040515005 0.08606639 0.013584767
000280 26 f4 04 be 53 c7 8a 3c a6 e1 32 3c 0a eb 19 3d
       -0.1298376 0.016940748 0.010918057 0.037577666
000290 58 a1 de bc 56 af 67 3d 16 0c 1c be 8d bb ed 3d
       -0.027176544 0.056563698 -0.15238985 0.11608038
0002a0 d9 ed 25 3e 82 33 93 bc 25 ef 0c 3e ec b3 cb 3d
       0.16204013 -0.017968897 0.13763101 0.09946427
0002b0 90 5f df 3d 46 48 1f 3e 7b be 19 be 1e be ef 3c
       0.10906899 0.15554914 -0.15014069 0.02926546
0002c0 9f 6b 34 3e bf 9b 28 bd 1f 19 27 bd 3f 1c 28 3d
       0.17619179 -0.041164156 -0.04079544 0.041042563
0002d0 a5 51 d8 3d d4 d9 07 3e fb 5c be 3c 1f 55 30 3e
       0.105624475 0.13266689 0.023237696 0.17219971
0002e0 a9 19 19 3e ab 8c 9a bd 66 73 96 3d 86 0b 15 be
       0.14951195 -0.075463615 0.07346229 -0.14555177
0002f0 55 18 8c 3d c4 04 b1 bd 8f aa 7d bd ee ef c6 bd
       0.068405785 -0.08643487 -0.061930235 -0.09713732
000300 40 d3 6f 3d da aa 51 3e 68 47 0f bc 36 69 08 bd
       0.058551073 0.20475331 -0.008745052 -0.033303462
000310 16 ec 52 be 75 38 a8 3d b3 b9 25 be 92 71 3b 3e
       -0.20597872 0.08213893 -0.1618412 0.18305042
000320 9f 62 77 3d 3a d6 43 be 2d 50 26 3d 54 ca 54 bc
       0.060396787 -0.1912469 0.040603805 -0.012987692
000330 9a ac d5 bd 83 8a 23 be ac 0e 17 bd 80 c2 d8 3d
       -0.10433312 -0.15970807 -0.036879227 0.10583973
000340 44 f1 97 bd 4e a7 fb 3d 10 65 59 bc c3 bc 71 3d
       -0.07419065 0.1228777 -0.013268724 0.059017908
000350 e9 3f 90 3d 54 20 b7 3c 51 a0 a7 bd ad 62 ae bc
       0.0704344 0.022354282 -0.08184875 -0.021287287
000360 b3 02 ca 3d a6 d0 6d bd 56 a5 e4 3c 27 94 f7 bd
       0.09863796 -0.05806031 0.02791087 -0.12088805
000370 0f b2 f2 3d 8b 2f e6 3d 95 d0 47 bc ac aa 9a 3d
       0.11850368 0.11239537 -0.012195726 0.07552084
000380 62 ff 41 be d3 6b 0e 3d 8c aa 93 3d 0e de cc bd
       -0.18945077 0.034770798 0.072102636 -0.10003291
000390 bf 4e 9c bd 3d ca d9 bd 0f 32 ad bd 7d 12 47 3d
       -0.07632207 -0.10634277 -0.084568135 0.048601616
0003a0 62 87 c4 bd fd 86 05 3d 2c eb 05 bd a7 fb 80 3d
       -0.09596135 0.032599438 -0.03269498 0.06297999
0003b0 35 79 da bd ca 78 eb 3b a1 52 c2 bd 87 e6 27 bd
       -0.1066765 0.00718603 -0.094884165 -0.040991332
0003c0 af 03 3f 3e 38 ed c7 bb 17 50 1f 3d ba e0 d9 bc
       0.18653749 -0.0061012767 0.03889474 -0.026596416
0003d0 1e f8 53 3e 88 6d 0f 3e 34 a2 2d be 87 53 01 be
       0.20700118 0.14006627 -0.16956407 -0.1262952
0003e0 b1 b5 54 3e bd ec f9 bd a5 4b 98 bd 4f 43 cc bd
       0.20772435 -0.12203357 -0.07436303 -0.099737756
0003f0 7f a5 cc bd 77 2e de 3d c7 df 38 3e 2d ae c3 3c
       -0.099925034 0.10848706 0.18054114 0.023886764

gc1.fc.bias f4 [128]
000000 a8 a9 ac bd 27 cb ac 3d bc f3 c2 bc 5f f4 02 be
       -0.08430797 0.08437186 -0.023797862 -0.12788533
000010 0f 4c 7b bd 18 9a a8 3b d3 18 60 be e2 37 d5 3d
       -0.061351832 0.0051453225 -0.2188447 0.104110494
000020 78 79 bb bd 18 fb 04 bd 87 4f 87 3d 70 de ee ba
       -0.09154028 -0.032466024 0.066069655 -0.001822425
000030 c1 87 d6 bd 35 8e 48 be fb 3e 73 3c e8 ee 7b bd
       -0.10475112 -0.19585498 0.014846559 -0.061507136
000040 63 f5 35 bd a1 68 75 be 84 36 bf 3b 6f 62 63 3d
       -0.044423472 -0.23965694 0.005835356 0.055513795
000050 ca 7f 4d 3d 0f b3 40 3d ea 73 05 3d cf 1d 4a be
       0.050170697 0.047045764 0.032581247 -0.19737934
000060 22 d1 25 be bd 51 48 3d 33 d7 1a 3e 3c f1 8b bd
       -0.16193059 0.048906077 0.15121154 -0.06833121
000070 2d b0 bc 3d 8f 72 13 be 32 f3 56 3b bc d9 8e bc
       0.0921329 -0.1439917 0.0032798764 -0.017437808
000080 41 b2 20 be 48 d8 a8 bd 0a a9 fd bb 5f a9 a8 bd
       -0.15692998 -0.082443774 -0.0077410983 -0.0823543
000090 8b 77 28 bc 4b ca 95 bd 18 de cb 3d 28 10 99 3d
       -0.0102824075 -0.07313975 0.099544704 0.07473785
0000a0 22 65 07 be 85 fe d7 bb 02 67 49 bd 7a 2f 4d be
       -0.13222173 -0.0065916204 -0.0491705 -0.20037642
0000b0 a1 d1 30 be 15 31 7d bc 4c 14 86 bc d2 31 0b be
       -0.17267467 -0.015453597 -0.0163671 -0.13593224
0000c0 b3 01 eb 3d 38 3e b1 3c f0 95 79 3d 91 c2 41 3e
       0.114749335 0.021636114 0.060934007 0.18921877
0000d0 b1 fa 8e 3a 14 ab 9f 3c 23 16 f8 bd 4f 47 2b be
       0.0010908452 0.019490756 -0.12113597 -0.16726421
0000e0 20 f1 1a be c8 75 59 be 2f 68 28 be 10 83 c7 3d
       -0.15131044 -0.21236336 -0.16445993 0.09741795
0000f0 2d a5 1a 3d 84 26 0c be 45 01 f0 3d 2e 49 00 be
       0.03775518 -0.13686568 0.11718992 -0.12527916
000100 eb e5 2a 3d 0e 3e 06 be 7d 3a 42 3c 97 74 35 be
       0.041723173 -0.1310961 0.011854765 -0.17720257
000110 d9 8f 19 3e 74 fb e9 bd f0 17 f1 3d 11 ca 64 3c
       0.1499628 -0.11424914 0.11772144 0.013964192
000120 c2 4b 40 3d 6e 53 ac bd 16 71 2b bd 45 a6 ba 3d
       0.04694725 -0.084143505 -0.041855894 0.09113745
000130 a6 a6 c6 bd fe 55 2f 3d 20 4a 3e be 15 ee 2e 3d
       -0.096997544 0.042806618 -0.18582964 0.04270752
000140 56 ea bb 3d 92 3a b6 bc 95 59 a9 bc b5 98 cc bd
       0.091755554 -0.022244725 -0.020672599 -0.09990064
000150 28 71 1e 3d 34 b0 5c 3d dc af 9a bd d8 44 9a 3d
       0.038682133 0.053878978 -0.07553074 0.07532662
000160 b0 db b6 3d 20 e3 d4 3d 29 35 b7 3d 5b d3 de bd
       0.08928621 0.10394883 0.08945686 -0.108801566
000170 e8 6d d8 3d 99 ea 48 be 19 c5 99 3d 2f dd 97 bd
       0.10567838 -0.19620742 0.075082965 -0.07415234
000180 63 e6 03 be 22 ef 82 3d 5c 2e 56 bc 98 ce a3 bb
       -0.12880854 0.06393267 -0.013072576 -0.004998993
000190 ab d1 12 be dd 03 7a 3d 80 f5 21 3e fe d5 8d bd
       -0.14337794 0.06103884 0.15816307 -0.069255814
0001a0 8d 80 13 be 0b 5c 0d 3e a1 f4 d9 bd f2 32 82 3d
       -0.14404507 0.13804643 -0.106423624 0.06357373
0001b0 a4 2f 99 3b 0e 41 e3 3c 0f 79 c4 3c 29 9a 5e 3d
       0.0046748687 0.027740981 0.023983506 0.054346237
0001c0 4b f7 45 be b6 a3 db 3d b6 82 29 be ec 09 8e 3d
       -0.19332616 0.10724585 -0.16553769 0.06935486
0001d0 02 8c 25 3b d0 2b ab 3d 62 70 31 be 0d e9 22 3d
       0.0025260453 0.08357966 -0.17328027 0.039773036
0001e0 5b ca 01 be e2 f2 16 be 84 cd 18 3d 1a 6f 10 be
       -0.12674849 -0.1474109 0.03730537 -0.14104882
0001f0 c6 c3 3d 3c ea 89 b0 3d dc 6d 4a be 98 01 3d be
       0.011582321 0.08620055 -0.1976847 -0.18457639

gc2.fc.weight f4 [128, 128]
000000 eb 0f 56 3d c1 80 b3 3a fb 02 08 be a1 04 ec bb
       0.052261274 0.0013694988 -0.13282387 -0.0072027002
000010 19 5d 1f bd 7b 7c 51 bd 5b 8c 8e bd d7 6c 89 bd
       -0.038907144 -0.051144104 -0.069603644 -0.06710213
000020 5d 2c fb bc 8e 43 02 bd 87 4d 17 bd 8b 5b 8f bc
       -0.030660802 -0.031802706 -0.03693917 -0.017499706
000030 6c 49 e2 3b 14 bb 6e 3d b0 a7 0b be 40 c0 b1 bd
       0.006905725 0.05828388 -0.13638186 -0.08679247
000040 31 01 a4 bd 87 3d 90 bd 88 10 29 3c a7 9f a0 bd
       -0.0800804 -0.070429854 0.010318883 -0.07842951
000050 a2 94 99 bd d9 b0 53 bd fe 2b 68 bc 0e d6 18 3e
       -0.074990526 -0.051682327 -0.014170645 0.14925405
000060 bc 1b 18 bd 46 e6 bb bd 92 fe d1 bd 75 6b 5f bd
       -0.037135825 -0.091747805 -0.102536336 -0.05454584
000070 7f 3f 9e bd 91 1e c9 bc 7f ae c4 3b 7a 9d c4 3c
       -0.07726955 -0.024550708 0.006002247 0.024000872
000080 81 fa c6 bd c5 15 c5 bd 15 7b 59 bd 4c 03 1c bc
       -0.097157486 -0.09623293 -0.053095896 -0.00952227
000090 66 2e 28 bd e2 50 04 be af 47 44 3c e3 46 d6 bc
       -0.041059874 -0.1292148 0.011979981 -0.026156848
0000a0 cd 57 ea 3c 42 68 23 bd 12 cd e4 bb c5 b5 12 3d
       0.02860632 -0.03989435 -0.006982454 0.03581788
0000b0 9c 8f 64 3c dc 58 fb bd 4d b9 14 be 8d b0 bb 3c
       0.013950255 -0.12272808 -0.14523812 0.022911334
0000c0 54 84 fc bc 58 fe aa bd 24 4d 1c bd 1f 4a fa bd
       -0.030824818 -0.083492935 -0.038159505 -0.12221169
0000d0 68 06 0c 3c 40 42 1b be ba 3f 55 bd 50 ca 38 3d
       0.008546449 -0.15161991 -0.052062728 0.045114815
0000e0 14 95 aa bd f3 22 a4 3c e0 14 ac bd 89 b3 59 bd
       -0.08329216 0.020036196 -0.08402419 -0.053149734
0000f0 f8 48 55 3d 77 c2 09 be 5c 5b 04 be 28 31 19 be
       0.05207154 -0.13453089 -0.12925476 -0.14960158
000100 d5 84 5d bd b9 f4 bb bd 33 52 f4 bd 3f 0d cf bd
       -0.054081757 -0.091775365 -0.11929741 -0.10109948
000110 60 04 1c be 24 b0 35 bc 6f ea 5a bd 81 37 f9 bd
       -0.15236044 -0.0110893585 -0.05344623 -0.1216879
000120 15 d3 6e 3d f8 69 76 bd fa ea 94 bd 80 ea 13 3e
       0.058306772 -0.060159653 -0.07271381 0.14444923
000130 4c 78 e7 bd 63 63 ba bd 94 04 3f bd 5a f2 d2 3b
       -0.11302242 -0.09100988 -0.046635225 0.006437582
000140 79 9b 81 bb 38 38 ab bc f7 a2 b4 bb d9 73 ba bc
       -0.0039553014 -0.02090083 -0.005512591 -0.022760319
000150 cd 13 a7 3c 18 53 e2 3c e5 d0 0e be d1 3c 77 bd
       0.020395184 0.027627513 -0.13946874 -0.060360733
000160 c6 8b ca bd 91 91 b4 3c 7e ed 99 bd 01 6b b1 bd
       -0.09889941 0.022042068 -0.07516001 -0.086629875
000170 15 6d 89 3c 53 41 fc bc b5 cf ca bd c7 b4 8a bc
       0.016775647 -0.030792868 -0.09902898 -0.016931904
000180 72 f8 33 bd a4 b3 c8 bd 2b 64 a0 bd 41 c8 a9 bd
       -0.043938108 -0.09799889 -0.078316055 -0.082901485
000190 01 d8 4f bc ae 69 a7 bd 13 b3 0b be 25 cf 4e be
       -0.012685777 -0.08174454 -0.1364253 -0.20196207
0001a0 36 97 a0 bd ce 67 be bd 80 b4 c0 bb 9b 42 64 3d
       -0.07841341 -0.09297143 -0.0058808923 0.055727582
0001b0 ee 57 bc bd 5c 19 be b8 cf 33 3b bd 5d 1b 12 bd
       -0.09196459 -9.0646296e-05 -0.045703705 -0.035670627
0001c0 8c df 8d bd 57 e1 89 bc 5b 3a d0 bc 7a 55 b0 bd
       -0.06927404 -0.016831083 -0.025418451 -0.08610053
0001d0 e9 9c d9 bc 5c bf 33 3c 4e 2a d3 bd 72 58 6d bd
       -0.026564078 0.010970917 -0.10310803 -0.057945676
0001e0 3a 12 7b ba 45 7e f3 bd b2 01 29 3c 63 50 35 bd
       -0.0009577606 -0.118893184 0.010315346 -0.044266116
0001f0 83 05 bc bd 28 dd 01 be e4 06 9c 3c 24 ff 80 bd
       -0.09180739 -0.1268202 0.019046254 -0.06298664
000200 ca 3e 80 3d 0d 2e bf bc 59 ee 98 3c 9c ab 84 bd
       0.06261976 -0.023337388 0.01866834 -0.064780444
000210 18 5a fc bd ac c8 6a bd de 84 7f bd 69 fa dc bd
       -0.123218715 -0.057320282 -0.06238257 -0.107899494
000220 a5 3b de 3c 9c 9f 53 3d b9 a0 21 be df f5 ac 3d
       0.02712805 0.051665887 -0.15783967 0.08445334
000230 59 20 40 3d 1a de f5 3b 6e 78 81 bc de 11 ea 3d
       0.04690585 0.007503283 -0.015804496 0.11429189
000240 08 81 42 bd f9 4e 82 bd b6 47 9b bd df 7c 5f 3d
       -0.047486335 -0.06362719 -0.07582037 0.054562446
000250 5a d0 a2 bd 21 94 24 3c 80 e0 c4 3c f0 56 f9 3b
       -0.07949896 0.010045082 0.024032831 0.0076092407
000260 7a 72 13 be da 61 cc bd 10 05 ef bc c1 61 ef bd
       -0.14399138 -0.09979601 -0.029177219 -0.11688567
000270 d0 47 94 bc 3f b0 12 3d 37 f0 39 bd 2c f3 59 3e
       -0.01810065 0.035812613 -0.045395102 0.21284169
000280 8c 08 60 bb 24 22 b5 bd 31 53 0f be 13 57 01 3d
       -0.0034184782 -0.088444024 -0.13996579 0.03157718
000290 5a 95 04 bd 4d e6 0f bd 4e ae 70 bb d9 cc d6 3d
       -0.032368995 -0.03513174 -0.0036724987 0.1048829
0002a0 f7 c8 b3 bd ec 7e eb 3d b0 f4 4f bc 14 a4 2f bd
       -0.087785654 0.11498818 -0.012692615 -0.042881086
0002b0 f8 c2 8a bd 0d a1 68 3d af 27 06 bd a5 47 90 bd
       -0.067754686 0.056794215 -0.03275269 -0.07044915
0002c0 55 6e ac 3d 02 b2 ea 3d 89 10 0b 3e 35 d0 23 be
       0.08419482 0.114597335 0.13580526 -0.15997393
0002d0 f9 27 8c bd 25 ad 80 bd 7f 90 fb bd b6 0c 05 3d
       -0.06843562 -0.06283025 -0.1228342 0.032482825
0002e0 ec cc 82 3b 24 9d b7 3d ae ef 64 bc 73 f1 e4 bc
       0.0039917137 0.08965519 -0.01397316 -0.027947163
0002f0 d3 c5 4d bc 0e 2d 84 bd 8d 89 c9 3d 25 c9 02 bd
       -0.012559372 -0.06453906 0.09840689 -0.031930108
000300 ed a3 aa 3d cc 20 6d 3d 65 6a 7c bc 33 46 ad 3d
       0.083320476 0.057892606 -0.015406226 0.08460655
000310 80 3d 02 bd 15 65 d3 bd 0b d3 ac bd a5 e3 86 bd
       -0.031796932 -0.10322014 -0.08438691 -0.065863885
000320 67 93 0a 3e 33 9b 05 3e c8 c2 c0 3c 99 ab 37 3d
       0.13532792 0.13047485 0.023530379 0.044841383
000330 59 3b 94 bd 3e 5f b5 3b 14 f5 23 bd a0 b7 9f bd
       -0.07237882 0.0055350354 -0.040028647 -0.077986956
000340 ca c7 ee bc e9 3e c5 bd ad e8 91 bc 87 98 4c bd
       -0.029148001 -0.0963114 -0.017811144 -0.04995015
000350 38 e7 ab bd 50 6b e9 bd ed 4b f0 bc 8f f2 15 bd
       -0.08393711 -0.11397421 -0.02933308 -0.036608275
000360 b8 13 8e 3d 7d e0 5f 3b 37 b1 41 3e 15 78 7a bd
       0.06937355 0.0034160905 0.18915258 -0.061149675
000370 f0 46 9a 3c bd 55 8d bd 08 81 09 3d fe 4c 47 3c
       0.018832654 -0.06901119 0.03357032 0.012164352
000380 84 ff d1 3d 7f 66 fa 3c 58 f6 1c bd f1 44 15 bc
       0.10253814 0.030566452 -0.03832087 -0.009110675
000390 70 df d0 bd cf 49 1a 3d e5 3e b3 bd 2b 86 39 bc
       -0.10198867 0.037668046 -0.087522306 -0.011323492
0003a0 e6 ce b3 bd 77 07 64 bc ff 68 b8 bc 92 52 0a be
       -0.08779697 -0.013917795 -0.022511004 -0.1350806
0003b0 6c cd 1c 3c e2 44 92 3d a6 bf 15 3d 2b 66 fe 3d
       0.009570461 0.071420446 0.036559723 0.12421831
0003c0 c2 a1 73 ba ff a6 b4 3c 35 f9 76 3d ca 08 d5 3c
       -0.0009293818 0.022052286 0.060296256 0.026005168
0003d0 49 b8 a9 bd 2a 83 0e be 7f d2 85 bb 94 82 3a 3c
       -0.08287103 -0.13917223 -0.004083931 0.011383671
0003e0 cc b3 ae 3d cc ed d1 bd c7 35 95 3c 9d 80 db bd
       0.08530387 -0.10250434 0.01821412 -0.107178904
0003f0 e9 a8 b0 bd 83 c6 d4 bd cb 72 7d bc 1b 75 95 3d
       -0.08625967 -0.103894256 -0.015469263 0.07297727

gc2.fc.bias f4 [128]
000000 59 dc ea bd f3 cb 5f 3d 22 d2 16 be ff 14 a9 3c
       -0.11467809 0.05463786 -0.14728597 0.020639895
000010 e7 b7 86 3d 87 2c 1f bc 44 9e 8e bd 9e e5 25 bd
       0.06578045 -0.009715206 -0.069637805 -0.040502183
000020 15 f4 e4 3d 98 f8 29 3d 75 ac bf bc 52 0a c5 3d
       0.111793675 0.041496843 -0.023397664 0.09621109
000030 aa f7 93 bd 95 37 de 3c 9f 58 ff bd bc 9a 6a 3d
       -0.072249725 0.027126113 -0.12468075 0.057276472
000040 c4 2a 8b 3c 0c 92 64 3e d7 6f f1 3d 0e f0 21 3d
       0.016988166 0.22321337 0.1178891 0.039535575
000050 6f b0 49 bd 38 8d 3b 3d 6c 73 0b 3c 97 aa 79 bb
       -0.049240526 0.045788974 0.008511405 -0.0038096064
000060 fa 9a 49 bd fb c8 10 3e 24 ef c5 bd 11 44 d3 bd
       -0.049220063 0.14139168 -0.09664753 -0.10315717
000070 dd 00 d4 bd a9 c1 a6 3d 93 14 90 3d 76 f7 84 3c
       -0.10351727 0.081424065 0.07035174 0.01623128
000080 4b d6 33 bc 0c ff aa 3d c0 78 bc 3b f7 34 d5 3c
       -0.010976384 0.083494276 0.005751699 0.026026232
000090 12 65 0c 3d ab b5 dd 3c 1f 52 86 3d 3d 3f 54 bd
       0.034276076 0.027064165 0.06558632 -0.05181812
0000a0 ff 9b 00 bc 09 3b 8c bd 00 84 92 3d 9b 08 7f bd
       -0.007849692 -0.068471976 0.07154083 -0.062264066
0000b0 5b 06 9b bd 88 6b 24 3d d2 f4 2d be ba 9a 97 3b
       -0.075695716 0.040141612 -0.16987923 0.004626599
0000c0 14 5e 9a 3d a7 e7 2c be e9 1a 0b be 00 9e 61 bb
       0.07537475 -0.16885243 -0.13584484 -0.003442645
0000d0 4e 2e b2 bc 55 8c 14 bc 57 29 6d 3d d7 42 9c bc
       -0.021750595 -0.009066661 0.057900753 -0.01907484
0000e0 cc 70 ae bb 18 8c 4c 3d a7 5b 9b bd 67 6b 8c bd
       -0.005323505 0.04993829 -0.07585841 -0.06856423
0000f0 03 61 09 be 13 b4 33 bc 45 f7 7a 3d 2e d4 b1 bd
       -0.13415913 -0.010968226 0.06127097 -0.08683048
000100 84 2e 37 bd 79 28 36 be 94 1e 8f bc 86 6b 38 bd
       -0.044722095 -0.17788877 -0.017470635 -0.045024417
000110 94 87 6d 3d e5 7e f0 bd 81 89 42 3d aa 5a 6b bd
       0.057990626 -0.11742953 0.047494415 -0.05745951
000120 a9 be b8 3c 09 20 06 be 87 70 d9 bd 53 70 55 3a
       0.022551851 -0.13098158 -0.10617166 0.0008142043
000130 25 0a 11 bd 1b ad 9d bd 22 81 02 be a0 3d 8d 3d
       -0.035410065 -0.07699033 -0.12744573 0.0689652
000140 4a b1 94 3a f1 15 0c bd 69 28 84 3d 49 b4 27 3d
       0.001134434 -0.034200612 0.0645302 0.040943418
000150 d5 a4 a8 3d a4 dd 02 3d 18 38 0a 3d b2 99 99 3d
       0.08234564 0.031949654 0.0337449 0.07500018
000160 57 ca 9e 3b 3a df 72 3d 2a a0 8e 3c d5 d6 4c bd
       0.004845898 0.059294917 0.017410357 -0.050009567
000170 49 ed 8c bd f3 73 27 3d 4a b0 11 be 8f 7a 7f bd
       -0.06881196 0.040882062 -0.14227405 -0.06237274
000180 3e c1 89 bc 44 92 1f 3e 26 20 cc bd 9f b3 4c 3d
       -0.016815778 0.1558314 -0.09967069 0.049975988
000190 24 08 16 3c 02 28 0b bd e2 6b 70 bc 61 46 90 bb
       0.009157214 -0.0339737 -0.014674159 -0.004402921
0001a0 92 59 8f bd 37 14 b4 bd b7 b2 eb 3c db 40 91 bc
       -0.06999506 -0.08792918 0.028771741 -0.01773112
0001b0 8b 8d a1 bd 3a 60 a1 3a 57 82 e1 3c ec 89 06 3e
       -0.07888325 0.0012312003 0.027527971 0.1313855
0001c0 09 00 9c bd 23 69 cc 3a 57 e7 a6 bc 2d b1 0b be
       -0.07617194 0.0015595298 -0.020373983 -0.13641806
0001d0 e6 ca 07 be 92 ee 92 3c b9 4f 0a bd 2a e3 79 bd
       -0.13260993 0.017936025 -0.033767436 -0.061007656
0001e0 9a c9 8f 3d 1b bf 19 3d d6 f3 e5 3d c8 57 7f bd
       0.07020874 0.037535768 0.11228149 -0.062339574
0001f0 db e3 5b 3d 61 2b 91 bd 6c 84 3e 3d ed f6 90 3d
       0.053684097 -0.07088352 0.046513006 0.07078347

temporal_conv.weight f4 [128, 128, 3]
000000 46 87 8e 3d 69 ea 8a 3c 64 d8 70 3c 53 94 06 3d
       0.06959395 0.016957479 0.014700029 0.032856297
000010 97 63 81 3d 0f eb a1 3c 98 d1 4e bc f5 f3 1d 3d
       0.063178234 0.019765405 -0.012623213 0.038562734
000020 01 b9 0c bd 0e b9 8f 3d 01 fe 30 bd 24 cd 03 bd
       -0.03435612 0.07017718 -0.043210987 -0.03217806
000030 6b d1 e8 3c b0 24 45 bd 55 b0 16 3d 82 98 41 3c
       0.02842017 -0.04813069 0.036789257 0.011816146
000040 a9 e0 ac bd 69 40 e5 3c 69 de f2 bc ed b2 da bd
       -0.08441288 0.027984815 -0.029647069 -0.10678659
000050 b6 88 db 3c a4 f3 9c 3c 29 92 d8 bc 13 37 32 3b
       0.026798587 0.019159146 -0.026436882 0.0027193471
000060 11 76 96 bd 6d 83 c2 bc d2 77 14 bd cd cd 34 bd
       -0.07346738 -0.02374431 -0.036247082 -0.04414158
000070 bd 67 29 bd 10 4a b0 bc ae 7c a2 bd e0 c2 3c 3e
       -0.0413587 -0.02151969 -0.07933937 0.18433714
000080 2a 8b fa bc 7f a1 3e bd b5 d5 f9 bc 85 cf 38 bd
       -0.030583937 -0.046540733 -0.030497411 -0.04511978
000090 b2 22 89 bd 46 fc d3 3d d9 20 4e 3d a5 f9 64 3c
       -0.06696071 0.10350852 0.050324295 0.0139755355
0000a0 0b ab 78 bc 6c 42 35 3d 4e ec b3 bd 0e a2 88 bd
       -0.015177499 0.044252798 -0.08785306 -0.066715345
0000b0 3b 49 a4 bb 02 5e e5 bd d4 98 ba 3c 03 7a ca bb
       -0.0050136126 -0.11199571 0.022777952 -0.0061790957
0000c0 94 80 71 3b 7a 25 77 bd 8d 52 f3 3c 01 b6 00 bd
       0.003685032 -0.060338475 0.02970245 -0.031423572
0000d0 5b 6e 0d 3c 8f 99 ab bc b6 8a 7b 3d 81 36 3d bd
       0.008632268 -0.020947246 0.061411582 -0.046194557
0000e0 06 7c 47 bd d3 7e 65 bd 8d d9 52 bd 4b 79 ab 3c
       -0.048702262 -0.056029152 -0.051477004 0.02093186
0000f0 54 8a 6c 3e 98 83 5a bc 34 7d a0 3c bd 6d 8b bc
       0.23099643 -0.013337038 0.019590952 -0.0170201
000100 3f ca b8 bd 35 08 c7 bc 9f 19 0e 3e 02 98 0b 3d
       -0.090229504 -0.024295906 0.13876961 0.034080513
000110 fd dd 25 3d ee 69 13 3e 4f 05 ab bc a5 77 a3 3b
       0.040494908 0.14395878 -0.020876555 0.004988628
000120 61 b1 d1 3d 6d 16 8b 3d 92 00 cf bc 70 41 03 3d
       0.102389105 0.06791387 -0.025268827 0.032044828
000130 e9 1f 3f be 3b 0f 05 3d e7 9e 8d bc 8f 3e 97 bd
       -0.18664517 0.032485228 -0.017287685 -0.07384979
000140 ee 7e 9f 3c 89 01 2c 3c 61 33 3e 3d 65 4d f4 bc
       0.019469704 0.010498413 0.046435717 -0.02982206
000150 f5 f5 32 bb 71 98 c3 3d 3b 09 c7 3c 42 98 f6 bc
       -0.0027307246 0.0955056 0.024296394 -0.030101899
000160 2e 01 61 3d f4 c0 6c 3b 94 16 ac 3c 1a 92 02 3d
       0.054932766 0.0036125751 0.02100686 0.031877615
000170 a3 61 56 b9 ba b8 d4 bd 6e 09 f7 bc a6 a4 a6 3c
       -0.00020445003 -0.10386796 -0.030155864 0.020342182
000180 d7 5c 63 bc ce 2a c3 bd 05 71 a9 bc 24 fe cb bd
       -0.013877115 -0.09529649 -0.020683775 -0.09960583
000190 6e 2d 93 3c d4 f7 8a bb a3 e4 ba bb 89 9f 26 bc
       0.017965999 -0.004240969 -0.005703525 -0.010169872
0001a0 ba 99 e6 3a 6c 2a 54 3d b2 f5 04 3e b6 78 41 bd
       0.0017593422 0.05179827 0.1298435 -0.04723426
0001b0 f4 89 fc bc 37 c1 97 bd d4 66 04 3d 9e 4d a4 bd
       -0.0308275 -0.074099 0.032324627 -0.08022617
0001c0 96 6d 81 bb 15 f7 18 bd ea 88 87 bd 96 18 67 bd
       -0.0039498312 -0.03734501 -0.06617911 -0.05641993
0001d0 44 d1 2f 3d eb a4 4f 3d 98 b8 c0 3c 57 42 40 bd
       0.04292418 0.050694387 0.023525521 -0.046938267
0001e0 f3 37 8d bd 34 8e 98 bd c0 d6 43 3d 2c 62 03 bc
       -0.06895437 -0.07448998 0.047812223 -0.0080190115
0001f0 7a 60 6e 3c 40 90 23 bd b2 74 60 3c 87 93 79 bd
       0.014549369 -0.03993249 0.013699697 -0.06093171
000200 26 a3 3f 3c 2f 0c 9c bd 4c ec ab bc ac a5 c9 3b
       0.011696612 -0.07619511 -0.020986699 0.006153783
000210 90 c7 9c 3d df aa e6 bd b1 0c c5 3b eb 8d 0e be
       0.07655251 -0.1126306 0.006013476 -0.13921325
000220 4e ab 17 bd d8 77 13 bb 92 51 9a bd f6 f6 44 bc
       -0.037028603 -0.0022501852 -0.075350896 -0.012021771
000230 eb 22 e9 bc 39 03 a4 bd 10 62 7d bd eb b3 fd bc
       -0.028459033 -0.08008427 -0.061861098 -0.03096958
000240 e7 27 e6 bd 4d 6a 32 bd 99 82 33 bd 2a fc 0b bc
       -0.112380795 -0.043558408 -0.04382572 -0.008544007
000250 6f 58 1a be 5c 70 41 bd 8f 1e df 3d e3 5b 3a 3b
       -0.15072797 -0.047226295 0.108945005 0.0028436116
000260 84 55 92 3c 40 62 c7 bd 31 f0 a7 bc 28 56 41 3d
       0.017863043 -0.097355366 -0.020500274 0.047201306
000270 d2 ba e4 3d 0d d0 c9 bd 38 1f 71 bc 9b 91 90 3b
       0.11168446 -0.09854136 -0.014716916 0.004411889
000280 0e ef c2 bd 21 90 1e ba 10 e7 9e 3d e3 42 80 bd
       -0.09518252 -0.00060486986 0.077589154 -0.06262758
000290 24 4b 37 3d 53 47 d6 3c a2 e1 64 bd 79 6e 3c 3d
       0.044749394 0.026157057 -0.055879243 0.046003792
0002a0 43 c2 9d bd c9 3f 2e 3b 15 c5 2f bd e0 a4 52 bd
       -0.07703068 0.0026588312 -0.04291256 -0.05142677
0002b0 0a 4c d7 bc 70 87 d6 bc 89 84 b4 bd f3 a3 5d 3c
       -0.026281375 -0.026187629 -0.088143416 0.013527858
0002c0 d9 55 4d bb f6 fe 6c bd ee e8 8c bd 25 96 9b 3c
       -0.0031331687 -0.057860337 -0.06880365 0.018992493
0002d0 7e c1 3b bd c7 a3 d5 bc e9 36 2d 3c 6b b6 94 bd
       -0.045838825 -0.026079072 0.010572174 -0.07261356
0002e0 1b 57 59 3d 06 02 fd bc a4 49 ee bc 91 77 cf 3c
       0.053061586 -0.030884754 -0.029087849 0.025325568
0002f0 fc 1b 39 bd da 9b 0c 3e 54 87 b4 3d 1f c5 0d bc
       -0.045192704 0.13731328 0.08814874 -0.008652954
000300 40 ab 0e bc 86 b5 b1 3d cd 4b 78 bc 63 e9 9d bd
       -0.008707821 0.08677201 -0.015154791 -0.077105306
000310 88 30 28 bc d0 a2 5b ba 9e 76 96 3d 62 8b bd bc
       -0.010265477 -0.0008378448 0.07346843 -0.023137752
000320 b5 fa 70 bc 51 bc 60 bd 61 a2 ca bd f4 62 39 3d
       -0.014708211 -0.054867093 -0.098942526 0.045260385
000330 2e 19 86 bc 7a cc 19 3e 2e 4d d3 bc 05 91 c3 bd
       -0.016369428 0.15019408 -0.025793638 -0.09549145
000340 73 dd 45 bd f4 1f 7c bc 39 89 bb bd e7 ee b7 3c
       -0.048306894 -0.015388478 -0.091570325 0.022452785
000350 ea e7 ac 3a 23 ef cb bc 12 03 cc bd 2d e5 dc bb
       0.0013191674 -0.024894303 -0.09961523 -0.006741187
000360 3f 32 3a 3d 16 1c b3 bd 67 26 2b 3d 04 dc a9 bd
       0.045458075 -0.08745591 0.04178467 -0.08293918
000370 dc 3d b4 3c 44 40 13 3d 76 0e e5 3d d9 54 6f 3d
       0.022002153 0.03594996 0.11184399 0.058430526
000380 b1 65 ed 3c 1b ed 9f bd 87 f1 55 bd 6c b0 19 3c
       0.028979154 -0.07808896 -0.05223229 0.009380441
000390 10 3f 5c bd e6 c0 0d 3e 5a 97 78 3c bb 08 58 bd
       -0.05377108 0.13843116 0.015172804 -0.0527427
0003a0 92 94 49 bd 3c 7f 44 3b a2 90 09 bd 17 60 18 bd
       -0.049213953 0.0029983064 -0.0335852 -0.037201013
0003b0 35 d0 1b 3b 4c d6 6d bd 19 10 62 bd d5 bb c9 3c
       0.0023775224 -0.058065698 -0.055191133 0.024625698
0003c0 43 1e 4c 3d 0e 95 37 bd 70 b7 87 bc 48 fd 1b 3c
       0.049833547 -0.044819884 -0.016566962 0.009520836
0003d0 7c 64 29 bd bb c6 28 3c 0a 65 6d bd a8 98 a6 3c
       -0.041355595 0.010301287 -0.057957686 0.020336464
0003e0 c4 ba 79 bc 4a 31 7a bd 8d 42 1a bd 8c b2 c4 3c
       -0.015242282 -0.061082162 -0.037661124 0.024010919
0003f0 ca 7b 62 3d 9f 21 0c 3c 12 57 d3 3c 9d b5 0a bd
       0.055293836 0.008552938 0.025798354 -0.033864606

temporal_conv.bias f4 [128]
000000 ea 3f e3 3c 89 71 50 bd ea 40 d8 3d 60 3e 8f bd
       0.027740438 -0.050889526 0.105592564 -0.06994319
000010 d9 c6 1c 3e 3f 42 69 bc 82 8d c6 bd 57 15 ee bd
       0.1531023 -0.014236986 -0.09694959 -0.11625164
000020 5b 89 9e 3c 69 2e 5a bd 00 0b 59 bd 45 88 cb 3c
       0.019352606 -0.053266916 -0.052989006 0.024845252
000030 a9 dc c4 bd 5e ae 0a 3c 15 7e 69 3c 27 44 d2 bd
       -0.096124 0.008464424 0.014251252 -0.10266905
000040 8b 76 51 bb d2 af c9 bd 65 b8 ad bd 55 42 8d ba
       -0.0031961526 -0.09847988 -0.08482436 -0.0010777215
000050 25 1e 08 bd c8 72 7d bd d8 47 62 bd 72 c3 71 3d
       -0.033231873 -0.061877042 -0.055244297 0.05902428
000060 d1 e2 d7 bb 22 72 d3 bc de 9f 41 3d 34 93 b1 bb
       -0.006588318 -0.025811259 0.0472716 -0.0054191593
000070 d6 6e 1f 3d b6 50 66 3d 21 06 d0 3c cd 32 53 3d
       0.03892406 0.056229316 0.025393547 0.05156212
000080 3e ab 7b bd a6 e0 ec ba a2 a0 b0 3d a7 7c 62 3d
       -0.061442606 -0.0018072322 0.08624388 0.05529466
000090 d2 18 5f bd 56 07 01 3d 84 15 a0 bd 39 ad 6e 3c
       -0.05446703 0.031501137 -0.07816604 0.014567667
0000a0 e2 f6 e1 3d c2 bc 62 bd 9e c8 2d 3d fe d0 fe bc
       0.11033417 -0.055355795 0.04242765 -0.031105515
0000b0 ca f1 b4 3c a6 01 25 bd 64 73 14 bd e6 12 ea bc
       0.02208795 -0.040284775 -0.036242858 -0.028573465
0000c0 c0 80 46 3d f1 7d c7 3c 6b f5 1f bd df 91 11 3d
       0.04846263 0.024352046 -0.03905241 0.035539504
0000d0 cb 79 df bd d7 62 03 bd bc 77 f9 bc 13 e7 39 3d
       -0.10911902 -0.032076683 -0.030452602 0.045386385
0000e0 6f 0f f6 3c fd 40 6c 3d 05 90 29 bd 57 1d 0e bd
       0.030036656 0.057679165 -0.041397113 -0.03469595
0000f0 99 57 c3 3c fd 5b 85 3d d6 d9 46 bd d3 8a 06 be
       0.02384548 0.06511686 -0.04854759 -0.13138895
000100 ba dc df bb 38 f7 bb 3d 28 15 70 3d fd e7 88 3c
       -0.0068317326 0.091780126 0.058613926 0.016712183
000110 25 b7 6e 3d 9f 44 81 bd 02 03 ad 3c f4 6c 0a bd
       0.05828013 -0.063119166 0.021119598 -0.033795312
000120 bf 07 ba bc 12 b3 be bd da a1 db 3d cf 43 c4 bb
       -0.022708772 -0.09311499 0.1072423 -0.0059895287
000130 67 92 c2 3d 16 e3 85 bd d6 8f c4 3d 75 6f dc 3d
       0.0950058 -0.06537454 0.09597747 0.10763446
000140 59 49 3e bc f2 4b 8a bd fc c7 55 3d e4 98 af 3d
       -0.011614167 -0.06752767 0.052192673 0.085740834
000150 e7 25 c8 3d 46 9a f7 bd 9b c5 9d 3c 0c ac a7 3d
       0.09772854 -0.12089972 0.019259265 0.08187112
000160 af b1 e1 3a 3d 47 f0 bd f0 65 68 bd 7a 82 ac 3d
       0.0017219092 -0.117323376 -0.05673784 0.08423324
000170 10 d6 7c 3d e2 82 04 bc 8e 7a 08 bd 2a e7 0b 3d
       0.061727583 -0.0080878455 -0.033320002 0.034156002
000180 19 80 0f bc 2a 7c 57 3d cc 4a 64 bc 78 d0 da bd
       -0.008758568 0.052608646 -0.013933849 -0.106842935
000190 09 7d 93 3d 62 74 7b bd c0 0c 85 bc ac a7 93 bd
       0.07201583 -0.06139029 -0.016241431 -0.07209715
0001a0 00 8b a5 3d a5 12 94 3d 35 52 60 3d 33 d2 24 bd
       0.08083153 0.07230119 0.0547659 -0.040239524
0001b0 f4 57 85 3c 19 ce 84 bd fa f7 be 3d 38 81 c2 bd
       0.01627729 -0.064846225 0.093246415 -0.09497303
0001c0 f8 09 d7 bc 8f 6e 8a bd 6b 31 42 bd cd 21 b0 bc
       -0.02624987 -0.06759369 -0.04741041 -0.021500492
0001d0 3c 41 c6 bc 13 5e 85 b9 2b 81 bf 3d 0a 21 a5 bd
       -0.024201028 -0.00025437828 0.09350809 -0.08062942
0001e0 a9 e3 f0 bc 19 64 31 bd 70 31 b3 bc 99 9e c2 bd
       -0.029405432 -0.04330835 -0.02187416 -0.09502906
0001f0 8d ce 0c bd db 74 51 3d e8 d4 c0 bb 4e db 23 3b
       -0.03437667 0.051136833 -0.0058847554 0.0025002542

fc.weight f4 [36, 128]
000000 43 fe 71 bd eb 5a f6 3c 5c ed bd 3d 4b 0e ce 3d
       -0.059080373 0.03007265 0.09273788 0.1006132
000010 f3 7e 50 3c 07 98 bd bb 8b a0 2a bc 87 8d 45 bd
       0.01272558 -0.0057859453 -0.010414253 -0.048230674
000020 20 0b 02 3e 99 61 16 be 0a c1 3d 3d 15 b9 77 3d
       0.12699556 -0.14685668 0.046326675 0.060479242
000030 d7 e4 01 3e f7 24 bd 3d 33 ff fe 3d 87 e0 fa 3a
       0.12684952 0.09235566 0.12451019 0.0019140401
000040 f2 a4 af 3d 6c fa 82 bd 00 53 a7 3d 2d 06 ba 3c
       0.08576383 -0.063954204 0.08170128 0.022708023
000050 29 39 00 bd eb 2b 3f 3c ca 13 18 3c 90 fe 73 3d
       -0.031304512 0.011668186 0.009282062 0.05956894
000060 c3 25 8a bd 2b 85 f5 3b 84 2b db bc cb 09 76 bd
       -0.06745484 0.0074926815 -0.026754148 -0.060067933
000070 19 2d 04 3e b7 ff a2 bd b7 f0 6c bc 2f cc bc bc
       0.12907828 -0.0795893 -0.014461688 -0.023046581
000080 ce 9f e1 bd eb 47 77 3c 7e 78 5f bd cb e3 25 bd
       -0.110168085 0.01509283 -0.05455827 -0.040500443
000090 e4 40 86 bb 54 c0 fe 3d 26 74 a4 3d 4a 02 0a 3e
       -0.004097091 0.124390274 0.08029966 0.13477436
0000a0 03 e9 84 3d 81 75 c1 bc 5d aa 57 3d 50 d0 42 bb
       0.06489756 -0.0236156 0.052652705 -0.0029726215
0000b0 55 ec ee bc 41 e6 25 bb c8 29 5c bd 7a 42 33 3d
       -0.029165426 -0.0025314244 -0.053750783 0.04376457
0000c0 66 cd e4 3d 56 86 e4 3d ed 47 70 3d 42 03 b6 bd
       0.11171989 0.11158435 0.058662344 -0.0888734
0000d0 1e 48 20 3b 7f 1d 09 3d c3 ec 2e 3d bc 13 1e bd
       0.0024457048 0.033475395 0.042706262 -0.03859304
0000e0 4f 9c 7d bd 6b 0a ef bd 64 24 ff 3d 2f 04 32 bd
       -0.061916646 -0.11671909 0.12458113 -0.04346102
0000f0 4b df 66 bd 13 f1 67 3d 38 c2 04 3d 0a a7 cc bb
       -0.056365293 0.05662639 0.032411784 -0.0062454985
000100 f0 5f fc bd 71 d6 88 ba cc db 7b bd 59 2e e9 bd
       -0.12322986 -0.0010439885 -0.06148891 -0.11385793
000110 18 18 d3 3d fb 6c 7b 3d 8a 39 09 3c f1 58 f9 3d
       0.1030733 0.06138323 0.008375535 0.12175167
000120 cd a8 5b bb 64 41 a7 3d 8e 6e d5 3b c8 60 d4 3c
       -0.003351736 0.08166769 0.0065134233 0.025925055
000130 b3 f8 4f 3c 9e 61 05 be 4e 7b 11 bc db 8b 3c 3d
       0.012693572 -0.13025519 -0.008879496 0.046031814
000140 0c 6b e0 3c d3 b5 84 3c ff 2e be bc 9f 9a a6 bc
       0.027394794 0.016199982 -0.023215769 -0.020337401
000150 d4 e3 bd 3d e3 ac c0 bd c8 a3 bf bc 3d 87 01 bd
       0.092719704 -0.094079755 -0.023393527 -0.031623114
000160 54 2f 5f bc b8 f2 95 3d d9 fb 33 bd 04 88 a2 3d
       -0.013622124 0.073216856 -0.043941353 0.07936099
000170 2b 2c 3a bc 2a ba b0 bc 71 87 04 3c dd 26 cd bd
       -0.0113630695 -0.021573145 0.008088932 -0.10017178
000180 63 34 3f 3c 5e d2 8b 3d 67 c2 c8 3c 8d 40 da bd
       0.011670205 0.06827234 0.02450676 -0.10656843
000190 0b 64 a1 bd 53 4b d6 bd 50 3b e9 bd fe 6d a2 3c
       -0.0788041 -0.10463586 -0.11388266 0.019827839
0001a0 f6 29 27 bb 9d 92 fe 38 e0 11 9b 3d 46 10 31 bc
       -0.0025507188 0.00012138973 0.07571769 -0.010807103
0001b0 fc ff 0f 3d 57 0c 78 3d 04 7e e3 3d 60 50 0a 3c
       0.035156235 0.060558643 0.1110802 0.008442014
0001c0 28 4a 63 bd 6c 33 b7 3d b7 36 d7 3d 52 79 01 3d
       -0.055490643 0.08945355 0.10508483 0.03160984
0001d0 4f 09 b9 3c d4 5a 40 3d 01 55 a7 bd b8 21 14 bd
       0.022587446 0.04696162 -0.0817051 -0.03616497
0001e0 fe e6 92 3d 17 a7 95 bd cf a7 92 bc f0 02 c6 bd
       0.071729645 -0.073072605 -0.017902283 -0.09668529
0001f0 d7 ba 21 3d 88 f9 cc bd 29 b2 46 3d ac 5a 07 3d
       0.039484825 -0.10008532 0.04850975 0.033045456
000200 a6 c0 ed 3d 52 a4 aa bc 80 64 39 3e aa ce 15 be
       0.116090104 -0.020830307 0.18104744 -0.14629617
000210 0a 54 5a 3e a3 7a d9 3d 72 7c 1f bb 98 1a 3f bd
       0.21321121 0.10619094 -0.002433565 -0.04665622
000220 a9 1b 39 3e e8 a6 c0 3b 31 ff 01 3d 2c cc 1c be
       0.18076958 0.005879272 0.03173751 -0.1531226
000230 b0 a1 90 3c bf 60 2c bd 14 a4 e7 3c 4b b4 39 bc
       0.017655224 -0.04208445 0.02827648 -0.011334489
000240 5d 26 c9 3c ee e5 0e bd 06 5d 4b 3c 39 3c a3 3c
       0.024554426 -0.034887247 0.012412315 0.019926177
000250 0d 6c 17 3d 44 51 9d bd bb 24 04 be 97 bf 71 bd
       0.03696828 -0.07681516 -0.12904637 -0.059020605
000260 10 66 f5 3c 98 04 d7 3c 07 b4 b3 bd 54 5e 9e 3c
       0.029955894 0.026247308 -0.08774572 0.019332089
000270 d2 94 09 3d 6e f7 5d bd 8d de b9 3d 26 3f 02 bd
       0.03358919 -0.054191045 0.09075651 -0.031798504
000280 f4 fc 70 3d 09 a3 b5 bd 46 cb 0a bd f7 a5 9e bd
       0.058834985 -0.08868987 -0.033885263 -0.07746499
000290 5f 68 e5 bd ed d0 0b 3d 07 ac a1 3c bf b1 cf 3d
       -0.11201548 0.034134794 0.01973535 0.10141324
0002a0 25 6c ab 3d 7b b8 5c 3c d8 fe 0c 3e 30 46 98 3d
       0.08370236 0.013471718 0.1376909 0.07435262
0002b0 e3 4f 79 3b f2 2e ae bb bc f9 db bc 30 76 96 bd
       0.0038042 -0.005315655 -0.026852481 -0.07346761
0002c0 e8 da c3 3c dc 0f 41 3e b9 a7 ce 3d 24 1b 32 bd
       0.023908094 0.18853706 0.10090584 -0.043482915
0002d0 54 f7 93 bd 4f 03 a4 3d fe 7e 2e 3b 94 d6 ae bc
       -0.072249085 0.080084436 0.0026625986 -0.021342553
0002e0 01 08 33 3d 42 5d 17 bc c6 e1 a6 3c 6a 20 be 3d
       0.043708805 -0.009238543 0.020371329 0.09283526
0002f0 8a 97 f4 3d e1 45 de 3d 0b 50 a6 bd 95 6e b0 bc
       0.11942966 0.10853172 -0.08120736 -0.021537105
000300 2e 40 05 bd ca a7 90 3d 4e e5 72 bc fb 04 03 3e
       -0.03253191 0.07063253 -0.014825178 0.12794869
000310 53 15 f1 ba 70 f0 89 3d 55 bd a5 bd 3e c9 e3 bc
       -0.0018393196 0.06735313 -0.08092753 -0.02780592
000320 3c c8 b6 bd cb 48 bc bc b2 9e 21 3e a4 25 0a bd
       -0.089249104 -0.02298393 0.15783194 -0.033727303
000330 70 f3 5c 3a e9 7c 89 bb 94 d3 70 3d 78 dd 49 3e
       0.0008428609 -0.0041957987 0.058795527 0.1971339
000340 02 1f 1f 3d 52 8e 4a 3d d6 34 32 bd c2 26 c3 3d
       0.03884793 0.049452133 -0.04350742 0.09528877
000350 7a b1 72 3d 85 16 a5 3d 5e b5 3a 3c aa 2f ab bd
       0.059251286 0.08060936 0.01139578 -0.083587006
000360 57 73 a5 bd ea 62 15 bc 3e f1 d3 bd 37 4a 2e bd
       -0.0807864 -0.009117821 -0.10348748 -0.042551246
000370 10 12 d1 3d 29 b7 6a bd b3 09 b3 bd 16 2c 0a be
       0.10208523 -0.05730358 -0.08742084 -0.1349338
000380 62 f9 1e be be 97 f8 bc ab a0 41 3a 13 e4 c6 3d
       -0.1552482 -0.030345794 0.0007386307 0.097114705
000390 26 f0 fd bc c7 29 b1 3d b4 02 0f bd eb 7c 0f bd
       -0.0309983 0.086505465 -0.034914687 -0.03503124
0003a0 c5 90 01 bd 67 76 c6 bd b3 b2 94 3d b0 c5 c8 bb
       -0.031632204 -0.09690552 0.07260647 -0.006127082
0003b0 de 65 1a bd d6 bc c4 bb 22 29 04 3e eb 6c a8 bd
       -0.037694804 -0.0060039563 0.12906316 -0.082238995
0003c0 0f a9 4d 3d cd dc 2b 3e 83 98 fa bd d6 2d 04 be
       0.050210055 0.16783448 -0.122361206 -0.1290811
0003d0 f9 3d 80 3d 13 18 5e bd 95 57 cf bc b5 e0 a7 3c
       0.0626182 -0.054222178 -0.025310317 0.02049289
0003e0 ed a1 64 bc 85 ba a2 3d 74 9d c2 bd ff 98 27 bc
       -0.013954622 0.07945732 -0.09502688 -0.010229348
0003f0 0b 23 66 3c 1f 30 0c 3c b4 a4 6a bd ce e5 c7 bc
       0.014046441 0.008556395 -0.05728598 -0.024401572

fc.bias f4 [36]
000000 4b eb cd bd cf 47 f0 b9 be 46 13 bd 35 b7 65 3d
       -0.10054644 -0.0004582987 -0.035956137 0.056082923
000010 bf 97 bb bd fd dc 18 bc b3 4a 28 bd bf 05 e4 bd
       -0.09159803 -0.009330031 -0.041086864 -0.111339085
000020 4d 17 3d 3c 0b e3 ca 3b 26 d8 cc bd db 06 21 bd
       0.0115412 0.0061916164 -0.100021645 -0.03931318
000030 63 26 25 3c 63 5f 32 bd 5a 91 88 bc a2 db 28 bd
       0.010079953 -0.043548 -0.016670872 -0.041225083
000040 72 6d b5 bd e0 c7 02 bd 76 f7 b9 bd 23 bd 76 3d
       -0.08858766 -0.031928897 -0.090804026 0.06023897
000050 a9 5e 5f bd 7e 2d 85 bd d3 0d 87 bc 63 6e 6c bd
       -0.054533634 -0.065028176 -0.016486084 -0.05772246
000060 d5 d2 73 3d 0b db 12 bd f3 81 82 3d 9a 65 9f bd
       0.059527237 -0.035853427 0.06372442 -0.07783051
000070 61 1c 2d bd 86 be d9 bd 07 50 8f 3d b1 e4 ff bb
       -0.042263392 -0.106320426 0.06997686 -0.0078092446
000080 fb 4c 46 bd 97 fb 39 bd d1 f1 38 bc be 76 1d bd
       -0.048413258 -0.04540595 -0.011288122 -0.03844332
