situation_analysis/best_models/model_window60_horizon5.pth (torch, 299882 bytes, 27 tensors)

adapt_adj f4 [60, 60]
0	0x3f73a9e6	0.9518112
1	0xbd456bf6	-0.048198663
2	0xbd44eddd	-0.048078407
3	0xbd478cb7	-0.04871818
4	0xbd47727b	-0.04869316
5	0xbd46951a	-0.048482038
6	0xbd468657	-0.04846796
7	0xbd45b986	-0.048272632
8	0xbd440825	-0.04785933
9	0xbd423570	-0.047414243
10	0xbd3ed693	-0.046591353
11	0xbd3c0105	-0.04589941
12	0xbd38429f	-0.04498541
13	0xbd35ac2b	-0.044353645
14	0xbd33edbe	-0.0439279
15	0xbd30ba0d	-0.04314618
16	0xbd2e9d84	-0.042630687
17	0xbd2d62b6	-0.042330466
18	0xbd2b5f97	-0.04183921
19	0xbd2b14be	-0.04176783
20	0xbd296b1b	-0.04136191
21	0xbd288a30	-0.04114741
22	0xbd2730a6	-0.04081788
23	0xbd27bf4e	-0.040953927
24	0xbd27899a	-0.04090271
25	0xbd27a2fb	-0.040926915
26	0xbd26edc9	-0.040754113
27	0xbd2414ff	-0.040059086
28	0xbd233bff	-0.03985214
29	0xbd214970	-0.039376676
30	0xbd1f30f4	-0.038865045
31	0xbd1e4a0f	-0.038644847
32	0xbd1bfe0a	-0.038084067
33	0xbd1b5551	-0.03792316
34	0xbd168702	-0.036749847
35	0xbd14bd3a	-0.036313273
36	0xbd14b3a7	-0.036304142
37	0xbd147b25	-0.036250252
38	0xbd13ca4e	-0.036081605
39	0xbd13d6cf	-0.03609353
40	0xbd1328b2	-0.035927482
41	0xbd1429c2	-0.036172636
42	0xbd157754	-0.036490753
43	0xbd1430c4	-0.03617932
44	0xbd166a55	-0.0367225
45	0xbd163fe5	-0.03668203
46	0xbd1560d5	-0.0364693
47	0xbd13b7b6	-0.036063872
48	0xbd0fe59b	-0.03513108
49	0xbd0d6262	-0.034517653
50	0xbd0aeadc	-0.033915386
51	0xbd083fd2	-0.03326399
52	0xbd04868b	-0.032354873
53	0xbd012416	-0.031528555
54	0xbcfd6934	-0.030933954
55	0xbcf8068c	-0.03027656
56	0xbcf28e30	-0.029608816
57	0xbce98751	-0.028506907
58	0xbcde5aa1	-0.027142825
59	0xbce876fb	-0.028377047
60	0xbd3d00cb	-0.046143334
61	0x3f740d6f	0.95333
62	0xbd3eda80	-0.046595097
63	0xbd40e34f	-0.04709178
64	0xbd406fb4	-0.04698153
65	0xbd3fa239	-0.046785567
66	0xbd3f9126	-0.046769284
67	0xbd3e898b	-0.04651789
68	0xbd3cf6bb	-0.046133738
69	0xbd3b5a69	-0.04574052
70	0xbd37d586	-0.044881366
71	0xbd3532e9	-0.044238005
72	0xbd31c628	-0.043401867
73	0xbd2f57b4	-0.04280825
74	0xbd2d6f42	-0.04234243
75	0xbd2a74a0	-0.04161513
76	0xbd287bda	-0.04113374
77	0xbd26f99f	-0.0407654
78	0xbd250c60	-0.040295005
79	0xbd24bfae	-0.040221862
80	0xbd231698	-0.03981647
81	0xbd226706	-0.039649032
82	0xbd20e519	-0.039280985
83	0xbd212a94	-0.039347246
84	0xbd20a010	-0.039215147
85	0xbd20a2d0	-0.03921777
86	0xbd1fef08	-0.039046317
87	0xbd1d565a	-0.03841243
88	0xbd1c6423	-0.038181435
89	0xbd1ab7fe	-0.037773125
90	0xbd18c681	-0.037298683
91	0xbd17ae97	-0.037031736
92	0xbd153a4e	-0.036432557
93	0xbd14bc6c	-0.036312506
94	0xbd107b4c	-0.035273835
95	0xbd0e9c0d	-0.03481679
96	0xbd0e6a55	-0.034769375
97	0xbd0e461a	-0.034734823
98	0xbd0dcae8	-0.034617335
99	0xbd0e2b44	-0.03470923
100	0xbd0d6446	-0.034519456
101	0xbd0e1f48	-0.0346978
102	0xbd0f04ed	-0.034916807
103	0xbd0db76c	-0.034598753
104	0xbd0fca57	-0.035105076
105	0xbd0f7feb	-0.0350341
106	0xbd0e8564	-0.03479518
107	0xbd0cfca6	-0.03442063
108	0xbd095710	-0.033530295
109	0xbd06d912	-0.032921858
110	0xbd042b95	-0.032268126
111	0xbd01c95d	-0.031686176
112	0xbcfc973a	-0.03083383
113	0xbcf63661	-0.030055227
114	0xbcf1d007	-0.02951814
115	0xbcec6240	-0.028855443
116	0xbce6c974	-0.028172232
117	0xbcddda18	-0.027081534
118	0xbcd43f01	-0.025908949
119	0xbcdcf02d	-0.026969993
120	0xbd37461b	-0.044744592
121	0xbd395ecc	-0.04525642
122	0x3f744e5c	0.95432067
123	0xbd3d2ce4	-0.04618539
124	0xbd3cd91b	-0.046105485
125	0xbd3b9c87	-0.045803573
126	0xbd3b88f0	-0.04578489
127	0xbd3a858a	-0.04553751
128	0xbd38b471	-0.045093957
129	0xbd36f50e	-0.044667296
130	0xbd338ec5	-0.043837328
131	0xbd30db18	-0.043177694
132	0xbd2d72ad	-0.04234569
133	0xbd2afe23	-0.04174627
134	0xbd291948	-0.041283876
135	0xbd2616c5	-0.04054906
136	0xbd240ee3	-0.04005326
137	0xbd2282e0	-0.039675593
138	0xbd20c549	-0.039250646
139	0xbd2048f7	-0.039132085
140	0xbd1ed9a1	-0.038781766
141	0xbd1e20fb	-0.03860567
142	0xbd1c976d	-0.03823035
143	0xbd1c9104	-0.038224235
144	0xbd1c1dfe	-0.03811454
145	0xbd1c0726	-0.038092755
146	0xbd1bacd4	-0.03800662
147	0xbd193dbe	-0.037412398
148	0xbd18a61e	-0.037267797
149	0xbd16b5c3	-0.036794435
150	0xbd14ac98	-0.03629741
151	0xbd13d072	-0.03608746
152	0xbd116a3e	-0.03550171
153	0xbd10fec7	-0.035399225
154	0xbd0cb044	-0.034347787
155	0xbd0a91c5	-0.033830423
156	0xbd0a2916	-0.03373059
157	0xbd09c1b3	-0.03363199
158	0xbd094ef7	-0.033522572
159	0xbd09dbfc	-0.03365706
160	0xbd094250	-0.033510506
161	0xbd09ebae	-0.033672027
162	0xbd0b2140	-0.033967257
163	0xbd0a0c9a	-0.033703424
164	0xbd0bd970	-0.03414291
165	0xbd0bb312	-0.03410632
166	0xbd0abbb4	-0.033870414
167	0xbd094d49	-0.03352097
168	0xbd05e3ce	-0.032687955
169	0xbd033f5f	-0.032042857
170	0xbd00f4cf	-0.031483468
171	0xbcfd2b8b	-0.030904552
172	0xbcf65f0e	-0.030074622
173	0xbcf034be	-0.029322024
174	0xbcebeb11	-0.028798612
175	0xbce6c8f6	-0.028171998
176	0xbce0b278	-0.02742885
177	0xbcd8ca01	-0.02646351
178	0xbccf758a	-0.025324602
179	0xbcd7f6af	-0.026362745
180	0xbd37cef6	-0.044875108
181	0xbd39e05a	-0.045379974
182	0xbd3b46f1	-0.045721952
183	0x3f740f20	0.9533558
184	0xbd3ebbaf	-0.046565708
185	0xbd3d7e83	-0.04626323
186	0xbd3d3987	-0.04619744
187	0xbd3c5c2c	-0.04598634
188	0xbd3a5dc4	-0.045499578
189	0xbd38c997	-0.045114126
190	0xbd355ad1	-0.044276062
191	0xbd32a162	-0.043610938
192	0xbd2f28b6	-0.042763434
193	0xbd2cc58a	-0.042180575
194	0xbd2b0e22	-0.041761525
195	0xbd2828ec	-0.04105465
196	0xbd26427a	-0.04059074
197	0xbd2481f8	-0.04016301
198	0xbd229c6a	-0.03969995
199	0xbd224fc8	-0.039626867
200	0xbd20a4e5	-0.039219756
201	0xbd1ffc28	-0.039058834
202	0xbd1e6885	-0.038673896
203	0xbd1e9fcc	-0.038726613
204	0xbd1dcb8d	-0.0385242
205	0xbd1db767	-0.038504984
206	0xbd1d293e	-0.03836941
207	0xbd1a716c	-0.037705824
208	0xbd1984eb	-0.037480276
209	0xbd17b4a8	-0.03703752
210	0xbd156638	-0.036474437
211	0xbd14503f	-0.03620934
212	0xbd123bad	-0.035701443
213	0xbd1193e0	-0.035541415
214	0xbd0d9882	-0.03456927
215	0xbd0b8157	-0.034058895
216	0xbd0b3be5	-0.033992667
217	0xbd0acd0d	-0.033886958
218	0xbd0a4d03	-0.03376485
219	0xbd0ab8e2	-0.033867724
220	0xbd0a5490	-0.03377205
221	0xbd0aef99	-0.033919904
222	0xbd0bd99e	-0.034143083
223	0xbd0afd46	-0.033932947
224	0xbd0cb5b9	-0.03435299
225	0xbd0c60b1	-0.0342719
226	0xbd0b71cf	-0.034044083
227	0xbd09d2b2	-0.0336482
228	0xbd060b26	-0.032725476
229	0xbd03ab62	-0.032145865
230	0xbd01099e	-0.031503312
231	0xbcfddf0f	-0.030990152
232	0xbcf74f88	-0.03018929
233	0xbcf12c10	-0.029439956
234	0xbcecd35a	-0.028909374
235	0xbce7f531	-0.028315159
236	0xbce249b2	-0.027623031
237	0xbcd9799c	-0.026547246
238	0xbccf62e4	-0.02531571
239	0xbcd7bd01	-0.026335241
240	0xbd30956b	-0.043111246
241	0xbd32182c	-0.043480083
242	0xbd33d3d8	-0.0439032
243	0xbd373a4f	-0.04473334
244	0x3f74757d	0.9549177
245	0xbd375209	-0.04475597
246	0xbd369209	-0.044572864
247	0xbd35f4ea	-0.04442302
248	0xbd345fd5	-0.044036705
249	0xbd328c30	-0.043590724
250	0xbd2f726b	-0.042833727
251	0xbd2d0a82	-0.04224635
252	0xbd29d982	-0.041467197
253	0xbd2781c1	-0.040895227
254	0xbd25d224	-0.04048361
255	0xbd233ae4	-0.039851084

gc1.fc.weight f4 [64, 30]
0	0x3dea3e3a	0.1143765
1	0xbb1311e0	-0.0022441074
2	0x3ce312c1	0.027718903
3	0xbd3d3f57	-0.046202984
4	0xbb74bf35	-0.0037345414
5	0xbe2d0d71	-0.16899659
6	0x3bfae335	0.0076564797
7	0xbdc61971	-0.09672821
8	0xbd843613	-0.06455626
9	0xbe3751b7	-0.17902265
10	0xbd96b6f3	-0.073591135
11	0x3d31fdac	0.04345481
12	0xbdd506db	-0.10401698
13	0x3d99e98e	0.0751525
14	0xbd05fe14	-0.03271301
15	0xbcf42f48	-0.029807702
16	0xbcd0e265	-0.025498578
17	0xbdd21c0e	-0.10259257
18	0x3d5f931e	0.05458366
19	0x3c91f4eb	0.017816981
20	0xbdbefb4a	-0.09325273
21	0x3e27c9f1	0.16385628
22	0xbdf454d8	-0.11930245
23	0x3dc62b23	0.096761964
24	0xbd1c94c6	-0.03822782
25	0x3c86e3d4	0.016466059
26	0x3e2e0d91	0.16997363
27	0xbdd7a949	-0.105303355
28	0xbdd9baf9	-0.10631365
29	0x3e890883	0.26764306
30	0xbd1b2657	-0.03787836
31	0xbdaadea8	-0.083432496
32	0xbc680c43	-0.01416308
33	0x3daf2dfb	0.08553692
34	0xbe034882	-0.12820628
35	0x3d4d3f06	0.050108932
36	0xbd2a03f7	-0.041507687
37	0x3e12d590	0.1433928
38	0x3e79e685	0.24404342
39	0xbe02bbca	-0.12766948
40	0x3e1a91f1	0.15094735
41	0xbcc913a8	-0.024545506
42	0x3c230c4e	0.009951664
43	0xbdfe9d94	-0.124323994
44	0xbe1a4f9d	-0.15069433
45	0xbd92293e	-0.071367726
46	0xbccb38ac	-0.024807297
47	0x3d994abb	0.07484957
48	0xbe4e8139	-0.20166482
49	0xbd67013b	-0.056397658
50	0xbe1d8729	-0.15383591
51	0x3ddb7de7	0.10717373
52	0x3df7e33d	0.12103889
53	0xbd9ec582	-0.077525154
54	0xbdc764a1	-0.0973599
55	0xbd737be9	-0.05944434
56	0x3d266257	0.040621128
57	0xbdb88300	-0.09009361
58	0x3d934c1b	0.0719225
59	0x3d9dc9a6	0.07704477
60	0x3e149067	0.1450821
61	0x3e255a71	0.16147782
62	0x3e0b11d5	0.13581021
63	0x3de3f094	0.11129871
64	0x3e12a230	0.14319682
65	0x3e2af5b7	0.16695295
66	0xbda4db9c	-0.080497
67	0xbd7ffe5a	-0.062498428
68	0xbdc843d9	-0.09778566
69	0x3a2edd3e	0.0006670541
70	0x3dbb647c	0.09150025
71	0xbbb326e6	-0.0054672835
72	0x3cd55abe	0.026044246
73	0x3d8a69e1	0.06758476
74	0x3d802ac1	0.06258155
75	0x3c78f091	0.015194074
76	0xbd46d32f	-0.048541244
77	0xbe54ee0d	-0.20793934
78	0xbe008382	-0.12550166
79	0xbd7e92d6	-0.062151752
80	0xbdd11c16	-0.10210435
81	0xbded1c2f	-0.11577641
82	0x3e1046b2	0.14089468
83	0x3e3dc28d	0.18531246
84	0xbdbbe0c9	-0.09173734
85	0x3c877510	0.016535312
86	0xbe469594	-0.19392997
87	0x3dc8e540	0.09809351
88	0x3cb48d6e	0.022040095
89	0x3de85aad	0.1134542
90	0x3e020cdb	0.12700216
91	0x3e128180	0.14307213
92	0xbdbac501	-0.09119607
93	0x3d2d863a	0.042364337
94	0xbe123930	-0.14279628
95	0xbdb98233	-0.09058037
96	0xbd2c2447	-0.042026784
97	0x3e94c086	0.29053134
98	0xbe3bd4ba	-0.18342867
99	0x3e310a89	0.17289175
100	0xbe10206d	-0.1407487
101	0xbd862750	-0.06550467
102	0x3dd86832	0.10566749
103	0xbe3672a8	-0.17817175
104	0xbda862c6	-0.082219645
105	0x3db3ade0	0.087733984
106	0x3e099f64	0.13439709
107	0xbdb44a4c	-0.088032335
108	0x3dbd50c4	0.092439204
109	0x3e0f922d	0.14020605
110	0xbcd8bc4b	-0.026456973
111	0x3e008ea0	0.12554407
112	0xbce05205	-0.02738286
113	0xbde56767	-0.11201363
114	0x3dbbaad0	0.09163439
115	0xbdb96336	-0.09052126
116	0xbc629e1a	-0.01383164
117	0xbe336d7e	-0.17522237
118	0x3d27e2d2	0.040987797
119	0x3cd216f2	0.025645707
120	0x3e20a73e	0.15688798
121	0x3e40b80d	0.1882021
122	0x3c42e6cf	0.011895849
123	0xbd5fed5b	-0.05466972
124	0xbe38fa1b	-0.18064158
125	0xbe196af7	-0.1498221
126	0x3db4fd28	0.08837348
127	0x3e82a4ad	0.25516263
128	0xbe332339	-0.17493905
129	0x3e174554	0.1477254
130	0xbd425ab2	-0.047449775
131	0xbd80817a	-0.06274696
132	0xbb034152	-0.0020027948
133	0xbe25db49	-0.16196932
134	0x3dffad77	0.12484258
135	0xbda89863	-0.082321905
136	0x3d852ef1	0.06503094
137	0x3e27981e	0.16366622
138	0x3d432f81	0.047652725
139	0x3e22353f	0.15840624
140	0x3e349e05	0.17638405
141	0x3de1d5c3	0.110271
142	0xbd340c67	-0.04395714
143	0xbc3d6d4f	-0.011561706
144	0xbcf8c05d	-0.030365163
145	0x3da3372b	0.07969507
146	0x3e1323ee	0.14369175
147	0xbbc2f1f3	-0.0059492528
148	0xbb1e1003	-0.002411843
149	0xbe216b14	-0.15763503
150	0xbca5addf	-0.02022451
151	0xbdade7dc	-0.08491489
152	0xbe31910f	-0.17340492
153	0xbac8c0af	-0.0015316213
154	0xbd04450c	-0.03229241
155	0x3d0c4336	0.034243785
156	0x3d867baf	0.065665595
157	0x3cc59902	0.024120811
158	0xbcf2cd87	-0.029639019
159	0x3e44df00	0.19225693
160	0x3e415021	0.18878223
161	0x3d308aff	0.043101307
162	0x3e3e4ce0	0.18584013
163	0x3ca9f7cb	0.02074804
164	0xbe3ce8f7	-0.18448244
165	0xbdac0a41	-0.08400393
166	0x3e443293	0.19159918
167	0xbd817e5a	-0.06322928
168	0xbe0a186e	-0.13485882
169	0xbda6b825	-0.081405915
170	0xbe0995b3	-0.13436012
171	0x3d557724	0.052115574
172	0xba9c23b3	-0.0011912495
173	0xbd013b01	-0.03155041
174	0x3e4fa3e6	0.20277366
175	0x3ddafc71	0.106926806
176	0xbd8af931	-0.06785811
177	0x3dbbb8bc	0.09166095
178	0x3e021791	0.12704302
179	0x3da037ba	0.07823129
180	0x3d43ff0a	0.047850646
181	0xbda8cd08	-0.082422316
182	0x3cb7ffdc	0.02246087
183	0xbdabfb0d	-0.083974935
184	0xbdd7f364	-0.1054447
185	0xbe21d177	-0.15802561
186	0xbe1ee0e1	-0.15515472
187	0x3dec29c8	0.11531407
188	0x3dd73840	0.10508776
189	0x3d08850a	0.03333
190	0xbe15ce8d	-0.14629574
191	0xbe15e47b	-0.1463794
192	0xbca7997d	-0.020458931
193	0x3e29a3e9	0.16566433
194	0xbdb0aa33	-0.08626213
195	0xbdd9a6bb	-0.106275044
196	0x3c6c40a7	0.014419711
197	0xbe03248d	-0.12806912
198	0xbb5de79a	-0.003385997
199	0xbcfd2888	-0.030903116
200	0x3e20176e	0.15633938
201	0xbe2140e1	-0.15747406
202	0xbd09f3bd	-0.033679713
203	0xbe55edb3	-0.20891456
204	0x3d09ebca	0.03367213
205	0x3e175112	0.1477702
206	0x3e00d264	0.12580258
207	0xbe45c350	-0.19312787
208	0x3e372fd8	0.17889345
209	0x3e59214c	0.21204108
210	0xbe8585cd	-0.26078644
211	0x3d98729a	0.074437335
212	0xbddfc8fb	-0.10927006
213	0x3cd825f4	0.026385285
214	0xbdcf9ef1	-0.101377375
215	0xbdb37890	-0.0876323
216	0xbd68e3cd	-0.056857873
217	0x3d49ab18	0.049235433
218	0xbe2a8ece	-0.16656038
219	0xbde0d388	-0.109778464
220	0x3e2e1309	0.16999449
221	0x3e5ebd3c	0.21751875
222	0x3dc3535c	0.09537384
223	0xbca11d17	-0.019667191
224	0xbc191b5d	-0.009344903
225	0x3e19a091	0.15002657
226	0xbcf8e516	-0.030382674
227	0x3e17cb6a	0.1482369
228	0x3e1dc4e6	0.15407142
229	0x3d1f20ef	0.038849767
230	0xbd1f96f4	-0.03896232
231	0x3c240289	0.01001037
232	0x3ca98e42	0.020697717
233	0xbd9222b0	-0.07135522
234	0x3da43192	0.08017267
235	0xbc3fba33	-0.011702108
236	0x3dbdde83	0.09270956
237	0x3e19b408	0.15010083
238	0xbd0c5f8a	-0.0342708
239	0xbd80bb4c	-0.06285724
240	0x3cf7d436	0.030252557
241	0xbe180f11	-0.14849497
242	0x3dba3479	0.090920396
243	0xbd8ae107	-0.06781202
244	0xbe3729ab	-0.17886989
245	0x3e476b24	0.19474465
246	0xbe04ff22	-0.1298795
247	0xbdc6b73c	-0.09702918
248	0xbe2a24f1	-0.16615655
249	0xbdfb926c	-0.12283787
250	0xbe4272db	-0.18989126
251	0x3d5f35ff	0.054494854
252	0xbcfd8fed	-0.030952418
253	0xbb804d20	-0.003915444
254	0xbd2a3cfa	-0.041562058
255	0xbb963722	-0.004584209

gc1.fc.bias f4 [64]
0	0xbdf52277	-0.11969464
1	0xbdf03801	-0.11729432
2	0xbe345b67	-0.17612992
3	0x3cfe16a1	0.03101665
4	0xbde5b6e4	-0.11216524
5	0xbda0b19c	-0.07846376
6	0x3d933f3b	0.07189795
7	0x3d365278	0.044512242
8	0x3d699e49	0.057035718
9	0x3d6558c7	0.055992868
10	0x3d8f7c33	0.07006111
11	0x3db0e430	0.08637273
12	0x3e4b5904	0.19858176
13	0xbe243878	-0.16037166
14	0x3d9d22ab	0.07672628
15	0xbe0ec339	-0.13941659
16	0xbda77d31	-0.08178175
17	0xbe3c5d16	-0.18394884
18	0xbe140b73	-0.14457493
19	0xbe2c1c9b	-0.16807787
20	0xbcef0eed	-0.029181922
21	0x3dc06c17	0.093956165
22	0x3baad65c	0.005213542
23	0x3c580bf4	0.013186444
24	0x3de76c4e	0.11299954
25	0xbe942ecd	-0.28941956
26	0xbb8b2763	-0.0042466386
27	0xbd96c10d	-0.0736104
28	0xbe0c5f43	-0.13708214
29	0xbe013f34	-0.12621766
30	0xbde08af9	-0.10964007
31	0xbbf78e9a	-0.007554841
32	0x3ccac2ff	0.024751185
33	0xbe0b46d1	-0.13601233
34	0xbd56f710	-0.05248171
35	0x3d8e4f94	0.06948772
36	0xbe3e79ae	-0.18601105
37	0xbe188170	-0.14893126
38	0xbddefb38	-0.1088776
39	0x3c8e29c1	0.017353894
40	0x3c341798	0.010991953
41	0x3d04c7b7	0.032417025
42	0x3de9bd78	0.114130914
43	0x3cfff977	0.031246884
44	0x3d8425be	0.06452511
45	0x3e03a5bb	0.1285619
46	0xbd88e5b8	-0.066844404
47	0x3ce4a123	0.027908867
48	0xbe0f92c8	-0.14020836
49	0xbca2be7e	-0.019866224
50	0xbd0047a7	-0.031318333
51	0xbcd2ab0e	-0.02571633
52	0xbe074724	-0.13210732
53	0xbd539997	-0.051660147
54	0xbd474657	-0.048651066
55	0xbe10ba9e	-0.14133689
56	0xbdc43126	-0.09579687
57	0xbdffcd46	-0.12490325
58	0xbdeb3d3f	-0.11486291
59	0x3e0e95c7	0.13924323
60	0xbe0133bf	-0.12617396
61	0x3d9a32ac	0.07529196
62	0xbdd23fac	-0.10266051
63	0xbda8401f	-0.08215355

gc2.fc.weight f4 [64, 64]
0	0xbd9261ca	-0.07147558
1	0xbd584c72	-0.05280728
2	0xbdf7364a	-0.12070902
3	0x3e18d309	0.14924254
4	0x3de8805e	0.11352609
5	0x3ddfdd36	0.109308645
6	0xbd8c6b76	-0.06856434
7	0x3dd77182	0.10519697
8	0x3d5322d3	0.051546883
9	0xbe07b910	-0.1325419
10	0xbdd3ae5a	-0.10335989
11	0xbdbe49c1	-0.09291411
12	0xbda12c2d	-0.07869754
13	0xbcd2a6a1	-0.02571422
14	0xbd97f435	-0.07419626
15	0xbd00369b	-0.031302076
16	0x3d2e52fd	0.042559613
17	0x3cb8264e	0.022479203
18	0x3d9e953d	0.07743309
19	0x3d945e03	0.07244494
20	0xbe23bde4	-0.15990406
21	0xbdfa3fdb	-0.12219211
22	0xbbfd4129	-0.007728715
23	0xbe094cd2	-0.13408211
24	0x3dc40af5	0.095724024
25	0x3cc08533	0.023501014
26	0x3c86430c	0.016389392
27	0x3da8400f	0.08215343
28	0x3dc0b949	0.0941034
29	0x3dbac621	0.09119821
30	0xbb987af8	-0.004653331
31	0xbdc0604b	-0.093933664
32	0x3ddcb726	0.1077712
33	0xbd311045	-0.043228406
34	0x3d6ee376	0.058322392
35	0x3e167d28	0.14696181
36	0x3cea8dd9	0.028632091
37	0xbe1b5274	-0.15168172
38	0xbd213c00	-0.03936386
39	0xbccdf1e8	-0.025139764
40	0xbdb38831	-0.08766211
41	0xbdcb9671	-0.09940804
42	0xbdb86ff1	-0.09005726
43	0x3dd9917d	0.10623453
44	0xbd7497fa	-0.05971525
45	0x3e14f7ff	0.14547728
46	0xbe0cfa22	-0.13767293
47	0xbc170b7e	-0.009219049
48	0xbddffead	-0.109372474
49	0xbc2e5372	-0.010640012
50	0xbc09d014	-0.008411426
51	0xbcabdc5f	-0.020979105
52	0x3da7ece4	0.0819948
53	0xbe17935e	-0.1480231
54	0x3db7d45b	0.089760505
55	0xbd6754a3	-0.0564772
56	0x3c74970d	0.014928591
57	0x3d4070d8	0.046982616
58	0xbccec0e6	-0.025238466
59	0xbd54495e	-0.05182778
60	0x3aeb18f5	0.0017936515
61	0x3cc7bc4e	0.024381783
62	0x3d8b6a83	0.06807425
63	0xbcf66cf5	-0.030081252
64	0xbc5eb4b9	-0.013592892
65	0xbdf3b08d	-0.11898909
66	0xbddf924b	-0.10916575
67	0xbd1bbcb1	-0.038021747
68	0x3c21d513	0.009877461
69	0xbdc16170	-0.09442413
70	0xbe1d5e57	-0.15368019
71	0x3c8631ec	0.016381226
72	0xbcf77b30	-0.030210108
73	0xbdf2810d	-0.11841021
74	0xbc0b4aca	-0.008501718
75	0xbe0722c4	-0.13196856
76	0xbe40faf9	-0.18845738
77	0x3d53bfd1	0.051696602
78	0xbe045fe2	-0.12927201
79	0x3c8fda3d	0.017560119
80	0xbd837ca0	-0.06420255
81	0x3c0d9f64	0.008643959
82	0xbdadc8b1	-0.084855445
83	0xbd33bf9e	-0.043883912
84	0xbce246e3	-0.027621692
85	0x3d057db3	0.03259058
86	0xbc362467	-0.011117077
87	0x3a5a512f	0.00083281373
88	0x3d6b4bf0	0.057445467
89	0xbd9144f3	-0.07093229
90	0xbcdb3bb6	-0.02676187
91	0x3dba974b	0.09110888
92	0x3d226eaf	0.039656337
93	0xbdd7508f	-0.10513412
94	0x3bf5990c	0.0074950512
95	0x3c0f27f7	0.008737556
96	0xbbb72fc4	-0.005590411
97	0xbd83c9f7	-0.06435006
98	0xbcaeae5b	-0.021323374
99	0xbe2e910d	-0.1704752
100	0xbd44085b	-0.04785953
101	0x3cd11076	0.025520544
102	0x3d2c5002	0.04206849
103	0xbd98d0dd	-0.074617125
104	0xbca091b9	-0.019600736
105	0xbd7d358c	-0.061818644
106	0x3d3a5541	0.04549146
107	0xbda4ef2a	-0.080534294
108	0xbe3d8e64	-0.18511349
109	0xbd8f606e	-0.070008144
110	0xbc394aa1	-0.011309297
111	0xbddfd90e	-0.10930072
112	0x3d5a565a	0.053305008
113	0xbdb0babd	-0.086293675
114	0x3cde2e65	0.027121732
115	0xbd7e0703	-0.062018406
116	0xbc9820dc	-0.018570356
117	0xbd01b5a1	-0.031667355
118	0xbe125f16	-0.14294085
119	0x3de7c8af	0.11317574
120	0xbe362872	-0.17788866
121	0x3cbc7b32	0.023007963
122	0xbdb0e3db	-0.0863721
123	0xbd01e13d	-0.031708945
124	0x3d721fc3	0.05911232
125	0xbda00831	-0.078140624
126	0x3d6ea5ae	0.058263473
127	0xbe163a3b	-0.1467065
128	0xbe53c8e0	-0.20682096
129	0x3dfcc39d	0.12341998
130	0xbd814fbb	-0.063140355
131	0xbe375418	-0.17903173
132	0xbd6911e7	-0.05690184
133	0xbd0c3b53	-0.034236263
134	0xbd2a0b46	-0.041514657
135	0xbdf0897a	-0.117449716
136	0x3da455c8	0.08024174
137	0x3d2de9ee	0.04245942
138	0x3d59f43b	0.053211432
139	0xbc71cb13	-0.014757889
140	0x3d8a6ba0	0.06758809
141	0x3dcbf210	0.09958279
142	0xbe4dc6c6	-0.20095357
143	0x3bf6df18	0.007533919
144	0xbde16587	-0.11005693
145	0xbd0603c2	-0.032718427
146	0xbd39c379	-0.045352433
147	0xbd6b8093	-0.057495665
148	0xbe17cede	-0.14825007
149	0x3bb473bc	0.0055069607
150	0xbdc5fd1f	-0.0966742
151	0xbe9379ff	-0.28804013
152	0xbe88b3ac	-0.2669958
153	0xbe2dbef0	-0.16967368
154	0xbe0c6c5e	-0.13713214
155	0xbe27caee	-0.16386005
156	0xbe152c48	-0.14567673
157	0xbdb3a4ba	-0.087716535
158	0x3d08887a	0.03333328
159	0xbe0e9774	-0.13924962
160	0x3cc3bbb3	0.023893213
161	0x3d97cdcd	0.074123
162	0xbe2ebe52	-0.17064789
163	0xbd8614f7	-0.065469675
164	0x3e5fc061	0.2185073
165	0xbdadeeef	-0.084928386
166	0xbd9b39bc	-0.07579371
167	0x3e0af9c8	0.13571846
168	0xbd1b1b08	-0.037867576
169	0xbdb14712	-0.08656134
170	0x3d63c4dc	0.05560766
171	0xbde31f02	-0.11089899
172	0x3dab33f0	0.08359516
173	0xbe2e29f3	-0.1700819
174	0xbdcfa509	-0.101389
175	0xbe05c560	-0.13063574
176	0xbe7c4ea2	-0.24639371
177	0x3a51252c	0.00079782563
178	0xbda3c143	-0.07995846
179	0xbe8c0350	-0.27346277
180	0x3d52ad05	0.051434536
181	0x3d167605	0.036733646
182	0xbe177f0f	-0.14794563
183	0x3e3a0fbd	0.18170066
184	0x3d502b3b	0.050822478
185	0x3d443e8f	0.047911223
186	0xbe5884e9	-0.21144451
187	0xbe5dc1aa	-0.21655908
188	0x3d9ca610	0.076488614
189	0x3d96f898	0.07371634
190	0xbd061374	-0.032733396
191	0xbe2decd5	-0.16984876
192	0x3d2056d8	0.03914532
193	0x3c8d67fa	0.017261494
194	0x3a718360	0.0009212997
195	0xbdaa5d20	-0.083185434
196	0x3dfd2447	0.12360435
197	0x3e1af4a3	0.15132384
198	0xbcc24645	-0.023715148
199	0x3e2b6e0d	0.167412
200	0xbe034d1a	-0.1282238
201	0xbd063799	-0.032767866
202	0xbe33e7f0	-0.17568946
203	0x3d2975e4	0.041372195
204	0x3d0e4d6a	0.034741797
205	0xbdce8ae4	-0.10085085
206	0x3e12d652	0.14339569
207	0x3de875ef	0.11350619
208	0x3d1a1eed	0.03762715
209	0xbd5be196	-0.053681932
210	0x3dcf24ec	0.10114464
211	0x3d14a8e2	0.03629387
212	0x3d33bced	0.043881346
213	0xbd453bbf	-0.04815268
214	0x3d9eb8ed	0.077501155
215	0xbd8e1e9d	-0.06939433
216	0xbd31a845	-0.043373365
217	0x3dff441b	0.12464162
218	0xbd10f997	-0.035394277
219	0xbc443d76	-0.011977544
220	0x3dc6cfa1	0.09707571
221	0xbd382436	-0.04495641
222	0xbe05517a	-0.13019362
223	0xbce29199	-0.027657317
224	0x3d88141d	0.06644461
225	0x3d655fe8	0.055999666
226	0xbbfb1d99	-0.0076634404
227	0x3d3b0c95	0.045666296
228	0x3d889c9e	0.06670497
229	0x3c7d3d78	0.01545655
230	0xbd8109c6	-0.06300692
231	0xbe327155	-0.17426045
232	0x3d47cae9	0.048777495
233	0xbdc5ffcb	-0.09667929
234	0xbd94144e	-0.07230435
235	0xbdbfac9f	-0.09359097
236	0xbe0967cf	-0.13418506
237	0x3ce0410c	0.027374767
238	0xbe2218fb	-0.15829842
239	0xbc7372d8	-0.014858924
240	0xbd8ff867	-0.07029801
241	0x3cde7a32	0.027157877
242	0x3d5b3b9c	0.053523645
243	0xbda4ffcb	-0.08056601
244	0x3d6d6093	0.05795343
245	0xbc2d782b	-0.010587732
246	0xbe1e4b35	-0.15458377
247	0xbb333497	-0.0027344578
248	0xbe301bd5	-0.17198117
249	0x3d080f83	0.033217918
250	0xbc2e259b	-0.010629083
251	0x3e05cb2c	0.13065785
252	0x3d64338b	0.055713218
253	0xbba93d01	-0.005164743
254	0x3de7be6e	0.113156185
255	0x3bde0b38	0.0067762397

gc2.fc.bias f4 [64]
0	0x3deac583	0.114634536
1	0xbd9f5266	-0.07779388
2	0x3dd8f51a	0.105936244
3	0x3c18425f	0.009293168
4	0x3e34ed7d	0.1766872
5	0xbc83836f	-0.016053883
6	0xbd92cbc5	-0.07167772
7	0x3d0bf442	0.03416849
8	0xbd2e0fd8	-0.04249558
9	0x3d388b5b	0.045054775
10	0xbd572366	-0.052523993
11	0xbd1f7f8b	-0.038939994
12	0x3c4cb326	0.012493884
13	0xbafa4696	-0.0019094523
14	0x3d7d8bc8	0.061900884
15	0xbda7f3da	-0.08200808
16	0x3db0e09b	0.0863659
17	0xbd407ade	-0.046992175
18	0x3cd02ea0	0.025412858
19	0xbd82830e	-0.06372653
20	0x3e32b0a0	0.1745019
21	0x3c92ec2f	0.017934887
22	0xbdf0a949	-0.117510386
23	0xbd5c9cb8	-0.053860396
24	0xbe8362e2	-0.2566138
25	0xbd1ea864	-0.03873481
26	0x3d893c55	0.067009605
27	0xbc195fd6	-0.009361228
28	0xbd5149d9	-0.051095817
29	0xbd84dd42	-0.06487514
30	0xbce54ba1	-0.027990164
31	0xbdb06547	-0.08613067
32	0xbcd836b2	-0.026393268
33	0x3db1497e	0.08656596
34	0xbe36e9f8	-0.1786269
35	0xbc3d9140	-0.011570275
36	0x3cee90b0	0.029121727
37	0x3cdfa695	0.027301112
38	0x3cebb419	0.0287724
39	0xbd469fb7	-0.04849216
40	0x3da6ccea	0.08144553
41	0xbd57af1c	-0.05265723
42	0x3bee49d0	0.0072719827
43	0xbd35d8fa	-0.044396378
44	0x3e29fb8f	0.16599868
45	0xbbe598cd	-0.0070067407
46	0x3d04e669	0.0324463
47	0xbd9ce9cc	-0.07661781
48	0xbd20069a	-0.039068796
49	0x3bce87c0	0.0063028038
50	0x3df792cc	0.12088546
51	0x3e0b2770	0.13589263
52	0xbada190f	-0.0016639548
53	0xbd7f76fc	-0.06236933
54	0xbcb73900	-0.022366047
55	0x3d993118	0.07480067
56	0xbd77bb89	-0.06048158
57	0x3de161c1	0.11004973
58	0x3e222d03	0.15837483
59	0x3e05820e	0.13037893
60	0xbe332d13	-0.17497663
61	0x3cbce9a2	0.023060624
62	0xbdcf2dc5	-0.10116152
63	0xbd8eddb1	-0.06975878

temporal_conv.weight f4 [64, 64, 3]
0	0xbe0e4a0f	-0.13895439
1	0xbdfbb1ab	-0.12289747
2	0x3d43d9d4	0.04781516
3	0xbba3269c	-0.004978968
4	0xbc5d4bcf	-0.013506844
5	0x3d489ed1	0.048979584
6	0xbd28a6b5	-0.04117461
7	0xbc8c745d	-0.01714533
8	0xbd1b3b53	-0.037898373
9	0xbd809058	-0.062775314
10	0xbdc1c593	-0.094615124
11	0xbd5a3ca4	-0.053280488
12	0x3de38af1	0.11110485
13	0x3d8ede6e	0.06976019
14	0x3cac50ef	0.021034686
15	0xbdf640e6	-0.12024097
16	0xbe2ce70a	-0.1688501
17	0xbd60ce64	-0.05488433
18	0xbdd460dc	-0.10370037
19	0xbd387aa2	-0.045038827
20	0xbcade035	-0.021225074
21	0xbd834080	-0.06408787
22	0x3d4c94c8	0.049946576
23	0xbc991860	-0.01868838
24	0xbe02f1cb	-0.12787549
25	0xbd9c794a	-0.076403216
26	0xbb918cbe	-0.0044418266
27	0x3e1c5518	0.15266836
28	0x3de93fef	0.113891475
29	0x3d27cdf4	0.040967897
30	0x3e411251	0.18854643
31	0x3da93e2c	0.082638115
32	0xbd483439	-0.04887793
33	0xbd4f9495	-0.05067881
34	0xbd1d04c8	-0.038334638
35	0xbd06a1a5	-0.032869
36	0x3d50583a	0.05086539
37	0xbd4041e1	-0.046937827
38	0xbc133d8a	-0.00898684
39	0xbd4ef783	-0.050529014
40	0xbdfb3c02	-0.12267305
41	0xbd9109ea	-0.07081969
42	0xbd54a682	-0.051916607
43	0x3bcd4626	0.006264466
44	0x3d6c79cf	0.057733353
45	0xbde5bb53	-0.1121737
46	0xbd3edb7d	-0.04659604
47	0x3d19f9a9	0.03759161
48	0x3dce9744	0.100874454
49	0x3e159a96	0.14609751
50	0x3d5162e9	0.05111972
51	0x3d1d8444	0.038456216
52	0x3e1db317	0.15400349
53	0xbb842916	-0.004033218
54	0xbd9ceaea	-0.07661994
55	0xbe2d5e25	-0.16930445
56	0x3c321ad4	0.010870654
57	0xbdba47c0	-0.090957165
58	0xbd9421ca	-0.07233007
59	0xbcd7c085	-0.026336918
60	0x3d92607e	0.07147311
61	0x3ddad809	0.10685737
62	0xbd2dbe6a	-0.04241792
63	0x3d876ff2	0.06613149
64	0xbb6a80b4	-0.003578228
65	0x3d574c72	0.05256314
66	0xbdeb65ec	-0.114940494
67	0xbc835af2	-0.016034577
68	0xbd82c1d8	-0.06384629
69	0x3d311584	0.04323341
70	0x3dff6f18	0.12472361
71	0x3d820030	0.06347692
72	0x3cad805e	0.021179374
73	0x3e2cff0c	0.16894168
74	0x3d579faf	0.05264252
75	0x3db613ee	0.0889052
76	0x3e16b70a	0.14718261
77	0x3d1128b0	0.035439193
78	0x3d4735a1	0.04863513
79	0x3d814280	0.06311512
80	0x3ac347e5	0.0014898746
81	0x3d04519c	0.03230439
82	0x3cc60514	0.024172343
83	0xbd2994c5	-0.041401643
84	0xbdca123a	-0.09866758
85	0xbe081fb7	-0.13293348
86	0xbd5bf9cc	-0.05370502
87	0xbd458bf7	-0.048229184
88	0xbe0d8051	-0.1381848
89	0xbd3e38f3	-0.04644103
90	0xbdc3fb3b	-0.09569403
91	0xbd67f3f2	-0.05662913
92	0x3c2ff0ca	0.010738561
93	0xbdf894fd	-0.12137792
94	0xbdfd7bca	-0.123771265
95	0xbd1b86da	-0.0379704
96	0xbdf2b025	-0.11850003
97	0xbe00b9a6	-0.1257082
98	0x3ce6c3fa	0.02816962
99	0xbdba4bce	-0.0909649
100	0x3bfddcfd	0.007747291
101	0xbd4e0f5b	-0.050307613
102	0xbe0c2bb1	-0.13688542
103	0xbd0d8d40	-0.034558535
104	0x3c234054	0.0099640675
105	0xbda45ca8	-0.08025485
106	0x3ca9d869	0.020733075
107	0x3b642dfd	0.003481745
108	0x3cb660bf	0.022262929
109	0x3be4a29d	0.006977393
110	0xbd028a75	-0.031870324
111	0xbd3402a6	-0.04394784
112	0x3c3801cc	0.011230897
113	0x3d899eb0	0.0671972
114	0x3e2b0143	0.166997
115	0x3e0b3d13	0.13597517
116	0xbd06fb37	-0.03295442
117	0xbe054451	-0.13014342
118	0x3b5bae0a	0.0033520483
119	0xbc0faa79	-0.008768671
120	0xbcc3145d	-0.02381342
121	0x3a46e662	0.00075874303
122	0xbcf309c1	-0.029667737
123	0xbcfd9083	-0.030952698
124	0xbd19adff	-0.03751945
125	0xbc80ede3	-0.015738433
126	0x3c9876b6	0.018611293
127	0xbd3769ff	-0.04477882
128	0xbd37f15b	-0.04490791
129	0xbcc22902	-0.023701195
130	0xbd850b94	-0.06496349
131	0x3c06feff	0.008239507
132	0x3da6a550	0.081369996
133	0x3dbe6b63	0.09297826
134	0xbd80e070	-0.06292808
135	0xbd135b3f	-0.03597569
136	0xbdb3495a	-0.08754225
137	0x3cfb40a5	0.030670473
138	0xbd6b9201	-0.057512287
139	0xbde4f681	-0.111798294
140	0xbd672216	-0.05642899
141	0xbdb5aed0	-0.088712335
142	0xbc51db4e	-0.012808634
143	0xbd0f39cf	-0.03496724
144	0xbd82cde5	-0.063869275
145	0xbd9a479b	-0.07533189
146	0x3aa38512	0.0012475571
147	0x3b8fd6ce	0.0043896204
148	0xbdc99e1f	-0.09844612
149	0xbce86019	-0.028366135
150	0x3c65d112	0.014026897
151	0x3dcd5664	0.10026243
152	0xbd3e69e6	-0.04648771
153	0xbe104516	-0.14088854
154	0xbe263984	-0.16232878
155	0x3cdb927a	0.026803244
156	0x3d847942	0.064684406
157	0x3dc4113d	0.095736004
158	0xbcc1ef4e	-0.02367368
159	0xbc75d7f5	-0.015005101
160	0xbd5a8a1e	-0.053354375
161	0xbc427d22	-0.011870654
162	0xbdc411a1	-0.09573675
163	0xbb0aed14	-0.0021198438
164	0xbb103b6d	-0.0022008077
165	0xbdaee596	-0.08539884
166	0xbd26d92d	-0.04073446
167	0xbbbd91c1	-0.0057851975
168	0xbc7e1449	-0.015507766
169	0xbd6adb86	-0.05733826
170	0x3d313121	0.043259744
171	0x3c77ceab	0.015124957
172	0x3e00e79e	0.12588355
173	0x3d2649b6	0.04059764
174	0x3df5ab63	0.1199558
175	0x3d9c29e2	0.07625176
176	0x3d31f83e	0.043449633
177	0x3e1f52c8	0.15558922
178	0x3d834425	0.06409482
179	0x3ba4deaf	0.0050314288
180	0xbc19f0a1	-0.009395749
181	0xbd3f0ea2	-0.046644814
182	0x3d598715	0.05310734
183	0xbd68b67b	-0.056814652
184	0xbdcf2f11	-0.10116399
185	0xbc52c576	-0.012864461
186	0xbdab62d9	-0.08368463
187	0xbda6f002	-0.081512466
188	0x3d475bf3	0.048671674
189	0xbe026713	-0.12734632
190	0xbd9d65fa	-0.07685466
191	0x3b0d03fb	0.0021517265
192	0xbe40cd67	-0.18828355
193	0xbe49d68f	-0.19710754
194	0xbd0c1069	-0.034195337
195	0xbc742d39	-0.01490336
196	0xbd82628e	-0.06366454
197	0xbd6c5087	-0.057693984
198	0x3d644649	0.05573109
199	0x3dd88010	0.10571301
200	0xbd31748b	-0.043324035
201	0xbd5c61bb	-0.05380414
202	0x3cf7acf0	0.03023383
203	0xbc689fb2	-0.014198231
204	0xbc3cb2fe	-0.011517284
205	0x3d7d6d98	0.061872095
206	0x3d0bf68a	0.034170665
207	0xbde73510	-0.11289418
208	0xbd65ef86	-0.05613663
209	0xbd0af2fc	-0.033923134
210	0xbda5afd8	-0.0809018
211	0x3a2b6bee	0.0006539215
212	0xbc66f029	-0.014095345
213	0xbe0671b1	-0.13129307
214	0xbde33b3f	-0.11095285
215	0x3cb60ad0	0.022221953
216	0xbcd23082	-0.025657896
217	0x3ced357c	0.028956167
218	0x3c5fc1bc	0.01365703
219	0x3d278647	0.04089954
220	0x3ce05c8f	0.027387885
221	0x3d211481	0.039326195
222	0xbd846152	-0.06463875
223	0x3c32a78a	0.010904202
224	0xbcb32a18	-0.021870658
225	0x3da78a95	0.08180729
226	0x3df6a354	0.12042871
227	0xbce9fd07	-0.028563036
228	0x3b60920f	0.0034266745
229	0x3c1890b1	0.009311841
230	0xbd793356	-0.060839973
231	0xbe16b60e	-0.14717886
232	0xbde952c0	-0.113927364
233	0x3cd94cdf	0.026525913
234	0xbd69ab2d	-0.05704801
235	0xbdbf7076	-0.09347622
236	0xbcd18572	-0.025576327
237	0x3dc03df6	0.09386818
238	0xbc2b365e	-0.010449974
239	0x3d8c1ae3	0.06841066
240	0x3c125abf	0.008932768
241	0xbd755fe2	-0.059905894
242	0x3cb8d46a	0.022562224
243	0xbd8b9262	-0.0681503
244	0xbd773c13	-0.060360026
245	0x3d2629da	0.040567257
246	0xbe00f32b	-0.12592761
247	0xbda23251	-0.07919753
248	0x3d831e5a	0.064022735
249	0xbd81a5c7	-0.06330448
250	0x3c3b5820	0.011434585
251	0x3d274829	0.0408403
252	0x3d43bcbb	0.04778741
253	0x3d80fd9c	0.06298372
254	0xbcee85fd	-0.029116625
255	0xbd5ccfe6	-0.053909205

temporal_conv.bias f4 [64]
0	0x3da31f0c	0.07964906
1	0x3dc6faa0	0.09715772
2	0x3de9fbda	0.1142499
3	0x3caecb3d	0.021337146
4	0x3e02f212	0.12787655
5	0xbda31f1b	-0.07964917
6	0x3dea36f6	0.11436264
7	0x3d4563cb	0.048190873
8	0xbcc4892a	-0.023991186
9	0x3e181fd6	0.14855894
10	0xbcf4c7e7	-0.029880477
11	0xbc506994	-0.012720484
12	0x3e2c7ef9	0.16845311
13	0x3daa8ab3	0.08327236
14	0xbba0643b	-0.004894761
15	0x3cb6c102	0.02230883
16	0xbe019b34	-0.12656862
17	0xbd2dde51	-0.042448346
18	0xbe296bd0	-0.16545033
19	0x3d0708c6	0.03296735
20	0xbd889baf	-0.06670319
21	0x3c58a2d1	0.013222412
22	0xbc56aea0	-0.013103157
23	0x3bc036f4	0.005865926
24	0x3ca3cf82	0.019996408
25	0x3c809641	0.015696647
26	0x3c73d87d	0.014883158
27	0xbd719d73	-0.058988046
28	0xbb9e6de2	-0.0048348764
29	0xbd4bbf17	-0.049742784
30	0x3d8457f8	0.06462091
31	0xbded0039	-0.11572308
32	0xbd4f1afd	-0.050562847
33	0x3c81377b	0.015773525
34	0xbe054b5a	-0.13017026
35	0xbe110fdb	-0.14166205
36	0x3d023618	0.03178987
37	0xbca3eb30	-0.020009607
38	0x3d67fced	0.056637693
39	0xbd8f91b9	-0.07010216
40	0x3db58568	0.08863336
41	0x3cf93064	0.030418582
42	0x3d90a37c	0.07062432
43	0x3dbb3c36	0.09142344
44	0xbdf12fd2	-0.11776699
45	0xbdf2152c	-0.118204445
46	0xbd39a348	-0.045321733
47	0xbc06e1ba	-0.008232528
48	0xbd1e7a35	-0.038690764
49	0x3d9b71b8	0.075900495
50	0xbde17efc	-0.110105485
51	0x3c838fe6	0.016059827
52	0xbd9b3cbc	-0.075799435
53	0xbd185930	-0.03719443
54	0x3da5d395	0.08096997
55	0x3c77f9a1	0.0151352
56	0x3d7c652f	0.061619934
57	0x3ddbbe92	0.10729708
58	0x3c2c2d28	0.010508813
59	0x3d4069d6	0.046975933
60	0xba8d9dc0	-0.001080446
61	0x3e149c54	0.1451276
62	0x3da8cae5	0.08241824
63	0x3c2637f4	0.010145176

fc.weight f4 [30, 64]
0	0xbe2f172e	-0.17098686
1	0x3dc0b266	0.09409027
2	0x3e3851a6	0.17999896
3	0xbc63ceeb	-0.013904314
4	0x3e205296	0.15656504
5	0xbdf86dbe	-0.12130307
6	0xbdec781d	-0.11546347
7	0x3d80fcbb	0.062982045
8	0x3dae3970	0.08507049
9	0xbc88da69	-0.016705709
10	0xbe25c368	-0.16187823
11	0x3d286058	0.041107506
12	0xbdebbbfe	-0.11510466
13	0x3e2c05f3	0.16799144
14	0xbe95d635	-0.2926499
15	0xbcf2483b	-0.029575458
16	0xbd9b1eb0	-0.075742126
17	0x3e008966	0.12552413
18	0x3c0a39e3	0.008436653
19	0x3d8a455c	0.067515105
20	0x3d9e7cc8	0.07738644
21	0x3d002adb	0.03129087
22	0x3d8ba54f	0.068186395
23	0xbd18de23	-0.03732122
24	0xbde49d45	-0.11162809
25	0x3d881d3d	0.06646202
26	0xbddf354f	-0.1089884
27	0x393369d0	0.00017110188
28	0xbe27ecfb	-0.16398995
29	0xbd087f88	-0.03332475
30	0x3cc5544a	0.024088044
31	0x3d0e261d	0.034704316
32	0xbdf6af7c	-0.1204519
33	0xbc441acd	-0.01196928
34	0x3da56525	0.080759324
35	0xbda4b3fe	-0.08042143
36	0x3e1094c1	0.14119245
37	0x3d89ca11	0.06727994
38	0xbced83a3	-0.028993433
39	0x3ddc0d47	0.1074472
40	0xbe15650a	-0.14589325
41	0xbe216990	-0.15762925
42	0xbcc5aee9	-0.024131255
43	0xbdca7e0e	-0.09887324
44	0xbd04e576	-0.032445394
45	0x3dd99643	0.10624363
46	0xbd54fc83	-0.051998626
47	0xbdcf84e7	-0.10132771
48	0xbda9199b	-0.08256837
49	0x3d2ca4a4	0.0421492
50	0x3d094ef7	0.033522572
51	0x3e4a9e7f	0.19787024
52	0xbbcf4755	-0.006325642
53	0x3d3cdd93	0.046109747
54	0x3d44e059	0.048065517
55	0x3e15c9ac	0.14627713
56	0x3e266b44	0.16251856
57	0xbdfd5474	-0.12369624
58	0xbd7c0525	-0.061528344
59	0x3d2f0131	0.042725746
60	0x3b7598b6	0.0037475056
61	0x3e573bc5	0.21018894
62	0x3e0399bb	0.12851612
63	0x3dc656a6	0.09684496
64	0xbe0080aa	-0.12549081
65	0xbdc0d408	-0.09415442
66	0xbd6d4bd0	-0.05793363
67	0x3e549127	0.20758496
68	0xbc1dd068	-0.009632207
69	0x3d5c16dc	0.053732738
70	0xbe3aeec6	-0.18255147
71	0x3d69bf6d	0.057067323
72	0x3da7c48b	0.081917845
73	0xbdeed9bd	-0.11662624
74	0xbd83ce4a	-0.06435831
75	0x3c5323a8	0.012886919
76	0xbd51f62f	-0.05126017
77	0xbdbaf992	-0.09129633
78	0x3e0783e9	0.13233913
79	0xbde874fc	-0.11350438
80	0x3d04a11f	0.03238022
81	0x3e1da520	0.15395021
82	0x3d8a3689	0.06748683
83	0x3e087710	0.13326669
84	0x3d145b9a	0.03622017
85	0xbe341544	-0.17586237
86	0x3d49f103	0.049302112
87	0xbce449b6	-0.02786718
88	0xbd38bb68	-0.0451006
89	0xbdf19c8f	-0.11797439
90	0x3d0be35b	0.03415237
91	0xbd84fe37	-0.064938
92	0xbd84307e	-0.06454562
93	0xbc2bf9e7	-0.010496593
94	0x3d8d3ac0	0.06895971
95	0x3e09de84	0.13463789
96	0x3d884095	0.06652943
97	0x3db60264	0.08887175
98	0x3d5431b6	0.05180522
99	0xbd84ab2d	-0.06477962
100	0xbe7025fb	-0.23451988
101	0x3e004df7	0.12529741
102	0xbdc7b712	-0.09751715
103	0xbe092d00	-0.13396072
104	0x3d34f62f	0.04418009
105	0x3df9a90e	0.12190448
106	0x3db9e61e	0.090770945
107	0x3e49ae42	0.1969538
108	0xbd589859	-0.052879665
109	0xbd44847e	-0.047977917
110	0x3e243eaa	0.1603953
111	0x3ddddb18	0.108328044
112	0xbd35379c	-0.044242486
113	0x3dd38df1	0.103298075
114	0x3ded12d0	0.11575854
115	0x3df092f4	0.11746779
116	0x3d30d42e	0.0431711
117	0xbdc52be2	-0.096275106
118	0x3c9e727d	0.019341702
119	0x3d104153	0.035218548
120	0x3b1162ef	0.0022184213
121	0xbdd0a14d	-0.10187016
122	0x3ddfc520	0.109262705
123	0xbd2ac84a	-0.041694917
124	0x3d8b34a6	0.06797151
125	0xbbfa78da	-0.007643801
126	0x3d27d725	0.040976662
127	0xbc5298ac	-0.012853783
128	0x3de45566	0.11149101
129	0x3cd95d2a	0.026533682
130	0xbc8c1b7a	-0.017102946
131	0x3d4fae2c	0.050703213
132	0xbdcec31c	-0.10095808
133	0xbcccd26b	-0.025002679
134	0x3deb7697	0.114972286
135	0x3e0d2547	0.13783751
136	0x3df58107	0.11987501
137	0x3e079e4a	0.13243976
138	0x3de1f4a0	0.11032987
139	0xbcd6b804	-0.026210792
140	0x3c7e31a6	0.015514767
141	0xbdac1e8a	-0.08404262
142	0xbe0208cb	-0.12698667
143	0xbe36899e	-0.17825934
144	0xbc30be77	-0.010787598
145	0x3c4a925f	0.012363999
146	0x3d926162	0.071474805
147	0xbd5bacad	-0.053631473
148	0x3e9d3cbb	0.30710396
149	0x3e074c77	0.13212763
150	0xbc925833	-0.017864322
151	0xbd6f2309	-0.05838302
152	0xbd558663	-0.052130114
153	0xbd8fc1ed	-0.0701941
154	0xbd9879eb	-0.07445129
155	0xbd601b0e	-0.0547133
156	0xbd54464d	-0.051824857
157	0xbc37a74e	-0.011209322
158	0xbdcb044e	-0.099129304
159	0xbd3b9bac	-0.045802757
160	0x3dfec737	0.12440341
161	0x3d86c888	0.06581217
162	0xbd17143f	-0.036884543
163	0x3deb62a1	0.11493421
164	0x3d857ee2	0.065183416
165	0x3dc9814f	0.09839117
166	0x3d94f2f5	0.07272903
167	0x3d0dec3d	0.034649123
168	0x3e20923a	0.15680781
169	0xbdce73fb	-0.10080715
170	0x3e386a11	0.18009211
171	0x3e009830	0.12558055
172	0x3b8b5c6b	0.0042529604
173	0x3ced864b	0.0289947
174	0xbda98c0a	-0.082786635
175	0xbe18fc3e	-0.14939973
176	0x3d327869	0.043571863
177	0xbdd151fa	-0.10220714
178	0xbc50147c	-0.012700196
179	0xbe441d7a	-0.1915187
180	0x3c9113e6	0.017709684
181	0xbd2f561c	-0.04280673
182	0xbe5abf51	-0.21362044
183	0xbda87cb2	-0.08226909
184	0xbd72bc9c	-0.059261903
185	0x3daa11fa	0.0830421
186	0x3cc75827	0.024334027
187	0x3e083309	0.13300718
188	0x3d8b0fb1	0.06790102
189	0xbd3081c3	-0.0430925
190	0xbde9bcf4	-0.11412993
191	0xbe0ce874	-0.13760549
192	0xbd518917	-0.05115613
193	0x3df5c3ca	0.120002344
194	0x3d3df7ab	0.046378773
195	0xbd27d8bf	-0.04097819
196	0x3d736b35	0.059428412
197	0x3d63fbeb	0.05566017
198	0xbd3cdd22	-0.046109326
199	0xbe41aabe	-0.18912789
200	0xbd93e6d5	-0.07221762
201	0x3d21a557	0.03946432
202	0xbe81b3b3	-0.25332412
203	0xbde1fdba	-0.110347226
204	0xbd8cf05f	-0.06881785
205	0x3d92fe9f	0.07177471
206	0x3dd57db5	0.10424367
207	0xbe49758e	-0.1967375
208	0xbe0621b0	-0.13098788
209	0x3de15b17	0.11003702
210	0xbda32667	-0.07966309
211	0x3d97fbac	0.074210495
212	0xbd734a46	-0.059397005
213	0x3ce8b82e	0.028408136
214	0x3d7ae9c3	0.06125809
215	0xbe175856	-0.14779791
216	0x3e1dd8c4	0.15414721
217	0xbda92b21	-0.08260179
218	0xbe23fcd8	-0.16014421
219	0xbd660dfa	-0.056165673
220	0x3e8cc6f1	0.2749553
221	0xbd6281f3	-0.05529971
222	0xbb56eeb6	-0.0032796091
223	0xbd1875dd	-0.03722178
224	0x3dda5d8e	0.106623754
225	0x3da1f1e7	0.07907467
226	0xbcafb4bd	-0.021448487
227	0x3d33cb4a	0.043895043
228	0x3db8565d	0.090008475
229	0xbd12dbb5	-0.03585406
230	0xbd9a109b	-0.075226985
231	0xbd03bc40	-0.03216195
232	0xbde4ceba	-0.111722425
233	0xbd508c1a	-0.05091486
234	0xbd8a1435	-0.067421354
235	0xbe2d0a68	-0.16898501
236	0x3dda525f	0.10660242
237	0x3e0e2439	0.13881005
238	0x3db729d3	0.08943524
239	0x3ddb7d54	0.10717264
240	0x3e0f6477	0.14003168
241	0x3d7e42c9	0.06207541
242	0x3e1790f9	0.14801396
243	0x3e0b43dd	0.13600107
244	0xbd717d0d	-0.05895715
245	0xbe136df0	-0.14397407
246	0x3d2dadb0	0.04240197
247	0xbcbfa1c6	-0.02339257
248	0x3d9fa297	0.077946834
249	0x3b52bb10	0.0032154955
250	0x3c9715e3	0.018443054
251	0x3c4096aa	0.011754671
252	0xbe126754	-0.14297229
253	0x3ded03dd	0.115730025
254	0x3d5ace0c	0.053419158
255	0x3d734a53	0.059397053

fc.bias f4 [30]
0	0xbd45322b	-0.048143547
1	0xbde5084a	-0.11183222
2	0xbcad2b24	-0.021138735
3	0x3d43775f	0.047721263
4	0xbd02f6f6	-0.0319738
5	0xbc61048e	-0.013733996
6	0xbd83c1c1	-0.0643344
7	0x3dc86569	0.097849675
8	0x3b2df396	0.0026542894
9	0xbda7bdab	-0.08190473
10	0xbd14be47	-0.036314275
11	0x3c1942bc	0.00935429
12	0xbd4386f5	-0.047736127
13	0xbd16556f	-0.03670257
14	0x3c568298	0.013092659
15	0xbd6e2928	-0.05814472
16	0xbda4f992	-0.08055414
17	0x3ca72eea	0.020408113
18	0xbdb960e3	-0.09051683
19	0x3b43c719	0.002987331
20	0xbe124483	-0.14283948
21	0xbd37e0a9	-0.044891987
22	0xbc2eb264	-0.010662649
23	0xbd7d308e	-0.061813883
24	0xbd65c629	-0.056097183
25	0xbd232711	-0.03983218
26	0xbd0a230d	-0.033724833
27	0xbdb9147f	-0.090371124
28	0x3c1b528f	0.009480133
29	0xbc075df7	-0.008262149

exp_avg f4 [60, 60]
0	0x388ded84	6.767645e-05
1	0x38905836	6.882886e-05
2	0x3893494f	7.023161e-05
3	0x389a1a40	7.348182e-05
4	0x389d10b8	7.4894575e-05
5	0x389e75f2	7.555996e-05
6	0x38a1b202	7.710235e-05
7	0x38a25610	7.740792e-05
8	0x38a1f99c	7.7235716e-05
9	0x38a20e0f	7.7273806e-05
10	0x38a00ff5	7.632367e-05
11	0x389c51b9	7.453882e-05
12	0x389a0ee4	7.346066e-05
13	0x389955a8	7.311563e-05
14	0x38981843	7.252444e-05
15	0x389587e3	7.1301845e-05
16	0x38947fdf	7.081008e-05
17	0x3894402a	7.0691414e-05
18	0x3895a1e0	7.135025e-05
19	0x3896ec24	7.196542e-05
20	0x3897b7bf	7.2344665e-05
21	0x3899fc9d	7.3426614e-05
22	0x389b69fc	7.410717e-05
23	0x38a06259	7.647713e-05
24	0x38a3f303	7.81771e-05
25	0x38a48099	7.8440826e-05
26	0x38a63232	7.9248464e-05
27	0x38a45de2	7.8376164e-05
28	0x38a55d94	7.8852434e-05
29	0x38a403e0	7.820851e-05
30	0x38a4c5eb	7.8569945e-05
31	0x38a5641b	7.886459e-05
32	0x38a5d16c	7.906821e-05
33	0x38a6249d	7.9223166e-05
34	0x38a1f27f	7.722247e-05
35	0x38a06362	7.647906e-05
36	0x38a22883	7.732308e-05
37	0x38a3bacb	7.8072386e-05
38	0x38a6b3aa	7.948962e-05
39	0x38a90d30	8.061004e-05
40	0x38aaec59	8.150255e-05
41	0x38affe57	8.392025e-05
42	0x38b49360	8.6105196e-05
43	0x38b5cca1	8.668868e-05
44	0x38bc698b	8.9841975e-05
45	0x38bf41de	9.1198584e-05
46	0x38c1aa72	9.234705e-05
47	0x38c3ff81	9.345916e-05
48	0x38c16f88	9.2237315e-05
49	0x38c19138	9.230006e-05
50	0x38c12ccf	9.2113034e-05
51	0x38bf7a19	9.130332e-05
52	0x38bd55fb	9.0282374e-05
53	0x38b82d79	8.782274e-05
54	0x38b66959	8.698059e-05
55	0x38b37d5e	8.5587366e-05
56	0x38b31ec1	8.5411135e-05
57	0x38af5d44	8.362022e-05
58	0x38a80174	8.011135e-05
59	0x38b2cfd0	8.5264095e-05
60	0x3873d346	5.813248e-05
61	0x38788645	5.9252856e-05
62	0x387d563b	6.040021e-05
63	0x388465eb	6.313234e-05
64	0x38873dce	6.448814e-05
65	0x38880edb	6.4877524e-05
66	0x388ab1eb	6.6134926e-05
67	0x388b00ad	6.6281624e-05
68	0x388ade89	6.621803e-05
69	0x388b0643	6.629203e-05
70	0x38897bcf	6.55573e-05
71	0x388645b9	6.402605e-05
72	0x38840fdc	6.2972045e-05
73	0x388377ef	6.268906e-05
74	0x3882999b	6.227494e-05
75	0x38804e42	6.118092e-05
76	0x387e39c5	6.061212e-05
77	0x387d0cf1	6.0331953e-05
78	0x387fbc8a	6.097233e-05
79	0x3880f119	6.1484236e-05
80	0x38817d5d	6.17455e-05
81	0x3883974a	6.2747466e-05
82	0x3884c9a9	6.3318126e-05
83	0x3888ba08	6.5196364e-05
84	0x388bcecb	6.666555e-05
85	0x388c3353	6.68528e-05
86	0x388dcbe2	6.76138e-05
87	0x388c6afe	6.695649e-05
88	0x388d2703	6.7306704e-05
89	0x388bfad0	6.674754e-05
90	0x388cbc99	6.710849e-05
91	0x388d39d9	6.734179e-05
92	0x388d81ad	6.747558e-05
93	0x388de9f2	6.76698e-05
94	0x388aa9ea	6.612002e-05
95	0x38890215	6.533057e-05
96	0x388a823d	6.6046116e-05
97	0x388c3afd	6.686708e-05
98	0x388f2e3e	6.827385e-05
99	0x38917073	6.935084e-05
100	0x389323fb	7.016208e-05
101	0x389791f2	7.2274255e-05
102	0x389b38ad	7.401533e-05
103	0x389c2e2d	7.4472606e-05
104	0x38a23eb6	7.736443e-05
105	0x38a47418	7.8417535e-05
106	0x38a64c7b	7.9297424e-05
107	0x38a84b3e	8.024879e-05
108	0x38a5fb7d	7.9146565e-05
109	0x38a5f226	7.912917e-05
110	0x38a5a70b	7.898927e-05
111	0x38a40d09	7.8225574e-05
112	0x38a22cc6	7.733102e-05
113	0x389e08f6	7.535696e-05
114	0x389cab7f	7.470603e-05
115	0x3899b964	7.33014e-05
116	0x38997d05	7.318895e-05
117	0x38960f8c	7.155453e-05
118	0x38900372	6.867097e-05
119	0x3898cfe7	7.2866496e-05
120	0x38542436	5.0578463e-05
121	0x38584b87	5.1568753e-05
122	0x385c90ba	5.2586875e-05
123	0x386774ce	5.5183475e-05
124	0x386c4a39	5.633591e-05
125	0x386e8013	5.68629e-05
126	0x3873723c	5.8042104e-05
127	0x3873e15b	5.8145593e-05
128	0x3873a2d5	5.8087364e-05
129	0x38734e58	5.8008678e-05
130	0x3870cf2d	5.7413406e-05
131	0x386acba9	5.597962e-05
132	0x3866a601	5.4990876e-05
133	0x38657c5e	5.471368e-05
134	0x38633391	5.4169042e-05
135	0x385f26f5	5.3203625e-05
136	0x385d26d0	5.2726653e-05
137	0x385c7a16	5.256579e-05
138	0x385f07e1	5.317468e-05
139	0x3861885e	5.3771182e-05
140	0x3862ae1e	5.4044758e-05
141	0x3865abf3	5.4757995e-05
142	0x386750ed	5.515006e-05
143	0x386f2ac5	5.7021873e-05
144	0x38749ca3	5.8320013e-05
145	0x38752ebe	5.8456084e-05
146	0x3878aab2	5.928678e-05
147	0x3875e936	5.8629746e-05
148	0x38772a00	5.8928505e-05
149	0x387483c2	5.8296842e-05
150	0x38757505	5.8521535e-05
151	0x387698f1	5.879341e-05
152	0x387773bd	5.899718e-05
153	0x3877aa72	5.904813e-05
154	0x38714ea8	5.7532132e-05
155	0x386d9f25	5.6653418e-05
156	0x386f5ed0	5.707034e-05
157	0x3871a907	5.7616297e-05
158	0x3876e9c8	5.8868696e-05
159	0x387afef1	5.9842077e-05
160	0x387d902d	6.0454175e-05
161	0x38832d16	6.254965e-05
162	0x3886b59f	6.4234475e-05
163	0x388778e4	6.459819e-05
164	0x388cc6d7	6.712757e-05
165	0x388f08f4	6.820439e-05
166	0x3890c305	6.90278e-05
167	0x389292cc	6.9891656e-05
168	0x3890717f	6.8875954e-05
169	0x3890661c	6.8854744e-05
170	0x38900684	6.867669e-05
171	0x388ee066	6.812885e-05
172	0x388d5df1	6.740902e-05
173	0x3889913a	6.5597196e-05
174	0x388828d5	6.492591e-05
175	0x38857d09	6.365224e-05
176	0x3884c864	6.331576e-05
177	0x3881f3b9	6.196596e-05
178	0x387903b5	5.936968e-05
179	0x38850695	6.34316e-05
180	0x38293995	4.0346367e-05
181	0x382cb596	4.117711e-05
182	0x3830b203	4.2127456e-05
183	0x383a7665	4.445612e-05
184	0x383f00f8	4.553885e-05
185	0x38403286	4.582342e-05
186	0x38453f0c	4.7027177e-05
187	0x3845db3e	4.7172645e-05
188	0x38453239	4.7015234e-05
189	0x38456091	4.7058395e-05
190	0x3842a13c	4.6403366e-05
191	0x383d207f	4.5091376e-05
192	0x383992f6	4.4244305e-05
193	0x3838b2d7	4.4035576e-05
194	0x38371a4f	4.36551e-05
195	0x383383a3	4.2799522e-05
196	0x3831c9f3	4.238817e-05
197	0x38314867	4.226752e-05
198	0x38338fa5	4.2810705e-05
199	0x3835f439	4.3381213e-05
200	0x3836d6b5	4.3592143e-05
201	0x383a1563	4.4365774e-05
202	0x383bd859	4.4785764e-05
203	0x3842edd9	4.6474717e-05
204	0x3847da7e	4.7648784e-05
205	0x3848e49b	4.789662e-05
206	0x384bfcf1	4.863454e-05
207	0x384976c6	4.803275e-05
208	0x384a1e2e	4.818866e-05
209	0x3847ec86	4.7665577e-05
210	0x384866c1	4.7779413e-05
211	0x3849a389	4.807444e-05
212	0x384a7699	4.8271006e-05
213	0x384b2e4d	4.8442093e-05
214	0x38455234	4.7045018e-05
215	0x3842a4a2	4.640653e-05
216	0x3844f9c5	4.6962658e-05
217	0x3847cc5d	4.7635625e-05
218	0x384c7e76	4.8755166e-05
219	0x3850632b	4.9683422e-05
220	0x38533f73	5.0365412e-05
221	0x385b002f	5.221384e-05
222	0x38617e00	5.3761527e-05
223	0x38631e96	5.4149503e-05
224	0x386ce812	5.6482917e-05
225	0x3871144c	5.747778e-05
226	0x3874566f	5.825463e-05
227	0x3877d3d6	5.9086677e-05
228	0x38737312	5.8042882e-05
229	0x38734583	5.8000453e-05
230	0x38726d00	5.779881e-05
231	0x38702dce	5.7263118e-05
232	0x386d46b9	5.657107e-05
233	0x386699d1	5.4979526e-05
234	0x38641a6c	5.4384043e-05
235	0x385fd7d3	5.3368345e-05
236	0x385ec19b	5.3109234e-05
237	0x38590264	5.1739058e-05
238	0x384e9b7b	4.925903e-05
239	0x385e7caa	5.3045027e-05
240	0x381ff407	3.8135822e-05
241	0x38226d33	3.872551e-05
242	0x3825f974	3.9571387e-05
243	0x382dde14	4.145324e-05
244	0x383184c2	4.232373e-05
245	0x3832cd31	4.2629606e-05
246	0x3836f3a9	4.3619108e-05
247	0x3837d021	4.3824435e-05
248	0x3837ac28	4.3790933e-05
249	0x38378989	4.375869e-05
250	0x3834fb0e	4.3149157e-05
251	0x38306015	4.2051153e-05
252	0x382d8617	4.1371295e-05
253	0x382cbe34	4.1185136e-05
254	0x382b72d5	4.0876523e-05
255	0x382877d4	4.016592e-05
