situation_analysis/best_models/model_window30_horizon2.pth (torch, 924458 bytes, 27 tensors)

adapt_adj f4 [30, 30]
0	0x3f74730a	0.95488036
1	0xbd3a9a36	-0.045557223
2	0xbd3a8bf8	-0.04554364
3	0xbd3adbc6	-0.04561975
4	0xbd3af6f9	-0.045645688
5	0xbd3bc52f	-0.045842346
6	0xbd3d887c	-0.04627274
7	0xbd40459d	-0.04694139
8	0xbd41b1c5	-0.047288675
9	0xbd41bf07	-0.04730132
10	0xbd4291ee	-0.04750245
11	0xbd44903e	-0.047989123
12	0xbd42fa6b	-0.0476021
13	0xbd431b61	-0.047633532
14	0xbd421023	-0.04737867
15	0xbd4210b7	-0.04737922
16	0xbd40bcac	-0.04705493
17	0xbd3ecd44	-0.046582475
18	0xbd3d9474	-0.046284154
19	0xbd3ce58d	-0.046117354
20	0xbd3cddbf	-0.04610991
21	0xbd3bc547	-0.045842435
22	0xbd3a7782	-0.045524128
23	0xbd3818c1	-0.044945482
24	0xbd35f859	-0.044426296
25	0xbd34b994	-0.044122294
26	0xbd33896d	-0.04383223
27	0xbd316d4c	-0.043317124
28	0xbd2dd955	-0.042443592
29	0xbd350108	-0.044190437
30	0xbd365cb9	-0.04452202
31	0x3f74764a	0.95492995
32	0xbd38b745	-0.045096654
33	0xbd388965	-0.045052905
34	0xbd38677e	-0.045020573
35	0xbd396799	-0.045264814
36	0xbd3b2ccc	-0.04569702
37	0xbd3d7816	-0.0462571
38	0xbd3f3c70	-0.046688497
39	0xbd3f58d1	-0.04671556
40	0xbd407947	-0.04699066
41	0xbd423362	-0.047412284
42	0xbd412fbb	-0.04716466
43	0xbd4158a3	-0.04720367
44	0xbd402e81	-0.04691935
45	0xbd4006c3	-0.04688145
46	0xbd3edc9a	-0.0465971
47	0xbd3d6feb	-0.04624931
48	0xbd3c50c0	-0.045975447
49	0xbd3b7c6f	-0.045772966
50	0xbd3b9677	-0.04579779
51	0xbd3a8aec	-0.045542642
52	0xbd395956	-0.045251213
53	0xbd36f732	-0.044669338
54	0xbd3547d7	-0.044257965
55	0xbd344d8e	-0.044019274
56	0xbd32cf92	-0.043654986
57	0xbd312175	-0.043244798
58	0xbd2d959a	-0.042379
59	0xbd351468	-0.044208914
60	0xbd3380e6	-0.0438241
61	0xbd35da38	-0.044397563
62	0x3f74989d	0.9554537
63	0xbd36398e	-0.044488482
64	0xbd35ddbd	-0.04440092
65	0xbd367a35	-0.04455014
66	0xbd37df1a	-0.0448905
67	0xbd3a61af	-0.045503315
68	0xbd3c5cbe	-0.045986883
69	0xbd3cb7de	-0.046073787
70	0xbd3de33e	-0.046359293
71	0xbd3fbc51	-0.046810452
72	0xbd3e8d6d	-0.046521593
73	0xbd3ecb46	-0.046580575
74	0xbd3da329	-0.04629818
75	0xbd3d6249	-0.04623631
76	0xbd3c2ce5	-0.045941252
77	0xbd3aee64	-0.045637503
78	0xbd39b8d1	-0.04534227
79	0xbd38bcf4	-0.045102075
80	0xbd38ca8c	-0.04511504
81	0xbd37db4f	-0.044886883
82	0xbd3708ea	-0.044686235
83	0xbd35118d	-0.04420619
84	0xbd330758	-0.043708175
85	0xbd31d13d	-0.043412436
86	0xbd30e3ee	-0.04318612
87	0xbd2ec8ae	-0.04267185
88	0xbd2b37ad	-0.041801143
89	0xbd32c102	-0.043641098
90	0xbd3c183f	-0.04592156
91	0xbd3dfcd5	-0.046383698
92	0xbd3e8385	-0.046512146
93	0x3f74197c	0.95351386
94	0xbd3e2a36	-0.046426974
95	0xbd3e9fac	-0.046538994
96	0xbd4053bf	-0.046954866
97	0xbd42c936	-0.04755517
98	0xbd4434bc	-0.047901854
99	0xbd446d54	-0.047955826
100	0xbd458e9e	-0.048231713
101	0xbd476a27	-0.04868522
102	0xbd460e1c	-0.0483533
103	0xbd461848	-0.048363
104	0xbd44fe1b	-0.048093896
105	0xbd4512f7	-0.04811379
106	0xbd43b06c	-0.04777567
107	0xbd425ede	-0.047453754
108	0xbd4109e0	-0.04712856
109	0xbd402692	-0.046911784
110	0xbd402fbc	-0.046920523
111	0xbd3f9dde	-0.046781413
112	0xbd3e884b	-0.046516698
113	0xbd3cb48f	-0.04607063
114	0xbd3a950b	-0.045552295
115	0xbd395ae2	-0.04525269
116	0xbd38b2cf	-0.0450924
117	0xbd36cc4e	-0.044628434
118	0xbd32fc8a	-0.04369787
119	0xbd3a3008	-0.045455962
120	0xbd389bbe	-0.045070402
121	0xbd3a4f76	-0.045485936
122	0xbd3ab248	-0.04558018
123	0xbd3abac2	-0.045588262
124	0x3f744e55	0.95432025
125	0xbd3b77ea	-0.045768656
126	0xbd3d2595	-0.04617842
127	0xbd3f44c9	-0.046696458
128	0xbd40918d	-0.047013808
129	0xbd413028	-0.047165066
130	0xbd42238b	-0.047397178
131	0xbd44190c	-0.04787545
132	0xbd42e7c3	-0.047584306
133	0xbd430ced	-0.04761975
134	0xbd41c820	-0.047309995
135	0xbd417f77	-0.0472407
136	0xbd40a2c8	-0.04703024
137	0xbd3f0568	-0.046636015
138	0xbd3de52f	-0.046361145
139	0xbd3d3db1	-0.04620141
140	0xbd3d454b	-0.04620866
141	0xbd3c4958	-0.045968384
142	0xbd3aeb02	-0.045634277
143	0xbd38e9c8	-0.045144826
144	0xbd36fe73	-0.044676255
145	0xbd35fec6	-0.044432424
146	0xbd34f2c1	-0.04417682
147	0xbd3372b5	-0.043810565
148	0xbd2fc6e9	-0.042914305
149	0xbd374bd6	-0.044750057
150	0xbd364c19	-0.044506166
151	0xbd3856d6	-0.04500469
152	0xbd387ecc	-0.045042798
153	0xbd389d85	-0.045072097
154	0xbd390784	-0.045173183
155	0x3f746469	0.95465714
156	0xbd3b4d5f	-0.045728084
157	0xbd3d91bd	-0.046281565
158	0xbd3f28a2	-0.04666961
159	0xbd3fcbbb	-0.046825152
160	0xbd40a561	-0.047032718
161	0xbd42e99e	-0.047586076
162	0xbd41e095	-0.04733332
163	0xbd4220bf	-0.04739451
164	0xbd40d1f4	-0.047075227
165	0xbd4099fd	-0.047021855
166	0xbd3f3f03	-0.046690952
167	0xbd3dd5ee	-0.046346597
168	0xbd3cf2db	-0.046130043
169	0xbd3c700b	-0.04600529
170	0xbd3c8b7e	-0.046031468
171	0xbd3be279	-0.045870278
172	0xbd3a915b	-0.045548778
173	0xbd386bff	-0.045024868
174	0xbd3668da	-0.044533588
175	0xbd357598	-0.0443016
176	0xbd34481c	-0.04401408
177	0xbd32c7b2	-0.043647476
178	0xbd2f0f45	-0.04273917
179	0xbd366c45	-0.044536848
180	0xbd3437e5	-0.043998618
181	0xbd363be5	-0.044490714
182	0xbd3689ec	-0.044565126
183	0xbd369c23	-0.044582497
184	0xbd37251f	-0.044713136
185	0xbd37fc2c	-0.044918224
186	0x3f745a44	0.95450234
187	0xbd3c94fa	-0.046040513
188	0xbd3e6d49	-0.04649094
189	0xbd3ef8f7	-0.04662415
190	0xbd405a15	-0.04696091
191	0xbd427879	-0.047478173
192	0xbd4162c8	-0.047213346
193	0xbd42002c	-0.047363445
194	0xbd40d743	-0.04708029
195	0xbd40d759	-0.04708037
196	0xbd3f4153	-0.046693157
197	0xbd3dd30b	-0.046343844
198	0xbd3ce33a	-0.046115138
199	0xbd3c2b62	-0.04593981
200	0xbd3c1ea6	-0.045927666
201	0xbd3b6dc2	-0.04575897
202	0xbd3a55ae	-0.045491867
203	0xbd38699a	-0.045022584
204	0xbd365e97	-0.0445238
205	0xbd353af5	-0.04424568
206	0xbd344f05	-0.04402067
207	0xbd32d67e	-0.043661587
208	0xbd2f2167	-0.042756464
209	0xbd36d0dc	-0.044632778
210	0xbd331837	-0.043724265
211	0xbd351709	-0.04421142
212	0xbd35517b	-0.04426716
213	0xbd354396	-0.044253908
214	0xbd35af21	-0.04435647
215	0xbd367399	-0.044543836
216	0xbd38b855	-0.045097668
217	0x3f744159	0.9541221
218	0xbd3db974	-0.04631944
219	0xbd3e1b9d	-0.046413053
220	0xbd3f1124	-0.046647206
221	0xbd411573	-0.047139596
222	0xbd404c79	-0.04694793
223	0xbd4099c6	-0.04702165
224	0xbd3fa3b0	-0.046786964
225	0xbd3f8612	-0.04675872
226	0xbd3e535f	-0.046466228
227	0xbd3ce35f	-0.046115275
228	0xbd3be8d0	-0.045876324
229	0xbd3b3ed4	-0.045714214
230	0xbd3b4873	-0.04572339
231	0xbd3a3ea2	-0.045469888
232	0xbd39131c	-0.04518424
233	0xbd36df4a	-0.04464654
234	0xbd34d8b2	-0.04415197
235	0xbd33904a	-0.043838777
236	0xbd323ecf	-0.04351693
237	0xbd307b5e	-0.043086402
238	0xbd2cc443	-0.042179357
239	0xbd3418bf	-0.043968912
240	0xbd2bf9f2	-0.041986413
241	0xbd2e3865	-0.04253425
242	0xbd2e1416	-0.042499624
243	0xbd2e1cc1	-0.04250789
244	0xbd2e8434	-0.042606547
245	0xbd2f2953	-0.04276402
246	0xbd3126c1	-0.04324985
247	0xbd34996e	-0.044091634
248	0x3f748979	0.95522267
249	0xbd37eaec	-0.044901773
250	0xbd38f79b	-0.04515801
251	0xbd3b6053	-0.04574616
252	0xbd3a752f	-0.04552191
253	0xbd3adff8	-0.04562375
254	0xbd3a20a8	-0.0454413
255	0xbd3a2cd2	-0.0454529

gc1.fc.weight f4 [128, 36]
0	0x3dbf739e	0.09348224
1	0xbdb60659	-0.088879295
2	0xbc9ef018	-0.019401595
3	0x3a18a829	0.00058233977
4	0xbdcf1680	-0.101117134
5	0xbdd111f2	-0.10208501
6	0x3b84fdf9	0.004058596
7	0xbdb90fae	-0.09036194
8	0x3c990f47	0.018684043
9	0xbdea7681	-0.11448384
10	0x3e15a8c4	0.1461516
11	0x3de0913c	0.10965201
12	0x3e195380	0.14973259
13	0x3de17ea6	0.110104844
14	0x3dee47ef	0.11634814
15	0x3da22470	0.07917106
16	0xbe1874ee	-0.14888355
17	0x3e194a9f	0.14969872
18	0x3a9a00c0	0.0011749491
19	0x3dbc84eb	0.092050396
20	0x3dbcd7d6	0.09220855
21	0xbd3fc2b9	-0.04681656
22	0x3cde8001	0.027160646
23	0x3dc37f53	0.095457695
24	0x3df7c2bc	0.120976895
25	0xbe059c0d	-0.1304781
26	0xbd719ce6	-0.05898752
27	0xbd294541	-0.04132581
28	0x3dc768fd	0.09736822
29	0xbdeea81a	-0.116531566
30	0xbd3810fe	-0.04493808
31	0xbe0a0609	-0.13478865
32	0xbe21e289	-0.15809073
33	0x3d233825	0.039848465
34	0x3cd0d17c	0.025490515
35	0x3d6bef2e	0.057601146
36	0xbe0bc99e	-0.1365113
37	0x3c17ba5b	0.009260739
38	0x3d0e80a5	0.034790654
39	0xbc7e8ae8	-0.0155360475
40	0xbb3c53ad	-0.0028736398
41	0xbe034c12	-0.12821987
42	0xbd0552a0	-0.0325495
43	0xbd14ffb8	-0.036376685
44	0xbe270c9f	-0.16313408
45	0x3d8c0edb	0.06838771
46	0x3dfb5db7	0.12273734
47	0xbe100c44	-0.14067179
48	0xbc0b0311	-0.008484618
49	0xbd143e1f	-0.036192056
50	0xbda07bc7	-0.07836109
51	0xbe0c18b7	-0.13681303
52	0x3c7715d5	0.015080889
53	0xbd9a3ffb	-0.075317346
54	0xbe14cecb	-0.1453201
55	0xbde6b2df	-0.11264586
56	0x3d07a4f8	0.03311631
57	0xbcfbf7a1	-0.030757727
58	0x3da331b2	0.07968463
59	0xbd9d2643	-0.076733135
60	0x3db46744	0.08808759
61	0x3c0866ea	0.008325318
62	0xbca32777	-0.01991628
63	0xbc7a5ce0	-0.015280932
64	0x3d980972	0.074236766
65	0x3e1e05fd	0.15431972
66	0xbe147abd	-0.14499946
67	0x3d88e4bf	0.06684255
68	0xbdbe2e0f	-0.09286129
69	0x3c4bda85	0.012442236
70	0xbd70808b	-0.058716338
71	0x3c9721b4	0.018448688
72	0xbba4c413	-0.0050282567
73	0xbe2b61f1	-0.1673658
74	0x3ddfe7a9	0.109328575
75	0x3d58b3b1	0.052905742
76	0xbd8c230f	-0.068426244
77	0xbc5e6f62	-0.01357636
78	0x3c1b7120	0.00948742
79	0xbe0f3514	-0.13985091
80	0x3b188504	0.0023272643
81	0x3db8bf2d	0.09020839
82	0xbd8976a0	-0.06712079
83	0x3ca0d943	0.019634848
84	0xbdd0c291	-0.101933606
85	0x3db7a51e	0.089670405
86	0x3dffd2e7	0.12491398
87	0x3e072c85	0.13200577
88	0xbd2d1dfa	-0.042264916
89	0x3e203edc	0.15648979
90	0xbdc70ce2	-0.09719254
91	0xbd335cbe	-0.043789618
92	0x3caaea6e	0.020863738
93	0xbd95573c	-0.07292029
94	0xbe2b7bac	-0.16746396
95	0x3c1b9d67	0.009497977
96	0x3ce70907	0.028202547
97	0xbd56f46d	-0.052479196
98	0x3e1bdfb2	0.15222052
99	0xbe354d1c	-0.17705196
100	0xbe129899	-0.14316024
101	0xbde4e8fb	-0.1117725
102	0x3d09a2d2	0.033602543
103	0x3dd6c16a	0.104861096
104	0x3d8e29ca	0.069415644
105	0x3cbfcaba	0.023412097
106	0xbd607ce1	-0.054806594
107	0x3daa4b62	0.083151594
108	0xbcae8369	-0.021302896
109	0xbd0971e2	-0.033555873
110	0xbdd52170	-0.10406768
111	0xbdf32856	-0.11872928
112	0xbd83d0e5	-0.06436328
113	0x3e1519ad	0.14560576
114	0xbe2d2ceb	-0.16911666
115	0x3d382fa7	0.04496732
116	0xbdb8d3f8	-0.09024805
117	0x3d43e944	0.04782988
118	0xbd3e40a5	-0.04644837
119	0x3dc446aa	0.095837906
120	0xbdc790f9	-0.09744448
121	0x3d061e32	0.03274364
122	0x3d51265c	0.051061973
123	0xbbdc93e1	-0.0067314957
124	0xbe10570c	-0.14095706
125	0xbbdf16a0	-0.006808117
126	0xbe0693e7	-0.13142358
127	0xbd3c1815	-0.045921404
128	0xbe07c76a	-0.13259664
129	0xbce17a5c	-0.027524166
130	0xbcf41963	-0.029797262
131	0x3addaec6	0.0016913048
132	0xbe23b7e5	-0.15988119
133	0xbdd75687	-0.10514551
134	0x3d4d7bcc	0.05016689
135	0x3d67d258	0.056597084
136	0xbd894e23	-0.067043565
137	0x3d53f35e	0.051745765
138	0x3da4f2a1	0.0805409
139	0x3c0d0627	0.008607424
140	0x3e453a61	0.19260551
141	0x3cb5f53e	0.022211667
142	0x3e1d84f2	0.15382746
143	0x3e297f20	0.165524
144	0x3d8164df	0.06318068
145	0xbd89c1df	-0.06726431
146	0x3dcae031	0.09906042
147	0xbddae734	-0.1068863
148	0xbdf61f46	-0.12017684
149	0xbe07ae49	-0.13250078
150	0x3b799e86	0.0038088872
151	0x3bb55ddd	0.005534871
152	0xbd37b0e0	-0.044846416
153	0x3cdf2602	0.027239803
154	0xbd73c75f	-0.059516307
155	0x3dd985d7	0.10621231
156	0x3e09d002	0.13458255
157	0xbd25f51d	-0.04051696
158	0x3e309898	0.1724571
159	0x3e1a2a3f	0.15055178
160	0xbdac551e	-0.08414672
161	0xbdb08f1a	-0.086210445
162	0xbdd0b88d	-0.1019145
163	0xbc910abc	-0.017705314
164	0x3e384f49	0.17998995
165	0x3cd64148	0.026154175
166	0xbd84d1cd	-0.06485329
167	0xbdfc6609	-0.12324149
168	0x3e16f7b2	0.14742926
169	0x3df2e33f	0.1185975
170	0xbbdca05a	-0.0067329826
171	0xbdd7f2cb	-0.10544356
172	0x3dc42342	0.095770374
173	0x3dadc8f1	0.08485592
174	0x3d14d8ac	0.036339447
175	0x3cecc6ec	0.028903447
176	0xbdd9e8e5	-0.10640124
177	0x3ced1784	0.028941877
178	0x3e02133d	0.12702651
179	0xbdcdbce7	-0.10045796
180	0xbdb7c661	-0.08973385
181	0x3dca8242	0.09888126
182	0x3e28032e	0.16407463
183	0xbd8177d7	-0.06321686
184	0xbde17969	-0.11009485
185	0x3de3caea	0.11122687
186	0x3dbd505b	0.09243842
187	0x3d5f40b8	0.05450508
188	0xbd4e49df	-0.050363418
189	0xba0e03fa	-0.00054174627
190	0xbdb209d5	-0.086932816
191	0x3d8f38c4	0.06993249
192	0xbdf9130b	-0.12161835
193	0x3e1a96ab	0.15096538
194	0x3e4d1953	0.20029192
195	0x3bddf85d	0.006773992
196	0x3e4bc965	0.19901045
197	0x3d469f11	0.04849154
198	0xbdaf90e0	-0.085725546
199	0x3dc1d679	0.094647355
200	0x3d0302a6	0.031984948
201	0x3d1a92d5	0.037737686
202	0x3dd4c024	0.103882104
203	0xbd23d9f0	-0.040002763
204	0x3d294ff2	0.041336007
205	0xbc199a70	-0.0093752
206	0xbdcf5558	-0.101237
207	0xbbc95e93	-0.0061453073
208	0x3de31bc7	0.110892825
209	0xbdac96a8	-0.08427173
210	0xbdb066f9	-0.086133905
211	0x3e39cc8f	0.18144439
212	0x3e15e3de	0.14637706
213	0xbd4b19b1	-0.049585048
214	0x3b1820b5	0.0023212854
215	0xbdf0a8c2	-0.11750938
216	0xbda5c49b	-0.0809414
217	0xbc1b7bd2	-0.00948997
218	0x3cda2859	0.026630567
219	0xbd6871ca	-0.056749143
220	0x3d6864db	0.05673681
221	0x3e2bb907	0.16769801
222	0xbb99d0ab	-0.0046940646
223	0xbd8a91ca	-0.06766088
224	0xbe22b0bc	-0.15887731
225	0x3c7b2359	0.015328252
226	0x3d692825	0.05692305
227	0x3e0e2382	0.13880733
228	0xbe08bf53	-0.13354234
229	0x3de4b944	0.11168149
230	0xbdd97cc0	-0.10619497
231	0xbb56607f	-0.0032711325
232	0xbda87940	-0.082262516
233	0xbd6e1530	-0.058125675
234	0xbd2314b2	-0.03981466
235	0x3d3f4be7	0.046703245
236	0xbda52135	-0.08062974
237	0x3bf43266	0.007452297
238	0x3d8025a5	0.0625718
239	0xbccab482	-0.024744276
240	0xbc0cf8ab	-0.008604209
241	0xbd6acd56	-0.05732473
242	0xbe112326	-0.14173564
243	0xbdc1eb36	-0.09468691
244	0x3b8bf48a	0.0042710947
245	0xbde29a3f	-0.11064576
246	0x3d86c1ce	0.06579934
247	0x3dc223c6	0.094794795
248	0x3d9c1ad8	0.076223075
249	0x3c64e2f2	0.013970124
250	0x3da13d59	0.07873029
251	0xbe0bbb0b	-0.1364557
252	0xbcf23a3f	-0.02956879
253	0xbd9dbc99	-0.07701988
254	0x3d175783	0.036948692
255	0x3dfed43e	0.12442826

gc1.fc.bias f4 [128]
0	0xbe3a6123	-0.18201117
1	0x3bbc8956	0.0057536764
2	0xbe2a91a4	-0.1665712
3	0xbe2085df	-0.15676068
4	0xbe82ac35	-0.2552201
5	0xbd645598	-0.05574569
6	0xbbcbeb27	-0.0062231007
7	0xbe1b9501	-0.15193559
8	0x3c6dc56d	0.014512402
9	0x3c157d70	0.009124145
10	0x3de1732f	0.11008298
11	0x3c6b6bf5	0.014369001
12	0x3c9300c2	0.017944697
13	0xbd602475	-0.054722268
14	0xbbb3654d	-0.0054747225
15	0xbe647489	-0.2231008
16	0xbe229c84	-0.15880018
17	0xbda21e4e	-0.079159364
18	0xbe18048d	-0.14845486
19	0x3cf2171d	0.029552037
20	0xbe7beab5	-0.24601252
21	0x3d8711c2	0.06595184
22	0xbcb0cd4b	-0.021582266
23	0xbe6c2205	-0.23059852
24	0xbce3895d	-0.02777546
25	0xbe0ec4ed	-0.13942309
26	0xbd86446e	-0.06556021
27	0xbdd82e07	-0.10555654
28	0xbc9439c8	-0.018093958
29	0xbe2aa7df	-0.166656
30	0xbda13909	-0.07872207
31	0x3bd36fea	0.00645255
32	0xbce0bc15	-0.027433435
33	0xbd6f3be2	-0.058406718
34	0xbe0ad46e	-0.13557598
35	0x3e174197	0.14771114
36	0xbe31223a	-0.17298213
37	0x3dd4eca8	0.10396701
38	0xbe390c54	-0.18071109
39	0xbe90c7af	-0.28277346
40	0xbe6a4b01	-0.22880174
41	0xbe62f246	-0.22162732
42	0xbe0047d6	-0.12527403
43	0xbdb3edf1	-0.08785618
44	0xbdabe5d6	-0.08393447
45	0xbd9ab07a	-0.075531915
46	0x3debc747	0.115126185
47	0x3dbaccd6	0.091211006
48	0xbdaaf49c	-0.08347437
49	0x3ccf4b00	0.025304317
50	0x3e054a3e	0.13016602
51	0x3cfb6f4f	0.030692725
52	0x3d8f0818	0.06983966
53	0xbdfa5d69	-0.12224848
54	0xbe0e1f77	-0.1387919
55	0x3dafc8e7	0.08583241
56	0xbdb36068	-0.087586224
57	0x3e089290	0.13337159
58	0x3d9b1618	0.075725734
59	0xbdcb67cc	-0.09931907
60	0xbd1a5d00	-0.037686348
61	0x3cea1cb5	0.028578142
62	0xbe0b3ad7	-0.13596664
63	0x3dabd141	0.083895214
64	0xbe06a0e0	-0.13147306
65	0xbe11ddee	-0.14244816
66	0xbe0ecf22	-0.13946202
67	0x3de13612	0.10996641
68	0xbd21b0f1	-0.039475385
69	0xbcc03a36	-0.023465257
70	0x3d6c691a	0.05771742
71	0xbd898bad	-0.06716094
72	0xbe67ad7e	-0.22624776
73	0xbd83e3ae	-0.06439911
74	0x3ddfb729	0.10923607
75	0x3d8aa228	0.0676921
76	0x3c0dd28c	0.008656155
77	0xbceba9e6	-0.028767537
78	0x3cf46b1c	0.02983623
79	0xbc7febc5	-0.015620177
80	0xbd28a0ed	-0.041169096
81	0xbe2067a7	-0.1566454
82	0x3c06fdc9	0.008239218
83	0xbe1f8666	-0.15578613
84	0x3c5f3cb9	0.013625317
85	0xbe1b826c	-0.15186471
86	0x3d094976	0.033517323
87	0xbd9cf5da	-0.0766408
88	0x3cce5e48	0.025191441
89	0x3dc452ac	0.09586081
90	0xbbd98d92	-0.006639191
91	0xbd515e64	-0.05111541
92	0xbd38472b	-0.044989746
93	0x3df8e9f3	0.12153997
94	0x3d76767a	0.06017158
95	0xbd5b12f6	-0.05348488
96	0xbdd1fb69	-0.10253031
97	0xbd3b7a05	-0.045770664
98	0x3dd7b05f	0.10531687
99	0xbd8eecd9	-0.06978769
100	0x3d408d81	0.04700995
101	0xbdca3d3f	-0.09874963
102	0xbb8fc760	-0.004387781
103	0xbe14c4dd	-0.14528222
104	0x3d41f883	0.04735614
105	0x3dc0de1c	0.09417364
106	0x3d2be376	0.04196497
107	0xbd9f56a5	-0.07780198
108	0x3daf9fb1	0.085753806
109	0x3da833cc	0.082130045
110	0x3df606bd	0.12013004
111	0xbe3d28c1	-0.18472578
112	0xbd401199	-0.046891782
113	0x3ddbb2e8	0.10727483
114	0xbe21de0d	-0.15807362
115	0x3d782c9f	0.06058943
116	0x3ddad523	0.10685184
117	0x3d41862c	0.047247097
118	0xbe1b3cac	-0.15159863
119	0xbe0808b9	-0.13284577
120	0x3d977066	0.07394485
121	0x3d7499f0	0.05971712
122	0x3d944a1e	0.07240699
123	0x3d0bc340	0.03412175
124	0xbe4c4940	-0.19949818
125	0xbb3427db	-0.0027489576
126	0x3d37f8d8	0.04491505
127	0xbd185464	-0.037189856

gc2.fc.weight f4 [128, 128]
0	0xbded4418	-0.115852535
1	0xbd31ecda	-0.04343877
2	0x3c19a578	0.00937783
3	0x3c8ae26d	0.016953671
4	0xbd97066e	-0.07374273
5	0x3dba65eb	0.091014706
6	0xbcdc2be5	-0.0268764
7	0x3c9b037f	0.018922566
8	0xbdceb15f	-0.100924246
9	0x3d958d34	0.07302323
10	0xbdb78d3a	-0.08962484
11	0xbcfc92b2	-0.030831669
12	0x3d6c2938	0.057656497
13	0xbc8d8bb6	-0.017278533
14	0x3c3b623f	0.011436998
15	0xbda72066	-0.081604764
16	0xbd092f8e	-0.033492617
17	0xbd92ed70	-0.07174194
18	0x3dce3bfe	0.10070036
19	0x3da7f6a1	0.082013376
20	0x3d68ef66	0.056868933
21	0xbd990e6c	-0.07473454
22	0x3e0dfc12	0.13865688
23	0xbc9a03bb	-0.018800607
24	0xbde60142	-0.11230709
25	0x3d881571	0.066447146
26	0x3cc5637d	0.024095291
27	0x3d9621d9	0.07330675
28	0xbc15e34d	-0.009148431
29	0x3d01062f	0.031500038
30	0xbd3a5b1d	-0.04549705
31	0x3daa5622	0.0831721
32	0xbaee36fc	-0.0018174346
33	0x3d4ef4d5	0.05052646
34	0x3b2b8028	0.0026168916
35	0x3dcd82b8	0.10034698
36	0xbd946676	-0.072461054
37	0x3d2b5c9d	0.04183637
38	0xbcfe1e63	-0.031020349
39	0x3d134302	0.035952576
40	0x3d3d0dd5	0.04615577
41	0xbd2b55e0	-0.041829944
42	0x3d4ff20c	0.050767943
43	0xbdd22afa	-0.102621034
44	0xbd76c5d4	-0.060247257
45	0x3c4075a2	0.011746796
46	0x3da5e026	0.080993935
47	0x3dca5cd5	0.098809876
48	0xbc8a7eaf	-0.01690611
49	0xbd7141ab	-0.058900516
50	0x3c3a6407	0.011376387
51	0xbd65d381	-0.05610991
52	0x3cc50d78	0.024054274
53	0x3d5fa22e	0.054598026
54	0xbdd14f26	-0.102201745
55	0xbd43dd6a	-0.04781858
56	0x3de47a35	0.11156122
57	0xbcb3ac0d	-0.021932626
58	0xbd80bc53	-0.0628592
59	0xbdf0f399	-0.117652126
60	0xbcf6380a	-0.030056018
61	0xbd4766a0	-0.048681855
62	0xbd37b7c7	-0.044852998
63	0xbdcaa8a9	-0.098954506
64	0xbd078930	-0.033089817
65	0x3b7f040c	0.0038912324
66	0xbd2620cd	-0.040558625
67	0xbd833508	-0.06406599
68	0x3d1de34e	0.038546853
69	0xbcc49067	-0.023994638
70	0x39848379	0.00025274957
71	0x3b9fa61d	0.004872097
72	0xbc438e9a	-0.011935854
73	0xbc9c12dd	-0.019051963
74	0xbce5432e	-0.027986135
75	0xbe06b5c2	-0.13155273
76	0x3dc9d4c0	0.09855032
77	0xbd3f82fa	-0.04675577
78	0x3d6487db	0.055793624
79	0xbda62f32	-0.081144705
80	0x3cb594d8	0.0221657
81	0x3bdb77df	0.0066976394
82	0xbc12d82f	-0.008962675
83	0xbdad530e	-0.08463107
84	0x3da49439	0.08036084
85	0x3d5288a2	0.051399834
86	0x3bb791b8	0.005602088
87	0x3d9e3218	0.077243984
88	0xbd879893	-0.06620898
89	0xbdad8bce	-0.08473931
90	0xbd34df3a	-0.044158198
91	0xbd61b1bf	-0.055101153
92	0xbd77988d	-0.060448218
93	0x3c4d4c22	0.0125303585
94	0xbdab13d5	-0.08353392
95	0xbc952d2d	-0.018210018
96	0xbd277255	-0.04088052
97	0xbbc3da22	-0.005976931
98	0xbcfe7c92	-0.03106526
99	0x39dfb779	0.00042670572
100	0x3c5ac894	0.013353486
101	0x3c12ffe2	0.00897214
102	0x3d20ce14	0.03925903
103	0x3cf2bdfd	0.02963161
104	0x3d1659b0	0.036706626
105	0x3c0ac91f	0.008470803
106	0x3d60e2db	0.054903846
107	0xbd2b9a94	-0.041895464
108	0xbdd1f987	-0.10252672
109	0xbd33624e	-0.043794923
110	0x3be0c061	0.006858871
111	0xbc7ef98c	-0.015562426
112	0xbad38f97	-0.0016140816
113	0x3c845369	0.016153054
114	0x3aff34df	0.0019470713
115	0x3d19648a	0.037449397
116	0xbd82571d	-0.06364272
117	0xbd146b9f	-0.036235448
118	0xbe0cbfac	-0.13744992
119	0x3d35268f	0.044226225
120	0xbd59efe6	-0.0532073
121	0x3d876b9d	0.066123225
122	0xbb0f19c0	-0.0021835417
123	0x3ceec070	0.029144496
124	0xbdafc8c9	-0.085832186
125	0x3e1ecfd2	0.15508965
126	0x3c37170d	0.011174929
127	0x3da5059d	0.08057711
128	0x3d0533e5	0.032520194
129	0xbdcbc8b8	-0.099503934
130	0x3e13315a	0.14374295
131	0xbb8296d2	-0.0039852643
132	0xbcd32025	-0.025772164
133	0xbc0b1c8a	-0.008490691
134	0xbbd81c95	-0.006595204
135	0x3db6bc93	0.089226864
136	0x3cb3e9f6	0.021962147
137	0x3c8801d5	0.016602436
138	0x3d155477	0.036457505
139	0xbd6141a9	-0.05499426
140	0xbda2d115	-0.079500355
141	0x3a9a2497	0.0011760172
142	0x3bb11adc	0.005404813
143	0x3d550972	0.05201096
144	0x3c23d90a	0.010000477
145	0xbd1b0fe0	-0.037856936
146	0x3e064a67	0.1311432
147	0xbdfd4f21	-0.12368608
148	0xbc9de619	-0.019274758
149	0xbcd1c5a3	-0.025606936
150	0x3e122867	0.14273225
151	0xbd28d090	-0.041214526
152	0x3c47e612	0.012200849
153	0x3d6b5816	0.057457052
154	0x3d0e85c6	0.034795545
155	0xbda549bb	-0.080707036
156	0x3d767a8b	0.06017546
157	0x3e247126	0.16058788
158	0x3d41f9e8	0.04735747
159	0xbe191591	-0.14949633
160	0xbd527e2f	-0.05138987
161	0xbd7bc44c	-0.0614665
162	0xbdc07898	-0.093980014
163	0xbd34d012	-0.044143744
164	0x3d4dec6d	0.0502743
165	0xbbbb5e20	-0.0057180077
166	0xbdbe7e3b	-0.0930142
167	0xbe276883	-0.16348462
168	0x3d2c0c8f	0.042004164
169	0x3adcc692	0.0016843847
170	0xbd318a90	-0.043345034
171	0x3e2dcc9e	0.16972587
172	0xbb807b40	-0.0039209425
173	0xbd192e81	-0.037397865
174	0xbd614233	-0.054994773
175	0x3d8f8278	0.07007307
176	0xbd6ac2b3	-0.057314586
177	0xbd27b6da	-0.040945865
178	0x3c63d82f	0.013906523
179	0xbde1d455	-0.11026827
180	0xbdd18beb	-0.10231765
181	0xbd77667a	-0.060400464
182	0x3bdf507e	0.0068150153
183	0xbbabbd21	-0.005241052
184	0x3cbfcaa4	0.023412056
185	0x3d758cc9	0.059948716
186	0xbcbf890e	-0.023380782
187	0x3dea74cd	0.11448059
188	0x3b906666	0.004406738
189	0xbb91b4b7	-0.0044465917
190	0x3ceecf78	0.029151663
191	0xbcc8efa0	-0.024528325
192	0xbc12e28b	-0.008965145
193	0xbd129b29	-0.035792504
194	0x3d15e939	0.03659937
195	0x3c522f20	0.012828618
196	0x3aa34f8a	0.0012459618
197	0xbd43f1ba	-0.04783795
198	0x3cd72932	0.02626476
199	0x3d75b047	0.059982564
200	0xbdf5e897	-0.120072536
201	0xbdcea29f	-0.10089611
202	0xbced81ae	-0.0289925
203	0x3db133b6	0.08652441
204	0xbd48f6fb	-0.049063664
205	0x3df793d1	0.120887406
206	0xbd97bf27	-0.07409506
207	0x3da83ae1	0.08214355
208	0xbccb7820	-0.024837554
209	0x3cfd2702	0.03090239
210	0x3d11126a	0.03541795
211	0xbd3941b6	-0.045228682
212	0x3ad2813c	0.0016060243
213	0x3d577960	0.052605987
214	0x3cb6e14f	0.022324232
215	0xbcf1e422	-0.029527728
216	0xbc42ff0b	-0.011901627
217	0xbb7c0cef	-0.0038459857
218	0xbd0e3bb2	-0.0347249
219	0x3bb7fe39	0.0056150225
220	0xbc1343fb	-0.008988376
221	0x3afc69c6	0.0019257597
222	0xbe102b33	-0.14078979
223	0xbd4dd87d	-0.050255287
224	0xba889a4a	-0.0010421958
225	0x3e322299	0.1739601
226	0xbd89d5db	-0.06730243
227	0xbd18b125	-0.037278313
228	0xbdddd711	-0.10832036
229	0x3da8450c	0.08216295
230	0xbc92e4e5	-0.017931411
231	0x3c5e969d	0.013585714
232	0xbc3ac873	-0.01140033
233	0x3d821b99	0.0635292
234	0xbde2be4c	-0.110714525
235	0x3d123eb5	0.035704333
236	0x3bdb3f1b	0.0066908724
237	0xbe00bee9	-0.12572826
238	0xbdb92bdc	-0.09041569
239	0xbc9dc290	-0.019257814
240	0x3d3c156a	0.04591886
241	0xbdaf75b3	-0.08567371
242	0xbcf3d304	-0.029763706
243	0xbd93ce17	-0.07217043
244	0xbde765f4	-0.11298743
245	0x3c8263c7	0.015916718
246	0x3c69a49a	0.0142604355
247	0xbdc8bc26	-0.098015115
248	0x3df60fee	0.12014757
249	0xbdb98245	-0.0905805
250	0xbdede178	-0.116152704
251	0x3c26dee5	0.010184978
252	0xbdc46298	-0.09589118
253	0x3d910634	0.07081261
254	0xbd1f0bb2	-0.038829513
255	0xbe087560	-0.13326025

gc2.fc.bias f4 [128]
0	0x3c0fd797	0.008779428
1	0xbdd138e7	-0.102159314
2	0xbd08415d	-0.03326546
3	0xbdcc77c8	-0.09983784
4	0xbb420dda	-0.0029610307
5	0xbd67ae3e	-0.056562655
6	0x3cbee48c	0.023302339
7	0x3c3925e7	0.0113005405
8	0xbd89bc6e	-0.06725393
9	0xbb9a042a	-0.0047002034
10	0xbbb5a808	-0.0055437125
11	0x3d17515c	0.036942825
12	0xbd2f0e3e	-0.04273819
13	0xbda8c2fe	-0.08240317
14	0x3d661233	0.0561697
15	0xbe26ac8d	-0.1627676
16	0x3d9f45f7	0.077770166
17	0xbd637627	-0.0555326
18	0xbca9b656	-0.020716827
19	0xbd14b289	-0.036303077
20	0x3d51c8c4	0.051216856
21	0x3d027f15	0.031859476
22	0x393b3faa	0.00017857426
23	0xbe0205a2	-0.12697461
24	0x3c87a6f3	0.0165591
25	0xbd1d7e50	-0.03845054
26	0xbe13a0bd	-0.14416786
27	0x3bf0a37a	0.0073437067
28	0xbdf04697	-0.11732214
29	0x3d18ec90	0.03733498
30	0x38cd4ebb	9.7898264e-05
31	0xbe358b3e	-0.17728898
32	0x3d306a87	0.043070342
33	0xbd339f39	-0.04385302
34	0xbdae9c2b	-0.085258804
35	0x3ca03a9f	0.019559203
36	0xbdc20419	-0.09473438
37	0xbd84ad28	-0.064783394
38	0x3cc0d21b	0.023537686
39	0x3c53a190	0.0129169375
40	0x3d129164	0.035783187
41	0x3d1b0ace	0.0378521
42	0xbd39a6b2	-0.04532499
43	0xbb36547b	-0.002782135
44	0x3d2cd948	0.042199403
45	0xbca50646	-0.020144593
46	0x3d7e6c3e	0.062114947
47	0xbd65dfc8	-0.056121618
48	0xbdd1f6ac	-0.10252127
49	0xbced3348	-0.028955117
50	0xbdf88627	-0.121349625
51	0x3c65f5b3	0.01403563
52	0xbdf87fe2	-0.12133767
53	0xbdd393c4	-0.103309184
54	0xbe027a48	-0.12741959
55	0x3cbe0549	0.02319588
56	0x3dbfc952	0.09364571
57	0x3db629a0	0.08894658
58	0xbda2ab71	-0.07942856
59	0x3de0a6ee	0.10969339
60	0xbd5c3547	-0.053761747
61	0xbc5c4b92	-0.013445752
62	0x3c076359	0.008263432
63	0xbdb0895e	-0.08619951
64	0xbd56fbda	-0.052486278
65	0x3d85a099	0.06524772
66	0xbd4e0ec7	-0.05030706
67	0xbdd7934e	-0.10526143
68	0xbc2675b8	-0.010159902
69	0xbceebea8	-0.029143646
70	0x3aa3bf25	0.0012492879
71	0xbc0992d1	-0.00839682
72	0xbde04468	-0.109505475
73	0xbe0e4da5	-0.13896807
74	0xbd3faa2c	-0.046793148
75	0x3d19f2a4	0.037584916
76	0x3d148a4d	0.036264706
77	0x3bf5d802	0.007502557
78	0xbd8e48db	-0.0694749
79	0xbbfbb77c	-0.007681785
80	0xbd7985de	-0.06091868
81	0xbe313ecd	-0.17309113
82	0xb9941482	-0.0002824404
83	0xbc234aa7	-0.009966529
84	0x3afab806	0.001912833
85	0xbcd6c9d0	-0.026219279
86	0x3c66af08	0.014079817
87	0xbce42844	-0.027851231
88	0x3dc5b105	0.096529044
89	0x3d3ac34c	0.045596406
90	0xbe10fe35	-0.14159472
91	0x3e070024	0.13183647
92	0xbd7749bd	-0.060373057
93	0xbd0e38af	-0.034722026
94	0xbda76962	-0.08174397
95	0x3db73e51	0.08947433
96	0xbd6ef693	-0.05834062
97	0x3cfd2624	0.030901976
98	0xbd8795fb	-0.066204034
99	0x3c79b137	0.015240005
100	0x3b71f33a	0.0036918656
101	0xbe16db65	-0.1473213
102	0x3db1deea	0.086850956
103	0x3d49e4a7	0.049290325
104	0x3d3d34dd	0.046192992
105	0xbdb04688	-0.08607203
106	0x3d421280	0.047380924
107	0xbc1223c2	-0.008919658
108	0x3c849d07	0.016188158
109	0xbd0ad1b6	-0.033891402
110	0xbd2e0fc0	-0.04249549
111	0xbd79a021	-0.060943726
112	0x3dcc061d	0.099621035
113	0xbc867c17	-0.016416593
114	0xbd990e60	-0.07473445
115	0x3dc98e3f	0.098415844
116	0xbd56848c	-0.0523725
117	0xbcd9dbc9	-0.02659406
118	0x3d0927e3	0.033485305
119	0xbe1635bc	-0.14668936
120	0x3ce0b845	0.027431617
121	0xbd9d152a	-0.07670052
122	0xbd937b0e	-0.07201205
123	0xbe004a4e	-0.12528345
124	0xbb33d656	-0.0027440987
125	0x3d6b58d0	0.057457745
126	0x3c79a0a8	0.015236057
127	0x3d397204	0.04527475

temporal_conv.weight f4 [128, 128, 3]
0	0xbda194cc	-0.07889709
1	0xbd4888b7	-0.048958506
2	0x3cc193e9	0.0236301
3	0xbd6fcd2c	-0.058545277
4	0x3d884223	0.066532396
5	0xbc9645da	-0.018343855
6	0x3d96edc4	0.07369569
7	0x3c5774f6	0.013150444
8	0x3d0cea67	0.03440323
9	0xbbb49539	-0.005510953
10	0xba2f3dd9	-0.0006684936
11	0xbcafdf2e	-0.021468725
12	0xbbb3baaf	-0.005484901
13	0x3d8fcb49	0.070211954
14	0xbba9ae56	-0.005178253
15	0xbcd14155	-0.025543848
16	0xbd95bd83	-0.07311537
17	0x3c4658ad	0.012106103
18	0x3c31af61	0.010845036
19	0x3c1c8c66	0.009554958
20	0xbcac0859	-0.021000074
21	0x3c0d039a	0.008606816
22	0x3d0fa509	0.0350695
23	0xbd37c5b8	-0.044866294
24	0xbd8db1cc	-0.06918678
25	0xbcc9b965	-0.024624536
26	0xbc506554	-0.012719471
27	0x3df66bf0	0.12032306
28	0x3d7388b0	0.059456527
29	0xbd082581	-0.03323889
30	0xbd468793	-0.048469137
31	0xbc10b06e	-0.008831127
32	0x3ce5f68b	0.028071662
33	0x3c92c214	0.01791481
34	0xbb2b7b7e	-0.0026166136
35	0xbc9d4933	-0.019199943
36	0xbdcd1d02	-0.100152984
37	0xbce8e1ea	-0.028428037
38	0x3be11e1e	0.0068700453
39	0x3c8a815a	0.016907383
40	0x3bf35fa3	0.0074271723
41	0x3ca3ff60	0.020019233
42	0xbd16529d	-0.03669988
43	0xbd1311f7	-0.035905804
44	0xbcf11699	-0.02942972
45	0xbc7d6bfc	-0.01546764
46	0xbcba4499	-0.022737788
47	0x3c9efdc8	0.019408122
48	0xbdecd4dc	-0.11564037
49	0xbdca0b81	-0.098654754
50	0x3c1c4a7a	0.009539241
51	0x3d80922c	0.0627788
52	0x3d0ad46c	0.033893988
53	0xbd070a8d	-0.032969046
54	0xbcdd2aff	-0.026998041
55	0x3cc29ec4	0.023757346
56	0x3d21563b	0.039388876
57	0x3dad23e0	0.08454108
58	0x3dbce5d1	0.092235215
59	0xbb0e1516	-0.0021680049
60	0xbe3b7a0d	-0.18308277
61	0xbe362c2e	-0.1779029
62	0xbd084a73	-0.033274125
63	0xbceac247	-0.028657092
64	0xbcfc46f5	-0.030795554
65	0xbd4896d0	-0.04897195
66	0xbd5eb52d	-0.054372
67	0x3d0583b1	0.032596294
68	0x3cd36ba2	0.02580816
69	0xbc8b000d	-0.016967798
70	0xbd1f86be	-0.03894686
71	0x3d0aa9df	0.033853408
72	0x3da9917c	0.08279702
73	0x3dbb923c	0.09158751
74	0x3cd0a2ef	0.025468318
75	0x3d1a7719	0.037711237
76	0x3c7b384d	0.015333247
77	0xbd173917	-0.03691968
78	0xbdc9c4af	-0.098519675
79	0xbd026b01	-0.031840328
80	0x3d03cf3e	0.032180063
81	0xbb564f23	-0.0032700978
82	0x3d529bdf	0.05141818
83	0x3d32ae3f	0.043623205
84	0xbbe6f36f	-0.0070480625
85	0xbd8f1619	-0.06986637
86	0xbce0308b	-0.027366897
87	0xbd82f3fb	-0.06394192
88	0xbdd25ede	-0.10272001
89	0x3ccc2fb1	0.024925085
90	0xbdd2e11e	-0.10296844
91	0xbd8b9a4a	-0.06816538
92	0xbca5b883	-0.020229584
93	0xbe381b45	-0.17979153
94	0xbe7e8a1a	-0.24857369
95	0xbd1f728e	-0.038927607
96	0x3c7b40a1	0.015335233
97	0x3da3d2a5	0.07999162
98	0xbc4bc8ac	-0.012437981
99	0x3cb64b43	0.022252684
100	0xbdbd301c	-0.09237692
101	0xbc8e2c6f	-0.017355172
102	0x3d7f7b36	0.062373362
103	0x3c69c461	0.014268012
104	0x3af3d79e	0.0018603688
105	0x3d69d56c	0.0570883
106	0xbc5203f8	-0.012818329
107	0x3cdb98c0	0.026806235
108	0xbce909d7	-0.028447075
109	0xbdd73b31	-0.10509337
110	0xbd4da665	-0.050207514
111	0xbdf6d847	-0.120529704
112	0xbdbfe269	-0.09369356
113	0x3cbe6e31	0.023245903
114	0xbcfbfa6c	-0.030759059
115	0x3a68f957	0.0008887252
116	0xbcbbd52f	-0.022928802
117	0x3d44ade1	0.048017386
118	0x3d1ef49e	0.038807504
119	0x3d15ac8c	0.036541507
120	0x3ac10f09	0.0014729212
121	0x3d133612	0.035940237
122	0xbd3c3c5c	-0.045956
123	0x3dac6db4	0.08419362
124	0x3d9fdd73	0.0780591
125	0xbd18156e	-0.037129812
126	0xbb7faab2	-0.0039011654
127	0x3dcb600b	0.09930428
128	0xbc092af1	-0.008372054
129	0xbd449a29	-0.04799858
130	0xbc9f5d3e	-0.019453641
131	0x3d103303	0.0352049
132	0xbc20d32a	-0.00981597
133	0x3abd31a6	0.0014434352
134	0x3d1c751d	0.038197625
135	0x3d71128a	0.05885557
136	0x3df6ac5b	0.12044593
137	0x3c471879	0.012151831
138	0x3d00b966	0.03142681
139	0xbb710516	-0.0036776713
140	0xbce664e2	-0.028124277
141	0x3deea981	0.11653424
142	0x3caffae0	0.021481931
143	0xbb85e9fd	-0.0040867315
144	0x3d51f1f8	0.05125615
145	0x3d33f01c	0.043930158
146	0xbd333e39	-0.043760512
147	0x3d02fd71	0.03197998
148	0xbc052687	-0.008126861
149	0x3b126e61	0.0022343623
150	0xbd6f221c	-0.05838214
151	0x3ba788aa	0.005112727
152	0xbc8e59f4	-0.017376877
153	0xbc2dad1a	-0.010600353
154	0xbda2236e	-0.07916914
155	0xbca67a7f	-0.020322083
156	0x3d293c34	0.04131718
157	0x3b048bb4	0.002022487
158	0x3cf9d1c5	0.030495534
159	0x3d58aa02	0.052896507
160	0x3d7ddcc4	0.061978117
161	0x3cdc1772	0.026866648
162	0x3cfc0714	0.030765094
163	0x3c228fad	0.00992195
164	0xbd4e23b2	-0.05032701
165	0x3cdcbcb6	0.026945453
166	0x3df08da3	0.11745765
167	0xbbf1a9b1	-0.007374965
168	0xbb562e03	-0.0032681234
169	0x3caf65b5	0.021410802
170	0xbd0accaf	-0.033886608
171	0x3bcf3ee0	0.006324634
172	0xbb5c6383	-0.003362865
173	0xbce94100	-0.028473377
174	0x3dec27d1	0.11531032
175	0x3d0ecd62	0.034863837
176	0x3d02baa0	0.03191626
177	0xbcda7062	-0.026664916
178	0xbd01ba65	-0.0316719
179	0x3c69b81b	0.014265086
180	0xbd0aad6d	-0.033856798
181	0xbcd275ae	-0.02569088
182	0xbb3d84a3	-0.002891817
183	0x3d96b30e	0.07358371
184	0x3c168b2c	0.009188455
185	0x3d05a143	0.032624494
186	0x3c5afcfb	0.013365979
187	0xbc872710	-0.016498119
188	0x3b9de10b	0.004818087
189	0x3cb2d859	0.021831678
190	0xbe12b325	-0.1432615
191	0xbb844c3a	-0.004037407
192	0xbc73895c	-0.014864292
193	0x3c0dd4ee	0.008656723
194	0xbccaa26e	-0.024735656
195	0x3d8b25bb	0.06794306
196	0x3d8a02c4	0.06738809
197	0x3cd84e13	0.026404416
198	0xbd16a97d	-0.03678273
199	0xbcf74100	-0.030182362
200	0x3c3a926c	0.011387449
201	0xbd279f5f	-0.040923472
202	0x3be4d371	0.0069832136
203	0xbcbd19ad	-0.023083532
204	0xbc090aee	-0.008364422
205	0x3d02054a	0.031743325
206	0x3cc41b47	0.023938788
207	0xbd76ae5f	-0.060224887
208	0xbcb4945b	-0.022043398
209	0xbc7db4e3	-0.015485021
210	0x3d0b4d3b	0.0340092
211	0x3d6f723c	0.05845855
212	0xbca15498	-0.019693658
213	0x3c73c0e4	0.014877532
214	0x3d9ff0b7	0.078095846
215	0x3d3072ae	0.043078117
216	0xbe818d4c	-0.25303113
217	0xbe706a96	-0.2347816
218	0xbca50061	-0.020141782
219	0x3c45d52a	0.012074748
220	0xbd09df8e	-0.033660464
221	0xbd00fd2d	-0.031491447
222	0xbd22714f	-0.03965884
223	0xbbfeabc1	-0.0077719395
224	0x3c5a0696	0.013307234
225	0x3d4bee79	0.049787972
226	0xbc8381c2	-0.016053084
227	0xbd1cd223	-0.03828634
228	0xbc90ab00	-0.017659664
229	0xbdf39b08	-0.11894804
230	0x3d0fb220	0.035081983
231	0x3c45195d	0.012029973
232	0x3dded6f8	0.10880846
233	0x3cd0ca37	0.025487049
234	0x3bae6619	0.0053222296
235	0xbe11fd56	-0.14256796
236	0xbc92514b	-0.01786103
237	0x3b70f9a7	0.0036769898
238	0x3ba159b6	0.0049240245
239	0x3d27482a	0.040840305
240	0xbcc0168f	-0.023448257
241	0xbd75c84f	-0.060005482
242	0xbca21927	-0.019787384
243	0xbe0b2f9b	-0.13592379
244	0x3df1292a	0.117754295
245	0x3cc42fb0	0.02394852
246	0xbd21c928	-0.03949848
247	0xbdbccb22	-0.09218432
248	0xbc80580a	-0.01566698
249	0xbd6c7711	-0.057730738
250	0xbdb1b49d	-0.086770274
251	0x3c1e6bab	0.009669225
252	0xba215daf	-0.00061556225
253	0x3d76625b	0.060152393
254	0xbd3768f5	-0.04477783
255	0xbc90620d	-0.01762488

temporal_conv.bias f4 [128]
0	0x3d7fbb0c	0.06243424
1	0x3d246f79	0.04014537
2	0x3cd216cd	0.025645638
3	0xbd189119	-0.03724775
4	0x3ca27817	0.019832654
5	0x3cabeefa	0.020987976
6	0xbd0fb10a	-0.035080947
7	0x3ddc02c1	0.10742713
8	0x3cd39955	0.02582995
9	0x3d7053e0	0.05867374
10	0x3d08312f	0.03325003
11	0x3de64702	0.112440124
12	0x3d39d9c8	0.045373708
13	0xbddc066f	-0.107434146
14	0xbe026d9a	-0.12737122
15	0x3d7c45b6	0.06158992
16	0x3d946b14	0.07246986
17	0x3df80d15	0.1211187
18	0x3d82b308	0.06381804
19	0x3d53ab43	0.051677
20	0xbd6969af	-0.056985553
21	0xbbda712c	-0.006666323
22	0x3dd73f27	0.10510092
23	0x3d5ddde1	0.05416668
24	0x3c97e287	0.018540634
25	0x3cb4ddcf	0.022078423
26	0x3e05a794	0.13052207
27	0xbdb4820a	-0.088138655
28	0x3d769f80	0.060210705
29	0x3d9b687f	0.075882904
30	0x3ba2e211	0.004970797
31	0xbd733ac3	-0.05938221
32	0x3e09bcb3	0.1345089
33	0xbd989a58	-0.07451314
34	0x3db0e523	0.08637454
35	0xbbd28613	-0.0064246743
36	0x3da0bcdb	0.07848521
37	0xbbf0c2fe	-0.0073474636
38	0x3d2c254b	0.042027753
39	0xbb8579e3	-0.004073368
40	0x3dd74db5	0.10512868
41	0x3e018714	0.12649184
42	0x3d998606	0.07496266
43	0x3d22ba32	0.03972835
44	0x3dfe9b84	0.12432006
45	0x3c1790a7	0.009250796
46	0x3e0e3b23	0.13889746
47	0xbcaa7ebe	-0.020812389
48	0x3d268253	0.04065163
49	0xbd4b7a2f	-0.04967707
50	0x3d4587fe	0.048225395
51	0x3d951264	0.07278898
52	0xbd0d7361	-0.034533862
53	0x3d98704b	0.07443293
54	0xbd53cc37	-0.051708426
55	0xbdaadfdb	-0.08343478
56	0x3db8d436	0.09024851
57	0xbd4f071f	-0.0505439
58	0xbc2c6180	-0.010521293
59	0xbc2dcdab	-0.010608117
60	0xbdad866f	-0.08472907
61	0x3db39945	0.08769468
62	0xbc113bc4	-0.008864347
63	0x3db55d3c	0.08855674
64	0xbdc5a135	-0.096498884
65	0xbd5a6332	-0.053317256
66	0xbcb7491a	-0.022373725
67	0xbd6abfdf	-0.05731189
68	0xbd250518	-0.04028806
69	0x3da21e43	0.07915928
70	0x3d85bf30	0.06530607
71	0x3dbccf44	0.0921922
72	0x3d0789b0	0.033090293
73	0x3cf55ad7	0.029950542
74	0xba45cba0	-0.0007545296
75	0x3d03faad	0.032221485
76	0x3de6585e	0.112473235
77	0x3d43bff5	0.047790486
78	0x3d8541a6	0.06506662
79	0x3c736735	0.014856149
80	0x3c277717	0.010221264
81	0x3d9b20fc	0.07574651
82	0x3cdfcf36	0.027320486
83	0xbdb05c05	-0.08611301
84	0x3d0f4903	0.03498174
85	0xbd18639c	-0.03720437
86	0x3e05913a	0.13043681
87	0xbd8c16c2	-0.06840278
88	0xbd161b88	-0.03664735
89	0x3d880f72	0.06643571
90	0x3da081ae	0.078372344
91	0x3d3e01ab	0.04638831
92	0x3ce3a1da	0.027787138
93	0x3d62723e	0.05528473
94	0xbda194ce	-0.0788971
95	0x3d28ab79	0.041179154
96	0xbdbe6781	-0.092970856
97	0x3da9948e	0.08280288
98	0x3d23ee6c	0.0400223
99	0x3e189052	0.14898804
100	0x3d8f3fe2	0.069946066
101	0x3d76723e	0.060167544
102	0x3b22e29e	0.0024854313
103	0xbd7cfe90	-0.061766207
104	0x3d0e52bd	0.034746874
105	0xbb0991f1	-0.002099153
106	0xbd08c2e7	-0.033389
107	0x3ba7d93b	0.0051223314
108	0x3d510c77	0.051037278
109	0x3d92989a	0.07158013
110	0xbd799cab	-0.060940426
111	0x3db42e58	0.08797902
112	0x3c9282c3	0.017884618
113	0x3dc1adb9	0.09456963
114	0x3d611e1f	0.054960366
115	0x3ca046ea	0.019565064
116	0x3b25d03e	0.0025301124
117	0x3d9d68cd	0.07686005
118	0x3db3bd64	0.08776358
119	0xbd5625c5	-0.052282114
120	0xbdd89b9c	-0.10576555
121	0xbd4b654e	-0.04965716
122	0x3d66ce4c	0.056349084
123	0x3d0db902	0.034600265
124	0xbdfffda5	-0.12499551
125	0x3b54fa88	0.003249796
126	0x3bbedb19	0.0058244583
127	0xbb13e281	-0.0022565427

fc.weight f4 [36, 128]
0	0x3b8e1fd7	0.0043372917
1	0x3e06fef7	0.13183199
2	0x3d88a625	0.066723146
3	0xb9f50e36	-0.0004674063
4	0xbd533534	-0.05156441
5	0x3ca9bcec	0.020719968
6	0xbd498966	-0.0492033
7	0xbd8ecc53	-0.069725655
8	0xbcf1365a	-0.029444862
9	0xbd034ec4	-0.03205754
10	0x3d36721a	0.04454241
11	0x3d23050b	0.03979973
12	0x3d5b7950	0.05358249
13	0xbd26a028	-0.04068008
14	0x3d8b94bb	0.068154775
15	0x3d89d3e8	0.06729871
16	0xbd6acc6d	-0.057323862
17	0xbda6b4cb	-0.08139952
18	0x3c25881d	0.010103253
19	0x3d5541d1	0.05206472
20	0x3d675f96	0.056487642
21	0x3deb20b7	0.11480849
22	0xbd7ea2f3	-0.06216712
23	0x3d757247	0.059923436
24	0x3dd726d2	0.10505451
25	0x3d95f8f5	0.073228754
26	0xbdacede3	-0.08443811
27	0xbcb5a947	-0.022175444
28	0xbd24cf22	-0.0402366
29	0xbd9dde1a	-0.07708378
30	0xbd868ac6	-0.06569438
31	0x3c0660d2	0.008201795
32	0xbc4e1c84	-0.012580041
33	0xbb32fd36	-0.002731157
34	0xbd9038f2	-0.070421115
35	0xbc28a72f	-0.010293766
36	0xbdaedfc0	-0.08538771
37	0xbcbcf124	-0.023064204
38	0x3d12bfcb	0.03582744
39	0x3ca37f51	0.01995817
40	0xbe03cd67	-0.12871324
41	0xbbe1ace0	-0.0068870634
42	0x3e0835e9	0.13301815
43	0xbc6927a9	-0.014230647
44	0xbd651d6c	-0.055936262
45	0x3d29e537	0.041478362
46	0xbd4ba1da	-0.0497149
47	0x3bc83ef6	0.006111021
48	0xbe428876	-0.18997368
49	0xbd5a56d1	-0.05330545
50	0xbdb232bf	-0.08701085
51	0xbe2842a8	-0.16431677
52	0xbd5511ae	-0.052018814
53	0xbdb8121b	-0.08987828
54	0x3d59d98e	0.053185992
55	0x3de75be9	0.11296827
56	0x3d47cb15	0.04877766
57	0x3c735bcd	0.01485343
58	0x38dc598e	0.00010507098
59	0x3d552898	0.052040666
60	0xbd11d3b5	-0.03560229
61	0xbd964a6b	-0.07338413
62	0xbcc15a85	-0.023602733
63	0x3d8d0940	0.0688653
64	0xbd69d984	-0.057092205
65	0xbdd174a0	-0.102273226
66	0x3d2d17be	0.04225897
67	0x3dab523a	0.08365293
68	0xbd57030c	-0.05249314
69	0xbc01aa97	-0.007914207
70	0xbe10d8b1	-0.14145161
71	0x3cd153ac	0.025552593
72	0x3cfb13ed	0.03064915
73	0x3df954e1	0.121743925
74	0x3c2ed772	0.010671483
75	0x3de24519	0.110483356
76	0x3b0ba9a9	0.0021310842
77	0x3dd4957a	0.10380073
78	0xbdf35b6f	-0.11882674
79	0xbd9b7b7d	-0.07591913
80	0x3d9c0ffe	0.07620238
81	0x3c98b5f4	0.01864145
82	0x3c8c0a1b	0.017094662
83	0xbcaadaf5	-0.02085636
84	0x3cac50dc	0.02103465
85	0x3cb62d81	0.022238495
86	0xbd6ba1ed	-0.05752747
87	0x3db25d36	0.08709185
88	0x3ccfd24e	0.025368836
89	0xbda3058e	-0.07960044
90	0xbb817f0f	-0.003951914
91	0xbcbd7898	-0.023128793
92	0x3cd71b96	0.026258271
93	0xbb141433	-0.0022595047
94	0xbdc14f9f	-0.09439015
95	0xbd63f59c	-0.055654153
96	0x3d612344	0.054965273
97	0xbd058f21	-0.0326072
98	0xbde43513	-0.111429356
99	0xbd6334e7	-0.055470373
100	0xbd901a95	-0.0703632
101	0x3d35b0b7	0.04435798
102	0xbce246e8	-0.027621701
103	0xbd56c3b4	-0.05243273
104	0xbced3785	-0.028957138
105	0x3d91391f	0.07090973
106	0x3e11b757	0.14230095
107	0xbdbd83ba	-0.092536405
108	0x3cec848d	0.028871799
109	0xbe07fff1	-0.13281228
110	0x3db2f84f	0.08738767
111	0xbe0654cb	-0.13118283
112	0x3e08c3cf	0.13355945
113	0x3d24acc1	0.040203813
114	0xbd9f4787	-0.07777315
115	0x3debe95c	0.11519119
116	0xbdbe519f	-0.09292912
117	0x3c9f3b20	0.019437373
118	0xbd54db1e	-0.05196678
119	0x3dabfd27	0.08397894
120	0x3e026802	0.12734988
121	0xbc2bf983	-0.0104965
122	0xbc21013c	-0.009826954
123	0xbc0886a1	-0.008332879
124	0x3d688184	0.05676414
125	0xbcef5755	-0.029216448
126	0x3d17b021	0.037033204
127	0x3df6130a	0.1201535
128	0xbd6443cb	-0.055728715
129	0xbb0a7ca2	-0.0021131416
130	0x3d8bb2b9	0.06821198
131	0x3c671ce3	0.014106008
132	0xbde628e9	-0.11238272
133	0xbbe04614	-0.0068442915
134	0xbda4d79d	-0.080489375
135	0xbdcf3344	-0.101172
136	0x3d2d0a9f	0.042246457
137	0x3da62332	0.08112182
138	0x3d842943	0.064531825
139	0xbdb140f7	-0.08654969
140	0xbd8f0e25	-0.0698512
141	0x3b334a6f	0.0027357598
142	0x3d1c5e9d	0.038176168
143	0xbd1d2f2d	-0.03837507
144	0xbdacc4b1	-0.084359534
145	0xbc526b71	-0.012842999
146	0x3e1e7d64	0.1547752
147	0xbd93caef	-0.07216441
148	0xbcc36f6c	-0.023856841
149	0x3d2db2c9	0.04240683
150	0xbd5ec475	-0.054386575
151	0x3e09db4a	0.13462558
152	0xbca3a4c5	-0.01997603
153	0x3d9da77e	0.07697962
154	0xbda7da95	-0.08195988
155	0x3da2efcf	0.07955896
156	0x3c1ec3ca	0.009690234
157	0xbd1b7b6b	-0.037959497
158	0x3cd39ebe	0.02583253
159	0x3da2f078	0.07956022
160	0xbdbd549e	-0.09244655
161	0x3dabf2c3	0.083959125
162	0xbd57161e	-0.052511327
163	0xbd933300	-0.07187462
164	0xbd7a1f85	-0.061065216
165	0xbc15dd40	-0.009146988
166	0xbd69bb08	-0.057063133
167	0xbd9e21c8	-0.07721287
168	0xbbcfe74a	-0.0063447105
169	0xbde3308f	-0.11093246
170	0x3d6e6eb3	0.05821104
171	0x3d508182	0.05090476
172	0xbcdacc63	-0.026708787
173	0x3d5287d9	0.051399086
174	0xbdd15d9e	-0.10222934
175	0xbe520538	-0.20509803
176	0xbb500aef	-0.0031744798
177	0xbc067d5b	-0.008208598
178	0xbbf33eb0	-0.0074232444
179	0xbda43c4b	-0.080193125
180	0xbdc31560	-0.09525561
181	0xbdfe03c0	-0.12403059
182	0x3d90b7b1	0.07066286
183	0x3d985a14	0.07439056
184	0xbe01434c	-0.12623328
185	0x3dc24878	0.094864786
186	0x3d18bee6	0.03729143
187	0xbbd1df3e	-0.0064047864
188	0x3dabeddb	0.08394977
189	0xbddbd665	-0.10734252
190	0x3d06b04d	0.032882977
191	0xbd918b7a	-0.07106681
192	0x3c89860a	0.016787548
193	0xbd69cec9	-0.05708197
194	0xbd4289db	-0.04749475
195	0xbced1238	-0.028939351
196	0x3c5c4de4	0.013446305
197	0x3df028c2	0.11726524
198	0xbd4ca8bf	-0.049965616
199	0x3daeb0bb	0.085298024
200	0x3db367c7	0.08760028
201	0x3d5d54a0	0.054035783
202	0xbcd4f044	-0.025993474
203	0x3d934c30	0.07192266
204	0xbd905c8f	-0.07048904
205	0x3d910d02	0.07082559
206	0xbb23a565	-0.002497041
207	0xbd623fec	-0.055236742
208	0xbd941864	-0.07231215
209	0x3d1b145d	0.037861217
210	0x3e31da2d	0.17368384
211	0xbb917e9f	-0.0044401432
212	0x3e15ebca	0.14640728
213	0xbc3d1282	-0.011540057
214	0xbc1510f7	-0.009098283
215	0x3c83bce1	0.016081275
216	0x3dd1e3f3	0.10248556
217	0x3d8ffbdc	0.0703046
218	0x3e20ce45	0.15703686
219	0x3d64dcc3	0.055874597
220	0xbde2a34f	-0.11066305
221	0xbdbfbc4c	-0.09362087
222	0xbd6ea593	-0.058263373
223	0x3bde3103	0.006780745
224	0x3d47dfae	0.048797302
225	0x3dcbb7e7	0.09947186
226	0xbddda8d4	-0.10823217
227	0xbdfede6a	-0.12444766
228	0x3d7fe9df	0.062478896
229	0x3a403fb0	0.0007333709
230	0x3d6abad7	0.05730709
231	0x3bca357e	0.0061709275
232	0x3e0a6cc8	0.13518059
233	0x3c9e2cf0	0.019308537
234	0x3cb35f4b	0.021896025
235	0xbd7798b8	-0.06044838
236	0x3d9d174e	0.07670461
237	0x3993d3be	0.00028195785
238	0xbd1420cf	-0.0361641
239	0xbd6d7c18	-0.057979673
240	0x3dcc9b49	0.09990556
241	0x3da58cf8	0.08083528
242	0xbd8a93cf	-0.067664735
243	0xbdbec0c3	-0.0931411
244	0x3dc70eb8	0.09719604
245	0xbd484b1f	-0.048899766
246	0xbe2b1659	-0.16707744
247	0x3c84bc14	0.016202964
248	0xbc6172c4	-0.013760272
249	0xbd4f5a0c	-0.050622985
250	0x3d38d8c9	0.045128617
251	0x3d3f4f77	0.046706643
252	0xbdbab63e	-0.09116791
253	0x3d88a7a5	0.06672601
254	0xbcff57c4	-0.03116978
255	0x3df84cd7	0.12124031

fc.bias f4 [36]
0	0xbc7f44f0	-0.015580401
1	0xbcf54253	-0.029938852
2	0xbc689917	-0.014196656
3	0xbd394396	-0.04523047
4	0x3d352d06	0.04423239
5	0xbda9e358	-0.082953155
6	0xbd915178	-0.07095617
7	0xbdcbf391	-0.09958566
8	0xbd8d713e	-0.06906365
9	0xbd9b739b	-0.07590409
10	0xbc92ae0d	-0.01790526
11	0xbd657fba	-0.056030013
12	0xbd24cf75	-0.04023691
13	0xbd7f51b3	-0.062333774
14	0xbde655bf	-0.112468235
15	0xbcca6749	-0.024707453
16	0xbcf097ca	-0.029369254
17	0xbd3b3816	-0.045707785
18	0x3c167a9a	0.009184504
19	0xbdeaf9a5	-0.11473397
20	0xbd24c8a8	-0.040230423
21	0xbde219b6	-0.1104006
22	0xbd3ccc0d	-0.046093035
23	0xbd966214	-0.07342926
24	0xbd525ee2	-0.05136002
25	0xbd24fd23	-0.040280472
26	0xbcda42d7	-0.0266432
27	0xbd33ad3f	-0.043866392
28	0xbd03c7f9	-0.03217313
29	0xbd5f3fc5	-0.054504175
30	0xbd750fda	-0.05982957
31	0xb9bbf1f3	-0.00035847686
32	0xbd066af8	-0.032816857
33	0xbd99d14f	-0.075106256
34	0x3c7d33d2	0.015454249
35	0xbdef5181	-0.116854675
