situation_analysis/best_models/model_window30_horizon1.pth (torch, 905642 bytes, 27 tensors)

adapt_adj f4 [30, 30]
0	0x3f72563d	0.9466284
1	0xbd59e3a8	-0.053195626
2	0xbd59f326	-0.0532104
3	0xbd5a7079	-0.05332992
4	0xbd5a8205	-0.053346653
5	0xbd5abb43	-0.053401243
6	0xbd5aa96f	-0.05338424
7	0xbd5ada4f	-0.05343085
8	0xbd5bf86f	-0.05370372
9	0xbd5c52b1	-0.0537898
10	0xbd5d28ff	-0.053994175
11	0xbd5cf226	-0.05394187
12	0xbd5d56d2	-0.054037876
13	0xbd5e2db6	-0.054242812
14	0xbd5d9e32	-0.054105945
15	0xbd5db672	-0.05412907
16	0xbd5d9ba7	-0.05410352
17	0xbd5da480	-0.054111958
18	0xbd5dad23	-0.054120194
19	0xbd5e0665	-0.054205317
20	0xbd5e228d	-0.05423217
21	0xbd5e6d52	-0.054303475
22	0xbd5f2bb8	-0.054485053
23	0xbd5ffacf	-0.05468255
24	0xbd609f18	-0.054839224
25	0xbd60f390	-0.05491978
26	0xbd610eb5	-0.054945666
27	0xbd6228c6	-0.055214666
28	0xbd6314b4	-0.055439666
29	0xbd685c44	-0.056728616
30	0xbd5b1efd	-0.05349635
31	0x3f7258f5	0.9466699
32	0xbd5a7a5b	-0.053339344
33	0xbd5af076	-0.053451978
34	0xbd5b107f	-0.05348253
35	0xbd5b30a5	-0.053513188
36	0xbd5b1a9a	-0.053492166
37	0xbd5b59e7	-0.053552534
38	0xbd5c81de	-0.05383479
39	0xbd5cdad1	-0.053919617
40	0xbd5db2a0	-0.05412543
41	0xbd5d6870	-0.054054677
42	0xbd5daf18	-0.05412206
43	0xbd5e8e22	-0.054334767
44	0xbd5e03a1	-0.05420268
45	0xbd5e18e6	-0.054222964
46	0xbd5dfdde	-0.054197185
47	0xbd5e1b99	-0.054225538
48	0xbd5e1852	-0.054222412
49	0xbd5e6aac	-0.05430095
50	0xbd5e891a	-0.05432997
51	0xbd5ece7c	-0.054396138
52	0xbd5f9649	-0.054586682
53	0xbd60697a	-0.05478809
54	0xbd60f8b0	-0.054924667
55	0xbd61393c	-0.054986224
56	0xbd6151df	-0.05500972
57	0xbd626a89	-0.05527738
58	0xbd635ab7	-0.055506434
59	0xbd68a1b0	-0.056794822
60	0xbd59739d	-0.053088773
61	0xbd58af28	-0.052901417
62	0x3f727432	0.9470855
63	0xbd5928de	-0.05301749
64	0xbd594315	-0.05304249
65	0xbd59610c	-0.053071067
66	0xbd594f22	-0.053053983
67	0xbd599a75	-0.053125817
68	0xbd5ac22c	-0.053407833
69	0xbd5b1d8a	-0.053494968
70	0xbd5bf5de	-0.053701274
71	0xbd5bbcc0	-0.053646803
72	0xbd5c1bdd	-0.05373751
73	0xbd5cea7d	-0.053934563
74	0xbd5c6b09	-0.053813014
75	0xbd5c885d	-0.053840984
76	0xbd5c6b44	-0.053813234
77	0xbd5c8c9e	-0.05384504
78	0xbd5c830a	-0.053835906
79	0xbd5ce35b	-0.05392776
80	0xbd5d1a39	-0.053980086
81	0xbd5d502a	-0.05403153
82	0xbd5e1057	-0.0542148
83	0xbd5ed9d1	-0.054406945
84	0xbd5f80e9	-0.054566298
85	0xbd5fa3ee	-0.054599695
86	0xbd5fad05	-0.054608364
87	0xbd60b4d5	-0.054859955
88	0xbd61b117	-0.055100527
89	0xbd67185b	-0.05641971
90	0xbd5b2778	-0.053504437
91	0xbd5a62f1	-0.053317014
92	0xbd5a5c1c	-0.0533105
93	0x3f7252fa	0.9465786
94	0xbd5ac41f	-0.053409692
95	0xbd5ae4b3	-0.05344076
96	0xbd5ac431	-0.05340976
97	0xbd5aec8c	-0.053448245
98	0xbd5c157a	-0.05373142
99	0xbd5c81fb	-0.053834897
100	0xbd5d618f	-0.054048117
101	0xbd5d1fbb	-0.05398534
102	0xbd5d6b8c	-0.054057643
103	0xbd5e2419	-0.054233644
104	0xbd5d9768	-0.05409947
105	0xbd5dbe85	-0.05413677
106	0xbd5d9eb7	-0.05410644
107	0xbd5dc89c	-0.054146394
108	0xbd5dc177	-0.05413958
109	0xbd5e1875	-0.054222543
110	0xbd5e4887	-0.054268386
111	0xbd5e8941	-0.054330114
112	0xbd5f3de7	-0.054502394
113	0xbd6018c8	-0.054711133
114	0xbd609595	-0.054830153
115	0xbd60d065	-0.05488624
116	0xbd60dc03	-0.05489732
117	0xbd61e836	-0.055153094
118	0xbd62e81a	-0.05539713
119	0xbd683a78	-0.056696385
120	0xbd5ab52e	-0.053395443
121	0xbd5a0b00	-0.053233147
122	0xbd5a0d4c	-0.053235337
123	0xbd5a5e32	-0.053312488
124	0x3f725b23	0.94670314
125	0xbd5a7e05	-0.053342838
126	0xbd5a6edb	-0.053328376
127	0xbd5a9dcd	-0.053373147
128	0xbd5bc660	-0.053655982
129	0xbd5c287c	-0.053749546
130	0xbd5d108c	-0.05397086
131	0xbd5cbfa2	-0.053893693
132	0xbd5d1626	-0.0539762
133	0xbd5de261	-0.05417097
134	0xbd5d4afe	-0.054026596
135	0xbd5d5afd	-0.05404185
136	0xbd5d4551	-0.054021183
137	0xbd5d652f	-0.054051574
138	0xbd5d706e	-0.0540623
139	0xbd5ddca2	-0.05416549
140	0xbd5e076f	-0.054206308
141	0xbd5e606a	-0.054291166
142	0xbd5f0e56	-0.05445703
143	0xbd5fd9bf	-0.05465102
144	0xbd6066f8	-0.0547857
145	0xbd609584	-0.05483009
146	0xbd60abc3	-0.054851305
147	0xbd61bd82	-0.05511237
148	0xbd62a80c	-0.055336043
149	0xbd681356	-0.056659065
150	0xbd59c842	-0.053169496
151	0xbd590882	-0.05298663
152	0xbd590f85	-0.052993316
153	0xbd597916	-0.053093992
154	0xbd598884	-0.053108707
155	0x3f726529	0.9468561
156	0xbd5978e2	-0.0530938
157	0xbd59a002	-0.05313111
158	0xbd5aae9d	-0.05338918
159	0xbd5b13df	-0.053485747
160	0xbd5bfaac	-0.053705856
161	0xbd5bcc09	-0.05366138
162	0xbd5c0b9e	-0.053722017
163	0xbd5cd05c	-0.053909644
164	0xbd5c4182	-0.05377341
165	0xbd5c520e	-0.05378919
166	0xbd5c3b82	-0.05376769
167	0xbd5c53a3	-0.0537907
168	0xbd5c669f	-0.053808805
169	0xbd5cd4d4	-0.053913906
170	0xbd5cf1f7	-0.053941693
171	0xbd5d46d8	-0.05402264
172	0xbd5e069e	-0.05420553
173	0xbd5edabd	-0.054407824
174	0xbd5f6372	-0.054538198
175	0xbd5f92df	-0.054583427
176	0xbd5fb23d	-0.05461334
177	0xbd60b46d	-0.054859567
178	0xbd61c22d	-0.05511682
179	0xbd672779	-0.05643413
180	0xbd5bd652	-0.05367119
181	0xbd5b12cd	-0.053484727
182	0xbd5b170f	-0.053488787
183	0xbd5b7b9a	-0.053584673
184	0xbd5b7f4e	-0.053588204
185	0xbd5b88df	-0.053597327
186	0x3f724b6f	0.9464635
187	0xbd5b66f7	-0.05356499
188	0xbd5c868e	-0.05383926
189	0xbd5cdbe8	-0.053920656
190	0xbd5d9948	-0.05410126
191	0xbd5d56f8	-0.054038018
192	0xbd5da11e	-0.05410873
193	0xbd5e65c3	-0.054296266
194	0xbd5dde7d	-0.05416726
195	0xbd5dfa4c	-0.05419378
196	0xbd5ddea5	-0.05416741
197	0xbd5df87c	-0.05419205
198	0xbd5e036c	-0.054202482
199	0xbd5e584e	-0.054283433
200	0xbd5e7b9f	-0.054317113
201	0xbd5edca0	-0.054409623
202	0xbd5fad42	-0.05460859
203	0xbd6083a8	-0.054813057
204	0xbd61185c	-0.05495487
205	0xbd614f07	-0.055007007
206	0xbd616838	-0.05503103
207	0xbd6280ae	-0.0552985
208	0xbd63684f	-0.0555194
209	0xbd68c2c2	-0.05682636
210	0xbd5af7e9	-0.05345908
211	0xbd5a3b96	-0.05327948
212	0xbd5a424f	-0.053285893
213	0xbd5a9d29	-0.053372536
214	0xbd5a8ad7	-0.053355064
215	0xbd5a9d39	-0.053372595
216	0xbd5a78d9	-0.053337906
217	0x3f7257dd	0.9466532
218	0xbd5b8671	-0.05359501
219	0xbd5be8f8	-0.053688973
220	0xbd5ccb9a	-0.053905107
221	0xbd5c89da	-0.053842403
222	0xbd5ccace	-0.053904347
223	0xbd5d8f49	-0.054091725
224	0xbd5cfa1f	-0.05394947
225	0xbd5d02af	-0.053957637
226	0xbd5cf441	-0.053943876
227	0xbd5d2c1d	-0.053997148
228	0xbd5d2ff4	-0.05400081
229	0xbd5d8ce9	-0.05408946
230	0xbd5dada1	-0.054120664
231	0xbd5df70a	-0.054190673
232	0xbd5ebb16	-0.054377638
233	0xbd5fb52c	-0.05461614
234	0xbd602efd	-0.05473231
235	0xbd6081ed	-0.054811407
236	0xbd609882	-0.054832943
237	0xbd61a6e6	-0.055090807
238	0xbd6298d0	-0.055321515
239	0xbd67e7db	-0.0566176
240	0xbd5c9b02	-0.053858764
241	0xbd5bccf2	-0.053662248
242	0xbd5bbd50	-0.05364734
243	0xbd5c0975	-0.053719956
244	0xbd5bfc5a	-0.053707458
245	0xbd5bfd61	-0.053708438
246	0xbd5bb6ce	-0.053641133
247	0xbd5ba938	-0.053628176
248	0x3f723876	0.946174
249	0xbd5cc25f	-0.053896304
250	0xbd5d96cb	-0.054098886
251	0xbd5d531d	-0.05403434
252	0xbd5d87da	-0.054084636
253	0xbd5e55d4	-0.05428107
254	0xbd5dd54c	-0.054158494
255	0xbd5dbdfb	-0.054136258

gc1.fc.weight f4 [128, 30]
0	0x3d30b242	0.04313875
1	0xbd4b4653	-0.049627613
2	0xbdd07638	-0.101787984
3	0xbd5ed581	-0.054402832
4	0x3def6486	0.11689095
5	0x3d1c7206	0.03819468
6	0x3e1f5359	0.15559138
7	0xbdcfe9a6	-0.10151987
8	0xbe3864b1	-0.1800716
9	0xbdbaafb6	-0.091155455
10	0xbd031804	-0.032005325
11	0x3d08ba81	0.03338099
12	0xbd1c3dad	-0.038144756
13	0x3e083b60	0.133039
14	0xbda81897	-0.08207815
15	0x3d5f612b	0.054536026
16	0x3e55e164	0.20886761
17	0xbdf3a31b	-0.11896344
18	0xbe117901	-0.14206316
19	0x3e2ed707	0.17074214
20	0xbd284580	-0.041081905
21	0x3da874c1	0.08225394
22	0x3e0a22f2	0.13489893
23	0xbd8465b6	-0.06464712
24	0x3d540e57	0.051771488
25	0x3d5e6edd	0.054304946
26	0x3d5da3a0	0.054111123
27	0xbb70d082	-0.0036745374
28	0xbe011769	-0.12606587
29	0xbc4b1070	-0.012394056
30	0x3e0326ec	0.12807816
31	0x3c9d8f9c	0.019233517
32	0xbe0c14d7	-0.13679825
33	0xbd05cda6	-0.032666825
34	0xbd4bf16e	-0.049790792
35	0xbe2b47be	-0.16726586
36	0x3dd6d4be	0.10489796
37	0xbddbfd7f	-0.1074171
38	0x3df33445	0.11875204
39	0x3e16ecc3	0.14738755
40	0xbe150f6a	-0.14556661
41	0xbb4f72a8	-0.0031654034
42	0xbe1786d8	-0.14797533
43	0x3c8c6e95	0.017142573
44	0xbda36b46	-0.07979445
45	0x3c912f2e	0.017722692
46	0x3e083d49	0.13304628
47	0xbc353a32	-0.011061238
48	0xbd4772a7	-0.048693325
49	0xbd342e21	-0.043989304
50	0xbd8acb12	-0.06777014
51	0x3d93dc21	0.07219721
52	0x3df8ced6	0.12148826
53	0x3d441b13	0.047877382
54	0x3d35ee3d	0.044416655
55	0xbe0abce7	-0.13548623
56	0xbc26f08b	-0.010189186
57	0x3e0afd08	0.13573086
58	0xbe28c621	-0.1648183
59	0x3e0c79b2	0.13718298
60	0x3d1319ee	0.0359134
61	0xbd533a00	-0.051568985
62	0xbd1aa6dd	-0.03775679
63	0x3e22ba58	0.15891397
64	0x3d02897f	0.031869408
65	0xbd277d57	-0.040891018
66	0xbdf00a8c	-0.11720762
67	0x3d8acde6	0.06777553
68	0xbc781d48	-0.0151437
69	0xbd9d52ca	-0.076818064
70	0x3e0b867d	0.13625522
71	0xbd7122bc	-0.058871016
72	0x3e435173	0.19074039
73	0xbd05165b	-0.032492023
74	0x3ca2d259	0.019875692
75	0xbc553129	-0.013012209
76	0x3e2eeefd	0.17083354
77	0x3e10fe62	0.1415954
78	0xbd473a57	-0.04863962
79	0x3e68afcb	0.2272331
80	0xbdcbe7bd	-0.0995631
81	0xbcb2b963	-0.021816915
82	0xbdbc651d	-0.09198973
83	0x3e063b47	0.1310855
84	0xbddbc68c	-0.10731229
85	0xbd05eeef	-0.032698568
86	0xbd8659fc	-0.06560132
87	0xbdc0e5a1	-0.09418798
88	0x3de0c44f	0.10974943
89	0x3cd3f9ad	0.02587589
90	0x3d91e2d1	0.0712334
91	0x3e3dc8a9	0.18533577
92	0x3daf8b1c	0.08571455
93	0xbd46d3ab	-0.048541706
94	0x3e2ef473	0.17085437
95	0x3bf7179f	0.0075406577
96	0x3d806b6c	0.06270489
97	0x3d8b07c2	0.06788589
98	0xbe16ad5f	-0.14714573
99	0xbe14a6bb	-0.14516728
100	0x3d11d17b	0.035600167
101	0x3e37e5dd	0.1795878
102	0xbcd43cf3	-0.02590797
103	0xbdcb9a93	-0.09941592
104	0xbdca4ace	-0.09877549
105	0x3c885635	0.01664267
106	0x3e25a755	0.16177113
107	0x3d2e8747	0.04260948
108	0xbd82adaa	-0.0638078
109	0x3d9b478d	0.075820066
110	0xbe0cc6f5	-0.13747771
111	0x3db4e419	0.08832569
112	0xbd2683a3	-0.040652882
113	0x3e364d2a	0.17802873
114	0x3d880e75	0.066433825
115	0x3d19cfab	0.037551563
116	0x3e00e990	0.12589097
117	0x3e337834	0.17526323
118	0xbe0eff0f	-0.13964485
119	0xbdf6ddcc	-0.12054023
120	0xbd1cb003	-0.038253795
121	0xbd835747	-0.06413131
122	0x3c6895be	0.014195858
123	0x3c604ef5	0.0136907
124	0x3c091384	0.008366469
125	0x3e2304e1	0.1591983
126	0xbc80d3d0	-0.015726
127	0x3d932c8a	0.071862295
128	0xbcd126a5	-0.025531122
129	0x3d945cce	0.072442636
130	0x3dd8d513	0.10587516
131	0xbd30f656	-0.043203674
132	0xbbd4a4ae	-0.006489358
133	0x3e16807f	0.14697455
134	0x3da8a73f	0.08235025
135	0x3b4b8416	0.003105407
136	0xbda7d42b	-0.08194765
137	0x3e0ea882	0.13931468
138	0xbad5fb94	-0.0016325586
139	0xbd16bc17	-0.03680047
140	0x3d039b3f	0.032130476
141	0x3e06104e	0.13092157
142	0xbccb3419	-0.024805116
143	0xbd934b25	-0.07192067
144	0x3e13d9d5	0.14438565
145	0x3b479e19	0.0030459224
146	0x3a768b44	0.00094049075
147	0xbd1a8e85	-0.037733573
148	0x3cb99823	0.022655552
149	0x3d9b7882	0.075913444
150	0xbde3f79e	-0.111312136
151	0xbd58d35d	-0.052935947
152	0xba468316	-0.0007572634
153	0x3e59d1f7	0.21271501
154	0x3e233237	0.15937124
155	0x3dd88f40	0.10574198
156	0x3ddfaf3a	0.10922094
157	0x3daeb078	0.085297525
158	0xbd687d17	-0.05675992
159	0xbd0c9883	-0.034325134
160	0x3e499d2a	0.1968886
161	0x3e00b3c0	0.12568569
162	0xbdf7751c	-0.12082884
163	0xbd2f1545	-0.042744894
164	0xbd407135	-0.046982963
165	0x3dd3e78f	0.10346901
166	0x3dc294c5	0.09501032
167	0xbdfd056a	-0.12354548
168	0x3cef87df	0.029239593
169	0x3c962d6f	0.018332211
170	0x3dda667f	0.10664081
171	0xbc7ecf0e	-0.015552295
172	0xbe5b4119	-0.21411552
173	0xbdb58072	-0.088623896
174	0xbcd6bbd9	-0.02621262
175	0x3d745152	0.059647866
176	0x3e056774	0.13027745
177	0xbd713d56	-0.058896385
178	0xbe01f47c	-0.1269092
179	0xbca7b204	-0.020470627
180	0x3e0b80b9	0.13623323
181	0x3d889fe7	0.06671124
182	0xbda77bf3	-0.08177938
183	0x3dbf9218	0.09354037
184	0xbd45183d	-0.04811882
185	0x3de10c6d	0.10988698
186	0xbc1cfe81	-0.009582163
187	0x3ce50cab	0.027960142
188	0xbdfe2321	-0.12409044
189	0xbbbcc5ae	-0.00576087
190	0xbc1b2ea3	-0.009471568
191	0xbddbe08b	-0.107361875
192	0x3dc7fb6c	0.09764752
193	0x3cfede5c	0.031111889
194	0x3e07b3aa	0.1325213
195	0x3c4fc58a	0.012681374
196	0xba3b81ee	-0.0007152845
197	0xbdc614af	-0.09671914
198	0xbe37ab64	-0.17936474
199	0x3dd98ac9	0.10622174
200	0x3c7993de	0.015233008
201	0xbc09fe75	-0.008422484
202	0x3dfca16a	0.12335475
203	0xbde9c2d2	-0.11414112
204	0x3de28edb	0.11062404
205	0x3c2d8e29	0.010592976
206	0xbad78c3d	-0.0016444993
207	0x3d60f3e3	0.05492009
208	0x3cf18b87	0.029485477
209	0x3d17119f	0.03688204
210	0xbde8ce5c	-0.11367485
211	0xbdc5fdd6	-0.09667556
212	0xbdcdda23	-0.10051372
213	0x3d304b85	0.04304077
214	0x3dd67706	0.10471921
215	0xbdda2907	-0.106523566
216	0x3d1c0d41	0.038098577
217	0xbe273879	-0.16330136
218	0xbca0536f	-0.019571034
219	0xbc1cb069	-0.009563544
220	0xbd75982d	-0.05995958
221	0x3d8a77f4	0.067611605
222	0xbd91ce90	-0.07119477
223	0xbde1e302	-0.110296264
224	0x3d848abd	0.06471775
225	0xbc9d756c	-0.01922103
226	0xbca0f8a4	-0.019649811
227	0xbd49c637	-0.049261298
228	0xbd039d2d	-0.032132316
229	0x3d525c9d	0.051357854
230	0x3e07bb48	0.13255036
231	0x3d41ae76	0.04728552
232	0x3cab0fdb	0.020881584
233	0xbe433be6	-0.19065818
234	0xbdfdab64	-0.12386206
235	0xbe12a40e	-0.14320394
236	0x3e4671fa	0.19379416
237	0x3e063372	0.13105562
238	0xbda0c014	-0.07849136
239	0x3df52956	0.11970775
240	0x3de3a434	0.11115304
241	0x3d871997	0.06596678
242	0x3d98cd35	0.07461015
243	0x3d33a0ec	0.04385464
244	0x3e0b5019	0.13604774
245	0xbe018b4c	-0.12650794
246	0x3d191266	0.03737106
247	0xbe09cdec	-0.13457459
248	0xbd0e624f	-0.034761723
249	0xbdbb6db3	-0.09151783
250	0x3d90d7b6	0.070723936
251	0xbdf27dd9	-0.1184041
252	0x3dceade2	0.10091759
253	0x3dfc824c	0.1232954
254	0x3e4affff	0.19824217
255	0x3d8da5b0	0.06916368

gc1.fc.bias f4 [128]
0	0xbde213e7	-0.11038952
1	0xbe30f11a	-0.17279473
2	0x3d9cece2	0.07662369
3	0xbd3e5d91	-0.04647595
4	0x3de6a0ce	0.1126114
5	0xbe1cc67f	-0.15310095
6	0x3dc8ea70	0.098103404
7	0x3df15c90	0.11785233
8	0x3deb4270	0.11487281
9	0xbd17e9d5	-0.037088234
10	0xbdd41737	-0.103559904
11	0xbe60e599	-0.21962585
12	0xbd4d3b11	-0.05010516
13	0xbd0f7b14	-0.035029486
14	0xbe2de043	-0.1698008
15	0x3d6e74e9	0.058216963
16	0x3c9eba40	0.01937592
17	0xbddb3c6b	-0.10704883
18	0x3c1d7194	0.009609599
19	0x3e12fb61	0.14353706
20	0xbe22f6f5	-0.15914519
21	0xbe595d32	-0.21226957
22	0xbd155153	-0.03645451
23	0xbe15dd15	-0.14635117
24	0xbda375fb	-0.07981487
25	0xbd89422d	-0.06702075
26	0xbe217b02	-0.1576958
27	0xbcf22b48	-0.029561654
28	0xbdc6e16b	-0.09710964
29	0x3d6a3bad	0.057185818
30	0x3e157e49	0.14598955
31	0x3c8476bd	0.0161699
32	0x3dc7b680	0.09751606
33	0x3dfad6e7	0.122480206
34	0x3e015cd3	0.12633066
35	0x3daa6605	0.0832024
36	0xbe30e4bd	-0.17274757
37	0xbe715c3c	-0.23570341
38	0x3e31c2a0	0.173594
39	0xbe05a829	-0.1305243
40	0x3dca8ba4	0.098899156
41	0x3d0c274f	0.034217175
42	0x3cd83acf	0.02639523
43	0x3d878d91	0.066187985
44	0xbd12b67c	-0.035818562
45	0x3df58a11	0.11989225
46	0x3c9a2d7c	0.018820517
47	0xbd32cdfa	-0.043653466
48	0xbe0f30b2	-0.1398342
49	0x3e061885	0.13095291
50	0xbd877abe	-0.06615208
51	0xbe02fdc7	-0.12792121
52	0x3cd8242f	0.026384441
53	0xbe67fc8e	-0.22654936
54	0x3cfbc009	0.030731218
55	0xbe06ea08	-0.13175213
56	0x3d3fa883	0.046791565
57	0xbe050100	-0.12988663
58	0x3db15188	0.08658129
59	0x3d6db88c	0.058037326
60	0x3db5ae68	0.08871156
61	0xbe160385	-0.1464978
62	0xbdc3750c	-0.09543809
63	0xbe18bece	-0.14916536
64	0x3dc3ef75	0.09567157
65	0xbe4ba4cb	-0.19887082
66	0x3d3530ea	0.0442361
67	0x3e0c9797	0.13729702
68	0x3c78fd2a	0.015197078
69	0xbd855ac8	-0.06511456
70	0xbe10c233	-0.14136581
71	0xbe500290	-0.20313478
72	0xbe55e17c	-0.20886797
73	0xbcf39c53	-0.029737627
74	0xbdf30f82	-0.11868192
75	0xbdfd2da0	-0.12362218
76	0x3d7f91ff	0.062395092
77	0x3dcd909c	0.10037348
78	0xbe1f8d51	-0.15581252
79	0x3dadf110	0.08493245
80	0xbe48bb6f	-0.1960275
81	0xbe064e63	-0.1311584
82	0xbdee2f6c	-0.11630139
83	0x3c06a626	0.008218324
84	0x3d38bdc0	0.045102835
85	0xbe2a6c55	-0.16642888
86	0xbd609be7	-0.05483618
87	0x3d1d3507	0.03838065
88	0x3ca9a787	0.020709766
89	0xbd92bb88	-0.07164675
90	0xbd80dbdc	-0.06291935
91	0xbe444a39	-0.19168939
92	0xbd8f11e3	-0.069858335
93	0x3d47374e	0.048636727
94	0x3d45247a	0.04813049
95	0xbe1d96cb	-0.15389554
96	0xbe3772b0	-0.17914844
97	0xbdcb195f	-0.099169485
98	0x3d48c8b8	0.049019545
99	0xbbeaeb0e	-0.007169134
100	0x3e109c7b	0.14122193
101	0x3d04b6d8	0.032400936
102	0xbde8b85f	-0.11363291
103	0xbde60477	-0.1123132
104	0xbe4c276d	-0.19936915
105	0xbd0fcd6c	-0.035108015
106	0xbe2a4f6b	-0.16631858
107	0x3b836354	0.0040096436
108	0xbe2f5754	-0.17123157
109	0x3e003af9	0.12522496
110	0x3d3210b5	0.043472964
111	0xbd98008f	-0.074219815
112	0xbe44a1ea	-0.1920239
113	0x3db4f289	0.088353224
114	0xbe228240	-0.15869999
115	0xbe48b1b0	-0.19599032
116	0xbdd9b782	-0.106307045
117	0x3ddf2918	0.1089651
118	0x3dbb2f90	0.09139931
119	0x3d1090f1	0.035294477
120	0xbe147948	-0.1449939
121	0xbd26de34	-0.040739253
122	0xbd52304c	-0.05131559
123	0xbda3428c	-0.07971677
124	0x3de7e223	0.11322429
125	0x3c182693	0.009286541
126	0xbdda8b7d	-0.106711365
127	0xbdf24027	-0.11828642

gc2.fc.weight f4 [128, 128]
0	0xbcd8d14e	-0.026466992
1	0xbd86c8b3	-0.06581249
2	0x3d504ce9	0.050854597
3	0x3c6be202	0.014397146
4	0xbd715df3	-0.058927488
5	0x3c930241	0.01794541
6	0xbd48b23e	-0.04899811
7	0xbe097f35	-0.13427432
8	0xbdbff25a	-0.09372397
9	0xbe2cd7dd	-0.1687922
10	0xbdf60a0a	-0.120136335
11	0xbc25c55b	-0.010117854
12	0xbb42185f	-0.0029616577
13	0xbd45f56b	-0.048329752
14	0xbd7cfea9	-0.0617663
15	0xbdda852c	-0.10669932
16	0x3d192299	0.03738651
17	0xbc31d3b2	-0.010853695
18	0xbd9fe730	-0.078077674
19	0xbdcd2bd9	-0.10018129
20	0xbd942fe5	-0.07235698
21	0x3d8305d3	0.06397595
22	0xbdd2621d	-0.1027262
23	0xbdce4239	-0.10071225
24	0x3e01c52c	0.12672871
25	0xbe0d75a6	-0.1381441
26	0x3c0ac6d3	0.008470255
27	0xbcaa6d93	-0.020804202
28	0xbcea40a1	-0.02859527
29	0xbe0a5744	-0.13509852
30	0xbd25755f	-0.040395137
31	0xbce4661b	-0.027880719
32	0x3d072910	0.032998145
33	0xbda1fdff	-0.07909774
34	0x3d0d70ae	0.034531288
35	0xbd09f237	-0.03367826
36	0x3c92a7b9	0.017902242
37	0x3d9feab8	0.07808441
38	0xba3d9222	-0.00072315533
39	0xbd61c85a	-0.05512271
40	0x3d4877b5	0.048942287
41	0xbdeee3e5	-0.11664561
42	0x3d072450	0.032993615
43	0x3d127d7c	0.035764202
44	0xbe047103	-0.12933736
45	0xbe36fcd4	-0.17869884
46	0x3d638a7f	0.055552002
47	0xbdf33bc7	-0.11876636
48	0x3ca6b126	0.020348143
49	0xbb1baeba	-0.0023755268
50	0x3c5170e8	0.012783267
51	0xbcd81c96	-0.026380818
52	0x3db2139b	0.08695146
53	0x3cfb55e8	0.030680612
54	0xbdf943ba	-0.12171121
55	0xbd9eb5ca	-0.07749517
56	0x3d05c2f2	0.032656617
57	0xbc232da5	-0.009959613
58	0xbdc64981	-0.096819885
59	0xbdef8924	-0.116960794
60	0x3d21927f	0.03944635
61	0xbccc5093	-0.024940765
62	0xbd616c72	-0.055035062
63	0xbddb382a	-0.10704072
64	0xbd0c1671	-0.03420109
65	0xbde542ff	-0.11194419
66	0x3d5f613a	0.05453608
67	0xbdaa0fc6	-0.0830379
68	0xbd51ec7b	-0.051250916
69	0x3c173404	0.00922871
70	0x3d92dae6	0.07170658
71	0xbdd2b395	-0.10288159
72	0xbd10e98c	-0.035378978
73	0xbc87a5bb	-0.016558519
74	0xbd36519c	-0.044511423
75	0xbd467c60	-0.048458457
76	0x3d6af9dc	0.05736719
77	0xbdc31858	-0.095261276
78	0xbd185e93	-0.037199568
79	0x3d1fd51a	0.03902159
80	0xbda58669	-0.08082277
81	0xbd8bc4a4	-0.068246156
82	0x3c86535e	0.016397174
83	0x3dc19076	0.09451382
84	0xbc0e9b5f	-0.008704036
85	0xbe0a1c88	-0.13487446
86	0xbc3db22a	-0.011578122
87	0x3da33c35	0.07970468
88	0xba8be412	-0.0010672829
89	0xbdc4b4d6	-0.09604804
90	0x3d1e795a	0.03868995
91	0x3c925f05	0.017867574
92	0x3d788b26	0.060679577
93	0xbbb9ef50	-0.00567428
94	0x3c11bc29	0.0088949585
95	0x3ab55a19	0.0013836055
96	0xbd59cb98	-0.053172678
97	0xbdae2868	-0.08503801
98	0xbdacdfb4	-0.084411055
99	0xbe2c7d6d	-0.16844721
100	0xbd835c42	-0.06414081
101	0x39d7838e	0.00041106011
102	0x3b63bef2	0.0034751263
103	0xbcc29e77	-0.023757203
104	0x3dbfb4a1	0.09360624
105	0xbcdf94a2	-0.027292553
106	0xbc688003	-0.014190677
107	0x3d109b81	0.03530455
108	0xbdc04b49	-0.093893595
109	0xbe0fd82f	-0.14047311
110	0x3e317f49	0.17333712
111	0xb9b5c0d2	-0.00034666673
112	0x3dbfc803	0.09364321
113	0xbd88eca8	-0.066857636
114	0xbccc162a	-0.024912912
115	0xbd10bec2	-0.03533817
116	0x3ce1988b	0.027538558
117	0xbd9f85c9	-0.07789189
118	0xbd84ec64	-0.064904004
119	0x3e028a36	0.12748036
120	0xbd635b73	-0.055507135
121	0xbdefeee9	-0.1171549
122	0xbcc2c6ca	-0.02377643
123	0xbe26545b	-0.16243117
124	0xbd32117e	-0.043473713
125	0x3dfc7693	0.12327304
126	0xbd837cfb	-0.064203225
127	0x3cdd8f81	0.027045967
128	0x3c47169f	0.012151389
129	0xbd84af56	-0.06478755
130	0xbd05cc22	-0.03266538
131	0xbdf54b39	-0.11977238
132	0xbe0dbb26	-0.13840923
133	0x3cbf566b	0.023356637
134	0xbe220183	-0.15820889
135	0x3da69a95	0.08134953
136	0xbdd0580d	-0.10173044
137	0xbd87bb67	-0.06627541
138	0xbd213a2d	-0.03936212
139	0xbde95ced	-0.11394677
140	0xbe072694	-0.1319831
141	0xbcc387ab	-0.023868402
142	0x3db22eb4	0.08700314
143	0x3ae7e563	0.0017692264
144	0x3d85b5ba	0.06528802
145	0x3d11b9e9	0.03557769
146	0x3c9ef8ea	0.0194058
147	0x3c639bc9	0.013892123
148	0x3c8c7218	0.017144248
149	0x3c0fdf87	0.00878132
150	0xbd8d437e	-0.06897639
151	0xbdbd1f73	-0.09234514
152	0x3d1f7c94	0.038937166
153	0x3d909831	0.07060278
154	0xbc393b1a	-0.011305595
155	0xbe2a88b0	-0.16653705
156	0x3d3bb245	0.045824308
157	0x3bfb558c	0.00767011
158	0xbca32e62	-0.019919578
159	0x3c142841	0.0090428
160	0xbe0a2732	-0.13491514
161	0x3d2d4ff2	0.04231257
162	0xbdb29286	-0.087193534
163	0x3b9619d2	0.0045807147
164	0xbda30c95	-0.07961384
165	0xbe075f71	-0.13220002
166	0xbd528805	-0.05139925
167	0x3d7f7c95	0.06237467
168	0xbe067925	-0.1313215
169	0x3d4e9514	0.05043514
170	0xbda9db32	-0.08293761
171	0x3d6911e9	0.056901846
172	0x3ca2cd36	0.019873243
173	0x3d88136c	0.066443294
174	0xbd1246e1	-0.035712127
175	0xbdaebed5	-0.08532492
176	0xbe3ecd8c	-0.18633097
177	0x3d7b78bf	0.06139445
178	0xbd860f48	-0.065458834
179	0x3df8ccd3	0.12148442
180	0x3d9ea1ff	0.07745742
181	0xbce31285	-0.027718792
182	0xbc14cf37	-0.009082607
183	0xbe062349	-0.13099398
184	0xbac4409f	-0.0014972872
185	0xbd84e25c	-0.06488487
186	0x3e3f5aad	0.18686934
187	0x3d61b739	0.055106375
188	0xbdb50b85	-0.08840088
189	0xbc8cec3a	-0.017202485
190	0xbca1872d	-0.019717777
191	0xbdff206e	-0.12457357
192	0xbe6557f0	-0.22396827
193	0xbcceb7d1	-0.025234135
194	0xbe2b2e6b	-0.16716926
195	0xbc08e979	-0.0083564455
196	0x3cf8524d	0.030312682
197	0x3ac7c12d	0.0015240066
198	0x3da59c0b	0.080864035
199	0xbd2f4c9f	-0.04279768
200	0xbd5c2cff	-0.05375385
201	0x3d821d96	0.06353299
202	0x3de70216	0.11279695
203	0xbdca5e8e	-0.09881316
204	0x3d8e1e0d	0.069393255
205	0x3d86b334	0.06577149
206	0xbc0ac3ae	-0.008469505
207	0x3db0d9e0	0.08635306
208	0x3d91be44	0.071163684
209	0xbe1071d5	-0.14105923
210	0x3ca1d529	0.019754963
211	0x3d09ca2a	0.033640064
212	0xbd8af050	-0.06784117
213	0x3d3b539d	0.045734037
214	0xbe1a84e8	-0.15089762
215	0xbca850ba	-0.020546306
216	0xbe3afc98	-0.1826042
217	0xbd5e539d	-0.05427896
218	0x3d1c990d	0.038231898
219	0x3c64771d	0.013944414
220	0x3d5a7cef	0.053341802
221	0xbd85e5c4	-0.06537965
222	0x3d4da042	0.050201662
223	0x3da663ec	0.08124527
224	0xbd24142a	-0.040058292
225	0xbd919c2f	-0.07109868
226	0x3bff4070	0.007789664
227	0xbc537a42	-0.0129075665
228	0x3d887bfa	0.06664272
229	0x3e2fa119	0.17151298
230	0xbd97d18d	-0.074130155
231	0xbdd7a77c	-0.10529992
232	0xbdbdca89	-0.09267146
233	0xbdb742fe	-0.089483246
234	0xbdf46b71	-0.11934555
235	0x3d1eea30	0.038797557
236	0xbb8322fe	-0.004001974
237	0xbdabd4c7	-0.083901934
238	0x3d84f10a	0.06491287
239	0x3e04a8c1	0.12955
240	0xbd8e353d	-0.06943748
241	0xbe0df4ce	-0.13862917
242	0xbccf70e0	-0.025322378
243	0xbdb8fea0	-0.09032941
244	0xbda10375	-0.078619875
245	0xbae16c6c	-0.001719845
246	0x3b2d139c	0.0026409393
247	0xbd8a4cbd	-0.06752918
248	0xbc4fde35	-0.012687256
249	0xbd52f5f3	-0.051504087
250	0xbde11776	-0.10990803
251	0x3d2b64cf	0.041844185
252	0x3ce92576	0.028460246
253	0x3c8c4f93	0.017127788
254	0xbd81a9ea	-0.06331237
255	0xbc71d6f0	-0.014760718

gc2.fc.bias f4 [128]
0	0xbca92482	-0.020647291
1	0x3dedecac	0.11617407
2	0xbcc47ba6	-0.023984741
3	0xbcdc1f41	-0.026870372
4	0x3ca34ba0	0.019933522
5	0xbde975cd	-0.11399422
6	0xbe299395	-0.16560204
7	0xbe5b2e15	-0.21404298
8	0x3bec1438	0.0072045587
9	0x3d81f543	0.06345608
10	0x3da6d8a5	0.081467904
11	0xbd88c4ad	-0.06678138
12	0x3b194499	0.0023386835
13	0xbc542aa7	-0.012949622
14	0x3dced7c7	0.1009975
15	0xbe4c6b2d	-0.1996276
16	0xbdc7f944	-0.097643405
17	0x3c254ba3	0.010088834
18	0xbdab3565	-0.083597936
19	0xbe265fb2	-0.16247442
20	0x3d8e39fe	0.06944655
21	0xbd820626	-0.06348829
22	0xbe00bd1c	-0.1257214
23	0x3d7ad72c	0.06124036
24	0xbe1abcef	-0.15111135
25	0xbcd470be	-0.025932666
26	0xbd950c80	-0.07277775
27	0xbd82df41	-0.063902386
28	0xbbc2a0f4	-0.0059395973
29	0xbc80290c	-0.015644573
30	0x3cb44a80	0.02200818
31	0xbdbb0712	-0.09132208
32	0xbd80d636	-0.062908575
33	0xbd28fcd0	-0.041256726
34	0x3de08b23	0.10964038
35	0x3da3db64	0.0800083
36	0x3d3dc7c0	0.046333075
37	0x3d183b6a	0.037166037
38	0x3d09123a	0.033464648
39	0x3d8c30fb	0.0684528
40	0xbc38357b	-0.0112432195
41	0xbd737989	-0.059442077
42	0x3bf4ba6a	0.0074685114
43	0xbdbe4382	-0.0929022
44	0xbd5cd73c	-0.0539162
45	0xbdb530a7	-0.0884717
46	0x3d2865c1	0.041112665
47	0xbd928524	-0.07154301
48	0xbda71c48	-0.08159691
49	0xbc7ce3ec	-0.0154352
50	0xbdcdecc9	-0.10054929
51	0xbdc357a7	-0.09538203
52	0xbdf64ae0	-0.12026
53	0xbc5cb44d	-0.013470721
54	0xbbc16c36	-0.0059027923
55	0x3d304cb3	0.043041896
56	0xbd07402d	-0.033020187
57	0x3d9e60ac	0.077332824
58	0x3ca16abf	0.01970422
59	0x3c3bb797	0.011457345
60	0x3da36e14	0.0797998
61	0x3d57aba6	0.05265393
62	0x3d03cdc6	0.032178663
63	0xbd062948	-0.032754213
64	0x3da58751	0.0808245
65	0xbe4cc85b	-0.19998305
66	0xbcfc1ac8	-0.030774489
67	0xbd6a62a2	-0.05722297
68	0xbd0976c0	-0.033560514
69	0xbdbb6778	-0.091505945
70	0xbd5e23f9	-0.054233525
71	0xbd349b4b	-0.04409341
72	0xbd958470	-0.07300651
73	0x3d5a1b28	0.053248554
74	0xbd87fa9d	-0.066395976
75	0x3cda34a6	0.026636433
76	0xbcc0b376	-0.023523074
77	0xbd7dcfc2	-0.06196571
78	0xbdf996fc	-0.12187001
79	0x3dc606f2	0.096692935
80	0xbd886506	-0.06659894
81	0xbca098b7	-0.01960407
82	0x3d3f4460	0.046696067
83	0x3be29370	0.0069145486
84	0xbbbf4a77	-0.0058377343
85	0xbd8eff03	-0.069822334
86	0x3d966666	0.0734375
87	0x3cf385c8	0.029726878
88	0x3d97d3d8	0.07413453
89	0xbdddd6c6	-0.108319804
90	0x3ac4e708	0.0015022466
91	0xbd840890	-0.06446946
92	0xbd16d67e	-0.03682565
93	0x3d460964	0.0483488
94	0x3bfc97b4	0.007708514
95	0x3aeafa4d	0.0017927379
96	0xbe25f6e7	-0.16207467
97	0x3dc04b2f	0.0938934
98	0x3daa6450	0.08319914
99	0x3cdc08db	0.026859691
100	0xbcfde2b1	-0.030991884
101	0xbd713ce3	-0.058895957
102	0x3b464473	0.0030253201
103	0xbd020b74	-0.031749204
104	0x3c9c0214	0.01904396
105	0x3da0fff2	0.07861318
106	0x3cb60cb3	0.022222852
107	0x3d8808e4	0.06642321
108	0xbd8f1de2	-0.069881216
109	0xbd875e90	-0.06609833
110	0xbe1622ac	-0.14661664
111	0xbdaf6b19	-0.08565349
112	0x3b164cd8	0.0022933986
113	0x3bc6aacb	0.0060628406
114	0xbd0601a4	-0.03271641
115	0x3c65d22f	0.014027162
116	0xbe33faa8	-0.17576087
117	0x3d6d26f9	0.057898495
118	0x3ca17261	0.01970786
119	0xbdbaa806	-0.09114079
120	0x3d2e4f38	0.042556018
121	0xbdf41436	-0.119179174
122	0x3dbf84b8	0.09351486
123	0xbe1dac4b	-0.15397756
124	0xbb363241	-0.002780095
125	0xbe650366	-0.22364578
126	0xbe2f101a	-0.17095986
127	0xbde2cd28	-0.11074287

temporal_conv.weight f4 [128, 128, 3]
0	0xbc094584	-0.00837839
1	0x3b5d0e0f	0.0033730303
2	0xb99994c3	-0.0002929327
3	0xbc94ced6	-0.018165033
4	0xbd075acf	-0.033045586
5	0x3d0bf8d7	0.03417286
6	0x3ca37a9d	0.019955928
7	0x3c22e35c	0.009941902
8	0x3ab6fd45	0.0013960978
9	0x3d9f8aa3	0.07790115
10	0x3dc84a60	0.09779811
11	0xbd28417b	-0.041078072
12	0xbc5743ae	-0.013138695
13	0xbc255068	-0.010089971
14	0x3c4c5cf8	0.012473337
15	0xbd322df8	-0.04350087
16	0xbd481cfd	-0.04885577
17	0xbc203f57	-0.009780726
18	0x3decd25f	0.115635626
19	0x3ccc21a2	0.024918381
20	0x3ca1fa26	0.0197726
21	0xbe418abc	-0.18900579
22	0xbe3dcf28	-0.18536055
23	0x3c9f98ee	0.019482102
24	0xbdb99ed0	-0.09063494
25	0xbdbcd56b	-0.09220394
26	0x3cd1d669	0.025614934
27	0xbd68cd09	-0.05683616
28	0xbd72e2af	-0.059298214
29	0x3c5d9410	0.01352407
30	0xbd2ab968	-0.041680723
31	0x3ca62e1d	0.02028566
32	0x3c159fa4	0.0091323
33	0x3d1e73d0	0.038684666
34	0x3d31ba80	0.04339075
35	0xbc0bb6ea	-0.008527497
36	0x3cfb7947	0.030697478
37	0x3d85029e	0.0649464
38	0x3a739b9a	0.0009292901
39	0x3aa2ac12	0.00124109
40	0xbd803d80	-0.0626173
41	0xbc7c7f7c	-0.015411254
42	0xbdbc775c	-0.092024535
43	0xbdafddd5	-0.08587233
44	0x3d2a8708	0.041632682
45	0x3c3a12e5	0.011357044
46	0xbcdc5cda	-0.026899744
47	0xbd0c70df	-0.03428733
48	0x3c01f6f5	0.007932414
49	0x3cdda360	0.027055442
50	0x3c7d2246	0.015450066
51	0x3ce04ff6	0.027381878
52	0xbc0cf9f6	-0.008604517
53	0x3b7ad8be	0.003827616
54	0x3d42336c	0.04741232
55	0x3bf1def7	0.007381316
56	0xbcc55c2c	-0.024091803
57	0xbd7e5f1b	-0.06210242
58	0x3c8e5149	0.017372744
59	0x3cf2a5c9	0.029620068
60	0x3cb8c6ce	0.022555735
61	0xbd45de42	-0.048307665
62	0x3cdb2e4c	0.026755475
63	0xbd6c7de2	-0.05773724
64	0xbd99cbe0	-0.07509589
65	0xbcd671ca	-0.026177306
66	0xbddb88a7	-0.10719424
67	0xbdbf3ec4	-0.093381435
68	0xbd2a1a02	-0.04152871
69	0xbe031465	-0.12800749
70	0xbdbb4f63	-0.09146001
71	0x3d412afc	0.047160134
72	0x3dba554d	0.09098301
73	0x3c931a8d	0.017956996
74	0x3beeaed4	0.0072840247
75	0xbcbb7161	-0.022881212
76	0xbd205e60	-0.039152503
77	0x3c2bc177	0.010483137
78	0xbd659446	-0.056049608
79	0xbd23652a	-0.0398914
80	0xbca0a0c9	-0.019607918
81	0xbd3e6372	-0.046481557
82	0xbba1218a	-0.0049173282
83	0xbced2b95	-0.028951446
84	0xbd9b4cb8	-0.07582992
85	0xbdb4141c	-0.08792898
86	0x3cc34f7f	0.023841618
87	0x3d4a919e	0.049455278
88	0x3ce79fab	0.028274378
89	0xbd2b80d6	-0.041870914
90	0xbd5d5895	-0.054039557
91	0xbb83234c	-0.0040020104
92	0x3d335837	0.0437853
93	0xbdcbf7a8	-0.09959346
94	0xbcde4560	-0.02713269
95	0xbc8624b0	-0.016374916
96	0x3cdf12c7	0.027230633
97	0x3a4083ff	0.00073438877
98	0xbc7a35c0	-0.015271604
99	0xbc247c12	-0.010039346
100	0x3b81c87c	0.003960667
101	0xbb742f7e	-0.0037259753
102	0x3ca2d831	0.019878479
103	0xbbc8c4cf	-0.006126977
104	0x3d1879df	0.0372256
105	0x3d8c36d4	0.06846395
106	0xb8c0bcf6	-9.19047e-05
107	0xbd25f421	-0.040516023
108	0x3d2bb802	0.04192353
109	0xbcb58492	-0.022157941
110	0x3cd884aa	0.026430447
111	0x3c53526c	0.012898069
112	0xbc0f725d	-0.008755294
113	0xbd4f864a	-0.050665177
114	0x3d51a51f	0.051182862
115	0xbcdd9771	-0.027049752
116	0xbcee1605	-0.029063234
117	0xbdfe19db	-0.12407275
118	0xbd37ef87	-0.044906165
119	0xbb8be3d9	-0.004269105
120	0xbd49554c	-0.04915361
121	0x3c5f5c07	0.013632781
122	0xbc5336ee	-0.012891514
123	0x3e2efb84	0.17088133
124	0x3e14d54d	0.14534493
125	0xbcd2acff	-0.025717257
126	0x3dda8852	0.10670532
127	0x3e11a533	0.14223175
128	0xbcc5cc91	-0.024145396
129	0x3d8ae112	0.0678121
130	0x3d83368d	0.06406889
131	0xbce1100c	-0.027473472
132	0x3de81378	0.11331838
133	0x3dd1f674	0.10252085
134	0xbc9d3ebd	-0.019194955
135	0x3d2b9d5e	0.041898124
136	0x3bd1ecc0	0.0064063966
137	0xbc9f0256	-0.019410294
138	0x3d034794	0.032050684
139	0x3cfcc1bc	0.030854098
140	0xbcf26b17	-0.02959208
141	0x3e54ac7d	0.20768924
142	0x3e15b328	0.14619124
143	0x3d1fa025	0.038971085
144	0xbd2e0a11	-0.04249007
145	0x3d4bc489	0.049747977
146	0xbd1e7fe0	-0.03869617
147	0x3d83e5de	0.06440328
148	0x3daf4f03	0.08559992
149	0x3ca5dfb5	0.020248273
150	0x3c6c1aac	0.014410656
151	0x3ae836f5	0.0017716574
152	0x3d2d07b3	0.04224367
153	0xbcc71d16	-0.024305861
154	0x3cdfd3a2	0.027322594
155	0x3d3dc759	0.04633269
156	0x3cdfc8d9	0.027317451
157	0xbc999ea7	-0.01875241
158	0x3bd22f62	0.00641434
159	0xbd5eb3b3	-0.054370593
160	0xbdd4ca5d	-0.1039016
161	0x3c722346	0.014778918
162	0xbdec910b	-0.11551102
163	0xbe1e40c4	-0.15454394
164	0x3ccef908	0.025265232
165	0xbd51d632	-0.051229663
166	0x3ca9b18b	0.020714542
167	0x3c4ab048	0.01237113
168	0xbc05da6f	-0.008169754
169	0xbd5d1a5a	-0.05398021
170	0xbd1aebaa	-0.037822403
171	0xbdf8fc09	-0.12157447
172	0xbdba81bd	-0.09106777
173	0xbcd149aa	-0.025547821
174	0x3cddd274	0.027077891
175	0xbcb7ad56	-0.02242152
176	0xbcb30a1a	-0.021855403
177	0xbbf5786f	-0.0074911634
178	0xbcb3d7c9	-0.02195348
179	0x3c90f3aa	0.017694313
180	0xbba58245	-0.0050509297
181	0x3c90af26	0.017661642
182	0xbd21a4e9	-0.03946391
183	0xbcbd191e	-0.023083266
184	0x3d038d64	0.032117262
185	0xbd1897c5	-0.037254114
186	0xbdd9e4b4	-0.10639325
187	0xbdb5cfe7	-0.08877545
188	0xbc806651	-0.015673788
189	0xbd7681da	-0.06018243
190	0xbd8ca09e	-0.06866573
191	0xbcd8ba6d	-0.026456082
192	0xbdc1e39d	-0.09467242
193	0x3b9e39b4	0.004828656
194	0x3c5e0d49	0.013552972
195	0x3c8c336d	0.017114365
196	0x3ce6a015	0.028152505
197	0x3c19d13c	0.009388264
198	0xbdc2317e	-0.09482096
199	0xbdc74f09	-0.09731872
200	0xbd251163	-0.040299784
201	0x3dbab040	0.09115648
202	0x3e11ec46	0.14250287
203	0x3c881967	0.016613675
204	0xbda2ab5b	-0.0794284
205	0xbd350c90	-0.044201434
206	0x3c82a14d	0.015946055
207	0xbd3c0d28	-0.045910984
208	0xbd14d805	-0.036338825
209	0x3d44322d	0.047899414
210	0x3d73c1ff	0.05951118
211	0xbd147333	-0.036242675
212	0xbcd0d3ed	-0.02549168
213	0x3bc9bd20	0.0061565787
214	0xbd3b51e7	-0.045732405
215	0x3cef0b46	0.02918018
216	0xbd81d467	-0.06339341
217	0xbb2af860	-0.0026087984
218	0x3cd1a4c2	0.025591258
219	0xbc364fc8	-0.01112742
220	0x3c99bad7	0.01876585
221	0x3d062bd0	0.032756627
222	0xbda61012	-0.08108534
223	0xbd8d17eb	-0.068893276
224	0xbd090ed6	-0.033461414
225	0xba0afa3c	-0.000530157
226	0xbc66f5bb	-0.014096673
227	0xbcf68701	-0.030093672
228	0xbd8eb980	-0.06968975
229	0xbd9b0feb	-0.075713955
230	0x3d2d30a9	0.042282734
231	0x3cb7ddda	0.022444654
232	0x3d806af5	0.062704004
233	0x3d0b101a	0.033950903
234	0xbd836f98	-0.06417769
235	0xbdf6812d	-0.12036357
236	0x3ced879e	0.028995331
237	0x3b98cc1d	0.004663004
238	0xbb4c2dd9	-0.0031155257
239	0xba9cca5c	-0.0011962163
240	0xbd2e3a4d	-0.04253607
241	0xbd63a8c7	-0.05558088
242	0x3bed4d2f	0.007241867
243	0x3d937a1a	0.072010234
244	0x3d8885f2	0.06666173
245	0x3d319bf7	0.04336163
246	0x3d53c278	0.05169913
247	0x3de65cff	0.11248206
248	0x3d34e3e0	0.04416263
249	0xbd98ad1a	-0.074548915
250	0xbda5ff0a	-0.081052855
251	0x3bb113e4	0.0054039825
252	0xbbbb81ff	-0.005722284
253	0x3cae3b0f	0.021268396
254	0xbd1e52f6	-0.038653336
255	0x3d4aa38f	0.049472388

temporal_conv.bias f4 [128]
0	0x3dfd8187	0.12378221
1	0x3d1052ba	0.035235144
2	0x3d753048	0.059860498
3	0xbdb7e6c2	-0.089795604
4	0x3d2c9eb6	0.042143546
5	0x3da47147	0.080294184
6	0xbd34a589	-0.04410318
7	0xbdb7052b	-0.089365326
8	0xbda6f35c	-0.08151886
9	0x3d08f31f	0.033434983
10	0x3e284354	0.16431934
11	0xbddafc97	-0.10692709
12	0x3d45a00a	0.04824833
13	0xbd0566dd	-0.0325688
14	0x3be1b055	0.0068874755
15	0xbca56bc2	-0.020192984
16	0x3deb75a9	0.11497051
17	0x3e00f892	0.12594822
18	0xbc963c56	-0.018339317
19	0xbd49c388	-0.04925874
20	0xbdcb1dbb	-0.0991778
21	0x3d767499	0.06016979
22	0xbe3ed9d2	-0.1863778
23	0xbc615c7c	-0.01375496
24	0xbd0f1729	-0.034934197
25	0xbd900036	-0.0703129
26	0xbd244377	-0.040103402
27	0xbd9e656e	-0.0773419
28	0x3dab3bac	0.08360991
29	0x3dd80519	0.10547847
30	0x3dfcd1e6	0.123447224
31	0x3e018fe9	0.12652554
32	0x3d99c78d	0.075087644
33	0xbce5163a	-0.0279647
34	0xbc488be8	-0.0122403875
35	0xbd01c202	-0.03167916
36	0x3da23b04	0.079214126
37	0xbc6605de	-0.014039485
38	0x3dfdb6fe	0.123884186
39	0xbd0ed48e	-0.034870677
40	0xbdaad438	-0.08341259
41	0xbc497fdc	-0.01229855
42	0xbdd040a4	-0.10168579
43	0xbda94c05	-0.08266453
44	0x3d8544fa	0.06507297
45	0x3d98ee7b	0.074673615
46	0x3d6d8120	0.05798447
47	0x3d55ec0a	0.052227058
48	0xbd3f5579	-0.046712372
49	0xbdcd6ea6	-0.1003087
50	0xbcee0bf6	-0.029058438
51	0xbd699e17	-0.05703553
52	0x3de970fc	0.11398503
53	0x3d1af023	0.03782667
54	0xbd25dc93	-0.04049356
55	0x3e1e4c86	0.15458879
56	0xbde469f5	-0.11153022
57	0x3cbd5b63	0.023114866
58	0xbbd67fdd	-0.006546004
59	0x3dc3029c	0.09521982
60	0xbd2eadc3	-0.04264618
61	0xbcd1d71e	-0.025615271
62	0xbb180e88	-0.002320202
63	0x3cf89bc1	0.030347707
64	0xbdc24b4b	-0.09487017
65	0xbce75097	-0.02823667
66	0x3cc67073	0.024223542
67	0x3d4eebb3	0.05051775
68	0xbc8d6209	-0.01725866
69	0x3d1ead45	0.03873946
70	0xbd996eb0	-0.07491815
71	0xbd24e5f8	-0.040258378
72	0x3d1edef3	0.03878684
73	0xbd944b3e	-0.07240914
74	0x3dabf6f6	0.083967134
75	0x3d9c266a	0.076245144
76	0x3e0b0a11	0.13578059
77	0xbd8c9fc3	-0.0686641
78	0x3ce472c0	0.027886748
79	0x3d7c8f8a	0.061660327
80	0xbdaac850	-0.08338988
81	0x3d243c75	0.04009672
82	0xbddd7510	-0.108133435
83	0xbda3f729	-0.080061264
84	0xbb5ec0a4	-0.0033989334
85	0x3d943b2f	0.07237851
86	0xbbef43a1	-0.007301763
87	0x3caba6f0	0.020953625
88	0x3d87ed6a	0.0663708
89	0xbc1081a6	-0.008819973
90	0xbddf1212	-0.108921185
91	0x3dec0df6	0.115261
92	0x3daaf192	0.08346857
93	0x3da40707	0.08009153
94	0xbd61ff0b	-0.05517487
95	0x3cd1033b	0.025514236
96	0x3d99f986	0.07518296
97	0x3dd6e831	0.10493506
98	0xbd5656b5	-0.052328784
99	0x3d9af4f8	0.07566255
100	0x3cfc8324	0.030824251
101	0xbd4aed61	-0.04954279
102	0x3db730f8	0.08944887
103	0x3d48469f	0.048895475
104	0x3bc9cfb4	0.0061587933
105	0x3b085ad0	0.0020806082
106	0xbd8d2282	-0.068913475
107	0x3e0733b3	0.13203315
108	0xbcbc8446	-0.023012292
109	0x3da329b8	0.079669416
110	0x3d933699	0.07188148
111	0xbdcb7aad	-0.09935508
112	0x3cf57809	0.029964464
113	0x3c8686fe	0.016421791
114	0xbde2ea01	-0.11079789
115	0xbd74e0b8	-0.05978462
116	0xbde00c2b	-0.10939821
117	0xbc8f83a7	-0.017518831
118	0xbdb2da82	-0.08733083
119	0x3ce6ceda	0.028174806
120	0x3df67af0	0.12035167
121	0x3d3ecfeb	0.046585005
122	0x3d9848d4	0.07435766
123	0x3de2a910	0.11067402
124	0x3da4afa7	0.080413155
125	0xbd8b6313	-0.06806006
126	0xbddae778	-0.106886804
127	0x3d8e072e	0.06934963

fc.weight f4 [30, 128]
0	0x3dfdcda5	0.12392739
1	0xbb18b158	-0.0023299064
2	0xbb9ebf48	-0.00484458
3	0x3d8a32e3	0.06747987
4	0xbc10964a	-0.008824894
5	0xbd9c85d1	-0.07642711
6	0x3da90c5e	0.08254312
7	0x3d85b40c	0.06528482
8	0xbde38dee	-0.11111055
9	0x3c80f191	0.015740188
10	0xbdd86969	-0.105669804
11	0xbd016164	-0.03158702
12	0x3dbcc694	0.09217563
13	0x3de5fd2b	0.112299286
14	0x3e0e5737	0.13900457
15	0x3e16d0b3	0.1472805
16	0x3c324049	0.010879585
17	0x3de967ea	0.11396773
18	0x3e09476f	0.13406156
19	0xbc2b5038	-0.010456137
20	0xbd811276	-0.06302349
21	0x3e031a69	0.12803043
22	0xbe22e621	-0.159081
23	0xbd3b18d5	-0.04567798
24	0x3d28c854	0.041206673
25	0xbd8b620c	-0.0680581
26	0x3cf9193d	0.030407542
27	0xbd887882	-0.0666361
28	0xbcbad194	-0.022805013
29	0xbd580736	-0.052741252
30	0xbdc7dc24	-0.09758785
31	0xbd41ea67	-0.047342684
32	0xbc3d451e	-0.011552123
33	0x3d3ef099	0.04661617
34	0x3d97577c	0.07389733
35	0xbd80d2ea	-0.06290229
36	0xbcca6f10	-0.024711162
37	0x3dd5040e	0.10401164
38	0x3da8fdbc	0.08251521
39	0x3dd8ad7c	0.105799645
40	0x3d816ed5	0.06319968
41	0x3e29e1ee	0.16590092
42	0xbd038685	-0.03211071
43	0xba1272b4	-0.000558655
44	0xbdcc6175	-0.09979526
45	0xbc23d3a5	-0.00999919
46	0xbd9b4042	-0.075806156
47	0x3cfa6779	0.030566918
48	0x3d96bbf2	0.073600665
49	0x3df030a8	0.117280304
50	0xbc10a318	-0.008827947
51	0x3ccfa0a2	0.02534515
52	0x3d7c81fe	0.061647408
53	0x3dbae524	0.09125736
54	0x3d6e4605	0.058172245
55	0x3cd8fa3a	0.026486505
56	0x3e0ebf31	0.13940121
57	0x3a241eec	0.0006260711
58	0x3d8619ff	0.06547927
59	0x3c119814	0.008886356
60	0xbd0f301c	-0.03495799
61	0xbd34aafe	-0.044108383
62	0xbc609101	-0.013706447
63	0x3dcd86fb	0.10035511
64	0xbdb513c2	-0.08841659
65	0x3d6b2132	0.057404704
66	0xbc000f24	-0.00781611
67	0xbd3f4e68	-0.046705633
68	0x3db52c00	0.08846283
69	0x3d8be495	0.06830708
70	0xbb3699ce	-0.002786267
71	0x3e05ac3d	0.13053985
72	0x3db7ffbc	0.08984324
73	0x3b1b98ce	0.0023742202
74	0x3bc297b2	0.0059384936
75	0xbc8b808a	-0.017029066
76	0xbdddc048	-0.1082769
77	0x3c5dc629	0.013536015
78	0xbda8b085	-0.082367934
79	0xbd1b8b18	-0.037974447
80	0xbde22596	-0.11042325
81	0x3cc4b09e	0.024009999
82	0xbe831077	-0.255985
83	0xbdd6fbf5	-0.10497276
84	0xbd405d0b	-0.046963733
85	0xbe0bcbcf	-0.13651966
86	0x3cf7e1d1	0.030259045
87	0xbbb15003	-0.0054111495
88	0x3d7f4a7e	0.0623269
89	0x3adde328	0.001692866
90	0xbc2a992c	-0.010412496
91	0x3d9c161d	0.07621405
92	0x3de2adc4	0.110682994
93	0x3e36dc28	0.1785742
94	0x3db2a166	0.087221906
95	0xbda9bd78	-0.082880914
96	0x3cfee233	0.03111372
97	0xbd063782	-0.03276778
98	0xbdd90223	-0.10596111
99	0xbd175bff	-0.03695297
100	0xbdb39ea7	-0.08770495
101	0xba8e1557	-0.00108401
102	0x3c876db2	0.016531799
103	0xbd21c1e5	-0.039491553
104	0xbd54fad8	-0.051997036
105	0x3d5a84fe	0.053349487
106	0x3c91daff	0.01780462
107	0xbde4a9ba	-0.11165185
108	0xbe01d9ca	-0.12680736
109	0xbba8721b	-0.0051405556
110	0xbcdd5016	-0.027015727
111	0x3d3bc207	0.045839336
112	0xbd33c354	-0.04388745
113	0xbda2b17f	-0.07944011
114	0x3d1af0ca	0.03782729
115	0xbd0b9c1e	-0.03408443
116	0x3d6f3491	0.05839974
117	0x3d5842ec	0.052798197
118	0x3d881f98	0.06646651
119	0xbdb69d67	-0.08916741
120	0x3e47eb84	0.19523436
121	0xbdee00fe	-0.11621283
122	0xbc3ebc28	-0.01164154
123	0x3ce89e2d	0.028395737
124	0xbcc48908	-0.023991123
125	0xbd12b5a1	-0.035817746
126	0xbd241845	-0.040062208
127	0x3d17543d	0.03694557
128	0xbc7523ed	-0.014962179
129	0xbd57df97	-0.052703466
130	0x3d7350a5	0.05940308
131	0xbbf06aac	-0.007336935
132	0x3d6f5248	0.05842808
133	0x3d878f58	0.066191375
134	0x3ae75e38	0.0017651981
135	0xbd2df711	-0.04247195
136	0xbd0815ed	-0.033224035
137	0x3c49ef39	0.0123251015
138	0x3e0c0e80	0.13677406
139	0x3d43dbc1	0.047816996
140	0x3c0ad9e9	0.008474805
141	0xbc582c35	-0.0131941335
142	0x3c9b824e	0.018983033
143	0x39e2512c	0.00043166557
144	0xbdc56822	-0.096390024
145	0xbbcd389d	-0.0062628523
146	0xbdf16904	-0.11787608
147	0xbd6458ef	-0.055748876
148	0xbdaf9711	-0.085737355
149	0x3cfc4c02	0.030797962
150	0x3d265541	0.04060865
151	0xbd3add4f	-0.045621213
152	0xbdd6fec3	-0.10497811
153	0xbce0a34c	-0.027421616
154	0x3d14a1e6	0.03628721
155	0xbdbe440b	-0.09290322
156	0x3dd255e3	0.10270288
157	0x3d828867	0.06373673
158	0x3cead1b4	0.028664447
159	0x3d6093a7	0.054828312
160	0xbc4df15e	-0.012569753
161	0x3d9632b9	0.07333893
162	0x3d52290c	0.051308677
163	0xbba21040	-0.004945785
164	0xbdbf9155	-0.09353892
165	0x3b1d716b	0.0024023901
166	0x3e163a41	0.1467066
167	0x3b81b1bb	0.0039579547
168	0x3b1fdefb	0.0024394381
169	0xbcd19d59	-0.025587725
170	0xbdb1bdd2	-0.086787835
171	0xbcb242ba	-0.021760333
172	0xbd5202ff	-0.05127239
173	0x3d112c69	0.035442743
174	0x3e121804	0.14266974
175	0xbd5030f4	-0.050827935
176	0x3cb1f30b	0.021722337
177	0xbd9f9d78	-0.07793707
178	0x3c510043	0.01275641
179	0xbd19071b	-0.037360292
180	0x3de2b88c	0.11070356
181	0xbdcfd136	-0.10147326
182	0x3d68c624	0.056829587
183	0x3c9e22ea	0.019303758
184	0x3dc826f9	0.097730584
185	0xbd0d2fa7	-0.034469273
186	0x3dad0b2a	0.08449395
187	0x3b1b8358	0.002372941
188	0x3d957dd1	0.07299388
189	0xbd5c8100	-0.05383396
190	0x3c9ce54b	0.019152304
191	0xbd0699fc	-0.032861695
192	0xbdcd72b4	-0.100316435
193	0x3c1bdd6b	0.009513239
194	0xbdc1536e	-0.09439741
195	0xbd97052d	-0.07374034
196	0x3cca532b	0.02469786
197	0x3d26ea2c	0.040750667
198	0x3ca404c9	0.020021813
199	0xbc126e01	-0.00893736
200	0xbc42bfaf	-0.011886521
201	0xbdfad94e	-0.12248479
202	0xbd5d573d	-0.054038275
203	0x3c490b4d	0.012270761
204	0xbd02d704	-0.031943336
205	0x3d9b2b84	0.07576659
206	0xbcbab09e	-0.022789296
207	0x3d9e98ae	0.07743965
208	0xbd93caf7	-0.07216447
209	0xbdb25cfd	-0.08709142
210	0x3d74ba46	0.059747957
211	0x3d363989	0.044488464
212	0xbcecd470	-0.028909892
213	0x3d76da5c	0.060266837
214	0xbd1d510e	-0.038407378
215	0xbb9aed6e	-0.004728011
216	0x3d49ec94	0.049297884
217	0xbd3843b4	-0.04498644
218	0x3bac0bf0	0.0052504465
219	0x3d4aa5da	0.049474575
220	0x3c236422	0.009972604
221	0xbd954f7a	-0.072905496
222	0xbd182e5a	-0.03715358
223	0x3df607b1	0.12013186
224	0xbdb50c3d	-0.08840225
225	0xbd46e9ce	-0.048562817
226	0x3c28fe20	0.010314494
227	0x3d415dca	0.047208585
228	0xba36ba51	-0.00069705123
229	0xbd44ca0b	-0.048044246
230	0x3d33ccb4	0.043896392
231	0xbdc3b8d9	-0.09556741
232	0xbdba1464	-0.090859205
233	0x3c64a274	0.0139547475
234	0x3d4b630f	0.049655017
235	0xbd98a356	-0.07453029
236	0x3dc9694c	0.09834537
237	0x3db2e109	0.08734328
238	0xbd93fc86	-0.072258994
239	0xbd3d517b	-0.046220284
240	0x3c7e22a6	0.0155111905
241	0x3dedc8cd	0.11610565
242	0xbd8afe04	-0.06786731
243	0x3d7c81d7	0.061647262
244	0xbd275d32	-0.040860362
245	0x3d8ed849	0.06974847
246	0x3e0740e3	0.13208346
247	0x3d0f21aa	0.034944214
248	0x3c658b00	0.014010191
249	0x3c74092c	0.014894765
250	0xbdc6529b	-0.096837245
251	0xbd686b75	-0.056743104
252	0xbd2591db	-0.0404223
253	0x3d0db9bb	0.034600955
254	0xbda9dfba	-0.082946256
255	0x3d552c12	0.05204398

fc.bias f4 [30]
0	0xbde154be	-0.110024914
1	0xbc4c72b8	-0.012478523
2	0x3ce73048	0.028221264
3	0x3d06d892	0.03292138
4	0x3ca79d09	0.020460622
5	0x3dc280e1	0.09497238
6	0x3c69c018	0.01426699
7	0x3e26471e	0.16238067
8	0xbd21deb3	-0.039519023
9	0x3d3e15c4	0.046407476
10	0x3d35b3d3	0.044360947
11	0x3d391e31	0.04519481
12	0xbcca724c	-0.024712704
13	0xbc0358c5	-0.00801677
14	0x3d653a0a	0.055963553
15	0xbd28d388	-0.041217357
16	0x3cee0c36	0.029058557
17	0x3d75805f	0.059936877
18	0xbdb9a0e8	-0.090638936
19	0xbc31c602	-0.010850431
20	0xbd920da6	-0.071315095
21	0xbdc04c79	-0.09389586
22	0x3bb362c3	0.00547442
23	0x3d0fe820	0.03513348
24	0x3d5c6ef8	0.053816766
25	0x3c02ea26	0.007990396
26	0xbd382efe	-0.04496669
27	0x3ba872d1	0.0051406403
28	0x3c6947d5	0.0142383175
29	0xbdfe17ac	-0.12406859
