situation_analysis/best_models/model_window30_horizon30.pth (torch, 905682 bytes, 27 tensors)

adapt_adj f4 [30, 30]
0	0x3f6d10d9	0.9260383
1	0xbd980334	-0.07422486
2	0xbd96a974	-0.07356539
3	0xbd95fa4c	-0.07323131
4	0xbd94deee	-0.07269083
5	0xbd93bc9d	-0.072137095
6	0xbd935c31	-0.071953185
7	0xbd919ad1	-0.07109607
8	0xbd8fc91d	-0.07020781
9	0xbd8f8b8a	-0.07009037
10	0xbd8e88ee	-0.06959711
11	0xbd8f9f31	-0.07012785
12	0xbd8fe2db	-0.07025691
13	0xbd8f520c	-0.06998071
14	0xbd8ee095	-0.069764294
15	0xbd8ede58	-0.069760025
16	0xbd8e3ab7	-0.06944793
17	0xbd8e27db	-0.069411956
18	0xbd8e8234	-0.06958428
19	0xbd8dff8f	-0.069335096
20	0xbd8d0acd	-0.06886826
21	0xbd8bbbb7	-0.06822913
22	0xbd8a67a1	-0.06758047
23	0xbd89d087	-0.067292266
24	0xbd891e2a	-0.066952065
25	0xbd8775e3	-0.06614282
26	0xbd8629d5	-0.065509476
27	0xbd84029d	-0.06445811
28	0xbd81bf82	-0.06335355
29	0xbd83cd43	-0.06435635
30	0xbd9637bb	-0.073348485
31	0x3f6d24aa	0.9263407
32	0xbd959314	-0.073034436
33	0xbd94eff3	-0.07272329
34	0xbd93d1e1	-0.072177656
35	0xbd92b200	-0.07162857
36	0xbd9261b9	-0.07147545
37	0xbd90bb12	-0.07066931
38	0xbd8f04c1	-0.069833286
39	0xbd8ec5ea	-0.06971343
40	0xbd8dca16	-0.069233105
41	0xbd8ec94b	-0.06971987
42	0xbd8f1965	-0.069872655
43	0xbd8e9281	-0.06961537
44	0xbd8e24e1	-0.06940628
45	0xbd8e267c	-0.06940934
46	0xbd8d8dd1	-0.06911815
47	0xbd8d7ef2	-0.069089785
48	0xbd8dd740	-0.06925821
49	0xbd8d5833	-0.06901588
50	0xbd8c61b3	-0.06854572
51	0xbd8b197a	-0.06791969
52	0xbd89e312	-0.06732763
53	0xbd895f44	-0.067076236
54	0xbd88a4d4	-0.066720635
55	0xbd8708bd	-0.065934636
56	0xbd85c9b2	-0.06532611
57	0xbd83bfac	-0.06433043
58	0xbd819b9d	-0.06328509
59	0xbd839b9e	-0.06426166
60	0xbd979abb	-0.07402559
61	0xbd98296d	-0.07429776
62	0x3f6d2319	0.9263168
63	0xbd965467	-0.07340317
64	0xbd9529ef	-0.07283389
65	0xbd9407dc	-0.072280616
66	0xbd93aea9	-0.07211048
67	0xbd920dac	-0.07131514
68	0xbd903cf4	-0.07042876
69	0xbd90043d	-0.070320584
70	0xbd8eff91	-0.06982339
71	0xbd8feb6d	-0.07027326
72	0xbd902b34	-0.0703949
73	0xbd8faa7e	-0.07014941
74	0xbd8f421e	-0.06995033
75	0xbd8f4748	-0.06996018
76	0xbd8ea99f	-0.069659464
77	0xbd8e839f	-0.069586985
78	0xbd8ed925	-0.06975011
79	0xbd8e542e	-0.0694965
80	0xbd8d6884	-0.069047004
81	0xbd8c15bb	-0.06840082
82	0xbd8acd55	-0.06777445
83	0xbd8a47ea	-0.06751998
84	0xbd89951f	-0.06717896
85	0xbd87e7c8	-0.06636006
86	0xbd869ccf	-0.065728776
87	0xbd847f92	-0.064696446
88	0xbd823eb5	-0.06359617
89	0xbd844a15	-0.064594425
90	0xbd9745ee	-0.07386385
91	0xbd97eddf	-0.07418417
92	0xbd96bdac	-0.07360396
93	0x3f6d399d	0.92666036
94	0xbd95006f	-0.07275473
95	0xbd93cbd5	-0.07216612
96	0xbd9382c7	-0.07202678
97	0xbd91c8ad	-0.07118354
98	0xbd8ff74d	-0.07029591
99	0xbd8fb5f4	-0.07017127
100	0xbd8e9dea	-0.069637135
101	0xbd8f942b	-0.07010683
102	0xbd8fe69e	-0.070264086
103	0xbd8f6b34	-0.07002869
104	0xbd8f00a7	-0.06982546
105	0xbd8f0b33	-0.06984558
106	0xbd8e53e8	-0.069495976
107	0xbd8e33cc	-0.06943473
108	0xbd8e92c6	-0.069615886
109	0xbd8e0519	-0.06934566
110	0xbd8d11ec	-0.06888184
111	0xbd8bd474	-0.068276316
112	0xbd8a8880	-0.067643166
113	0xbd89f19b	-0.06735536
114	0xbd894734	-0.06703034
115	0xbd87941d	-0.06620047
116	0xbd863af2	-0.06554212
117	0xbd840542	-0.06446315
118	0xbd81a561	-0.06330372
119	0xbd83b735	-0.06431428
120	0xbd968bbd	-0.07350872
121	0xbd972cd0	-0.07381594
122	0xbd95ec16	-0.073204204
123	0xbd9561a3	-0.07294013
124	0x3f6d7662	0.9275876
125	0xbd9316f2	-0.07182111
126	0xbd92ae60	-0.07162166
127	0xbd910203	-0.07080462
128	0xbd8f145b	-0.069863044
129	0xbd8ed75e	-0.06974672
130	0xbd8dc66a	-0.0692261
131	0xbd8ecfd8	-0.06973237
132	0xbd8f10b1	-0.069856055
133	0xbd8e85d1	-0.06959117
134	0xbd8e217a	-0.06939979
135	0xbd8e3194	-0.0694305
136	0xbd8d8c4d	-0.06911526
137	0xbd8d6b9f	-0.06905293
138	0xbd8db6ac	-0.069196075
139	0xbd8d26c1	-0.06892157
140	0xbd8c1b0d	-0.06841097
141	0xbd8ad9b6	-0.06779806
142	0xbd89957a	-0.067179635
143	0xbd8909d2	-0.06691326
144	0xbd884c41	-0.06655169
145	0xbd86a860	-0.06575084
146	0xbd854e6d	-0.06509099
147	0xbd830e8f	-0.06399261
148	0xbd80bb9c	-0.06285784
149	0xbd82bbf5	-0.06383506
150	0xbd980a85	-0.074238814
151	0xbd98b335	-0.07456056
152	0xbd975ea7	-0.073911004
153	0xbd96e1d2	-0.073672906
154	0xbd95bbae	-0.07311188
155	0x3f6d6b0e	0.9274148
156	0xbd94408c	-0.07238874
157	0xbd92534e	-0.07144795
158	0xbd906a62	-0.07051541
159	0xbd9017f8	-0.07035822
160	0xbd8ef3b8	-0.069800794
161	0xbd8ff6f5	-0.07029525
162	0xbd9035c3	-0.07041504
163	0xbd8fab52	-0.07015099
164	0xbd8f42be	-0.06995152
165	0xbd8f4be2	-0.069968954
166	0xbd8eae86	-0.069668815
167	0xbd8e9cbc	-0.069634885
168	0xbd8ee01c	-0.06976339
169	0xbd8e3ed9	-0.06945581
170	0xbd8d2b94	-0.068930775
171	0xbd8bb7ce	-0.06822167
172	0xbd8a6ff1	-0.067596324
173	0xbd89e991	-0.067340024
174	0xbd8942a6	-0.06702165
175	0xbd877b6f	-0.0661534
176	0xbd86114f	-0.0654627
177	0xbd83cac4	-0.06435159
178	0xbd8151d0	-0.063144326
179	0xbd836823	-0.06416347
180	0xbd96bd85	-0.07360367
181	0xbd976741	-0.07392741
182	0xbd962605	-0.073314704
183	0xbd95b59f	-0.07310032
184	0xbd948bfd	-0.07253263
185	0xbd937f0c	-0.07201967
186	0x3f6d96d9	0.928083
187	0xbd915cc2	-0.0709777
188	0xbd8f6070	-0.07000816
189	0xbd8f1384	-0.06986144
190	0xbd8dedc4	-0.06930116
191	0xbd8ef241	-0.069798
192	0xbd8f234e	-0.06989156
193	0xbd8ea107	-0.06964307
194	0xbd8e2a98	-0.06941718
195	0xbd8e233d	-0.06940315
196	0xbd8d6f29	-0.06905968
197	0xbd8d66ad	-0.069043495
198	0xbd8dae13	-0.06917968
199	0xbd8d0df1	-0.06887425
200	0xbd8bf4b9	-0.068337865
201	0xbd8a7732	-0.06761016
202	0xbd8936da	-0.06699915
203	0xbd88a485	-0.066720046
204	0xbd87ed83	-0.06637099
205	0xbd86470e	-0.06556521
206	0xbd84d950	-0.064867616
207	0xbd828904	-0.0637379
208	0xbd8012ae	-0.06253563
209	0xbd822186	-0.0635405
210	0xbd97e9d9	-0.0741765
211	0xbd989970	-0.07451141
212	0xbd974a5e	-0.07387231
213	0xbd96c5ae	-0.07361923
214	0xbd959023	-0.073028825
215	0xbd946956	-0.07246654
216	0xbd9420ab	-0.072327934
217	0x3f6db6e6	0.92857206
218	0xbd9046b1	-0.07044733
219	0xbd90044c	-0.070320696
220	0xbd8edaa6	-0.06975298
221	0xbd8ff25d	-0.07028649
222	0xbd901b87	-0.070365004
223	0xbd8f7c81	-0.07006169
224	0xbd8efdc7	-0.06981998
225	0xbd8efb0e	-0.06981479
226	0xbd8e4204	-0.06946185
227	0xbd8e16b0	-0.06937921
228	0xbd8e67fc	-0.06953427
229	0xbd8ddbb2	-0.06926669
230	0xbd8caa91	-0.068684705
231	0xbd8b19eb	-0.06792053
232	0xbd89be7c	-0.06725785
233	0xbd892d21	-0.06698061
234	0xbd887f03	-0.066648506
235	0xbd86cb4e	-0.06581746
236	0xbd854b21	-0.0650847
237	0xbd82f1e0	-0.0639379
238	0xbd806f94	-0.06271282
239	0xbd82a21a	-0.06378575
240	0xbd974628	-0.07386428
241	0xbd98047a	-0.07422729
242	0xbd96aa9f	-0.07356762
243	0xbd961e4d	-0.07329998
244	0xbd94d31b	-0.07266828
245	0xbd93af33	-0.07211151
246	0xbd93653c	-0.07197043
247	0xbd9187df	-0.071059935
248	0x3f6e0e61	0.9299069
249	0xbd8f3227	-0.06991988
250	0xbd8e0330	-0.06934202
251	0xbd8f0d2e	-0.06984936
252	0xbd8f4e81	-0.06997395
253	0xbd8e996e	-0.06962858
254	0xbd8e1727	-0.0693801
255	0xbd8e1e9f	-0.06939434

gc1.fc.weight f4 [128, 30]
0	0xbe330b5e	-0.17484805
1	0xbc0ba468	-0.008523084
2	0xbdca2969	-0.098711796
3	0xbd14682a	-0.03623215
4	0x3d701b4e	0.05861979
5	0xbdfc3ea4	-0.12316635
6	0xbe21824a	-0.15772358
7	0x3dd11dd1	0.10210765
8	0xbe37a011	-0.17932154
9	0x3e18a2ae	0.14905807
10	0xbddb4dff	-0.10708236
11	0x3c9039b0	0.017605633
12	0x3de613eb	0.11234268
13	0x3e076be0	0.13224745
14	0xbc168278	-0.00918638
15	0x3df27ea7	0.11840563
16	0x3e0d0ac6	0.13773641
17	0x3e08eb97	0.1337112
18	0x3db9c5e8	0.09070951
19	0x3ba3d4c0	0.004999727
20	0x3daa17eb	0.08305343
21	0xbdd5acfd	-0.104333855
22	0xbd77ad7c	-0.060468182
23	0x3cb5544f	0.022134928
24	0xbd6da1a1	-0.05801547
25	0xbe337d7e	-0.1752834
26	0x3e1f589b	0.15561144
27	0x3d751517	0.059834566
28	0xbe2282d6	-0.15870222
29	0xbe3398f5	-0.17538817
30	0x3e48a5e5	0.19594534
31	0xbdcf5751	-0.10124076
32	0x3e39b240	0.18134403
33	0xbd8d3dfe	-0.0689659
34	0x3de372bb	0.111058675
35	0xbe0b17ab	-0.13583247
36	0x3e227f61	0.15868904
37	0xbde7f7eb	-0.113265835
38	0xbdbcce0d	-0.092189886
39	0xbdc4a176	-0.09601109
40	0xbde64c3b	-0.112450086
41	0xbe50f8c2	-0.20407394
42	0x3e290633	0.16506271
43	0x3e3d8085	0.18506058
44	0x3c96a4af	0.018389074
45	0x3e2282ad	0.15870161
46	0xbdfdb63f	-0.12388276
47	0xbd8972a4	-0.06711319
48	0x3dc6e705	0.09712032
49	0x3d113d67	0.03545895
50	0xbdb3bac7	-0.08775859
51	0x3de1ec2f	0.110313766
52	0x3d262bec	0.04056923
53	0x3ab0a2b6	0.0013476226
54	0x3ded76cd	0.11594925
55	0xbab7a11f	-0.001400981
56	0x3e1a4a0e	0.15067312
57	0x3e117418	0.14204443
58	0x3d52c859	0.051460598
59	0xbe0326b7	-0.12807737
60	0xbd06fc99	-0.03295574
61	0x3e321ed1	0.17394568
62	0xbdbea7f7	-0.093093805
63	0x3e395829	0.18100037
64	0xbd20e228	-0.03927818
65	0xbd8d71dc	-0.069064826
66	0x3cbcd8a6	0.023052525
67	0x3de4d69e	0.111737475
68	0xbe1872a8	-0.14887488
69	0xbe112b2b	-0.14176624
70	0x3d85c2e6	0.065313146
71	0x3db0a1f5	0.08624641
72	0x3e0622fd	0.13099284
73	0x3d4c06ed	0.049811292
74	0x3be86d4f	0.0070931087
75	0xbe426464	-0.18983608
76	0xbd7b7e1c	-0.061399564
77	0xbe2a9420	-0.16658068
78	0x3dc3ab44	0.09554151
79	0x3e13acd9	0.14421405
80	0xbcfd2452	-0.030901108
81	0xbde7cdbd	-0.11318538
82	0x3e1fe08a	0.15612999
83	0xbda29a94	-0.0793964
84	0x3dd5d431	0.10440863
85	0xbe2389da	-0.15970555
86	0x3dec4087	0.11535745
87	0x3dfc09b0	0.12306535
88	0x3d5747e2	0.052558787
89	0xbe30e323	-0.17274146
90	0x3c14b686	0.00907672
91	0x3e526caa	0.20549265
92	0x3d26bc6e	0.040707044
93	0xbdbb9e76	-0.091610834
94	0xbdca51f8	-0.098789155
95	0x3dc3f7cb	0.09568747
96	0x3da18ef6	0.07888596
97	0xbe49667c	-0.19668001
98	0xbe27e377	-0.16395365
99	0x3e086799	0.1332077
100	0x3e037a95	0.1283973
101	0x3e4cc75a	0.19997922
102	0xbde6fed8	-0.11279076
103	0xbd61b6f0	-0.055106103
104	0xbe31c609	-0.173607
105	0x3dcbd78c	0.09953222
106	0x3d03f2aa	0.032213844
107	0xbe51a25b	-0.2047209
108	0xbbd68418	-0.0065465085
109	0xbe233d18	-0.15941274
110	0x3ddbeb41	0.107382305
111	0x3e2d86af	0.16945909
112	0xbe1091e1	-0.14118148
113	0xbdc7bccc	-0.09752807
114	0xbe15cec7	-0.1462966
115	0x3d6f984c	0.05849485
116	0xbe29b4d2	-0.16572884
117	0xbe05ee86	-0.1307927
118	0xbc88a103	-0.016678339
119	0xbe3d1faa	-0.1846911
120	0xbd498875	-0.0492024
121	0xbdda0b2d	-0.10646663
122	0x3df46585	0.11933426
123	0xbd17e77d	-0.037086
124	0x3e01a477	0.12660395
125	0x3d9234e4	0.07138994
126	0xbe33e840	-0.17569065
127	0xbd665c1f	-0.056240197
128	0xbdc8045a	-0.09766455
129	0xbdd18459	-0.102303214
130	0x3da4c668	0.080456555
131	0xbdd569b9	-0.104205556
132	0xbd1bf79d	-0.03807794
133	0xbc45f04a	-0.012081215
134	0xbdf3f01e	-0.11911033
135	0xbd789a63	-0.06069411
136	0x3e471e3c	0.19445127
137	0x3e15a744	0.14614588
138	0x3e02d7e9	0.12777676
139	0xbdcad90d	-0.099046804
140	0xbca71dd5	-0.020399967
141	0x3b4b923b	0.0031062502
142	0x3dfdc102	0.12390329
143	0xbdcaa998	-0.09895629
144	0x3d43cf5e	0.047805183
145	0x3dbf946e	0.093544826
146	0x3c584cea	0.0132019315
147	0x3e102d5b	0.14079802
148	0xbb8f04cf	-0.004364587
149	0x3d9d801b	0.0769045
150	0x3d4ebae6	0.05047121
151	0x3c812b59	0.01576774
152	0xbe574582	-0.21022609
153	0xbe08f0f9	-0.13373174
154	0x3d86a66a	0.0657471
155	0xbca5b9d0	-0.020230204
156	0x3d19032b	0.037356537
157	0xbe26bc64	-0.16282803
158	0xbd186703	-0.037207615
159	0xbe0921f2	-0.13391855
160	0xbcf53c4c	-0.029935978
161	0x3d5d7147	0.054063108
162	0xbdb1f601	-0.086895
163	0x3d67febf	0.05663943
164	0xbdc11bcf	-0.09429132
165	0xbcd1c0ec	-0.025604688
166	0x3afc9004	0.0019268994
167	0xbc9c277b	-0.019061795
168	0x3e12e27d	0.14344211
169	0xbd541ec2	-0.051787145
170	0xbdbe60f3	-0.09295835
171	0x3d4b26f4	0.049597695
172	0x3e0d7e1b	0.13817637
173	0xbe5623fb	-0.20912163
174	0x3d58d560	0.052937865
175	0x3d48f5ae	0.049062423
176	0xbdcffeec	-0.10156044
177	0x3e36494b	0.17801397
178	0x3e78f702	0.24312976
179	0x3e19c221	0.1501546
180	0x3e00f243	0.12592416
181	0x3e0f6682	0.14003947
182	0xbd75a99a	-0.059976198
183	0x3ced8951	0.028996142
184	0xbe009385	-0.12556274
185	0xbe1d38b3	-0.1535366
186	0x3e459eb7	0.19298826
187	0x3de201b2	0.110354796
188	0xbe1e5557	-0.15462242
189	0xbe0e2738	-0.13882148
190	0x3deb0be5	0.11476878
191	0x3e0affa4	0.13574082
192	0x3dc392de	0.09549497
193	0x3db58e39	0.088650174
194	0xbe0670f4	-0.13129026
195	0xbdbaae80	-0.091153145
196	0x3dc453fb	0.095863305
197	0x3e0dd197	0.13849483
198	0x3c30f2b5	0.010800053
199	0x3d7d2415	0.06180199
200	0xbd56e667	-0.052465823
201	0x3d816765	0.06318549
202	0x3e0529b6	0.13004193
203	0xbd87c0b9	-0.06628556
204	0xbda8730d	-0.08225069
205	0x3df465ff	0.11933517
206	0x3da7e9bc	0.08198878
207	0xbde08f28	-0.10964805
208	0x3d09b348	0.03361824
209	0xbcd3aa01	-0.0258379
210	0xbba3e5f0	-0.005001776
211	0x3e093b23	0.13401465
212	0xbdd0db12	-0.10198034
213	0x3dc0667e	0.09394549
214	0xbe1b9b57	-0.15195976
215	0x3d7f4728	0.06232372
216	0x3d1324a2	0.035923608
217	0x3de1393f	0.10997247
218	0x3ddce80e	0.107864484
219	0x3e3b9317	0.18317829
220	0xbdcdfc0f	-0.10057842
221	0x3bdbb744	0.0067051966
222	0x3d8dd76e	0.069258556
223	0x3d8fb280	0.07016468
224	0xbd7a33eb	-0.06108467
225	0x3db6890a	0.08912857
226	0x3defdee9	0.117124386
227	0xbd53b016	-0.0516816
228	0xbe16cc2a	-0.1472632
229	0xbdd3e2c1	-0.10345984
230	0x3e10a0dd	0.14123864
231	0x3cae1c20	0.021253645
232	0x3daad702	0.08341791
233	0xbe3bd129	-0.18341507
234	0xbd8e0f95	-0.06936566
235	0xbe0cef0c	-0.13763064
236	0x3d4baf99	0.04972801
237	0x3e3aaadd	0.18229242
238	0xbe04c8ba	-0.12967196
239	0xbe201cb4	-0.1563595
240	0xbdcb2e34	-0.09920922
241	0xbd8d3e80	-0.068966866
242	0xbd46b39d	-0.048511136
243	0xbccb3a90	-0.024808198
244	0xbde784fe	-0.11304663
245	0xbe3968d1	-0.1810639
246	0xbd6613f4	-0.056171373
247	0x3dee1bd0	0.116263986
248	0xbe0027f1	-0.12515236
249	0xbd55d386	-0.052203678
250	0xbddaf79d	-0.1069176
251	0xbe0b6985	-0.13614471
252	0x3ca0b61d	0.019618088
253	0x3d66ac59	0.056316707
254	0x3dc1a8d6	0.09456031
255	0xbdbc7d3f	-0.09203576

gc1.fc.bias f4 [128]
0	0xbdb5fe04	-0.0888634
1	0xbabfea62	-0.0014641995
2	0xbcdd6af0	-0.02702853
3	0xba58be8b	-0.0008268139
4	0x3d36d978	0.044640988
5	0xbe099d68	-0.13438952
6	0x3e4591a4	0.19293839
7	0x3d3acc0b	0.045604747
8	0xbe25f67f	-0.16207312
9	0x3ded5f74	0.11590472
10	0x3e0760bf	0.132205
11	0xbcd3a390	-0.025834829
12	0x3d22990a	0.03969673
13	0xbe042a03	-0.12906651
14	0xbdb25d4d	-0.08709202
15	0xbdbecfe0	-0.09316993
16	0x3e0acedb	0.13555472
17	0x3dbd7fee	0.09252916
18	0xbdd5a99b	-0.1043274
19	0x3de8dd96	0.11370389
20	0xbdad434f	-0.08460104
21	0xbd8f00b2	-0.069825545
22	0xbe47e503	-0.19520955
23	0x3e103ea4	0.14086396
24	0x3e08b28b	0.13349359
25	0xbd057091	-0.032578055
26	0xbe81c924	-0.2534877
27	0x3dc8b000	0.09799194
28	0xbc345258	-0.01100596
29	0x3d8c572c	0.06852564
30	0x3df7a3aa	0.12091763
31	0x3e13be7f	0.14428137
32	0xbe251869	-0.16122593
33	0xbe244a5e	-0.16043994
34	0xbd4759f8	-0.048669785
35	0xbe2e8201	-0.1704178
36	0xbe8b6b3a	-0.27230245
37	0xbe0960c1	-0.13415815
38	0x3d035eb9	0.032072756
39	0x3d85da8d	0.06535826
40	0xbe647be8	-0.22312891
41	0x3d2504d3	0.040287804
42	0xbc9cb0d1	-0.019127281
43	0xbe38a9f8	-0.18033588
44	0xbe939f85	-0.2883264
45	0xbd97374c	-0.07383594
46	0x3e08093e	0.13284776
47	0xbdb5be35	-0.0887417
48	0x3d3a4d24	0.045483723
49	0xbdbd89f1	-0.09254826
50	0x3d852ec2	0.06503059
51	0xbd45217a	-0.04812763
52	0xbdfb362e	-0.12266193
53	0xbe1ef908	-0.15524685
54	0xbc856f1c	-0.016288333
55	0x3df464b2	0.119332686
56	0xbdd46a51	-0.10371841
57	0xbc437593	-0.011929887
58	0x3dcff5bd	0.10154293
59	0xbd5c60ab	-0.053803127
60	0xbdbede30	-0.09319723
61	0xbe2d6c6a	-0.16935888
62	0x3c4ff7e9	0.012693384
63	0xbde0840b	-0.10962685
64	0xbd637bfd	-0.055538166
65	0xbdaeb22e	-0.08530079
66	0x3e1dd1aa	0.15412012
67	0x3d65975d	0.056052554
68	0x3d61f437	0.055164542
69	0xbde8d785	-0.11369232
70	0x3d10bcd7	0.03533634
71	0x3ddc0374	0.10742846
72	0xbe87c57b	-0.26517853
73	0xbcce2224	-0.025162764
74	0x3d4f26e1	0.050574187
75	0xbe4d34d4	-0.20039684
76	0xbe2e23a4	-0.17005783
77	0x3e3e37dd	0.18575998
78	0x3ba17f39	0.004928496
79	0xbdc9738f	-0.09836494
80	0xbe3d7a5c	-0.18503708
81	0x3df43884	0.11924842
82	0x3cd5d097	0.02610044
83	0xbdd9a0d7	-0.10626381
84	0xbe043187	-0.12909518
85	0xbc9f497b	-0.019444218
86	0x3d159f4a	0.036528863
87	0xbdd9bf14	-0.106321484
88	0xbd5c28a4	-0.053749695
89	0xbce4ea0a	-0.02794363
90	0xbe2b8b8f	-0.16752456
91	0x3e050539	0.12990274
92	0xbda9d5c7	-0.08292728
93	0xbe95bb43	-0.29244432
94	0xbdea909a	-0.11453362
95	0xbe3112fe	-0.17292401
96	0xbdeb64a7	-0.11493807
97	0xbd0fc0e5	-0.035096068
98	0xbd559c2b	-0.052150887
99	0xbad1b9ed	-0.0016000845
100	0xbd8beac5	-0.06831888
101	0xbe0d17cc	-0.13778609
102	0xbe0e3e25	-0.13890894
103	0xbc7cd72e	-0.015432162
104	0xbe2d0780	-0.16897392
105	0x3e15906e	0.14605877
106	0xbe192e47	-0.1495906
107	0x3e18cc02	0.14921573
108	0x3d04e816	0.032447897
109	0xbe12ea4d	-0.14347191
110	0x3d139eba	0.036040045
111	0xbde340db	-0.110963546
112	0xbe1bfe75	-0.15233786
113	0xbe587efd	-0.21142192
114	0xbe135129	-0.14386429
115	0xbd3a044e	-0.04541426
116	0xbe078887	-0.13235675
117	0xbe1d82e1	-0.15381958
118	0xbe3796cd	-0.1792862
119	0xbdaa4536	-0.08313982
120	0xbdba0aac	-0.09084067
121	0xbe113085	-0.14178665
122	0xbd8121a4	-0.063052446
123	0xbd871213	-0.06595244
124	0xbe460118	-0.19336355
125	0xbda2a8f5	-0.07942382
126	0xbe241efc	-0.16027445
127	0xbd4e77f4	-0.050407365

gc2.fc.weight f4 [128, 128]
0	0x3daf0d5f	0.08547472
1	0xbd111e1f	-0.035429116
2	0xbe0e72e8	-0.13911021
3	0xbcaf7816	-0.021419566
4	0xbd943f3c	-0.072386235
5	0x3ce959cb	0.0284852
6	0xbe2bc98c	-0.16776103
7	0xbe1e7c6f	-0.15477155
8	0xbd63bd19	-0.05560026
9	0xbe54d030	-0.20782542
10	0xbc09bc08	-0.008406647
11	0x3d0594d8	0.03261265
12	0x3cf515e3	0.029917663
13	0xbe9f0b62	-0.31063372
14	0xbe9d9016	-0.3077399
15	0x3c25da2e	0.010122819
16	0x3cee2f7a	0.029075373
17	0x3dbb4d34	0.09145585
18	0x3c45f941	0.012083353
19	0x3d286a1d	0.041116823
20	0xbe12c1fb	-0.1433181
21	0xbe79b374	-0.24384862
22	0xbd9ec69c	-0.077527255
23	0x3d08ed6f	0.03342956
24	0xbcf0881a	-0.029361773
25	0x3bc0fae5	0.005889284
26	0x3d469637	0.0484831
27	0xbd0a2ce4	-0.033734217
28	0xbe1ac62a	-0.15114656
29	0x3d1aaac4	0.03776051
30	0xbebc6639	-0.3679674
31	0x3d8402f8	0.06445879
32	0x3da87494	0.082253605
33	0xbd446f34	-0.047957614
34	0x3c51edaa	0.012813011
35	0xbce619c0	-0.02808845
36	0xbd82a9cb	-0.06380042
37	0xbda486c9	-0.08033521
38	0xbc1282dc	-0.008942332
39	0xbdc35871	-0.09538353
40	0xbdd90fe9	-0.10598738
41	0xbe47f700	-0.19527817
42	0x3cc49a25	0.023999283
43	0xbc73530e	-0.014851345
44	0x3d820c88	0.063500464
45	0xbe0b51f8	-0.13605487
46	0xb9ef27c0	-0.00045615248
47	0x3d5b46e9	0.053534422
48	0xbe0cc0dd	-0.13745447
49	0xbc698a7e	-0.0142542105
50	0xbe880e31	-0.26573327
51	0x3c9d3f16	0.01919512
52	0xbd58d465	-0.05293693
53	0xbdb24202	-0.08703996
54	0xbe2746a2	-0.16335538
55	0x3c6c653c	0.014428433
56	0xbdaa44c3	-0.083138965
57	0xbe22caf4	-0.15897733
58	0xbb309704	-0.002694548
59	0xbe96c1f2	-0.29444844
60	0x3bbf5f97	0.0058402526
61	0xbd1982b7	-0.037478175
62	0x3d673930	0.056451023
63	0xbeb1c247	-0.34718534
64	0xbddcc107	-0.107790045
65	0x3d6e4719	0.058173273
66	0x3ca5d4b6	0.02024303
67	0xbe517cf5	-0.20457824
68	0xbebddc9c	-0.37082374
69	0xbdc90ba7	-0.09816676
70	0xbd4ee127	-0.05050769
71	0x3867ed40	5.5295648e-05
72	0xbd8eb005	-0.06967167
73	0xbe16befd	-0.14721294
74	0xbeb73b81	-0.35787585
75	0xbce3ad07	-0.027792467
76	0xbe1b66a7	-0.15175878
77	0xbd89e5ea	-0.06733306
78	0xbc586d43	-0.013209644
79	0xbe4174f7	-0.18892275
80	0xbdd85d70	-0.10564697
81	0xbe6b5f29	-0.2298552
82	0xbe66eba6	-0.2255083
83	0xbdb2f8bd	-0.08738849
84	0xbdf000aa	-0.11718877
85	0x3d12796c	0.03576033
86	0xbe0d4c6a	-0.13798681
87	0xbe015cf6	-0.12633118
88	0x3c4d6fba	0.012538845
89	0xbd1f2c2c	-0.038860485
90	0x3e0d5686	0.13802537
91	0xbe1be703	-0.15224843
92	0xbe02178f	-0.127043
93	0x3db73ae0	0.089467764
94	0x3d4bdd93	0.049771857
95	0x3d51c621	0.05121434
96	0x3d9b6d69	0.07589228
97	0x3c47ff04	0.012206797
98	0xbd184432	-0.03717441
99	0x3d3a0a9d	0.045420278
100	0xbdd481de	-0.10376333
101	0xbc8c2061	-0.017105283
102	0xbb4a1de5	-0.0030840572
103	0x3d0a62ae	0.033785515
104	0xbe6f2b53	-0.2335637
105	0x3da6bd83	0.08141615
106	0xbde9eea4	-0.1142247
107	0xbdf6070b	-0.12013062
108	0xbce6669c	-0.0281251
109	0xbd427a61	-0.04747999
110	0xbcb673c1	-0.022271993
111	0x3dbe34cc	0.09287414
112	0x3da1f254	0.079075485
113	0xbd91b78d	-0.07115088
114	0x3b565284	0.0032702992
115	0xbe5974b7	-0.2123593
116	0x3dc094f7	0.09403413
117	0xbe2ad43b	-0.16682522
118	0xbcbd86aa	-0.023135502
119	0x3de3ed25	0.11129216
120	0xbdcbf34c	-0.099585146
121	0x3d4df12a	0.05027882
122	0x3c3a5e75	0.011375059
123	0x3d33a598	0.043859094
124	0xbbeff98d	-0.00732345
125	0xbcda5dea	-0.02665611
126	0xbcf0a1cb	-0.029374024
127	0x3d4d2946	0.05008819
128	0x3da7746a	0.08176501
129	0xbe4593a4	-0.19294602
130	0x3e07637b	0.13221543
131	0x3dbc94ab	0.09208044
132	0xbdc5f5d0	-0.09666026
133	0x3d19716c	0.037461683
134	0xbca4bccc	-0.020109557
135	0x3d3a7fec	0.045532152
136	0xbd5a3dfe	-0.053281777
137	0xbbddadb4	-0.006765092
138	0x3cc77ce4	0.024351545
139	0xbe28eeea	-0.16497388
140	0xbe86ce16	-0.26329106
141	0xbc336b15	-0.010950823
142	0xbcb4ee6e	-0.022086348
143	0xbe0e4882	-0.13894847
144	0xbdf50808	-0.119644225
145	0xbdf6e905	-0.12056164
146	0xbdbdc473	-0.09265985
147	0x3d841008	0.0644837
148	0x3db97e00	0.09057236
149	0x3e0dd676	0.13851342
150	0xbde11102	-0.10989572
151	0xbddc7221	-0.10763956
152	0x3c85fcf6	0.016355973
153	0xba9c0217	-0.0011902478
154	0xbb8952d2	-0.004190781
155	0x3bb745c4	0.0055930335
156	0x3dd9d9b7	0.10637229
157	0xbb73e06d	-0.0037212626
158	0x3cc60f86	0.024177324
159	0xbdb46506	-0.08808331
160	0x3c7d69df	0.015467136
161	0xbca8539e	-0.020547684
162	0xbe6e9486	-0.23298845
163	0xbd8d1d30	-0.06890333
164	0x3e05c228	0.13062346
165	0xbdc879d5	-0.097888626
166	0xbe438375	-0.19093116
167	0xbe51ff1b	-0.20507471
168	0xbd88f91c	-0.06688139
169	0x3d904ddc	0.070461005
170	0xbd9f99fc	-0.07793042
171	0x3ca4b911	0.020107778
172	0xbe133d24	-0.14378792
173	0x3d2ac2eb	0.041689795
174	0x3c40d598	0.011769675
175	0xbe089098	-0.13336408
176	0xbdf63b37	-0.12023013
177	0x3c45771e	0.0120523255
178	0xbd4384d2	-0.04773409
179	0xbdf835c2	-0.121196285
180	0xbe03c298	-0.128672
181	0x3c5e94f1	0.013585315
182	0x3c754935	0.014971067
183	0xbd72d375	-0.059283692
184	0xbca22d3c	-0.01979696
185	0xba3cd2b4	-0.0007203028
186	0xbe0bfa6d	-0.13669749
187	0x3c445baa	0.011984745
188	0xbdc5365a	-0.09629507
189	0xbc846e1c	-0.016165785
190	0xbdecf6d7	-0.115705185
191	0x3c0893de	0.008336036
192	0xbe635f7c	-0.22204393
193	0xbd0b9b69	-0.034083758
194	0x3c25287c	0.010080453
195	0xbddf530f	-0.10904514
196	0x3dedba94	0.116078526
197	0xbd70192f	-0.058617767
198	0xbe020438	-0.12696922
199	0x3bd248e9	0.006417383
200	0xbd78c114	-0.06073101
201	0x3ccf6a37	0.025319202
202	0xbd75440b	-0.059879344
203	0xbd7dd862	-0.061973937
204	0xbd955228	-0.07291061
205	0x3dffecf2	0.124963656
206	0x3cb9e30e	0.022691276
207	0x3de9110a	0.11380203
208	0xbd7cfaf6	-0.061762773
209	0x3e0e99c6	0.13925847
210	0xbe181a38	-0.14853752
211	0x3c0d953c	0.008641537
212	0x3cf90f12	0.030402694
213	0xbdc93373	-0.09824266
214	0xbcff55bc	-0.031168811
215	0xbdbaaea7	-0.091153435
216	0xbd04caa2	-0.03241981
217	0xbd3db0a3	-0.046311032
218	0xbd6b0a01	-0.057382587
219	0xbd3d2be0	-0.04618442
220	0xbcef3a81	-0.029202702
221	0xbc9ed882	-0.019390348
222	0x3d36be8b	0.04461531
223	0x3d8031d2	0.062595025
224	0xbd401ef0	-0.046904504
225	0xbde443d7	-0.11145752
226	0x3c638e0f	0.01388885
227	0xbe05c3bc	-0.13062948
228	0x3d61a0ab	0.055084866
229	0xbdbba1aa	-0.09161694
230	0xbde76657	-0.11298817
231	0xbcd39b94	-0.025831021
232	0xbe13c2d2	-0.14429787
233	0xbd611a42	-0.054956682
234	0xbca806c0	-0.020511031
235	0x3d2a7ae9	0.041621123
236	0xbe0670c3	-0.13128953
237	0xbd8b51a5	-0.06802682
238	0xbcbb81ae	-0.022888985
239	0x3d322c61	0.043499354
240	0x3c858768	0.016299918
241	0xbdbd7f89	-0.09252841
242	0xbe5de76b	-0.2167031
243	0xbdb09d62	-0.086237684
244	0xbc3da84c	-0.01157577
245	0xbdcc8cdd	-0.09987805
246	0xbe30fda1	-0.17284252
247	0xbd658c5c	-0.05604206
248	0xbcb35549	-0.021891253
249	0xbe307fe5	-0.17236288
250	0xbceb50fe	-0.028725144
251	0xbdad3d78	-0.0845899
252	0xbd54c184	-0.051942363
253	0xbd951084	-0.07278541
254	0xbd92be74	-0.07165232
255	0xbcadb49c	-0.021204285

gc2.fc.bias f4 [128]
0	0xbe1abb00	-0.15110397
1	0xbd97e2e7	-0.07416325
2	0xbcff2c2a	-0.031148989
3	0xbe26fb02	-0.1630669
4	0x3d92cdc5	0.07168154
5	0x3d87a9b0	0.06624162
6	0xbe08c9b0	-0.13358188
7	0xbcd26271	-0.025681706
8	0xbd5bed3b	-0.053693037
9	0xbd915ea5	-0.0709813
10	0xbdf920fe	-0.12164496
11	0x3da03fbd	0.07824657
12	0x3d04b8b3	0.032402705
13	0xbd69a668	-0.057043463
14	0xbd4ddde5	-0.050260443
15	0x3d2ea2f2	0.042635866
16	0x3d6d948e	0.058003
17	0x3cd41b31	0.025891872
18	0xbde57602	-0.11204149
19	0x3c3f7ead	0.011687917
20	0xbdc8af36	-0.09799044
21	0x3dca09c5	0.09865145
22	0xbe2c5578	-0.16829479
23	0xbd033af8	-0.03203866
24	0x3cdb75d3	0.026789581
25	0x3cd66983	0.026173359
26	0xbdb7458b	-0.08948811
27	0xbcb4615b	-0.022019079
28	0xbd200971	-0.039071504
29	0x3dbb5163	0.09146383
30	0x3cfffef9	0.03124951
31	0x3d5ce995	0.0539337
32	0xbcdfdf38	-0.027328119
33	0x3ab734f6	0.0013977576
34	0x3cdae42b	0.026720127
35	0xbc05e6ec	-0.008172732
36	0x3cea2ab5	0.028584817
37	0x3d97c67c	0.07410905
38	0x3bc18354	0.005905548
39	0xbe1aa20d	-0.1510088
40	0x3d5b02b5	0.05346938
41	0xbd51558b	-0.05110697
42	0x3dc0877e	0.09400843
43	0xbe009ff0	-0.12561011
44	0x3ba6d4d5	0.0050912895
45	0x3dbd9a79	0.09257979
46	0xbd82c51c	-0.06385252
47	0xbd42dfef	-0.04757684
48	0x3ca18ad8	0.019719526
49	0xbc11504f	-0.008869245
50	0xbcce6030	-0.02519235
51	0x3d5a25a0	0.05325854
52	0x3bbf2d47	0.005834255
53	0xbd07395f	-0.033013698
54	0xbe0c75f5	-0.13716872
55	0xbd00ef51	-0.03147823
56	0x3d8e00a4	0.06933716
57	0xbd3471cb	-0.044053834
58	0xbdb0a606	-0.086254165
59	0xbda49dc2	-0.080379024
60	0x3bb2080c	0.005433088
61	0xbd192ae4	-0.03739442
62	0xbd42b5f8	-0.04753682
63	0xbd263ac7	-0.0405834
64	0x3cfa4534	0.030550577
65	0xbdb3ea1f	-0.087848894
66	0x3d5cf84f	0.053947743
67	0xbcaa7460	-0.020807445
68	0xbd50bd11	-0.050961558
69	0x3c328830	0.010896727
70	0xbc83bd98	-0.016081616
71	0x3d3e5474	0.04646726
72	0xbe03e023	-0.1287847
73	0xbcc1069e	-0.023562726
74	0x3d26c8e5	0.04071893
75	0x3d48b917	0.04900464
76	0x3d8d2b06	0.06892972
77	0xbbe59747	-0.007006559
78	0xbd9d6e91	-0.076871045
79	0xbc2db0fe	-0.01060128
80	0xbd4eb6f7	-0.050467458
81	0x3d19101e	0.037368886
82	0xbda48b43	-0.080343746
83	0xbd220eb7	-0.039564814
84	0xbdacd493	-0.08438983
85	0xbd4b02d3	-0.04956324
86	0xbdadc11f	-0.084841006
87	0xbbecfc1d	-0.0072322027
88	0x3de74c8d	0.11293898
89	0xbe070e54	-0.1318906
90	0x3da8bea2	0.08239485
91	0xbce548e4	-0.027988859
92	0x3dc17ab6	0.094472334
93	0x3dd501b8	0.104007185
94	0x3d51adbb	0.051191073
95	0x3c1cf893	0.009580749
96	0x3da257f7	0.07926934
97	0xbd53064a	-0.05151967
98	0x3c02133d	0.007939157
99	0xbd575da3	-0.052579533
100	0xbdc4c9d5	-0.09608809
101	0xbd1d22e5	-0.038363356
102	0x3cb7ac8a	0.02242114
103	0xbc1a1e33	-0.009406614
104	0x3d883708	0.066511214
105	0x3d83a217	0.064274006
106	0xbd3ab03d	-0.04557823
107	0x3d1b9988	0.037988216
108	0xbcd4b961	-0.025967302
109	0x3dee3172	0.11630525
110	0xbc190afe	-0.009341
111	0xbd9b8d39	-0.075952955
112	0x3c2463aa	0.010033527
113	0x3d36ffcd	0.044677544
114	0xbe207f69	-0.15673603
115	0x3c88c376	0.016694766
116	0x3dac1202	0.08401872
117	0xbd744296	-0.059633814
118	0x3cc52c93	0.024069106
119	0x3db0b5c1	0.08628417
120	0xbd364cc5	-0.044506807
121	0xbdfabbe5	-0.12242869
122	0x3dc2cdff	0.09511947
123	0xbd75ba42	-0.059992082
124	0xb9ed9ef2	-0.00045322586
125	0x3d445c0b	0.04793934
126	0xbdbec719	-0.093153186
127	0xbe18d2a5	-0.14924105

temporal_conv.weight f4 [128, 128, 3]
0	0xbdfba5de	-0.12287496
1	0xbc7f06ea	-0.015565613
2	0xbc5d20d5	-0.013496597
3	0x3bc40aa7	0.005982715
4	0x3c29baa2	0.010359438
5	0x3bc51839	0.0060148505
6	0xbd88cc61	-0.06679607
7	0xbdb725c5	-0.08942751
8	0xbd1b85db	-0.03796945
9	0xbc9b49d9	-0.018956112
10	0xbdc2d56b	-0.095133625
11	0x3d0a7a1c	0.03380786
12	0x3c34634b	0.011010001
13	0x3d9ec148	0.07751709
14	0xbcfede3f	-0.031111835
15	0x3ca2a17d	0.019852394
16	0x3d2d83ec	0.04236214
17	0xbc145f73	-0.00905596
18	0x3ce89e2a	0.028395731
19	0x3df2b1b0	0.118502975
20	0x3ccfeea8	0.025382355
21	0x3d7ba5b4	0.061437324
22	0x3cd0da70	0.025494784
23	0xba1b3251	-0.00059202785
24	0x3dd8f4cd	0.10593567
25	0x3c1e7c01	0.0096731195
26	0xbc7a7cf7	-0.015288583
27	0x3c6529ce	0.013987018
28	0xbd0f198f	-0.034936484
29	0xbd13d3e6	-0.036090754
30	0x3dd5a14c	0.104311556
31	0x3c86a67a	0.016436804
32	0x3aa781fe	0.001277983
33	0xbdcc6667	-0.09980469
34	0xbd922039	-0.07135052
35	0x3cc77f30	0.02435264
36	0xbd554b51	-0.05207378
37	0xbdd1c6ba	-0.10242982
38	0xbbc86ee4	-0.006116735
39	0xbc29a8c0	-0.010355175
40	0x3cc4146c	0.02393552
41	0x3c1a5935	0.009420683
42	0x3d38e3aa	0.045138992
43	0x3d00cdf4	0.031446412
44	0x3cdb67b2	0.026782844
45	0xbdaa41cf	-0.08313333
46	0xbd337883	-0.0438161
47	0xbd4e65ac	-0.05038993
48	0xbe20b76d	-0.15694971
49	0xbe1c0d82	-0.15239528
50	0xbd0790a1	-0.033096913
51	0x3d84d83b	0.06486555
52	0x3dab3cec	0.08361229
53	0x3abc67e2	0.0014374221
54	0x3d2d2cdd	0.042279113
55	0x3be2b7cf	0.0069188843
56	0xbad51897	-0.0016257939
57	0x3d059a6d	0.032617975
58	0x3c644866	0.013933277
59	0x3cb94dd4	0.02262012
60	0xbd9c6238	-0.07635921
61	0x3cded3c6	0.02720059
62	0xb852601e	-5.0157418e-05
63	0xbe08c511	-0.13356425
64	0xbdbae71d	-0.091261126
65	0x3d062db6	0.032758437
66	0x3dc072bc	0.09396884
67	0x3da7cde4	0.081935674
68	0xbb4044a9	-0.00293378
69	0x3d53dca1	0.05172408
70	0x3da1f39e	0.079077944
71	0x3b32e0b4	0.0027294578
72	0xba0d8be6	-0.00053995696
73	0xbd34b46b	-0.044117372
74	0x3cee7c1e	0.029111918
75	0xbe136325	-0.1439329
76	0xbd571b1a	-0.05251608
77	0x3d28b653	0.041189503
78	0xbdd3208f	-0.103089444
79	0xbcd448a0	-0.025913537
80	0x3d1e1a91	0.038599554
81	0xbc269c70	-0.010169134
82	0x3d1b798a	0.037957706
83	0x3cdb1d20	0.026747286
84	0xbb22f12a	-0.0024862983
85	0xbd74c3ba	-0.059756972
86	0xbc452e6c	-0.012034994
87	0xbda8182d	-0.08207736
88	0x3bd863f4	0.006603712
89	0x3d0d61d9	0.034517143
90	0xbd7e3bab	-0.062068623
91	0xbd3fbdb5	-0.046811778
92	0x3cec3f11	0.028838666
93	0xbdf9c8a1	-0.1219647
94	0xbd8a0b17	-0.067403965
95	0xbd280275	-0.04101797
96	0x3d94f683	0.07273581
97	0x3d3b67b3	0.045753192
98	0xbd19dc19	-0.037563417
99	0x3d8fe0dc	0.070253104
100	0x3d8f7055	0.070038475
101	0x3d10eb5e	0.035380714
102	0x3d373d54	0.04473622
103	0xbc105055	-0.008808215
104	0xbd1cca63	-0.03827895
105	0x3d647191	0.055772368
106	0x3cc0e27a	0.023545492
107	0x3cd6732e	0.026177969
108	0xb8b24c30	-8.5018924e-05
109	0xbd33b657	-0.043875065
110	0x3d3bca52	0.045847245
111	0x3d0492cc	0.03236656
112	0x3d6c1177	0.057633843
113	0x3ca4b4ff	0.020105837
114	0x3dc1d632	0.09464683
115	0x3cade166	0.021225642
116	0x3c9355c8	0.01798524
117	0xbe0ea279	-0.13929166
118	0xbd9feabe	-0.078084454
119	0xbd2b6b62	-0.041850455
120	0xbdc026ce	-0.093824014
121	0xbddddbe7	-0.10832959
122	0x3c111225	0.008854424
123	0xbd2adbd4	-0.04171355
124	0xbd3b7402	-0.04576493
125	0xbd32f72a	-0.043692745
126	0xbc083ea0	-0.008315712
127	0xbd73855e	-0.05945336
128	0xbd035767	-0.032065775
129	0xbbcc8294	-0.006241152
130	0xbd3d0e28	-0.04615608
131	0xbba33f4f	-0.004981912
132	0xbd8e8341	-0.069586284
133	0xbdf18ce4	-0.11794451
134	0xbd4a8ae7	-0.049448874
135	0xbe0c2b19	-0.13688315
136	0xbd9a9380	-0.07547665
137	0xbcf80f4e	-0.030280735
138	0x3ddd0e4e	0.10793744
139	0x3d282da6	0.04105916
140	0x3d4ede6e	0.050505094
141	0x3da0fb16	0.07860391
142	0x3d88400a	0.066528395
143	0x3d0f05bd	0.03491758
144	0x3cd35e0e	0.025801685
145	0x3d05df8b	0.03268389
146	0xbd310c23	-0.043224465
147	0xbd8574bb	-0.06516405
148	0xbcbc0115	-0.022949735
149	0xbc2eaa29	-0.0106606865
150	0xbdb7fb0e	-0.08983432
151	0xbda7fd01	-0.082025535
152	0xbc96dfea	-0.018417317
153	0x3d4d7e22	0.050169118
154	0x3d30a425	0.04312529
155	0x3b77bd94	0.0037802206
156	0xbd72a88f	-0.05924278
157	0xbca6d62d	-0.020365799
158	0x3cc70ea7	0.024298979
159	0xbd9aff93	-0.07568278
160	0xbd7b6460	-0.061375022
161	0x3cbe1702	0.02320433
162	0xbdbab86b	-0.09117206
163	0xbdb2ad5a	-0.087244704
164	0x3cef0325	0.029176304
165	0xbd8e99ba	-0.06962915
166	0xbde774fa	-0.113016084
167	0x3ca64045	0.020294318
168	0xbe18fc5f	-0.14940022
169	0xbdf9e02c	-0.122009605
170	0xbc992a46	-0.018696915
171	0x3a855e5a	0.0010175214
172	0x3d79292e	0.060830288
173	0x3c873b57	0.016507788
174	0x3d195de4	0.037443057
175	0x3d6998d1	0.057030503
176	0x3c8a31c7	0.016869439
177	0x3dc3901c	0.09548971
178	0x3dc1d8fd	0.09465215
179	0x3d12c1fd	0.035829533
180	0xbd2d37aa	-0.042289414
181	0xbd5e3d8c	-0.054257914
182	0xbd08af0f	-0.033370074
183	0xbda6965f	-0.0813415
184	0xbd3273f5	-0.043567616
185	0xbccb0de3	-0.024786895
186	0x3ddbfb56	0.10741298
187	0x3e2498ae	0.16073868
188	0x3c44ad02	0.012004139
189	0x3d0b8fce	0.03407269
190	0xbbc301ed	-0.0059511573
191	0xbcf2c430	-0.029634565
192	0x3cb33d96	0.021879952
193	0x3d1f1e81	0.03884745
194	0xbd208345	-0.03918769
195	0x3de2425a	0.11047812
196	0x3d9e36cd	0.07725296
197	0x3c1b555a	0.009480799
198	0xbddcf8bf	-0.10789632
199	0xbd65448c	-0.055973575
200	0x3cc21860	0.023693264
201	0xbdcb0356	-0.09912746
202	0xbd7e828f	-0.06213623
203	0x3d1ef8f2	0.03881163
204	0xbd2f91b7	-0.042863574
205	0xbcedf3db	-0.029046943
206	0x3c9a9b33	0.018872833
207	0x3d96d1cd	0.07364235
208	0x3dba2876	0.090897486
209	0xbd22e06e	-0.039764814
210	0xbdd48619	-0.103771396
211	0xbdc7ae58	-0.0975005
212	0xbcf9f59b	-0.030512622
213	0x3d8e334b	0.06943377
214	0x3ccf15fe	0.025279041
215	0xbcee2084	-0.029068239
216	0xbde1e692	-0.11030306
217	0xbd93fbef	-0.07225787
218	0xbc4d32a9	-0.012524285
219	0x3d1da774	0.038489774
220	0x3dc98e06	0.09841542
221	0x3c8a6d20	0.016897738
222	0xbe072c48	-0.13200486
223	0xbda67597	-0.08127897
224	0xbcc168ea	-0.023609597
225	0xbd8fa7f7	-0.070144586
226	0xbd332f9e	-0.043746583
227	0xbd3bf20f	-0.045885142
228	0xbc8d63ea	-0.017259557
229	0x3d28b32b	0.041186493
230	0x3d0d86ea	0.034552492
231	0xbd9472c7	-0.072484545
232	0xbdc53425	-0.096290864
233	0xbc9b3bab	-0.01894935
234	0x3ccacdc5	0.024756322
235	0x3d95fd61	0.07323719
236	0x3d0d27d0	0.034461796
237	0xbd1e7ebd	-0.038695086
238	0xbd6e04c9	-0.058110032
239	0x3b0299cd	0.0019928098
240	0xbd09e246	-0.033663057
241	0x3c7c5240	0.015400469
242	0xbcc916fd	-0.024547094
243	0x3d8a9566	0.06766777
244	0x3db26246	0.087101504
245	0x3bb76889	0.0055971784
246	0x3d5a1b4e	0.053248696
247	0x3df6a109	0.12042434
248	0x3c06fafb	0.008238549
249	0xbe01de3a	-0.12682429
250	0xbd717877	-0.058952775
251	0x3b1ea55c	0.0024207449
252	0xbc9fd1f1	-0.019509288
253	0xbd5a9a26	-0.053369664
254	0xbc02f1c7	-0.0079922145
255	0x3d411864	0.0471424

temporal_conv.bias f4 [128]
0	0x3b8617dc	0.0040921997
1	0x3cd3c33f	0.025849937
2	0x3de32ec6	0.11092906
3	0x3ce16a5b	0.027516535
4	0x3db8ef37	0.090300016
5	0x3d363455	0.0444835
6	0x3dbfb1fb	0.09360119
7	0x3dba5281	0.090977676
8	0x3cbc6601	0.022997858
9	0xbd8758c2	-0.06608726
10	0x3d25aaef	0.040446218
11	0x3d3023cb	0.043002885
12	0x3d6a50c8	0.057205945
13	0xbbb7e2be	-0.0056117466
14	0x3dc40387	0.09570985
15	0x3d5c6b94	0.053813532
16	0xbd134302	-0.035952576
17	0xbbade67c	-0.005307017
18	0xbd853eb1	-0.06506098
19	0xbda67f39	-0.081297345
20	0x3bd4f535	0.0064989575
21	0x3d92275c	0.071364135
22	0x3d41d026	0.047317646
23	0x3dded53a	0.108805135
24	0xbae14f76	-0.0017189819
25	0x3d72bc25	0.05926146
26	0xbd10bae6	-0.03533449
27	0x3d69e5e2	0.057104
28	0x3d7cce17	0.06171998
29	0x3df83282	0.121190086
30	0xbd666465	-0.056248087
31	0x3c2a850d	0.010407698
32	0x3ccd422f	0.025055973
33	0x3d61cd95	0.0551277
34	0x3cd3ecd3	0.025869763
35	0x3d61faea	0.05517093
36	0x3d38525a	0.04500041
37	0x3d102efe	0.035201065
38	0x3c844e43	0.0161506
39	0x3d48d785	0.04903366
40	0xbdce5cae	-0.10076271
41	0x3d854c0d	0.06508646
42	0x3ca93ca2	0.020658795
43	0xbdd00d18	-0.101587474
44	0xbd5995f8	-0.053121537
45	0xbd8d2528	-0.068918526
46	0xbd8f926a	-0.07010348
47	0xbd8782b3	-0.06616726
48	0xbddf1fc4	-0.10894731
49	0xbd6ecfd8	-0.058303684
50	0xbbce6c3a	-0.0062995227
51	0xbb3d1a0c	-0.0028854636
52	0x3d0db301	0.03459454
53	0x3e178df8	0.1480025
54	0xbaf0fd38	-0.0018386012
55	0xbcc7b737	-0.024379356
56	0x3c251389	0.010075458
57	0xbd973bdd	-0.07384465
58	0xbe0ea2fb	-0.1392936
59	0xbd078676	-0.033087216
60	0x3d88cc45	0.06679586
61	0xbd13b352	-0.036059685
62	0x3c54df5a	0.012992704
63	0x3c7a33a3	0.0152711
64	0xbd6c1742	-0.057639368
65	0xbdd60666	-0.10450439
66	0x3d983f27	0.0743392
67	0x3d4040f4	0.046936944
68	0x3df79194	0.12088314
69	0xbddfabb6	-0.10921423
70	0xbdc1c537	-0.09461444
71	0x3d317771	0.0433268
72	0x3c9852ca	0.018594164
73	0xbc60d814	-0.013723392
74	0x3ce83c44	0.02834905
75	0x3db7b02d	0.0896915
76	0x3d23a649	0.039953504
77	0xbd9d2443	-0.07672932
78	0xbd8bc2d2	-0.068242684
79	0xbe137bec	-0.14402741
80	0xbd2ee9ca	-0.042703427
81	0xbdd0f213	-0.10202422
82	0x3dcca239	0.09991879
83	0xbcad407e	-0.021148916
84	0x3daea625	0.08527783
85	0x3cbf6960	0.023365676
86	0x3db899ca	0.09013708
87	0xbdcd58c8	-0.10026699
88	0xbccfc1f2	-0.025361035
89	0x3d047693	0.032339644
90	0xbdb93bb0	-0.090445876
91	0xbce09cf1	-0.027418585
92	0xbbaa5c7a	-0.0051990123
93	0x3d64ed25	0.05589022
94	0x3dfef73c	0.124495
95	0x3ca9b17d	0.020714516
96	0xbcec9977	-0.028881771
97	0xbdde7a47	-0.10863166
98	0x3d682f58	0.056685776
99	0xbcfc43e8	-0.030794099
100	0x3c27369d	0.010205892
101	0xbd2be2c3	-0.041964304
102	0xba95fef2	-0.0011443777
103	0xbc4b2c99	-0.01240077
104	0xbde0d2c4	-0.109777
105	0x3ddd308d	0.10800276
106	0xbd163f8f	-0.036681708
107	0xbd4c44b3	-0.049870204
108	0x3bebc409	0.007195
109	0xbc8f8f88	-0.017524496
110	0x3d0b7fe0	0.034057498
111	0x3c32a030	0.0109024495
112	0x3d26738b	0.040637534
113	0x3ceba80e	0.028766658
114	0xbcf5fdab	-0.030028185
115	0xbd88e68c	-0.06684598
116	0x3d804652	0.062634125
117	0x3db87a09	0.09007651
118	0x3d091379	0.033465836
119	0x3ca236a5	0.019801447
120	0x3d9703cb	0.0737377
121	0xbd8f858a	-0.070078924
122	0xbde0938e	-0.10965644
123	0xbd7a3d9a	-0.061093904
124	0x3dfb9287	0.12283807
125	0xbd9992a1	-0.0749867
126	0xbda34743	-0.079725765
127	0xbddb60a1	-0.1071179

fc.weight f4 [30, 128]
0	0x3deeba40	0.11656618
1	0xbcfc20c2	-0.030777339
2	0xbcb0ead1	-0.021596344
3	0xbe7d7e1b	-0.24755137
4	0x3cc903f8	0.024538025
5	0x3dfce4eb	0.1234835
6	0xbbbf0a2e	-0.005830071
7	0x3ce5c0fb	0.028046122
8	0xbdcbb74b	-0.0994707
9	0xbca6c090	-0.020355493
10	0xbd1430b4	-0.03617926
11	0x3d9f5bf3	0.0778121
12	0x3acad96c	0.0015476174
13	0xbd9b7205	-0.07590107
14	0x3d612196	0.05496367
15	0x3d21cf23	0.03950418
16	0xbdec36dc	-0.11533901
17	0xbc8656c9	-0.016398804
18	0x3dc0b9f9	0.094104715
19	0xbd0e8a26	-0.034799717
20	0xbda5f258	-0.08102864
21	0xbc288152	-0.010284739
22	0x3db072dd	0.086156584
23	0xbd351abe	-0.044214956
24	0xbcdf4ee5	-0.0272593
25	0xbc887870	-0.016658992
26	0x3c6186ed	0.013765079
27	0xbc822cea	-0.015890557
28	0xbcb8b29e	-0.022546109
29	0xbe0aeabc	-0.13566107
30	0xbcec7605	-0.02886487
31	0x3caee8ec	0.0213513
32	0xbde62ee8	-0.112394154
33	0x3ca58a52	0.020207558
34	0x3def3ea9	0.11681873
35	0x3d9bcfbc	0.076079816
36	0xbd30a7d4	-0.043128803
37	0x3db96e82	0.09054281
38	0xbd5bedcc	-0.053693578
39	0x3dd77b6a	0.10521586
40	0xbba2b30d	-0.004965192
41	0x3dd9a533	0.106272124
42	0xbdf6e24e	-0.12054883
43	0xbd7625a1	-0.06009448
44	0x3ce6f38a	0.0281923
45	0xbc9477d3	-0.018123543
46	0xbc8798f2	-0.016552422
47	0xbc0e5413	-0.008687037
48	0x3c2a7cf8	0.010405771
49	0xbcd21831	-0.025646301
50	0xbdb418f8	-0.08793825
51	0xbb4db216	-0.0031386665
52	0xbb439b68	-0.0029847268
53	0x3dc45fd8	0.09588593
54	0x3b14c35a	0.0022699446
55	0x3c433934	0.011915494
56	0x3d7fa2f5	0.062411267
57	0xbd9365a9	-0.071971245
58	0x3dc138cf	0.094346635
59	0x3b852d68	0.0040642507
60	0xbdb21115	-0.086946644
61	0xbb5d2ee6	-0.0033749877
62	0x3e2bfbca	0.16795269
63	0x3cc26370	0.023729056
64	0xbc378364	-0.01120076
65	0xbcd7a137	-0.02632199
66	0xbcc1885b	-0.02362459
67	0xbd73915f	-0.05946481
68	0x3d34adb7	0.04411098
69	0xbd18d6ca	-0.037314214
70	0xbde983a8	-0.114020646
71	0x3ce6d28f	0.028176574
72	0x3d282b3c	0.041056857
73	0x3c248210	0.010040775
74	0xbdcc9b0d	-0.09990511
75	0xbd8cbc5d	-0.06871865
76	0xbdcfcdc3	-0.10146668
77	0x3df81fab	0.12115415
78	0xbd38306f	-0.044968065
79	0x3dc4715f	0.09591936
80	0x3db109b4	0.08644429
81	0xbdd9957e	-0.106242165
82	0xbcd0fa8f	-0.0255101
83	0x3dcd9852	0.100388184
84	0x3d0670c7	0.032822397
85	0xbdfa55b2	-0.12223376
86	0xbca3edcc	-0.020010851
87	0x3c848584	0.016176946
88	0x3bd24f12	0.0064181173
89	0xbdefef4b	-0.117155634
90	0xbdfcdfa5	-0.12347344
91	0xbd844575	-0.064585604
92	0xbdce44f0	-0.100717425
93	0x3db78051	0.08960021
94	0xbd1206bc	-0.035650954
95	0xbe68586c	-0.2268998
96	0x3d91fd05	0.07128338
97	0xbc7c866e	-0.01541291
98	0x3da7d00e	0.0819398
99	0x3e4ec3bd	0.20191856
100	0x3d67b4ac	0.056568787
101	0x3d47724c	0.048692986
102	0xb9bad284	-0.0003563353
103	0xbe04ca81	-0.12967874
104	0xbe02210e	-0.12707922
105	0xbdcfbedd	-0.10143826
106	0xbd933639	-0.071880765
107	0x3d5d2e75	0.053999383
108	0xbe11f564	-0.14253765
109	0x3d9e7bdd	0.07738469
110	0xbda80a84	-0.08205131
111	0x3d42d1e4	0.04756345
112	0xbdcb3f7a	-0.099242166
113	0xbc795308	-0.01521755
114	0xbd94dd01	-0.07268716
115	0xbd32dbc7	-0.043666627
116	0x3d93f7c4	0.07224992
117	0xbd9e6838	-0.07734722
118	0x3c0f7ede	0.008758275
119	0x3dd248ef	0.10267817
120	0x3e1320eb	0.14368026
121	0xbda87577	-0.0822553
122	0xbd42ca12	-0.04755599
123	0xbdc9ec20	-0.098594904
124	0x3ced1de0	0.02894491
125	0xbdd51064	-0.10403517
126	0xbc10977b	-0.008825178
127	0xbd96b8e6	-0.07359485
128	0x3d124d20	0.035718083
129	0x3ccc95ee	0.024973836
130	0x3dd4afcc	0.10385093
131	0x3e4f4107	0.2023965
132	0xbc7b4fba	-0.0153388325
133	0xbdcb5d10	-0.0992986
134	0xbdf1fd75	-0.11815921
135	0x3d6b83ab	0.057498615
136	0xbde7e819	-0.11323566
137	0xbc157a1b	-0.0091233505
138	0x3dd49398	0.10379714
139	0x3d923744	0.07139447
140	0xbd47fe04	-0.048826233
141	0x3c8fe37b	0.017564526
142	0x3c8493d3	0.01618377
143	0x3ca1b6a9	0.01974042
144	0x3cc3f1c1	0.023918988
145	0xbda0b774	-0.07847491
146	0x3d9c970c	0.076459974
147	0xbbe7b828	-0.0070715137
148	0xbd935e43	-0.07195713
149	0xbd52a3da	-0.051425792
150	0x3d1a73a6	0.037707947
151	0x3d9d08a5	0.076676644
152	0xbd2ca1c3	-0.042146455
153	0x3d3c7d22	0.046017773
154	0xbc513537	-0.012769035
155	0xbddedf2e	-0.10882412
156	0xbd16d0b5	-0.036820132
157	0xbd63e845	-0.05564143
158	0x3d376fbe	0.0447843
159	0xbd7b8ca6	-0.06141343
160	0x3c84f0d2	0.016228113
161	0x3e14707f	0.14496039
162	0x3d5bf62a	0.053701557
163	0xbcf6caa4	-0.030125923
164	0x3d44a785	0.04801132
165	0x3d77279a	0.0603405
166	0xbd98b252	-0.07455887
167	0xbcfe4965	-0.031040857
168	0xbd7981dc	-0.06091486
169	0x3d794bbc	0.06086324
170	0x3db4f786	0.08836274
171	0xbbda419e	-0.006660654
172	0x3d5eb02a	0.054367222
173	0xbdd7ed4b	-0.10543307
174	0x3da73dfc	0.081661195
175	0xbd9da0a5	-0.07696656
176	0x3d7298b9	0.05922768
177	0x3d90f4c0	0.07077932
178	0xbdb15115	-0.08658043
179	0x3e5b383c	0.2140817
180	0x3a8e5bbe	0.0010861082
181	0xbdb8099a	-0.08986206
182	0x3e0373f8	0.12837207
183	0x3a5e7138	0.0008485499
184	0xbc076549	-0.008263894
185	0xbd0026ea	-0.03128711
186	0xbe4abd3b	-0.19798748
187	0x3b6aad04	0.0035808692
188	0xbd2dbf9f	-0.042419072
189	0x3d552dbc	0.05204557
190	0xbd5ed868	-0.0544056
191	0xbd24734f	-0.04014903
192	0xbd16680c	-0.03672032
193	0x3d29624e	0.041353516
194	0x3de49e28	0.111629784
195	0x3cd85e4d	0.026412154
196	0x3c88e9b5	0.016713003
197	0x3d8ffcfd	0.070306756
198	0xbdfcaa0b	-0.123371206
199	0x3d21dab9	0.03951523
200	0x3d6ece93	0.058302473
201	0xbd65e2eb	-0.05612461
202	0x3d3c1f92	0.045928545
203	0xbcd95dd0	-0.026533991
204	0x3e0162ad	0.12635298
205	0x3e4d06bc	0.200221
206	0xbd7f940f	-0.06239706
207	0xbdaf84f0	-0.08570278
208	0x3cdedc10	0.027204543
209	0x3e296973	0.16544132
210	0xbd87001f	-0.0659182
211	0x3cb37e12	0.021910701
212	0x3d480cd5	0.048840363
213	0x3dde52e0	0.10855651
214	0x3d4797a6	0.048728608
215	0x3da3a2c5	0.0799003
216	0x3d9c8f90	0.0764457
217	0xbdd2c3b5	-0.102912344
218	0xbd76cc9b	-0.06025372
219	0xbd71478e	-0.05890613
220	0xbd875464	-0.06607893
221	0xbd629e09	-0.055326495
222	0xbdcca6a2	-0.0999272
223	0x3d3d84e9	0.04626933
224	0x3d24c129	0.040223274
225	0x3bf57502	0.007490755
226	0xbd97f474	-0.074196726
227	0xbc4b81ca	-0.012421081
228	0xbd08c96f	-0.033395227
229	0x3db7b3cf	0.08969843
230	0xbd0fd0c0	-0.03511119
231	0x3dad164c	0.084515184
232	0x3bf04330	0.007332228
233	0x3e0c1dda	0.13683262
234	0x3daeb4ee	0.08530603
235	0x3d5f8141	0.054566626
236	0xbd6cde1f	-0.05782902
237	0xbc741f07	-0.014899976
238	0x3e249f6d	0.16076441
239	0xbd9c7f38	-0.076414526
240	0x3deb0e0e	0.1147729
241	0xbca0e1d0	-0.019638926
242	0x3d367d85	0.0445533
243	0x3df418e0	0.11918807
244	0xbd8d5d0f	-0.06902515
245	0xbbc8ea25	-0.006131428
246	0xbd4d3813	-0.050102305
247	0xbdbcc00e	-0.09216319
248	0xbd019fe4	-0.031646624
249	0xbde9c7b8	-0.114150465
250	0x3df0ae1f	0.11751961
251	0xbbbbd37c	-0.005731998
252	0x3c4c6412	0.0124750305
253	0xbb68bf30	-0.0035514347
254	0x3cd99d0c	0.026564144
255	0x3dc1ab9b	0.09456559

fc.bias f4 [30]
0	0x3d3e1600	0.0464077
1	0x3d156d85	0.0364814
2	0xbd9b465c	-0.07581779
3	0x3da6fc13	0.08153548
4	0xbd22482a	-0.039619602
5	0xbd891023	-0.06692531
6	0x3e51cf62	0.20489267
7	0x3d52e613	0.051488947
8	0x3dba81fb	0.09106823
9	0x3cfce739	0.030871974
10	0x3d97f99e	0.074206576
11	0x3dc56b23	0.09639575
12	0x3da53821	0.08067346
13	0x3dbbc54d	0.091684915
14	0xbd7d2e9d	-0.061812032
15	0x3d46d41a	0.04854212
16	0xbb8e7100	-0.0043469667
17	0x3dcc5b69	0.099783726
18	0xbbd5e714	-0.006527791
19	0x3d7a750c	0.06114678
20	0x3baf9d14	0.0053593013
21	0xbd515b90	-0.05111271
22	0xbd49305b	-0.04911838
23	0xbd0bbfe4	-0.034118548
24	0x3d1afea7	0.03784051
25	0x3d948cca	0.07253416
26	0xbc124798	-0.008928202
27	0x3d886fed	0.06661973
28	0x3d82a1bd	0.063785054
29	0x3d40f746	0.04711082
