situation_analysis/best_models/model_window30_horizon5.pth (torch, 905642 bytes, 27 tensors)

adapt_adj f4 [30, 30]
00000000: 0789 713f 9930 67bd 6884 67bd e864 65bd
00000010: a7ce 5fbd fdda 60bd a3aa 61bd 8a70 60bd
00000020: b25e 5fbd 6bb5 61bd 8c5c 65bd fea0 68bd
00000030: 7cf3 69bd 9195 69bd b7fd 67bd 555f 67bd
00000040: 2663 68bd d6a9 65bd bd70 64bd afe8 64bd
00000050: c61e 64bd c691 62bd 303f 5fbd f270 5cbd
00000060: d55d 5cbd 75b5 5bbd 0ed4 5dbd 93e9 5cbd
00000070: 57ae 5bbd f322 68bd 2c7c 63bd 3ac4 713f
00000080: e9c6 63bd b3c4 61bd 5e13 5cbd be64 5dbd
00000090: bf3e 5ebd 59bc 5cbd 3f99 5bbd 21d9 5dbd
000000a0: 4841 61bd 42bd 64bd 23cf 65bd d68e 65bd
000000b0: a31e 64bd 957d 63bd e98e 64bd b2d9 61bd
000000c0: fcb3 60bd e521 61bd 2c7b 60bd 7d4b 5fbd
000000d0: c9d4 5bbd df1e 59bd 9313 59bd 1b6d 58bd
000000e0: 8bdf 5abd 80f3 59bd 91b5 58bd e5e1 64bd
000000f0: 8b91 62bd 16af 62bd 85ce 713f 7632 61bd
00000100: 8d90 5bbd 28d0 5cbd 27a7 5dbd b929 5cbd
00000110: fe2a 5bbd 524d 5dbd 84dc 60bd 072f 64bd
00000120: ce37 65bd 98a6 64bd a810 63bd 6a6d 62bd
00000130: 84a1 63bd 8f33 61bd b406 60bd e375 60bd
00000140: 6ab4 5fbd 33c6 5ebd a143 5bbd c79b 58bd
00000150: 4f98 58bd 7726 58bd a337 5abd 28b7 59bd
00000160: ed57 58bd 14a6 64bd 5ca9 62bd 4cf3 62bd
00000170: 246a 63bd 18e2 713f 420d 5cbd 8810 5dbd
00000180: 03db 5dbd 3167 5cbd b282 5bbd d7c4 5dbd
00000190: 0e54 61bd 77b4 64bd 28f4 65bd b57c 65bd
000001a0: c5f5 63bd baef 62bd 55c4 63bd 5545 61bd
000001b0: 4e75 60bd a104 61bd c132 60bd f3fc 5ebd
000001c0: 7fb0 5bbd 5cef 58bd 6aea 58bd 6664 58bd
000001d0: 63da 5abd ec1c 5abd 8e1f 59bd c770 65bd
000001e0: 45a4 66bd ccba 66bd 7477 67bd 8477 65bd
000001f0: f4fc 713f 1131 61bd 58b9 61bd 6f31 60bd
00000200: 7a42 5fbd b072 61bd bfe1 64bd 654d 68bd
00000210: fa48 69bd d8c4 68bd 3a42 67bd 9f66 66bd
00000220: dae6 66bd 8cee 63bd 30bf 62bd c423 63bd
00000230: e838 62bd 3ecd 60bd ea5c 5dbd a491 5abd
00000240: 1877 5abd a6fb 59bd 5206 5cbd e3fa 5abd
00000250: 82d7 59bd 1557 66bd f27a 66bd cae2 66bd
00000260: 548a 67bd 5491 65bd 7d55 60bd 32e4 713f
00000270: 014d 62bd 959f 60bd 61a8 5fbd 69ab 61bd
00000280: 010e 65bd 8e8d 68bd 1996 69bd b032 69bd
00000290: 85b8 67bd f3e6 66bd 228e 67bd a2b5 64bd
000002a0: 094c 63bd 00f3 63bd 7d47 63bd 4af6 61bd
000002b0: 6889 5ebd a7b0 5bbd e7b8 5bbd 7f5e 5bbd
000002c0: bd9a 5dbd b191 5cbd 585a 5bbd 920b 68bd
000002d0: 4cc8 64bd ee1c 65bd 74c7 65bd f7d1 63bd
000002e0: 7150 5ebd 2592 5fbd 57fb 713f 1969 5ebd
000002f0: 201f 5dbd 4b63 5fbd b5f2 62bd 2f87 66bd
00000300: 459a 67bd 4da2 67bd 0670 66bd dec3 65bd
00000310: 3b54 66bd 6786 63bd 9043 62bd efce 62bd
00000320: bf73 62bd 2f62 61bd d7db 5dbd 870f 5bbd
00000330: f35f 5bbd b903 5bbd 2281 5dbd fa9e 5cbd
00000340: 1d3d 5bbd 52eb 67bd c43d 64bd 6091 64bd
00000350: b62e 65bd e364 63bd 7cc6 5dbd 2f21 5fbd
00000360: 5769 5fbd 741f 723f 9edd 5cbd 7ec5 5ebd
00000370: d609 62bd 9cac 65bd 77f0 66bd 53e0 66bd
00000380: 44bb 65bd e9df 64bd a07a 65bd 198f 62bd
00000390: b93a 61bd c2b9 61bd a00a 61bd 510a 60bd
000003a0: a98f 5cbd fed8 59bd 24de 59bd c37e 59bd
000003b0: 9900 5cbd 674a 5bbd f408 5abd 198a 66bd
000003c0: 4a59 63bd 85d7 63bd 3d9f 64bd 8fff 62bd
000003d0: 9151 5dbd cd7b 5ebd e6f8 5ebd fa32 5dbd
000003e0: c03e 723f c617 5ebd 7d71 61bd 62cc 64bd
000003f0: 373a 66bd a13c 66bd 26f7 64bd e540 64bd
0.9434971 -0.05644283 -0.056522757 -0.056004435 -0.05464044 -0.054896343 -0.055094372 -0.054794826
-0.054533668 -0.055104654 -0.055996463 -0.05679416 -0.05711697 -0.057027403 -0.056638446 -0.0564874
-0.05673518 -0.05607017 -0.055771578 -0.055885967 -0.05569341 -0.0553148 -0.05450362 -0.05381865
-0.053800423 -0.053639848 -0.05415731 -0.05393369 -0.05363306 -0.056673955 -0.05553834 0.9444004
-0.055609617 -0.055119228 -0.053729407 -0.054051153 -0.054259058 -0.05389056 -0.053612944 -0.05416215
-0.054993898 -0.055844553 -0.056105744 -0.056044422 -0.05569328 -0.055539686 -0.055800352 -0.05513925
-0.054859146 -0.054963965 -0.054804966 -0.05451535 -0.053669725 -0.053007957 -0.052997183 -0.052838426
-0.053435843 -0.053210735 -0.05290753 -0.055879492 -0.05531458 -0.055342756 0.9445575 -0.054979764
-0.05360465 -0.05390945 -0.054114487 -0.053750727 -0.053507797 -0.054028817 -0.0548978 -0.05570891
-0.055961423 -0.05582294 -0.055435807 -0.055280127 -0.055573955 -0.05498081 -0.054693893 -0.054799926
-0.054615416 -0.054388236 -0.053531293 -0.052882936 -0.052879628 -0.052771058 -0.053275716 -0.053153187
-0.052818228 -0.055822447 -0.055337295 -0.055407807 -0.055521145 0.94485617 -0.05372358 -0.053970844
-0.054163944 -0.05380935 -0.053591438 -0.0541428 -0.0550118 -0.055836167 -0.05614105 -0.056027133
-0.055654306 -0.055404402 -0.05560716 -0.05499776 -0.05479937 -0.054936055 -0.054735903 -0.05444045
-0.053635117 -0.052962646 -0.05295793 -0.052830122 -0.053430926 -0.05325024 -0.05300861 -0.056015756
-0.056309003 -0.056330487 -0.056510404 -0.056022182 0.945266 -0.054978434 -0.0551084 -0.054734644
-0.054506756 -0.055041015 -0.05587935 -0.056714434 -0.05695436 -0.05682835 -0.056459643 -0.05625021
-0.0563725 -0.055647418 -0.05535811 -0.05545403 -0.05523005 -0.054883234 -0.054043688 -0.05336155
-0.053336233 -0.053218506 -0.053716965 -0.05346192 -0.05318404 -0.05623539 -0.056269594 -0.056368627
-0.056528404 -0.0560468 -0.054769028 0.94488823 -0.055249218 -0.05483969 -0.054603938 -0.05509511
-0.05592156 -0.056775622 -0.05702791 -0.056933105 -0.056572456 -0.056372594 -0.056532033 -0.05583728
-0.055492435 -0.055651665 -0.0554881 -0.05516652 -0.05433026 -0.053635266 -0.053643133 -0.053556915
-0.054102648 -0.05384988 -0.053552955 -0.05665166 -0.05585508 -0.055935793 -0.056098416 -0.05562016
-0.054275934 -0.054582734 0.9452414 -0.054299448 -0.05398476 -0.054538053 -0.055407245 -0.056281265
-0.056543607 -0.056551266 -0.056259178 -0.056094997 -0.056232672 -0.055548098 -0.055240214 -0.05537313
-0.055286165 -0.055025276 -0.054164734 -0.053481605 -0.0535583 -0.053470347 -0.05407823 -0.05386255
-0.05352508 -0.056620903 -0.055722967 -0.055802703 -0.05595275 -0.055516135 -0.054144368 -0.054475006
-0.05454382 0.94579244 -0.053922288 -0.054387562 -0.05518516 -0.056072816 -0.05638167 -0.056366276
-0.056086794 -0.0558776 -0.056025147 -0.05531225 -0.054987643 -0.055108793 -0.054941773 -0.05469734
-0.053847943 -0.053185456 -0.053190365 -0.053099405 -0.053711507 -0.053537752 -0.053231195 -0.056284044
-0.055505075 -0.055625457 -0.055815924 -0.0554195 -0.054032866 -0.054317284 -0.054436587 -0.054003693
0.94627 -0.05422189 -0.05503987 -0.055858977 -0.05620786 -0.056210164 -0.05589976 -0.05572595

gc1.fc.weight f4 [128, 30]
00000000: 5a8a ce3c d8d2 38be cda4 de3d 590e d9bd
00000010: e1b5 913c 2597 3b3c bd0c 7c3d 915d d53d
00000020: 0540 cebd 32d5 febd 8580 9ebd ad56 cd3d
00000030: 32d5 9a3d 0422 163d c769 3dbb 23a2 263d
00000040: a625 28bc 1591 573d ee0c da3d 1c21 f0bc
00000050: df1a 423c 89a2 19be cc31 1ebb 80b0 af3d
00000060: 6543 373d 63ec 7d3b b03f 4f3d 2a90 d4bb
00000070: fe56 c3bc d8e5 283e eca5 09bd fe82 533d
00000080: 3b04 01be de40 3abe 6752 e7bd 6f95 d23d
00000090: d36c 1cbe e704 763e e05e e9bd e079 953c
000000a0: b28f 13bd 34e1 e5bd a3b8 ce3d ade9 ac3d
000000b0: 2426 91bd 0b7d c73d b0b5 453e 2d7a ff3c
000000c0: 7293 04bd 61b1 143e da99 fe3d 1ad9 223e
000000d0: ba8c 453e f096 853d acb5 a7bc 76d1 ed3d
000000e0: 81cc 573e 8507 373e 5e09 c53b 68cb 9b3d
000000f0: 47ba bf3d 2132 793b b84c 3abe 411e 1e3d
00000100: d3ec a43d ed29 76be b31e 02bd 4405 11be
00000110: 7f8e 9c3d 95f3 07be 568b e43d de2a 60bc
00000120: 6610 463d de1c 41bc cbf6 623d c4b7 0c3e
00000130: fde9 abbd 717a 57bd 6650 da3b c441 90bc
00000140: 6a23 a33d 8936 9abc c828 f73d ea48 2c3e
00000150: d3b4 68bd edd3 033d 4884 0abe c46e 33bc
00000160: 9ced c63d 7c0b bdbc 6f93 69bc f771 073e
00000170: ff66 903d 1746 adbc 9a3a 12bd c288 49be
00000180: 527c 91ba 722e 25be b76c dfbc 8618 c5bd
00000190: 09c0 bdbd c7da b43c d051 183e 3693 c3bc
000001a0: eefe 353d 5211 ff3d 34cd 933d cf69 b43d
000001b0: f724 733d 4b03 c6bd 3821 07be f346 8dbd
000001c0: dd5e bb3a df9b ebba 5948 2abe 129a eabd
000001d0: 8ff3 353e 7320 cbbd 854c 49bd a1e6 bdbb
000001e0: 2ca6 633d 6a2d a03d ea88 923c a5b2 35be
000001f0: a6d1 b93c 1c8b d83d 77ba ebbd 95b0 03be
00000200: f994 1abe 4c51 e63c d6c4 06be 4a05 23be
00000210: 3bb4 c83d ba1e b5bd 21a0 28bc 6531 dd3d
00000220: 4418 cabc 2120 1f3d b281 5cbd e75f 11be
00000230: 34ab 97bc 5298 03be c770 54be 1f01 183e
00000240: 44a3 9f3d ebd5 783d 93bc c6bd 735d d2bd
00000250: 1aa2 93bd eb53 263e 3540 8ebc 170e 34be
00000260: 6476 bd3d afa7 e1bc b821 d83c 77ff 333e
00000270: 5642 fc3c d528 173e 30d7 c3bb 34b8 a63d
00000280: d0f9 aabd c99f 803d 27e8 0fbe 246f a8bd
00000290: 1108 31bd 1eea c7bd 24a6 c13d ae39 46be
000002a0: b033 e33a 0d43 a93d 48dd 42be 5630 f63d
000002b0: 9d6d ecbd 0813 59be 5a4f 0b3e 0101 093e
000002c0: 682d a1bd b033 4e3c ebaf 9bbc 7d2d 07be
000002d0: 8253 bcbd 1870 ae3b b099 cbbc b74e 25be
000002e0: bae6 063d 8e5f 46bd 3952 10be 5d16 42be
000002f0: 4ca4 d03d 9523 07be be7e de3a 7755 51be
00000300: 8d19 83bd 3f5a c2bc 4f31 fd3d d900 debc
00000310: e15b 0cbe d6e4 a43c fd0a 65bd 1286 623d
00000320: 6a61 5e3d b47d aabd 2cf5 97bd 0c5e c3bd
00000330: 0873 bcbd cb54 6bbd 64cf 43bd 23d3 c2bd
00000340: d68b 203e 5bef 50be 1ad7 e5bd cbc0 02be
00000350: 7e10 2a3e 61ce 52bc d1c0 253e 6683 8aba
00000360: c931 693c 1864 17be 5cd3 47be bd09 88bd
00000370: b1c6 01be 7583 cc3d 79af 5ebd 6049 a83d
00000380: 55b1 ec3d 0fe3 d33b 5bf4 013e 1420 d13d
00000390: c189 b43d 3fbf 0c3e ea8e 633d e071 7ebd
000003a0: c023 583e 75fa b5bd 7984 a8bd 9d51 eabd
000003b0: b36c a9bc bc59 2a3e 3b97 abbd 6717 da3d
000003c0: a531 4f3e 67e8 fd3d 584c e1bc 2192 c0bb
000003d0: 0e62 ad3d 1f62 65bd 9f2e 36be 35bd 7cbe
000003e0: ae52 2abd ec6c 90bd 38ca b2bb fecb 60be
000003f0: d918 b33d ab05 0b3e ab16 073e 443c 5bbd
0.025212456 -0.1804918 0.10871277 -0.1059844 0.017786922 0.01144961 0.061535586 0.10418237
-0.100708045 -0.124430075 -0.07739357 0.10026298 0.07560195 0.036653534 -0.002890216 0.04068197
-0.010262882 0.052628595 0.106469974 -0.029312663 0.011847227 -0.15003408 -0.0024138568 0.085785866
0.044742007 0.0038745634 0.050597847 -0.0064869123 -0.023845192 0.16493928 -0.0336055 0.051638596
-0.1259927 -0.18188807 -0.11295014 0.102824084 -0.15275888 0.24025308 -0.11395049 0.018246591
-0.03602571 -0.11224595 0.100938104 0.084430076 -0.07087353 0.09740647 0.1930759 0.031186188
-0.032367177 0.1452079 0.124316886 0.1590313 0.19291964 0.0652293 -0.02047237 0.11612217
0.21074106 0.17873962 0.0060130795 0.07607156 0.093617015 0.0038024264 -0.18193328 0.03860307
0.08052983 -0.24039431 -0.03176756 -0.14162165 0.076443665 -0.13276513 0.11159389 -0.013682095
0.048355483 -0.011786668 0.05541114 0.13741976 -0.08394239 -0.052607004 0.0066624163 -0.017609484
0.07965739 -0.018824833 0.12068325 0.1682469 -0.056813072 0.03218453 -0.13527024 -0.010951702
0.09713289 -0.023076765 -0.014256342 0.13227068 0.07050895 -0.021151586 -0.035700418 -0.19681075
-0.0011099672 -0.16130999 -0.027273519 -0.09623818 -0.092651434 0.022076977 0.14874959 -0.023873907
0.044432573 0.124544755 0.07216874 0.08809244 0.059361424 -0.09668597 -0.13196266 -0.06898298
0.0014295239 -0.001797553 -0.16629161 -0.11455168 0.17768691 -0.099182986 -0.04914524 -0.0057953154
0.055578396 0.07821162 0.017887551 -0.17743929 0.022682976 0.10573408 -0.11510175 -0.1286033
-0.15095891 0.028114937 -0.13161024 -0.15919986 0.09800001 -0.08843751 -0.010292084 0.10800437
-0.024669774 0.038849 -0.053834625 -0.1419674 -0.018514253 -0.12851074 -0.20746146 0.14844178
0.07794812 0.060750883 -0.097039364 -0.1027173 -0.07208653 0.1624295 -0.0173646 -0.175835
0.09251097 -0.027545778 0.026383266 0.17577921 0.03079335 0.1476167 -0.00597658 0.08140603
-0.08348429 0.062804766 -0.14053403 -0.082243234 -0.043220583 -0.09761451 0.09455517 -0.1935794
0.001733413 0.08264742 -0.19029725 0.12020938 -0.115443446 -0.21198666 0.13604489 0.13379289
-0.07869989 0.012585565 -0.019004783 -0.13200946 -0.09195615 0.005323421 -0.024853557 -0.16143309
0.03293488 -0.04843097 -0.14093865 -0.18953843 0.10187587 -0.13197167 0.0016975028 -0.20442759
-0.06401358 -0.023724673 0.123629205 -0.027100014 -0.13706924 0.020128649 -0.055918682 0.05530364
0.05429212 -0.08324757 -0.0741981 -0.095394224 -0.09201628 -0.05745391 -0.047805205 -0.095129274
0.15678343 -0.20403807 -0.11222668 -0.12768857 0.16607854 -0.012866587 0.16186835 -0.0010567724
0.014233061 -0.14784276 -0.19514221 -0.066424824 -0.12673451 0.09986011 -0.054366563 0.0821712
0.11557261 0.0064662765 0.1269087 0.102111965 0.08815337 0.1374483 0.055556215 -0.06212032
0.21107388 -0.088856615 -0.08228392 -0.11441348 -0.020681715 0.16635793 -0.08378454 0.10648995
0.20233782 0.12397843 -0.027502224 -0.005876795 0.08465968 -0.05600178 -0.17791222 -0.24681552
-0.041582756 -0.07052025 -0.0054562353 -0.21952817 0.08744974 0.13576381 0.13192241 -0.05352427

gc1.fc.bias f4 [128]
00000000: 3cd6 bd3c 303b fabd 1504 07be c496 8bbe
00000010: 6d9c 99bc f465 363c d089 ca39 662d 85be
00000020: 2c30 343e fb33 4cbe bccb 0d3e 7a18 52be
00000030: 248c 58bd 1e4b 11be 790e 85bc d041 183d
00000040: ef03 273e deef 1f3e 4a56 29be 1b20 9f3d
00000050: 205b 283e 4632 8fbc 180b a63d 53c8 1a3e
00000060: 45df 2cbd ccb5 1c3e 573c 0cbe 2080 6a3c
00000070: 7674 06bd b938 b1bc 608f 9e3d 5c20 cabd
00000080: e27c 62be 5320 1bbe 16b1 0c3e 25b0 54be
00000090: e112 3f3d 3197 3c3d 6f2f f4bd 0e77 6c3e
000000a0: 97cf 15be fc07 203e 9a33 67be 83f6 38be
000000b0: bc27 f4bd 6eea c33d c132 193e 9555 863d
000000c0: ca1b 6bbe 42db d23c 9c60 163e 2427 a9bd
000000d0: 50be 7bbe 5dd5 733d 12c0 c9bd c1dc 173e
000000e0: 1838 e7bb f834 13bc cffb 66be f43c d33d
000000f0: 9b2a 463d d236 d23d 3046 0c3e 95e4 ae3d
00000100: 85ca 4dbe 8811 d43c 420e e1bd 27d6 103b
00000110: cf09 563d ce16 61bd bd77 9abd bfa8 8cbd
00000120: 6a01 a7bd a2e4 483a fccd cf3d bf50 8ebe
00000130: 3725 51bd e2e6 603e 5d63 323e 979f 15bd
00000140: d705 8abc 6ec6 423d 975c 3abd 4b35 653e
00000150: 32aa 21be 6d63 efbd 4c40 46be 9bef ca3d
00000160: 60dd 8bbd 26f6 ea3c 2dc2 4d3e 4f1f e5ba
00000170: 8701 88bd 4563 bcbd 10aa 163e 285b 6e3d
00000180: 032f b43d 0e95 62be ce43 1ebe 12ba e0bc
00000190: d6d4 113d 799d 563d d9dd 3cbe 3316 073e
000001a0: a0d1 02bd 8a67 ab3d e65f 09be 9456 b6bd
000001b0: 611a 88be 4f42 c33d 7d82 1bbe 1870 14bb
000001c0: ab7c f3bb 5746 193d c776 1abd 6d60 c5bc
000001d0: 45a5 6bbd 2848 4f3e b29e debd d011 8ebd
000001e0: 8d0e aebd 6bf3 3ebd 0262 d3bd 966b 393d
000001f0: ea54 3ebe b534 6ebe 0eb5 38be 6781 1fbe
0.023173444 -0.1221832 -0.13185151 -0.27263463 -0.018751347 0.011132706 0.0003863112 -0.260112
0.17596501 -0.19941704 0.1384725 -0.2051715 -0.052868024 -0.14188811 -0.016242253 0.03717214
0.16310094 0.15618846 -0.16536823 0.077697955 0.16441011 -0.017480027 0.08107585 0.1511548
-0.042205114 0.15303725 -0.13694893 0.014312774 -0.03282591 -0.021633493 0.0774219 -0.09869453
-0.22117952 -0.1514905 0.13739428 -0.20770319 0.046648864 0.046042625 -0.1192311 0.23092291
-0.1462997 0.15628046 -0.22578278 -0.18062787 -0.11921641 0.09566198 0.14960767 0.06559292
-0.2295982 0.025739316 0.14685291 -0.082594186 -0.24584317 0.05952965 -0.09851088 0.14830305
-0.0070562474 -0.008984797 -0.22556995 0.1031436 0.048380475 0.102643624 0.1369865 0.08539692
-0.20096786 0.025887266 -0.109890476 0.00221003 0.052255448 -0.05495339 -0.075423695 -0.06868123
-0.081545666 0.00076634635 0.1014671 -0.2779598 -0.05106088 0.21963075 0.17420717 -0.03652915
-0.016848488 0.04755252 -0.045498457 0.22383611 -0.1578758 -0.11688886 -0.19360465 0.09908982
-0.06829333 0.028681826 0.20093603 -0.0017480644 -0.06640916 -0.09198622 0.14713311 0.058192402
0.08798029 -0.22127172 -0.15455553 -0.027432475 0.035603367 0.05239627 -0.18444003 0.13192062
-0.031938195 0.08369358 -0.13415489 -0.08903232 -0.26582626 0.09534132 -0.15186496 -0.002264982
-0.007430633 0.037420597 -0.03771093 -0.024093831 -0.05753066 0.20242369 -0.108701125 -0.06936991
-0.08498869 -0.04661886 -0.10321428 0.045268618 -0.1858708 -0.23262294 -0.18037817 -0.15576707

gc2.fc.weight f4 [128, 128]
00000000: 4cd1 253c 683a 0dbd 7dcf f6bd 641b 19be
00000010: ff12 e2bc 4630 05be ab0e 4a3d ddcf 4bbc
00000020: c2f0 86bd 688e e8bd 7048 813c 7ab4 f5bd
00000030: 92ad eebc 1f3c 37bd c358 30bd 3da5 18bd
00000040: 9599 f93b 8cb0 933b 7a61 80bd 6c4b 9bbc
00000050: ff00 9cbd 0938 4abd cfd2 00bd f2f3 f7b9
00000060: febb b3bd 8157 d5bd 45ad 203d 32d8 8b3d
00000070: b5bf 0d3b b53c 8f3c 4f18 013d 25f7 843d
00000080: 6eda 99bd 491d a13c 4abf 943c eebf 36be
00000090: ada7 173d 6daf c3bd ffae 0bbe 1239 eabd
000000a0: d9f6 35bd 123d dd3d c89c 89bd 8c15 06bd
000000b0: 73ac 063d 864f 0bbd 2aaf aebd c30a 483d
000000c0: 1ed5 ef3c 5bf2 04bd 4432 9ebd bdea 9abc
000000d0: fa7d 80bd 66e6 293c b1b1 92bd 7570 12bb
000000e0: b231 f4bc 0c0b 103c e08a 6fbd cd8c 0dbe
000000f0: d7e7 ecbd 9c27 2bbe fc34 73bd 4149 ffbc
00000100: 67f8 943d 0bf0 6a3d 1862 c83c 65df 423c
00000110: 9cff 843d 715a 37be b79f 7fbd cf89 ea3d
00000120: 84df 9abd 2456 dbbd cf58 c0bd ad02 a13c
00000130: 7e46 b1bd 5672 bfbd 93b4 b4bd b969 06be
00000140: 5780 b93c adf8 0a3d c446 2d3c ef02 3339
00000150: 990f 943d a5a1 c2bc af05 73bd 93f5 e6bd
00000160: 7a39 ef3c 419f 0d3d 6a35 3abd 0fa1 34bc
00000170: 71a4 843c fc43 4bbd 648a 20bd a1ae e9bd
00000180: 6ba3 1f3d 4449 1abe 1e55 74bd 0736 bcbd
00000190: ca3e 403c 7f75 17be cef8 babd 3328 d0bc
000001a0: 045e 70bd 5f44 7ebd 48bf c0bd 68b6 1cbc
000001b0: 296f f33c 05f9 a3bd 7be8 e1bd a57a 91bc
000001c0: 12bf 9d3c 9802 13be c474 00be 8632 25bc
000001d0: 50a4 913c 8b78 3abd e14e d4bd f13f e53b
000001e0: 8a15 4ebe 5ab1 d2bc 9e65 04be 599e 04be
000001f0: b041 513d f678 ccbd 01dc 083e a8b3 9abc
00000200: 9b52 743c 75ea 13bc 75da c23c d4d2 163c
00000210: a8da cd3c 3d7d b9bd 3c39 c1bd 5ab7 d43d
00000220: c091 3e3c c5bb 063d 7bda 8d3d 1a3f 6f3d
00000230: c261 33bc b73f 3fbd 7873 3fbd d75d 9dbd
00000240: 56e7 87bd d4f2 c0bd 5739 0bbc 59c6 aa3d
00000250: 07ec d33c c7d4 57bb 377f e3bd 87f4 7cbd
00000260: eb56 94bb 83ef 653d 3bbe 8bbd a272 b9bd
00000270: b2dc f7bc c262 6fbc f76b 303d c996 393d
00000280: 4b59 10be 5854 acbd 3ad5 6fbc b2b8 0b3d
00000290: 68b6 073e ac13 ba3c 3f72 483c 179a 043c
000002a0: a1db 23be 5ad4 dcbd d3d0 423d 718d c5bd
000002b0: 1f9d 10be b2eb 2bbd f8c8 5f3d cf4f ba3c
000002c0: 5e3d 13bd 108f 88bd c46c a23d 5f65 0d3b
000002d0: 4b1a d6ba d79f 973c 4001 bdbc 23fb 483d
000002e0: 37cf 8f3d 3e21 adbd d3a6 983c afd2 163d
000002f0: 211f 3fbd 542b 403b ad77 a1bc 880e 91bd
00000300: b19a bc3d 2f89 313c 4d25 543d a00f 94bd
00000310: 1429 57bd d799 6d3d d645 ce3c 78e6 e43d
00000320: 78d0 b93d 35ac a6bd c223 e4bd 1fc3 4b3c
00000330: 065e 2dbd d8ee 28be 7d81 803d 2008 35bb
00000340: b064 32bd 33d9 f1bd 5a1f a33d d1cc 9a3d
00000350: 05d0 353d 5c64 39bc cf37 313e ce97 0f3d
00000360: 9cc9 35bc d78f 843c 9946 fdbd 2b45 9f3c
00000370: 1c3c 6fbc 99c1 b33d 9ca8 62bd b2d6 1f3d
00000380: 061b e8bd f881 913d c568 f9bd 8472 6cbd
00000390: 985a b83d 3fba acbc 7d24 bbbd 75bb 0dbe
000003a0: 7a7b 65bd b676 09bc adf9 8bbd 8dda cfbd
000003b0: e881 633c cdee c1bc 5e87 4ebd ec3b 56bd
000003c0: 0637 b7bd bbca cc3b 26c3 73bd 7278 8bbc
000003d0: 0ecb dcbd bc91 27bc ae4d f4bc 90e3 943d
000003e0: 6bd9 173d 9916 14bd cf63 6f3c 825f 3bbd
000003f0: 83cd 613c 2eec fdbc 6bfd 87bc 3e08 64bd
0.010120701 -0.03447953 -0.12051294 -0.14951855 -0.027596949 -0.13006696 0.049330395 -0.012439695
-0.0658889 -0.11355287 0.015781611 -0.11997314 -0.0291355 -0.04473507 -0.0430534 -0.03726696
0.0076171854 0.00450713 -0.06268592 -0.018956862 -0.076173775 -0.049369846 -0.031451043 -0.00047293265
-0.08776091 -0.10417081 0.039227743 0.06828345 0.002162916 0.017485002 0.031517323 0.064924516
-0.07512365 0.019667285 0.01815762 -0.17846653 0.037025142 -0.09554944 -0.13640974 -0.114366665
-0.044424865 0.10802664 -0.06719357 -0.032735392 0.032879304 -0.034011386 -0.08529504 0.04883839
0.029276427 -0.03245769 -0.07724431 -0.01891076 -0.06274028 0.010369873 -0.07162798 -0.0022344862
-0.029808853 0.008791696 -0.05848205 -0.13823242 -0.115676574 -0.16714329 -0.0593767 -0.03116286
0.072739415 0.05735783 0.024460837 0.011894082 0.06494066 -0.17905594 -0.062408175 0.11452066
-0.075621635 -0.107097894 -0.09391939 0.019654596 -0.086560234 -0.0934798 -0.08823504 -0.13126267
0.022644205 0.033928562 0.010575954 0.00017071863 0.072295375 -0.023758719 -0.059331592 -0.11277308
0.029202212 0.034575704 -0.045461096 -0.0110247275 0.016191693 -0.04962538 -0.03919448 -0.11410261
0.038974207 -0.15067011 -0.059651487 -0.091899924 0.01173372 -0.14790915 -0.09129487 -0.025409793
-0.05868341 -0.062076923 -0.09411484 -0.009564973 0.029716091 -0.08006481 -0.1103067 -0.017758677
0.019256148 -0.14356458 -0.12544543 -0.0100828465 0.017778546 -0.045525115 -0.103666075 0.006996148
-0.20125404 -0.025719333 -0.12929389 -0.1295103 0.051088035 -0.09984009 0.13365175 -0.018884495
0.014912273 -0.009028067 0.023785809 0.009205539 0.025128677 -0.090570904 -0.09434745 0.10386534
0.011631429 0.032893915 0.069264375 0.058409788 -0.0109486 -0.046691623 -0.04674098 -0.07683914
-0.06635921 -0.09421316 -0.008497558 0.08338613 0.025869383 -0.0032933222 -0.11108249 -0.061756637
-0.004526963 0.05613662 -0.06823393 -0.090550676 -0.030256603 -0.014610948 0.043071713 0.045309816
-0.14096563 -0.08414525 -0.0146382395 0.034111686 0.13253176 0.022714458 0.01223427 0.0080933785
-0.1600175 -0.1078269 0.04756243 -0.096461184 -0.14122437 -0.041972823 0.054635018 0.022743134
-0.035947196 -0.06667912 0.07930902 0.0021575314 -0.001633474 0.018508835 -0.023071885 0.049067628
0.07021945 -0.08453606 0.018634235 0.036822017 -0.046660546 0.00293227 -0.019710386 -0.0708285
0.092091925 0.01083593 0.051793385 -0.07229543 -0.05252941 0.05800804 0.025179785 0.11176771
0.090729654 -0.08138315 -0.11139633 0.012436657 -0.042325996 -0.16497362 0.06274698 -0.002762325
-0.043553054 -0.118090056 0.07964964 0.07558597 0.044387836 -0.011315431 0.17306446 0.03505688
-0.011095431 0.01618187 -0.12366981 0.019442162 -0.014601734 0.0877716 -0.05533658 0.03902311
-0.11333279 0.07104868 -0.12178186 -0.057726398 0.090016544 -0.021084903 -0.09137819 -0.1384104
-0.05602596 -0.008390119 -0.06834731 -0.10149107 0.0138859525 -0.02367344 -0.050422065 -0.05230324
-0.08946042 0.0062497533 -0.05951228 -0.017025206 -0.10780917 -0.010227617 -0.029822197 0.072699666
0.03707258 -0.036154363 0.014611199 -0.04574538 0.013781908 -0.030996408 -0.016600331 -0.055671923

gc2.fc.bias f4 [128]
00000000: d6d8 113b 5203 fe3c 2a74 52bd 1815 7bbd
00000010: 30a3 87bd e7d8 7a3d b99f e7bd 867b 043c
00000020: da46 623d a022 57bd 5dbf afbc fafb 61bd
00000030: 5897 14be c225 c1bd 134c 8dbd 4261 103c
00000040: 27a8 9dbd 22c3 743d 5b7e e2bd d8bf e9bc
00000050: 478e 683d cb67 23bb 00f7 8abd 32b6 5f3c
00000060: 60ec f7bc b628 e93c d745 c33d 7e7a 8fbd
00000070: 36ae abbd 4e11 e3bd 46dc 7ebd 7851 d53c
00000080: 06b9 493d de80 9ebd f4e0 5b3d 2981 31be
00000090: 4ad9 abbc 419c 0abe c540 8cbd bb4a 443d
000000a0: e40c 123d d684 20be 6ae2 adbc 9cca 43bd
000000b0: 15bf da3d 4ae7 84bb 43d6 1b3d 6005 083d
000000c0: a49e e2bc 582f 9bbc c6f8 3bbb 96b1 45bc
000000d0: 116e 1cba d68c 4fbe f846 fbbc d6a8 ebbc
000000e0: 7046 b0bd f544 20be 357d 02bd 3cc0 053d
000000f0: b726 d43d 1e16 a13d 1f79 36bd 3865 2bbd
00000100: ce72 9bbd 9ee0 093d fd51 2dbd 8197 993d
00000110: a004 08bd d60c a73b 2eda 883d ff76 903c
00000120: a333 2bbd 6621 2d3d f342 71bd c217 ca3d
00000130: 221e c2bb bf19 1abd f191 a2bc d721 18bd
00000140: 293c 2fbe 752a 8e3c b1bc 4abd 7f16 8ebd
00000150: 6102 c93d a30f 5c3d e7f7 e1bc e2e3 68bc
00000160: 1c34 623b 69e6 0dbe c1a7 0e3c 0ce7 313d
00000170: a812 92bc 9310 28bd 5774 a1bd fd8b 5dbd
00000180: e4c6 63bc 5319 3abc 8d31 113d 3d93 21bd
00000190: 3739 7fbd e091 35bd edc7 3fbb 34e2 e2bc
000001a0: 5406 15be 6ff8 b83c 1ac9 053b 51d5 9cbd
000001b0: 9c7f 4b3d 5bbb 4dbd 7546 153d 3d77 063e
000001c0: 6dce 3c3d 808b 93bd 351e be3c 62bc b2bc
000001d0: 3706 823a c829 e5bc 846c ca3d 70c0 6c3d
000001e0: cc0e ae3c 1f2f 45bd 5dd9 a33c ad97 94bc
000001f0: b9ee 44be 3d4b 8dbd ae35 40bd 1a20 483b
0.0022254488 0.031007443 -0.051380314 -0.061299413 -0.066229224 0.06124201 -0.113097616 0.008086091
0.05524335 -0.052523255 -0.021453554 -0.055171944 -0.14510858 -0.0943103 -0.06899276 0.008812251
-0.07698088 0.059756406 -0.11059257 -0.028533861 0.05677631 -0.0024933692 -0.06785393 0.013654279
-0.03026408 0.028461795 0.09534805 -0.070057854 -0.083828375 -0.11087285 -0.062221788 0.026039824
0.049248718 -0.07739423 0.05368133 -0.17334427 -0.020977635 -0.13536169 -0.06848291 0.04792283
0.035656825 -0.15675673 -0.021226127 -0.047800645 0.10680977 -0.004055892 0.038046133 0.03320825
-0.027663536 -0.018943474 -0.0028682216 -0.012066266 -0.0005967329 -0.20268568 -0.030673489 -0.02876703
-0.08607185 -0.15651305 -0.031857688 0.032654032 0.10358947 0.07865547 -0.044549104 -0.041844577
-0.07590257 0.033661477 -0.04231452 0.074996 -0.033207536 0.0050979657 0.066822395 0.017634867
-0.04179729 0.04226818 -0.05890174 0.09867813 -0.0059240023 -0.03762221 -0.01984498 -0.037141647
-0.17112793 0.01735423 -0.049496356 -0.069378845 0.09814907 0.05372585 -0.02758403 -0.014214488
0.0034515923 -0.13857426 0.008706988 0.043433234 -0.017831162 -0.04103143 -0.07883518 -0.05408858
-0.0139024 -0.011358577 0.035447646 -0.039447058 -0.062310424 -0.04432857 -0.0029263452 -0.027695753
-0.14553195 0.0225794 0.0020414055 -0.076578744 0.049682245 -0.050227504 0.036444146 0.13131423
0.0460953 -0.07204342 0.023207763 -0.021818344 0.0009920065 -0.027974024 0.09883979 0.05780071
0.02124729 -0.04814064 0.020001108 -0.01813873 -0.1923169 -0.06899116 -0.046926193 0.0030536712

temporal_conv.weight f4 [128, 128, 3]
00000000: 3a8e b6bd 5f92 bebd a9b0 e33c 21ed 8abd
00000010: 3942 f8bd 796b 923c 5d6d c3bb 7700 59bd
00000020: 519c 8f3c f5ef 8c3d 85ea bb3d c751 1e3d
00000030: bf09 61bc 493b 2abd 9e6d 9f3c f973 7a3d
00000040: e1fe 9d3c 3ed3 023d b4b9 3d3d 2ccd fc3c
00000050: bcc1 e1bc a4a4 c83d a1cb d83d 12c5 29bc
00000060: b1ee 0e3d b94f d33d ead7 3f3c 058e 35bc
00000070: 7e4d 12bd b37c 203d fd60 bbbd 0a68 22bd
00000080: 9973 0d3d febf b4bc 52cc f1bb 085a 723c
00000090: bc1b 3dbc 89da 083d 595d 0b3d d681 4b3c
000000a0: 47cc c23b cc42 b83c b71c 09bd 2e2d 45bd
000000b0: 0939 d4bc b52a 8dbd 5e1b f8bd aa21 c53b
000000c0: 43f4 abbd 82eb 92bd 87ea 2d3d dd73 e3bd
000000d0: acc8 0abe 76d2 1fbd 1ce4 5e3c db92 22bc
000000e0: d233 353d 240c a53d d92f be3d 0db0 f03c
000000f0: e628 29bd 1be8 043d a098 3a3d 5881 ccbd
00000100: fad0 dabd e038 803c 49ac 4ebd bc47 4d3d
00000110: 8436 23bd a74f 763d 305a ea3d 7809 ba3c
00000120: c9f9 e13d 4aa3 613d 5637 c2bb 2974 14bd
00000130: fbcf b63c 7b69 84bc d685 57bc 813c 15bd
00000140: 87cd 97bc 82b6 09bc a4d0 eebc 6db7 86bc
00000150: 9ae3 bdbc 0247 0b3b 389b 1bbd c7ee a73d
00000160: 14c3 9a3d 57b4 4abb bdab adbb 3977 a2bc
00000170: 1ab3 8f3b 8743 843c 58e0 9b3d 2394 cf3c
00000180: d540 14be 9a06 dfbd d81c 69bc 37f4 5cbc
00000190: a0b2 373d cda7 203c b090 093c 25f1 80bc
000001a0: 8a7f 9b3c 8718 3f3d d693 e23b fd7d 543c
000001b0: 5dc2 c9bd e6e6 cdbd e32a 213d 49f5 bebd
000001c0: b9be 0ebd 1159 babc a7e1 a3bd 8005 11be
000001d0: ae32 45bd 0256 b3bd 0870 1dbd 2bf6 143c
000001e0: f3f1 b93c fa95 8a3d b996 ad3c 4f28 aa3d
000001f0: 56b3 c43c 2a29 12bd 1401 90bd df26 87bc
00000200: 7b4d 8c3a ea9c b83b 6760 033d 775b 3abc
00000210: 4e1a a6bd 4dbe 0fbe f338 fb3c d0a5 933d
00000220: 97cc d23d 8d90 a23c 1efd 38bc 5a87 a93c
00000230: 1c6f 3cbd 4d5b d3bd 24c5 ddbd a4c2 bdbc
00000240: a314 3fbd b105 33bd 5360 b53a f078 473d
00000250: aa58 813d abaa e63c e1cf 3abd 5191 44bd
00000260: 5b94 613c a1fd b8bc 7bd4 39bd 7fd2 2e3d
00000270: 7cd9 66bd bb36 42bd cc74 f7bc 5b53 483d
00000280: 268c 2d3d 05fa dd3b 0cef e53c eb91 ef3c
00000290: 82ca babc 2138 223d eace 7c3d 3226 9cbc
000002a0: 2b18 423d 39bd a83d b131 ad3c d169 38bd
000002b0: dcb6 2bbd d22a 4cbd 00ae fbbc 8ddb edbd
000002c0: a20e 303d a9c7 d3bd 4cdb eabd a511 29bd
000002d0: 3e7a 2abd 040e 28bc b634 41bd 7cbf 7dbd
000002e0: 905b 0bbd ba2b 5ebc 0f08 8abd 5331 5abd
000002f0: 1356 d73b a305 7d3d 9d1d c63d bf79 0cbd
00000300: a6a1 00bd 0308 9dbd 5ffd 1bbc 532c 833d
00000310: e556 e23d ef1e f3bb ed30 56be ccdf 3bbe
00000320: a6ce 2e3b f025 da3d 6cd1 ae3d 0b77 4b3d
00000330: 1ae8 20be 5bec 2dbe 6a32 1f3d b29d b93c
00000340: 5688 7e3d adad 473d d15f 5dbd 26c1 f8bc
00000350: 0a71 993a 35f9 853c 3c18 113d e88b 8cbc
00000360: fe50 b53b 42bb 8ebb a3c0 103d 21e4 29bd
00000370: 7a16 98bd bafc 483d 3c4d 21bd e167 93bc
00000380: d76b b23c 1ded 0fbe 2668 3abe 9af3 02bd
00000390: 2747 513b 3b66 2a3d 471c a73c 56bf 513d
000003a0: e803 97bb e9f4 a03b 4135 b53b f066 da3c
000003b0: 799d 10bd cd35 093b a799 a4bc 31cf 223b
000003c0: b425 8a3b c6ed 71bd 1f2f d43c 61e4 e13c
000003d0: 0f82 3d3d c061 2fbd 5505 b5bd 47fb eabc
000003e0: 7468 04bd 302e 233d 5a4f af3c eea3 42bd
000003f0: b5c6 67bd 2c21 b63c 518d 323b 3f3b c23c
-0.08913846 -0.09305262 0.027794199 -0.0678351 -0.12122006 0.017873513 -0.005963965 -0.05297896
0.017530592 0.06881706 0.091755904 0.038652208 -0.013735234 -0.041560445 0.01946145 0.061145756
0.019286575 0.031939737 0.04631968 0.030859552 -0.0275582 0.09797028 0.10585714 -0.010361927
0.034895603 0.1031794 0.011709193 -0.011081223 -0.035718434 0.039181422 -0.091493584 -0.03965
0.03453407 -0.022064205 -0.007379093 0.014791973 -0.011542257 0.033411536 0.03402457 0.012421092
0.005944762 0.022492789 -0.03347465 -0.04813879 -0.025906103 -0.06892911 -0.12114595 0.006015976
-0.083961986 -0.07173826 0.04245999 -0.111060835 -0.13553113 -0.03901907 0.01360419 -0.009922708
0.044238873 0.08058956 0.0928647 0.029380823 -0.04129877 0.032447916 0.04555571 -0.09985608
-0.1068439 0.01565212 -0.050457273 0.05011724 -0.039846912 0.060134556 0.11442983 0.022709593
0.11033971 0.055087365 -0.0059270067 -0.03624359 0.02231597 -0.016163578 -0.013154468 -0.036434654
-0.01853062 -0.00840533 -0.029152222 -0.016444886 -0.023179818 0.002125204 -0.037989825 0.0819984
0.075567394 -0.0030930245 -0.005300014 -0.01983224 0.0043853642 0.01614548 0.076111495 0.025339192
-0.14477856 -0.10889931 -0.014228068 -0.01348596 0.044848084 0.009805632 0.008396313 -0.015739987
0.018981714 0.04665425 0.006914596 0.012969491 -0.09851525 -0.10053806 0.03934754 -0.09324128
-0.034849856 -0.022747548 -0.08002024 -0.14162254 -0.048144035 -0.08756639 -0.03843692 0.009091894
0.022698378 0.06766887 0.021190034 0.083084695 0.024011295 -0.03568379 -0.07031456 -0.016498027
0.0010704243 0.00563394 0.03207436 -0.011374346 -0.08110486 -0.14037438 0.030666804 0.072093606
0.10292929 0.019844318 -0.011290817 0.020694423 -0.0460044 -0.103201486 -0.10828617 -0.023164101
-0.04665054 -0.0437066 0.0013837911 0.04869932 0.063157395 0.028157553 -0.045608405 -0.047990147
0.013768281 -0.022581877 -0.045368653 0.042681213 -0.056359753 -0.047415476 -0.03020706 0.04890762
0.042369984 0.0067741894 0.028068088 0.029244384 -0.022801641 0.03960431 0.061720766 -0.019061182
0.04738633 0.08239216 0.021141859 -0.04502279 -0.041922435 -0.049845524 -0.030722618 -0.116141416
0.042982705 -0.103408165 -0.11467609 -0.041276593 -0.041620485 -0.010257248 -0.04716941 -0.06195019
-0.034022868 -0.01356023 -0.06739818 -0.053269695 0.00657154 0.061772954 0.09673617 -0.034295794
-0.03140416 -0.07667544 -0.009520858 0.064049385 0.1105173 -0.007419459 -0.20917101 -0.1834709
0.0026673465 0.10651767 0.08536038 0.049674075 -0.1571354 -0.16984694 0.038866438 0.022658203
0.06214174 0.048749615 -0.054046456 -0.030365538 0.0011706662 0.016354183 0.035423502 -0.017156556
0.0055333367 -0.004355819 0.035339963 -0.041477326 -0.07426162 0.049069144 -0.039380297 -0.01799387
0.021779938 -0.14055295 -0.18203792 -0.031970598 0.003193328 0.0416014 0.020399226 0.051207863
-0.00460862 0.004912008 0.00553003 0.026660413 -0.035306428 0.0020936609 -0.020092798 0.0024842734
0.0042159203 -0.05906465 0.025901375 0.02757472 0.04626661 -0.04281783 -0.08838908 -0.028684271
-0.032326177 0.03983897 0.021400142 -0.047519617 -0.056585986 0.022232614 0.0027244876 0.023709891

temporal_conv.bias f4 [128]
00000000: 77a9 033d f79f 173c 1984 7bbc 5dc9 cbba
00000010: 1ac7 68bd 1bf6 14bd 4fe8 f5bc af63 3abd
00000020: 14d7 59bd cce6 d0bd 6007 123d a5dd 63bd
00000030: 55cd 1a3d 1e51 fabd eed0 953d 5cc3 e73c
00000040: f347 043c 43da d43c 2e0f cb3d 02d2 33bd
00000050: 668d 8e3d 84ba 1a3d 1c19 f73c fcfa 78bd
00000060: fc92 a4bc 7459 c4bd ce0a 6d3d b8f1 393b
00000070: ef32 f63b b53c f73c a551 a0bd 67a0 6e3c
00000080: 4b4d a43c ed8b 54bd 6221 9c3d f23a 6abd
00000090: bc95 af3d 0294 bd3d 2c3a 5dbd 7efe a3bd
000000a0: 29d4 f7bb d12f 9cbd 38fe ae3c d9f9 313c
000000b0: 08c2 44bd 290c e0bd 9b63 543d 223b 5cbc
000000c0: 5583 ca3c bc61 99bd 3bc6 92bb aca8 3fbd
000000d0: 6eac 1c3d 3f2e e5bc b84a c0bd a36a fcbd
000000e0: 257a 80bd 80e7 b1bc 980a 0c3e 5100 babd
000000f0: fbdd e4bd 2d5f c9bc a16f b93d 114a 713d
00000100: 2b41 b2bc 1fee a1bc eb72 eebb a999 56bd
00000110: 8bd4 9fbd b75a a4bd e7eb 483d 2dcd dcbd
00000120: 35f8 593d c675 df3d 4e73 cfbb c369 48bd
00000130: 9ea0 d93d 1693 5a3d 4729 6dbb 7586 0d3d
00000140: 91f1 c0bd 87a3 c3bd cb26 88bd 59f1 5a3c
00000150: 1ac2 afbd e976 c6bc 67d4 b33d eedb 4d3c
00000160: b05e 2f3d f2e4 833b c716 143c 6a3c d7bd
00000170: 13bf b6bc fc48 573c 1f07 b33c 9576 043d
00000180: e047 10bd fe30 8d3d 85d4 07bc 7ca1 763d
00000190: e08c 273b acdd a43d efa7 46bd a9fe 8bbd
000001a0: 4787 a3bd 5088 f8bc becb 8dbd 232b 0a3d
000001b0: d2a5 963d 7e8a ecba 0d8a 8c3d 9b42 b8bc
000001c0: ede1 ff3c 960b b7bd 4d09 ac3d 2003 3a3d
000001d0: 781a 6e3d 95de 8fbd 9e87 443d 3bb9 8c3d
000001e0: c137 11bd 46d3 4abd 37f4 91bd a5aa 9ebb
000001f0: 249f e13d 7db1 afbd 6544 e03d a762 7cbc
0.032144036 0.009254447 -0.015351319 -0.0015547682 -0.056830503 -0.036367517 -0.030018 -0.045505222
-0.05318363 -0.10200271 0.035651565 -0.0556313 0.037793476 -0.12222503 0.07315241 0.028291397
0.008073795 0.025982982 0.09915005 -0.04390145 0.06960563 0.03777553 0.03016334 -0.060786232
-0.020089619 -0.09587374 0.057871632 0.0028372835 0.007513396 0.030180315 -0.078280725 0.01456461
0.020056387 -0.051891256 0.07623555 -0.05718512 0.085734814 0.09256746 -0.054010555 -0.08007525
-0.0075631333 -0.07626308 0.021361455 0.010862791 -0.048036605 -0.10939819 0.051852804 -0.013441833
0.024720827 -0.074893445 -0.0044791973 -0.046791717 0.03825038 -0.027976153 -0.093892515 -0.12325027
-0.06273297 -0.021716833 0.13675916 -0.090820916 -0.11175152 -0.024581516 0.09054495 0.058908526
-0.02175959 -0.019766865 -0.007276883 -0.052392635 -0.07804211 -0.08025115 0.0490531 -0.10781322
0.053215224 0.109111354 -0.006330884 -0.048928987 0.106263384 0.05336293 -0.0036187933 0.034552056
-0.09421075 -0.09552675 -0.06648024 0.013363206 -0.08581944 -0.024226623 0.08780747 0.012564642
0.04281491 0.004025095 0.009038634 -0.1050957 -0.022307908 0.013139959 0.021853982 0.03233965
-0.035224795 0.0689411 -0.008290415 0.060212597 0.0025566146 0.08050093 -0.048499998 -0.06835682
-0.079847865 -0.030338436 -0.06923626 0.033732545 0.073558465 -0.0018046645 0.068622686 -0.022492697
0.03123566 -0.08937757 0.084002115 0.045413136 0.05813071 -0.07024876 0.047980897 0.068712674
-0.03545356 -0.049517892 -0.071266584 -0.0048421198 0.11016682 -0.08578775 0.10950545 -0.01540438

fc.weight f4 [30, 128]
00000000: af51 b43c 966e 8dbd 241f e6bd d8c1 b73c
00000010: eed1 d4bd ccd4 b9bd 7ead 923d accf 383e
00000020: 845d c23d 8d58 e6bd 2069 44bb 3f8a 8ebd
00000030: 71b2 3cbd 127d 92bb b983 f8bd 5cdc 903d
00000040: 1878 98bd c7c1 b8bd 1c94 d0bd 20d2 c03c
00000050: 0c99 f2bc dbe5 9bbc 7f1c 82bd 0ffb 803b
00000060: 1ba7 1abd 7273 75bc 087d 60bb 308d edbd
00000070: 82fa 6e3d 1cee 9fbc 17b8 75bc bd78 20bd
00000080: 4c1e 90bd b90f c13d 1b80 c7bd 21d8 d1bc
00000090: aadf 8d3d fc60 a43d 6ece 9b3d 2f78 993d
000000a0: e386 f9bc a095 f1bd e0d2 25bd dc22 333d
000000b0: 5af4 2bbe 243f 99bd ff7c ecbc d272 223d
000000c0: a369 f5bc 9f77 20bd e28a e53c 5f89 85bd
000000d0: 917f 9dbd 7a33 8bbd fe9b 003d f9db 44bb
000000e0: d521 c0bd f8e9 32bc 6780 f13c 133d c0bc
000000f0: 0226 ad3d 4d14 98bd 1037 2f3e 1366 06bd
00000100: 756f cfbc d03d 2abd df47 bc3d c0c1 b8bd
00000110: 6945 a7bc bb93 3fbd 7e6f 143d 8ce9 5ebd
00000120: 030f 2dbd 1437 c73c 2c11 7abc 5444 883c
00000130: 576d 563c 6b66 0abd cd71 ca3b e848 ca3d
00000140: 8052 ac3c 9d3e 88bd 5e3f 6d3d c7b2 72bd
00000150: 643a f7bd 5b9c bd3d 5086 5e3d 9e61 fe3c
00000160: a731 033e 2242 98bd 3fe9 943c 4cfc 2f3d
00000170: 4d56 c43d 0599 c3bd 987f c7bb f7a3 00be
00000180: 54b5 2bbc f31f 3a3d c901 0abd 5162 c23c
00000190: 26a5 a4bb 6bef eabd a729 b73c 2b82 98bd
000001a0: ed55 133c 11aa cebd 4e16 a5bd 8f6c 47bd
000001b0: 1205 14be d976 58bb 8c7f e5bd 23e5 13bd
000001c0: 4636 ccbc 44fb 333d e75b f33d c7ab 843c
000001d0: 272c 833d fe49 9c3d 66f1 be3d 9ba1 8ebd
000001e0: 2d0f 333d 2fe0 e23c 6867 5d3c 82d1 173d
000001f0: 717b 9f3c 5df4 8c3b f5ef 3f3c 9f00 753d
00000200: 7d30 1e3e a7f2 013d 19bd be3d 022b 323d
00000210: 2c8b 57bd 511a 2c3e d7e7 81bd fd16 a2bd
00000220: 391f b13d c9cc 403d d2ce d1bd 16a1 a93d
00000230: ac98 f9bd 6121 55bd f87b 8cbd ea0b 5c3d
00000240: 324e 97bc 3636 7e3d cb30 963d c985 273d
00000250: 5a0c 8fbb b85a 973d bff4 e7bd 0ae9 80bb
00000260: e4aa adbd 63b7 013e 1ff4 963d 901e 033e
00000270: 5c1f 83bc ef1c a6bd 2741 d6bd a550 c03d
00000280: 2dad ea3c 98be 28bc c674 cabd 9f08 133e
00000290: 3756 ac3d 4606 5ebc 243d 9ebc d583 d6bd
000002a0: 13a4 87bd 8830 a63c 3ccc d93b e08d 6d3d
000002b0: cb06 723d d89b 3abd c284 0dba 982b b13c
000002c0: ca16 d53c 8c93 57bd e77f 233d 0c8c 913c
000002d0: fc35 5f3c 8fa2 cf3c 5516 ce3d 7dd8 6c3d
000002e0: afc9 b63c 1b77 d3bb aa9d cfbd e07d df3d
000002f0: a4ed 9a3c 9fd0 c13c a9aa 59bd fb03 53bd
00000300: 5afd e33b e847 03be 1f1e 55bd 0971 cc3d
00000310: c622 88bd 082f 113e 85b8 38bd d32a 5ebc
00000320: 0594 15bc 22d7 c53d a516 9fbd ae24 c8bd
00000330: 5733 a23d 3833 50bc 162f 11bc b037 2dbc
00000340: 69f0 b2bd 12c7 8f3d b735 35bd 0572 5c3c
00000350: 6ad9 3f3c 3019 183d b419 c73c 1469 a3bd
00000360: 0b3d 953b c398 26bb cff8 dfbd 3c7d 6bbb
00000370: f127 823d d39e a3bc 3f80 19bd 7a1c 5d3d
00000380: ca22 9a3c db91 e23c 3d41 9d3d fae6 96bc
00000390: 4713 c4bd 651e 8d3d 4549 113e 10e5 023e
000003a0: 8687 c73d 0618 adbd 9142 4abd f223 bf3c
000003b0: 57c4 073e efc9 ebbd 52d4 a2bd e913 b3bc
000003c0: a87e 503d 15f8 e63d 9558 87bd 8016 a4bd
000003d0: f1a4 67bd 9726 af3d a4e7 98bc c2a9 303d
000003e0: 122e 2bbd 21ca 9cbd ab5b b03c 64c8 75bc
000003f0: 49f5 a0bc ee7a ecbc 79ad 6dbd 8e1a c1bc
0.022011606 -0.06905858 -0.11236408 0.0224313 -0.103916034 -0.09073791 0.07161997 0.1804797
0.09490493 -0.112473585 -0.0029969886 -0.06959962 -0.046068612 -0.004470476 -0.12134499 0.0707328
-0.07444781 -0.09021335 -0.101844996 0.023537695 -0.029613994 -0.019030502 -0.063530914 0.0039361785
-0.03775702 -0.014981138 -0.0034254212 -0.11599195 0.05834437 -0.01952272 -0.014997504 -0.039177645
-0.07037029 0.09426827 -0.09741231 -0.025615754 0.06927426 0.08026311 0.07607733 0.07493626
-0.030459827 -0.11796117 -0.04048431 0.043734416 -0.16792431 -0.07482746 -0.028868197 0.039660282
-0.029957598 -0.03917658 0.028020326 -0.06520342 -0.07690347 -0.06796928 0.031398766 -0.003003834
-0.09381453 -0.01092004 0.029480172 -0.023466622 0.08454515 -0.07425747 0.17110848 -0.03281219
-0.025321702 -0.041562855 0.09193396 -0.0902133 -0.02041884 -0.046771746 0.03623914 -0.054421946
-0.042250644 0.024318255 -0.015262883 0.016634144 0.013087592 -0.03378908 0.006178117 0.09877187
0.021035433 -0.066525675 0.05792176 -0.059252527 -0.12071684 0.09258338 0.05432731 0.031052407
0.1281191 -0.07434489 0.018177627 0.04296522 0.09586773 -0.095506705 -0.0060882084 -0.12562548
-0.010480244 0.045440625 -0.03369311 0.023728522 -0.00502457 -0.114714466 0.022358729 -0.074467026
0.008992654 -0.10091031 -0.08060895 -0.048687514 -0.14455059 -0.0033029823 -0.11205968 -0.036107194
-0.024928223 0.043940797 0.11882763 0.016195191 0.06404906 0.076313004 0.09323387 -0.069644175
0.043715645 0.02769479 0.0135134235 0.037065037 0.019468041 0.0043015913 0.011714925 0.059815045
0.15448184 0.031725552 0.09313411 0.043498047 -0.05262296 0.16806914 -0.06343048 -0.07914541
0.086485334 0.0470703 -0.10244526 0.08282678 -0.12187323 -0.052033786 -0.06859583 0.0537223
-0.018469904 0.06206342 0.07333525 0.04089907 -0.004365486 0.0739035 -0.113259785 -0.0039340304
-0.084798604 0.12667613 0.07370781 0.12804627 -0.016006164 -0.081109874 -0.104616456 0.09390382
0.02864703 -0.010299347 -0.09885554 0.14358757 0.08414882 -0.0135513 -0.019316263 -0.10474364
-0.066230915 0.020286813 0.006646661 0.05799663 0.05908851 -0.04555878 -0.00053985056 0.021627232
0.026011843 -0.052630946 0.0399169 0.017766975 0.013623711 0.025346069 0.10062853 0.057823647
0.022312967 -0.0064534075 -0.10137494 0.109126806 0.018912144 0.023659049 -0.05314127 -0.051517468
0.006957692 -0.12820399 -0.05203068 0.09982497 -0.066472575 0.14178097 -0.045097847 -0.013560015
-0.009129529 0.09660174 -0.07767991 -0.09772621 0.079199485 -0.012707524 -0.008861324 -0.010572359
-0.08737261 0.070203915 -0.04424068 0.013454919 0.01170955 0.037133396 0.024304248 -0.079790264
0.004554396 -0.0025420643 -0.10936128 -0.00359328 0.063552745 -0.019973194 -0.03747582 0.053982235
0.018815417 0.02765744 0.07678459 -0.018420685 -0.09573989 0.06890563 0.14188106 0.12782693
0.09742646 -0.08451848 -0.04937989 0.02333257 0.13258491 -0.11513125 -0.07950653 -0.02186008
0.05090204 0.11277787 -0.066086926 -0.08012104 -0.056553785 0.08552282 -0.018665142 0.043130644
-0.041791983 -0.076557405 0.021528086 -0.01500139 -0.019648211 -0.028867211 -0.058026765 -0.023572233

fc.bias f4 [30]
00000000: 7f8d 013e 84fd e03d 655e e6bd e9c5 0e3e
00000010: e6d5 83bd db62 9fbc 859a 373d 11cf 8b3b
00000020: 25eb 3c3d 34d7 653d e775 b63c 9e95 8a3c
00000030: 81cb b63d e2bd 553d 73e1 e1bd b450 cfbc
00000040: 2fdb e03d 9fb7 233d d2e8 f93d c2f5 d03c
00000050: d8c3 973d 1f66 ef3b b3f7 97ba 25b8 07bd
00000060: f20c 1e3c 93b7 e73d 3abf 7f3d cf7b a53d
00000070: d4f4 8b3d 9813 24bc
0.12651633 0.10985854 -0.11248473 0.13942684 -0.06437282 -0.019456318 0.044825096 0.0042666276
0.04612269 0.056113437 0.022273017 0.016917046 0.08925534 0.05218304 -0.11029329 -0.025307037
0.10979306 0.039970037 0.1220261 0.025507811 0.07410401 0.007305875 -0.0011594206 -0.0331346
0.009646641 0.11314311 0.062438227 0.08080255 0.06833807 -0.010014437

exp_avg f4 [30, 30]
00000000: e90f c737 aa44 bd37 dc4c d137 ed1f a037
00000010: 1fb3 eb36 c5ad 2437 01b4 2e37 ff03 f836
00000020: b6a6 c036 cbe5 3037 975f 8f37 d20f ce37
00000030: 67b8 ea37 9d84 cb37 f9ad b437 6713 a837
00000040: d7fe b337 44f5 8d37 4189 6b37 9e14 6137
00000050: de59 3137 e92a fa36 d145 0db5 0bf5 14b7
00000060: adc6 5bb7 bd65 8ab7 59e2 8db7 7b9a ccb7
00000070: 2627 0cb8 0215 24b7 a1f7 1237 68fd 1937
00000080: b43f 3037 69b5 a436 d73b d9b6 c10e 42b6
00000090: 90c9 fab5 5436 b4b6 5af2 f2b6 359c 48b6
000000a0: b8e3 3436 1495 2937 b87c 5537 fbce 1237
000000b0: 3677 d436 a255 bc36 3c47 fc36 529b 4136
000000c0: 2fa8 f4b3 534f 34b5 8efa 64b6 fec5 c6b6
000000d0: 1235 68b7 2da5 b7b7 a04a d6b7 172e f2b7
000000e0: 527a f6b7 d973 1ab8 7869 3fb8 cfd7 bfb7
000000f0: 7c8c e436 e9be e736 1b39 2037 5252 7f36
00000100: e57b 03b7 34dc 94b6 de91 80b6 5155 f3b6
00000110: 7031 12b7 5147 87b6 eb43 1936 81aa 2637
00000120: 8854 5237 8b8d 0637 f6a8 af36 0505 7736
00000130: dc1c b636 caa5 8e35 3675 a2b5 c814 02b6
00000140: e778 9fb6 fad5 d9b6 3fe9 68b7 f750 b8b7
00000150: dd7f d7b7 ba32 eeb7 f169 f5b7 580b 17b8
00000160: 3aa2 3cb8 ee15 b9b7 3e5c 2437 d597 2b37
00000170: 8bdf 5737 5826 0f37 6ec6 64b6 eb35 51b5
00000180: 3c98 c3b4 176c 88b6 8af7 bab6 822d 92b5
00000190: 2052 a136 bb9a 4f37 c4d8 8337 51f6 3c37
000001a0: b825 1237 acb6 ea36 cedd 0c37 1f52 8336
000001b0: 71d3 cd35 f15d 9235 7b96 08b6 7724 96b6
000001c0: 4b13 44b7 5de3 a1b7 cc09 c5b7 b0cb dab7
000001d0: 62df ddb7 1809 0cb8 3a09 2fb8 5f0a 9cb7
000001e0: 1f38 b737 1c8e b737 8987 cf37 579c a237
000001f0: a152 0f37 ce65 3c37 4187 3b37 1643 ed36
00000200: 8320 c036 2e0e 2737 2433 8737 7957 c537
00000210: 3196 de37 b9c0 b837 4f77 9f37 5f33 9037
00000220: fa2f 9837 2436 5437 ceeb 2f37 344b 2537
00000230: e37b d336 852f 7436 1a5a 8ab6 3491 57b7
00000240: cea1 90b7 0bb4 a9b7 31ab adb7 a35d efb7
00000250: 7b5b 1bb8 aad3 5fb7 6b5f 7f37 5fa2 8437
00000260: f4f6 9737 ebbd 5737 c517 0d36 d6ab c036
00000270: 960e c236 0a50 d235 9186 acb3 e94a 8036
00000280: 2486 2937 a4df 9237 fda3 ab37 2922 8837
00000290: 9e92 6737 54f2 4b37 4e9f 5b37 74fa 0637
000002a0: 090f ad36 c31a a636 3ff3 0936 d4bf a533
000002b0: 0a6e f8b6 3f98 86b7 ee3e a5b7 8dcc bab7
000002c0: 1e18 bdb7 87e4 fdb7 d62d 23b8 40d6 77b7
000002d0: 0b88 7337 abb0 7b37 676e 9237 ce65 4b37
000002e0: 7a17 2d35 4fc2 9a36 2970 c036 2e6f 7835
000002f0: 76b4 8eb5 d219 6036 9eeb 1f37 8ada 9237
00000300: a42d ae37 440e 9137 f181 7a37 ee11 6437
00000310: 489f 7037 748f 1537 62d5 c436 e24a b836
00000320: c55e 5036 addf 7735 519c ecb6 8b5a 82b7
00000330: f617 a0b7 bd59 bab7 9d16 b9b7 5f00 f5b7
00000340: e478 1fb8 17ef 6ab7 c923 8337 0c24 8737
00000350: 5d26 9937 4489 5237 b167 a635 a986 ac36
00000360: b9b7 ac36 5788 c735 eb39 3ab5 4c09 7936
00000370: b8b8 1f37 521a 8f37 a1fc ab37 3931 8a37
00000380: f47a 6c37 88dd 4e37 1126 6237 c4aa 0537
00000390: 4c09 b036 e922 a136 4a54 eb35 a638 e133
000003a0: 2163 fdb6 6746 86b7 5507 a7b7 aa4e c0b7
000003b0: 30f9 c2b7 5d65 01b8 3fb7 24b8 6bdd 82b7
000003c0: 67fe 8737 017d 8c37 e2fd a237 6861 6c37
000003d0: 0b3e 0c36 69eb be36 e9f1 c636 ab9e 0536
000003e0: 612e 3f35 3cbf ac36 04bf 3837 428c 9b37
000003f0: 1a11 b937 bde7 9b37 c10d 8a37 4e48 7737
2.3730057e-05 2.256253e-05 2.4950532e-05 1.9088353e-05 7.024398e-06 9.815621e-06 1.0413119e-05 7.391441e-06
5.7414536e-06 1.054392e-05 1.709144e-05 2.456448e-05 2.7980843e-05 2.4261239e-05 2.1538684e-05 2.0036196e-05
2.1457132e-05 1.692272e-05 1.4039048e-05 1.3415845e-05 1.0570946e-05 7.455576e-06 -5.262819e-07 -8.878541e-06
-1.3099675e-05 -1.6498258e-05 -1.6913911e-05 -2.439063e-05 -3.341506e-05 -9.780053e-06 8.759934e-06 9.178511e-06
1.05052495e-05 4.9087e-06 -6.4740702e-06 -2.891684e-06 -1.8685114e-06 -5.3707427e-06 -7.2403755e-06 -2.9893247e-06
2.695464e-06 1.0107895e-05 1.2724828e-05 8.7504695e-06 6.3319703e-06 5.6128056e-06 7.518478e-06 2.884965e-06
-1.1392728e-07 -6.717066e-07 -3.412049e-06 -5.923909e-06 -1.3840634e-05 -2.1892216e-05 -2.5545538e-05 -2.887011e-05
-2.9382445e-05 -3.6824353e-05 -4.5636174e-05 -2.2869468e-05 6.811284e-06 6.9065613e-06 9.550039e-06 3.8045878e-06
-7.837055e-06 -4.4363787e-06 -3.8316784e-06 -7.2518965e-06 -8.713789e-06 -4.031616e-06 2.283831e-06 9.93407e-06
1.2536657e-05 8.019978e-06 5.235076e-06 3.680879e-06 5.4273823e-06 1.0628075e-06 -1.2104053e-06 -1.9383606e-06
-4.752644e-06 -6.492014e-06 -1.3882584e-05 -2.1972211e-05 -2.5689538e-05 -2.8395432e-05 -2.9255609e-05 -3.601177e-05
-4.4973778e-05 -2.206393e-05 9.796639e-06 1.0227745e-05 1.2867046e-05 8.532392e-06 -3.4090149e-06 -7.793703e-07
-3.6432345e-07 -4.065699e-06 -5.5720493e-06 -1.0891092e-06 4.8077345e-06 1.23741875e-05 1.5717356e-05 1.1263023e-05
8.71106e-06 6.9950092e-06 8.396293e-06 3.9136644e-06 1.5335228e-06 1.0905188e-06 -2.035317e-06 -4.4745934e-06
-1.1687002e-05 -1.929857e-05 -2.3488792e-05 -2.6082475e-05 -2.6449274e-05 -3.338707e-05 -4.1731844e-05 -1.8601479e-05
2.1841433e-05 2.1881475e-05 2.4739436e-05 1.9384706e-05 8.542703e-06 1.12293765e-05 1.117756e-05 7.0709602e-06
5.7258308e-06 9.957277e-06 1.6117068e-05 2.3524963e-05 2.65344e-05 2.2024253e-05 1.9009834e-05 1.719006e-05
1.8142153e-05 1.264879e-05 1.0485715e-05 9.852276e-06 6.3027123e-06 3.6386493e-06 -4.1232097e-06 -1.2848806e-05
-1.7241484e-05 -2.0230209e-05 -2.0702924e-05 -2.8534623e-05 -3.7040078e-05 -1.3341118e-05 1.5221401e-05 1.5811236e-05
1.81156e-05 1.2859217e-05 2.1024473e-06 5.7420502e-06 5.7833486e-06 1.5669514e-06 -8.0338516e-08 3.823418e-06
1.0104417e-05 1.7508697e-05 2.0461152e-05 1.622837e-05 1.380281e-05 1.2156164e-05 1.3090508e-05 8.045336e-06
5.157552e-06 4.950301e-06 2.0556179e-06 7.7183046e-08 -7.403786e-06 -1.604494e-05 -1.9698837e-05 -2.226818e-05
-2.2541786e-05 -3.0266367e-05 -3.8904916e-05 -1.4772231e-05 1.4515604e-05 1.50019e-05 1.7455966e-05 1.2123446e-05
6.4481685e-07 4.612178e-06 5.735103e-06 9.2548987e-07 -1.0632345e-06 3.339363e-06 9.531997e-06 1.7506321e-05
2.076367e-05 1.729199e-05 1.49314155e-05 1.3594034e-05 1.43422e-05 8.914492e-06 5.866096e-06 5.492345e-06
3.1049578e-06 9.234016e-07 -7.0515457e-06 -1.553937e-05 -1.9084644e-05 -2.2214716e-05 -2.2064249e-05 -2.9206449e-05
-3.8021142e-05 -1.4003154e-05 1.563308e-05 1.611004e-05 1.8256886e-05 1.2548935e-05 1.2398142e-06 5.141676e-06
5.1473876e-06 1.4866336e-06 -6.937468e-07 3.7109303e-06 9.520147e-06 1.7059185e-05 2.0502428e-05 1.6473803e-05
1.4095323e-05 1.2330136e-05 1.3479513e-05 7.967177e-06 5.246291e-06 4.802238e-06 1.7533396e-06 1.0487683e-07
-7.5515277e-06 -1.6006828e-05 -1.9911366e-05 -2.2924814e-05 -2.324264e-05 -3.08504e-05 -3.927131e-05 -1.5600313e-05
1.621172e-05 1.674751e-05 1.9430128e-05 1.4089375e-05 2.089774e-06 5.6898466e-06 5.929022e-06 1.9910901e-06
7.1220535e-07 5.148262e-06 1.1011729e-05 1.8542753e-05 2.2061682e-05 1.8585351e-05 1.6457287e-05 1.4739182e-05
