situation_analysis/best_models/model_window30_horizon1.pth (torch, 924458 bytes, 27 tensors)

adapt_adj f4 [30, 30]
0.9466634 -0.053393576 -0.05353668 -0.0536122 -0.05400293 -0.054444753 -0.054570004 -0.054364618
-0.054693703 -0.054862708 -0.0552743 -0.055189207 -0.05510042 -0.055173617 -0.05563875 -0.05562715
-0.055705566 -0.055764835 -0.05603761 -0.05622095 -0.056523353 -0.05658145 -0.05658481 -0.056578275
-0.05685359 -0.05775822 -0.05808683 -0.058445733 -0.059002776 -0.0631295 -0.05265518 0.94729704
-0.052858196 -0.052957784 -0.05328757 -0.05372859 -0.05388009 -0.05362863 -0.0539207 -0.05412567
-0.054553714 -0.054473035 -0.054415606 -0.054521073 -0.054991696 -0.054988716 -0.055094294 -0.055186838
-0.05546519 -0.05572719 -0.056020744 -0.056054894 -0.056060843 -0.056021582 -0.0563593 -0.05722517
-0.057580862 -0.05791499 -0.05850725 -0.06263244 -0.052851733 -0.052930493 0.94693077 -0.05316063
-0.05354712 -0.05396856 -0.054092545 -0.05385965 -0.05413937 -0.054313596 -0.054729525 -0.05467
-0.054588918 -0.0546523 -0.055109877 -0.05507271 -0.05513503 -0.055214323 -0.055483457 -0.05571452
-0.05600248 -0.05603378 -0.05607784 -0.056034047 -0.0563528 -0.05718419 -0.05752059 -0.057826106
-0.058388885 -0.06247645 -0.053214137 -0.053241327 -0.053386975 0.9464631 -0.053932395 -0.054374337
-0.054514848 -0.05426257 -0.054553222 -0.054739874 -0.055111807 -0.055034738 -0.054998934 -0.055053774
-0.05548475 -0.05544757 -0.055491902 -0.055601694 -0.055867057 -0.05609372 -0.05642672 -0.05649964
-0.05653155 -0.056509554 -0.05682136 -0.057678822 -0.058043916 -0.05841828 -0.058968075 -0.06308148
-0.054412022 -0.05446245 -0.05464333 -0.05484552 0.94474673 -0.055729993 -0.055905703 -0.055656776
-0.05596634 -0.056154285 -0.05656006 -0.05651764 -0.056430813 -0.056525897 -0.056994073 -0.056950126
-0.057008076 -0.05709643 -0.057364948 -0.057582144 -0.057872057 -0.05789639 -0.057947602 -0.05794491
-0.058263 -0.059104867 -0.059445404 -0.05978432 -0.060334675 -0.064490035 -0.052945226 -0.052990276
-0.053182527 -0.053393014 -0.053749617 0.9457587 -0.054358896 -0.054170046 -0.054448526 -0.054642327
-0.055018626 -0.054998342 -0.054883655 -0.054992393 -0.0554311 -0.055371933 -0.055469487 -0.05560561
-0.05590324 -0.056098714 -0.056403957 -0.056436107 -0.056533676 -0.056533422 -0.056850042 -0.057684034
-0.057998545 -0.058344744 -0.058896694 -0.062958695 -0.053248428 -0.053293232 -0.05346376 -0.05366601
-0.054086924 -0.05454328 0.9452228 -0.05455772 -0.05487223 -0.055098116 -0.05551146 -0.055481248
-0.055364557 -0.055466786 -0.055931326 -0.055906974 -0.055964686 -0.056061655 -0.056372702 -0.056555584
-0.05686918 -0.056978296 -0.057012003 -0.05701979 -0.057384364 -0.058237813 -0.058595933 -0.05890893
-0.05943757 -0.06350555 -0.053191148 -0.053230524 -0.05340336 -0.05360449 -0.05400942 -0.054478474
-0.05471862 0.9454712 -0.054865178 -0.05507498 -0.055491056 -0.055434078 -0.05533276 -0.05543322
-0.055884298 -0.055845167 -0.055926803 -0.056046434 -0.056329656 -0.056537803 -0.056843366 -0.056927666
-0.05698371 -0.057020385 -0.05735529 -0.058243647 -0.05859136 -0.058919147 -0.059464607 -0.063561946
-0.053453516 -0.053476226 -0.053640597 -0.053803883 -0.054218195 -0.05470885 -0.054948572 -0.05477244
0.9448451 -0.055374175 -0.055776443 -0.05575453 -0.055635292 -0.055765033 -0.056249257 -0.056209173
00000000: 8858 723f 39b3 5abd 4749 5bbd 7798 5bbd
00000010: 2d32 5dbd 7601 5fbd cc84 5fbd 6fad 5ebd
00000020: 8106 60bd b8b7 60bd 4e67 62bd 140e 62bd
00000030: fab0 61bd bbfd 61bd 75e5 63bd 4bd9 63bd
00000040: 852b 64bd ab69 64bd b187 65bd f047 66bd
00000050: 0885 67bd f3c1 67bd 79c5 67bd 9fbe 67bd
00000060: 4fdf 68bd e293 6cbd 75ec 6dbd cb64 6fbd
00000070: e5ac 71bd 0a4a 81bd f5ac 57bd 0f82 723f
00000080: d681 58bd 43ea 58bd 1144 5abd 8312 5cbd
00000090: 5fb1 5cbd b2a9 5bbd f4db 5cbd e1b2 5dbd
000000a0: b773 5fbd 1e1f 5fbd e6e2 5ebd 7d51 5fbd
000000b0: f93e 61bd d93b 61bd 8eaa 61bd 980b 62bd
000000c0: 782f 63bd 3242 64bd 0276 65bd d199 65bd
000000d0: 0ea0 65bd e376 65bd 02d9 66bd f164 6abd
000000e0: e9d9 6bbd 4538 6dbd 4ca5 6fbd 7045 80bd
000000f0: 0f7b 58bd a5cd 58bd 0e6a 723f f6be 59bd
00000100: 3a54 5bbd 230e 5dbd 2590 5dbd f09b 5cbd
00000110: 3ec1 5dbd ef77 5ebd 112c 60bd a6ed 5fbd
00000120: a198 5fbd 17db 5fbd e5ba 61bd ec93 61bd
00000130: 45d5 61bd 6a28 62bd 9f42 63bd e934 64bd
00000140: db62 65bd ad83 65bd e1b1 65bd f583 65bd
00000150: 32d2 66bd f839 6abd b69a 6bbd 11db 6cbd
00000160: 2f29 6fbd 4ee7 7fbd 11f7 59bd 9413 5abd
00000170: 4dac 5abd 684b 723f 37e8 5cbd a0b7 5ebd
00000180: f64a 5fbd 6e42 5ebd 3373 5fbd eb36 60bd
00000190: ebbc 61bd 1b6c 61bd 9046 61bd 1180 61bd
000001a0: fa43 63bd fe1c 63bd 7a4b 63bd 9abe 63bd
000001b0: dbd4 64bd 87c2 65bd b41f 67bd 2b6c 67bd
000001c0: a08d 67bd 9076 67bd 84bd 68bd a140 6cbd
000001d0: 75bf 6dbd 0248 6fbd 8288 71bd dd30 81bd
000001e0: 24df 5ebd 0514 5fbd afd1 5fbd b2a5 60bd
000001f0: ecda 713f 2245 64bd 61fd 64bd 5cf8 63bd
00000200: f63c 65bd 0902 66bd 85ab 67bd 0a7f 67bd
00000210: ff23 67bd b387 67bd 9e72 69bd 8944 69bd
00000220: 4d81 69bd f2dd 69bd 82f7 6abd 41db 6bbd
00000230: 400b 6dbd c424 6dbd 775a 6dbd a457 6dbd
00000240: 2fa5 6ebd f217 72bd 067d 73bd 67e0 74bd
00000250: 7e21 77bd 5a13 84bd 18dd 58bd 550c 59bd
00000260: ecd5 59bd a2b2 5abd 8f28 5cbd 3e1d 723f
00000270: 6fa7 5ebd 69e1 5dbd 6b05 5fbd a2d0 5fbd
00000280: 365b 61bd f145 61bd afcd 60bd b43f 61bd
00000290: b90b 63bd aecd 62bd f933 63bd b5c2 63bd
000002a0: ccfa 64bd c4c7 65bd d607 67bd 8c29 67bd
000002b0: db8f 67bd 978f 67bd 97db 68bd 1846 6cbd
000002c0: e28f 6dbd e6fa 6ebd a93d 71bd 7df0 80bd
000002d0: 061b 5abd 014a 5abd d1fc 5abd e4d0 5bbd
000002e0: 408a 5dbd c668 5fbd 1ffa 713f ea77 5fbd
000002f0: b4c1 60bd 90ae 61bd fc5f 63bd 4e40 63bd
00000300: f2c5 62bd 2431 63bd 3f18 65bd b6fe 64bd
00000310: 3a3b 65bd e8a0 65bd 10e7 66bd d4a6 67bd
00000320: a8ef 68bd 1362 69bd 6b85 69bd 958d 69bd
00000330: de0b 6bbd c68a 6ebd 4a02 70bd 7d4a 71bd
00000340: cf74 73bd 330f 82bd f6de 59bd 4008 5abd
00000350: 7bbd 5abd 6290 5bbd fb38 5dbd d224 5fbd
00000360: a220 60bd 670a 723f 4fba 60bd 4d96 61bd
00000370: 974a 63bd d80e 63bd 9ba4 62bd f20d 63bd
00000380: efe6 64bd e7bd 64bd 8113 65bd f290 65bd
00000390: edb9 66bd 2f94 67bd 97d4 68bd fc2c 69bd
000003a0: c067 69bd 358e 69bd 61ed 6abd e490 6ebd
000003b0: 7efd 6fbd 3455 71bd 2991 73bd c42c 82bd
000003c0: 13f2 5abd e309 5bbd 3eb6 5bbd 7661 5cbd
000003d0: e613 5ebd 6316 60bd c111 61bd 1159 60bd
000003e0: 5ee1 713f 08d0 62bd d775 64bd dd5e 64bd
000003f0: d5e1 63bd e069 64bd 9f65 66bd 973b 66bd

gc1.fc.weight f4 [128, 36]
0.01051292 0.085662484 0.118773684 -0.09206976 0.07968461 0.06302072 0.053312562 -0.074641176
0.10808401 -0.12131021 0.039277453 -0.0002504142 -0.16504411 0.004391558 -0.06435323 -0.13406979
0.13064937 -0.038459197 0.031402547 -0.12964809 -0.068793915 -0.19902995 -0.14597559 0.12727886
0.005830118 -0.07835342 -0.1282999 0.079488434 0.004364887 -0.15935045 0.043654084 -0.11310485
0.008428375 -0.16020098 -0.04266636 -0.06505953 0.090756476 -0.023996625 -0.11700812 0.09359821
-0.11425924 -0.16073784 -0.036381118 -0.06273545 -0.12710269 -0.037845448 -0.110978685 -0.06605667
-0.09281613 -0.12331935 0.14539345 0.101412795 0.13046044 -0.11783096 0.13220501 0.12474773
0.12009191 0.15774617 -0.026044108 0.14458919 0.13459589 -0.055051118 0.095959 -0.014968606
0.15934286 0.11150016 0.08712254 0.09023533 -0.076130375 -0.045739576 -0.0005422654 -0.04997068
-0.14848804 0.16426945 -0.14620538 -0.08107288 0.0036356635 -0.018644713 0.08840837 -0.0411339
0.1396806 0.011420457 -0.10328757 0.14305145 0.047621667 -0.053383503 -0.10141115 0.112271786
-0.13189214 0.12516648 0.09855296 -0.15018272 0.07280486 -0.07732665 0.13363895 0.027275912
0.07592931 0.08714244 -0.110886484 0.15046583 0.15721525 -0.020057978 -0.14290598 -0.03308502
-0.08938161 0.007916269 0.0070169303 0.17117846 0.17448333 0.13976201 -0.10554647 0.15791456
-0.0058492133 0.07142624 -0.03787258 0.05876156 -0.15141176 -0.085957244 -0.027659727 -0.02118527
-0.063511856 0.120699026 -0.09545122 0.14924148 0.15506737 -0.09646451 0.12029334 0.07631151
0.028873302 0.055029724 -0.014383883 -0.17305556 -0.08697456 0.08867911 0.059747048 -0.07125361
-0.009859442 -0.07949327 0.06972475 0.0656269 0.10762666 -0.035131503 -0.10109631 -0.16960993
0.08711031 0.15369512 0.025792772 -0.15221816 -0.06313992 0.06657196 0.14328904 0.13103391
0.14476913 -0.031041866 -0.058967315 0.050262768 0.005782566 0.110847265 0.11287756 -0.17857948
0.016110249 0.029557798 -0.044426553 -0.15465978 -0.11978544 -0.11108991 -0.056272622 -0.041285664
0.0756276 -0.12624507 -0.11908473 -0.14749415 0.08554648 -0.14668278 0.05127641 0.045798805
-0.061033383 0.0006542739 -0.145425 0.116700776 0.035982825 0.026056284 0.050361373 0.017174136
0.065620005 0.086265735 -0.076195195 0.067241624 -0.04273523 0.059504747 0.082388975 0.07003078
-0.0009088679 -0.08450345 -0.1691955 -0.047240086 -0.03151684 -0.10510808 0.1251259 -0.025450693
0.052274633 0.08904621 -0.0137710385 0.16601874 -0.16321848 -0.08739958 0.060588636 0.017701661
0.092959024 -0.08901961 0.10266052 -0.14634812 -0.04381856 -0.19658776 0.06992355 -0.11375887
-0.123925515 0.13320187 0.04106805 0.13047819 0.077500604 -0.099502005 0.0900328 0.016696615
0.10198336 -0.017493013 -0.17519827 0.13254975 -0.04587839 0.05486978 0.17335086 0.01771828
-0.12765223 -0.09492517 -0.12762436 -0.052901167 -0.14579912 -0.10071543 0.1400498 0.13310876
0.03947139 -0.018642278 -0.04375494 -0.0631122 0.05192927 0.17229417 0.056250855 -0.06530651
0.06506871 0.18832731 0.06140413 0.093079686 0.14595494 -0.02780597 -0.0569596 0.097988635
00000000: 623e 2c3c d06f af3d 9e3f f33d 128f bcbd
00000010: af31 a33d 0211 813d 465e 5a3d 79dd 98bd
00000020: 265b dd3d 7d71 f8bd 65e1 203d 064a 83b9
00000030: 5301 29be 0fe7 8f3b a0cb 83bd 9749 09be
00000040: f3c8 053e 6487 1dbd f59f 003d 78c2 04be
00000050: d3e3 8cbd 82ce 4bbe a07a 15be 6455 023e
00000060: 930a bf3b c277 a0bd 0d61 03be d5ca a23d
00000070: 5307 8f3b c42c 23be a0ce 323d 84a3 e7bd
00000080: 2b17 0a3c ba0b 24be ecc2 2ebd ee3d 85bd
00000090: 88de b93d 9294 c4bc f4a1 efbd 6bb0 bf3d
000000a0: c000 eabd 7698 24be 5e04 15bd 727b 80bd
000000b0: 3527 02be d403 1bbd cb48 e3bd b848 87bd
000000c0: 6216 bebd db8e fcbd 05e2 143e 83b1 cf3d
000000d0: 6c97 053e 5c51 f1bd c060 073e bd7b ff3d
000000e0: bff2 f53d 3688 213e 745a d5bc 300f 143e
000000f0: 81d3 093e 487d 61bd 2786 c43d e23e 75bc
00000100: c62a 233e 325a e43d 4d6d b23d 4dcd b83d
00000110: 3eea 9bbd 6c59 3bbd d126 0eba 0eae 4cbd
00000120: 400d 18be 4036 283e ddb6 15be 8a09 a6bd
00000130: 5044 6e3b ccbc 98bc 730f b53d 057c 28bd
00000140: 6e08 0f3e de1c 3b3c 6f88 d3bd 147c 123e
00000150: f00e 433d a9a8 5abd a6b0 cfbd c0ee e53d
00000160: bc0e 07be a42b 003e 22d6 c93d 80c9 19be
00000170: b71a 953d 6f5d 9ebd a6d8 083e bc71 df3c
00000180: d380 9b3d bc77 b23d 7418 e3bd b713 1a3e
00000190: 09fd 203e a150 a4bc f255 12be 2884 07bd
000001a0: b50d b7bd 3db3 013c 47ee e53b 6849 2f3e
000001b0: c2ab 323e c61d 0f3e bf28 d8bd 5bb4 213e
000001c0: c2aa bfbb ec47 923d 4720 1bbd f6af 703d
000001d0: af0b 1bbe 5a0a b0bd a796 e2bc bb8c adbc
000001e0: 8112 82bd 0d31 f73d ee7b c3bd c2d2 183e
000001f0: fbc9 1e3e 2f8f c5bd 5b5c f63d 3549 9c3d
00000200: b487 ec3c d966 613d 61aa 6bbc 7a35 31be
00000210: b81f b2bd 659d b53d 52b9 743d 6aed 91bd
00000220: 7f89 21bc 5ecd a2bd dacb 8e3d 6567 863d
00000230: 5e6b dc3d 0de6 0fbd 950b cfbd 3aae 2dbe
00000240: e466 b23d 4162 1d3e 5d4b d33c 14df 1bbe
00000250: 814f 81bd e156 883d 5dba 123e c12d 063e
00000260: 5c3e 143e 834b febc b687 71bd 55e0 4d3d
00000270: ae7b bd3b e403 e33d 5a2c e73d 8add 36be
00000280: a4f9 833c 3223 f23c 9ef8 35bd 225f 1ebe
00000290: 1252 f5bd 1b83 e3bd 1f7e 66bd 281b 29bd
000002a0: a5e2 9a3d 6346 01be b2e2 f3bd b508 17be
000002b0: fe32 af3d 0334 16be 3707 523d 8797 3b3d
000002c0: 24fe 79bd 9483 2b3a 4bea 14be d100 ef3d
000002d0: ba62 133d fd73 d53c ba47 4e3d c6b0 8c3c
000002e0: c863 863d 17ac b03d 3a0c 9cbd fab5 893d
000002f0: 230b 2fbd 40bb 733d 8dbb a83d 4c6c 8f3d
00000300: 1841 6eba 2510 adbd 9641 2dbe d27e 41bd
00000310: cd17 01bd e842 d7bd 0121 003e f97d d0bc
00000320: ed1d 563d dc5d b63d ec9f 61bc d100 2a3e
00000330: bf22 27be 8dfe b2bd ca2b 783d 1303 913c
00000340: 4d61 be3d ea4f b6bd ae3f d23d 48dc 15be
00000350: 177b 33bd 4d4e 49be 1434 8f3d 69fa e8bd
00000360: a9cc fdbd 1266 083e f936 283d 139c 053e
00000370: a3b8 9e3d b5c7 cbbd 1e63 b83d 57c7 883c
00000380: a7dc d03d 824d 8fbc 2d67 33be 1fbb 073e
00000390: fbea 3bbd 22bf 603d e382 313e ed25 913c
000003a0: 44b7 02be 2168 c2bd f6af 02be e5ae 58bd
000003b0: 5d4c 15be e443 cebd 3769 0f3e aa4d 083e
000003c0: c1ac 213d b1b7 98bc 6138 33bd f840 81bd
000003d0: c9b3 543d e26d 303e 4c67 663d 6bbf 85bd
000003e0: be42 853d e0d8 403e e682 7b3d 90a0 be3d
000003f0: 3675 153e 58c9 e3bc 784e 69bd 44ae c83d

gc1.fc.bias f4 [128]
-0.12792252 0.12597026 -0.016983347 0.05364354 -0.0014217325 0.07807628 -0.030277899 -0.0674794
-0.04463803 -0.081898525 0.087023325 0.054762192 -0.12649086 0.034568127 -0.14819711 -0.18107967
-0.13115919 0.08691899 -0.18570592 -0.07450876 0.024313675 -0.07186842 -0.15666269 0.091337085
-0.046424683 -0.04159975 -0.008013471 0.010215282 -0.17439114 -0.1377477 -0.008551287 -0.019841682
0.03762855 -0.1395505 0.07786351 -0.2646768 -0.015554292 0.11763054 -0.10668964 0.047891967
-0.02937402 0.05027784 0.033644862 -0.20205715 0.040947225 -0.09946568 -0.20692776 0.13578433
0.029596753 0.08743427 0.05285487 -0.015374992 -0.18765876 0.13622445 -0.031032102 -0.080651864
-0.10358302 -0.120869555 -0.082340285 0.028745191 0.08391037 0.082331195 -0.07728615 0.1470395
0.08959173 0.083168514 0.032416914 -0.0059236595 0.061035164 0.043944962 0.08839885 -0.16685891
-0.029914506 0.09468798 -0.16387121 -0.07875044 0.05195754 0.104619876 -0.06313714 0.03929976
-0.105074234 -0.037257764 -0.13592385 -0.040980045 0.12208759 0.09362688 0.0008894183 -0.23739699
0.114739195 0.09490978 -0.18341343 -0.08984984 -0.19171625 0.093944274 -0.16577512 0.04941464
0.1423605 -0.08009477 0.110818215 -0.104187354 -0.073435836 -0.16933745 -0.1461064 -0.018828915
-0.018308742 0.054767605 -0.121778086 -0.17017588 -0.13029367 -0.04852383 0.02478898 -0.048109703
-0.0361348 0.008578956 -0.12113212 0.01540593 0.10927718 -0.10096273 0.1050788 0.14449817
0.08724003 -0.224105 -0.11746912 -0.15527141 0.058234148 -0.078204885 -0.11999671 -0.07811983
00000000: 1ffe 02be 59fe 003e a920 8bbc 54b9 5b3d
00000010: 6d59 baba 75e6 9f3d 5b09 f8bc a432 8abd
00000020: 5ed6 36bd 6aba a7bd 4939 b23d 524e 603d
00000030: d286 01be 4f97 0d3d fcc0 17be f36c 39be
00000040: 984e 06be 9502 b23d b129 3ebe 0c98 98bd
00000050: 792d c73c c02f 93bd 2f6c 20be f00e bb3d
00000060: cf27 3ebd 8064 2abd ef4a 03bc 005e 273c
00000070: 9793 32be bc0d 0dbe b31a 0cbc 068b a2bc
00000080: 6520 1a3d 54e6 0ebe e776 9f3d b883 87be
00000090: 6ed7 7ebc 48e8 f03d 1980 dabd 5e2a 443d
000000a0: c9a1 f0bc 23f0 4d3d 32cf 093d 12e8 4ebe
000000b0: 47b8 273d aab4 cbbd dfe4 53be 0c0b 0b3e
000000c0: e474 f23c bd10 b33d 597e 583d 64e7 7bbc
000000d0: 9e29 40be 6c7e 0b3e 0937 febc ce2c a5bd
000000e0: 5623 d4bd 758a f7bd 06a2 a8bd 097b eb3c
000000f0: 33d9 ab3d 429d a83d 3348 9ebd 8691 163e
00000100: de7b b73d 4154 aa3d 99c7 043d 421b c2bb
00000110: 0200 7a3d a2ff 333d 750a b53d 10dd 2abe
00000120: 440f f5bc c6eb c13d dbcd 27be e947 a1bd
00000130: 6ed1 543d f242 d63d 0b4e 81bd c9f8 203d
00000140: 2931 d7bd 999b 18bd 9f2f 0bbe b1da 27bd
00000150: 0f09 fa3d 73bf bf3d da27 693a 3218 73be
00000160: 62fc ea3d 0f60 c23d bbd0 3bbe 3103 b8bd
00000170: 4451 44be db65 c03d f4c0 29be 0167 4a3d
00000180: f3c6 113e ba08 a4bd a9f4 e23d 2e60 d5bd
00000190: 8765 96bd cc66 2dbe eb9c 15be 193f 9abc
000001a0: 37fc 95bc ff53 603d ca66 f9bd 9642 2ebe
000001b0: b46b 05be ecc0 46bd 4212 cb3c ae0e 45bd
000001c0: 1602 14bd c08e 0c3c 1e14 f8bd 2769 7c3c
000001d0: b7cc df3d 8cc5 cebd 8e33 d73d 54f7 133e
000001e0: e7aa b23d c87b 65be a693 f0bd 78ff 1ebe
000001f0: ee86 6e3d e229 a0bd d6c0 f5bd 4afd 9fbd

gc2.fc.weight f4 [128, 128]
-0.057434134 -0.048351813 0.04090977 0.04986323 -0.042522352 -0.10501831 0.047085367 -0.03834211
-0.070730105 0.07215018 0.09413914 -0.106231175 -0.112796016 -0.01726319 -0.06449445 0.014981016
0.042249516 -0.01286604 0.1416732 -0.054158445 -0.12162913 0.06453779 0.14896739 0.032069452
-0.016106358 0.00074378285 0.06014235 -0.0035025117 0.07050739 0.0126370145 0.047955416 0.022102095
-0.06336229 0.052535377 -0.073374696 -0.02064969 0.062486917 -0.068881564 0.13129662 -0.058353927
-0.032750186 -0.13352521 0.0037666906 -0.00082888326 0.04709888 -0.14513843 0.01629646 -0.053926323
-0.01153089 -0.050098557 0.022842577 -0.0703058 0.010206222 -0.0075975624 -0.18249445 0.10145189
-0.079072215 -0.08913135 -0.038334794 0.012616813 0.04177617 0.0024875721 0.016347418 0.032423493
0.044487566 0.10638243 -0.04379657 -0.035337973 0.0412647 -0.0077092303 -0.11101026 0.016950767
-0.052894693 -0.021914141 0.041550376 -0.0612994 0.02816519 -0.11243673 0.030899778 0.03296626
-0.03591875 0.0144230975 0.098118365 0.0114487065 0.05245658 -0.05723305 -0.069312125 -0.0002800843
0.112944216 0.0069649355 -0.0655272 -0.082449764 0.1411652 -0.070507936 -0.005948186 -0.09464945
-0.051836193 -0.024481421 0.09586216 -0.025387008 -0.0030386755 0.081553884 0.09480635 0.04592592
0.033312906 -0.07307239 0.052164372 0.062450897 -0.09003206 0.04274376 0.039118435 0.044199403
-0.046791717 -0.1324534 0.037071012 0.10127573 -0.016566725 -0.0018841779 -0.019116268 -0.057863176
0.092500366 0.0052276314 -0.10427565 -0.20024775 0.016701793 0.012251481 -0.019731678 -0.1125441
-0.039902683 0.023971297 0.010018806 0.026281912 0.041344084 0.09618898 -0.042518847 0.03333123
-0.059343103 -0.02770488 0.0039815144 -0.07992059 -0.017086674 -0.0036673213 -0.009933854 -0.023861261
0.02901389 -0.04435017 0.07431829 0.060050864 0.036645975 -0.099590756 -0.013525492 -0.03518118
0.002180301 0.039847445 -0.08641945 -0.062520914 -0.029765444 -0.08098153 -0.005869722 -0.07930072
-0.03619828 -0.073627084 -0.013125701 -0.06814856 0.003832377 -0.021757217 0.08678779 -0.06413374
0.022720605 0.06228958 -0.11296435 -0.0040629082 -0.053174287 0.057354692 -0.0893403 0.07396621
0.015842091 -0.08942948 -0.07927085 -0.04526755 -0.0018297341 0.032836612 0.02875252 -0.014440254
-0.07959 0.04249251 -0.16221757 -0.21239287 -0.067978375 -0.05068885 -0.0049418896 0.071274236
0.08478917 -0.10357734 -0.067776754 -0.05950053 -0.02348145 -0.021033136 0.07101374 -0.08684479
0.010990799 -0.10614969 -0.083726585 -0.03582265 -0.003406453 -0.034963753 0.07089766 0.06993964
0.024908967 0.017123045 -0.04721364 -0.03355167 -0.17527252 -0.11725559 0.020979658 -0.087746255
0.015065902 0.046908256 -0.12009236 0.042471465 -0.0037554966 -0.08181388 -0.088351466 -0.0828218
0.055819206 -0.014802609 -0.045370944 -0.050220806 0.05226402 0.036680404 0.054906905 -0.04847877
-0.09921482 -0.040145777 0.08592629 -0.12666519 -0.051505502 -0.05567415 -0.019888768 0.034465753
-0.048734054 -0.036496453 -0.011831371 -0.050157372 -0.087958716 -0.09780265 -0.09522928 -0.051222965
-0.05618118 -0.042521942 -0.1854723 -0.058889635 -0.075540796 -0.06758556 0.0022618808 -0.12410184
00000000: 0e40 6bbd 8d0c 46bd 0191 273d 633d 4c3d
00000010: eb2b 2ebd d713 d7bd 96dc 403d 9e0c 1dbd
00000020: f2da 90bd 79c3 933d 05cc c03d bb8f d9bd
00000030: 9901 e7bd 896b 8dbc ab15 84bd ef72 753c
00000040: d40d 2d3d 15cc 52bc c812 113e 3fd5 5dbd
00000050: b118 f9bd 642c 843d e88a 183e 425b 033d
00000060: 7bf1 83bc 6cfa 423a d357 763d 658a 65bb
00000070: 2e66 903d 7b0b 4f3c e66c 443d 740f b53c
00000080: 17c4 81bd 562f 573d 7945 96bd 8a29 a9bc
00000090: 48f2 7f3d c711 8dbd 9f72 063e 8704 6fbd
000000a0: 0f25 06bd d5ba 08be 95da 763b 6a49 59ba
000000b0: c1ea 403d 2b9f 14be 2780 853c d9e1 5cbd
000000c0: 0fec 3cbc 2534 4dbd 5b20 bb3c 7dfc 8fbd
000000d0: ff37 273c f9f4 f8bb d3df 3abe 02c6 cf3d
000000e0: 9df0 a1bd 7f8a b6bd f204 1dbd c0b6 4e3c
000000f0: 7d1d 2b3d 8906 233b 05eb 853c 7fce 043d
00000100: 9838 363d 08df d93d 0864 33bd 8dbe 10bd
00000110: 2d05 293d b69d fcbb 5959 e3bd 56dc 8a3c
00000120: 1ba8 58bd 4985 b3bc ba30 2a3d 1415 7bbd
00000130: afba e63c 3a45 e6bd 8821 fd3c a107 073d
00000140: 8a1f 13bd db4e 6c3c 48f2 c83d 5b93 3b3c
00000150: b6dc 563d 346d 6abd 84f3 8dbd 47d8 92b9
00000160: 4c4f e73d 1d3a e43b 2033 86bd 6cdb a8bd
00000170: 9c8d 103e 7766 90bd 00e9 c2bb 92d7 c1bd
00000180: 3052 54bd 438d c8bc 6153 c43d 6af8 cfbc
00000190: 8424 47bb b905 a73d d529 c23d d11c 3c3d
000001a0: 1d73 083d faa6 95bd 4faa 553d 83cc 7f3d
000001b0: bb62 b8bd 1514 2f3d a73a 203d 6f0a 353d
000001c0: aca8 3fbd dda1 07be c6d7 173d a669 cf3d
000001d0: f1b6 87bc 85f6 f6ba b899 9cbc f001 6dbd
000001e0: d570 bd3d 8d4c ab3b 798e d5bd bf0d 4dbe
000001f0: 33d2 883c 70ba 483c 54a4 a1bc 857d e6bd
00000200: ff70 23bd 745f c43c eb25 243c 2a4d d73c
00000210: 6a58 293d bafe c43d 3e28 2ebd 5486 083d
00000220: c111 73bd 58f5 e2bc 5d77 823b 68ad a3bd
00000230: 5af9 8bbc 7157 70bb 9bc1 22bc b178 c3bc
00000240: 8aae ed3c 86a8 35bd 3034 983d e5f7 753d
00000250: 171a 163d 3df6 cbbd 069a 5dbc 241a 10bd
00000260: 61e3 0e3b 1337 233d aefc b0bd f70a 80bd
00000270: a9d6 f3bc a5d9 a5bd cc56 c0bb 6a68 a2bd
00000280: a644 14bd ccc9 96bd 2e0d 57bc 7991 8bbd
00000290: 9e28 7b3b 313c b2bc ccbd b13d 8d58 83bd
000002a0: 9020 ba3c 5c23 7f3d da59 e7bd 2522 85bb
000002b0: 48cd 59bd c1ec 6a3d 0cf8 b6bd 997b 973d
000002c0: 46c7 813c ce26 b7bd c158 a2bd 776a 39bd
000002d0: b0d3 efba af7f 063d 688a eb3c d196 6cbc
000002e0: 1500 a3bd a00c 2e3d 5d1c 26be 847d 59be
000002f0: 3f38 8bbd 1d9f 4fbd 93ef a1bb 3af8 913d
00000300: f2a5 ad3d 5b20 d4bd 8ace 8abd d4b6 73bd
00000310: 2b5c c0bc af4d acbc a76f 913d aedb b1bd
00000320: c112 343c 0265 d9bd d878 abbd c5ba 12bd
00000330: cc3e 5fbb 2736 0fbd cb32 913d 843c 8f3d
00000340: e40d cc3c a145 8c3c 1763 41bd 7a6d 09bd
00000350: a47a 33be b323 f0bd 88dd ab3c 4fb4 b3bd
00000360: f9d6 763c df22 403d fcf2 f5bd 8ff6 2d3d
00000370: c71e 76bb 098e a7bd 9df1 b4bd 7a9e a9bd
00000380: aea2 643d a486 72bc e2d6 39bd 55b4 4dbd
00000390: cc12 563d 313e 163d 10e6 603d ad91 46bd
000003a0: 2431 cbbd e66f 24bd 1ffa af3d 85b4 01be
000003b0: 6ff7 52bd 940a 64bd c5ed a2bc f62b 0d3d
000003c0: 5c9d 47bd 4e7d 15bd 5ed8 41bc d171 4dbd
000003d0: b323 b4bd c14c c8bd 9207 c3bd 2ccf 51bd
000003e0: 3d1e 66bd 7d2b 2ebd 73ec 3dbe 4236 71bd
000003f0: 22b5 9abd 4c6a 8abd 103c 143b 1b29 febd

gc2.fc.bias f4 [128]
0.05673708 -0.038326707 0.05734464 -0.05400739 -0.09936563 0.086454995 0.04387905 -0.026918687
0.021176543 -0.0790129 -0.13032542 -0.12882626 -0.01638227 -0.0149965305 -0.08366116 -0.0001060026
-0.13806452 -0.030714992 -0.13806072 -0.05039572 -0.028645411 0.0310606 -0.052050043 -0.13808958
0.022472179 -0.030622885 -0.15459645 -0.041537207 -0.14955156 -0.105929986 -0.031522393 0.0022107747
0.024803 -0.1516192 -0.11782064 0.02355992 0.05321092 0.09038207 0.01392854 -0.031144345
0.008402327 -0.0913905 -0.15845512 -0.093385346 -0.16740428 -0.10825848 -0.1399613 0.019330963
-0.10262916 0.07969774 -0.09793023 0.05163003 -0.0018549855 -0.014774929 -0.03572054 -0.038362976
0.051362757 0.032748535 -0.03230665 -0.011300183 -0.024612766 -0.14612263 -0.120366774 -0.019612228
-0.23987038 0.052865237 -0.096997745 -0.059629213 0.077207215 0.039864935 0.021129917 -0.18379942
0.019956985 0.05837353 0.07816091 -0.017777786 -0.06935087 0.048619285 0.06601919 -0.010283195
0.088832736 0.013891412 -0.038033813 0.074708976 -0.101854034 0.05603354 -0.025079474 -0.06789233
-0.05258628 -0.13614306 0.088596515 -0.09320183 -0.08489308 0.00088028854 0.08927292 -0.005834706
-0.015204329 0.009311005 0.03949393 -0.10346961 -0.040346604 -0.0501918 -0.03917868 0.037168294
0.05608907 -0.025191562 0.0820461 0.04775828 -0.012543203 0.039668284 0.011687083 0.022827905
0.013949988 -0.05105474 0.041707303 0.018243635 -0.06336506 0.0741101 -0.070830196 0.03390732
-0.032207377 0.050159615 -0.081122264 -0.02271018 -0.043471247 -0.019339463 0.04129395 0.061100293
00000000: 2465 683d 77fc 1cbd 37e2 6a3d da36 5dbd
00000010: 3580 cbbd 510f b13d 85ba 333d 9484 dcbc
00000020: 6e7a ad3c 84d1 a1bd 0774 05be 08eb 03be
00000030: 1c34 86bc 02b4 75bc 8b56 abbd b64d deb8
00000040: c960 0dbe 029e fbbc ca5f 0dbe be6b 4ebd
00000050: c8a9 eabc cd72 fe3c 6d32 55bd 5b67 0dbe
00000060: 9317 b83c d8dc fabc 884e 1ebe eb22 2abd
00000070: 0b24 19be d2f1 d8bd a01d 01bd a5e2 103b
00000080: a92f cb3c 1042 1bbe f34b f1bd bc00 c13c
00000090: b2f3 593d 3c1a b93d 8834 643c 6d22 ffbc
000000a0: eaa9 093c f12a bbbd 0f42 22be d140 bfbd
000000b0: 076c 2bbe 9fb6 ddbd 0452 0fbe f85b 9e3c
000000c0: 3d2f d2bd 9238 a33d a58f c8bd 037a 533d
000000d0: fc22 f3ba 8b12 72bc b34f 12bd 7f22 1dbd
000000e0: c161 523d 5423 063d fa53 04bd 6724 39bc
000000f0: b6a0 c9bc 2ca1 15be db82 f6bd d3a9 a0bc
00000100: 95a0 75be 3889 583d c1a6 c6bd c33d 74bd
00000110: d11e 9e3d 6a49 233d a618 ad3c ea35 3cbe
00000120: d57c a33c 1519 6f3d d412 a03d b8a2 91bc
00000130: d407 8ebd 0425 473d 1235 873d d97a 28bc
00000140: f0ed b53d ce98 633c 58c9 1bbd 0501 993d
00000150: d998 d0bd 6d83 653d 7873 cdbc 220b 8bbd
00000160: b664 57bd 1669 0bbe 1772 b53d 9ae0 bebd
00000170: 6cdc adbd 2ac3 663a b8d4 b63d 1031 bfbb
00000180: 941b 79bc 2f8d 183c 63c4 213d e0e7 d3bd
00000190: 7b42 25bd eb95 4dbd d379 20bd c83d 183d
000001a0: a7bd 653d 895e cebc c907 a83d 309e 433d
000001b0: 0282 4dbc 367b 223d 2e7b 3f3c 9601 bb3c
000001c0: 7e8e 643c c61e 51bd 47d5 2a3d ad73 953c
000001d0: 8ac5 81bd 09c7 973d 6c0f 91bd 67e2 0a3d
000001e0: e2eb 03bd 2b74 4d3d 6e23 a6bd b30a babc
000001f0: e80e 32bd cb6d 9ebc d823 293d 4d44 7a3d

temporal_conv.weight f4 [128, 128, 3]
-0.075545505 -0.044119213 -0.0061003463 -0.02371622 -0.030590646 -0.028634045 -0.0338936 0.007976842
0.036710154 -0.051238798 -0.05059653 0.0028093506 -0.078159265 -0.005998956 0.031213718 -0.002023715
0.006665849 -0.02110814 -0.015916582 -0.05216072 0.034406636 -0.033606082 0.013399747 -0.034594893
-0.029018868 -0.117042154 -0.023371125 -0.08777471 -0.0226999 -0.03747305 0.028378762 -0.048035458
0.013732164 -0.032570858 0.042240568 0.033795897 -0.051029146 -0.046616256 0.03459479 0.011387867
-0.06533377 0.016592791 -0.025414463 -0.10957074 -0.026632177 -0.049879868 -0.08449322 0.037618816
-0.017900687 -0.0067972397 0.046792552 -0.05995474 -0.022387382 -0.025204513 -0.0800692 -0.029602017
-0.04879369 -0.030154785 0.0018477214 -0.034017008 -0.048787285 -0.012500013 -0.04674998 -0.008442113
0.018398423 0.009074782 -0.09979117 -0.001875195 0.02381526 -0.07449464 -0.04495421 0.03661859
-0.008643878 -0.037744198 -0.043841913 -0.042367347 -0.021274054 0.046763826 0.036626447 -0.06576318
-0.04974547 -0.0994012 -0.037305858 -0.047769073 -0.02214679 0.030110547 -0.04141683 -0.04410771
0.0019258623 -0.0012400714 -0.061409764 -0.088572346 0.046116427 0.0053426954 -0.044411052 0.050230194
-0.12399107 -0.0011273457 -0.04172085 -0.018455703 0.012255984 -0.04585991 -0.046855778 -0.072048075
-0.01828889 0.057995837 0.018456712 -0.021947889 -0.10454748 -0.11274204 0.020527512 -0.0981293
-0.040835705 0.0324827 -0.05793063 -0.08600017 0.007381152 -0.032998998 -0.12195585 0.049441982
-0.006399168 -0.11216564 -0.025537547 -0.10037447 -0.04020116 -0.009723853 -0.05196327 0.03017164
0.030393241 0.015778696 -0.0039667976 0.018577443 -0.05675797 0.053465128 0.0054097557 0.009148493
-0.01568101 -0.046665914 0.04197318 -0.028133133 -0.014781041 0.055841837 -0.0423073 0.046373807
-0.050283697 -0.073519915 0.03238247 -0.03688108 -0.11035093 -0.005680064 -0.104835704 0.012949215
0.032779656 -0.1039227 -0.024096066 0.02774053 -0.06950828 -0.013093842 -0.0260634 -0.019708682
-0.0345267 -0.020115126 -0.0477194 0.024771351 0.0322229 -0.043440808 -0.04302788 -0.050121956
-0.036281835 -0.07854548 -0.0019274318 -0.026645409 -0.048501905 -0.02292716 -0.11526846 -0.116370544
0.028172622 0.030571418 -0.039172485 -0.00953598 -0.032450557 -0.07948151 -0.041301522 -0.088274226
-0.027514774 -0.034271214 -0.02890124 -0.091915995 0.027592517 -0.05293589 -0.029976098 -0.0074711493
-0.043479696 -0.02746845 -0.037622146 -0.064903304 -0.009151388 0.027521998 -0.10387371 -0.016041141
0.016124194 -0.043379143 -0.014080352 -0.011938931 -0.055103168 -0.042248502 0.03741785 -0.09024749
-0.104400665 -0.049848698 -0.07539241 -0.08666632 0.010690264 -0.058949027 0.041705955 -0.005725179
-0.0877974 0.028830923 -0.023666216 -0.05325491 -0.042420734 -0.008030309 -0.037471168 -0.0837044
-0.01611796 0.02727323 0.008878599 -0.008119291 -0.04352591 -0.024922673 -0.038569976 -0.083680436
0.007876453 0.015116642 0.023874452 -0.11007474 0.033839602 0.032702405 0.048823856 -0.003303941
-0.031771146 -0.046635047 -0.050734065 -0.07417659 -0.03324284 -0.039803747 -0.042958677 -0.043513533
-0.0011851081 -0.06570972 -0.037305016 0.017161684 0.053829737 -0.012037343 -0.023144154 -0.08785786
00000000: 9ab7 9abd 59b6 34bd 6ae5 c7bb 8548 c2bc
00000010: 3c99 fabc f291 eabc 04d4 0abd 4db1 023c
00000020: 635d 163d c6df 51bd 4f3e 4fbd 151d 383b
00000030: f711 a0bd e492 c4bb e9b3 ff3c 4ea0 04bb
00000040: 326d da3b faea acbc 7e63 82bc 7ba6 55bd
00000050: f9ed 0c3d 88a6 09bd 9d8a 5b3c 60b3 0dbd
00000060: fab8 edbc ccb3 efbd cd74 bfbc 3ac3 b3bd
00000070: 24f5 b9bc 577d 19bd 947a e83c d4c0 44bd
00000080: dffc 603c 0569 05bd 7204 2d3d 916d 0a3d
00000090: f003 51bd b0f0 3ebd 44b3 0d3d 2d94 3a3c
000000a0: b6cd 85bd 9bed 873c fe31 d0bc a066 e0bd
000000b0: b92b dabc d54e 4cbd c80a adbd 3016 1a3d
000000c0: 76a4 92bc 61bb debb 8ca9 3f3d 1a93 75bd
000000d0: be65 b7bc b279 cebc 52fb a3bd ee7f f2bc
000000e0: e4db 47bd 2b07 f7bc 3e2f f23a 6b55 0bbd
000000f0: 2dd5 47bd dbcc 4cbc e87c 3fbd ca50 0abc
00000100: 4ab8 963c 65ae 143c 505f ccbd 1ac9 f5ba
00000110: 3818 c33c a590 98bd e821 38bd 60fd 153d
00000120: 0d9f 0dbc a999 1abd 9493 33bd 6289 2dbd
00000130: ed46 aebc 6d8b 3f3d 9d05 163d d9ae 86bd
00000140: e8c1 4bbd db92 cbbd 07ce 18bd 81a9 43bd
00000150: 2f6d b5bc 65aa f63c b2a4 29bd 49aa 34bd
00000160: 376d fc3a e489 a2ba ce88 7bbd 6b65 b5bd
00000170: 94e4 3c3d c711 af3b 5de8 35bd 2dbe 4d3d
00000180: 08ef fdbd 72c3 93ba 7be3 2abd 6a30 97bc
00000190: 53cd 483c 9ad7 3bbd d8eb 3fbd f18d 93bd
000001a0: 95d2 95bc 0b8d 6d3d 8832 973c 0fcc b3bc
000001b0: fd1c d6bd 4ce5 e6bd 5029 a83c 04f8 c8bd
000001c0: 5743 27bd 940c 053d ab48 6dbd db20 b0bd
000001d0: 97dd f13b f529 07bd fdc3 f9bd ad83 4a3d
000001e0: 1db0 d1bb 19b7 e5bd 1e34 d1bc 2191 cdbd
000001f0: f9a9 24bd cc50 1fbc 70d7 54bd 842a f73c
00000200: 3ffb f83c 5342 813c e9fb 81bb b92f 983c
00000210: 0c7b 68bd 40fe 5a3d 5244 b13b 90e3 153c
00000220: 7675 80bc c224 3fbd 12ec 2b3d 7577 e6bc
00000230: 2e2c 72bc 69ba 643d 6b4a 2dbd 76f2 3d3d
00000240: 47f6 4dbd 9c91 96bd 7ba3 043d 9e10 17bd
00000250: abff e1bd d51f babb 1ab4 d6bd f228 543c
00000260: f643 063d 6dd5 d4bd 1d65 c5bc 1c40 e33c
00000270: 5b5a 8ebd 8e87 56bc e982 d5bc 1a74 a1bc
00000280: de6b 0dbd 7ac8 a4bc 6b75 43bd 4aed ca3c
00000290: 29fc 033d fdee 31bd 013e 30bd ae4c 4dbd
000002a0: 439c 14bd 74dc a0bd e1a1 fcba 7947 dabc
000002b0: efa9 46bd bdd1 bbbc df11 ecbd ae53 eebd
000002c0: 45ca e63c e970 fa3c 5473 20bd cd3c 1cbc
000002d0: e0ea 04bd 34c7 a2bd c92b 29bd 1ec9 b4bd
000002e0: aa66 e1bc f95f 0cbd 4bc2 ecbc 743e bcbd
000002f0: b409 e23c 4ed3 58bd 6f90 f5bc 8bd0 f4bb
00000300: c417 32bd 8405 e1bc ae19 1abd 06ec 84bd
00000310: b4ef 15bc d075 e13c bdbb d4bd b668 83bc
00000320: e316 843c 54ae 31bd 47b1 66bc 829b 43bc
00000330: dcb3 61bd c40c 2dbd 7643 193d add3 b8bd
00000340: 04d0 d5bd 262e 4cbd 5667 9abd 1d7e b1bd
00000350: 3826 2f3c 8974 71bd ddd3 2a3d 489a bbbb
00000360: 20cf b3bd d42e ec3c a7df c1bc d221 5abd
00000370: 5dc1 2dbd 8f91 03bc 5e7b 19bd 366d abbd
00000380: d009 84bc 1c6c df3c 8b77 113c c606 05bc
00000390: 3948 32bd a22a ccbc 8dfb 1dbd a660 abbd
000003a0: 3d0c 013c cbab 773c 5b94 c33c de6e e1bd
000003b0: 659b 0a3d f5f2 053d 86fb 473d ef86 58bb
000003c0: 7622 02bd 6404 3fbd 86ce 4fbd e5e9 97bd
000003d0: a529 08bd 4109 23bd 70f5 2fbd 3f3b 32bd
000003e0: a155 9bba d192 86bd 25cd 18bd a996 8c3c
000003f0: 927c 5c3d 4738 45bc cf98 bdbc d2ee b3bd

temporal_conv.bias f4 [128]
-0.11914894 0.055241257 0.032789104 -0.09807223 -0.10084829 0.04582443 0.023400974 0.0043169814
0.0023362073 -0.05568773 -0.013754599 -0.09612913 0.1025121 0.029925413 -0.013746514 0.067853674
-0.02927029 0.09692067 0.06747511 0.070249215 0.021184845 -0.07082225 -0.07546376 0.08727158
0.028169986 0.030230898 -0.10735138 -0.023817258 0.09354263 0.037333492 0.029967409 -0.110760845
0.016157972 0.050659303 -0.050878048 -0.02926735 -0.06654339 0.08971909 -0.0015102865 0.007943041
-0.03822382 0.039745353 0.04537441 -0.0025181347 0.043124445 -0.095052145 0.07162159 -0.027622938
0.09030779 0.032792665 0.038703404 0.043424062 0.026057646 -0.027884467 -0.07576352 -0.09933379
0.05108153 0.056265213 -0.08144418 -0.061177116 -0.13316596 0.092657275 -0.039436743 -0.10141441
-0.006903301 0.07105289 0.0693739 0.04841235 -0.06015763 0.016465725 0.011153995 -0.015779223
-0.0042680283 -0.031835824 0.034057703 -0.10628269 -0.013786211 0.024815777 -0.008130284 -0.08139281
0.057502933 0.035138946 0.021991976 0.08434095 0.016285852 0.069533736 0.068534635 0.0827861
0.08318117 -0.061263744 0.015661534 0.045066975 0.028714346 -0.04543932 -0.09521629 -0.0022312708
0.07502395 0.037892554 -0.04694464 0.043538824 -0.09180003 -0.09725665 -0.06207738 0.007247807
-0.021211684 -0.107909374 0.034680143 -0.0069664726 0.02340203 -0.01727909 -0.091162525 -0.08223849
-0.012077483 0.06304037 -0.10088885 0.026343135 0.0057419147 0.02268113 0.04242032 -0.013469772
-0.004166676 0.06585449 -0.07900714 -0.084279925 -0.025950804 0.0807727 0.07189999 0.0050327275
00000000: 5c04 f4bd a844 623d de4d 063d 18da c8bd
00000010: 8c89 cebd 66b2 3b3d 66b3 bf3c 7775 8d3b
00000020: 0e1b 193b d118 64bd f85a 61bc 59df c4bd
00000030: ddf1 d13d 2426 f53c 0f39 61bc def6 8a3d
00000040: 3fc8 efbc 587e c63d 6430 8a3d d2de 8f3d
00000050: d78b ad3c 410b 91bd be8c 9abd 71bb b23d
00000060: bec4 e63c caa6 f73c 0adb dbbd 691c c3bc
00000070: 4793 bf3d 01eb 183d 367e f53c 95d6 e2bd
00000080: b95d 843c 2180 4f3d 8065 50bd 15c2 efbc
00000090: e747 88bd a4be b73d cef4 c5ba 8723 023c
000000a0: 9590 1cbd 06cc 223d 84da 393d 4a07 25bb
000000b0: 42a3 303d b3aa c2bd 57ae 923d 8049 e2bc
000000c0: 4af3 b83d 9a51 063d 7687 1e3d 6edd 313d
000000d0: d876 d53c f76d e4bc e829 9bbd 846f cbbd
000000e0: de3a 513d 5a76 663d 35cc a6bd db94 7abd
000000f0: a85c 08be 19c3 bd3d 6c88 21bd 5cb2 cfbd
00000100: 1635 e2bb 2d84 913d e713 8e3d 074c 463d
00000110: d967 76bd 21e3 863c 3fbf 363c 6e43 81bc
00000120: d1da 8bbb 4866 02bd 1780 0b3d bdaa d9bd
00000130: 8fdf 61bc 754a cb3c e234 05bc 46b1 a6bd
00000140: 3288 6b3d dbed 0f3d 8428 b43c f3ba ac3d
00000150: e869 853c b467 8e3d e35b 8c3d c28b a93d
00000160: e45a aa3d b1ef 7abd 9e4c 803c 2698 383d
00000170: 593a eb3c 951e 3abd c200 c3bd 833a 12bb
00000180: 28a6 993d 3935 1b3d 0649 40bd c455 323d
00000190: a701 bcbd 7f2e c7bd da44 7ebd 037f ed3b
000001a0: 20c4 adbc 97ff dcbd c40c 0e3d 0247 e4bb
000001b0: 9db5 bf3c e18c 8dbc 6bb3 babd a76c a8bd
000001c0: a3e0 45bc 4f1b 813d d09e cebd 8fcd d73c
000001d0: ac26 bc3b c7cd b93c eec0 2d3d 52b0 5cbc
000001e0: 9d88 88bb b8de 863d 7fce a1bd f49a acbd
000001f0: c896 d4bc 286c a53d 4d40 933d 94e9 a43b

fc.weight f4 [36, 128]
-0.08264972 -0.12840047 -0.02802392 -0.030360246 0.064833984 -0.06260729 -0.050397843 0.044590984
-0.11263968 -0.064889185 -0.07512143 0.022908289 -0.12328671 -0.09620895 0.05392242 0.015825681
-0.11325356 0.1178562 0.11369041 -0.03179925 0.06764469 -0.054256473 -0.10403699 0.13512483
-0.053656854 0.061062068 -0.14627804 0.0051590493 -0.07652293 -0.07036573 -0.08212712 -0.09473212
0.09664894 -0.03699042 -0.0038747264 -0.007861953 0.00094854314 -0.061239064 -0.0908223 -0.037101515
-0.017765626 -0.13399634 -0.11695853 -0.053752586 -0.041242056 -0.0021258919 0.043805312 0.03433139
0.1314729 0.11625722 -0.15532063 -0.03590871 0.04672308 -0.032488104 0.02029084 -0.1504135
0.02498153 0.08357747 0.072072886 0.06324278 -0.07040875 -0.031730182 -0.029820144 -0.05637803
0.096087925 0.05615591 0.038590938 -0.11746802 -0.05669497 0.022508832 0.04241911 0.0062641306
0.010586894 0.087062284 -0.02108742 -0.006569176 0.030806668 0.03759607 -0.11165933 -0.1153638
0.0775607 -0.037093464 -0.017386649 0.00088174565 0.0019820896 0.01357886 0.0895739 0.12327244
-0.067768976 -0.05865985 -0.020286564 -0.039001662 -0.061531845 0.1131665 -0.03553583 0.036674783
0.03671002 -0.01595996 -0.047588125 0.04382878 0.0054062465 0.028174775 0.107229516 0.0788423
-0.026540574 -0.029613722 0.11403587 0.1105766 -0.05555423 -0.03189841 -0.08452625 0.0041633537
0.03281576 0.06413637 -0.081419945 -0.06303608 -0.0894263 -0.02323921 -0.04655209 0.021366728
-0.111119926 0.059623025 0.105835274 -0.11390395 -0.026760833 0.0111423815 0.032347232 0.009985937
-0.07086872 -0.02622483 0.0670833 -0.038723018 -0.044094376 -0.07808216 -0.043352418 0.030061835
-0.014368523 -0.03013587 0.06310596 -0.005389211 -0.02384711 -0.04620207 -0.021346971 0.08437528
-0.008592732 0.07057081 0.10323821 -0.07789489 -0.026062887 -0.051671248 0.001417556 0.045717
-0.099294126 -0.045846093 -0.0036616037 -0.027840782 -0.07814414 0.0045602038 0.009543386 0.05720233
-0.078875095 -0.08872879 -0.03565688 -0.031414583 0.02616578 -0.025397828 -0.08145544 -0.03550499
0.0754255 0.06110473 -0.04658442 0.045947563 0.029740978 -0.0641751 0.14633273 -0.08992479
0.073277414 -0.03371135 -0.07912006 0.031523522 0.13715295 0.012505082 0.00787454 0.033160962
-0.08681764 0.003867084 -0.027008645 -0.056618318 -0.12217624 -0.083160676 -0.051134575 -0.08957985
-0.0087479325 -0.01420502 0.044218168 -0.043689992 -0.030031048 0.035703525 0.10630867 0.044695746
-0.093785346 -0.02972441 -0.0030858146 0.023990186 -0.0032737534 0.066020206 -0.07892083 -0.05008022
-0.09550881 -0.03786675 0.095926285 0.10387863 -0.07630815 0.032079197 -0.032028906 -0.030451277
0.04302366 -0.11013859 -0.10355401 0.13827088 0.017638288 0.13423681 0.017013716 -0.0477579
-0.0066518183 0.11388548 0.02526175 0.060641702 0.06965959 0.020936942 0.025168668 0.17455433
0.14113784 0.07088153 -0.008842957 -0.11664228 0.009314257 -0.05274099 -0.009931451 -0.0088027
0.060629223 -0.067614615 -0.09734476 -0.089064024 0.02726783 0.10069005 -0.04414138 0.061559368
-0.007544487 -0.080041386 -0.06249855 -0.14594297 -0.05046094 0.04993029 0.04995959 -0.03775777
00000000: 4244 a9bd 6a7b 03be 6b92 e5bc 0db6 f8bc
00000010: aec7 843d 4038 80bd f86d 4ebd 09a5 363d
00000020: a2af e6bd 9fe4 84bd 44d9 99bd 2aaa bb3c
00000030: be7d fcbd 3309 c5bd c1dd 5c3d dca4 813c
00000040: 7cf1 e7bd 975e f13d 85d6 e83d ee3f 02bd
00000050: 4d89 8a3d 093c 5ebd 5811 d5bd 2a5e 0a3e
00000060: 4ac7 5bbd 381c 7a3d e9c9 15be 3e0d a93b
00000070: 0eb8 9cbd e81b 90bd 4332 a8bd ea02 c2bd
00000080: e1ef c53d 4483 17bd 1fef 7dbb 6ccf 00bc
00000090: a7a7 783a d0d5 7abd 0b01 babd c2f7 17bd
000000a0: 3889 91bc 5636 09be f487 efbd ac2b 5cbd
000000b0: 6eed 28bd 8c52 0bbb 336d 333d 129f 0c3d
000000c0: d5a0 063e 4418 ee3d 5f0c 1fbe 0315 13bd
000000d0: b360 3f3d 3f12 05bd fa38 a63c ff05 1abe
000000e0: 11a6 cc3c aa2a ab3d f39a 933d 6e85 813d
000000f0: 7632 90bd 82f7 01bd 6049 f4bc a6ec 66bd
00000100: bfc9 c43d bd03 663d 8811 1e3d 1393 f0bd
00000110: fc38 68bd 7164 b83c a9bf 2d3d 5643 cd3b
00000120: a774 2d3c b64d b23d 86bf acbc 3e42 d7bb
00000130: 445e fc3c 56fe 193d a6ad e4bd db43 ecbd
00000140: 25d8 9e3d 51ef 17bd 726e 8ebc f324 673a
00000150: f2e5 013b de79 5e3c 8572 b73d 4376 fc3d
00000160: 76ca 8abd 5045 70bd 0230 a6bc 35c0 1fbd
00000170: d108 7cbd d7c3 e73d 058e 11bd 4c38 163d
00000180: 3f5d 163d 76be 82bc c4eb 42bd cf85 333d
00000190: e226 b13b c9ce e63c 269b db3d 1278 a13d
000001a0: 9e6b d9bc 7a98 f2bc a38b e93d fc75 e23d
000001b0: d58c 63bd e8a7 02bd 191c adbd be6c 883b
000001c0: d169 063d ee59 833d 80bf a6bd 0f19 81bd
000001d0: 2325 b7bd 2860 bebc 68ad 3ebd 4709 af3c
000001e0: d892 e3bd 4637 743d 2ac0 d83d 7946 e9bd
000001f0: 8939 dbbc 898e 363c 887e 043d 0e9c 233c
00000200: 9f23 91bd 74d5 d6bc f862 893d 079c 1ebd
00000210: 4e9c 34bd 8ae9 9fbd 4e92 31bd 3d44 f63c
00000220: f469 6bbc 80df f6bc b33d 813d fa97 b0bb
00000230: 045b c3bc 623e 3dbd d8df aebc f2cc ac3d
00000240: 88c8 0cbc 6e87 903d 8e6e d33d 5b87 9fbd
00000250: d681 d5bc 3ba5 53bd 49cd b93a c041 3b3d
00000260: b85a cbbd 1dc9 3bbd 84f7 6fbb 5a12 e4bc
00000270: 090a a0bd c36d 953b dd5b 1c3c fe4c 6a3d
00000280: 4489 a1bd 71b7 b5bd f30c 12bd 94ac 00bd
00000290: 9e59 d63c 1b0f d0bc 1cd2 a6bd ae6d 11bd
000002a0: af78 9a3d f448 7a3d 4ecf 3ebd 8333 3c3d
000002b0: 5aa3 f33c 3c6e 83bd 3fd8 153e 7d2a b8bd
000002c0: 7812 963d ea14 0abd b309 a2bd cf1e 013d
000002d0: d371 0c3e 1ee2 4c3c 3704 013c cad3 073d
000002e0: 72cd b1bd e76e 7d3b 3c41 ddbc 9ce8 67bd
000002f0: 8937 fabd 2550 aabd 7d72 51bd a475 b7bd
00000300: 7d53 0fbc 2cbc 68bc 1c1e 353d 47f4 32bd
00000310: ac03 f6bc dc3d 123d 5cb8 d93d e312 373d
00000320: 8812 c0bd 9b80 f3bc 613b 4abb 1187 c43c
00000330: 788c 56bb 9a35 873d 3ea1 a1bd eb20 4dbd
00000340: 1f9a c3bd 2a1a 1bbd 0075 c43d 52be d43d
00000350: 7347 9cbd 7a65 033d be30 03bd f574 f9bc
00000360: 9439 303d 5790 e1bd 2014 d4bd e296 0d3e
00000370: 2c7e 903c 6075 093e 5960 8b3c ca9d 43bd
00000380: 7ff7 d9bb ca3c e93d bbf1 ce3c 6f63 783d
00000390: b0a9 8e3d f383 ab3c 862e ce3c 5fbe 323e
000003a0: 7086 103e 562a 913d 0de2 10bc 26e2 eebd
000003b0: d39a 183c f006 58bd 86b7 22bc 3339 10bc
000003c0: 5956 783d 8879 8abd b15c c7bd 3367 b6bd
000003d0: c960 df3c 9636 ce3d 97cd 34bd ad25 7c3d
000003e0: be37 f7bb bdec a3bd 7bfe 7fbd 1372 15be
000003f0: 21b0 4ebd b483 4c3d 6da2 4c3d e4a7 1abd

fc.bias f4 [36]
0.08898509 0.109463476 0.08927643 0.060730223 0.028810099 0.08813281 -0.012953562 0.04922925
-0.020282038 0.09921924 0.06255526 0.050925013 0.02295666 0.06702362 0.021194814 -0.032353126
0.09132956 0.06696098 0.009199554 0.008975495 0.07940516 -0.053411152 -0.008663331 0.04715462
0.045428324 0.0004538899 -0.013846806 0.06833391 0.035462175 0.031187993 0.00568493 0.05451621
0.03698438 0.054228447 -0.047202278 0.048098996
00000000: d13d b63d 632e e03d 90d6 b63d 41c0 783d
00000010: 2803 ec3c fa7e b43d 2d3b 54bc 9ca4 493d
00000020: 8426 a6bc 7533 cb3d f91c 803d bf96 503d
00000030: 9b0f bc3c ae43 893d bfa0 ad3c b684 04bd
00000040: fe0a bb3d d722 893d bab9 163c f40d 133c
00000050: 2c9f a23d a7c5 5abd a5f0 0dbc 3425 413d
00000060: 0d13 3a3d 12f8 ed39 b7dd 62bc a6f2 8b3d
00000070: c940 113d f67d ff3c a648 ba3b 644c 5f3d
00000080: ef7c 173d a61e 5e3d 2d57 41bd 7403 453d

exp_avg f4 [30, 30]
3.8284437e-05 3.8492763e-05 3.8971073e-05 3.9421408e-05 4.0710125e-05 4.1849205e-05 4.257664e-05 4.2488577e-05
4.3720305e-05 4.3946162e-05 4.5197914e-05 4.497909e-05 4.4982753e-05 4.4501983e-05 4.6563724e-05 4.6735662e-05
4.670692e-05 4.5797577e-05 4.7003243e-05 4.7490168e-05 4.747095e-05 4.785619e-05 4.6573357e-05 4.6414436e-05
4.7229747e-05 4.9138827e-05 4.9257545e-05 4.860822e-05 4.8686517e-05 6.526669e-05 3.72802e-05 3.7602178e-05
3.7966493e-05 3.8565573e-05 3.9735456e-05 4.1087704e-05 4.177125e-05 4.1621744e-05 4.252321e-05 4.2859043e-05
4.379187e-05 4.3549775e-05 4.3667795e-05 4.313391e-05 4.521219e-05 4.5272445e-05 4.5364974e-05 4.4446722e-05
4.579147e-05 4.632962e-05 4.63129e-05 4.620884e-05 4.506733e-05 4.488356e-05 4.5839068e-05 4.7645124e-05
4.7857244e-05 4.736607e-05 4.7653662e-05 6.416805e-05 3.7002766e-05 3.7198683e-05 3.739835e-05 3.8009617e-05
3.920774e-05 4.0308012e-05 4.098713e-05 4.0830873e-05 4.179761e-05 4.2190666e-05 4.331741e-05 4.323655e-05
4.3300242e-05 4.258687e-05 4.443059e-05 4.468367e-05 4.4628563e-05 4.3737367e-05 4.502862e-05 4.558679e-05
4.5638062e-05 4.5561937e-05 4.441584e-05 4.420676e-05 4.5292552e-05 4.7038608e-05 4.7284404e-05 4.6617883e-05
4.680978e-05 6.2758765e-05 3.5737325e-05 3.5872177e-05 3.5952766e-05 3.653011e-05 3.7974452e-05 3.926526e-05
3.995691e-05 3.9921033e-05 4.083949e-05 4.109013e-05 4.1985084e-05 4.159296e-05 4.162921e-05 4.0892337e-05
4.2867607e-05 4.313967e-05 4.3046406e-05 4.233438e-05 4.332931e-05 4.4059212e-05 4.415822e-05 4.414019e-05
4.2664724e-05 4.2532767e-05 4.3406857e-05 4.51976e-05 4.5494035e-05 4.507114e-05 4.5278888e-05 6.132097e-05
3.87087e-05 3.9007336e-05 3.9486586e-05 4.0210663e-05 4.1333693e-05 4.2806583e-05 4.376824e-05 4.3679167e-05
4.470534e-05 4.508999e-05 4.5949073e-05 4.602646e-05 4.5888817e-05 4.5144316e-05 4.7269394e-05 4.736329e-05
4.7293295e-05 4.6373927e-05 4.7222587e-05 4.7943286e-05 4.782754e-05 4.770266e-05 4.643885e-05 4.6261637e-05
4.7026544e-05 4.871482e-05 4.885714e-05 4.838782e-05 4.8229766e-05 6.489837e-05 3.507737e-05 3.5217956e-05
3.5514448e-05 3.622851e-05 3.7178783e-05 3.8334594e-05 3.892894e-05 3.8943817e-05 3.9964543e-05 4.0417162e-05
4.1106265e-05 4.1280444e-05 4.1176092e-05 4.062018e-05 4.2262334e-05 4.2250816e-05 4.2252497e-05 4.1851672e-05
4.3014446e-05 4.3382013e-05 4.3266577e-05 4.3141987e-05 4.218955e-05 4.2131393e-05 4.2633797e-05 4.4424338e-05
4.4659515e-05 4.4293567e-05 4.4354347e-05 5.96892e-05 3.541928e-05 3.567875e-05 3.6042864e-05 3.6774196e-05
3.8040915e-05 3.91949e-05 3.996268e-05 4.004217e-05 4.1203653e-05 4.1838124e-05 4.2863827e-05 4.3026743e-05
4.290205e-05 4.2389976e-05 4.4272e-05 4.447293e-05 4.444324e-05 4.3669086e-05 4.4855835e-05 4.510003e-05
4.5159875e-05 4.5090113e-05 4.3795255e-05 4.3513654e-05 4.4329696e-05 4.614963e-05 4.6303234e-05 4.5823817e-05
4.5904813e-05 6.159229e-05 3.221314e-05 3.233589e-05 3.269083e-05 3.3345e-05 3.4486482e-05 3.5601875e-05
3.6213598e-05 3.624664e-05 3.724317e-05 3.7664395e-05 3.8839455e-05 3.87337e-05 3.866459e-05 3.822212e-05
4.013256e-05 4.0149236e-05 4.026606e-05 3.951409e-05 4.0689916e-05 4.132647e-05 4.1433446e-05 4.1534044e-05
4.0361443e-05 4.038239e-05 4.1255098e-05 4.297315e-05 4.311216e-05 4.241196e-05 4.236559e-05 5.8237834e-05
3.2777425e-05 3.304366e-05 3.3232256e-05 3.37537e-05 3.4956414e-05 3.6236033e-05 3.70577e-05 3.7127196e-05
3.8342572e-05 3.8850107e-05 3.979376e-05 3.9924278e-05 3.9870487e-05 3.9590024e-05 4.153295e-05 4.1631898e-05
00000000: 9a93 2038 4a73 2138 df74 2338 6a58 2538
00000010: 2ac0 2a38 3e87 2f38 5294 3238 c335 3238
00000020: 5260 3738 d552 3838 e492 3d38 eea7 3c38
00000030: ddab 3c38 a4a7 3a38 6b4d 4338 0906 4438
00000040: 2ce7 4338 c616 4038 5925 4538 2e30 4738
00000050: 8b1b 4738 31b9 4838 c357 4338 1fad 4238
00000060: 8e18 4638 6a1a 4e38 e399 4e38 aee0 4b38
00000070: c034 4c38 cadf 8838 4f5d 1c38 08b7 1d38
00000080: 363e 1f38 78c1 2138 9fa9 2638 9655 2c38
00000090: 8a33 2f38 0293 2e38 f35a 3238 8cc3 3338
000000a0: 2aad 3738 37a9 3638 f027 3738 afea 3438
000000b0: 38a2 3d38 ebe2 3d38 4546 3e38 4e6c 3a38
000000c0: 3710 4038 0d52 4238 1940 4238 5dd0 4138
000000d0: ad06 3d38 5b41 3c38 5343 4038 90d6 4738
000000e0: 53ba 4838 eeaa 4638 bbdf 4738 f691 8638
000000f0: 6b33 1b38 c805 1c38 2cdc 1c38 846c 1f38
00000100: fe72 2438 6610 2938 99e9 2b38 d141 2b38
00000110: d84f 2f38 e2f5 3038 b7af 3538 e458 3538
00000120: 489d 3538 4e9f 3238 fc5a 3a38 ba6a 3b38
00000130: 8e2f 3b38 a472 3738 1ddd 3c38 7134 3f38
00000140: 7f6b 3f38 c219 3f38 254b 3a38 a66a 3938
00000150: 82f8 3d38 524b 4538 3e53 4638 9287 4338
00000160: 9e55 4438 5b9d 8338 a9e4 1538 7575 1638
00000170: fdcb 1638 e837 1938 c246 1f38 c0b0 2438
00000180: 6897 2738 e270 2738 124b 2b38 3158 2c38
00000190: 2419 3038 1a74 2e38 069b 2e38 d083 2b38
000001a0: becc 3338 def0 3438 ba8c 3438 3290 3138
000001b0: 7ebc 3538 38cc 3838 8736 3938 2b23 3938
000001c0: e6f2 3238 3665 3238 c20f 3638 8e92 3d38
000001d0: d9d0 3e38 c50a 3d38 d6e9 3d38 7299 8038
000001e0: 265b 2238 cf9b 2338 669e 2538 dfa7 2838
000001f0: b75d 2d38 388b 3338 ca93 3738 2634 3738
00000200: fe81 3b38 021f 3d38 71b9 4038 890c 4138
00000210: be78 4038 5759 3d38 2043 4638 f2a7 4638
00000220: ca5c 4638 a081 4238 de10 4638 b616 4938
00000230: 6e9a 4838 5714 4838 56c7 4238 0e09 4238
00000240: 5e3e 4538 2453 4c38 f4eb 4c38 07f4 4a38
00000250: 514a 4a38 0c1a 8838 0a20 1338 feb6 1338
00000260: 59f5 1438 11f4 1738 6af0 1b38 75c9 2038
00000270: a247 2338 9b57 2338 9a9f 2738 9985 2938
00000280: 8469 2c38 8a24 2d38 7eb4 2c38 965f 2a38
00000290: d642 3138 7836 3138 4638 3138 e489 2f38
000002a0: 696a 3438 15f5 3538 2279 3538 5bf3 3438
000002b0: aff4 3038 3db6 3038 b1d1 3238 4554 3a38
000002c0: ca50 3b38 dbc7 3938 1e09 3a38 ca5a 7a38
000002d0: 2a8f 1438 c4a5 1538 bb2c 1738 fe3d 1a38
000002e0: 1f8e 1f38 3465 2438 9a9d 2738 f4f2 2738
000002f0: 16d2 2c38 587b 2f38 afc8 3338 9d77 3438
00000300: baf1 3338 e4cb 3138 b3b0 3938 7288 3a38
00000310: 9168 3a38 5329 3738 9623 3c38 ca29 3d38
00000320: 0c6a 3d38 241f 3d38 ccb0 3738 6e82 3638
00000330: a6ee 3938 ca90 4138 b835 4238 f332 4038
00000340: eb89 4038 1c2b 8138 981c 0738 66a0 0738
00000350: 831d 0938 ecdb 0b38 94a5 1038 3953 1538
00000360: 0ee4 1738 8907 1838 8d35 1c38 d6f9 1d38
00000370: 8ce7 2238 fe75 2238 ca2b 2238 b050 2038
00000380: 0254 2838 ea65 2838 5ae3 2838 eebb 2538
00000390: 77aa 2a38 f655 2d38 d3c8 2d38 d734 2e38
000003a0: c549 2938 4360 2938 5309 2d38 123e 3438
000003b0: 54d3 3438 7fe3 3138 b5b1 3138 6644 7438
000003c0: 7e7a 0938 5c98 0a38 dd62 0b38 c292 0d38
000003d0: 2a9e 1238 25fc 1738 676e 1b38 06b9 1b38
000003e0: 06d2 2038 fcf2 2238 39e8 2638 5e74 2738
000003f0: 9c3a 2738 770d 2638 aa33 2e38 e99d 2e38
