situation_analysis/best_models/model_window60_horizon5.pth (torch, 956906 bytes, 27 tensors)

adapt_adj f4 [60, 60]
000000 36 50 7b 3f 2b 1c 95 bc cd 05 95 bc 77 4a 94 bc
       0.9816927 -0.018201908 -0.018191243 -0.018101914
000010 d9 c3 92 bc 0a 0d 94 bc c6 b3 95 bc ee 7b 99 bc
       -0.017915653 -0.018072624 -0.0182742 -0.018735852
000020 70 19 9b bc 64 31 07 bd 5a d5 07 bd d6 00 07 bd
       -0.018933028 -0.033006087 -0.033162452 -0.03295978
000030 d3 c1 05 bd 90 0b 03 bd 56 42 03 bd c2 5b 02 bd
       -0.03265555 -0.03199345 -0.032045685 -0.03182579
000040 d9 8a 01 bd 82 72 01 bd ff dc ff bc e7 fc fc bc
       -0.031626556 -0.031603344 -0.031233309 -0.030882312
000050 9e 93 fa bc 57 3d fb bc cf 4a f8 bc 3e dd f9 bc
       -0.030587967 -0.030668898 -0.030309109 -0.030501004
000060 b2 9b fa bc 3f a3 fc bc e8 d3 fe bc 1b a8 00 bd
       -0.03059182 -0.03083956 -0.031106904 -0.031410318
000070 f1 67 00 bd 8d cb fe bc 1c 1c fe bc 57 d7 fb bc
       -0.031349126 -0.03110292 -0.031019263 -0.03074233
000080 c9 dc f8 bc 93 c2 f7 bc 62 27 f5 bc 61 0c f4 bc
       -0.030378716 -0.030244147 -0.029926006 -0.029791059
000090 02 e2 f2 bc ec d7 f1 bc 09 7e f1 bc 7c 05 f3 bc
       -0.029648785 -0.029521905 -0.029479044 -0.029665701
0000a0 0a 44 f4 bc 62 8c f5 bc ba b9 f3 bc 89 8b f1 bc
       -0.0298176 -0.029974166 -0.029751647 -0.02948548
0000b0 0f db ef bc 0a 20 f0 bc 80 13 ed bc 4c 2c ec bc
       -0.02927926 -0.029312152 -0.028939962 -0.028829716
0000c0 ec cd e7 bc 45 b9 e3 bc 3a 93 df bc ca cd d9 bc
       -0.028296433 -0.027798304 -0.027291883 -0.026587386
0000d0 c3 08 d5 bc 79 90 ce bc 6e a2 c9 bc 7f 66 c2 bc
       -0.026005154 -0.025215374 -0.024613585 -0.023730515
0000e0 3b 66 bb bc e6 4c b5 bc f3 83 ac bc 07 96 b1 bc
       -0.022875896 -0.022131395 -0.021059012 -0.021677984
0000f0 1e 98 01 bd 08 e3 77 3f 8a d3 01 bd 82 74 01 bd
       -0.03163921 0.968308 -0.03169588 -0.03160525
000100 a9 ad 00 bd e2 4a 01 bd db 45 02 bd 4e 17 04 bd
       -0.031415615 -0.031565554 -0.0318049 -0.032248788
000110 07 4e 04 bd ef fa 03 bd 97 b8 03 bd 5f c7 02 bd
       -0.032300975 -0.03222173 -0.03215846 -0.031928416
000120 de 68 01 bd 93 8c fd bc 02 71 fd bc 5e c7 fb bc
       -0.03159415 -0.03095082 -0.030937675 -0.030734714
000130 ce 78 fa bc 6a 7e fa bc 32 7c f7 bc f3 a4 f4 bc
       -0.030575182 -0.030577857 -0.030210588 -0.02986381
000140 d9 68 f2 bc 7b 3a f3 bc 50 a3 f0 bc cd 0a f2 bc
       -0.02959101 -0.029690972 -0.029374748 -0.029546166
000150 6f ce f2 bc a3 f7 f4 bc f7 10 f7 bc 47 7c f9 bc
       -0.02963945 -0.029903239 -0.030159457 -0.030454768
000160 c0 ce f8 bc 75 1e f7 bc 62 46 f6 bc e6 29 f4 bc
       -0.030372024 -0.03016589 -0.030062858 -0.029805135
000170 7d 5a f1 bc 0e 59 f0 bc ce 93 ed bc 54 8c ec bc
       -0.029462093 -0.02933934 -0.029001143 -0.028875507
000180 e4 48 eb bc c0 35 ea bc 99 e4 e9 bc 56 81 eb bc
       -0.02872128 -0.028590083 -0.028551387 -0.028748196
000190 c5 84 ec bc 47 78 ed bc c0 d6 eb bc 25 a3 e9 bc
       -0.028871903 -0.028988017 -0.028788924 -0.028520176
0001a0 6d 39 e8 bc 90 97 e8 bc ed 76 e5 bc 70 bc e4 bc
       -0.028347695 -0.028392583 -0.02801081 -0.027921885
0001b0 6f 13 e0 bc cb 10 dc bc 41 c9 d7 bc 1b 35 d2 bc
       -0.027353017 -0.026863476 -0.026341083 -0.025660088
0001c0 f2 67 cd bc c8 45 c7 bc 92 a0 c2 bc 50 45 bb bc
       -0.025073979 -0.024325266 -0.023758207 -0.0228602
0001d0 7a 5c b4 bc 00 7c ae bc 07 f2 a5 bc 6a ec aa bc
       -0.022016753 -0.021299362 -0.02025701 -0.020864684
0001e0 30 fe 98 bc 87 c7 99 bc fd 25 7b 3f 2e 4b 9a bc
       -0.018675894 -0.0187719 0.9810484 -0.018834677
0001f0 a0 be 98 bc 8c ac 99 bc 30 bb 9b bc 05 6a 9f bc
       -0.018645585 -0.018759035 -0.019010156 -0.019459734
000200 ee a0 9f bc 9f cc 9e bc 11 52 9e bc 66 6c 9c bc
       -0.019485917 -0.01938468 -0.019326242 -0.019094657
000210 8f c1 99 bc 14 9a 94 bc f3 be 95 bc af 03 04 bd
       -0.018769054 -0.018139876 -0.018279528 -0.032230075
000220 6c 69 03 bd 72 e9 03 bd 5b 5b 02 bd 6b bd 00 bd
       -0.03208296 -0.032205053 -0.031825405 -0.031430643
000230 92 f9 fe bc 84 d2 ff bc 36 89 fc bc 89 ff fd bc
       -0.031124864 -0.031228311 -0.030827146 -0.031005638
000240 20 b4 fe bc 88 75 00 bd cb 5d 01 bd 74 91 02 bd
       -0.03109175 -0.031362087 -0.03158359 -0.031876996
000250 c4 41 02 bd 2c 28 01 bd 84 c0 00 bd b3 32 ff bc
       -0.031801 -0.03153245 -0.031433597 -0.031152105
000260 d1 55 fc bc c1 1b fb bc a4 ac f8 bc 87 a4 f7 bc
       -0.03080264 -0.030652883 -0.030355759 -0.03022982
000270 2c 2b f6 bc 05 eb f4 bc bc b1 f4 bc f2 60 f6 bc
       -0.030049883 -0.029897222 -0.029869907 -0.030075524
000280 29 78 f7 bc 88 c6 f8 bc c1 29 f7 bc 43 df f4 bc
       -0.030208664 -0.030368105 -0.030171277 -0.029891616
000290 1b 31 f3 bc ff 52 f3 bc d5 fd ef bc 64 d6 ee bc
       -0.029686501 -0.029702662 -0.029295841 -0.029154964
0002a0 08 4d ea bc b9 37 e6 bc c9 b7 e1 bc fb 07 dc bc
       -0.028601184 -0.028102743 -0.027553456 -0.026859274
0002b0 2a 5e d7 bc 7b ca d0 bc ef 4a cc bc c2 aa c4 bc
       -0.026290018 -0.025487175 -0.024938075 -0.024007205
0002c0 62 fd bd bc 2b e6 b7 bc c6 1a af bc ac b6 b4 bc
       -0.023192111 -0.02244862 -0.021375071 -0.022059761
0002d0 d2 6c 99 bc 0a 14 9a bc 83 b7 9b bc 06 1e 7b 3f
       -0.018728647 -0.018808383 -0.019008404 0.9809269
0002e0 0d 8a 9a bc 03 07 9c bc a5 03 9e bc d5 0d a2 bc
       -0.018864656 -0.019046312 -0.019288847 -0.019781986
0002f0 7c 53 a2 bc 44 52 a1 bc 44 97 a0 bc ab 87 9e bc
       -0.0198152 -0.019692548 -0.01960338 -0.0193518
000300 c0 06 9b bc a6 3c 95 bc 27 1f 95 bc 07 0a 95 bc
       -0.018924117 -0.018217396 -0.018203331 -0.018193258
000310 15 6a 92 bc 78 be d9 bc ea 32 00 bd 66 0b 01 bd
       -0.01787285 -0.02658008 -0.031298555 -0.03150501
000320 88 15 00 bd 95 7e 00 bd b3 16 fe bc fa 45 ff bc
       -0.031270534 -0.031370718 -0.031016683 -0.031161297
000330 3f ea ff bc 49 10 01 bd af 2a 02 bd e0 4d 03 bd
       -0.031239627 -0.03150967 -0.031778987 -0.03205669
000340 ee 06 03 bd fa e7 01 bd e8 56 01 bd 6c 3e 00 bd
       -0.03198903 -0.03171537 -0.03157702 -0.03130953
000350 e6 d7 fd bc b0 ab fc bc 5c fa f9 bc b7 ba f8 bc
       -0.030986737 -0.030843586 -0.030514888 -0.03036247
000360 b0 5f f7 bc ce 01 f6 bc 7b 58 f5 bc d9 3c f7 bc
       -0.030196995 -0.030030157 -0.029949417 -0.030180382
000370 e1 cd f8 bc 38 74 fa bc 8f d5 f8 bc 68 6e f6 bc
       -0.030371608 -0.030572996 -0.03037527 -0.030081943
000380 c8 ca f4 bc f6 20 f5 bc a8 a3 f1 bc 22 a9 f0 bc
       -0.02988185 -0.029922944 -0.029496983 -0.029377524
000390 68 1d ec bc 34 e0 e7 bc bc 0a e3 bc 08 2b dd bc
       -0.028822616 -0.02830515 -0.02771508 -0.026998058
0003a0 2b 98 d8 bc 77 f0 d1 bc 36 6e cd bc 1c 09 c6 bc
       -0.026439747 -0.025627358 -0.025076967 -0.024174266
0003b0 f5 50 bf bc 76 32 b9 bc 47 66 b0 bc f2 e7 b5 bc
       -0.023354033 -0.02260707 -0.021533145 -0.022205327
0003c0 bc 91 00 bd 45 f9 00 bd 85 b2 01 bd 0a e5 01 bd
       -0.031388983 -0.031487722 -0.03166439 -0.03171257
0003d0 16 e7 77 3f 86 3b 02 bd 0a 42 03 bd 61 22 05 bd
       0.96836984 -0.031795047 -0.0320454 -0.03250349
0003e0 75 5b 05 bd 6b ed 04 bd e8 b6 04 bd 6c 0c 04 bd
       -0.032557923 -0.032452982 -0.032400995 -0.03223841
0003f0 2b 95 02 bd 8b 58 ff bc d6 19 ff bc 36 68 fd bc
       -0.03188054 -0.03117015 -0.03114025 -0.03093348

gc1.fc.weight f4 [128, 36]
000000 4b 3b 8d 3d 25 3a 34 3d 59 f1 80 3d c8 70 a6 bd
       0.06896075 0.044000763 0.062960334 -0.0812698
000010 3d 5a d6 3d f4 5a 35 bd b5 af 39 be 40 20 ce bc
       0.1046643 -0.044276193 -0.18133433 -0.025161862
000020 e4 64 f1 bd 19 81 81 3d 7f 8f bd 3c 28 6c 8c 3d
       -0.117868215 0.063234515 0.023139713 0.06856567
000030 34 24 93 3d 42 5b 42 3e 89 61 93 bc b2 d5 15 be
       0.071846396 0.18980125 -0.017990844 -0.146323
000040 bd 51 b7 bd d7 36 de bc 50 8a ff 3d ec 1f 11 bd
       -0.08951137 -0.027125759 0.12477553 -0.035430834
000050 00 0b b7 3c f5 76 3a 3e 07 bc 05 bd 4f 9d 61 bd
       0.022344112 0.18209441 -0.03265002 -0.05508166
000060 42 00 d9 bd 13 a7 41 3d 0b bb 57 3d 5d 55 9d 3d
       -0.10595752 0.047278475 0.052668612 0.076822974
000070 cf 4e 8c 3d ab c9 99 3d f9 87 18 3e 19 0e 22 3e
       0.06850969 0.07509168 0.1489562 0.1582569
000080 03 df 47 3c 7a 54 0f be ab de 00 be 81 8b a0 bd
       0.012199166 -0.13997069 -0.12584941 -0.07839108
000090 95 bb 2f 3d 6e 03 6d bd d8 37 07 3e 59 3d 3a 3c
       0.0429035 -0.0578646 0.13204896 0.0113671655
0000a0 b1 52 c4 bd c0 6d 26 be 3d e7 d5 bd 50 2a 2d 3d
       -0.09586085 -0.16252804 -0.10444496 0.04227668
0000b0 7f 37 15 3d 99 a8 c8 3d 32 97 13 be dd 6f da bd
       0.03642988 0.097977825 -0.14413145 -0.106658675
0000c0 27 ee 9e 3d 7a 7c b1 bd e1 37 db bd 1a 0b d7 3d
       0.07760268 -0.0866632 -0.107040174 0.10500164
0000d0 41 3f f7 3d 35 de ec bd a4 6f bd 3d 56 8f 65 bd
       0.120726116 -0.1156582 0.092498094 -0.0560449
0000e0 61 ef d8 bc db 6a 1d be a1 ed 24 be 57 9a 03 be
       -0.026481332 -0.15372793 -0.16106273 -0.12851845
0000f0 22 41 25 bd 1f a1 f9 bc 55 36 1c be e4 3f 11 3e
       -0.04034532 -0.030472336 -0.15255101 0.14184529
000100 fb 54 87 3d 67 ea 86 bd 57 78 6b 3d ad 52 e3 3d
       0.066080056 -0.065876774 0.057487812 0.110997535
000110 91 d5 b3 3d 73 46 b3 bd 02 ff e2 bc b0 91 16 3e
       0.08780969 -0.087536715 -0.027709488 0.14704013
000120 63 7d b9 bd 12 5c 50 3d 0e 7e 20 bc 8f fe 15 3b
       -0.09057119 0.050869055 -0.009795679 0.0022887324
000130 26 71 46 3c 2d eb ec bc 6a ee b5 bd d5 78 48 bc
       0.012111938 -0.028920734 -0.088833645 -0.01223584
000140 d6 35 01 be 0b 1e 93 3d 17 4f 3f bd 95 24 33 bd
       -0.12618193 0.071834646 -0.046706285 -0.04373606
000150 10 6a 11 be a3 23 19 3c 35 77 86 bd fb bf 5a 3e
       -0.14200616 0.009346875 -0.06565706 0.21362297
000160 ea 73 03 3c 04 44 69 3d f1 67 d7 bc c0 a7 14 3e
       0.008023242 0.05694963 -0.02629468 0.14517117
000170 3b 00 09 be 14 ac 8a 3d af 7f 83 3d 33 8b 20 bd
       -0.13378994 0.067711025 0.06420838 -0.03919525
000180 70 69 1e 3e ab c0 ee 3a c2 83 fe 3d 46 d2 09 bd
       0.15469909 0.0018215379 0.124274746 -0.033647798
000190 3c de 92 bd 53 d8 75 bd da 97 ab bd 1c 6c d1 3d
       -0.07171294 -0.060020756 -0.08378573 0.10225698
0001a0 79 00 ff 3d 9c 0b e5 3d 16 4f 2b be 16 93 46 bd
       0.12451262 0.11183855 -0.16729388 -0.048480116
0001b0 a3 40 0a 3d 92 81 5a 3e 25 13 bc bd 14 08 b1 3d
       0.03375305 0.2133849 -0.09183339 0.08644119
0001c0 aa 3a 54 3c 9e fa 09 bd 42 c6 86 bd 2b 0a e5 3d
       0.01295344 -0.033686273 -0.065807834 0.1118358
0001d0 27 7e c7 bb 26 92 cd 3d 47 30 9c bd a3 d8 7b bd
       -0.0060880366 0.10037641 -0.07626396 -0.061485898
0001e0 b9 11 01 3e 26 fb e3 3d 7d 54 be bd f3 37 c7 bb
       0.12604417 0.11131887 -0.092934586 -0.0060796677
0001f0 d8 77 68 bd 37 4a ef bd 38 a6 39 3e 4f 8f 7c 3d
       -0.056754917 -0.11684077 0.18129814 0.061660107
000200 0f 51 7c 3d fe d3 d2 3d 43 8c 84 bd bb ae 2b 3e
       0.06160074 0.102943406 -0.06472065 0.16765873
000210 3c 95 12 3d d0 7f bc bd 31 d4 96 3d 3f 72 ea bd
       0.035786852 -0.09204066 0.07364691 -0.11447572
000220 9a 21 5d 3d da 0d 2c bd ac a4 a7 bb f1 1b c7 bd
       0.053987123 -0.042005397 -0.005116066 -0.09722126
000230 c3 65 90 3d 2f 97 32 3e 3c 99 a7 bd 00 4b 35 bc
       0.070506595 0.17440484 -0.08183524 -0.011065245
000240 fa 8a 7b bc 7d 7c a5 3b ea 0a c8 bc 25 a8 10 be
       -0.015352959 0.0050502406 -0.024419267 -0.14126642
000250 66 2a 94 3d d4 7c 4b be 60 e1 d7 bc bb df ac bd
       0.07234649 -0.19871837 -0.026352584 -0.08441111
000260 9e 24 37 be 75 3d 97 3d 98 44 9a 3d a1 79 b1 bd
       -0.17885062 0.07384769 0.075326145 -0.08665777
000270 08 82 30 bc 61 9b d0 bd d7 70 8b bd 93 32 0a 3e
       -0.010773189 -0.10185886 -0.06808632 0.13495855
000280 7c cd b9 3d 01 7e d0 bd 42 64 93 3c ef b6 38 3d
       0.09072396 -0.10180283 0.017992143 0.045096334
000290 b1 ea 46 3d 3d 69 2e 3c 5d 05 b0 bb 48 f7 f7 bd
       0.048563663 0.010645208 -0.005371733 -0.12107712
0002a0 e5 ca ba 3c 95 c5 d3 bd b1 25 03 bd 8d 6f 43 bd
       0.022801826 -0.1034042 -0.032018367 -0.047713805
0002b0 ff cd 64 3c 4c 11 66 bd 84 41 0f 3d 1f f7 e5 3d
       0.013965129 -0.05616884 0.03497459 0.11228775
0002c0 78 89 6e bc 45 d8 2a be d1 78 ad 3d cf 07 96 bd
       -0.014559142 -0.16684063 0.084703095 -0.07325708
0002d0 aa cf 14 3e a3 b8 8a 3d c0 a9 dc bb fa 82 f3 bd
       0.14532343 0.06773498 -0.006734103 -0.11890216
0002e0 85 82 f4 bd dd 1e 97 3c 15 98 05 3c 4d bd 3b 3d
       -0.11938957 0.018447334 0.008153935 0.04583483
0002f0 db c3 3d be e6 bf 0e bd 99 08 39 bd 0c 7f e5 3d
       -0.18531744 -0.034850977 -0.045174215 0.11205873
000300 3c 02 f0 bd c2 91 08 be 33 42 6e 3c a0 1f 15 bd
       -0.11719176 -0.13336852 0.01454215 -0.036407113
000310 d5 36 b1 bd 1f 1e 16 bd a1 56 c9 bd 28 ca 23 3e
       -0.086530365 -0.03664982 -0.09830976 0.15995085
000320 1f d2 af bb 57 cd 2f be 25 af 2d bd c3 7c be bd
       -0.0053656246 -0.17168175 -0.04240336 -0.0930114
000330 95 c1 c6 3c 56 82 8e 3d a9 8b 32 3e 81 7b 31 3e
       0.024262229 0.06958453 0.17436089 0.17332269
000340 97 90 95 bd 19 51 87 3d 58 0e bd 3c 45 a5 51 3d
       -0.07302969 0.06607265 0.023078129 0.051183004
000350 4a 7c 90 bd 6f 45 09 bb 17 d1 9c 3d 22 77 41 3e
       -0.07054956 -0.0020945927 0.07657068 0.18893102
000360 2c 22 d3 3d 38 99 3c bc 85 89 9b 3c f3 21 19 bd
       0.10309252 -0.01151114 0.018986473 -0.037385892
000370 4e bb 57 bd 79 00 87 3d 11 48 c0 bd 95 65 65 bc
       -0.052668862 0.06591887 -0.093887456 -0.01400127
000380 24 24 95 bd f4 10 97 3d f5 2e 0f 3e 15 7d d3 3d
       -0.07282284 0.073762804 0.13982756 0.10326592
000390 a9 a5 42 3d e4 4d d0 3d f3 eb ea 3d 46 49 49 bb
       0.047521267 0.101711065 0.11470785 -0.003071384
0003a0 8a 83 fa bd 81 41 c8 3b 49 c0 f4 bc cf 6e 55 3e
       -0.1223212 0.0061113243 -0.029876845 0.20843051
0003b0 4f 62 5c 3a 0e 43 a4 bc c6 9f 08 3e 81 c4 f8 3d
       0.0008406983 -0.020051505 0.13342199 0.12146855
0003c0 a2 e6 55 bd cf c1 dc bd d5 08 3d bd d3 f2 82 3d
       -0.0522219 -0.107791536 -0.046151 0.06393971
0003d0 3e ef 7a bc 66 a4 7b bd c5 93 a3 bd 4e cb 99 bd
       -0.015315829 -0.06143608 -0.07987169 -0.075094804
0003e0 cd 69 3b 3e 52 1a 90 3d d3 41 01 be e8 b8 bd bd
       0.18302079 0.0703627 -0.12622766 -0.09263784
0003f0 64 0f 65 3d 59 10 8b bd 2c 9c 71 3d 84 a9 d1 bd
       0.05592288 -0.067902274 0.058986828 -0.10237411

gc1.fc.bias f4 [128]
000000 ae b8 85 bd 70 ce 0d bd 0e c8 e2 bd 0f 26 17 be
       -0.065293655 -0.034620702 -0.11073314 -0.14760612
000010 c0 4d 7c 3d 28 9c bd bd 9e eb 44 be d1 76 50 3d
       0.061597586 -0.092583 -0.19230506 0.050894562
000020 14 6e b2 bd a4 44 aa bc 7f 9d 49 be 91 b4 01 be
       -0.08712402 -0.020784684 -0.19688986 -0.12666537
000030 01 58 07 3d 05 32 f6 bd 33 43 47 3d 45 08 00 3d
       0.03304291 -0.12021259 0.04864807 0.031257886
000040 b8 02 ee bd a1 22 c4 bd 36 2b c0 3d 49 99 02 be
       -0.11621612 -0.095769174 0.09383242 -0.12753786
000050 4d db 24 bd e6 7d 9b bd ea b7 1c be be ec 2e be
       -0.040248204 -0.075923726 -0.15304533 -0.17082497
000060 a1 9c 39 be 0b 46 04 3d 94 c3 0f be e8 37 b7 bd
       -0.18126155 0.03229336 -0.14039451 -0.0894621
000070 8c ea 11 bd b9 9e 11 be 71 5a b1 3d 29 6c 8a bd
       -0.035624072 -0.14220704 0.086598285 -0.06758911
000080 71 52 9b bd ab 8b 88 bd 2d c0 49 bb d0 b6 a5 bd
       -0.07584084 -0.066672646 -0.0030784712 -0.08091509
000090 a8 11 d0 bc a9 8e 99 bb 6b 53 c7 3c 75 5f 45 be
       -0.025399044 -0.004686196 0.024331769 -0.19274695
0000a0 66 4e 8e be 2f f6 d1 3b 0e 0f 23 bd 82 23 9c 3d
       -0.27794188 0.006407521 -0.03980928 0.0762396
0000b0 93 7b c7 3d 67 d8 4c be 60 d9 16 be 2d 23 df bd
       0.09740367 -0.20004426 -0.1473136 -0.10895381
0000c0 04 fb a6 3d 29 61 ac 3c 18 d4 34 be 8b a0 4c 3d
       0.08153346 0.021042423 -0.17659032 0.049957793
0000d0 8e 7c f3 bd fa 98 03 be 54 74 63 3d 83 c5 e7 3d
       -0.11888991 -0.12851325 0.05553086 0.11316969
0000e0 e3 f4 bc 3d fc e3 fb bd 9f b3 a9 bd bd 45 44 be
       0.09226396 -0.12299344 -0.08286213 -0.19167228
0000f0 ba a5 8e bc 5d fa 17 be 4c 29 e7 3c c1 50 9e 3d
       -0.017413009 -0.148416 0.028217934 0.07730246
000100 ca 69 87 bd 6d ab 7c be 10 93 75 bb 2c 29 f0 b9
       -0.066119745 -0.24674769 -0.003747169 -0.00045807043
000110 bf 05 87 3d f3 b3 93 3b 7e 74 26 be f0 16 d2 3d
       0.06592893 0.0045075356 -0.16255376 0.10258281
000120 d2 23 a0 bd 40 f0 c7 3c 12 bd 68 bd 0d 24 b9 3c
       -0.07819332 0.024406552 -0.056820937 0.022600198
000130 3a ee 05 bc ea 3a 57 3d 12 c0 e0 bd bd 99 c0 bc
       -0.008174473 0.05254642 -0.109741345 -0.023510808
000140 b1 6e 0d bd 73 c7 4e bb 1f 2a d2 3c 3b 49 24 be
       -0.03452939 -0.0031551986 0.02565485 -0.1604356
000150 b5 0e 5c bd a4 2b 46 be c6 7a d9 3c e9 b4 b3 bd
       -0.053724963 -0.19352585 0.0265478 -0.0877474
000160 5f b9 74 3d 5c 92 8c 3d 50 1d 52 3d d2 8a b3 bb
       0.059747096 0.06863853 0.051297486 -0.005479195
000170 ae e5 27 be 18 ed c3 bc 7d 78 e7 3d 77 d0 51 bd
       -0.1639621 -0.023916766 0.11302278 -0.0512242
000180 68 4b 0c be e7 d1 3c be 20 0d c1 bd b9 e8 0f be
       -0.1370064 -0.18439446 -0.094263315 -0.1405362
000190 d9 99 a4 3d 9c 21 2c 3d 88 8a 17 be ae 6b 25 be
       0.080371566 0.04202424 -0.14798939 -0.16154358
0001a0 cb 80 14 be 74 a2 b3 bd cd b7 68 3d 89 4f e1 bc
       -0.14502256 -0.0877122 0.05681591 -0.027503746
0001b0 e1 14 2c 3c 50 36 e1 3c 0f 49 e3 bd 47 23 a1 bd
       0.010503025 0.027491719 -0.11097919 -0.07868057
0001c0 a9 b2 42 3c 36 76 80 bd a1 70 35 bb 84 23 4f bd
       0.011883416 -0.06272547 -0.002768554 -0.05057098
0001d0 7a af d3 3b b4 02 1f 3d 33 77 04 be b0 8c fb 3d
       0.0064601274 0.038820937 -0.12936096 0.122826934
0001e0 72 cf 20 3d 0b 9a 2c 3d 9c 96 ef bc 59 c7 7b bd
       0.039260335 0.042139094 -0.02924662 -0.06146941
0001f0 c1 bf d8 bd 3b bd 78 bc c4 fe 36 bd 6b 63 33 be
       -0.10583449 -0.015181835 -0.044676557 -0.17518394

gc2.fc.weight f4 [128, 128]
000000 8a 29 1e 3d f0 b2 a0 3c e8 01 19 3d 96 09 87 bd
       0.038613833 0.019616574 0.037355334 -0.06593625
000010 7f 4a 56 3c c3 b3 cd bd c3 5e e5 bd 71 98 07 be
       0.013079285 -0.100440525 -0.11199715 -0.13241746
000020 31 73 55 3d 2b 39 25 3e da ba 87 3e 93 ee 3f bc
       0.05211181 0.16135089 0.26509744 -0.011714595
000030 2a 6c 9f bd aa 8f 3d 3d 9a 61 15 3d c8 8b b5 bd
       -0.077843025 0.046279587 0.036470033 -0.08864552
000040 83 b0 d4 bc 26 62 89 3d b1 cf f7 3c 8c 4f 22 3e
       -0.025963074 0.067081735 0.030250402 0.15850657
000050 d1 88 16 3e 5d 2a d8 bd d6 4a f8 bd 2a f0 bc bd
       0.14700629 -0.10554955 -0.12123649 -0.09225495
000060 66 1d 79 3d 63 2d dd bb 6b ca 54 bd df a5 ee bd
       0.060819052 -0.0067497953 -0.051950853 -0.11652731
000070 26 b1 a0 bc c7 06 6e bd cc 87 74 3d b5 46 2a 3d
       -0.019615721 -0.058111932 0.05969982 0.041571338
000080 3f d4 68 bd 01 74 19 3d 12 ee 72 3d 95 23 c6 3c
       -0.05684304 0.037464146 0.059309073 0.024186889
000090 78 e4 f4 bb f3 7d e5 bd 23 ae 7c bd dc f7 6a 3d
       -0.0074735247 -0.112056635 -0.061689507 0.057365283
0000a0 c1 bc 8d bd 35 f9 c9 3c 05 90 f5 bd d4 43 89 3d
       -0.069207676 0.024654964 -0.1199036 0.0670239
0000b0 9e 28 1a 3d fb 94 b4 bd 16 11 47 3e 86 f7 fa 3d
       0.03763639 -0.08817478 0.19440112 0.122542426
0000c0 4c 66 81 3d 30 02 b8 bb a3 69 72 bc 49 56 44 bd
       0.0631834 -0.005615495 -0.014795694 -0.04793385
0000d0 ce ef 46 3d 59 2d 80 3d 9e 40 6f bb f8 79 a3 3d
       0.04856854 0.062586494 -0.003650702 0.07982248
0000e0 a7 08 73 3d 1e cc 01 3d 53 49 0b be 17 4f 89 bd
       0.059334423 0.031688802 -0.1360219 -0.06704538
0000f0 a6 fd d5 bd 65 01 29 3d aa d1 50 3d 27 8f 8d bd
       -0.1044877 0.041261096 0.0509812 -0.0691207
000100 45 5a 63 3d 91 c0 39 3c 6e e7 9e bd f7 5e 0c be
       0.05550601 0.011337415 -0.077589855 -0.13708101
000110 13 ce ed 3c de cc c3 3d 7d f1 be bd fe 15 c0 bc
       0.029028928 0.0956056 -0.09323404 -0.023447987
000120 c4 90 e6 3c ac 16 a5 bc d9 4d de 3d 78 26 c7 bd
       0.028145202 -0.020152412 0.10854692 -0.09724134
000130 1f ba a6 3d 07 89 6c 3d 4a 2d fa 3d 13 95 29 3e
       0.081409685 0.057747867 0.122156695 0.16560774
000140 31 23 10 3d 21 69 bc 3c 9c 99 2b 3e 06 6f 6e bd
       0.03518981 0.022999348 0.16757816 -0.05821135
000150 f1 b6 d3 bd d4 51 0d be 70 10 3b bd 59 25 c0 3b
       -0.10337628 -0.13800746 -0.045669973 0.005863827
000160 da 78 40 bd 5b 2e 1f bb ee 9d 19 3e d0 b8 49 3d
       -0.046990253 -0.0024289105 0.15001652 0.049248517
000170 5f 99 50 3c 88 fb 5b 3d ba 04 d4 bd 3a 5e e2 bc
       0.012731879 0.053706676 -0.10352464 -0.027632821
000180 7e d0 e9 bd 8a da ac bd 48 99 e4 bd 3e 22 e0 3c
       -0.1141672 -0.084401205 -0.111620486 0.027360078
000190 c2 63 00 3c 4b ef b9 bd be 46 7c 3d af de 22 3e
       0.007836284 -0.09078845 0.061590903 0.1590526
0001a0 e5 12 69 3b fb d6 b7 bd ec ab cf bd 1e 4b e9 3c
       0.003556424 -0.08976551 -0.10140213 0.028478201
0001b0 db 24 50 3e 05 41 08 3e 72 f1 91 bd 5c ed 35 be
       0.20326559 0.13306053 -0.0712613 -0.17766327
0001c0 d9 55 6e 3d e1 e2 ea bd f8 1d 02 3e 46 08 16 bd
       0.05818734 -0.11469055 0.12706745 -0.036628984
0001d0 a7 01 10 bd 4c 87 13 be 44 d6 b3 3c bd e4 9f 3c
       -0.035157826 -0.1440708 0.021952756 0.01951825
0001e0 0f dd f0 3c 03 5d 07 be 02 b0 1c 3e b7 97 72 bd
       0.029402284 -0.13219075 0.15301517 -0.059226718
0001f0 75 3c 36 be 62 a7 7b 3b d7 b7 72 3e e4 88 91 3d
       -0.177965 0.0038399328 0.23702942 0.07106188
000200 58 46 94 3d 6a b4 87 bd 1d 1c c7 3d d9 9a 4c bd
       0.072399795 -0.06626208 0.09722159 -0.04995236
000210 ff d1 68 bd 88 fb 9a bd 9d 46 84 bd cc 12 ce bd
       -0.056840893 -0.07567507 -0.06458781 -0.10062179
000220 1c 0e 48 3c 60 b3 44 3d 70 7e 28 bd c9 c4 92 3d
       0.012210395 0.048022628 -0.041136205 0.0716644
000230 88 a5 a2 3d 6b 66 10 3d 67 ef 16 3d 0e 26 9b bc
       0.07941729 0.035253923 0.036849406 -0.018939044
000240 b5 a8 a7 bd 75 0a 81 3c 5d f1 57 3d bc 50 be 3d
       -0.08186475 0.015752057 0.052720416 0.092927426
000250 5a 9c a3 3d 6f aa f0 3c c1 11 b8 3b d1 b5 07 bd
       0.07988806 0.029378144 0.005617351 -0.033132378
000260 96 8a 93 3d 71 a5 31 3d e9 b7 70 bd b7 fe 89 bd
       0.072041675 0.043370668 -0.05876914 -0.06738036
000270 48 52 67 3d 17 c8 3a 3d 2a ec 4f 3d df 3d 5f 3d
       0.056474954 0.045600977 0.050762333 0.054502364
000280 66 df 89 3d 51 22 8d bd 91 f0 88 3d 88 a3 86 bc
       0.06732063 -0.06891311 0.066865094 -0.0164354
000290 fb c8 fe 3c 5d 10 84 bd bf 35 c4 3d bf 49 f4 3d
       0.031101694 -0.064484335 0.09580564 0.119281285
0002a0 26 8d a8 bc ef 54 c9 bc 24 7a 69 bd 36 f7 8e 3c
       -0.020575117 -0.024576632 -0.057001248 0.017451864
0002b0 e4 d6 f6 3c 99 d7 f8 3d a6 4a d3 bb 7e ec a4 3d
       0.030131765 0.12150497 -0.006448108 0.0805292
0002c0 19 ab 2e 3d fa 23 c5 3d 19 1c 17 3d 20 9b 4c 3d
       0.04264364 0.096260026 0.03689203 0.049952626
0002d0 f2 ff 39 bd 45 e0 53 3b 2a a4 c2 3d 22 d5 cb 3d
       -0.045410104 0.003232972 0.09503968 0.09952761
0002e0 60 41 74 bd b1 7f 3b bd f4 2f b9 3d 28 2f bc 3d
       -0.05963266 -0.045776073 0.090423495 0.09188682
0002f0 6d a1 c5 bc 43 34 81 bd d4 15 a3 b5 7d 4e f2 bb
       -0.024124825 -0.06308796 -1.2150799e-06 -0.0073946104
000300 76 e1 d0 3d 72 29 5c 3d b6 ce 3b bb 89 fc 2c 3d
       0.10199253 0.053750463 -0.0028657145 0.042233024
000310 51 45 bf 3d 37 7e ca 3d 99 f2 a1 ba 8e 2c a2 3c
       0.09339393 0.09887355 -0.0012355625 0.019796636
000320 a6 61 71 3d 31 5a 2d 3d 6d 03 52 3d 26 f8 2c 3d
       0.058931015 0.04232234 0.0512728 0.04222884
000330 21 36 f5 bb 07 53 b0 bd 44 ef 16 3b 54 7d b5 3d
       -0.0074832593 -0.08609586 0.0023030797 0.08861795
000340 92 a2 aa 3d 64 94 d7 bc 60 ae ba 3c e2 2b 7f bd
       0.08331789 -0.026315875 0.022788227 -0.06229771
000350 eb bf 60 bd c0 81 96 bd 3d 03 f6 3c 3d f6 e0 bd
       -0.054870527 -0.073489666 0.030030841 -0.10984466
000360 7c 2e 35 bd ba 32 99 bc 27 17 97 3d 68 95 d6 3b
       -0.044233784 -0.018700946 0.07377463 0.0065485723
000370 a6 e6 0e be a7 09 89 bc 4d 2d af 3b 37 b5 58 3d
       -0.13955173 -0.016728235 0.0053459764 0.052907195
000380 02 91 16 3b 8d 4a 8a 3c e8 80 41 3d 44 bc d4 3c
       0.0022974615 0.016881252 0.047242075 0.025968678
000390 39 99 9e 3d c0 3b be bd 80 a3 d8 3d bd 39 9e bd
       0.07744069 -0.0928874 0.1057806 -0.077258565
0003a0 51 29 24 3e f3 33 c9 bd f6 3f a6 bd 27 b9 f5 bd
       0.16031386 -0.09824362 -0.08117668 -0.11998206
0003b0 d6 b5 08 3d 16 3c b9 3c a8 31 a1 bd a6 90 09 3c
       0.033376537 0.022611659 -0.07870799 0.008396303
0003c0 c7 76 e8 3d 4f fb c8 3c 68 c0 b4 3b 7d 3a 9f bd
       0.1135078 0.024533896 0.0055161007 -0.07774828
0003d0 98 02 53 bd 69 40 14 3b 60 68 56 3c 08 9c 1a 3d
       -0.051516145 0.00226214 0.013086408 0.03774646
0003e0 08 8d b5 3d a5 c6 9d 3c fe ca bd 3c 2b 2c af 3d
       0.0886479 0.01925976 0.023168083 0.08553346
0003f0 33 9d c6 3b 46 0d 92 bd 8c aa 1a ba fc 76 00 3e
       0.00606122 -0.07131438 -0.0005900047 0.12545389

gc2.fc.bias f4 [128]
000000 c4 96 18 3c 24 10 01 3d 11 39 20 be 09 6a b5 3d
       0.009313289 0.031509534 -0.15646769 0.08858115
000010 87 dc 99 bd 78 de b3 bd 0c ac b5 bc 77 3d ce bd
       -0.075127654 -0.08782667 -0.022176765 -0.10070317
000020 fc cb 7f bd e6 46 1c be 82 52 16 3e f5 65 0a bc
       -0.062450394 -0.1526142 0.14679912 -0.00844716
000030 d9 e5 d1 3c 7f 93 a0 bd 0d 3c aa bd d9 95 3e be
       0.025622295 -0.07840633 -0.08312235 -0.1861185
000040 ed 49 dd 3c 84 14 bf 3d cc 35 8f bd 1c b9 2d be
       0.02701279 0.09330085 -0.06992683 -0.16965145
000050 7c 97 c3 3d e6 e4 7c bd 80 8f 6a bd 97 72 9e 3d
       0.09550378 -0.061741732 -0.05726576 0.077367
000060 d5 0b fc bd 36 aa 8a 3a 34 e0 93 bc 9e e6 f6 bd
       -0.12306944 0.0010579291 -0.018051244 -0.120557055
000070 c5 0b 61 bd 0a 1c 4a bd d2 f1 5f be 1f 51 f3 bd
       -0.054942865 -0.049343146 -0.21869591 -0.11880707
000080 21 1c ae bd 30 d6 b2 3c 2d b8 c3 bd 08 47 a9 3d
       -0.08501459 0.021830648 -0.09556613 0.08265501
000090 8f 8b 33 bc 90 bc b9 bd fb c8 ac bd 24 7b 2d bd
       -0.010958566 -0.090691686 -0.084367715 -0.042353764
0000a0 28 9a 83 3d 70 c7 86 bd 05 50 5d 3d 7d ab 0b bc
       0.06425887 -0.065810084 0.05403139 -0.008524773
0000b0 2b ea b7 bc 41 1b 07 be ae 12 06 be c7 db 81 3d
       -0.022450527 -0.1319399 -0.13093063 0.06340747
0000c0 e3 87 8f bd e6 04 13 be 46 e9 11 be b9 ab 1c be
       -0.0700834 -0.14357337 -0.14249143 -0.15299882
0000d0 63 9f c6 bd ea db d8 bd 19 87 a8 bd 0f 28 86 bd
       -0.09698369 -0.1058882 -0.08228893 -0.06550609
0000e0 73 65 bc bd 1d 9b 63 3d 16 71 2c bd ad b8 85 bb
       -0.091990374 0.05556785 -0.042100035 -0.004080853
0000f0 62 e2 f6 bc 30 99 39 be d8 26 3c b9 4a e2 c1 3d
       -0.030137245 -0.18124843 -0.00017943548 0.09466989
000100 df 37 ef bc c8 42 87 bd 16 d7 99 bd 03 af 88 3d
       -0.029201446 -0.066045344 -0.075117275 0.06674006
000110 1a f7 a3 3d 16 40 3c bd ab fe 05 be f7 ba d0 bd
       0.08006115 -0.045959555 -0.1308543 -0.10191911
000120 22 9d 1a be 17 8d 80 3d 94 7d 03 3d b7 5f 98 bd
       -0.15099004 0.06276911 0.032102183 -0.07440131
000130 8d e6 0b 3d 31 89 c1 bd bc c4 99 bb 90 bc c8 3d
       0.034155417 -0.09449995 -0.004692642 0.098015904
000140 27 cb 15 be 18 40 76 3c 15 66 92 bd 9a 6a 4c be
       -0.14628278 0.01502993 -0.07148377 -0.1996254
000150 01 f4 de bd ec b2 db bc 65 37 ba bd 18 da f9 3c
       -0.10886384 -0.026818715 -0.09092597 0.030499503
000160 9e 9c d2 bd 2c e5 4a bd ce 54 19 bd b2 f7 12 be
       -0.102837786 -0.04953496 -0.03743439 -0.14352301
000170 af eb bb bc ca 2d d5 3c e6 ce 51 be b6 b6 94 3d
       -0.022939531 0.02602281 -0.20489082 0.07261412
000180 5a 25 03 bd 43 1f 6a bd ce a3 1d 3d 0e 61 4a bd
       -0.032018043 -0.05715872 0.038486294 -0.049408965
000190 19 0d 4d be 05 05 5e bc 22 85 c8 3c 9f c7 91 3d
       -0.20024528 -0.013551001 0.024477545 0.07118153
0001a0 b3 cc 14 3d 3a f3 c7 bd 55 d7 7e bd 83 8f 0e 3d
       0.03632803 -0.09763189 -0.062217075 0.034804832
0001b0 7f ce 63 3d 02 63 59 3d 91 1a d2 bd 5f 1b 94 bd
       0.055616852 0.053072937 -0.102589734 -0.07231783
0001c0 a4 d1 93 bd 86 d8 e7 bd 5a 5c 2f 3d ee 0b a2 bd
       -0.0721772 -0.113205954 0.042812683 -0.07912432
0001d0 b8 fc 9f 3d e4 0e 5c be 35 bd 0c be 64 92 f3 3c
       0.07811874 -0.21490055 -0.13744052 0.02973289
0001e0 8f 38 53 bd 6e 90 fa bd 42 46 85 ba 7c 4a d8 bc
       -0.05156761 -0.12234579 -0.0010168033 -0.026402704
0001f0 7f d7 15 bd f4 11 11 bd c3 7e fe bd 96 48 32 bb
       -0.036582466 -0.035417512 -0.12426522 -0.002720391

temporal_conv.weight f4 [128, 128, 3]
000000 58 08 bb bc a3 56 8e 3d 3f 75 03 3d 33 9e ce 3d
       -0.022831127 0.069501184 0.032094236 0.10088768
000010 a1 ad 93 3d f7 8f 06 3c 93 71 e8 bd 45 ba c0 3c
       0.072108515 0.008213035 -0.113497876 0.02352632
000020 1d fa 69 3c 04 23 d4 3d c6 90 fb 3d 74 aa 3c 3d
       0.014280823 0.10358241 0.12283473 0.046060994
000030 16 cd 95 bc 65 09 80 bd 61 e2 29 3d b9 3d 2d 3c
       -0.01828627 -0.06251792 0.041475657 0.010573798
000040 6d 0c 9f bd 8c 12 38 3d 4d 3d 99 3d 4f 2f 1b 3d
       -0.07766042 0.044939563 0.07482395 0.037886914
000050 8c 50 28 3d 50 70 cc 3d 0a 65 ad 3d dc 41 15 bd
       0.04109244 0.099823594 0.08466537 -0.03643976
000060 7f 2f d3 3d 79 1c a4 bd 49 4a 33 bd 18 79 84 3c
       0.103117935 -0.08013243 -0.043772016 0.016171023
000070 28 7a b9 3c ba 08 c0 3c 60 5b 0a 3d dd 39 e7 3c
       0.022641256 0.023441661 0.03377855 0.028225834
000080 9e fa 17 3d aa 1b 18 3d a6 f1 a2 bc e7 6a c3 bc
       0.03710424 0.037135758 -0.019890618 -0.023854686
000090 c2 b9 35 bb 93 f2 80 3b bd 95 4d 3b 99 2b 75 bd
       -0.0027729128 0.003935167 0.0031369769 -0.05985603
0000a0 42 14 7f bc c4 32 0a 3d f4 f6 86 bc 56 7a 9f 3b
       -0.015568795 0.03373982 -0.016475178 0.0048668785
0000b0 36 7d 3b 3d 2a a3 92 bd 6d 55 d6 3b 49 09 c0 3c
       0.045773707 -0.07160027 0.0065409453 0.023441928
0000c0 a1 b0 ec bc b7 ac 5e bd 13 17 d8 bc 03 8d 0f bd
       -0.028892817 -0.054363932 -0.02637819 -0.03504659
0000d0 00 5d 68 bd 91 76 8f bc 72 91 8f bd b4 30 9c bd
       -0.056729317 -0.017512592 -0.07010163 -0.07626477
0000e0 e0 e7 4e 3d d8 cd b3 3d 4f dd 4b 3d 59 28 43 bd
       0.050514102 0.08779496 0.049771603 -0.0476459
0000f0 23 9d 4d be 74 85 94 bd d9 5b 22 3d fc 1e fb bd
       -0.20079474 -0.07252017 0.039638374 -0.12261769
000100 ce 96 5e bd f4 1a 3c bc 56 58 63 3d 1d 11 36 3d
       -0.054343037 -0.0114810355 0.055504166 0.044449914
000110 f6 d8 b1 bc d1 2b d1 bb c8 32 24 bd 63 ea 5a 3b
       -0.0217099 -0.006383397 -0.04008749 0.0033403866
000120 9d 23 b2 3c 07 e7 e9 3c 0e 62 00 bc a7 19 c1 bd
       0.021745497 0.028552545 -0.007835878 -0.09428721
000130 a2 e7 a2 bd 6e 7f 23 bc d1 88 7b 3d ae 6d 4e 3d
       -0.07954337 -0.009979112 0.061409775 0.050397567
000140 c5 6a 69 bc 2d 8e fb 3c 50 24 a4 3d 6e ab 68 3c
       -0.014246647 0.030707443 0.080147386 0.014201028
000150 a9 c0 8b 3d 65 52 c6 ba 50 fe 40 bb 96 fa 24 bb
       0.068238564 -0.0015130757 -0.0029448457 -0.0025173775
000160 c0 e2 a0 bc c6 0b 93 bc f8 e7 1a 3c 65 53 13 bd
       -0.019639373 -0.01794995 0.00945472 -0.035968203
000170 07 65 1c bd ff 5f 24 bd 42 a0 80 bd bd 97 b3 3c
       -0.038182285 -0.04013061 -0.06280567 0.02192294
000180 1a 0f 93 3d 8c 22 24 3c d7 d5 28 bd 4d 95 00 3d
       0.07180615 0.010018002 -0.04121956 0.031392384
000190 40 35 8d bd 61 72 0d bd 8c d1 ee 3c 16 50 17 bd
       -0.06894922 -0.03453291 0.029152654 -0.03694161
0001a0 b7 bc 1b 3a 46 fc 7b bd fd 19 9d bd 3d 98 0d 3c
       0.00059409015 -0.061519884 -0.076709725 0.0086422535
0001b0 56 3e 74 bc 04 7a f9 bc 39 d4 13 3d 35 e2 45 bd
       -0.01490744 -0.03045369 0.036091063 -0.04831143
0001c0 fc a8 e2 bc 3c 28 e6 bc 54 cf a2 3c f5 c4 ad bb
       -0.027668469 -0.028095357 0.019874252 -0.00530302
0001d0 87 2e 5f bc 73 bb 14 3e 31 83 bf 3d 26 96 43 3d
       -0.013621933 0.14524631 0.09351195 0.047750615
0001e0 3e 26 90 3d f2 fc f2 bb e5 98 29 3d 18 11 df 3c
       0.07038544 -0.0074154073 0.041405577 0.02722983
0001f0 2a b7 4a bd 9c c0 00 bd 1a 0d 23 bc a3 3f 11 3c
       -0.049491085 -0.031433687 -0.009951854 0.00886527
000200 02 3c af 3b ca a2 35 bc b7 17 61 bc b4 c7 42 bc
       0.0053477297 -0.011086175 -0.013738564 -0.011888433
000210 4d 87 fd 3a 81 21 b4 3d 07 eb de bc 47 18 bb 3c
       0.0019342691 0.08795453 -0.02721168 0.022838725
000220 16 72 13 bd 5c 18 32 bd 7f c2 fb 3c 4c b0 3c bd
       -0.035997473 -0.043480262 0.030732391 -0.046066567
000230 11 5c 9e bc 14 c9 0b 3e 34 ce 86 3d 5c 7a bb 3c
       -0.01933101 0.13650924 0.06582299 0.022885494
000240 77 10 ff bc a6 8d 60 bd 47 2c a2 3c 25 30 9a 3a
       -0.03113578 -0.054822586 0.019796504 0.0011763616
000250 db d6 49 bd 1c 5d ac b9 d5 ae 04 3d 6c 4f f2 3a
       -0.049277168 -0.00032875768 0.032393295 0.0018486804
000260 1d b7 9f 3c 3a 9c 10 bd 59 d8 15 bd 8e d4 3c 3c
       0.019496495 -0.03530524 -0.03658328 0.011525286
000270 7a 71 a7 bd 02 ea 81 3a 49 d1 cf 3a 33 70 5a bd
       -0.08175941 0.0009911659 0.0015855219 -0.053329658
000280 e6 0a 23 be 04 ad e1 3c d2 5e 8a 3c ea 59 42 bd
       -0.15922126 0.02754832 0.016890917 -0.04744903
000290 77 50 9f bc 6c 4b 55 bc 5c 8c 93 bd 27 97 8a 3c
       -0.019447548 -0.01301847 -0.07204506 0.016917778
0002a0 e4 be 00 3e c4 84 2f 3a d4 d3 a9 bc 7c eb 8e bd
       0.12572819 0.0006695504 -0.02073089 -0.06978509
0002b0 64 8a 27 bd 5c 43 5c bc 33 b3 5d bd f0 49 4d 3d
       -0.040903464 -0.013443794 -0.054125976 0.05011934
0002c0 43 f2 4a bd cd 77 24 3d 7e 94 8a 3d cb 4b 17 3c
       -0.049547445 0.040153313 0.06766604 0.009234379
0002d0 4b 60 12 3e 54 c9 e6 3b c3 91 0c 3d 6f 58 b7 3c
       0.14294545 0.007043043 0.034318697 0.022381036
0002e0 8a 26 00 bd 0d 09 cb 3b ff 90 96 bd 60 37 31 bd
       -0.031286754 0.0061961473 -0.073518746 -0.0432657
0002f0 b9 97 a2 bb 3d 49 56 bd ba 6a 90 bd 1b 88 4e 3d
       -0.0049619344 -0.05231594 -0.070516065 0.05042277
000300 22 90 a5 3c a3 2c 63 bc 38 d4 44 3d 50 26 6c bd
       0.02021033 -0.013865623 0.04805395 -0.057653725
000310 1a d9 19 bd bc 87 f5 bc 7d 5b 4a bd 5d 3a 61 3c
       -0.03756056 -0.02997195 -0.049403656 0.013746825
000320 49 df 3e 3d d1 90 88 bc 0b 20 7f bd b0 5f 45 3d
       0.04659966 -0.016670616 -0.062286418 0.048186958
000330 81 7f a7 3d 48 1f 0e 3d f9 6e 05 bd 72 8e 04 bd
       0.08178616 0.0346978 -0.032576535 -0.03236241
000340 1e ad 3f bc fa 09 9b 3c 62 84 30 bd 8f 23 15 bc
       -0.011698989 0.018925656 -0.043095 -0.009102716
000350 cd c3 ca 3c 81 10 55 bd ec aa 9b bc 9c 47 bb bb
       0.024751568 -0.052017692 -0.0190024 -0.0057153236
000360 a9 27 c6 3c 96 97 ce bd 80 20 39 bc 8f 04 3d 3d
       0.024188833 -0.100875065 -0.0112992525 0.046146926
000370 2e 99 b6 3c c0 6b 00 bd 7c e9 08 bd 65 0a 5e 3b
       0.022289839 -0.03135276 -0.033425793 0.0033880707
000380 38 ae 6d 3c c5 25 59 3d 1d 03 a9 3d bd 21 b9 bc
       0.014506869 0.053014535 0.08252547 -0.022599095
000390 5f 02 95 3d 14 45 95 3c 24 0a 20 bd d7 9c 5e bd
       0.07275843 0.018221416 -0.03907217 -0.054348793
0003a0 ab 15 94 bc ed db aa bc de a9 51 3d 29 e2 f1 3d
       -0.018076738 -0.020856822 0.05118739 0.11810715
0003b0 96 77 b4 3c d0 77 ce ba 76 d5 a5 b9 e0 6e ea bc
       0.02202968 -0.001575226 -0.00031630293 -0.028617322
0003c0 3a de 8f bc 89 b6 92 bc 4f 4e 21 bd b5 49 c5 3d
       -0.01756202 -0.017909305 -0.03938132 0.09633199
0003d0 f6 c0 07 3c cb 41 36 3d 2a fb 99 bd 28 53 4c bd
       0.008285752 0.04449634 -0.07518609 -0.04988399
0003e0 fe 6a eb bc 2b 13 af bc ab 24 0c bd 30 9e ba bc
       -0.028737541 -0.021371445 -0.034214657 -0.022780508
0003f0 f9 79 6f 3d 32 cd 4c bd ca 2d 31 bc 03 10 d4 bc
       0.05846593 -0.050000377 -0.01081414 -0.025886541

temporal_conv.bias f4 [128]
000000 21 a7 1b 3d 6b f3 12 3e 06 a9 ae bd 8c ca c8 3d
       0.038001183 0.14350669 -0.085283324 0.09804258
000010 8c 59 da 3d 0a ac ed 3d be 27 8e 3d 8f 90 12 3d
       0.10661611 0.116050795 0.06941174 0.035782393
000020 b4 00 e5 3d 26 f3 b3 bd 1d b9 d1 3d 6d 0b 86 3d
       0.11181775 -0.08786611 0.10240386 0.06545148
000030 fa 66 ac bd 83 73 a6 3d bc fe 95 3c 62 c6 4d 3d
       -0.08418079 0.08127501 0.018309943 0.05023802
000040 8b 63 16 bd d7 f0 b4 3d b0 df 4e 3c 61 80 11 3d
       -0.036716025 0.08834999 0.012626573 0.035522822
000050 d2 dd 8c bb 6d eb 49 3c 58 52 d8 bc 7e d8 d7 3b
       -0.004298904 0.012324196 -0.026406452 0.006587087
000060 e9 54 03 bd 48 02 37 bd 32 98 89 3c ff 2a 18 3d
       -0.0320634 -0.04467991 0.016796205 0.03715038
000070 98 c1 6c 3d e7 cc fd 3c 2b a6 bf bd cb 2b 4d bc
       0.057801813 0.030981494 -0.09357866 -0.012522648
000080 3b 6d a7 3d f0 a4 b4 3d d5 19 8a 3d 5e ef a3 3d
       0.08175131 0.08820522 0.06743208 0.0800464
000090 32 98 8c 3b cf 72 a5 bb 97 82 45 bd a5 24 5f bd
       0.004290604 -0.0050490866 -0.048220243 -0.054478306
0000a0 f3 c7 b3 3b 97 f8 4e 3d 44 25 97 3d fe 8e 42 bc
       0.0054864823 0.050530042 0.07380155 -0.011874912
0000b0 3b c2 6a 3d e9 ea b3 bc 84 c3 8d bd 7d 91 ba 3d
       0.05731414 -0.0219626 -0.06922057 0.09109781
0000c0 c1 08 9e bc b0 52 13 3c 6e 38 c4 3d 1a ae 35 bd
       -0.019291284 0.008991882 0.095810756 -0.04435549
0000d0 67 6a b9 bd 1d e8 7c 3d ef ad e1 3d fc 5f b5 3d
       -0.09053498 0.061744798 0.11019503 0.08856198
0000e0 82 44 2d 3d 2d 70 b5 3d 63 10 8a bb 2a f0 e1 bd
       0.042301662 0.088592865 -0.004213379 -0.11032136
0000f0 4f 83 59 bd 5b 67 2e 3c 12 c5 65 3b a3 27 8c bd
       -0.05310374 0.010644759 0.003506009 -0.068434976
000100 8f 1a 7c bc 52 27 f6 3d f3 c2 2e bd 42 ab 93 3d
       -0.015387191 0.120192185 -0.042666387 0.07210399
000110 8c 3c 12 3c 3a 9f 36 3d 82 4d f2 bd f9 c7 d2 bd
       0.008925568 0.044585444 -0.1183119 -0.10292048
000120 a4 cf 30 3c 2a a1 1e bd 53 ec e9 3c 1c 6f b2 3d
       0.010791693 -0.038727917 0.028555071 0.08712599
000130 cc 34 23 3d f8 1c 12 bd 4a 21 a1 3c 7c b2 9e 3c
       0.039845273 -0.035672158 0.019669194 0.019372217
000140 76 0f cd bc dd 68 3d bd 99 2d 9c 3d c6 88 4f 3d
       -0.025031786 -0.046242584 0.076258846 0.050667547
000150 18 42 10 bc 7e cc bd bc 5d f0 b2 bd 9b 60 96 3d
       -0.0088048205 -0.023168799 -0.08737252 0.07342645
000160 2c 39 c3 3c 29 56 a3 bc 73 60 2f bd 67 d9 fd 3c
       0.023830973 -0.019938545 -0.04281659 0.030987455
000170 34 10 b0 bc 03 af 9c bd 85 53 9b bc bf de cb bd
       -0.021492101 -0.07650568 -0.018960724 -0.09954595
000180 c5 d0 72 bd 2a 47 7a bc 93 55 b6 bd 66 7f b7 3d
       -0.05928113 -0.015275756 -0.08903041 0.08959846
000190 5b ea a8 3d bd 99 c7 3c 68 07 a7 bd 14 6a c5 bb
       0.08247825 0.0243653 -0.081557095 -0.0060246084
0001a0 92 f1 1a bc 43 24 ba 3d 1a ff 74 bc e4 8b 45 3c
       -0.009457009 0.090889476 -0.014953399 0.012057278
0001b0 a5 2e 72 bd 22 47 4e 3d 5b 1c 60 3d 29 d7 8a 3b
       -0.059126515 0.050360806 0.054714542 0.004237075
0001c0 b7 91 15 bd 18 06 26 bc 6e d8 92 3d 2d 14 02 3e
       -0.036515918 -0.010133289 0.07170187 0.12703009
0001d0 27 0f 2c bc e9 a8 c7 3d db b9 87 3d bb 20 0f bd
       -0.0105016595 0.09749014 0.06627246 -0.034943324
0001e0 d6 80 08 3e 64 6d ea 3d 84 e8 ce 3c a6 ee e2 3d
       0.13330397 0.11446646 0.025257356 0.11080675
0001f0 f7 05 ae 3d 86 78 28 be 9d 3c 05 bd 06 f3 c0 bd
       0.084972315 -0.16452226 -0.03252851 -0.09421353

fc.weight f4 [36, 128]
000000 90 11 cc bc 9f ae 95 bc 1a 47 21 bd 34 f4 c2 bd
       -0.024910718 -0.018271742 -0.03937445 -0.09519234
000010 27 bc 05 3d 97 c0 98 3b f5 d6 65 3d f3 13 93 bd
       0.03265014 0.0046616304 0.056113202 -0.071815394
000020 3b 1e 97 bc c1 34 f3 3a 09 8e 85 3d 64 e6 8e bc
       -0.018447032 0.0018555151 0.06521232 -0.017443843
000030 f2 d8 0e 3d 58 21 fb bd 6e 4d f8 bd c8 48 f2 3d
       0.034874864 -0.12262219 -0.121241435 0.11830288
000040 90 22 1b 3d 5e e6 ae bd a3 d8 da bb c2 39 86 3d
       0.03787476 -0.08540033 -0.006678657 0.06553985
000050 a4 c3 96 3c eb 7c 8b bd 7b ea a1 bd 46 ea 55 3d
       0.018403836 -0.068109356 -0.07906052 0.052225374
000060 c9 19 92 bc 9c d5 ff 3d 3d 55 7a bd 5e c7 49 3b
       -0.017834561 0.12491915 -0.061116446 0.0030788998
000070 fe d1 0e 3d 4c 52 1a 3e 8c 8f 46 bc 47 8f 5e 3a
       0.034868233 0.15070456 -0.012119185 0.0008489978
000080 43 ab 36 3d fa 6e d3 bd c4 04 17 bd f3 08 41 3d
       0.04459692 -0.103239015 -0.03686978 0.047127675
000090 17 0b 0f 3c c1 e6 97 3d c8 a0 d4 bd f4 8d 99 bc
       0.008730671 0.0741706 -0.10382229 -0.018744446
0000a0 01 d5 44 bb 11 0b 1c bd 14 c5 a2 bd 10 64 80 bb
       -0.0030034187 -0.03809649 -0.07947746 -0.0039181784
0000b0 d2 6f 1b bd 7b 07 4e 3e a4 8f d7 3b a4 12 f1 bc
       -0.037948437 0.20120041 0.0065784026 -0.029427834
0000c0 08 f3 44 3d 8b 78 83 3c 68 4f 41 bd ac 2a 9d bc
       0.048083335 0.01604869 -0.04719487 -0.019185387
0000d0 20 b0 3e 3a fb 6c 64 bd ef 93 47 bb b4 9b 45 bd
       0.00072741695 -0.055767994 -0.0030453166 -0.048244193
0000e0 f5 4e ea 3c c1 a0 ba bc 33 51 9e bc 66 cf ba bd
       0.028602103 -0.022781732 -0.019325828 -0.09121589
0000f0 f2 54 32 bd 66 ed 73 3d ac 16 52 3c 42 91 bd bd
       -0.04353804 0.059552573 0.012822788 -0.09256221
000100 77 51 14 be 9e 13 cd bc db dc 9f bc b8 68 72 3e
       -0.14484201 -0.025033768 -0.019514492 0.2367276
000110 47 ea 2a bd 92 7c 34 3e 7f c4 08 3d b2 bf ba bd
       -0.04172733 0.17625645 0.03339052 -0.09118594
000120 fb 6a 61 bd fd 20 8e bb 16 3b 62 bd 1e 58 b2 bc
       -0.055033665 -0.0043374286 -0.05523213 -0.021770533
000130 5f 36 ef bb 41 00 9a 3d 5b 3e d6 bb 58 8b fe bd
       -0.0073001827 0.0751958 -0.006538195 -0.124289215
000140 f1 89 8d bd 0a c2 e7 bc b5 cc 9d 3d 7f ca de 3b
       -0.06911076 -0.028290767 0.077050604 0.0067990418
000150 52 dc 35 bd 85 50 4c 3e e9 9d f7 39 9a 55 8a 3c
       -0.044399567 0.19952591 0.00047229163 0.016886521
000160 b7 f6 c5 bd f8 b1 36 be bb 62 d8 bd 40 67 f9 bd
       -0.09666198 -0.17841327 -0.10565706 -0.121778965
000170 22 f1 77 3c 0b 66 3f bd 6a 47 ad 3c 2a bc 8c 3d
       0.015133174 -0.046728175 0.021152217 0.06871827
000180 b0 f7 e0 3d 50 58 35 bd 61 cc 9a 3d 2e f2 56 bd
       0.10984743 -0.044273674 0.075585134 -0.052477054
000190 00 75 2f 3d bd 9f 7f bc a6 16 ed bd f6 bd 11 3d
       0.04283619 -0.015602049 -0.115765855 0.03558155
0001a0 4a d7 56 3c 8a a5 26 bd c7 d9 87 bc a1 1d 24 3c
       0.013112852 -0.040685214 -0.016583337 0.01001683
0001b0 b6 0d a9 bd 23 98 b5 3c 9a 8e 0b bd ea 38 b2 bd
       -0.08254568 0.022167271 -0.034071542 -0.08702262
0001c0 bd 71 dc 3b db c8 51 3c f0 ff 9b bd d9 e3 6c bd
       0.006727426 0.012804235 -0.076171756 -0.05783448
0001d0 2d 10 d5 bb 88 d2 63 3c 4b 2a ab 3c 5b 4c 28 3e
       -0.0065021724 0.013905175 0.02089419 0.16435377
0001e0 38 54 9e bb 5d 3e 85 3d 7b 88 71 3d a6 ff ac 3c
       -0.004831817 0.065060355 0.05896805 0.021117996
0001f0 44 cb d4 bd c1 57 2a bd c1 1d c5 bd 4f 35 90 3d
       -0.10390332 -0.041587595 -0.09624816 0.07041418
000200 cd f9 83 3c 68 9c 75 bd 97 88 23 bd 1e f0 5d bd
       0.016110325 -0.059963614 -0.039925184 -0.05418407
000210 86 60 8b bd a8 80 0f 3e 63 cb 5f 3d fd 90 a1 3c
       -0.0680552 0.14013922 0.054637324 0.019722456
000220 d5 eb 98 bd bc 24 5c 3d 53 1d bb 3d 65 2c a4 bc
       -0.074668564 0.05374597 0.091364525 -0.0200407
000230 a7 a4 80 3d 40 79 15 be 03 75 26 bd 7e 35 f9 3d
       0.06281405 -0.14597034 -0.040638935 0.12168406
000240 a0 6b b7 bd 2a f9 5f bd a3 0a db 3d 61 80 d5 3d
       -0.08956075 -0.05468098 0.10695388 0.10424877
000250 86 24 0b bd 35 05 03 3d 71 59 c9 bd 2f 2e 77 bd
       -0.03397038 0.031987388 -0.09831513 -0.06034678
000260 a5 12 0b bd af d0 f7 3c bd 0a ab bc 9a 1e f4 bc
       -0.033953328 0.030250875 -0.020879144 -0.029799748
000270 b4 e0 d9 bd 90 8c 33 3c 53 ee bf 3b 58 93 07 3e
       -0.10638562 0.010958806 0.005857268 0.13239801
000280 47 bf 10 bd d9 00 db 3c b9 af 75 3d b6 ab 92 3c
       -0.035338666 0.026733803 0.059982035 0.017904144
000290 81 9a 86 3c ac 37 e1 3c 58 81 f4 3b 65 f5 de bd
       0.016431095 0.027492367 0.007461708 -0.10886649
0002a0 e3 11 bc 3d 65 e6 3b bd 3d 4f 6f bd ef 48 67 3d
       0.09183099 -0.04587402 -0.058425177 0.05646604
0002b0 a8 f1 89 3d 4a 67 eb 3c 41 35 11 be dc 90 03 be
       0.067355454 0.028735776 -0.14180471 -0.12848228
0002c0 5e 75 54 bd 44 7b 31 bc 91 53 9e bd eb 26 95 3d
       -0.051869743 -0.0108326115 -0.07730783 0.07282814
0002d0 63 32 04 be 43 70 a2 bd 9b 4e 86 3d f4 24 a2 bd
       -0.12909846 -0.079315685 0.065579616 -0.079172045
0002e0 74 df 77 3d d3 52 12 bd 12 0f 85 bc c6 a4 cb bd
       0.060515836 -0.03572352 -0.016242538 -0.099435374
0002f0 92 76 7a bc f5 37 81 3d 00 c8 dd bd 4e 67 9e 3c
       -0.015287058 0.06309501 -0.108291626 0.019336369
000300 73 a7 28 3d 1f ab 65 bc e0 34 dd bd c5 ba 56 3d
       0.041175317 -0.014017849 -0.10801101 0.05242421
000310 4d df df bc e9 2c a1 3d dd 47 3a bd d5 e2 c7 bd
       -0.027328158 0.07869894 -0.04547869 -0.09760062
000320 d6 52 60 bd 6d 2f 43 bb fc d1 97 3c 97 70 f7 bc
       -0.0547665 -0.0029782907 0.018532746 -0.030205054
000330 74 9b f0 bc 9b 06 c2 bd dd 69 45 bd 13 cf 7b 3d
       -0.029371 -0.09473916 -0.048196662 0.06147678
000340 4b 0c c1 bc aa cf 01 be 8b 70 31 3e 07 97 d4 bc
       -0.023565432 -0.12676874 0.17328088 -0.025950922
000350 f6 bf ef bd 5c bb d1 3a 1f 17 0d 3e 37 e3 77 3d
       -0.117065355 0.0016001272 0.13778351 0.060519423
000360 e5 cb bb 3d 18 af 43 bd 32 42 de bd 88 5d 3d bc
       0.09169749 -0.047774404 -0.108524695 -0.011557944
000370 e5 a5 0d bd bf 27 61 3d d9 a3 4b bc bc 08 ea bd
       -0.034582037 0.054969545 -0.012429201 -0.11427447
000380 a7 af ff 3c d5 5d 68 3d 0b 79 8a 3d 80 0f 51 bd
       0.031211687 0.05673011 0.06761368 -0.051040173
000390 34 a8 46 bd 6e c5 0a bd 2c 51 b0 bd 6a 8f a5 3c
       -0.048500255 -0.03387969 -0.08609232 0.020209987
0003a0 da 4f cb bd 8f 57 23 bd fe ef 20 3d 08 7f ac 3c
       -0.0992734 -0.039878424 0.039291374 0.021056667
0003b0 17 8a ee bb a5 94 ac bd 4a e2 26 bd 48 1b 5f 3d
       -0.007279645 -0.08426789 -0.04074315 0.054469377
0003c0 31 a8 aa 3b 2a 8e 90 bd ed 54 91 3c 5d 82 5d 3d
       0.0052080383 -0.07058366 0.017740691 0.054079402
0003d0 91 7f 1e bd b6 19 b0 bd 4a 3d a8 bd 3a 24 8c bc
       -0.038695876 -0.08598654 -0.08214815 -0.017107118
0003e0 1a 80 6b 3d 88 65 e6 3d 19 27 07 3d 7e 97 94 3d
       0.057495214 0.11249834 0.03299627 0.07255457
0003f0 e3 b8 1c 3d 79 5c da 3c 87 eb 49 bd 9d 7d e8 3b
       0.03826226 0.026655423 -0.049296882 0.0070950524

fc.bias f4 [36]
000000 91 28 ca bc b6 d3 cf 3d ec de 1c 3e 3c 47 11 3e
       -0.024677547 0.101478025 0.15319413 0.1418733
000010 a9 ca a1 3a 3a 2d 0c 3e 8a 38 31 bd 9b 30 5f bd
       0.0012343723 0.13689128 -0.04326681 -0.054489713
000020 1e e6 d9 bd a9 6c 82 3d aa 7f a8 3c 8b 44 e3 bb
       -0.106395945 0.063683815 0.020568687 -0.006935661
000030 1e 13 01 3e 19 ba 5f 3d a4 22 dd bb 6c 72 a7 bd
       0.12604949 0.054620836 -0.0067485142 -0.08176121
000040 e9 93 27 3d c3 e8 0b 3e 61 8b 9c 3c bf ce 1a bc
       0.040912542 0.1366301 0.01910943 -0.009448706
000050 36 6e 10 3d b2 06 c6 bd d6 b7 ee 3d c9 c2 a9 3d
       0.035261355 -0.09669246 0.11656158 0.082891054
000060 18 f6 51 bc ee 04 2b 3d e0 e8 b3 3c 21 a6 ab 3d
       -0.012815021 0.04175275 0.02196163 0.08381296
000070 de 01 ac 3d b5 ab aa 3d bd 57 8e 3c 2a 64 5d bc
       0.08398794 0.08333532 0.017375821 -0.0135126505
000080 2e bf ac 3d 69 24 60 bd 30 5e 02 3e 96 10 a6 3c
       0.08434902 -0.054722223 0.12731242 0.02027158
