situation_analysis/best_models/model_window60_horizon2.pth (torch, 938090 bytes, 27 tensors)

adapt_adj f4 [60, 60]
0.9750432 -0.02527695 -0.025674503 -0.025818013 -0.02588875 -0.026193274 -0.025918324 -0.026074382
-0.025954844 -0.025663372 -0.025265038 -0.02488596 -0.024882201 -0.024787778 -0.024597568 -0.024888292
-0.024955695 -0.02485391 -0.024678387 -0.024631627 -0.024791189 -0.025275145 -0.025725875 -0.02582544
-0.025726872 -0.025767121 -0.025965473 -0.026108997 -0.026287554 -0.02625986 -0.026263803 -0.026164813
-0.026141528 -0.026186563 -0.02601684 -0.02648069 -0.026488613 -0.026784556 -0.027175555 -0.027479753
-0.027713314 -0.028136408 -0.028350044 -0.028339917 -0.028166039 -0.028376061 -0.028626503 -0.02863796
-0.028766908 -0.028623674 -0.028775815 -0.028679108 -0.029081907 -0.029555427 -0.0299567 -0.030076379
-0.03043283 -0.030770067 -0.030949336 -0.032291446 -0.024374256 0.97522694 -0.025203038 -0.02533538
-0.025358848 -0.025657943 -0.025408825 -0.025629295 -0.025513684 -0.02519964 -0.024761826 -0.024338333
-0.024285624 -0.024236737 -0.024058258 -0.024319736 -0.02440471 -0.02426638 -0.024119554 -0.024122115
-0.024309177 -0.024782892 -0.025211893 -0.025286792 -0.02522925 -0.025305402 -0.025469398 -0.025703685
-0.025905019 -0.025891222 -0.025928583 -0.02580727 -0.025794443 -0.025881227 -0.025698163 -0.026162287
-0.026110798 -0.026455114 -0.026807334 -0.027085466 -0.02730835 -0.027782593 -0.027986793 -0.02797402
-0.027879147 -0.028079178 -0.028353406 -0.028402202 -0.028482173 -0.02836792 -0.028552398 -0.028459933
-0.02881135 -0.029382115 -0.029874124 -0.030074473 -0.030364739 -0.030734925 -0.030937238 -0.032327387
-0.02408872 -0.024424173 0.97516036 -0.024981834 -0.025057226 -0.025315102 -0.025030473 -0.025180958
-0.025028976 -0.024708355 -0.024296504 -0.023878612 -0.023824833 -0.02371876 -0.023488877 -0.023839554
-0.0238649 -0.023801876 -0.023662856 -0.023685547 -0.023865717 -0.024305372 -0.02476575 -0.024821397
-0.024754431 -0.024783984 -0.02496465 -0.025172213 -0.025346374 -0.02536536 -0.025415577 -0.025300821
-0.025337758 -0.025410159 -0.025317121 -0.025739282 -0.025709147 -0.025998225 -0.02639893 -0.026704745
-0.026883053 -0.02731507 -0.027488029 -0.027463011 -0.027346183 -0.027537622 -0.027826061 -0.027857797
-0.02793338 -0.02783453 -0.027979871 -0.02785675 -0.028262898 -0.028769642 -0.029204898 -0.029375223
-0.029701754 -0.030076914 -0.030269163 -0.03159566 -0.024405874 -0.024733521 -0.025117895 0.9747142
-0.025371958 -0.025719302 -0.025377385 -0.02557914 -0.025528174 -0.025241662 -0.024891255 -0.024537887
-0.024446674 -0.024398483 -0.024227057 -0.024524948 -0.02448688 -0.02436888 -0.02420017 -0.024191407
-0.024291312 -0.024717685 -0.025192328 -0.025227308 -0.025120407 -0.025152415 -0.025329363 -0.025505167
-0.02568417 -0.025637524 -0.025667591 -0.025569344 -0.025579786 -0.0256833 -0.025581975 -0.02595649
-0.025926892 -0.02623819 -0.026627954 -0.02694055 -0.027054746 -0.027491381 -0.027680496 -0.027614733
-0.027469555 -0.027647357 -0.02788174 -0.027925512 -0.02801895 -0.02785879 -0.028021399 -0.027950319
-0.028279878 -0.028830936 -0.029242145 -0.02936652 -0.029674172 -0.029915957 -0.030090237 -0.03134045
-0.023849284 -0.024157941 -0.024521505 -0.024652943 0.97534084 -0.025002409 -0.024670886 -0.02483488
-0.024685072 -0.024375882 -0.024072697 -0.02372184 -0.023643384 -0.02359004 -0.023457535 -0.02371675
00000000: 6e9c 793f 9b11 cfbc 5653 d2bc 4c80 d3bc
00000010: a514 d4bc 4793 d6bc aa52 d4bc f199 d5bc
00000020: 419f d4bc fe3b d2bc a0f8 cebc a4dd cbbc
00000030: c2d5 cbbc bd0f cbbc d780 c9bc 88e2 cbbc
00000040: e36f ccbc 6d9a cbbc 542a cabc 44c8 c9bc
00000050: e416 cbbc d20d cfbc 12bf d2bc e08f d3bc
00000060: 29c1 d2bc 9215 d3bc 8bb5 d4bc 89e2 d5bc
00000070: ff58 d7bc eb1e d7bc 3027 d7bc 9757 d6bc
00000080: c226 d6bc 3485 d6bc 4521 d5bc 08ee d8bc
00000090: a6fe d8bc 496b dbbc 459f debc 381d e1bc
000000a0: 0807 e3bc 537e e6bc 5a3e e8bc 1d29 e8bc
000000b0: 77bc e6bc ea74 e8bc 2182 eabc 289a eabc
000000c0: 94a8 ebbc 327c eabc 42bb ebbc 73f0 eabc
000000d0: 2e3d eebc 391e f2bc c167 f5bc bd62 f6bc
000000e0: 454e f9bc 8211 fcbc 7689 fdbc 0944 04bd
000000f0: 85ac c7bc 79a8 793f 9a76 cebc 258c cfbc
00000100: 5cbd cfbc 9b30 d2bc 2b26 d0bc 87f4 d1bc
00000110: 1302 d1bc 7a6f cebc 50d9 cabc 2f61 c7bc
00000120: a5f2 c6bc 1f8c c6bc d315 c5bc 2f3a c7bc
00000130: 63ec c7bc 4aca c6bc 5f96 c5bc be9b c5bc
00000140: 0a24 c7bc 7e05 cbbc 2c89 cebc 3f26 cfbc
00000150: 92ad cebc 464d cfbc 33a5 d0bc 8990 d2bc
00000160: c336 d4bc d419 d4bc 2e68 d4bc c569 d3bc
00000170: de4e d3bc de04 d4bc f484 d2bc 4b52 d6bc
00000180: 50e6 d5bc 65b8 d8bc 0e9b dbbc 57e2 ddbc
00000190: c3b5 dfbc 5298 e3bc 8f44 e5bc c629 e5bc
000001a0: cf62 e4bc 4e06 e6bc 6745 e8bc bcab e8bc
000001b0: 7253 e9bc d763 e8bc b8e6 e9bc ce24 e9bc
000001c0: c805 ecbc c3b2 f0bc 94ba f4bc be5e f6bc
000001d0: 79bf f8bc cfc7 fbbc 1770 fdbc b969 04bd
000001e0: b555 c5bc 3415 c8bc 1ca4 793f b4a6 ccbc
000001f0: d044 cdbc 9e61 cfbc b50c cdbc 4c48 cebc
00000200: 9109 cdbc 2d69 cabc 7609 c7bc 149d c3bc
00000210: 4c2c c3bc d84d c2bc bf6b c0bc 2b4b c3bc
00000220: 5380 c3bc 27fc c2bc 9bd8 c1bc 3108 c2bc
00000230: 0982 c3bc 0f1c c7bc 8be1 cabc 3e56 cbbc
00000240: cec9 cabc c807 cbbc aa82 ccbc f535 cebc
00000250: 33a3 cfbc 04cb cfbc 5434 d0bc ab43 cfbc
00000260: 2191 cfbc f728 d0bc da65 cfbc 30db d2bc
00000270: fd9b d2bc 3bfa d4bc 9242 d8bc e9c3 dabc
00000280: d939 dcbc dbc3 dfbc 932e e1bc 1cfa e0bc
00000290: 1a05 e0bc 9496 e1bc 7bf3 e3bc 0936 e4bc
000002a0: 8bd4 e4bc 3e05 e4bc 0b36 e5bc d733 e4bc
000002b0: 9887 e7bc 50ae ebbc 1c3f efbc 4fa4 f0bc
000002c0: 1851 f3bc dc63 f6bc 09f7 f7bc 736a 01bd
000002d0: d4ee c7bc f49d cabc 0bc4 cdbc df86 793f
000002e0: dad8 cfbc 49b1 d2bc 3ce4 cfbc 588b d1bc
000002f0: 7620 d1bc 9ac7 cebc bfe8 cbbc ae03 c9bc
00000300: 6444 c8bc 54df c7bc d277 c6bc 8be8 c8bc
00000310: b698 c8bc 3fa1 c7bc 6f3f c6bc 0f2d c6bc
00000320: 93fe c6bc be7c cabc 2460 cebc 80a9 cebc
00000330: 50c9 cdbc 700c cebc 867f cfbc 36f0 d0bc
00000340: 9c67 d2bc c905 d2bc d744 d2bc cd76 d1bc
00000350: b38c d1bc c965 d2bc 4a91 d1bc b4a2 d4bc
00000360: a264 d4bc 79f1 d6bc de22 dabc 6eb2 dcbc
00000370: eaa1 ddbc 9b35 e1bc 35c2 e2bc 4b38 e2bc
00000380: d507 e1bc b67c e2bc 3f68 e4bc 0bc4 e4bc
00000390: ff87 e5bc 1e38 e4bc 228d e5bc 11f8 e4bc
000003a0: 34ab e7bc db2e ecbc 398d efbc 0e92 f0bc
000003b0: 4017 f3bc 4f12 f5bc cd7f f6bc d85e 00bd
000003c0: 935f c3bc e0e6 c5bc 53e1 c8bc f8f4 c9bc
000003d0: f0af 793f dad1 ccbc 991a cabc 8572 cbbc
000003e0: 5938 cabc eeaf c7bc 1b34 c5bc 4e54 c2bc
000003f0: c5af c1bc e63f c1bc 042a c0bc a149 c2bc

gc1.fc.weight f4 [128, 30]
0.02338016 0.018991685 0.1609582 0.015485597 0.048326384 -0.118374385 0.07325515 0.005867169
0.20127751 -0.056017857 0.1544455 -0.031627588 0.21288294 0.026188439 -0.16771503 0.038415395
-0.12090302 -0.04481153 -0.130382 0.12690082 0.07572602 0.08587155 0.13536844 0.057446275
-0.062435474 0.06355437 0.02471101 0.041025873 0.04163068 -0.03130303 -0.057309818 0.075423665
0.025566254 0.14595293 -0.02367118 0.04420507 -0.14516054 0.17247894 -0.0655035 -0.12795061
0.10748223 0.13757308 0.13515197 -0.092497654 -0.12310751 0.011677388 -0.11021471 -0.08197025
-0.14917845 -0.17355105 0.16787952 -0.16545995 0.13003951 0.07534327 -0.08153779 0.00032779586
0.03670929 0.10723425 0.19207747 0.15350904 0.10896156 0.050209463 0.1189769 -0.036954
-0.15806049 -0.027896572 -0.062175527 0.1705685 -0.033014 -0.1202574 -0.018877579 0.17349026
0.081730284 0.16389585 -0.0131285265 -0.019913165 -0.049530137 -0.045757197 0.048999697 -0.17984672
-0.1252019 0.031105258 0.09905862 0.0073184143 0.060194645 -0.061742216 0.09265449 0.01950348
-0.15202715 -0.14426515 -0.17981362 0.08912193 -0.11320372 0.112394564 0.008139175 -0.06777639
0.045123115 -0.07331672 -0.006531105 -0.005010497 0.13491142 0.19431162 -0.0028858 -0.090791605
-0.17136683 0.07249696 0.16130869 0.041736487 0.0127981985 -0.14743194 0.040058304 -0.1526186
0.061119244 -0.05452948 0.13879041 -0.105503656 -0.1750192 -0.15395306 0.09062076 0.026952002
-0.15049168 0.15178248 0.07591883 -0.05044229 -0.05935438 0.017105881 -0.17094028 -0.050447617
-0.02574349 0.0073738806 0.02782956 0.14024599 -0.1338049 0.009223126 0.05658869 -0.10984109
0.11881512 0.07556265 0.10580776 0.13385767 0.1046896 -0.14181772 0.05695925 -0.09470919
0.12900312 0.16347365 -0.09627908 -0.058918785 0.010705333 -0.024515847 0.18051875 0.07941397
0.16278926 -0.08499286 0.15470247 -0.16823372 -0.10419169 0.019175729 -0.14459474 -0.1243286
0.11848577 -0.13884355 -0.1641133 0.20833147 -0.07353763 0.10271918 -0.13654803 -0.14700332
0.22132882 0.15844138 0.14891745 -0.08346137 0.009635021 0.08860035 0.10802994 -0.04543607
-0.062382102 -0.096676216 -0.12744255 -0.100099474 0.2018592 0.10415995 -0.10610791 0.06885694
0.15843287 0.017318038 -0.1460664 -0.06760947 0.19956692 -0.15830556 -0.126459 -0.14331593
0.17530662 -0.036725547 0.0832448 -0.15799554 0.15350346 -0.053928304 0.035305087 0.08115522
0.15423194 0.023318907 -0.060853045 0.15023173 -0.06713432 0.048009582 0.13963297 -0.016758516
-0.1338236 -0.06344008 0.0173037 0.14585422 -0.11539844 0.04740863 -0.06339265 -0.0992498
-0.050213277 0.17500229 -0.096768714 -0.1690312 -0.13518174 -0.17447597 -0.023178164 0.092229195
0.15720533 -0.1072075 0.14052473 0.012021559 -0.123118356 0.10771189 -0.06286653 -0.17669249
0.13560148 0.11069249 0.09917592 0.08248884 -0.05100673 -0.15208285 -0.09994726 -0.063343756
0.09259495 0.1423337 0.122242935 0.20846452 -0.0042685177 -0.0037247124 0.19238591 0.14356664
-0.10141433 -0.048306223 0.124693245 -0.114601426 -0.08902548 0.20401631 -0.1535064 0.08118339
00000000: c087 bf3c 7394 9b3c 3ad2 243e 4db7 7d3c
00000010: e3f1 453d 456e f2bd cc06 963d 6141 c03b
00000020: b11b 4e3e fb72 65bd f626 1e3e ee8b 01bd
00000030: fcfd 593e 2389 d63c 7dbd 2bbe 7659 1d3d
00000040: 019c f7bd 4b8c 37bd dc82 05be 4af2 013e
00000050: 3e16 9b3d 6cdd af3d 069e 0a3e c94c 6b3d
00000060: 57bc 7fbd cb28 823d be6e ca3c bf0a 283d
00000070: ef84 2a3d 9b37 00bd b3bd 6abd b977 9a3d
00000080: 5270 d13c af74 153e 10ea c1bc 6010 353d
00000090: f7a4 14be 529e 303e b326 86bd 7c05 03be
000000a0: a51f dc3d f5df 0c3e 4765 0a3e 696f bdbd
000000b0: ca1f fcbd 8452 3f3c 40b8 e1bd 05e0 a7bd
000000c0: 3cc2 18be 5eb7 31be 9ce8 2b3e 556e 29be
000000d0: 1429 053e 934d 9a3d 49fd a6bd 04dc ab39
000000e0: 7b5c 163d a19d db3d f5af 443e 7931 1d3e
000000f0: 3d27 df3d 70a8 4d3d 29aa f33d 145d 17bd
00000100: 9cda 21be 5a87 e4bc c4ab 7ebd 82a9 2e3e
00000110: b039 07bd 8349 f6bd 27a5 9abc 6ea7 313e
00000120: 3562 a73d 50d4 273e 0819 57bc ef20 a3bc
00000130: 1de0 4abd e66b 3bbd e8b3 483d bd29 38be
00000140: ed34 00be 74d0 fe3c 3fdf ca3d 4fcf ef3b
00000150: a98e 763d 68e5 7cbd a3c1 bd3d c3c5 9f3c
00000160: 01ad 1bbe 3eba 13be 1021 38be 8f85 b63d
00000170: 5ad7 e7bd 1f2f e63d 2d5a 053c 59ce 8abd
00000180: 04d3 383d 1427 96bd e102 d6bb 182f a4bb
00000190: 3826 0a3e a0f9 463e b11f 3dbb f3f0 b9bd
000001a0: c97a 2fbe 4979 943d 1b2e 253e e1f3 2a3d
000001b0: 89af 513c 66f8 16be 2d14 243d 0d48 1cbe
000001c0: 2c58 7a3d 4e5a 5fbd 131f 0e3e 4d12 d8bd
000001d0: 3c38 33be dfa5 1dbe 6197 b93d 72ca dc3c
000001e0: 7e1a 1abe de6c 1b3e 557b 9b3d 939c 4ebd
000001f0: 941d 73bd a221 8c3c f80a 2fbe 29a2 4ebd
00000200: 03e4 d2bc 98a0 f13b d1fa e33c a59c 0f3e
00000210: 2704 09be 981c 173c 8bc9 673d 5ef4 e0bd
00000220: 5755 f33d 97c0 9a3d bdb1 d83d fc11 093e
00000230: 8067 d63d aa38 11be 1a4e 693d e4f6 c1bd
00000240: 6519 043e a365 273e f72d c5bd d354 71bd
00000250: 6c65 2f3c 75d5 c8bc e8d9 383e cba3 a23d
00000260: 3ab2 263e bd10 aebd 536a 1e3e 7645 2cbe
00000270: 7462 d5bd 6b16 9d3c a510 14be fe9f febd
00000280: aba8 f23d 012d 0ebe 510d 28be d854 553e
00000290: e69a 96bd 6f5e d23d 3fd3 0bbe 0a88 16be
000002a0: 06a4 623e 753e 223e d17d 183e cbed aabd
000002b0: 35dc 1d3c 1a74 b53d cd3e dd3d 2c1b 3abd
000002c0: 6084 7fbd 2efe c5bd 4d80 02be f400 cdbd
000002d0: 2eb4 4e3e d051 d53d 1b4f d9bd de04 8d3d
000002e0: 3a3c 223e 8fde 8d3c 6e92 15be d576 8abd
000002f0: 455b 4c3e da1a 22be 787e 01be 69c1 12be
00000300: 9483 333e 876d 16bd 407c aa3d 95c9 21be
00000310: 0330 1d3e ede3 5cbd 119c 103d b534 a63d
00000320: faee 1d3e 4b07 bf3c 0b41 79bd 59d6 193e
00000330: b87d 89bd b2a5 443d f2fb 0e3e 2849 89bc
00000340: 0e09 09be dfec 81bd 7dc0 8d3c cf5a 153e
00000350: 0456 ecbd 8d2f 423d 01d4 81bd 7b43 cbbd
00000360: 70ac 4dbd cd33 333e ad2e c6bd 8416 2dbe
00000370: 156d 0abe d4a9 32be 22e0 bdbc a9e2 bc3d
00000380: 6ffa 203e 9b8f dbbd b7e5 0f3e 13f6 443c
00000390: 7a25 fcbd 0d98 dc3d 2bc0 80bd e0ee 34be
000003a0: 1ddb 0a3e bfb2 e23d bf1c cb3d e9ef a83d
000003b0: 6fec 50bd 9bbb 1bbe 26b1 ccbd 5fba 81bd
000003c0: 6ca2 bd3d edbf 113e 815a fa3d b977 553e
000003d0: ecde 8bbb 4e1a 74bb d000 453e 2203 133e
000003e0: 51b2 cfbd bfdc 45bd 2c5f ff3d 27b4 eabd
000003f0: fe52 b6bd a7e9 503e c830 1dbe 7a43 a63d

gc1.fc.bias f4 [128]
-0.13428317 0.12839988 0.102145694 0.06806087 0.096213564 0.07002663 0.11209942 -0.22135529
0.13097334 0.047395416 0.1565706 -0.004949542 -0.013754068 -0.15103334 -0.20154569 0.12309845
-0.10421659 -0.06252149 -0.03432377 0.072130576 0.028092757 -0.060443837 0.02635352 0.061433293
0.025070371 0.14568882 -0.05445876 -0.08677939 0.055930324 0.2080115 -0.22838898 -0.013094017
-0.06439776 -0.03154817 0.014127296 -0.02623144 -0.17230874 0.15463142 0.04572177 -0.16180713
-0.21259318 0.031610638 -0.0046463553 0.13690497 -0.031633925 0.17200378 0.0311332 -0.17066503
-0.0262102 0.11943423 0.045431845 -0.15922515 0.10724253 -0.17670187 -0.27123758 -0.17920028
0.12987758 -0.15798144 -0.20858894 0.09260466 -0.11225694 -0.010960788 0.025004959 0.053722996
-0.20167445 -0.08908049 -0.19080131 0.07615524 0.09788952 -0.15980229 -0.07987129 0.12272144
0.008937484 0.005562886 0.121709436 0.064549536 0.13486406 -0.19085361 0.087143 -0.059504192
-0.17887913 -0.23414718 -0.05419095 -0.13331333 -0.19778535 0.036542237 0.109966345 0.049687136
0.09739033 -0.19627795 -0.23076689 0.13495779 -0.11180829 -0.088146746 -0.08360701 -0.09531461
-0.070900664 -0.18791835 -0.051451314 -0.15145546 0.06227756 -0.14277077 0.057769652 -0.23970883
-0.040850326 -0.24497041 -0.116100974 -0.25052115 -0.117439546 0.014577428 -0.09217958 -0.056670424
-0.13687548 -0.27500695 -0.010115325 -0.004318372 -0.08728151 -0.22487316 -0.19525176 -0.032178
-0.124589734 0.07240614 0.17160375 0.007572037 -0.13233095 0.044881966 1.633307e-05 -0.07843598
00000000: 8781 09be 427b 033e c331 d13d 7f63 8b3d
00000010: 9e0b c53d 1f6a 8f3d 6194 e53d f6aa 62be
00000020: e01d 063e b221 423d 0b54 203e c52f a2bb
00000030: be58 61bc 7ca8 1abe fe61 4ebe 0a1b fc3d
00000040: 826f d5bd 440b 80bd 1597 0cbd 32b9 933d
00000050: c822 e63c f593 77bd 56e3 d73c 7aa1 7b3d
00000060: 6160 cd3c 732f 153e 2610 5fbd 65b9 b1bd
00000070: 3217 653d f700 553e cdde 69be 4a88 56bc
00000080: f9e2 83bd a738 01bd 2d76 673c 51e3 d6bc
00000090: b471 30be b357 1e3e c046 3b3d c5b0 25be
000000a0: 07b2 59be 287a 013d 7440 98bb d130 0c3e
000000b0: 9392 01bd c221 303e 0d0b ff3c d0c2 2ebe
000000c0: c6b6 d6bc ef99 f43d be16 3a3d eb0b 23be
000000d0: f9a1 db3d 56f1 34be a7df 8abe 4780 37be
000000e0: a1fe 043e e3c5 21be 5798 55be 83a7 bd3d
000000f0: f7e6 e5bd e094 33bc 33d7 cc3c a50c 5c3d
00000100: bf83 4ebe d56f b6bd 6b61 43be 47f7 9b3d
00000110: 4d7a c83d 36a3 23be 8f93 a3bd 6155 fb3d
00000120: 866e 123c df48 b63b cc42 f93d 8c32 843d
00000130: ce19 0a3e 216f 43be 0778 b23d abba 73bd
00000140: 172c 37be 47c4 6fbe 54f7 5dbd 4a83 08be
00000150: 3e88 4abe 50ad 153d 0936 e13d bd84 4b3d
00000160: 9574 c73d 16fd 48be 284e 6cbe 6032 0a3e
00000170: bffb e4bd 4886 b4bd 273a abbd 4e34 c3bd
00000180: 5e34 91bd ab6d 40be 9dbe 52bd 2417 1bbe
00000190: c116 7f3d 8032 12be df9f 6c3d 3b76 75be
000001a0: ac52 27bd 86d9 7abe 59c6 edbd 4f44 80be
000001b0: 2584 f0bd 2ad6 6e3c a6c8 bcbd 3f1f 68bd
000001c0: 1629 0cbe b6cd 8cbe c0ba 25bc 2181 8dbb
000001d0: a6c0 b2bd 2645 66be 14f0 47be 14cd 03bd
000001e0: e728 ffbd ac49 943d e5b8 2f3e da1e f83b
000001f0: c481 07be 27d6 373d 0003 8937 0ba3 a0bd

gc2.fc.weight f4 [128, 128]
0.08850155 -0.070426725 -0.05718856 0.011169472 -0.07518587 -0.06352039 -0.034148213 -0.017748043
0.12310795 -0.05922049 -0.087441176 0.06888882 -0.12422203 0.02828426 0.07416537 -0.0046469495
-0.00823005 0.08317164 0.04528506 -0.007885574 0.122707725 0.031486865 0.07727209 -0.09442899
0.08620553 -0.04427528 0.011821041 0.012940059 0.007956089 0.024474528 0.06911978 -0.05566077
0.0070080245 0.051741417 0.006825867 -0.013215125 0.037588093 -0.06961517 0.0037307586 0.02282805
0.039000604 -0.08899414 0.045557838 -0.06610439 0.1376119 0.102778986 -0.03671834 0.04548158
0.02722839 -0.08587848 0.08581394 -0.040391494 -0.058214493 -0.029205183 0.063073896 -0.0112200845
-0.0059714494 0.056113135 0.073138036 0.0024996235 0.06069505 -0.0033742988 0.0018871092 0.027609758
-0.008656491 -0.056975126 0.035039105 0.036254372 0.013793844 -0.017445628 -0.10805805 0.0634672
0.10533397 -0.054457325 -0.07125506 0.012788333 -0.04331203 0.04254402 -0.05504076 0.027660795
0.021978935 0.01573973 0.08841723 0.046828616 0.04877965 0.10172917 0.061399944 -0.04482772
0.030660048 -0.055723343 0.073911004 -0.07513479 0.0701529 -0.08858125 -0.044403363 -0.0770979
0.10815154 0.006905097 -0.03997242 -0.05016213 0.025528867 0.11520249 0.054632604 0.10295364
0.036905795 -0.05997853 0.050881345 -0.019988062 -0.013115227 -0.015971944 -0.033649992 -0.029025061
0.05782087 0.040774044 0.074253514 0.04808743 -0.014937988 0.07614393 0.13009201 -0.04306091
0.03014698 0.09035843 -0.04468991 0.14191675 0.05292525 0.041418687 0.07298658 0.15558684
-0.0038780363 -0.052166566 -0.0072430344 -0.11777344 -0.18761404 0.0133875795 -0.01862889 -0.03175078
0.021105455 -0.040975835 -0.15451479 -0.016720776 -0.07286946 -0.04099296 -0.032491043 0.012652352
-0.12539893 0.0545147 -0.1375678 -0.10844661 -0.11069392 -0.114370406 -0.12254105 -0.10797302
-0.045538306 0.01919938 -0.019196687 0.019996373 -0.001745396 -0.06322686 0.0011998699 -0.007780072
-0.004491305 -0.1610889 -0.06441675 -0.020390602 -0.010470575 0.022444027 0.015828561 -0.1028241
-0.012584177 -0.08919703 -0.037590783 -0.10050871 0.037634272 -0.09480482 0.038622435 -0.076520294
-0.011933998 0.03511511 -0.020609517 -0.1147384 -0.03997943 -0.12109568 0.10916642 -0.007461374
-0.08609329 -0.15098988 -0.11788083 -0.09376684 0.05991172 0.0004995266 -0.06486482 0.0021203987
-0.056636613 0.018477667 -0.062170945 -0.0076703117 -0.04773097 0.0391015 -0.17500477 -0.128227
-0.12254263 -0.026804775 0.022368006 -0.075690895 -0.039357003 -0.13312513 0.03156261 -0.042002533
0.025353499 -0.08580138 -0.109024726 -0.08052203 -0.089872845 -0.1068577 -0.052836757 -0.025620693
0.04267703 -0.12485316 -0.017835608 0.0048289984 -0.121885404 -0.045767408 -0.025050445 0.02658689
-0.10322129 -0.0393175 -0.07668223 0.02659156 -0.03474763 -0.09956716 -0.06357501 -0.13945298
0.07128519 0.0131928325 -0.12025195 0.06390026 0.043198228 -0.1212837 -0.058881067 -0.076658085
-0.016120262 -0.06794822 0.0094285915 -0.07481903 0.07881535 -0.12973388 -0.07461336 -0.09181333
-0.020538585 -0.09330649 -0.094343 -0.023105917 -0.07261433 -0.09772875 0.0012745578 -0.064259656
00000000: 4d40 b53d e33b 90bd 8d3e 6abd 2900 373c
00000010: 0dfb 99bd fa16 82bd ffde 0bbd 5864 91bc
00000020: 0520 fc3d 2f91 72bd 5c14 b3bd 9515 8d3d
00000030: 1f68 febd 64b4 e73c 03e4 973d 7045 98bb
00000040: 55d7 06bc e555 aa3d d47c 393d 7f32 01bc
00000050: 304e fb3d 5ff8 003d d440 9e3d fc63 c1bd
00000060: 868c b03d ff59 35bd 0aad 413c 8b02 543c
00000070: 425a 023c ce7e c83c ac8e 8d3d 8cfc 63bd
00000080: 92a3 e53b cfee 533d 86ab df3b 4084 58bc
00000090: f9f5 193d 6692 8ebd be7f 743b e401 bb3c
000000a0: 19bf 1f3d 8f42 b6bd db9a 3a3d bd61 87bd
000000b0: 22ea 0c3e ca7d d23d f865 16bd e54a 3a3d
000000c0: 130e df3c 0ee1 afbd 38bf af3d 8d71 25bd
000000d0: 5272 6ebd b53f efbc e32c 813d 72d4 37bc
000000e0: 26ac c3bb e3d6 653d 65c9 953d b9d0 233b
000000f0: 5f9b 783d 5723 5dbb e158 f73a dc2d e23c
00000100: f4d3 0dbc c05e 69bd 2a85 0f3d 777f 143d
00000110: 93ff 613c 22ea 8ebc 8a4d ddbd 17fb 813d
00000120: 56b9 d73d a50e 5fbd 2cee 91bd 2886 513c
00000130: f567 31bd a342 2e3d 6c72 61bd e498 e23c
00000140: 2b0d b43c 9bf0 803c 1814 b53d 5dcf 3f3d
00000150: 2ccd 473d 6257 d03d 827e 7b3d 459d 37bd
00000160: c82a fb3c 293e 64bd a75e 973d 45e0 99bd
00000170: 53ac 8f3d 166a b5bd 4de0 35bd 81e5 9dbd
00000180: 8e7e dd3d 2744 e23b 1fba 23bd ce76 4dbd
00000190: ea21 d13c 48ef eb3d 70c6 5f3d 5cd9 d23d
000001a0: 882a 173d 0cac 75bd f568 503d 01be a3bc
000001b0: 40e1 56bc 98d7 82bc 93d4 09bd f7c5 edbc
000001c0: 94d5 6c3d af02 273d 3a12 983d 53f7 443d
000001d0: 76be 74bc 59f1 9b3d d736 053e a360 30bd
000001e0: cdf6 f63c d70d b93d c40c 37bd a052 113e
000001f0: 26c8 583d a4a6 293d fd79 953d 2852 1f3e
00000200: a726 7ebb 9cac 55bd fa56 edbb 3433 f1bd
00000210: e51d 40be 9457 5b3c 9d9b 98bc 1b0d 02bd
00000220: 59e5 ac3c 47d6 27bd 2039 1ebe 02fa 88bc
00000230: 953c 95bd 3ce8 27bd 5415 05bd d04b 4f3c
00000240: 9468 00be ce4a 5f3d 93de 0cbe 4219 debd
00000250: 7eb3 e2bd 083b eabd cdf6 fabd f520 ddbd
00000260: 6086 3abd 0548 9d3c 5f42 9dbc 6fcf a33c
00000270: c5c5 e4ba 157d 81bd f444 9d3a f9ef febb
00000280: cc2b 93bb 7df4 24be eeec 83bd 310a a7bc
00000290: c68c 2bbc 89dc b73c e6aa 813c 7195 d2bd
000002a0: dd2d 4ebc efac b6bd cbf8 19bd 83d7 cdbd
000002b0: 6526 1a3d 0829 c2bd 8f32 1e3d acb6 9cbd
000002c0: d186 43bc ddd4 0f3d 4ad5 a8bc f7fb eabd
000002d0: 79c1 23bd 0301 f8bd a592 df3d 8b7e f4bb
000002e0: ae51 b0bd 179d 1abe 816b f1bd d408 c0bd
000002f0: fe65 753d aaf2 023a d9d7 84bd 63f6 0a3b
00000300: cbfb 67bd 7a5e 973c f6a6 7ebd 3d57 fbbb
00000310: 8d81 43bd e528 203d 7334 33be f04d 03be
00000320: a1f7 fabd b095 dbbc 1c3d b73c d403 9bbd
00000330: cf34 21bd f451 08be cc47 013d d90a 2cbd
00000340: 24b2 cf3c a2b8 afbd 5b48 dfbd bce8 a4bd
00000350: 410f b8bd 36d8 dabd 5b6b 58bd 7de2 d1bc
00000360: 1cce 2e3d 03b3 ffbd fb1b 92bc 933c 9e3b
00000370: 0e9f f9bd 9b76 3bbd 9736 cdbc c0cc d93c
00000380: af65 d3bd 630b 21bd 930b 9dbd 8bd6 d93c
00000390: 8853 0ebd dee9 cbbd 9d33 82bd c3cc 0ebe
000003a0: f8fd 913d c026 583c a846 f6bd 24de 823d
000003b0: a0f0 303d 9763 f8bd 462d 71bd eafe 9cbd
000003c0: a40e 84bc 7028 8bbd 617a 1a3c b83a 99bd
000003d0: f169 a13d f5d8 04be e4ce 98bd a108 bcbd
000003e0: 8940 a8bc 7917 bfbd e736 c1bd 9f48 bdbc
000003f0: d2b6 94bd 0326 c8bd 100f a73a 919a 83bd

gc2.fc.bias f4 [128]
0.03083064 -0.1788149 -0.06684045 -0.20653158 -0.03791705 -0.033870958 -0.0048130355 -0.03541105
-0.09522584 -0.04982339 0.0195988 0.05926514 -0.0083670225 -0.07115487 0.04884726 -0.011033995
-0.08208447 -0.10900329 -0.025957808 0.041580502 -0.12941322 -0.08524905 -0.090595655 0.011358842
-0.10739436 -0.07589911 0.040234666 0.04326896 -0.01687004 -0.040632993 -0.021390507 0.006321007
-0.040264096 0.0300001 0.020186398 0.03607563 -0.0016084625 0.029137932 -0.16457969 0.015203569
-0.18447465 0.026525324 -0.054778706 -0.08898742 0.08247314 -0.1944876 -0.076594636 0.019799406
-0.01262231 -0.17615607 -0.04704748 0.02178282 0.056012377 -0.045413744 -0.00296714 -0.071897976
-0.010401907 0.06598932 0.04919342 -0.051350802 0.12855573 -0.11262123 -0.072205745 -0.11466708
-0.0072986903 -0.14305511 -0.1089281 -0.03545172 -0.16460344 0.029768413 0.06276006 -0.052524526
-0.07525745 0.04121865 -0.11053372 -0.058603376 0.019491013 0.020791208 -0.0634444 -0.07762416
-0.04543586 -0.036387365 -0.076649345 -0.01594509 -0.01287237 0.0028310546 0.029887505 -0.11292121
0.04282527 0.04186408 -0.01011174 -0.15271443 -0.010257554 -0.09720265 -0.018200204 0.019704094
-0.14073376 -0.02574565 -0.06560374 -0.030851902 -0.027537456 -0.007863861 0.076338276 0.012064253
0.07982944 -0.07380305 0.0020278122 -0.064698376 -0.04141898 -0.02434501 -0.06371925 0.037943967
-0.06781556 -0.12878689 -0.17273545 -0.050274614 0.07200436 -0.08997107 -0.067960784 0.008559888
-0.2013693 0.010149886 -0.06616512 -0.020769868 -0.11058681 -0.074443996 -0.015862152 -0.11240385
00000000: 8a90 fc3c 411b 37be a5e3 88bd 047d 53be
00000010: e94e 1bbd 46bc 0abd abb6 9dbb 2d0b 11bd
00000020: c405 c3bd 9c13 4cbd aa8d a03c 01c0 723d
00000030: d615 09bc a5b9 91bd 1114 483d eec7 34bc
00000040: e71b a8bd 1e3d dfbd 78a5 d4bc 5150 2a3d
00000050: e684 04be 0e97 aebd 378a b9bd 701a 3a3c
00000060: 93f1 dbbd fe70 9bbd 1bcd 243d cb3a 313d
00000070: 0a33 8abc c86e 26bd 253b afbc 7320 cf3b
00000080: f7eb 24bd c5c2 f53c f25d a53c 0ac4 133d
00000090: 0cd3 d2ba acb2 ee3c 9487 28be 6418 793c
000000a0: ece6 3cbe a34b d93c a35f 60bd 093f b6bd
000000b0: ade7 a83d c227 47be a6dd 9cbd 5d32 a23c
000000c0: cecd 4ebc 4262 34be dcb4 40bd e271 b23c
000000d0: 3c6d 653d c303 3abd 5974 42bb 3f3f 93bd
000000e0: c36c 2abc 6925 873d 0a7f 493d 3855 52bd
000000f0: 1da4 033e f6a5 e6bd 9be0 93bd 93d6 eabd
00000100: da29 efbb 0a7d 12be b215 dfbd d335 11bd
00000110: ce8d 28be e3dc f33c 5988 803d f523 57bd
00000120: 9420 9abd e3d4 283d 815f e2bd 180a 70bd
00000130: 9eab 9f3c 5352 aa3c 23ef 81bd 6af9 9ebd
00000140: f41a 3abd eb0a 15bd 55fa 9cbd 479f 82bc
00000150: a2e6 52bc 3789 393b a4d6 f43c 3c43 e7bd
00000160: 8d69 2f3d ab79 2b3d b6ab 25bc 2c61 1cbe
00000170: 4d0f 28bc 2f12 c7bd 9818 95bc 7b6a a13c
00000180: 831c 10be 8be8 d2bc 415b 86bd 21bd fcbc
00000190: 3b96 e1bc 6cd7 00bc 3e57 9c3d 25a9 453c
000001a0: 9e7d a33d 0e26 97bd 0be5 043b 9580 84bd
000001b0: f3a6 29bd 306f c7bc 3d7f 82bd 226b 1b3d
000001c0: e2e2 8abd b6e0 03be 90e1 30be c1ec 4dbd
000001d0: 0677 933d c142 b8bd 062f 8bbd c63e 0c3c
000001e0: c133 4ebe b54b 263c 9481 87bd 9225 aabc
000001f0: 567b e2bd 1876 98bd 58f1 81bc fd33 e6bd

temporal_conv.weight f4 [128, 128, 3]
0.015185305 0.0061480002 0.02055583 -0.091397285 -0.09418099 0.04598214 -0.10073955 -0.10552786
-0.026840484 -0.08776788 -0.012828064 -0.03193012 -0.10739184 -0.04921015 0.028936395 -0.10953952
-0.04525636 0.046990905 -0.100667074 -0.03955447 0.019720966 -0.09475742 -0.06702738 0.050176404
-0.02118027 -0.0735986 0.018875072 -0.002160264 0.0029027613 0.00063517725 -0.054030683 -0.05918698
-0.022029996 -0.03292976 -0.05483207 0.014675014 -0.07218911 -0.10874273 0.027474616 0.052116536
0.0028272606 0.03611061 -0.067001544 -0.12070739 0.0026628266 -0.050659865 -0.04268002 0.04810446
-0.052092478 -0.08955973 0.0038252315 -0.0782056 -0.10735382 0.020900318 -0.035537343 -0.050646055
-0.016792076 -0.048877236 -0.027808072 0.042382542 -0.066492654 -0.11070539 0.018582214 -0.016557554
-0.021230878 0.024971824 0.08794579 0.037100893 -0.0033242414 0.079131395 0.0009777212 0.018242115
-0.10630566 -0.04431187 -0.008598794 -0.081067845 -0.114836015 0.044929665 -0.06526775 -0.055975195
-0.00016866154 -0.09357635 -0.057766467 0.0019640538 -0.09386976 -0.05646582 -0.00511807 -0.11610494
-0.05639832 0.025919132 -0.052659728 -0.09576303 -0.006434944 -0.023879342 -0.039944842 -0.0037053647
0.06634439 0.09248923 -0.023937505 0.018714637 0.054020472 0.027919846 -0.0005617408 -0.028621998
-0.04783069 -0.005710168 0.0015593504 -0.036664587 -0.052685667 -0.122077 -0.050831813 -0.08628277
-0.027959023 -0.040267456 -0.0656435 -0.05106342 0.043475665 -0.06235768 0.016452989 -0.04165323
-0.037874795 -0.05867379 0.010966492 -0.03613188 -0.10420372 0.018194307 -0.08321497 -0.1109376
-0.025826039 0.07184739 0.08266361 0.004760374 -0.09132953 -0.036289304 -0.03259274 -0.034326367
-0.025262723 0.029275093 -0.070234224 -0.050886706 -0.0061020926 -0.11052889 -0.06333118 -0.03898208
0.006347306 0.0020637822 0.011104511 -0.08009272 -0.11474545 -0.033051427 -0.022163816 -0.075467445
0.032912377 0.0027110637 0.02546414 -0.0066797454 -0.0785014 -0.07005056 0.022587933 -0.028270517
-0.062139645 0.045404606 -0.021014297 -0.10129465 0.0408224 -0.023466766 -0.07001558 0.03821603
-0.10852734 -0.0146991825 0.038866248 -0.031182704 -0.03711475 0.037062816 -0.03928464 -0.03072942
0.020032385 -0.122187436 -0.07742548 -0.050901 0.031916298 -0.008553209 -0.016333494 -0.049157467
-0.0666901 -0.026671086 -0.07494734 -0.09480054 -0.029025357 0.08637555 0.03404376 0.02363552
-0.113064855 -0.10003364 0.018107539 -0.05772448 -0.08118759 0.024682675 0.027311582 -0.027322305
-0.039190434 -0.021091359 -0.008588153 0.012959642 -0.06271028 -0.014448222 0.025873087 -0.051691696
-0.041127082 -0.009085227 0.018069163 -0.00016886927 -0.0002897815 -0.10609674 -0.09419968 0.01593479
-0.011037291 -0.06986775 0.006475447 -0.09124538 -0.04281193 0.04505614 -0.07515103 -0.079153225
-0.015807701 -0.090421446 -0.07860459 0.018695673 -0.10831723 -0.029268423 -0.05007037 -0.0628984
-0.086701065 0.014968227 -0.09980147 -0.10080155 -0.022327691 -0.004877469 0.004173318 0.028240634
-0.078866616 -0.06168939 0.026806977 -0.055560578 -0.06418204 0.021710582 -0.020498617 -0.06616855
0.026314875 -0.022432687 -0.06032921 0.03106214 -0.02666807 -0.033558186 -0.011532069 0.028053649
00000000: c9cb 783c 2a75 c93b b364 a83c 802e bbbd
00000010: f6e1 c0bd c557 3c3d 8a50 cebd fe1e d8bd
00000020: 93e0 dbbc a5bf b3bd cd2c 52bc 28c9 02bd
00000030: 41f0 dbbd 9590 49bd 050c ed3c 4256 e0bd
00000040: bc5e 39bd 8979 403d 8a2a cebd de03 22bd
00000050: dd8d a13c 2e10 c2bd a745 89bd c685 4d3d
00000060: 3f82 adbc ddba 96bd e59f 9a3c 3793 0dbb
00000070: 413c 3e3b 0682 263a 474f 5dbd 0c6e 72bd
00000080: 4078 b4bc 5be1 06bd 9897 60bd 786f 703c
00000090: e2d7 93bd 82b4 debd 7212 e13c 2678 553d
000000a0: 9049 393b b8e8 133d 1b38 89bd 7035 f7bd
000000b0: d182 2e3b b880 4fbd 3fd1 2ebd 2f09 453d
000000c0: ec5e 55bd 176b b7bd bcb0 7a3b 422a a0bd
000000d0: 52dc dbbd 2537 ab3c 9b8f 11bd 3d72 4fbd
000000e0: 898f 89bc 7f33 48bd c1cd e3bc 5199 2d3d
000000f0: 4d2d 88bd 82b9 e2bd ba39 983c b5a3 87bc
00000100: 61ec adbc b691 cc3c ec1c b43d 1bf7 173d
00000110: 84db 59bb a40f a23d e126 803a 7d70 953c
00000120: c8b6 d9bd 5d80 35bd f5e1 0cbc e606 a6bd
00000130: 252f ebbd 2b08 383d 19ab 85bd 3f46 65bd
00000140: bdda 30b9 f5a4 bfbd 889c 6cbd 5bb7 003b
00000150: ca3e c0bd b448 67bd 7cb5 a7bb 6dc8 edbd
00000160: ed01 67bd 5c54 d43c bab1 57bd 681f c4bd
00000170: 39dc d2bb 9c9e c3bc 349d 23bd b4d5 72bb
00000180: 91df 873d fe6a bd3d 9618 c4bc 704f 993c
00000190: 9244 5d3d 29b8 e43c c941 13ba ae78 eabc
000001a0: 1dea 43bd 5c1c bbbb 1e63 cc3a 9b2d 16bd
000001b0: edcc 57bd 8203 fabd 0535 50bd 05b5 b0bd
000001c0: 520a e5bc 7def 24bd 1970 86bd e027 51bd
000001d0: 8a13 323d c46a 7fbd 6bc8 863c 949c 2abd
000001e0: 9a22 1bbd ee53 70bd cdac 333c 06ff 13bd
000001f0: c368 d5bd 3a0c 953c 9c6c aabd 4133 e3bd
00000200: 2191 d3bc b924 933d 8a4b a93d e9fc 9b3b
00000210: fa0a bbbd 18a4 14bd f77f 05bd ce99 0cbd
00000220: c5f3 cebc 52d2 ef3c f6d6 8fbd 946e 50bd
00000230: 10f4 c7bb f85c e2bd c7b3 81bd acab 1fbd
00000240: 10fd cf3b 8540 073b b2ef 353c a707 a4bd
00000250: aaff eabd ef60 07bd e490 b5bc ad8e 9abd
00000260: 21cf 063d 1aac 313b 2c9a d03c c4e1 dabb
00000270: 58c5 a0bd ab76 8fbd 540a b93c 9297 e7bc
00000280: 2486 7ebd 2efa 393d 2d26 acbc 9273 cfbd
00000290: 6435 273d 603d c0bc 5464 8fbd 6988 1c3d
000002a0: 9543 debd d7d4 70bc 3732 1f3d df72 ffbc
000002b0: a305 18bd 2ecf 173d eee8 20bd 44bc fbbc
000002c0: f51a a43c 683d fabd 4091 9ebd 917d 50bd
000002d0: aaba 023d c222 0cbc d2cd 85bc 5759 49bd
000002e0: d294 88bd 527d dabc fe7d 99bd c926 c2bd
000002f0: 96c6 edbc aae5 b03d 7871 0b3d 479f c13c
00000300: 8c8e e7bd 70de ccbd 4356 943c 8170 6cbd
00000310: ae45 a6bd 5233 ca3c 8abc df3c 07d3 dfbc
00000320: 2686 20bd c9c7 acbc 53b5 0cbc ae54 543c
00000330: 3f6e 80bd 3cb8 6cbc ccf3 d33c acba 53bd
00000340: df74 28bd 34da 14bc c805 943c 8012 31b9
00000350: d1ed 97b9 3f49 d9bd c3eb c0bd ad89 823c
00000360: c1d5 34bc d316 8fbd fd2f d43b dcde babd
00000370: 905b 2fbd c98c 383d c9e8 99bd 161b a2bd
00000380: 277f 81bc e12e b9bd 71fb a0bd ab27 993c
00000390: 6dd5 ddbd 55c4 efbc 9716 4dbd e0d0 80bd
000003a0: 5490 b1bd 4b3d 753c b764 ccbd 0b71 cebd
000003b0: 90e8 b6bc 2dd3 9fbb 54c0 883b e758 e73c
000003c0: d284 a1bd 04ae 7cbd 4e9a db3c 7d93 63bd
000003d0: e071 83bd 64da b13c b7ec a7bc 6083 87bd
000003e0: 4b92 d73c c1c4 b7bc c31b 77bd 0776 fe3c
000003f0: ff76 dabc 4f74 09bd 01f1 3cbc c4d0 e53c

temporal_conv.bias f4 [128]
-0.08379039 -0.016397469 0.08278565 0.02329798 0.09112881 0.058114238 -0.07070982 0.04272156
-0.12758452 -0.0126324 -0.092176534 -0.089013785 -0.12620878 -0.030689863 0.009185649 -0.025039133
0.03510236 -0.072020456 0.019022876 0.05750653 0.104264565 -0.08553976 -0.046957195 0.13932122
-0.114880554 -0.02714101 -0.059238672 -0.079545565 -0.08451332 -0.12045912 -0.09787337 -0.10406811
-0.05455374 -0.07900906 0.026440358 -0.028928934 0.04215796 -0.0065334816 -0.07690959 0.062584266
-0.12125751 0.15828188 0.10138139 -0.08909251 -0.060621146 -0.04882163 0.033011757 0.12855329
-0.076656625 0.101741076 -0.14541158 -0.10723344 -0.012221052 -0.104320474 0.047364265 -0.03323633
0.039810695 -0.05086602 0.01852397 0.05832619 -0.018357731 -0.008461703 -0.08068241 0.02121766
-0.04071847 0.02844486 -0.10737852 -0.1198743 -0.0979504 -0.056792293 -0.018590316 -0.05691241
0.020032624 -0.036828466 -0.13651128 0.13481668 -0.015143943 -0.11726333 -0.05189723 0.02805149
-0.07043573 -0.0047173225 0.06648076 -0.071650915 0.008016825 0.028351113 0.094911486 0.032135256
-0.03676401 -0.025122348 0.01704226 -0.054472033 -0.042578213 0.18861131 -0.03632405 -0.023292314
-0.09271544 0.051937725 -0.11342264 -0.028927742 -0.016309211 -0.061223906 -0.12832575 -0.11341366
0.023126142 -0.07229228 0.14567934 -0.118246056 0.023029694 0.0094185155 -0.06342363 -0.100077644
0.04739887 0.15273653 0.036247864 0.069078386 0.14013012 -0.1059471 -0.034126498 0.0034161615
-0.046641305 0.04857549 0.08700179 0.107833065 0.070028245 -0.041250743 0.047374465 0.06427711
00000000: 4c9a abbd fc53 86bc 868b a93d 68db be3c
00000010: bea1 ba3d 3209 6e3d 4fd0 90bd cdfc 2e3d
00000020: 84a5 02be 20f8 4ebc 0dc7 bcbd dc4c b6bd
00000030: e03c 01be 4f69 fbbc 687f 163c de1e cdbc
00000040: 7ec7 0f3d 767f 93bd ddd5 9b3c f88b 6b3d
00000050: a988 d53d 782f afbd 3056 40bd 39aa 0e3e
00000060: 7f46 ebbd d356 debc 40a4 72bd c9e8 a2bd
00000070: 5215 adbd 45b3 f6bd d571 c8bd a921 d5bd
00000080: be73 5fbd 81cf a1bd 7399 d83c 5ffc ecbc
00000090: d3ad 2c3d d116 d6bb c682 9dbd 2e2c 803d
000000a0: db55 f8bd a514 223e 0ca1 cf3d 2276 b6bd
000000b0: e14d 78bd 31f9 47bd 5637 073d 79a3 033e
000000c0: 26fe 9cbd a05d d03d c6e6 14be 359d dbbd
000000d0: cf3a 48bc f9a5 d5bd 0801 423d d122 08bd
000000e0: 8a10 233d e358 50bd 95bf 973c 71e7 6e3d
000000f0: f462 96bc f4a2 0abc d23c a5bd a8d0 ad3c
00000100: 69c8 26bd 3205 e93c 45e9 dbbd a880 f5bd
00000110: 389a c8bd 099f 68bd b84a 98bc fd1c 69bd
00000120: 751b a43c 72d9 16bd 9dc9 0bbe 620d 0a3e
00000130: 4d1e 78bc c227 f0bd 3192 54bd 3dcc e53c
00000140: 9c40 90bd c593 9abb 1127 883d b7bd 92bd
00000150: 0059 033c 9840 e83c f460 c23d 42a0 033d
00000160: dc95 16bd 62cd cdbc 369c 8b3c 111e 5fbd
00000170: 7e66 2ebd 5323 413e 87c8 14bd 86cf bebc
00000180: 98e1 bdbd a7bc 543d 214a e8bd dff9 ecbc
00000190: e59a 85bc ebc5 7abd d367 03be 6c45 e8bd
000001a0: 0973 bd3c fa0d 94bd f72c 153e fd2a f2bd
000001b0: c5a8 bc3c 1e50 1a3c 40e4 81bd 82f5 ccbd
000001c0: 5125 423d f766 1c3e a478 143d f878 8d3d
000001d0: 457e 0f3e cbfa d8bd 3ac8 0bbd aee1 5f3b
000001e0: f40a 3fbd 18f7 463d ff2d b23d 95d7 dc3d
000001f0: f86a 8f3d 8af6 28bd ba0b 423d b8a3 833d

fc.weight f4 [30, 128]
-0.05067933 -0.008932019 -0.038104627 -0.0016374454 0.060130186 -0.11425809 0.08071846 -0.10509109
0.022773918 -0.020550434 0.050991375 -0.09689181 -0.060953062 -0.16850534 -0.13198759 -0.058411196
0.032196436 0.06562817 0.031384747 -0.07586903 0.07983298 0.027833767 -0.019636197 0.021128766
0.0034501264 -0.054554228 -0.06907111 -0.08445796 0.07900326 0.044912267 -0.037088104 -0.023563508
0.13675012 0.1019444 -0.035656836 0.03281264 0.013027811 -0.018201018 0.06462524 -0.009408879
-0.028175086 0.13730931 0.14592187 -0.09962285 -0.10903185 -0.11452109 0.050593864 -0.0070633646
0.09196856 0.1696712 -0.092958555 -0.05460586 -0.05402304 -0.008995184 -0.04205238 0.12585792
0.00777275 0.0125900125 -0.0723597 -0.03081701 -0.09944232 -0.050847072 -0.06240082 -0.01000663
0.0006265395 -0.033243466 -0.10795345 -0.030523686 -0.035754878 0.022394918 0.012141837 -0.02371849
0.030262694 -0.020484697 -0.06854541 0.014178755 -0.043112025 -0.11433242 -0.045667894 -0.07230461
0.0020896082 0.0031022644 -0.016255097 0.022613084 0.20163062 -0.059046693 0.15239671 0.058310404
-0.013999492 0.016861947 -0.027381407 -0.05869102 0.0852133 0.04397847 0.18931174 0.012154706
0.043235563 -0.11342257 0.027524482 0.12717138 -0.06216916 0.00047862035 0.01825781 -0.03137683
-0.018418739 0.037894543 -0.0018781588 -0.059954084 -0.09867203 -0.1229777 -0.071386635 0.01072795
-0.064551294 0.15588808 -0.08161893 -0.031316586 0.109823346 0.07432704 0.038885266 -0.06714221
-0.048005883 -0.09672965 -0.039313313 0.08037468 -0.091484204 0.076597214 -0.024173187 0.077947475
-0.019926352 -0.0032437625 0.09735683 -0.0837345 -0.10642747 -0.099291265 -0.10493811 -0.06449421
0.0876484 0.014888585 0.038248785 -0.022949718 -0.07447869 0.1751204 0.11779951 -0.059967514
0.07481195 -0.043861583 0.008063021 0.07816715 -0.0593446 0.054234095 -0.014212112 0.0366868
0.060921352 0.0022670561 -0.04782573 0.025044711 -0.12008885 0.111866884 0.12840044 -0.021123452
0.03493249 -0.0018996526 0.0012143467 -0.0067850268 -0.14013776 0.099221565 0.066970006 0.038377717
-0.1307839 -0.043479823 -0.020346697 0.13284299 0.14263713 0.082525544 0.07556944 0.05959372
-0.09692022 -0.017950892 -0.07431292 -0.04143286 -0.019245595 -0.0065457975 -0.087650955 -0.059375513
-0.09982469 0.10043138 -0.007550229 -0.08514614 -0.08195055 0.13105935 0.0032793384 0.06409169
0.057063475 -0.04907108 0.0032167567 -0.052105032 -0.018497871 -0.11772623 0.11805471 0.15163979
0.056209747 0.03788122 -0.03437357 -0.09907979 0.05929566 -0.0907598 -0.0077848816 0.06804438
-0.040838312 -0.035764486 -0.028497009 -0.08328721 -0.032677103 -0.0564081 -0.052914277 -0.14295973
0.021457922 -0.021604527 0.06037371 0.037681412 0.07421101 0.07823269 -0.043044634 0.039483387
-0.06846738 -0.0024453786 -0.09123997 -0.014322095 -0.05587483 0.06473159 0.022576384 -0.017891588
0.110221475 -0.07538819 -0.02144632 0.03732406 0.096032 0.059386827 -0.058644194 0.08299501
0.09328051 0.0012558394 0.113531135 -0.09217619 0.0071534147 -0.006519921 -0.033361953 0.05287312
-0.034945674 -0.060167152 0.07195482 -0.00477433 -0.081519894 0.022040479 0.042438567 -0.018289166
00000000: 2195 4fbd 9a57 12bc 9913 1cbd 8d9f d6ba
00000010: 124b 763d 2500 eabd b84f a53d ff39 d7bd
00000020: 5e90 ba3c 6259 a8bc 55dc 503d 376f c6bd
00000030: eba9 79bd aa8c 2cbe c127 07be 9440 6fbd
00000040: 69e0 033d 1068 863d 4b8d 003d 3961 9bbd
00000050: 797f a33d a403 e43c 17dc a0bc 3c16 ad3c
00000060: 841b 623b 4174 5fbd 2775 8dbd 4cf8 acbd
00000070: 76cc a13d edf5 373d b2e9 17bd 4208 c1bc
00000080: 3908 0c3e 3ac8 d03d e70c 12bd 8c66 063d
00000090: 9a72 553c 4d1a 95bc 3d5a 843d b327 1abc
000000a0: 70cf e6bc d09a 0c3e 8b6c 153e 1107 ccbd
000000b0: 174c dfbd 098a eabd 833b 4f3d cc73 e7bb
000000c0: 035a bc3d 49be 2d3e 0e61 bebd 65aa 5fbd
000000d0: 4347 5dbd 8960 13bc 1e3f 2cbd e6e0 003e
000000e0: 8eb2 fe3b 5746 4e3c 5331 94bd f473 fcbc
000000f0: 6aa8 cbbd 0545 50bd 0198 7fbd d9f2 23bc
00000100: 5b3e 243a 4d2a 08bd b316 ddbd cf0c fabc
00000110: b573 12bd 8c75 b73c 8eee 463c 474d c2bc
00000120: 78e9 f73c 86cf a7bc 8961 8cbd 024e 683c
00000130: 3c96 30bd 1e27 eabd 420e 3bbd 7014 94bd
00000140: cff1 083b 5c4f 4b3b 6929 85bc 133f b93c
00000150: 4278 4e3e f2da 71bd e20d 1c3e e4d6 6e3d
00000160: 205e 65bc 1122 8a3c f94e e0bc ff65 70bd
00000170: 5084 ae3d c522 343d f0da 413e 8824 473c
00000180: c617 313d 184a e8bd 067b e13c 3739 023e
00000190: 17a5 7ebd 56ef fa39 6791 953c fe84 00bd
000001a0: e5e2 96bc 4f37 1b3d 8d2c f6ba 6a92 75bd
000001b0: 9014 cabd bbdb fbbd 2833 92bd 49c4 2f3c
000001c0: 7833 84bd 20a1 1f3e d327 a7bd d245 00bd
000001d0: 10eb e03d c638 983d 2846 1f3d db81 89bd
000001e0: d1a1 44bd 321a c6bd ff06 21bd 7b9b a43d
000001f0: 125c bbbd 00df 9c3d d906 c6bc eda2 9f3d
00000200: 973c a3bc 4e95 54bb 0563 c73d fe7c abbd
00000210: a5f6 d9bd 3859 cbbd cbe9 d6bd 8a15 84bd
00000220: 0181 b33d 40ef 733c c2aa 1c3d 0c01 bcbc
00000230: 4988 98bd c352 333e df40 f13d 7fa0 75bd
00000240: 0237 993d 34a8 33bd c31a 043c 1916 a03d
00000250: 5313 73bd 9224 5e3d ebd9 68bc e644 163d
00000260: ab88 793d e492 143b eae4 43bd 912a cd3c
00000270: 25f1 f5bd 771a e53d 687b 033e 170b adbc
00000280: 5f15 0f3d c4fd f8ba b72a 9f3a ee54 debb
00000290: 4680 0fbe ad34 cb3d 9227 893d f431 1d3d
000002a0: 37ec 05be e617 32bd 1eae a6bc fe07 083e
000002b0: 780f 123e 2703 a93d 27c4 9a3d 8b18 743d
000002c0: 1c7e c6bd c00d 93bc 5f31 98bd 81b5 29bd
000002d0: f0a8 9dbc 217e d6bb 5882 b3bd bd33 73bd
000002e0: e370 ccbd f8ae cd3d e967 f7bb 1961 aebd
000002f0: b1d5 a7bd 6c34 063e 2bea 563b 8142 833d
00000300: 64bb 693d c2fe 48bd 39d0 523b 166c 55bd
00000310: d988 97bc 731a f1bd abc6 f13d 7647 1b3e
00000320: 313c 663d 5729 1b3d 4dcb 0cbd 58ea cabd
00000330: 02e0 723d 46e0 b9bd 5218 ffbb da5a 8b3d
00000340: 1346 27bd c87d 12bd 8f72 e9bc 7c92 aabd
00000350: 6dd8 05bd 2e0c 67bd a4bc 58bd 0964 12be
00000360: 86c8 af3c fafb b0bc 6c4a 773d d357 1a3d
00000370: f1fb 973d 7638 a03d 924f 30bd 55b9 213d
00000380: a038 8cbd a542 20bb 05dc babd 38a7 6abc
00000390: 01dd 64bd ff91 843d 1cf2 b83c 6191 92bc
000003a0: ccbb e13d 2065 9abd 31b0 afbc 1de1 183d
000003b0: 6dac c43d 9a3f 733d e534 70bd 4af9 a93d
000003c0: da09 bf3d fa9a a43a 0383 e83d dfc6 bcbd
000003d0: 3167 ea3b 10a5 d5bb 8ba6 08bd 7c91 583d
000003e0: 3223 0fbd d571 76bd 0c5d 933d fc71 9cbb
000003f0: e7f3 a6bd 3c8e b43c 10d4 2d3d 29d3 95bc

fc.bias f4 [30]
0.072631896 0.077648565 -0.12577698 0.12568577 -0.044374518 -0.05196509 0.04904086 0.0047907997
0.12439932 0.051133893 0.05855989 0.036793564 0.072604336 0.060221683 -0.06881515 0.04537118
0.07387845 0.12352585 0.039050277 0.0695545 0.10115367 0.045476522 -0.13849932 -0.12677184
0.014603858 0.085640736 0.008077236 0.14395033 0.061398372 0.013971946
00000000: 08c0 943d 3606 9f3d aecb 00be c5b3 003e
00000010: 0ec2 35bd 59d9 54bd 12df 483d 24fc 9c3b
00000020: 12c5 fe3d c671 513d 7fdc 6f3d d9b4 163d
00000030: 95b1 943d 03ab 763d f5ee 8cbd 21d7 393d
00000040: 964d 973d 1ffb fc3d 2ff3 1f3d 9772 8e3d
00000050: a829 cf3d 9745 3a3d c4d2 0dbe 7ad0 01be
00000060: 0545 6f3c 6964 af3d 6256 043c b767 133e
00000070: dc7c 7b3d 97ea 643c

exp_avg f4 [60, 60]
-0.0001188651 -0.0001171905 -0.00011531588 -0.0001143176 -0.00011341272 -0.000112779046 -0.0001139924 -0.00011304828
-0.000113553026 -0.00011455597 -0.00011625862 -0.000118374715 -0.0001180173 -0.000118749194 -0.000120114964 -0.000120620476
-0.00012036937 -0.000121692836 -0.00012262171 -0.00012306894 -0.00012326105 -0.00012131988 -0.00011906916 -0.00011863888
-0.00011942439 -0.00011999451 -0.00011940387 -0.00011992918 -0.000119765704 -0.000120309036 -0.00012179549 -0.00012239738
-0.00012387855 -0.0001249994 -0.00012598187 -0.00012464123 -0.00012584068 -0.00012649424 -0.00012601494 -0.00012624291
-0.00012695655 -0.00012630926 -0.00012659757 -0.00012810474 -0.0001308829 -0.00013160818 -0.00013198928 -0.00013263784
-0.0001328589 -0.00013485909 -0.00013597531 -0.00013705977 -0.00013638914 -0.0001362417 -0.0001356797 -0.00013600837
-0.00013593772 -0.00013588414 -0.00013767778 -0.00013292259 -0.00010078964 -9.894421e-05 -9.7229604e-05 -9.6007476e-05
-9.5407515e-05 -9.5076844e-05 -9.5920645e-05 -9.506806e-05 -9.525907e-05 -9.61891e-05 -9.826062e-05 -0.00010018489
-0.0001000575 -0.000100820456 -0.00010174213 -0.00010223396 -0.00010215667 -0.00010336156 -0.00010426069 -0.00010467111
-0.00010464684 -0.000102838494 -0.0001007604 -0.00010033811 -0.00010100666 -0.000101291305 -0.00010118651 -0.00010130835
-0.00010094695 -0.00010186897 -0.00010298851 -0.0001035565 -0.0001046802 -0.00010552915 -0.00010656396 -0.00010539958
-0.00010707926 -0.00010780172 -0.00010755318 -0.000107888765 -0.00010852258 -0.000107830005 -0.000107968815 -0.00010932637
-0.00011161291 -0.000112474474 -0.00011271279 -0.00011322812 -0.00011344959 -0.00011531336 -0.0001162727 -0.00011709851
-0.000116502335 -0.00011591252 -0.00011506935 -0.000114921204 -0.00011559221 -0.00011530799 -0.00011683134 -0.00011239034
-8.589432e-05 -8.4430954e-05 -8.291901e-05 -8.199916e-05 -8.121599e-05 -8.081815e-05 -8.153956e-05 -8.06626e-05
-8.123471e-05 -8.2109786e-05 -8.383143e-05 -8.5480526e-05 -8.518085e-05 -8.561735e-05 -8.651629e-05 -8.66727e-05
-8.6447726e-05 -8.733025e-05 -8.812502e-05 -8.8097346e-05 -8.813296e-05 -8.6985085e-05 -8.4897256e-05 -8.471204e-05
-8.531806e-05 -8.5893014e-05 -8.57332e-05 -8.605519e-05 -8.5824795e-05 -8.619517e-05 -8.6922366e-05 -8.749355e-05
-8.8654815e-05 -8.9414614e-05 -9.005142e-05 -8.910219e-05 -9.045804e-05 -9.076827e-05 -9.024344e-05 -9.026634e-05
-9.100793e-05 -9.031967e-05 -9.012853e-05 -9.151052e-05 -9.3628085e-05 -9.418849e-05 -9.4380295e-05 -9.472258e-05
-9.519195e-05 -9.671299e-05 -9.772801e-05 -9.8915014e-05 -9.827449e-05 -9.797754e-05 -9.734034e-05 -9.7142576e-05
-9.740438e-05 -9.699891e-05 -9.840058e-05 -9.4168696e-05 -9.193753e-05 -9.048302e-05 -8.900595e-05 -8.8000175e-05
-8.718395e-05 -8.671195e-05 -8.78781e-05 -8.6871245e-05 -8.723428e-05 -8.830252e-05 -8.99792e-05 -9.157698e-05
-9.148827e-05 -9.235448e-05 -9.323212e-05 -9.375538e-05 -9.40823e-05 -9.4852585e-05 -9.559976e-05 -9.605703e-05
-9.652754e-05 -9.464597e-05 -9.2625174e-05 -9.243684e-05 -9.3426344e-05 -9.386391e-05 -9.394544e-05 -9.411778e-05
-9.362926e-05 -9.457629e-05 -9.585413e-05 -9.634971e-05 -9.72615e-05 -9.7792006e-05 -9.814617e-05 -9.7194556e-05
-9.887373e-05 -9.9224904e-05 -9.853986e-05 -9.83977e-05 -9.9106466e-05 -9.855028e-05 -9.8499106e-05 -0.000100042605
-0.00010236893 -0.00010285346 -0.00010287061 -0.000102836835 -0.00010336069 -0.000105243234 -0.00010622716 -0.00010710711
-0.000106388914 -0.00010578398 -0.00010508123 -0.00010508698 -0.000105185 -0.00010511337 -0.0001065182 -0.0001026671
-7.4022064e-05 -7.291778e-05 -7.149801e-05 -7.060449e-05 -7.0108166e-05 -6.940243e-05 -7.015131e-05 -6.9208705e-05
-6.951792e-05 -7.048675e-05 -7.174137e-05 -7.322048e-05 -7.314803e-05 -7.353814e-05 -7.4038144e-05 -7.442059e-05
00000000: 3747 f9b8 2cc4 f5b8 bed5 f1b8 cbbd efb8
00000010: fed7 edb8 ca83 ecb8 340f efb8 5514 edb8
00000020: 5123 eeb8 c53d f0b8 dfcf f3b8 f13f f8b8
00000030: 0e80 f7b8 fd08 f9b8 3be6 fbb8 a0f5 fcb8
00000040: d06e fcb8 5835 ffb8 0494 00b9 110c 01b9
00000050: a33f 01b9 1d6d feb8 c5b4 f9b8 c4cd f8b8
00000060: 7b73 fab8 90a5 fbb8 7768 fab8 7d82 fbb8
00000070: b92a fbb8 6c4e fcb8 756c ffb8 cc57 00b9
00000080: 65e5 01b9 4512 03b9 001a 04b9 20b2 02b9
00000090: 1af4 03b9 8aa3 04b9 e122 04b9 1360 04b9
000000a0: a41f 05b9 e271 04b9 47bf 04b9 db53 06b9
000000b0: 9c3d 09b9 4d00 0ab9 9a66 0ab9 b314 0bb9
000000c0: 0a50 0bb9 f668 0db9 9894 0eb9 b4b7 0fb9
000000d0: ae03 0fb9 1adc 0eb9 3e45 0eb9 789d 0eb9
000000e0: 818a 0eb9 1f7c 0eb9 995d 10b9 2361 0bb9
000000f0: 075f d3b8 4580 cfb8 bfe7 cbb8 9f57 c9b8
00000100: 8515 c8b8 fe63 c7b8 0129 c9b8 475f c7b8
00000110: d3c5 c7b8 21b9 c9b8 4511 ceb8 5a1a d2b8
00000120: f6d5 d1b8 926f d3b8 645e d5b8 7066 d6b8
00000130: f23c d6b8 d1c3 d8b8 88a6 dab8 e082 dbb8
00000140: d875 dbb8 ffaa d7b8 544f d3b8 9d6c d2b8
00000150: 8ad3 d3b8 5b6c d4b8 1834 d4b8 8275 d4b8
00000160: 7bb3 d3b8 7da2 d5b8 89fb d7b8 792c d9b8
00000170: c187 dbb8 884f ddb8 177b dfb8 f809 ddb8
00000180: bd8f e0b8 9c13 e2b8 2d8e e1b8 5742 e2b8
00000190: 9e96 e3b8 cb22 e2b8 516d e2b8 2646 e5b8
000001a0: ba11 eab8 46e0 ebb8 3860 ecb8 e274 edb8
000001b0: c9eb edb8 64d4 f1b8 6ed7 f3b8 c992 f5b8
000001c0: b752 f4b8 0f16 f3b8 6351 f1b8 da01 f1b8
000001d0: 186a f2b8 81d1 f1b8 5903 f5b8 1bb3 ebb8
000001e0: 2922 b4b8 8610 b1b8 cee4 adb8 f7f6 abb8
000001f0: 8152 aab8 ea7c a9b8 3800 abb8 6729 a9b8
00000200: 8e5c aab8 5b32 acb8 a8ce afb8 0244 b3b8
00000210: 1fa3 b2b8 778d b3b8 1470 b5b8 0dc4 b5b8
00000220: 454b b5b8 1225 b7b8 c3cf b8b8 e7c0 b8b8
00000230: 06d4 b8b8 c36b b6b8 de0a b2b8 6ea7 b1b8
00000240: c9ec b2b8 7621 b4b8 a9cb b3b8 8778 b4b8
00000250: d6fc b3b8 aec3 b4b8 174a b6b8 be7c b7b8
00000260: 31ec b9b8 1b84 bbb8 fdd9 bcb8 60dc bab8
00000270: 4ab4 bdb8 d85a beb8 1441 bdb8 5f4d bdb8
00000280: 83db beb8 016a bdb8 6303 bdb8 56e9 bfb8
00000290: 325a c4b8 0f87 c5b8 09ee c5b8 cca5 c6b8
000002a0: caa1 c7b8 64d2 cab8 53f3 ccb8 9870 cfb8
000002b0: b718 ceb8 4b79 cdb8 3223 ccb8 06b9 cbb8
000002c0: 9445 ccb8 e56b cbb8 695c ceb8 6f7c c5b8
000002d0: 96ce c0b8 b4c1 bdb8 b5a8 bab8 bc8c b8b8
000002e0: 87d6 b6b8 20d9 b5b8 324b b8b8 a52e b6b8
000002f0: 8cf1 b6b8 0e2f b9b8 37b3 bcb8 040d c0b8
00000300: 64dd bfb8 6fae c1b8 9d85 c3b8 899e c4b8
00000310: 0d4e c5b8 98eb c6b8 bb7c c8b8 3a72 c9b8
00000320: d46e cab8 ab7c c6b8 c33f c2b8 a7da c1b8
00000330: e3ed c3b8 ced8 c4b8 9304 c5b8 1961 c5b8
00000340: d45a c4b8 4257 c6b8 4b05 c9b8 5b0f cab8
00000350: dff8 cbb8 af15 cdb8 d3d3 cdb8 eed4 cbb8
00000360: 6e5a cfb8 f716 d0b8 2fa7 ceb8 dd5a ceb8
00000370: 61d7 cfb8 c7ac ceb8 4e91 ceb8 f7cd d1b8
00000380: e7ae d6b8 08b3 d7b8 3dbc d7b8 1baa d7b8
00000390: 59c3 d8b8 08b6 dcb8 46c6 deb8 b19e e0b8
000003a0: 1d1d dfb8 58d8 ddb8 0e5f dcb8 2562 dcb8
000003b0: c496 dcb8 5070 dcb8 8662 dfb8 fb4e d7b8
000003c0: 4b3c 9bb8 6feb 98b8 34f1 95b8 7f11 94b8
000003d0: 0907 93b8 258c 91b8 331e 93b8 2424 91b8
000003e0: 26ca 91b8 49d2 93b8 db73 96b8 f28d 99b8
000003f0: 0d67 99b8 7d38 9ab8 ed44 9bb8 4012 9cb8
