situation_analysis/best_models/model_window60_horizon10.pth (torch, 938130 bytes, 27 tensors)

adapt_adj f4 [60, 60]
000000 06 d9 79 3f 69 05 c6 bc 83 59 c8 bc ee 8e d0 bc
       0.97596776 -0.024172502 -0.024456745 -0.02545878
000010 66 0f d9 bc 25 a3 dd bc df b1 e5 bc cc ed e7 bc
       -0.0264966 -0.027055332 -0.028038917 -0.028311633
000020 43 74 ed bc 8f 5e f0 bc eb 01 ef bc 06 e1 ed bc
       -0.028986102 -0.029341964 -0.02917572 -0.029037964
000030 c3 83 ed bc 34 d0 e9 bc 73 68 e7 bc 74 f5 e3 bc
       -0.028993493 -0.028541662 -0.028248047 -0.027827002
000040 90 db df bc 24 70 da bc 6e bd d5 bc c8 69 d5 bc
       -0.027326375 -0.026664801 -0.026091304 -0.026051417
000050 ba f6 d7 bc 38 94 dc bc 20 c6 de bc a0 f7 df bc
       -0.026362766 -0.026926145 -0.027194083 -0.027339756
000060 8c a5 e4 bc da be e9 bc 71 0d ee bc 50 9f f6 bc
       -0.02791097 -0.028533388 -0.029059144 -0.030105263
000070 b7 1f fe bc 80 cd 00 bd db 38 00 bd c2 58 fc bc
       -0.031020982 -0.03144598 -0.03130422 -0.030804042
000080 69 8e f7 bc ed 82 f5 bc 55 ce ec bc 4a 5a e6 bc
       -0.030219274 -0.029969657 -0.02890698 -0.028119225
000090 b1 9e db bc 94 67 d6 bc 28 cf cb bc 11 38 c7 bc
       -0.026809068 -0.026172437 -0.024879053 -0.024318727
0000a0 0e 40 c4 bc 15 19 c4 bc 49 bc be bc 54 eb c3 bc
       -0.023956325 -0.023937741 -0.02328314 -0.023915924
0000b0 aa 05 c1 bc 5a 14 c1 bc 5c 5d c0 bc 40 8e c3 bc
       -0.023562271 -0.023569275 -0.023482017 -0.023871541
0000c0 8f 31 bf bc ec 7c bc bc 62 33 b8 bc 1c 12 ad bc
       -0.023339061 -0.023008786 -0.022485439 -0.0211268
0000d0 97 c8 aa bc 22 41 a5 bc 8f 8a 9d bc 96 1b 8f bc
       -0.020847602 -0.02017266 -0.019231109 -0.017469209
0000e0 a5 4b 82 bc 87 9a 72 bc 58 4e 5b bc 2c e2 78 bc
       -0.01590521 -0.01480735 -0.013385378 -0.015190642
0000f0 10 a2 bc bc 5e fb 79 3f 13 f9 c0 bc e1 f9 c8 bc
       -0.023026496 0.9764918 -0.023556268 -0.024533214
000100 05 eb d2 bc 6d 5a d7 bc df 2c e0 bc 92 c2 e2 bc
       -0.025746832 -0.026288236 -0.027365146 -0.027680669
000110 7e 8a e7 bc ee fa ea bc 81 4a eb bc 04 0d ea bc
       -0.02826428 -0.028684106 -0.02872205 -0.02857066
000120 21 6e e9 bc a9 d9 e5 bc 95 f9 e3 bc 32 7b e0 bc
       -0.028494896 -0.02805789 -0.02782897 -0.027402494
000130 ca b9 db bc bf f4 d6 bc 5a 66 d2 bc 99 ba d0 bc
       -0.02682199 -0.02623975 -0.02568357 -0.025479602
000140 b5 76 d2 bc 90 52 d7 bc b4 20 da bc 53 af db bc
       -0.02569137 -0.026284486 -0.026626922 -0.026817
000150 e8 b9 e0 bc 3d b3 e5 bc 2a 5f e9 bc c1 45 f1 bc
       -0.027432397 -0.028039569 -0.02848776 -0.029452207
000160 12 e3 90 bc a9 ea ee bc 7e 4d 87 bc cd 4b f1 bc
       -0.0176864 -0.029164629 -0.016516443 -0.02945509
000170 55 88 f1 bc d3 3c f0 bc 8e c2 e6 bc 6a 67 e0 bc
       -0.029483953 -0.029325878 -0.028168943 -0.027393062
000180 5e f1 d6 bc c1 2f d2 bc c4 8a c7 bc 4a f8 c1 bc
       -0.02623814 -0.025657536 -0.02435816 -0.023677964
000190 c2 28 bf bc 5e c9 be bc 48 a0 b9 bc d0 99 be bc
       -0.023334865 -0.023289379 -0.022659436 -0.023266703
0001a0 bf 7c bb bc 1b 5e bb bc ee d1 b9 bc 6a 9e bd bc
       -0.022886632 -0.022872021 -0.02268311 -0.023146827
0001b0 aa 54 b9 bc bb f3 b5 bc a9 b5 b1 bc 08 98 a6 bc
       -0.022623379 -0.022210946 -0.021693068 -0.020336166
0001c0 97 a8 a4 bc 22 fd 9f bc 70 d0 98 bc ff cf 8b bc
       -0.020099921 -0.019529883 -0.018654078 -0.017066954
0001d0 bb 3f 7f bc 5d b4 6d bc 1e be 57 bc ba dc 74 bc
       -0.015579159 -0.014508334 -0.013167886 -0.014945203
0001e0 59 e8 e2 bc 48 2b e5 bc 0d b5 78 3f ab 74 f1 bc
       -0.027698683 -0.02797474 0.9715126 -0.029474577
0001f0 66 93 f9 bc 02 39 ff bc 8d 47 03 bd ff 4c 04 bd
       -0.030465793 -0.031155113 -0.032050658 -0.03229999
000200 59 07 06 bd 69 b8 04 bd 8b 5f 9a bc 53 2b 9a bc
       -0.03272185 -0.03240243 -0.018844387 -0.018819487
000210 64 98 9b bc 60 da 97 bc fe b4 99 bc e8 49 96 bc
       -0.018993564 -0.018536747 -0.018763062 -0.018345788
000220 2a d2 8e bc 52 76 8b bc 7a ce 87 bc c4 92 86 bc
       -0.017434198 -0.017024193 -0.016577948 -0.016427405
000230 b5 89 87 bc 23 68 8b bc fc 86 8d bc 4d 23 90 bc
       -0.016545156 -0.01701743 -0.01727628 -0.017594958
000240 fe 6b 96 bc 7d 78 9b bc d7 2b 9e bc 08 9b a5 bc
       -0.018362042 -0.018978352 -0.019308014 -0.020215526
000250 6f ce ac bc db 03 b1 bc b6 74 b0 bc af 69 ab bc
       -0.021094529 -0.021608284 -0.021540027 -0.020924417
000260 5d 6a a8 bc f0 5f a7 bc 8c 4f a0 bc fd d2 99 bc
       -0.02055853 -0.020431489 -0.01956918 -0.018777365
000270 c1 fb 90 bc 94 ad 8e bc a3 df 85 bc 1f 69 81 bc
       -0.01769817 -0.017416753 -0.01634199 -0.015797196
000280 72 e7 7d bc e8 12 7d bc 85 57 85 bc a1 58 7f bc
       -0.015497075 -0.015446402 -0.016277084 -0.015585096
000290 6e 15 f2 bc d5 6e f3 bc 6a 92 f0 bc 11 ce f3 bc
       -0.029551234 -0.029715935 -0.02936669 -0.029761346
0002a0 fd c7 f0 bc d6 68 ee bc 4a 06 eb bc 2d cc e1 bc
       -0.029392237 -0.029102724 -0.028689522 -0.027563179
0002b0 27 b3 e0 bc 47 48 dc bc d4 cf d5 bc c5 e4 ca bc
       -0.027429176 -0.026889933 -0.026100077 -0.024767289
0002c0 2f 9e c0 bc 5c 35 ba bc 89 aa b1 bc 00 40 bd bc
       -0.023512928 -0.022730522 -0.021687763 -0.023101807
0002d0 fe fb a9 bc 41 c5 ac bc 77 a6 b1 bc 08 14 7a 3f
       -0.020750042 -0.021090152 -0.021685822 0.97686815
0002e0 36 27 c7 bc 1d 77 cc bc d1 8d d4 bc 75 99 d5 bc
       -0.02431069 -0.024959141 -0.02594653 -0.02607415
0002f0 86 c5 d9 bc 2d 06 dd bc 30 c9 dd bc 9a 06 dd bc
       -0.026583444 -0.026980484 -0.027073473 -0.026980687
000300 22 8f dc bc 35 83 d7 bc ce 28 d4 bc 50 61 d0 bc
       -0.02692372 -0.026307682 -0.025898363 -0.025437027
000310 a8 8b cc bc a5 cb c6 bc f2 94 c2 bc b7 5b c1 bc
       -0.024968937 -0.024267027 -0.023752663 -0.023603303
000320 57 90 c2 bc 5e d4 b2 bc c0 bb 2e bc d6 95 29 bc
       -0.023750467 -0.02182978 -0.01066488 -0.010350665
000330 19 f8 37 bc 87 ba 45 bc 56 1d 45 bc 51 12 55 bc
       -0.011228585 -0.012068397 -0.01203092 -0.013004855
000340 92 5f 63 bc 76 cd 6a bc 5a 8d 6a bc 47 6a 62 bc
       -0.013877766 -0.014331212 -0.014315927 -0.013819284
000350 d7 bc 59 bc 7d 0c 58 bc 09 6d 49 bc 4d 62 3c bc
       -0.013289652 -0.013186571 -0.012294062 -0.011498046
000360 30 cc 28 bc 78 b0 c4 bc a8 bc 2e bc f5 c8 b8 bc
       -0.010302588 -0.024009928 -0.010665096 -0.022556761
000370 38 00 b6 bc c4 06 b5 bc 82 4f b0 bc 10 a0 b4 bc
       -0.022216901 -0.022097953 -0.021522287 -0.02204898
000380 74 dd b1 bc 38 c4 b2 bc 48 2c b0 bc db cb b2 bc
       -0.021712042 -0.02182208 -0.02150549 -0.021825721
000390 b0 fa af bc 68 e8 ad bc 85 8b aa bc cd a5 a0 bc
       -0.021481842 -0.021228984 -0.020818481 -0.01961031
0003a0 b3 d6 9f bc f9 75 9c bc 9f 1c 96 bc 20 5a 8a bc
       -0.019511556 -0.019099222 -0.018324194 -0.016888678
0003b0 04 35 80 bc 9e 31 75 bc d4 08 65 bc f3 93 7f bc
       -0.01565028 -0.014965443 -0.013979156 -0.015599239
0003c0 23 33 ac bc 04 b5 af bc 10 67 b4 bc 55 f3 be bc
       -0.021020478 -0.02144862 -0.0220218 -0.02330939
0003d0 9c b1 79 3f 96 53 ce bc 47 e2 d6 bc 56 0b d8 bc
       0.97536635 -0.025186341 -0.026230944 -0.026372593
0003e0 be 07 dc bc 21 2c e0 bc 8d 99 e0 bc ed 2d de bc
       -0.02685916 -0.027364792 -0.027416969 -0.027121508
0003f0 7b bc dd bc 0c 48 d9 bc 1a 11 d7 bc e7 f9 d2 bc
       -0.027067414 -0.026523612 -0.026253272 -0.025753928

gc1.fc.weight f4 [128, 30]
000000 80 b2 a8 3d 96 bb d9 bd c9 05 f1 3d 9b a1 28 3d
       0.08237171 -0.10631482 0.117686816 0.041169744
000010 58 b1 0b 3e 1f 1c de bd 70 ed b3 bd 62 e9 14 3e
       0.1364187 -0.108452074 -0.08785522 0.14542153
000020 8a 87 c5 3d 42 fc 05 be 3e b0 d7 3d 58 50 6a 3d
       0.09644993 -0.1308451 0.105316624 0.057205528
000030 31 3c 15 be d0 f1 da bd 48 8c 9f bc ae 3c 66 ba
       -0.14573742 -0.10690653 -0.019476071 -0.00087828457
000040 14 01 84 3d 7a f5 59 3d 5a af ca 3d da d2 31 be
       0.06445518 0.05321262 0.09896727 -0.1736559
000050 7c 88 03 3e 7a 96 1a be e5 8b 12 3d 8f 99 c7 bd
       0.12845033 -0.15096465 0.035777945 -0.09746086
000060 e1 83 ca bd 05 5d d2 bd 49 93 07 3e a0 5c 18 3d
       -0.09888435 -0.10271648 0.13239779 0.03719771
000070 77 e6 08 bd 3f 28 b7 3d 5c b7 3b 3d b0 dd 1e bd
       -0.033422913 0.08943223 0.045829162 -0.038785636
000080 8e 36 34 bd fb 03 43 be 2c b8 30 3e bc df 05 3e
       -0.04399734 -0.19044487 0.17257756 0.13073629
000090 a6 0e 95 bd 6d 23 9a bd 4e af 71 bd df c4 f5 bd
       -0.072781846 -0.07526288 -0.059005074 -0.12000441
0000a0 62 b3 bd 3d 08 c5 6e 3d cb 62 64 3d 06 ad 90 3c
       0.0926273 0.058293372 0.05575828 0.017660629
0000b0 f8 e5 30 be 6f 55 8c 3c 75 00 89 bd ca 03 50 be
       -0.17275226 0.017130582 -0.0668954 -0.20313945
0000c0 8e 52 fa 3b e2 14 ea bd 63 cf 2d 3e 34 c0 23 bd
       0.007639236 -0.11429764 0.16973643 -0.03997822
0000d0 aa e5 13 be 89 ca fa 3c 13 41 5d bd 06 88 e7 3c
       -0.14443079 0.030614154 -0.054017138 0.028263103
0000e0 df c4 4d be 66 a4 08 3e c3 66 45 3c 75 7d 45 be
       -0.20094632 0.13343963 0.012048426 -0.1928614
0000f0 be 4e 87 bd 55 ee 61 bc 16 bc 51 bd d2 c3 bd 3d
       -0.06606816 -0.013789733 -0.051204763 0.092658654
000100 48 9c d4 bb 0a 32 5a bd 7f d9 0a be 9e b0 6b bd
       -0.0064883567 -0.053270377 -0.1355953 -0.057541482
000110 6e 6e e4 3c 7f 16 1c 3e 48 4e 4c bd c4 b9 9d bd
       0.027884688 0.15242957 -0.049879342 -0.077014476
000120 9e a5 ec bc 89 32 97 bc 46 fb 12 3e b9 f8 a3 3d
       -0.028887566 -0.018456714 0.14353666 0.080064245
000130 ba c1 1f be 72 b4 ee bd 77 48 04 3d f3 cc 44 3d
       -0.15601245 -0.11655511 0.03229567 0.048047017
000140 15 d4 b6 3d ad f0 1f be 6f c7 29 bd 85 38 62 3c
       0.0892717 -0.15619154 -0.04144996 0.013807421
000150 ce e0 7c bc 31 5b 9d 3d 45 6f 13 bd 25 41 a4 3c
       -0.015434457 0.07683409 -0.035994787 0.020050595
000160 2a c6 b4 3d 7b 4b 41 3d 67 9c a5 bd a3 7b 01 3e
       0.08826859 0.047191124 -0.08086472 0.1264482
000170 ec 32 ff bd 8a 5b d9 3d c2 9c 54 bd 37 f9 15 be
       -0.124608845 0.10613163 -0.05190731 -0.14645849
000180 54 5f 44 bd de 44 ab bd f2 ff c7 3c 05 93 52 be
       -0.047942474 -0.08362745 0.024414036 -0.20563896
000190 d9 60 0c 3e f7 02 58 be 06 51 96 bd b9 c8 e6 3d
       0.1370882 -0.21094881 -0.07339673 0.112687536
0001a0 f1 56 6c 3d d2 66 af 3d ee 1e 05 bd 79 51 7d 3d
       0.0577001 0.08564533 -0.0325002 0.061845277
0001b0 0b 30 ee bd ba 56 14 3e bd 55 1e bc 35 a1 e3 3d
       -0.11630257 0.14486209 -0.009663996 0.11114732
0001c0 17 d0 8f 3d d3 89 bf bd a0 5a da bc 1a 4c a8 bd
       0.07022112 -0.0935246 -0.026654541 -0.0821764
0001d0 be 08 1e be e0 4f 84 3b 35 37 c7 3d c9 e2 7c 3d
       -0.15433022 0.004037842 0.09727327 0.061739717
0001e0 7c 55 8c 3d 1d d1 4e bd 34 78 8c 3c 59 96 2e 3d
       0.06852242 -0.050492395 0.017147161 0.04262385
0001f0 0c 20 2b be fb 54 2c bd 28 c8 33 be 4f c4 e2 3d
       -0.16711444 -0.04207323 -0.17556822 0.11072599
000200 bd 80 a4 3a 83 42 b5 3d f3 ad 12 3e 97 16 00 be
       0.0012550574 0.08850577 0.14324169 -0.12508617
000210 8b 17 23 be 31 d2 1a bd d3 b4 e1 bd 25 e3 5b 3d
       -0.1592695 -0.03779811 -0.110208176 0.05368342
000220 07 19 12 3e 4f 94 aa 3d f2 cc a3 3d b9 33 36 be
       0.1426736 0.08329069 0.079980746 -0.17793168
000230 8e 92 45 bc bc fb bb bd bb 96 3b 3d 7a 76 e2 bc
       -0.012058867 -0.09178874 0.045798045 -0.027644385
000240 d4 7b 16 be 19 eb a3 bd 9a 9c 82 bd 33 b4 7d 3d
       -0.14695674 -0.08003826 -0.06377526 0.06193943
000250 f9 59 c9 bd 43 a6 ac bd 24 52 f1 bd eb 4d 92 bd
       -0.09831614 -0.084301494 -0.11783245 -0.07143768
000260 d1 cc b5 3c 1f dc d7 3d 79 7d bd 3d 28 92 cd 3d
       0.02219239 0.10540032 0.09252448 0.10037643
000270 78 69 8d 3d 85 de 6e bd ca 15 d6 3d bf e1 ad bd
       0.06904882 -0.05831768 0.10453375 -0.08490323
000280 f6 51 e9 3d 4f 96 11 bd 0c 56 34 be bd 3f 83 3c
       0.11392586 -0.035543736 -0.1761095 0.016021604
000290 9e 92 5c bd 28 1c 14 3e bd 4b b3 3d 03 6b 40 bd
       -0.053850763 0.14463866 0.0875468 -0.046977054
0002a0 6e a4 14 be 99 85 32 be d1 37 34 3e ac 68 89 bc
       -0.1451585 -0.17433776 0.17599417 -0.016773544
0002b0 f9 6f c0 3d c0 99 1d be 9b 04 b2 bd 76 d4 b9 3c
       0.09396357 -0.15390682 -0.08692285 0.022684317
0002c0 c9 0c 81 bd 63 8e 46 be 7e 8c 9c 3d 33 dd ad bd
       -0.06301267 -0.19390254 0.07643984 -0.08489456
0002d0 97 49 34 be 43 fb 13 3e 08 db 22 3e d4 e5 8e 3d
       -0.17606197 0.14451317 0.15903866 0.0697743
0002e0 9f 60 34 be ea 1b 86 3d b8 37 97 bd 91 93 33 3e
       -0.17614983 0.06548293 -0.073836744 0.17536761
0002f0 24 21 9e bd 99 24 39 3e 2e 7f 34 3e 94 23 59 bd
       -0.07721165 0.18080367 0.1762664 -0.053012446
000300 e6 dc 40 bc 31 27 92 bd a9 8c 4e 3d 33 55 27 3d
       -0.011771416 -0.071363814 0.050427113 0.040852737
000310 ff 1b 12 3e a8 a6 e8 3d 9f dc 06 bd 30 5d 1a 3e
       0.14268492 0.11359912 -0.032925244 0.1507461
000320 6f 03 0d be 06 1d 1e 3e 1f 79 ff bd 43 36 e2 bd
       -0.13770841 0.15440759 -0.12474274 -0.11045506
000330 9e 8d 17 3e c0 40 ac bd 33 67 f3 bd 6d 5b 2f 3e
       0.14800116 -0.084107876 -0.11884918 0.1712472
000340 97 f7 a2 bd 25 e8 1c 3e a8 f0 a1 bc b9 df 93 bd
       -0.0795738 0.15322931 -0.019768074 -0.07220406
000350 48 cf a4 bc 35 f3 0d 3e 56 d3 ef 3d ec db 83 bb
       -0.02011837 0.13862307 0.11710231 -0.0040240195
000360 2c a4 94 3c 48 e9 f6 3d 71 60 e8 3d ba 28 d2 3d
       0.01814469 0.120562136 0.1134652 0.10261674
000370 86 95 b6 bd 0e c4 13 3e bb c0 0d be 13 6e f9 bc
       -0.08915238 0.14430258 -0.13843052 -0.030447995
000380 1b d3 21 be 46 d0 6d 3d 2d 92 4c be a7 a3 50 3d
       -0.15803187 0.058059953 -0.19977637 0.05093732
000390 99 01 30 be ce ce 09 be dd 4c 27 be fd 31 c9 bd
       -0.1718811 -0.13457796 -0.16337915 -0.09823988
0003a0 a1 15 07 be 7c c2 a5 3c e4 b0 1b be 9a 66 23 3e
       -0.13191845 0.020234339 -0.15204197 0.15957108
0003b0 78 8d ef 3c db 62 0f 3e 86 b2 1c 3c 6e 68 35 3c
       0.029242262 0.14002554 0.009564048 0.011072261
0003c0 15 61 22 3e ed 08 1c 3e 1c 3d cd 3d 02 2f 10 3d
       0.15857346 0.1523778 0.10021421 0.03520108
0003d0 f7 e3 cd bd d3 3f f8 bd 5a 86 9d bd 46 e0 ee 3d
       -0.100532465 -0.121215485 -0.07691641 0.116638705
0003e0 47 2c b3 bc fe b2 88 bd 07 d7 d1 bd 30 af 21 bb
       -0.021871699 -0.06674765 -0.10246091 -0.002467107
0003f0 2c 46 83 3d 65 67 a3 3d 59 7b 68 3d 74 9f 2b be
       0.064098686 0.07978705 0.05675826 -0.16760045

gc1.fc.bias f4 [128]
000000 d0 1d 65 3d c7 6d ed 3c 53 4a f5 3c cd e5 2c 3d
       0.055936635 0.02898301 0.029942667 0.042211343
000010 a9 4e 33 bd f8 b2 1d bd 1b 57 92 3d 91 9a 49 be
       -0.043776188 -0.038500756 0.0714552 -0.19687869
000020 33 7c 9e bd f6 82 2d 3d 36 05 cf bd ff f4 b5 3d
       -0.07738533 0.042361222 -0.10108416 0.0888462
000030 cf 4d 79 be 20 f4 e7 3d 68 77 86 bd bf 13 6a 3d
       -0.24346088 0.1132586 -0.06565744 0.057147738
000040 56 dd 6f bd 0e fa a7 bd 58 d7 1c be 8f c4 7c bd
       -0.05856069 -0.08201991 -0.15316522 -0.06171089
000050 69 40 e0 3d 67 8e eb 3c 94 fc ba bd d7 71 b3 3d
       0.10949785 0.028754426 -0.09130207 0.087619476
000060 05 e1 a0 3c d7 8d 99 3d 71 89 8a bc ff 36 45 3d
       0.019638548 0.07497757 -0.01691124 0.04814815
000070 66 ba ec 3c 76 10 9a bb 29 c2 06 bd 57 ce 98 3c
       0.028897475 -0.0047016693 -0.03290001 0.018653078
000080 f9 09 27 3e 12 48 1c be d0 7a f3 3d 1d d5 44 bc
       0.16312398 -0.15261868 0.11888659 -0.012013701
000090 2c 7d 40 3d 31 01 29 be 4f 5b 92 bd 5d 96 85 be
       0.046994373 -0.1650436 -0.07146322 -0.2609128
0000a0 ea a7 20 be 7b 8e 9c 3a 7a 9d 2c be d9 4b e5 bd
       -0.15689054 0.0011944318 -0.16856948 -0.111961074
0000b0 4b 93 92 3c 34 be 45 3d 6a 3f ac bd 95 79 70 bd
       0.0178925 0.048277095 -0.08410533 -0.0587097
0000c0 8d 0c 80 bc d7 25 55 bc f0 e9 71 bc 7d 76 35 bc
       -0.015630985 -0.01300951 -0.014765248 -0.011075613
0000d0 1a c7 31 3c aa a2 77 bd a3 3c 11 be cf 59 10 bd
       0.010850692 -0.060457863 -0.14183287 -0.0352419
0000e0 96 f8 a5 bd a5 b8 b1 3c 1b 44 aa 3d c6 11 16 3d
       -0.08104055 0.02169449 0.08313771 0.036638044
0000f0 6e 04 e5 3c 96 2e 0e bd 1e ce e4 3d 52 99 4f be
       0.027956214 -0.034712397 0.11172126 -0.20273331
000100 20 ce 36 be 4f b2 90 bd 38 5f 9a 3c c1 fc 89 bb
       -0.17852068 -0.0706526 0.018844232 -0.004211039
000110 81 8a f3 3c 97 2c 49 bd 25 84 2a 3c c2 99 8f 3c
       0.02972913 -0.04911479 0.010407482 0.017529372
000120 f6 38 e4 bd fa 02 10 3c f8 df 01 39 44 fc f4 bd
       -0.11143677 0.008789772 0.00012385834 -0.11962178
000130 2d 8f c1 bd 72 f3 ac 3b f2 34 be 3d 90 c9 22 ba
       -0.09451137 0.0052780444 0.09287442 -0.0006209845
000140 60 ed 9d bd 44 7d 90 3c 0f 7c 0e be 7e b7 05 be
       -0.07711291 0.017637856 -0.13914512 -0.13058278
000150 1f 7b 81 bd 50 f6 72 b9 c1 63 2c be 49 55 b6 3d
       -0.063223116 -0.00023170677 -0.16834928 0.089029856
000160 a9 a1 7c be 87 12 cb bc 50 c7 d4 3d d4 f7 83 bd
       -0.24671043 -0.024789108 0.10389578 -0.06443754
000170 7c 28 86 bc a6 f7 70 bc cf 80 a7 3d 91 e4 65 3d
       -0.016376726 -0.0147074815 0.08178865 0.05612618
000180 25 78 02 be fb db 0f be d3 25 a3 bd e8 39 91 bd
       -0.12741144 -0.1404876 -0.07966199 -0.07091123
000190 b0 e1 7f bd 0e 87 5d 3c 22 00 8f 3d 2b 94 fc bd
       -0.06247109 0.013520969 0.06982447 -0.12332948
0001a0 e0 af f7 3d de a6 c4 bd fb af 00 bd 76 1d 3a be
       0.12094092 -0.0960214 -0.031417828 -0.18175301
0001b0 31 1b c9 3d c0 da 9d 3c 34 d3 31 3d bd 48 c3 bc
       0.098196395 0.019269347 0.04341431 -0.023838395
0001c0 db 3e fd bd fb cd 20 be af e8 12 3c 27 cb c8 bd
       -0.12365504 -0.15703575 0.008966609 -0.09804373
0001d0 0a d8 96 3d f2 d1 3a be 8e b0 34 3d e7 a6 8a bd
       0.07365425 -0.1824415 0.04411369 -0.06770115
0001e0 3a c1 22 bc be fe 4f 3d 41 34 2a 3d 81 a0 92 be
       -0.009933764 0.05078005 0.04155374 -0.2863808
0001f0 7e f3 b0 bd 11 16 c0 3d e5 ef 36 be c7 44 15 bd
       -0.086401924 0.09379209 -0.1786495 -0.036442544

gc2.fc.weight f4 [128, 128]
000000 dc c5 93 bd 36 02 69 bc 56 65 97 bd 14 73 a6 3d
       -0.07215473 -0.014221719 -0.07392375 0.08127418
000010 a0 8f 9e bd 60 d8 82 bd 18 af f4 3c 1a 7d 60 bd
       -0.07742238 -0.063889265 0.029868647 -0.054806806
000020 04 a4 e5 bd 59 dc bb bc 53 50 9c 3d 57 57 33 bd
       -0.11212924 -0.022932218 0.07632508 -0.043784466
000030 5e 8b b3 3c 31 68 0d 3d ac 26 34 3d ea 5c a7 3d
       0.021917041 0.034523193 0.043982193 0.08172019
000040 29 ac d1 bd 3b cc 4d bc 4e 29 63 bd 45 6a f9 bd
       -0.10237915 -0.012560899 -0.055459313 -0.121784724
000050 99 07 05 3c 19 48 84 3d f8 5c a3 bd 7e ca dc 3d
       0.008119487 0.06459064 -0.07976717 0.1078081
000060 1d 65 a8 3d c1 ed 18 bd 1c 8c a8 3d 9f 49 cd 3d
       0.08222411 -0.037336115 0.08229849 0.10023808
000070 6e 28 f5 bd 93 ea 4f bd f2 a1 0b 3c d8 62 70 bd
       -0.11970602 -0.050760817 0.0085224975 -0.058688015
000080 49 30 a1 3d 95 d7 23 be be 86 1c 3d b3 a3 79 3c
       0.07870538 -0.16000207 0.038214438 0.015236783
000090 d9 8c 8d 3d 38 1a 8f bd 35 bb 3f bd 0f 5d cc bc
       0.0691163 -0.06987423 -0.046809394 -0.024946718
0000a0 4b bd 9d 3d 8f 87 90 bd 23 bd 15 bd a4 64 eb bd
       0.077021204 -0.07057106 -0.036557328 -0.11493805
0000b0 d8 a9 6e 3d e5 ef 49 3d 8d 90 73 3d 5e 43 65 3b
       0.058267444 0.049301047 0.059464026 0.003498278
0000c0 3b 3a 88 3d eb cc c0 bd 5d ca c2 bc 59 ff d4 bb
       0.066517316 -0.09414085 -0.023778135 -0.0065001664
0000d0 2b 2c 96 bc 14 66 13 bd 81 42 29 3d f4 7b d5 3c
       -0.018331608 -0.03598602 0.04132319 0.026060082
0000e0 50 c5 17 3d ae 2d 7a 3c 9b 0d 25 bc af 4b 1f bd
       0.037053406 0.01526968 -0.010074045 -0.038890537
0000f0 de 6e 8d bd 11 47 ad bc d1 2e 84 3b 7f e1 7d 3d
       -0.06905912 -0.021152051 0.0040339013 0.061982628
000100 88 c6 a1 bd 09 7f 6e 3c 2b 82 60 3d ea 58 66 bd
       -0.07899195 0.014556655 0.054811638 -0.05623714
000110 d1 a8 bc 3c 8d 05 b6 bc 2b 85 56 bd a3 ab ec 3d
       0.023029717 -0.022219444 -0.052373093 0.115561746
000120 fa 89 27 bd a9 2e ce 3d 1b d8 d0 bd b2 fe 91 bd
       -0.04090307 0.100674935 -0.10197469 -0.071286574
000130 b1 d3 f6 bd e8 6c 9d bd 30 19 34 be 45 95 26 bd
       -0.12052096 -0.07686788 -0.17587733 -0.0406697
000140 2a e8 82 3c bd 81 94 3d a0 3d ed bd 66 2d e6 3c
       0.015979845 0.07251308 -0.1158402 0.02809782
000150 e8 58 c5 bc 7a 72 fb bd b2 98 28 bd 6a 60 a2 3c
       -0.024090245 -0.12277694 -0.041161247 0.019821364
000160 6a 44 6c bd 4f ef c8 3d 41 8a c2 3c d5 eb 89 bd
       -0.057682432 0.098112695 0.023747565 -0.067344345
000170 3b 0c 98 3c 9c 7c c0 3c 83 11 7c 3d 4d 86 f3 bd
       0.01856052 0.023496918 0.061540138 -0.1189085
000180 34 40 63 be a3 34 f6 3d 32 c7 ed bd 58 d0 d9 bc
       -0.2219246 0.120217584 -0.11610259 -0.026588604
000190 ab cb 00 3d b3 b2 be bd ab 54 d3 3a 7b 60 8b 3d
       0.031444233 -0.09311428 0.0016123255 0.068055116
0001a0 40 5e 05 3e 1f e8 f8 bd cd 8c 27 3d 6e cc 31 3d
       0.13024235 -0.121536486 0.040905762 0.04340785
0001b0 26 f1 eb bd 0f f0 8a 3b 54 98 72 bd 06 35 93 3b
       -0.11520605 0.004240043 -0.059227303 0.004492405
0001c0 1e e7 b2 3d 4a 21 d5 3d ac fe 9e 3c 94 ed 24 bd
       0.08735488 0.1040674 0.019408546 -0.040265635
0001d0 fe aa 68 3c c2 30 2d bd a8 30 5f bc eb 3f ec 3c
       0.014200924 -0.042282827 -0.01362244 0.028839072
0001e0 f8 e8 fe bc b0 17 93 bd b7 6d 58 bc e4 ec 0b 3e
       -0.031116948 -0.071822524 -0.013209752 0.13664585
0001f0 e3 4f 8b bc f0 51 4e 3c d8 a1 d6 3c af 46 02 3c
       -0.017005866 0.012592778 0.02620022 0.007951423
000200 ea bd 99 bd f6 bf c1 3d 6b 34 68 3d b3 2b 1d be
       -0.07506926 0.09460442 0.056690615 -0.15348701
000210 af 2e 3b bc e0 52 48 b9 49 b2 e9 bc 96 a1 2b be
       -0.011424704 -0.0001910436 -0.028527396 -0.16760859
000220 34 d5 bc bd 67 d7 24 3d 04 c1 1e bd 05 83 c4 bc
       -0.09220353 0.040244486 -0.038758293 -0.023988256
000230 af b7 ce bd 2f 07 15 be d4 f9 bb bd 7b 2c 17 bd
       -0.100936286 -0.14553522 -0.0917851 -0.036907654
000240 8e fd 99 bd de be a9 39 5b b7 d0 bc b1 de 22 be
       -0.07519065 0.000323764 -0.025478056 -0.15905263
000250 22 4a 5b 3c da 11 b6 bd b3 1a a7 bc 3e 9c 07 bd
       0.013384374 -0.08890124 -0.020398473 -0.03310799
000260 0b 5a eb bc 5c 32 df 3b 5d 2d 9c bd 52 90 01 bd
       -0.02872946 0.006811423 -0.0762584 -0.031631775
000270 53 a3 db bd 5d a7 91 bd 5f 74 b2 bd 4c b7 40 3d
       -0.10724511 -0.07112 -0.08713602 0.047049806
000280 e5 b2 d1 bc 9c a2 aa 3b 42 d4 34 be 10 24 7b 3a
       -0.025597999 0.005207373 -0.17659095 0.0009580264
000290 df 80 70 3d 45 ae f3 3c 75 4f 06 bd f8 47 28 bd
       0.05871665 0.029746184 -0.03279062 -0.04108426
0002a0 df 3b b7 bb a0 9a 76 39 4f 86 60 bd 6a 7f 0e 3e
       -0.005591854 0.0002351799 -0.054815587 0.13915792
0002b0 30 c7 40 bd de d2 3a 3b a9 7c 79 bd fd 0c a4 bd
       -0.04706496 0.0028507034 -0.0609099 -0.0801029
0002c0 b1 5c 59 bd 95 d2 f8 3c 22 53 17 3d 18 fd 15 3c
       -0.053066913 0.03037385 0.036944516 0.0091545805
0002d0 59 b4 95 bd fb 4c 03 bd f8 48 94 bd 5b d8 e3 bd
       -0.07309789 -0.032055836 -0.0724048 -0.11125251
0002e0 e4 33 47 be 41 6a cf bd 97 cf 13 bd 97 53 0f bd
       -0.19453388 -0.10127688 -0.036086645 -0.034991827
0002f0 43 78 85 bd 26 2b 59 bd a2 f4 17 3d 2b b7 6d 3c
       -0.06517079 -0.053019665 0.037098534 0.014509003
000300 9f 58 86 3d d5 24 bc 3d 96 65 1e 3c 89 4a 6a bd
       0.06559872 0.09186713 0.009667775 -0.05719999
000310 fe ca da bc b0 f5 b0 3d 91 a5 71 bb 75 b3 3c bd
       -0.026708122 0.08640611 -0.0036872367 -0.04606958
000320 00 46 68 3d 84 3f e7 bd c5 b0 99 3d d2 f7 f1 bc
       0.056707382 -0.112914115 0.07504419 -0.029537115
000330 b2 6c 6b bd 16 eb 2f be 01 76 b6 3d 63 b7 66 3c
       -0.057476707 -0.17179522 0.08909226 0.014081809
000340 d0 51 10 bc 3d 3b cd bd 54 1c 10 3d 8a 48 12 3c
       -0.008808568 -0.100210644 0.035183266 0.0089284275
000350 df 5f 86 bc 04 3c fe bd 91 89 3a 3e ff be 8b 3b
       -0.016403137 -0.12413791 0.1821654 0.004264712
000360 00 d8 21 be 07 c0 99 bd ff 32 d8 3c e5 97 c3 3d
       -0.15805054 -0.075073294 0.026391504 0.09550456
000370 32 33 91 bd b5 33 1e 3c 62 01 a7 bd d2 62 df 3d
       -0.07089843 0.009655883 -0.081545606 0.1090752
000380 cb 86 97 bd 8f 25 4c bd b3 72 e3 bd fe 55 84 3d
       -0.073987566 -0.049840506 -0.111058615 0.06461714
000390 04 a2 e8 bd 74 19 82 be 54 3f 1e 3d aa f0 c4 bc
       -0.11359027 -0.25410044 0.038634613 -0.024040539
0003a0 5b 1d 1c bd ee 49 f5 3c e3 d6 37 3d 43 1b 58 3d
       -0.038113933 0.029942479 0.044882666 0.052760374
0003b0 7a 79 4d 3d 5c af 66 3d 92 88 51 3d a8 85 c9 bc
       0.050164677 0.05631958 0.051155634 -0.024599865
0003c0 3a a0 82 bd c5 47 a8 3d 61 66 09 3d 83 7a d1 bd
       -0.06378217 0.08216814 0.0335449 -0.102284454
0003d0 48 3a 72 3c 18 52 2b 3e 31 80 f3 bc 5e fa ab bd
       0.014784403 0.16730535 -0.029724212 -0.08397363
0003e0 64 6c 98 bd 1d 54 21 be 85 39 b3 bd b1 75 5b bd
       -0.07442549 -0.15754743 -0.08751205 -0.053579036
0003f0 01 5e 78 bd 53 af 0b be 03 ad be 3c fc fb 0b 3e
       -0.060636524 -0.136411 0.023275858 0.13670343

gc2.fc.bias f4 [128]
000000 0b 58 89 bc 41 ec 3e be e5 cf 5c bd 36 52 50 bd
       -0.016765615 -0.18644811 -0.0539092 -0.050859652
000010 76 1b 41 bd 67 f1 08 be d1 52 06 be 97 66 9c 3c
       -0.04714533 -0.13373338 -0.1311753 0.019091887
000020 f6 ed c5 3d 8b 3a 12 be c3 df 3a bd ff 19 97 3d
       0.09664528 -0.14280145 -0.045623552 0.07378005
000030 6c f0 e4 bc bc 76 b9 bd a3 7e 3c 3d b5 ae 87 3c
       -0.027946673 -0.0905585 0.046019208 0.016562799
000040 56 4f 19 bc 3a 7b df 3c 5a fc 12 be 08 bd dd bc
       -0.009357294 0.027280439 -0.14354077 -0.027067676
000050 ae ae 44 bd 90 09 46 bd c3 07 0b 3d be 54 13 be
       -0.04801815 -0.048348963 0.03394295 -0.14387795
000060 dd 75 6f 3d f9 c8 03 3b f4 1e 72 bc dc 77 b3 3d
       0.058462013 0.0020108803 -0.014777888 0.08763096
000070 b0 2f 04 be 9d ad b1 bd 67 fe d5 bc 3c 30 37 be
       -0.12908816 -0.08675692 -0.026122285 -0.17889494
000080 2d 7c 72 bd 21 fa a7 3d fb 19 91 3c 86 b3 55 bc
       -0.059200455 0.08202005 0.017712584 -0.01304329
000090 d8 3f 92 bd 70 19 63 bd 4e 72 8f 3d 14 29 8a 3d
       -0.071410835 -0.05544418 0.07004224 0.06746116
0000a0 03 d0 ba 3c 79 ca ce bd f9 df 02 be bb 8f 53 be
       0.022804266 -0.10097212 -0.12780751 -0.20660298
0000b0 1d a5 dd bb d3 22 a9 3d a3 93 a7 3d d1 df d4 bc
       -0.006764068 0.08258595 0.08182456 -0.02598563
0000c0 fd 47 52 bd 84 fd 98 bd f6 7b 02 bd 66 df af bd
       -0.051338185 -0.07470229 -0.0318565 -0.08587532
0000d0 fa b2 88 3d 69 28 d9 bb 99 a5 f4 3c 45 80 92 bd
       0.06674762 -0.0066271317 0.02986412 -0.07153372
0000e0 4f ca 0c bd 8d e4 1a be cc c4 f8 3c 34 ea 49 3d
       -0.034372624 -0.15126248 0.030367278 0.04929562
0000f0 6b 94 14 be 0e 88 f5 bc ea f2 e3 bd 37 28 94 bc
       -0.14509742 -0.029972102 -0.111303166 -0.018085582
000100 52 5a c4 3d 06 3e c6 3d 00 7b 0b bd 43 1a e2 bd
       0.0958754 0.09679799 -0.03405285 -0.11040165
000110 6e 73 d3 bd d3 06 90 3d 6d f5 13 bb 21 d8 7c bd
       -0.10324751 0.070325516 -0.0022576705 -0.061729554
000120 01 2c e9 3b 1f 3d 09 be 22 e7 9d 3d 40 7c 2c 3c
       0.0071158414 -0.13402222 0.07710101 0.01052767
000130 68 b7 04 bd 5d 4a 8b bd 6a e8 84 3b 13 97 30 bd
       -0.032401472 -0.06801293 0.004056026 -0.043112826
000140 db 49 8e bc e1 9b 12 bd 02 60 23 be 08 70 33 bb
       -0.017369201 -0.03579319 -0.15954593 -0.0027380008
000150 20 31 61 3c b5 14 f7 bd af af 89 3d eb 4a 3c 3d
       0.0137446225 -0.120644964 0.06722962 0.045969885
000160 4a af f9 3c fa 72 36 bd 4f 8e 0e bd 26 65 74 3b
       0.030479092 -0.044543244 -0.034803685 0.0037291734
000170 07 a2 2a bb 6d 0a 78 bd 91 20 22 3c 29 f3 ef 3d
       -0.0026036517 -0.060556818 0.00989546 0.11716301
000180 90 7f b4 bd 55 d9 99 3d c5 fa 60 bd 2e 39 82 3d
       -0.08813393 0.07512156 -0.054926652 0.063585624
000190 5b 6b 05 bd 38 2d 25 3d 97 6b db 3d be 91 9c bc
       -0.032573085 0.040326327 0.107138805 -0.019112464
0001a0 81 59 b3 3c de fa fa bd 08 dc 98 bd 9a 0f c0 bd
       0.021893265 -0.1225488 -0.07463843 -0.09377976
0001b0 b4 93 10 3c 95 a8 cf bc a7 62 13 be b2 38 81 bd
       0.008824278 -0.02534894 -0.14393102 -0.06309642
0001c0 56 bf a4 bd c1 64 c8 bc e6 a9 91 3d 03 6f 82 bd
       -0.08044307 -0.024462106 0.07112484 -0.0636883
0001d0 53 5b 4d bd 32 98 29 3d 80 20 d4 3c d1 16 e8 bd
       -0.05013592 0.04140491 0.025894403 -0.11332477
0001e0 e5 17 2a 3d 10 6f 7b 3d 92 9d 71 3c 5d c8 49 bd
       0.041526694 0.061385214 0.01474704 -0.049263347
0001f0 e0 13 3b bd b3 76 0b be 6b 77 a6 bd 64 9b 14 be
       -0.04567325 -0.13619499 -0.08128246 -0.14512402

temporal_conv.weight f4 [128, 128, 3]
000000 c4 06 b2 3c 51 d8 22 bd f2 ca 2f bc 1f 14 a6 bc
       0.021731742 -0.039757077 -0.010729538 -0.020273266
000010 6c bc 48 be 08 86 5b bb 52 ff 15 bb 46 c3 d7 bd
       -0.19603127 -0.0033496637 -0.0022887778 -0.10535292
000020 f5 6f 82 bb ef aa d4 bc 38 59 6a 3d 85 b2 f1 3b
       -0.0039806315 -0.025960414 0.057213992 0.0073760175
000030 7a b7 ef bd 7f f2 b0 bc d1 ea 25 3c 0d a9 ff bc
       -0.11704917 -0.021600006 0.010126785 -0.03120854
000040 00 d3 72 bc 98 c0 e8 3c 2b d3 07 bd af 62 ff bc
       -0.014820814 0.028412148 -0.03316037 -0.031174986
000050 43 05 19 bc 1a 6c 53 be 6a 08 4c 3d fb 75 ea 3c
       -0.009339633 -0.20646706 0.04981271 0.02862071
000060 5f ae 34 bd cb a8 21 bd c8 5c e2 3c 04 5b d4 3b
       -0.044111606 -0.039467614 0.027632132 0.0064805765
000070 a6 df f3 bc df 47 e6 ba e6 fa 6b 3d 74 b5 c6 bc
       -0.02976973 -0.0017569027 0.057612322 -0.024256445
000080 d5 fe 7d 3c ce 2c 17 bd 2f 8b b4 bd d9 05 09 3d
       0.015502651 -0.036907963 -0.0881561 0.033452842
000090 58 1c a8 3c 6d 7c 4d 3c 1b 4c 1e bc 47 33 ff bd
       0.020521328 0.012541872 -0.0096617 -0.12460952
0000a0 5f 37 bf bd 9d 0f 0a bd bd fe 04 bd a0 57 3c bd
       -0.09336733 -0.033706296 -0.0324695 -0.045982003
0000b0 16 39 3b bd 0a b1 c8 bc c2 40 90 3d 9b 83 ee 3c
       -0.04570874 -0.024498481 0.070436016 0.029115489
0000c0 ea 3a 06 3d 55 d2 50 be 5c 15 1a bb f2 f4 93 3d
       0.03277103 -0.20392735 -0.0023511266 0.07224454
0000d0 11 7a 84 bd 1b 69 08 3d 37 30 af 3d 05 03 de bc
       -0.06468595 0.03330336 0.08554118 -0.02710105
0000e0 f5 f0 fb bc 3f 63 30 3d a4 36 43 bc 76 7a 19 3d
       -0.030754546 0.0430634 -0.011914883 0.037470303
0000f0 bd 69 25 be a0 9e f8 b9 c7 40 d4 bb 37 2e 18 3d
       -0.16153617 -0.0004742043 -0.0064774486 0.03715345
000100 7d 17 81 3c d2 8d 07 3d 5b 23 3e bd 30 43 78 bd
       0.01575827 0.033094235 -0.046420436 -0.06061095
000110 6f e8 0f 3d fd c2 b8 bc 1f 02 8d 3d 85 1d 01 3b
       0.035133775 -0.022553915 0.0688517 0.0019701433
000120 a1 a9 84 bd 0c c0 40 3d 42 d6 d5 bc b7 83 bc 3d
       -0.06477667 0.04705815 -0.026103143 0.0920481
000130 ac 89 b4 bc dd 50 1e bd 96 27 ac bc 94 cb 82 3c
       -0.022038303 -0.038651336 -0.02101497 0.015966214
000140 ff 07 d8 3c a1 38 7d bb bc ea a8 bd 9e 78 be bb
       0.026371 -0.003863849 -0.08247897 -0.0058127185
000150 d0 e8 e0 bd de fc 97 bc a8 b2 dc bc f5 21 14 bd
       -0.109819055 -0.018553194 -0.026940659 -0.036165196
000160 08 08 3a 3d ec 2a e3 3b 9f 5a 87 be b4 95 52 3e
       0.045417815 0.006932607 -0.26436326 0.2056492
000170 2a 43 01 3d 17 78 85 3d 40 d4 a0 bd 33 65 3a 3d
       0.031558193 0.06517046 -0.078529835 0.045506667
000180 9c 86 16 3d 5c db 9e bc ef 97 48 bd 35 0a 64 3d
       0.036749467 -0.019391708 -0.04897302 0.055673797
000190 88 cf 4a 3d 59 3f 0b bd a7 6c d6 bc f2 64 6e bd
       0.049514323 -0.03399596 -0.026174856 -0.058201738
0001a0 5e db 18 3c 1c 48 fb bd dc 77 af 3d c2 44 4b 3c
       0.009329645 -0.12269613 0.08567783 0.01240653
0001b0 a3 45 e4 bd 66 a6 a0 bc 3e 1c 2f 3c 9f ab 2c bd
       -0.11146095 -0.019610595 0.010687886 -0.042155858
0001c0 81 b4 5f 3d 8e d4 2e 3d 31 f6 ec 3c 70 9f 3e bd
       0.0546155 0.042683177 0.028925987 -0.04653877
0001d0 71 e9 14 bd 09 a3 f8 bd ac de 80 3d e4 51 45 3c
       -0.03635544 -0.121404715 0.06292471 0.01204345
0001e0 19 43 b1 3d 22 45 0f bd 04 7f 0b bd 88 41 21 3d
       0.08655376 -0.03497804 -0.03405668 0.039369136
0001f0 cb 39 2e 3e 44 65 4d 3d cb b4 16 bd 45 fe b6 bd
       0.17014234 0.050145403 -0.03679351 -0.08935217
000200 ed dd 15 3c 48 f8 03 bd 05 7d c4 3d cd 41 53 3c
       0.0091471495 -0.0322192 0.09594158 0.012894106
000210 35 f7 8d bd 81 ec 21 3d 02 27 ea bc 2b b6 49 bd
       -0.069319166 0.03953219 -0.028583053 -0.049245995
000220 94 55 08 bd db f7 31 3d ae ba 97 bd 00 e8 7d 3d
       -0.03328474 0.043449264 -0.07408653 0.06198883
000230 e5 9c 84 bc d9 84 79 3d c8 ab b8 bc 8a 85 03 3d
       -0.016188094 0.06091771 -0.02254285 0.032109775
000240 56 b8 e9 bb 60 22 d9 3d 43 ef 3e 3b 4f 67 c9 bd
       -0.0071325703 0.1060226 0.002913431 -0.09834158
000250 51 76 43 bd b8 f4 ae ba f1 87 67 bd a4 7d 73 bd
       -0.047720257 -0.0013348078 -0.05652613 -0.059445992
000260 eb 00 49 3d 76 b4 5f 3e 2d b7 4a 3e 1b cc 7d bb
       0.04907314 0.21846184 0.19796439 -0.0038726393
000270 dd 99 63 bd e1 3d 25 3d eb 58 2a 3d f9 f5 ab bb
       -0.055566657 0.040342215 0.041588705 -0.005247828
000280 f0 e2 40 3e 26 9c 47 bd 41 f7 83 bc 9f 92 28 3d
       0.1883657 -0.0487329 -0.01610911 0.041155454
000290 bc 8e 08 bc 80 e8 8c bd 82 ec fd 3d b0 48 ef 3b
       -0.008334812 -0.06880283 0.12398626 0.007302366
0002a0 43 a8 ee bb d6 cb cb 3c 42 7e 10 3b 01 97 4c bd
       -0.007283242 0.02487747 0.0022047912 -0.049948696
0002b0 26 43 f0 bc d2 71 bc bc 9d 2c 81 bd ea 6c cb bd
       -0.029328894 -0.023003493 -0.063073374 -0.09932883
0002c0 9b ca 36 3d 59 02 d6 bb fe ca 4e 3d 30 97 2b bc
       0.044626813 -0.0065310416 0.050486557 -0.010473058
0002d0 9d 89 23 bb ed db 73 3b 74 cb 5e 3b 86 d5 48 3c
       -0.002495385 0.0037209943 0.003399578 0.012257939
0002e0 2c d1 17 bd 8d ac f6 bc d3 e8 37 bd 1c db 0c bd
       -0.037064716 -0.030111575 -0.044899773 -0.034388646
0002f0 aa ca fd 3c 72 53 da bd d2 f1 5c 3c 9e 59 b4 3a
       0.030980427 -0.10660447 0.013485389 0.0013759618
000300 f3 ac 3f bd 06 9b 29 3c 5f 63 2f bd e0 4b e3 bc
       -0.046795797 0.010351902 -0.042819377 -0.027746141
000310 2e 03 73 bd 51 05 2e bd f4 21 85 bd 20 b3 cd bc
       -0.059329204 -0.04248554 -0.06500617 -0.025109828
000320 20 d0 19 3d 33 0b 95 3d f5 4c a6 3d 3e c6 ff 3c
       0.037552 0.07277527 0.08120147 0.031222459
000330 b8 fb bd ba c7 3b 6b bd a0 77 f4 3c bd c5 39 bc
       -0.0014494574 -0.057430055 0.029842198 -0.011338648
000340 b2 e0 1b 3c 40 82 cb bb f9 57 d3 bd bb 3a b7 3c
       0.009514021 -0.0062105954 -0.10319514 0.022366872
000350 e8 de 48 3c 85 15 b8 bd 09 49 c6 3c f1 d1 27 bd
       0.012260176 -0.089884795 0.024204748 -0.0409717
000360 6d de 99 bd 76 79 04 3c 96 f6 e3 3c 1a 3d ea bd
       -0.075131275 0.008085599 0.027827542 -0.114374354
000370 7e a0 37 be 14 7b fe bc b7 89 f8 3c 95 60 5a 3c
       -0.17932317 -0.031064548 0.030339105 0.013328691
000380 d7 9c 2f bc 1b a2 43 bd 5e 45 4f 3c 4f a4 9f ba
       -0.010718546 -0.047762018 0.012650816 -0.0012179705
000390 89 2b 6f 3d a7 89 4e 3d 56 b5 a5 3c cc a7 f9 3c
       0.058391128 0.050424244 0.02022807 0.03047552
0003a0 a4 b3 04 bd 04 76 3b bd 02 49 08 be de 64 e9 3d
       -0.03239788 -0.045766845 -0.133091 0.11396192
0003b0 f4 f4 d1 3a 4c 81 a9 3d 31 2f 18 bd a4 12 0d bc
       0.0016018436 0.082766145 -0.03715438 -0.008610401
0003c0 40 27 e2 bd 33 64 30 bd db e5 93 bc f9 fb 25 bd
       -0.110426426 -0.043064307 -0.01805394 -0.040523503
0003d0 9d bc 40 bd 91 e0 00 bd ce e8 7d 3d 07 fb 41 bd
       -0.047054876 -0.031464163 0.061989598 -0.04735854
0003e0 9a ca 16 bd 34 24 21 bd a7 cd ce 3c 0f 4e 02 bd
       -0.03681431 -0.039341167 0.025244547 -0.031812724
0003f0 09 e4 59 bd df 05 08 3c 05 79 64 3b d6 42 89 bd
       -0.053195987 0.008302181 0.0034862172 -0.06702201

temporal_conv.bias f4 [128]
000000 60 cb 06 bd 02 75 cf 3c 25 40 41 bd 76 39 ca bd
       -0.032908797 0.025324348 -0.047180314 -0.09874241
000010 a1 e4 b7 bc c9 f3 a3 bd d7 45 1e bd 44 cb a4 3c
       -0.022447886 -0.08005483 -0.038640823 0.020116456
000020 a3 d6 61 3d ee 4f 5c bc 2d 33 cb bd 90 bf a6 bd
       0.055136334 -0.013446791 -0.099218704 -0.081420064
000030 6b 9b cf 3d 93 39 88 bd 17 5c 70 3d b0 0a a1 3d
       0.101370655 -0.066516064 0.058681574 0.078633666
000040 c2 85 0f 3d 20 39 a6 3d 48 01 01 3d 34 f0 f9 bb
       0.03503967 0.081163645 0.031495363 -0.0076275114
000050 24 9c 12 3e 6c 11 e0 bc b7 5d 6a 3d a1 59 0f 3e
       0.14317375 -0.027352057 0.05721828 0.13999034
000060 21 ec 81 3d f2 02 59 bc 2a dc db 3d e1 d7 38 3d
       0.06343866 -0.013245331 0.10735352 0.045127753
000070 19 3b 40 3d 15 af 8b 3c 18 df 22 bd f8 ed b3 3d
       0.04693136 0.017051259 -0.03976354 0.08785623
000080 8b 77 fd 3d 57 4b 8e bc 00 e2 64 3c a4 a9 46 3d
       0.12376317 -0.01736991 0.013969898 0.048501626
000090 95 08 42 bd d8 3b a0 3c 9e 9a d6 3d 8f 0a ff 3d
       -0.047371466 0.019559786 0.1047871 0.12453186
0000a0 98 bc 6d 3c 3a db bb 3d a0 d2 43 3d 5d 0f 81 3d
       0.014510296 0.091726735 0.04780829 0.063017584
0000b0 58 77 49 ba 4c 6b bf 3d 6d 6f 15 3d 77 13 0b 3e
       -0.0007685325 0.09346637 0.036483217 0.13581644
0000c0 91 22 52 3d fc ea ab 3d da 16 94 bd a5 a1 f6 3d
       0.051302496 0.08394429 -0.07230921 0.1204255
0000d0 a1 2c 60 3d ae e9 1c bd 3a 53 87 3d 6a dc 28 3d
       0.05473006 -0.03830879 0.06607671 0.04122583
0000e0 71 41 36 3d 6f 53 35 bc e9 05 b2 3d 99 05 fc 3d
       0.044496004 -0.011067255 0.086925335 0.12305755
0000f0 48 98 2a 3d 57 f6 d0 3d c1 5c 8d bd be 25 05 be
       0.041649133 0.102032356 -0.06902457 -0.13002679
000100 89 cb 8c 3d 55 88 9d 3d 7f 9a 5d 3b 58 c2 db 3d
       0.06874759 0.07692019 0.003381401 0.107304275
000110 cd c2 6e 3c 16 a3 bb bd f3 0b 15 3e 6b 48 a4 3b
       0.014572811 -0.091619655 0.1455534 0.0050135157
000120 bc 4d 1b 3d 53 d0 3e bd 69 b3 e1 bd 0d c8 a2 bd
       0.03791593 -0.046585392 -0.11020548 -0.07948313
000130 6e ae 8d 3d 4c 45 bf bd 15 21 16 3d ed 5f 2e 3d
       0.069180354 -0.09339389 0.036652643 0.04257195
000140 07 ea a7 3d 80 62 ac 3d b7 8d 33 3d d6 bf 97 3d
       0.08198934 0.08417225 0.04383632 0.07409637
000150 0e 0b 21 3d 62 de f7 3d 5a 22 4c 3d 03 9e a5 3d
       0.039317183 0.12102963 0.049837448 0.08086779
000160 90 8d 66 3d 46 87 28 bd 24 62 8e bb 8f f5 a0 3d
       0.05628735 -0.04114463 -0.0043451954 0.078593366
000170 f1 b9 9a 3d 14 75 8e 3d ae a7 de 3d 29 8f 83 3d
       0.07554997 0.06955925 0.10871826 0.0642379
000180 9c 5e ae bd cd ad 61 bd 5b 2d 2d bd da 52 58 3d
       -0.08514139 -0.05509739 -0.042279582 0.05281339
000190 78 77 05 b9 c1 21 ab 3d 76 ec ae 3d 27 05 ac 3d
       -0.00012728374 0.083560474 0.08541195 0.0839942
0001a0 7c 04 83 bc 02 00 26 3e 7d f7 a1 3d a2 b2 6f 3d
       -0.01599335 0.1621094 0.07908533 0.058519967
0001b0 75 33 b8 bd cd c3 70 3d 99 99 6d bc 30 09 cb bd
       -0.0899419 0.05878048 -0.014501953 -0.09913862
0001c0 a7 fd db 3d 9a cc df 3d 0e 13 08 3d e5 d0 9f bd
       0.1074174 0.109276965 0.033221297 -0.07803515
0001d0 fe 3b 08 3e 6d 54 99 bd 33 84 6d 3d 9b c8 53 3d
       0.13304135 -0.07486806 0.057987403 0.051704984
0001e0 25 34 de 3d 01 5a 83 3d 89 54 be 3d 13 9e f3 3d
       0.108497895 0.06413651 0.092934676 0.11895385
0001f0 7c 49 19 bd 17 c6 a2 3d 92 56 c7 3c 80 65 0d 3e
       -0.037423596 0.07947939 0.024333272 0.1380825

fc.weight f4 [30, 128]
000000 9c 8f e2 3d 4a 9d 4e bd 0d f1 a1 bc ec 88 e4 bc
       0.110625476 -0.05044297 -0.019768262 -0.02789732
000010 f3 83 19 3d 8c 65 15 be 7b ec 31 3c cc 14 92 bc
       0.037479352 -0.14589518 0.010859604 -0.017832182
000020 11 65 b2 bd 7a 75 38 be e0 20 a5 bd 63 70 59 bc
       -0.08710683 -0.18013564 -0.08062911 -0.013271424
000030 fa d4 c5 3d 76 f9 03 be 16 f6 f5 bd 32 84 0c 3b
       0.09659763 -0.1288813 -0.12009828 0.00214411
000040 c4 16 d5 3b ad 0c 2d bd 8e 05 8b bc e3 3b a1 ba
       0.006502958 -0.042248417 -0.016970422 -0.0012301173
000050 ca c7 a1 bd 04 99 f4 bd f4 95 a8 bd bb 8f 05 3e
       -0.07899435 -0.11943248 -0.08231726 0.1304311
000060 2c 01 9c bd 6a c4 92 3d 5a 4d 20 bc 41 39 77 bd
       -0.07617411 0.07166369 -0.009784067 -0.060357336
000070 c4 e4 78 bd 9d 49 84 bd 95 e0 98 3c 36 93 86 bd
       -0.060765043 -0.06459353 0.018661777 -0.06571047
000080 29 ab 1d bd f0 22 22 3c 54 29 91 bd 00 f5 a1 bd
       -0.03849331 0.009896025 -0.07087961 -0.07908058
000090 b8 a9 66 3d 8d 09 57 3d 2c 85 27 3b eb 2e 85 bd
       0.0563142 0.052499343 0.0025561554 -0.065030895
0000a0 5b ca 64 3d 04 2c bb bc ad 0e 9c bd 8e 25 1a 3e
       0.055857044 -0.022848137 -0.07619987 0.15053388
0000b0 f0 fb ab 3d 54 ee 1d 3e 35 de 32 be 73 ee 0f bd
       0.08397663 0.15422946 -0.17467578 -0.035139512
0000c0 3f d1 ab bd 74 10 fd bd fe 4b d2 3c d3 93 98 3d
       -0.0838952 -0.12356654 0.025671002 0.0745007
0000d0 6a 02 0d 3d d0 9c 7b 3b 2e 02 aa bd fb 3c 32 3c
       0.03442613 0.0038393028 -0.08301197 0.010878797
0000e0 84 88 9a bd c2 22 09 3e 4e c2 fc bc 9b 48 2d 3e
       -0.075455695 0.13392165 -0.03085437 0.16922228
0000f0 9e c5 bc bc 58 a5 c2 bd a7 3e 77 3a 53 7f be 3c
       -0.02304345 -0.09504193 0.0009431638 0.023254072
000100 13 9c 20 3e 2e 6b 8d bd b9 10 02 bd be 73 89 bd
       0.15684538 -0.069052085 -0.03175423 -0.06711529
000110 c9 c0 8c 3d 83 03 17 3e b8 b7 82 3d ff 12 99 3c
       0.06872708 0.14747433 0.06382698 0.018685816
000120 bc b7 cd bc e8 16 02 be 0d ae 7a 3c ee 9f d9 bd
       -0.025112025 -0.1270405 0.015300286 -0.10626207
000130 20 9d e7 37 94 ad 56 3d d2 63 a6 bb 62 e2 42 3d
       2.7610513e-05 0.05241163 -0.0050778175 0.047579177
000140 4e a9 bf bc 7d d3 be bd 85 ae b8 3d c1 99 f5 bb
       -0.02339616 -0.09317682 0.09017662 -0.0074951355
000150 88 1f 23 bd d3 22 01 bc 98 4b 0e be 47 cb c1 bd
       -0.039824992 -0.007881838 -0.13896024 -0.094626
000160 67 c6 c3 bd dc ea a4 bb 51 4b 57 3d 0f 8a 9d 3d
       -0.095593266 -0.00503288 0.05256206 0.07692348
000170 e3 30 af bd 7e 8b e1 bd db 9d 28 bc 28 42 a8 bd
       -0.08554246 -0.11012934 -0.010291542 -0.08215743
000180 3c 48 86 3d 5d 49 1c be 8d eb 0f 3e 45 06 44 bd
       0.06556746 -0.15262361 0.14054699 -0.04785754
000190 11 1c 9f bc 41 77 42 bd e0 1b 47 bd 7f 79 7e 3d
       -0.019422563 -0.04747701 -0.048610568 0.062127586
0001a0 3f d4 d0 bc ec 12 23 3e b6 80 dc bc cb 6e 80 3e
       -0.025491832 0.15925187 -0.026916843 0.25084528
0001b0 9f 7a 11 3d 01 aa 93 bc f2 02 8f 3b 95 5a 51 3c
       0.03551733 -0.0180254 0.004364365 0.012777944
0001c0 46 38 34 bd 51 bc 71 3d 53 91 ae 3d 9d 92 af bd
       -0.04399898 0.059017483 0.08523812 -0.08572886
0001d0 ab 92 e9 3d 4c 3b 9c 3d 0e 25 b3 3d 8b f7 25 3e
       0.11404928 0.076284975 0.08747302 0.16207711
0001e0 8c 83 1f 3e 32 4d e8 bd c5 1b e8 3c c1 4d 2d 3d
       0.15577525 -0.11342849 0.028333554 0.04231048
0001f0 b6 ec 8a 3d aa 54 31 be ba 94 00 be 36 01 c8 bc
       0.0678343 -0.17317453 -0.12556735 -0.02441464
000200 eb 36 0a 3d ce a0 82 bd 29 a9 aa bc 18 09 3f 3c
       0.03374378 -0.06378327 -0.020832615 0.011659883
000210 0a 88 8c 3d 8f 2c c9 bc 50 cb 12 3d 1a 67 2c 3c
       0.06861885 -0.02455738 0.035838425 0.010522628
000220 ff 7d c0 bb ea 7f 9b bb d9 18 b1 bc d8 4e 1e 3c
       -0.005874395 -0.004745473 -0.021618294 0.0096623525
000230 2b 5b 87 bd 0a 9d b9 3b dd bb 6b bc 2e 46 1b 3e
       -0.06609186 0.0056644725 -0.014388052 0.1516349
000240 a9 ba 8e bd 87 21 2c 3d 7c 37 ee 3d 21 0b c3 bc
       -0.06969196 0.04202416 0.116316766 -0.023809018
000250 ac 97 fa 3d a6 3d 93 3c 07 63 25 bd 22 65 69 3c
       0.1223596 0.017973732 -0.040377643 0.014245303
000260 70 b1 2e bd 26 b4 17 bd a9 aa dc 3d 1d 41 a0 bd
       -0.042649686 -0.037037037 0.10774738 -0.078249194
000270 ed 2d af bd 75 b7 a0 bc 96 fe a7 3d 95 5a 18 be
       -0.085536815 -0.01961873 0.08202855 -0.14878304
000280 0d 38 9f bd 6c 52 db 3d c5 e7 ac bc e7 00 39 bd
       -0.07774363 0.1070908 -0.02110661 -0.045166876
000290 d4 3a a9 3c d3 36 c4 bd 23 d4 b4 3d 12 0f 21 3e
       0.020657934 -0.095807694 0.08829524 0.15728405
0002a0 a4 ea 2a 3d 1c 24 2c 3d e0 21 63 3d c2 ea 96 3c
       0.041727677 0.042026624 0.055452228 0.018422488
0002b0 7a 03 5c bd dc 9b 02 3c a1 35 5a bb 2e ec ea ba
       -0.053714253 0.00797173 -0.0033296125 -0.001792317
0002c0 df 15 50 3d dd e8 c6 bc 82 99 ce 3d c8 4e ad 3a
       0.050802108 -0.02428096 0.10087873 0.0013222331
0002d0 12 ec 06 bd 7d cb 27 3d da b3 28 3e 92 c1 ab 3d
       -0.032939978 0.040965546 0.16474858 0.0838653
0002e0 f8 a8 95 bc 50 9a 5b bc 9c cc 79 3d f3 33 6e bc
       -0.018269047 -0.01340349 0.060986146 -0.014538753
0002f0 bd 67 ba 3d e2 e9 40 3e 6c b3 b3 bd 80 7c d0 bb
       0.09101818 0.18839219 -0.087744564 -0.006362498
000300 67 06 8c 3d b2 cf 99 bd 45 9f fe bc c1 b6 e8 bd
       0.06837159 -0.07510318 -0.031081805 -0.113629825
000310 0c 82 46 bd e6 13 11 bd 14 a8 8c bd 97 85 31 3b
       -0.048463866 -0.035419367 -0.06867996 0.0027087682
000320 25 25 38 bc d8 bc c4 bc d4 77 78 3d 13 59 e6 bc
       -0.011239325 -0.024015829 0.060661152 -0.028118646
000330 3f fb d1 3c 8b 6a 65 3d a1 e8 27 3c 36 33 8d 3d
       0.025632499 0.05600981 0.010248334 0.06894533
000340 03 4b cd bc 7b 40 88 bd 49 19 99 3d 59 55 2c 3d
       -0.025060182 -0.06652924 0.07475526 0.04207358
000350 54 8f db bd af 5f cc bc 67 1b 47 bd 9b 37 03 3e
       -0.10720697 -0.02494797 -0.048610117 0.1281418
000360 58 d3 d3 3d 2a 4f 9c bd 0a fa 19 3d ae 40 81 bd
       0.10343045 -0.07632287 0.03759197 -0.06311165
000370 a0 8c 7d bd 6f eb 09 bd 80 19 ab 3d 5c d6 0d 3e
       -0.06190169 -0.033671793 0.08354473 0.13851303
000380 6a bc 6b 3d 06 a3 35 bc 3f 1d 7c 3c 6d 31 89 3d
       0.057552733 -0.011086231 0.015387832 0.0669888
000390 98 3c 90 bd c4 4f 2f 3d 22 d5 19 bd 9a e8 b1 bd
       -0.07042807 0.04280068 -0.037556775 -0.08686943
0003a0 2a 4a 41 3d 20 df dc bd 67 ba 57 bd 5c 70 b9 bd
       0.04718987 -0.10784745 -0.052668 -0.09054634
0003b0 aa c0 da 3d 58 33 bd bd d2 a8 51 bd 06 a5 88 bd
       0.10681279 -0.09238309 -0.05118639 -0.06672101
0003c0 13 b1 5a bd 15 5f 8a 3d 58 f1 64 bb 09 20 ca 3d
       -0.053391527 0.06756417 -0.003493389 0.098693915
0003d0 0e 04 46 bd d7 c2 a8 3d c2 0b d5 bd de cd 7b bd
       -0.04834371 0.08240288 -0.10402633 -0.061475627
0003e0 c4 3c de bc b9 c6 0f 3e ff 90 36 ba f4 05 5d 3d
       -0.027128585 0.1404065 -0.0006964355 0.053960755
0003f0 4b b5 ab bc d8 02 9f 3d 73 0e c7 3c 25 08 d5 bd
       -0.02096047 0.07764214 0.024298882 -0.10401944

fc.bias f4 [30]
000000 7b a5 a3 3c 07 ae 9f 3d ab ef a8 bd 7e cb e9 3d
       0.019976368 0.07796865 -0.08248838 0.11415766
000010 bf a3 58 bd bd 9b 05 3d 7d e2 aa 3d 46 85 fb 3d
       -0.052890535 0.032619227 0.083439805 0.12281279
000020 16 29 62 3c 57 19 2a 3d 46 19 dc 3d f2 6e 98 3d
       0.013803741 0.041528072 0.10747008 0.07443036
000030 1b 9d d8 3d d5 d8 87 3d 07 80 09 bd 06 03 34 3d
       0.105768405 0.06633154 -0.033569362 0.043948196
000040 94 1a 35 3d 8b 38 ac 3d 96 a2 72 3c ab 0b 3b bb
       0.0442148 0.08409222 0.014809271 -0.002854089
000050 c4 5b 97 3d 6b 33 c8 3c 14 d5 5c bd 41 9d 85 bd
       0.0739055 0.02443858 -0.053914145 -0.065241344
000060 c1 e0 e6 3d dd c3 2e 3d aa 54 91 bc 41 fa 30 3d
       0.11273337 0.04266726 -0.017740566 0.04320741
000070 9e c6 b5 3d 4b ae a1 bd
       0.08875774 -0.07894572
