situation_analysis/best_models/model_window30_horizon2.pth (torch, 905642 bytes, 27 tensors)

adapt_adj f4 [30, 30]
000000 ff f2 72 3f 99 74 4f bd 04 ee 4f bd 6e d3 4e bd
       0.9490203 -0.050648306 -0.0507641 -0.050494604
000010 cc 7a 4e bd 6e 4a 4f bd 24 1f 4e bd e4 29 4f bd
       -0.050410077 -0.05060809 -0.050322667 -0.05057706
000020 26 d7 4e bd 8c 9a 4f bd 33 66 52 bd 42 ea 52 bd
       -0.05049815 -0.050684497 -0.051366996 -0.051492937
000030 33 8b 52 bd e1 97 51 bd ec 32 51 bd 08 81 50 bd
       -0.051402282 -0.051170234 -0.051073954 -0.050904304
000040 a8 94 51 bd 56 9b 50 bd bd a8 4e bd e1 2c 4f bd
       -0.05116716 -0.05092939 -0.05045389 -0.05057991
000050 0d 55 4c bd 33 8f 49 bd 5b 2d 47 bd e8 b0 45 bd
       -0.0498858 -0.04920883 -0.04862724 -0.048264414
000060 5c 77 46 bd b7 14 44 bd 8b 82 41 bd 71 b1 3e bd
       -0.048453674 -0.047871318 -0.047243636 -0.04655594
000070 9a a6 3b bd d3 5a 48 bd 64 75 51 bd c2 fe 72 3f
       -0.04581318 -0.04891474 -0.051137343 0.9491998
000080 88 99 50 bd a0 1c 4f bd b6 e9 4e bd b1 a8 4f bd
       -0.05092767 -0.05056441 -0.050515853 -0.050697986
000090 94 5a 4e bd 9f 8d 4f bd 94 44 4f bd 5b 0d 50 bd
       -0.05037935 -0.05067217 -0.05060251 -0.050793987
0000a0 e2 b5 52 bd 0a 08 53 bd fd aa 52 bd 9e b7 51 bd
       -0.05144299 -0.05152134 -0.0514326 -0.0512005
0000b0 de 71 51 bd da a7 50 bd 5f ae 51 bd 70 02 51 bd
       -0.051133983 -0.050941326 -0.051191684 -0.051027715
0000c0 60 1c 4f bd c7 d8 4f bd 78 18 4d bd 3b 8f 4a bd
       -0.05056417 -0.050743844 -0.050072163 -0.049453
0000d0 7e 2a 48 bd e8 9f 46 bd bb 89 47 bd bf 22 45 bd
       -0.04886865 -0.048492342 -0.048715334 -0.04812884
0000e0 6e b5 42 bd 88 ff 3f bd 5f e1 3c bd 22 73 49 bd
       -0.047536306 -0.046874553 -0.046113368 -0.049182065
0000f0 08 df 51 bd ee a1 50 bd fd eb 72 3f 54 b2 4f bd
       -0.05123809 -0.05093568 0.9489134 -0.050707176
000100 de 50 4f bd 0b 34 50 bd a0 cf 4e bd 87 ba 4f bd
       -0.05061423 -0.050830882 -0.050490975 -0.050714996
000110 f7 51 4f bd c0 f3 4f bd e1 db 52 bd e6 84 53 bd
       -0.050615277 -0.050769567 -0.051479224 -0.051640414
000120 c5 44 53 bd 1a 46 52 bd 25 35 52 bd f5 81 51 bd
       -0.051579256 -0.051336385 -0.051320214 -0.051149327
000130 57 8b 52 bd 1e a4 51 bd cd 9c 4f bd e1 6d 50 bd
       -0.051402416 -0.051181905 -0.050686646 -0.05088604
000140 b9 7e 4d bd e6 f3 4a bd 29 aa 48 bd 2c 1f 47 bd
       -0.05016968 -0.049549006 -0.048990402 -0.048613712
000150 ce b7 47 bd dc a0 45 bd e4 26 43 bd 7c 9d 40 bd
       -0.048759274 -0.04824911 -0.04764451 -0.04702519
000160 93 4c 3d bd 2f 12 4a bd 4c 69 4c bd 91 60 4b bd
       -0.046215605 -0.049333747 -0.049905106 -0.04965264
000170 d8 0e 4c bd 96 4d 73 3f da 97 4a bd c9 13 4b bd
       -0.049818844 0.9504026 -0.049461223 -0.049579415
000180 68 17 4a bd 1c 38 4b bd b0 fa 4a bd aa d5 4b bd
       -0.04933873 -0.049614057 -0.04955548 -0.049764313
000190 92 7b 4e bd 37 3f 4f bd b7 f1 4e bd 43 36 4e bd
       -0.050410815 -0.050597396 -0.050523486 -0.050344717
0001a0 c0 5b 4e bd 7e 5a 4d bd 70 40 4e bd 1f 79 4d bd
       -0.05038047 -0.05013513 -0.05035442 -0.05016434
0001b0 61 bb 4b bd c9 66 4c bd 86 d1 49 bd 82 02 47 bd
       -0.049739245 -0.04990271 -0.049272083 -0.048586376
0001c0 81 b0 44 bd 41 07 43 bd ba ae 43 bd f3 8f 41 bd
       -0.04801989 -0.04761434 -0.047774054 -0.04725642
0001d0 51 f5 3e bd 25 83 3c bd b9 62 39 bd 42 09 46 bd
       -0.04662067 -0.046023507 -0.045260165 -0.048348673
0001e0 16 21 4f bd e7 d9 4d bd d4 a6 4e bd 3f a1 4d bd
       -0.050568663 -0.050256636 -0.05045207 -0.050202604
0001f0 ed 27 73 3f a0 1c 4e bd 99 c6 4c bd 0c a8 4d bd
       0.94982797 -0.050320268 -0.049994085 -0.05020909
000200 33 98 4d bd a3 c5 4e bd 96 a2 51 bd c5 f7 51 bd
       -0.050193977 -0.05048145 -0.051180445 -0.051261682
000210 e2 e4 51 bd 67 2c 51 bd 22 1f 51 bd 98 67 50 bd
       -0.05124367 -0.051067736 -0.05105508 -0.050880045
000220 b5 8f 51 bd 23 c1 50 bd 56 e4 4e bd 82 d9 4f bd
       -0.05116244 -0.05096544 -0.050510727 -0.05074454
000230 ee 53 4d bd 87 73 4a bd b4 15 48 bd 17 bd 46 bd
       -0.05012887 -0.04942658 -0.048848823 -0.048520174
000240 76 47 47 bd 99 e7 44 bd a5 94 42 bd 8c 17 40 bd
       -0.048652135 -0.04807243 -0.04750504 -0.046897456
000250 fb 09 3d bd 97 bb 49 bd c7 1b 4c bd ce c8 4a bd
       -0.046152096 -0.049251165 -0.049831178 -0.04950791
000260 5e 81 4b bd 8c 55 4a bd 1b 2b 4a bd e1 4a 73 3f
       -0.04968392 -0.04939799 -0.049357515 0.9503613
000270 6e 09 4a bd e2 be 4a bd 84 62 4a bd 7d 75 4b bd
       -0.0493254 -0.049498446 -0.049410358 -0.049672592
000280 6b fc 4d bd 9f 62 4e bd 42 40 4e bd e3 63 4d bd
       -0.050289553 -0.05038702 -0.05035425 -0.050144088
000290 45 86 4d bd 70 cf 4c bd 61 85 4d bd 3b 8e 4c bd
       -0.050176878 -0.050002515 -0.05017603 -0.04994033
0002a0 0b fd 4a bd 4d 0a 4c bd 09 b1 49 bd e0 47 47 bd
       -0.049557727 -0.04981451 -0.0492411 -0.04865253
0002b0 cc 06 45 bd 76 b1 43 bd dd 4a 44 bd 00 02 42 bd
       -0.048102185 -0.04777666 -0.047922958 -0.04736519
0002c0 16 a5 3f bd 2c 3a 3d bd b8 21 3a bd 6a b2 46 bd
       -0.046788298 -0.046198055 -0.045442313 -0.048509993
0002d0 33 2e 49 bd 01 9f 47 bd 5f e8 47 bd fa c5 46 bd
       -0.049116325 -0.048735622 -0.04880559 -0.04852865
0002e0 8f a4 46 bd be c5 47 bd ae 95 73 3f 23 1c 47 bd
       -0.04849678 -0.048772566 0.9515027 -0.048610818
0002f0 46 ce 46 bd c3 f4 47 bd a1 80 4a bd 65 24 4b bd
       -0.04853656 -0.048817407 -0.049439076 -0.049595255
000300 5d 04 4b bd 2f 32 4a bd be 7d 4a bd 78 bf 49 bd
       -0.049564708 -0.049364265 -0.049436323 -0.049254864
000310 a2 d5 4a bd 26 e2 49 bd 84 54 48 bd b7 32 49 bd
       -0.049520142 -0.049287938 -0.048908725 -0.04912063
000320 3e c4 46 bd 84 33 44 bd 8b 2c 42 bd 45 b6 40 bd
       -0.048526995 -0.04790069 -0.04740576 -0.047048826
000330 dd 7b 41 bd 56 28 3f bd 7e d9 3c bd ec 5c 3a bd
       -0.047237266 -0.046669327 -0.046105854 -0.045498773
000340 ce 01 37 bd 75 ba 43 bd 17 40 4a bd d0 e4 48 bd
       -0.044679455 -0.04778524 -0.049377527 -0.049046338
000350 af 9c 49 bd ed 30 48 bd d8 08 48 bd 5e 8e 48 bd
       -0.04922169 -0.048874784 -0.04883656 -0.048963897
000360 07 51 47 bd a4 7d 73 3f 6d df 47 bd 42 fc 48 bd
       -0.048661258 0.9511359 -0.04879706 -0.049068697
000370 a8 cb 4b bd c2 7c 4c bd 2b 59 4c bd 0f b8 4b bd
       -0.04975477 -0.049923666 -0.049889725 -0.04973608
000380 11 b4 4b bd aa c0 4a bd 35 83 4b bd 0d c4 4a bd
       -0.04973227 -0.049500145 -0.049685676 -0.049503375
000390 36 41 49 bd ac 1c 4a bd 69 6d 47 bd b5 e8 44 bd
       -0.049134456 -0.04934375 -0.048688326 -0.04807349
0003a0 19 f3 42 bd c3 dd 41 bd db f4 42 bd 8f da 40 bd
       -0.047595117 -0.04733063 -0.047596794 -0.047083434
0003b0 ca 88 3e bd f4 26 3c bd 4c d2 38 bd dd d2 45 bd
       -0.04651717 -0.045935586 -0.04512243 -0.048296798
0003c0 1c 65 4b bd 38 30 4a bd ca b4 4a bd e1 72 49 bd
       -0.049656972 -0.04936239 -0.04948882 -0.049181823
0003d0 23 6e 49 bd a2 45 4a bd fd 0b 49 bd 65 b4 49 bd
       -0.0491773 -0.049382813 -0.0490837 -0.049244303
0003e0 b0 68 73 3f 7c 9b 4a bd 37 f5 4c bd 1b a8 4d bd
       0.95081615 -0.049464688 -0.050038543 -0.050209146
0003f0 93 5e 4d bd 37 19 4c bd 7a 3b 4c bd be 75 4b bd
       -0.05013902 -0.049828734 -0.04986141 -0.049672835

gc1.fc.weight f4 [128, 30]
000000 58 bb 4e be 0f 6a 2d 3e 34 3a ac 3c 53 7b 9c bc
       -0.20188653 0.1693499 0.021023847 -0.019101774
000010 96 4d 16 3e fa a2 5a bd cf 17 1d bd 15 25 01 be
       0.14678034 -0.053378083 -0.038352784 -0.12611802
000020 79 02 89 3d bc 6f 3e be db 0b 36 3e a8 3b 37 bd
       0.06689925 -0.18597311 0.1777796 -0.044734627
000030 a0 c2 28 bc ae 81 06 be 92 e5 cf bb 46 71 18 3e
       -0.0103003085 -0.13135406 -0.0063445056 0.1488696
000040 7d 7e 71 3d 52 9b a4 3d 49 1f e1 bd d8 9c 81 bd
       0.05895852 0.080374375 -0.10992295 -0.06328744
000050 55 d7 9e bd df 18 21 3e 42 c1 9d bd 0e c5 a3 bd
       -0.07755915 0.15732144 -0.077028766 -0.079965696
000060 28 1a 6d bd 6d d7 13 bd 66 91 01 bd 38 8b 37 3d
       -0.057886273 -0.036094118 -0.031632803 0.044810504
000070 bf fc fc 3b 7c e0 b1 bd fa 63 04 3d 06 78 09 3e
       0.0077205594 -0.08685395 0.032321908 0.13424692
000080 70 3e 39 3e 3b b4 8e bd 06 98 90 3d 76 71 82 3b
       0.18090224 -0.0696797 0.07060246 0.0039808108
000090 35 9e 06 3e 2f 41 bc bc 50 99 97 3d 1b af c5 3d
       0.13146289 -0.0229803 0.07402289 0.09652539
0000a0 54 5e 8b bd d3 54 3b 3e 01 d0 1b 3d 78 9b d3 bc
       -0.06805101 0.18294077 0.038040165 -0.02583097
0000b0 f9 db f3 3b 14 a6 3d 3e 92 7e a6 bb cd 1c c1 bd
       0.0074419943 0.18520385 -0.0050810063 -0.094293214
0000c0 c9 5b 05 be 2d ae 9a bd 8b 98 1a be e2 ee 38 bd
       -0.13023295 -0.07552753 -0.15097253 -0.04514969
0000d0 15 48 2a bd 1f f9 61 bc 2a 87 80 3d 2d a7 81 bc
       -0.04157265 -0.013792305 0.062757805 -0.015826786
0000e0 ba 28 13 3e 10 e4 82 3c 98 ab 36 be f3 1d 36 3d
       0.14371005 0.01597789 -0.17838895 0.044462156
0000f0 ff 14 0e be f1 f5 0a 3e 50 06 7f bb 1d 2c 26 be
       -0.13875197 0.13570382 -0.0038913675 -0.16227765
000100 d6 e0 68 bd c2 3a 93 bc 06 9b 92 bd 19 22 20 be
       -0.056855045 -0.017972354 -0.071584746 -0.15638007
000110 aa e3 8a 3c dd df 9d bd 78 37 89 bb aa 28 e9 3d
       0.016954262 -0.07708714 -0.0041875206 0.11384709
000120 40 f1 09 bd 87 21 ba 3d a8 78 87 39 0d 14 8f 3d
       -0.03367734 0.09088426 0.00025839102 0.06986246
000130 6d cd ab bd 36 1f ef bd 54 f3 bc 3b 2f 3b 0b bc
       -0.08388791 -0.11675875 0.0057663117 -0.008497997
000140 22 88 24 3e 83 29 e3 bd 2c 80 05 be 0c c9 8b be
       0.16067556 -0.11091902 -0.13037175 -0.27301824
000150 19 c8 3c bd 3a a3 36 bd 8e c4 27 3e 43 35 aa 3d
       -0.046089265 -0.04458926 0.16383573 0.0831094
000160 c7 01 4e bd 58 7c 95 bd 7a 68 79 3d 43 fe 1f 3e
       -0.050294664 -0.07299107 0.060890652 0.15624337
000170 1d 5f fd bd d9 cc fd 3d ca 2c 37 3e dc 1b c9 bc
       -0.12371657 0.12392587 0.1788818 -0.024549417
000180 e8 d1 29 3d 75 2c 14 3e 04 26 85 bd 1e 2a b2 bd
       0.041459948 0.14470084 -0.065013915 -0.086994395
000190 8b 9b da 3d 3e e3 1c be 40 21 63 be 28 43 0f 3e
       0.10674199 -0.15321061 -0.22180653 0.13990462
0001a0 a8 8d 8b bc 04 d7 7d 3d 3c da e5 bc 26 63 7b 3d
       -0.01703532 0.061972633 -0.028058164 0.061373852
0001b0 ab 3f 85 bc c5 11 ff bd 28 26 16 3e 71 b0 ec 3d
       -0.01626571 -0.12454561 0.14662993 0.11557091
0001c0 80 70 28 3e 82 b7 38 3e 2b 29 51 be 2a 52 30 3c
       0.16449165 0.18038753 -0.2042586 0.010761777
0001d0 5c cc 77 3d ce cf 95 bc de a7 96 bd 15 cb 1f be
       0.060497627 -0.018287566 -0.07356237 -0.15604813
0001e0 ea e1 22 3e 6d 5a 37 3d 97 e8 b1 3d fc b1 8f bd
       0.15906492 0.04476397 0.08686941 -0.0701637
0001f0 47 30 12 3d a3 bb 1f 3d 79 84 96 3c 42 b5 e1 bd
       0.035690572 0.038997304 0.018373715 -0.110209
000200 c4 6b 7d 3d 87 3f f7 3d 9f 92 fe 3d a7 ed 09 bd
       0.06187035 0.12072664 0.124303095 -0.03367391
000210 39 4e b2 3c 8a f1 ad 3c 9c ec 7e bd 6b 8d 5b bd
       0.021765815 0.021233339 -0.062237367 -0.053601664
000220 86 92 b9 bd eb 86 3e 3e 01 fc 77 3d f2 93 b0 3d
       -0.0906115 0.18606155 0.060543064 0.08621968
000230 02 4a 8f bc 63 9f 22 bd e3 35 f0 3c 16 85 16 be
       -0.017491344 -0.039702784 0.02932257 -0.14699206
000240 e0 2c e5 bd fb 24 2a be 66 54 0a be 23 32 3d bd
       -0.111902 -0.1661567 -0.13508758 -0.046190392
000250 cc c4 31 bd 5d 9e 9d bd fc 75 93 3d 22 69 35 3d
       -0.04340057 -0.07696221 0.07200238 0.044289716
000260 52 8a 90 3d 8e 4f f3 3d 44 22 88 bc 88 1d fe 3d
       0.070576325 0.11880408 -0.016617902 0.124079764
000270 b7 62 1e 3e f8 43 3d 3d d2 32 20 be 18 56 0a 3e
       0.15467344 0.0462074 -0.15644386 0.13509405
000280 fe 1d dd 3d f4 0e 22 3c 9e e3 e6 3d 39 aa eb bd
       0.10796736 0.00989126 0.11273883 -0.11507077
000290 6a f0 33 bd 8f d5 de 3b 60 f9 9e bd 8e 27 0d 3e
       -0.04393045 0.0068003605 -0.07762408 0.1378462
0002a0 1c 12 80 bc 1f 72 17 be f9 cd 16 3e a1 e6 0a 3e
       -0.015633635 -0.14789627 0.1472701 0.1356454
0002b0 08 98 63 3c 05 88 34 be ad 69 bc bd 08 bd 29 be
       0.013891228 -0.17630012 -0.091998436 -0.16576016
0002c0 1c 5f 0b 3e 95 f4 e5 3d ef e4 fe 3d 27 16 05 3e
       0.136105 0.11228291 0.12446009 0.12996732
0002d0 1f fb cc bd 23 6d 3d 3e 8d 16 58 bd a3 ee c4 bb
       -0.10008835 0.18498664 -0.05275588 -0.006009893
0002e0 d2 3b 06 be 89 a7 07 be 6b e8 20 bc ce 0f f9 3d
       -0.13108757 -0.13247503 -0.009821038 0.12161218
0002f0 3b 57 22 be 9f 5e 03 3e 64 10 4e bd a1 60 a3 bc
       -0.15853588 0.12829064 -0.0503086 -0.019943537
000300 99 37 39 be 14 29 d7 bd 7e d2 7a bc 77 ce 03 3e
       -0.18087615 -0.10505882 -0.015308974 0.12871729
000310 da 35 3b 3e f1 f2 86 bd e8 57 3a 3c f6 1c d8 3d
       0.18282261 -0.06589306 0.011373498 0.10552399
000320 35 f4 f4 3d 4b 3c 2c 3e ca 45 85 3d 9d 2d 2f 3e
       0.11960641 0.16819875 0.06507452 0.17107244
000330 88 b0 5a bd dc c4 23 3e fe 16 80 3d ae 78 1f be
       -0.05339101 0.15993065 0.062543854 -0.1557338
000340 ef bc 8a 3b 93 c1 9c bd 2b 4a 84 bd ed 6b 16 3e
       0.0042339484 -0.07654109 -0.06459459 0.14689608
000350 d1 0e 2d be 91 8e 08 3e 50 16 1b 3e 49 bc 2f be
       -0.16900183 0.13335635 0.1514523 -0.17161669
000360 44 54 c5 3c 58 e5 fc 3d 0a 1c 8f bd d1 bf 7c bd
       0.024088033 0.12348431 -0.0698777 -0.061706368
000370 52 bd 9f 3d 8e a7 ca 3b 2e a3 2b be a9 3a ad 3d
       0.07799782 0.006184525 -0.16761467 0.08458454
000380 55 3d 1d bd f6 1c 97 3d 90 e8 13 bd 88 0a 2d 3e
       -0.03838857 0.07378571 -0.03611046 0.16898549
000390 ea 8a 1d be d5 57 51 3d d6 5c f0 3d a4 42 84 bd
       -0.15385023 0.051109154 0.11736457 -0.06458023
0003a0 96 93 bc 3d 64 02 14 bd 70 6f 82 3d e9 34 70 3d
       0.09207837 -0.036135092 0.06368911 0.05864421
0003b0 ac bc 8e bd 4e d3 2d be 39 0a 10 3a 31 e9 dd 3d
       -0.0696958 -0.16975138 0.00054946874 0.10835493
0003c0 26 de 30 bd 68 e1 de bd e0 79 49 bd 31 57 b5 3c
       -0.043180607 -0.108828366 -0.049188495 0.022136303
0003d0 3c 64 e5 bd fa ef 13 be 32 66 29 3d a7 df 73 bc
       -0.11200759 -0.14447013 0.041357227 -0.014884866
0003e0 5d 5d 99 3d 31 df 32 be 67 a9 09 bd 80 10 50 be
       0.07488511 -0.17467953 -0.03360882 -0.20318794
0003f0 42 46 1e 3e 4e 12 3b bc af 7a 0d be df 2d eb 3d
       0.15456489 -0.011417938 -0.13816331 0.114833586

gc1.fc.bias f4 [128]
000000 da bc e1 3d 1a 3a 7d be da 5a 61 bd 84 01 12 3d
       0.11022349 -0.24729195 -0.055018283 0.035645977
000010 92 a8 15 be 41 21 11 be 7a dd 67 3c fb b0 a1 bd
       -0.14615086 -0.14172842 0.014151925 -0.078950845
000020 1f 89 8c 3d cb 33 2d be 0c 00 14 be 90 9c c4 bc
       0.06862091 -0.16914289 -0.14453143 -0.024000436
000030 18 a0 08 3e 68 2a 20 bd 60 32 fe bb 4b 07 d1 3c
       0.13342321 -0.03910294 -0.00775747 0.025516173
000040 e2 48 20 be 62 fa c5 3c 95 14 d5 3d 8b c3 80 be
       -0.15652803 0.024167243 0.10404316 -0.25149187
000050 9b 30 27 bd db de d9 bc b5 82 11 be 5c fe 6f 3a
       -0.04081784 -0.026595524 -0.14210017 0.0009155029
000060 aa de 36 3d 07 25 98 bc 62 97 0e be de f6 20 bd
       0.044645943 -0.018572344 -0.13924935 -0.03929793
000070 d7 19 c2 bc 06 62 3a be f1 bc 0e be 3e c9 14 3e
       -0.023693962 -0.18201455 -0.13939263 0.14529893
000080 6b 0c 87 3d f2 67 17 3b cf 11 51 be 92 1b a7 be
       0.065941654 0.0023102728 -0.2041695 -0.32638222
000090 df f7 37 be a4 0a 6e 3d 0d 3a 90 bd 8a cd 87 be
       -0.17965649 0.058115616 -0.07042322 -0.26524
0000a0 d8 1d 3a be d5 11 35 bd 3e 04 59 be dd cc 36 be
       -0.18175447 -0.04420646 -0.21193025 -0.17851587
0000b0 38 3b 04 be cb 70 4c bd 16 75 17 3e 21 00 24 bd
       -0.12913215 -0.049912255 0.14790758 -0.040039185
0000c0 44 e3 d0 3c 4e 80 66 bd 5a 16 ff bd a8 3b 34 be
       0.025498994 -0.056274705 -0.12455435 -0.17600882
0000d0 1d 7c fe bd a4 26 ac bb 09 fb 3f bb 40 94 29 be
       -0.124260165 -0.0052536298 -0.0029293916 -0.16560459
0000e0 d2 e3 fc 3d 8a 1d ac 3d 27 d0 40 be 41 ca 2e 3d
       0.12348141 0.08404072 -0.18829404 0.042673353
0000f0 f5 ba 97 3d 91 6a 02 3c e9 77 16 be 4e 6a c9 bd
       0.07408706 0.007959978 -0.1469418 -0.09834729
000100 12 d5 1e be b6 8f 1e bd 14 3d 79 be 5c d0 fb 3c
       -0.15510967 -0.038711272 -0.24339706 0.030739002
000110 ea f6 25 3d e6 03 42 be 24 29 48 3d a7 d0 8b bd
       0.04051868 -0.189468 0.04886736 -0.06826907
000120 85 aa f9 3d f0 b8 15 be 78 41 3e be 1c ff 59 be
       0.12190727 -0.1462133 -0.18579662 -0.21288723
000130 7a 79 f4 bd 44 ba a3 bd 24 d1 84 3d 6a ee b5 bd
       -0.11937232 -0.07994512 0.06485203 -0.088833645
000140 03 02 c8 bd 5e ce 05 3d 69 75 a2 bd bd 7d 6c be
       -0.09766009 0.03266751 -0.079325505 -0.2309484
000150 76 da 5d bd 07 44 38 be e6 5a 62 bd 82 0c bb 3c
       -0.05416342 -0.179947 -0.05526247 0.022833113
000160 16 ca a8 3d 7f 32 27 3d f3 ef 00 be 0d 87 a4 bd
       0.0824167 0.04081964 -0.12591533 -0.080335714
000170 d2 74 c3 bd 49 a3 ae 3d 05 09 90 bd 83 16 4c be
       -0.09543766 0.08527238 -0.0703297 -0.19930463
000180 68 74 82 bd 88 1e 14 be fa 04 6d 3d 4c 5c b0 bd
       -0.06369859 -0.14464772 0.057866074 -0.08611354
000190 cc 3f 48 3d c6 78 ef bd d1 23 7d 3c 54 ba dc 3d
       0.048888966 -0.116929576 0.015450434 0.10777727
0001a0 c5 a9 eb bd a2 40 3e 3d 32 ba b1 bd 4c 3a 16 be
       -0.1150699 0.046448357 -0.08678092 -0.14670676
0001b0 8c 4b 60 be c0 62 43 bd 8b b3 a7 bb 33 98 df bd
       -0.21903819 -0.047701597 -0.0051178387 -0.109177016
0001c0 8c 94 bd 3c dc 28 0a 3e 31 58 a3 3d 71 7f a6 bd
       0.023142122 0.13492149 0.079758056 -0.08129776
0001d0 ed aa 06 3e c8 d3 b7 3d 3c fc 3d 3b e9 16 07 bd
       0.1315114 0.08975941 0.0028989455 -0.032980833
0001e0 fa 91 cb 3d 01 43 48 3c 40 61 49 3d 3e 79 69 3d
       0.09939952 0.012223006 0.04916501 0.05700039
0001f0 eb d1 d3 bd d7 3c 7f 3b 76 c0 d7 3c 06 7a a6 bd
       -0.10342773 0.0038946175 0.02633689 -0.08128743

gc2.fc.weight f4 [128, 128]
000000 ed c3 4f 3a a4 1b 51 bd 2b 91 a0 38 8b 48 f6 bc
       0.00079256186 -0.05105175 7.656434e-05 -0.030063888
000010 68 29 2e bb 25 f8 08 be b2 19 1e be 38 e3 87 bd
       -0.0026574973 -0.1337591 -0.1543949 -0.066351354
000020 2e 3c bb bd f2 de f0 bc 1c b5 aa 3d 6a 1a e0 bb
       -0.09142338 -0.029403184 0.08335325 -0.0068390863
000030 a5 89 03 be bb 70 ba bc 66 37 13 be d0 1b 85 bc
       -0.12845476 -0.022758832 -0.14376602 -0.016248614
000040 24 23 9a bc 60 20 21 3d 01 1a fb bd 1b 07 79 bd
       -0.018815584 0.039337516 -0.12260819 -0.060797792
000050 f3 9d cd bc a1 3d 82 3d 8d af 19 be 0f 3a 94 3d
       -0.02509973 0.06359411 -0.15008374 0.07237636
000060 f9 bf b3 bd 40 ab ff 3c 0b 94 08 bc 96 c9 08 3d
       -0.0877685 0.031209588 -0.008336077 0.033395372
000070 99 46 da bd 01 f0 c6 bd da 6a 68 bd 29 e8 4c 3d
       -0.10657997 -0.09713746 -0.056742527 0.050026093
000080 e9 5d 52 bd 2e 7c 1a bd 5c 27 15 be 7b cb 89 bd
       -0.05135909 -0.037716083 -0.14565796 -0.06728264
000090 f2 8b 1b be 15 fe 0f 3a be 66 18 be 2d 85 84 be
       -0.15190104 0.0005492878 -0.14882943 -0.25882855
0000a0 a4 e1 62 3c 70 60 e5 3b 19 a0 bf ba 63 7d 8c bd
       0.013847742 0.0070000216 -0.0014619856 -0.06859853
0000b0 af 12 fa 3d bd 63 49 3d 03 a9 4f bd 8d 6c ad 3b
       0.12210595 0.049167383 -0.05069829 0.0052924813
0000c0 bb 91 a4 bd 84 5b 23 3d 76 94 fa bd 8c ee 16 be
       -0.080356084 0.039882198 -0.12235348 -0.14739436
0000d0 ef 06 92 3d ee 90 e9 bd 91 8d ea 3c 45 ec 3e 3d
       0.07130229 -0.11404596 0.028631957 0.046612043
0000e0 ad 6f ac 3d 06 99 b2 3d e9 10 d2 bd 99 48 37 bd
       0.08419738 0.08720593 -0.102571316 -0.04474697
0000f0 92 de 71 3c 2e 0f c9 3c 5e 4c b4 3c 52 ff 41 bc
       0.014762538 0.024543371 0.022009071 -0.011840658
000100 d7 d0 66 3d 49 f9 44 3d 01 28 66 bd 1d a1 d0 bd
       0.05635151 0.0480893 -0.056190494 -0.1018698
000110 71 51 63 3d 6c 4f d3 bd d5 c6 99 bd ce 68 89 bd
       0.05549759 -0.10317883 -0.07508627 -0.06709443
000120 a3 f2 8b bd e4 9f 19 3d 1f 50 1e bd 08 f0 e5 bd
       -0.06833389 0.037506 -0.03865063 -0.11227423
000130 8c 4f e4 3d 25 32 15 bd b5 9a 94 3d 22 f0 f0 bc
       0.11147985 -0.036424775 0.072560705 -0.02941138
000140 f3 54 a7 3d c0 40 9b bd f9 bd 6b bc a7 da ea bb
       0.081705 -0.075807095 -0.014388555 -0.0071671787
000150 ad 15 49 bd 08 7a c8 bd 18 80 58 bd 79 bc f5 bd
       -0.049092937 -0.097889006 -0.052856535 -0.11998839
000160 ed 7a 3f 3d 18 b0 a6 3d 5f 03 59 3d 5a 6a 9a bd
       0.04674809 0.08139056 0.05298173 -0.07539816
000170 7d c7 d6 bb 35 08 84 bd dc 75 96 bd 73 e8 81 3d
       -0.0065545426 -0.06446878 -0.07346699 0.06343164
000180 0a b7 83 3c 30 ae de bd d0 07 09 be f4 45 32 3d
       0.01607849 -0.108730674 -0.13381886 0.043523744
000190 fd 18 55 3d 4e 8e 11 bd 36 e2 5e 3d 71 b8 38 be
       0.052025784 -0.035536103 0.05441495 -0.18039109
0001a0 92 70 48 be a0 91 31 bd 0f 6b 6d bd d9 03 e9 bd
       -0.19574192 -0.04335177 -0.057963427 -0.11377687
0001b0 5e 7e 06 bd 36 d7 30 bd f4 49 6b 3c 99 c2 0d be
       -0.032835357 -0.04317399 0.0143608935 -0.13843764
0001c0 6e 31 ab 3d 24 d8 86 bd c8 88 c8 3d 13 b2 a9 3d
       0.08359037 -0.06584194 0.09791714 0.08285918
0001d0 78 c0 6f 3d 16 9a b5 bd c8 9d 1e be eb 5e f7 bc
       0.058533162 -0.0886728 -0.15489876 -0.030196628
0001e0 b9 5b 98 3d a2 3b ae bd 7a 3b 8c bd f7 f0 6a bd
       0.0743937 -0.08507468 -0.06847282 -0.05735871
0001f0 c5 67 c8 bd 27 fd ac bd 76 ba b8 3c 75 89 58 3d
       -0.097854175 -0.084467225 0.022549849 0.052865464
000200 55 45 7b bd c8 13 aa 3d a0 8d f5 bb 5b ac 0c be
       -0.061345417 0.08304554 -0.0074936897 -0.13737623
000210 6b e1 86 bd a9 93 19 be 8d cf b4 bd ea ea 44 be
       -0.06585964 -0.14997734 -0.0882865 -0.19230238
000220 90 9c 64 bd 53 bf 12 be 87 c4 68 bd 90 7c 8d 3c
       -0.055813372 -0.14330797 -0.056828048 0.01727131
000230 52 eb 38 be 63 64 29 bd b3 17 d1 bc 76 23 da 3d
       -0.18058518 -0.0413555 -0.025523996 0.10651295
000240 47 e4 86 bd 38 15 e3 bc df 8c 69 bd 2b 51 9d 3d
       -0.06586509 -0.027720079 -0.05701911 0.07681497
000250 c1 3a ec 3d 3d 84 eb bb f4 b2 07 be 85 63 5c bd
       0.11534644 -0.007187395 -0.13251859 -0.053805847
000260 c7 ef d5 bd 28 22 1e be 43 69 06 bd 16 3f 38 bd
       -0.104461245 -0.15442717 -0.03281523 -0.04498204
000270 e0 ad dd bd 05 46 4a bb de b8 6e 3c 1c 32 97 b9
       -0.1082418 -0.0030864489 0.014570443 -0.000288383
000280 30 4f 37 be 28 83 8c 3d 5c 70 1a be b9 f7 13 3d
       -0.17901301 0.068609536 -0.15081924 0.03612492
000290 2f 30 9a bd 17 24 70 3c 8e 64 c8 bd 18 d4 20 3c
       -0.075287215 0.014657042 -0.09784804 0.009816192
0002a0 eb d8 ad bc 21 65 b0 3b f0 14 a0 bd 1a b6 46 be
       -0.021221599 0.0053831493 -0.078164935 -0.19405404
0002b0 64 13 f9 bc 72 42 e4 bd 0e 0c 78 ba 7e fb 23 be
       -0.030404754 -0.11145486 -0.00094622455 -0.16013905
0002c0 46 32 a8 bc e6 cb 56 bc b3 f3 f8 bc d9 89 6a be
       -0.020531785 -0.013110137 -0.030389642 -0.22904147
0002d0 42 09 c6 3c 30 97 36 3d 8d 97 d9 bc f9 c2 d6 bd
       0.024174336 0.044577777 -0.026561523 -0.10486407
0002e0 da 67 85 3d 0f 84 49 bd 66 fd 02 be 05 9b e9 bd
       0.06513949 -0.049198207 -0.12791976 -0.11406521
0002f0 ac 7b 9b 3a 0d da 25 bd cf 69 9d bd 86 25 12 be
       0.0011862419 -0.040491153 -0.07686197 -0.14272127
000300 d0 68 e2 bd ee fe b8 bc 6c ff 22 bd fa 5d 8c bd
       -0.11055148 -0.022582497 -0.03979437 -0.06853862
000310 d5 8e bd 3d 55 9c 09 bd 73 ad 36 be cb 26 bf bd
       0.09255759 -0.033596355 -0.17839603 -0.09333571
000320 da 09 61 bd d7 40 5d 3d c4 54 94 bc 91 67 59 be
       -0.054941036 0.054016914 -0.018106826 -0.21230914
000330 30 0c eb 3c c8 de 5f bd af eb df bd d3 af 2e bc
       0.028692335 -0.05465582 -0.10933625 -0.010662037
000340 86 77 ad 3c 10 f1 b3 3a 67 46 40 3b 8c e8 ad bd
       0.021175157 0.0013728458 0.0029338838 -0.084916204
000350 4c 9b a2 3c ed bb 9f 3b 91 08 cd 3d dc b2 33 bd
       0.019849442 0.0048746974 0.100113995 -0.043871745
000360 d4 2d 9d bd 70 15 de bc 45 e2 a1 bd ef 64 28 be
       -0.07674757 -0.027109832 -0.079044856 -0.16444753
000370 4d 86 a1 3c 74 e2 99 3c 4f f5 c6 bc b9 fa ec bb
       0.01971736 0.01878474 -0.024286894 -0.007232037
000380 8d 4b c3 bd b4 89 60 3b b5 eb 74 bd f2 74 f6 bd
       -0.095358945 0.0034261765 -0.0597951 -0.12034024
000390 6e bf cc bc a4 7e f3 3c 80 88 54 bd 3f b4 db bd
       -0.024993625 0.029723473 -0.05188799 -0.107277386
0003a0 85 76 a7 3c 46 d4 52 bb d3 18 01 3c e9 dc 34 be
       0.020442257 -0.0032169982 0.007879454 -0.17662396
0003b0 6d 0f 98 bd 50 1a c3 3c 50 3f 25 3d 91 e6 57 3d
       -0.07424817 0.023816258 0.040343583 0.05271012
0003c0 2c 34 88 bd e2 bb 8f bd bc f8 5e bd a3 b3 96 bd
       -0.06650576 -0.07018258 -0.05443643 -0.07358482
0003d0 e7 56 51 bd 8b 29 96 3d 3b c0 8a bc 51 14 0c be
       -0.051108267 0.073321424 -0.016937366 -0.13679625
0003e0 6e c9 24 bd 98 04 71 3b 73 1b c4 3c 90 0e cf bd
       -0.04023116 0.003677642 0.02393887 -0.101101995
0003f0 df 22 2e be c3 94 99 bc 13 a6 89 3d f1 ec a9 bd
       -0.1700549 -0.018747693 0.06721129 -0.08297146

gc2.fc.bias f4 [128]
000000 45 16 59 3d 2f cd 8b bd 8f c2 79 bd 78 03 76 3d
       0.052999754 -0.06826245 -0.06097656 0.0600619
000010 32 ea a5 bc c6 c0 36 be 40 01 28 3c d1 59 e9 ba
       -0.020253275 -0.17846975 0.010254204 -0.0017803257
000020 07 56 c6 3b 81 d5 99 bd 86 70 aa bc f4 6b 45 bc
       0.0060527357 -0.07511426 -0.020805608 -0.012049664
000030 0a 48 19 be 43 a5 44 bc 1d c1 4a 3d 3b c7 59 bc
       -0.14968887 -0.012002292 0.049500573 -0.013292129
000040 c4 73 0a be 76 8b 6f 3d 85 9d f9 bb 07 18 18 bd
       -0.13520724 0.05848261 -0.0076176547 -0.03713229
000050 89 48 89 3d 5f cc 90 bd 21 3b 43 bc b2 d0 d8 3d
       0.06703288 -0.07070231 -0.011915953 0.105866805
000060 17 77 a9 bd a0 b2 66 bc 68 71 97 bb 28 7a 3d be
       -0.08274668 -0.014080673 -0.0046216734 -0.1850363
000070 c7 ed f2 bd 66 cd e8 bd 48 0d f2 3d 0d 13 38 be
       -0.11861759 -0.11367302 0.118189394 -0.17976017
000080 67 8d df 3d 45 ab a0 bd ca 20 30 bd 2f 00 d8 3d
       0.10915642 -0.07845167 -0.04300002 0.1054691
000090 6b 27 18 be 83 a0 3a bd d2 0e d9 bd 8c 8c 0f be
       -0.14858787 -0.045563232 -0.1059853 -0.14018458
0000a0 f5 6d 9e 3c d1 e9 15 be a4 1c 74 bd 2a 4b a0 3d
       0.019339541 -0.14639975 -0.059597626 0.078268364
0000b0 f8 e6 35 3d ab 1a ba bc 02 df ab bd c9 03 e2 bc
       0.044409722 -0.022717794 -0.08392145 -0.027589696
0000c0 19 ee 3d bd aa b7 ce 3c a2 d7 a0 bd d1 84 77 3d
       -0.046369646 0.025234062 -0.07853629 0.060429398
0000d0 73 c4 3f 3d a1 e1 6c 3d 90 d0 38 3c 5a e9 44 be
       0.046818208 0.057832364 0.011280194 -0.19229642
0000e0 1e 6c 8a 3d b2 d1 13 bd 52 6f fc 3b a9 42 96 3d
       0.06758903 -0.036088653 0.0077037 0.07336933
0000f0 d2 02 2d bc 70 c2 4c 3d 48 41 35 be c7 90 23 bc
       -0.010559754 0.049990118 -0.17700684 -0.009983248
000100 32 2e 01 be 41 e3 10 bd 87 65 30 bd 72 2e 24 3d
       -0.12615278 -0.035372976 -0.043065574 0.040083356
000110 88 91 b5 3d d7 b4 42 3d d4 87 e0 bd 86 0e dc bd
       0.088656485 0.047535744 -0.10963407 -0.107449576
000120 c7 fe 84 3d 5f 41 f1 3c 47 18 13 bd 0c a8 8c 3a
       0.064939074 0.029450117 -0.035911825 0.0010731234
000130 00 79 a7 bc ca b7 a3 3d 9e cb 23 3d c6 e1 9c 3d
       -0.02044344 0.07994039 0.039989106 0.0766025
000140 28 8f fa bd 5b 11 54 3d bd 1b 2d 3d 0e de 3a be
       -0.12234336 0.051774364 0.04226278 -0.1824877
000150 06 47 ff bd 2d 72 3f bd 17 3a 97 bd 1b aa 29 bd
       -0.124647185 -0.046739746 -0.07384127 -0.04142199
000160 d1 ad 96 bd 1a 6f fb bc f3 86 b3 3d 2a ed 1e bd
       -0.073573716 -0.030692626 0.08765974 -0.038800396
000170 0a 65 a3 3d 52 6c 10 bd 79 94 5a 3d 83 51 a1 3d
       0.07978256 -0.035259552 0.05336425 0.07876875
000180 a9 8c 5a bd 43 41 15 bd 4b a6 88 bd e9 d2 0f 3c
       -0.0533568 -0.03643919 -0.06672343 0.008778312
000190 ba 48 9a bd 55 19 be 3d 31 e2 4e 3c f0 af 09 be
       -0.07533403 0.092821755 0.01262717 -0.13446021
0001a0 88 2b 09 bd cb 5f c6 3d c5 2d b9 3c 9c 4b 25 3d
       -0.03348878 0.0968624 0.022604832 0.04035531
0001b0 c5 e1 fc bd 4f 67 d6 3c 1f e4 8e 3d 6b 82 52 3b
       -0.123477496 0.026172308 0.069771044 0.0032121192
0001c0 ca ef 22 3d d1 3d 04 bd 0a f2 c6 3d c8 40 2d be
       0.039779462 -0.032285515 0.09714134 -0.16919243
0001d0 cd 24 4d 3d 81 de 24 3d 27 5d bb bc 38 4e 1c be
       0.050083924 0.04025126 -0.022871567 -0.15264213
0001e0 df 88 ab 3c 28 2f e2 bd 9d 01 03 be 3a 74 c8 3d
       0.020939289 -0.110441506 -0.12793584 0.097877935
0001f0 66 8e df bc 1b 49 21 bd e5 5d 2b bd fa 30 b9 bd
       -0.02728958 -0.03937636 -0.04183759 -0.09042545

temporal_conv.weight f4 [128, 128, 3]
000000 85 4b 8a bd fc 01 0d be 44 d5 30 3d 16 24 9d 3c
       -0.067526855 -0.13770288 0.043172136 0.019182246
000010 69 52 f3 bc 71 29 33 3d d0 c5 8c bd 61 74 63 bd
       -0.029702382 0.043740693 -0.06873667 -0.05553091
000020 a9 c0 9e 3c 28 93 3b bd f3 42 36 3d 7c 17 d8 bb
       0.019378977 -0.045794636 0.04449744 -0.0065945964
000030 a7 20 8f bd 00 df 1f be ca e3 7b 3c f6 0c 28 3d
       -0.0698865 -0.15612411 0.015374133 0.041027986
000040 8f 9c 5b 3d 78 85 03 3d 06 9f 80 bc 93 b0 48 3d
       0.053616103 0.032109708 -0.015700828 0.04899652
000050 ca c8 d4 bc 21 2f 48 3d 56 f0 87 bc 1f 68 ac 3c
       -0.02597465 0.04887307 -0.016594093 0.021045743
000060 44 51 b3 bd 4a 34 df bc da b4 fc 3c f5 38 3a 3d
       -0.087557346 -0.027246613 0.030847955 0.045464475
000070 f1 7d 6d bc 7a 27 49 3d 54 75 77 bd ca c3 2b bd
       -0.014495359 0.049109913 -0.060414627 -0.041934766
000080 69 6d ff bc 6c 53 a9 3c ca 0e 1d 3d 6f 7b ec bc
       -0.0311801 0.020669661 0.038344182 -0.028867451
000090 08 54 54 3b e5 42 0b 3d aa 93 b5 bb c5 9e 24 3d
       0.003239872 0.033999342 -0.0055412846 0.040190477
0000a0 8f b6 4f 3d 29 41 af 3c 2d 8a 24 3e f4 6a 87 3d
       0.05071121 0.021393375 0.16068335 0.066121966
0000b0 f8 7c 1e 3d bb 27 15 bd 8e 4a 8f bd b1 14 52 3b
       0.0386934 -0.036414843 -0.06996642 0.003205579
0000c0 d9 47 cf 3d d7 e1 80 bc 71 7c 4f bd f6 b1 b8 bd
       0.10121126 -0.015732689 -0.050655786 -0.09018318
0000d0 85 cf fe 3b 8d 22 e3 3b d4 d5 b2 3c 39 b0 60 bc
       0.007776203 0.006931609 0.021830477 -0.01371389
0000e0 82 cc a4 bc 00 0a 6c 3d 78 63 38 3d 6e 47 00 bd
       -0.020117048 0.057626724 0.045016736 -0.03131812
0000f0 2c 6a 6b bc 04 21 1d 3d 80 10 55 bc 37 06 37 3d
       -0.014368575 0.038361564 -0.013004422 0.04468366
000100 8c 05 4b 3c 85 3e 1d 3d 47 3c a9 bd bf a8 ce bd
       0.012391459 0.0383897 -0.0826345 -0.100907795
000110 3b 7c 23 bd 0d 3a 2b bd 11 6b d4 3c 0b 4d 24 bd
       -0.039913397 -0.04180341 0.02592996 -0.040112536
000120 59 39 cf 3d a4 24 46 3d 85 52 34 bd 1e 0c ad bb
       0.1011836 0.048374787 -0.04402401 -0.0052809855
000130 61 03 ab bd 88 61 29 bd f6 47 ed 3c 9a 3e 1a bd
       -0.08350254 -0.04135278 0.028964978 -0.037657358
000140 94 4a 33 3d 7c 67 0b 3e 87 3a 92 3d 1d cc 34 3d
       0.043772295 0.13613695 0.071400695 0.04413997
000150 27 8b b7 bc cb a4 f1 bc 44 f0 ee bc db 2e f7 bd
       -0.02240522 -0.029497525 -0.029167302 -0.12069484
000160 44 36 23 be e9 0b 16 3d a6 fc c8 bd fa 65 ec bd
       -0.1593867 0.036632452 -0.09813814 -0.11542888
000170 96 05 81 bc ee e1 aa 3b 95 02 14 bd 63 b9 3a bc
       -0.015749734 0.005214921 -0.036135275 -0.011396739
000180 40 b2 88 bc af b0 1d be 01 8d 3e bc cf 61 25 3d
       -0.016686559 -0.1539943 -0.011630298 0.04037648
000190 07 61 6a 3d f9 09 25 bd b0 96 8f bc 83 a7 64 bd
       0.05722144 -0.040292714 -0.017527908 -0.055823814
0001a0 fa ce dd 3c c2 05 78 bd dc be 76 bd 3f eb 8b 3b
       0.027076233 -0.060552366 -0.06024061 0.004269987
0001b0 19 b3 e7 bd 32 bb 98 3c f2 96 0a bd 82 88 c9 bc
       -0.11313457 0.01864395 -0.03383536 -0.024601225
0001c0 8e 3c 37 bd ff 9f 4b bd 53 13 a5 bd b5 a1 46 3c
       -0.044735484 -0.04971313 -0.080603264 0.012123515
0001d0 05 88 4c 3d 9d 2a 5b 3d 93 36 54 bc 56 42 dd 3c
       0.049934406 0.053507436 -0.012952465 0.02700917
0001e0 35 fd b3 3c 55 0f c1 bc 08 8f b1 bb 4f 32 cf 3d
       0.021971324 -0.023566881 -0.005418662 0.101170175
0001f0 6e 7a 02 3d 32 2b fc 3c 5e cf 79 bc 65 bb ef bd
       0.03185504 0.030782316 -0.015247194 -0.117056645
000200 c5 9f 33 3d fa 66 89 bd 3f be ac bd 63 80 1e 3d
       0.04385354 -0.06709094 -0.08434724 0.038696658
000210 27 2d 16 bd 7f 64 05 bd d8 b0 dd ba a7 6b 05 bd
       -0.036664154 -0.032566544 -0.0016913665 -0.03257337
000220 29 be bb bd d8 b7 e2 3b b8 8a 19 3b 04 fe e4 bd
       -0.091671295 0.0069188885 0.002342863 -0.11181262
000230 9e 30 57 3c 72 36 97 3d 36 af 75 bc 8d b6 c4 3c
       0.01313415 0.073834315 -0.014995387 0.024012828
000240 a7 31 01 3e 24 ea 14 3e a4 93 3f bd 2e 9f 11 3d
       0.12616597 0.14542443 -0.04677166 0.035552196
000250 c1 c5 0d 3c 7f b6 6a 3b ad 29 f8 bc a2 8f ce bc
       0.008653105 0.0035814343 -0.03029331 -0.025214974
000260 32 e8 99 bc 4b d9 ab bb 86 58 a1 bd 0c 70 0f 3c
       -0.018787477 -0.005244409 -0.07878213 0.008754741
000270 66 4d 40 3d d7 6e c5 3c aa 9f 68 3c e4 4a 24 3d
       0.046948813 0.024100704 0.014198223 0.040110484
000280 e9 a4 a9 bb eb b2 da bc 86 c7 b9 3c e7 79 2f 3d
       -0.0051771295 -0.026696643 0.022678148 0.042840865
000290 97 94 0d bd 15 b6 92 3b 50 d6 16 3d 60 4e 28 3d
       -0.034565534 0.0044772723 0.036825478 0.04109037
0002a0 97 34 27 bc 39 6f 29 3c 88 69 29 bd 5a a0 95 3d
       -0.0102054095 0.010341459 -0.041360408 0.07305975
0002b0 6b 5f 3c bd fd 39 41 3d 6f 50 eb 3c 62 6e 80 bc
       -0.045989435 0.047174443 0.028724877 -0.015677635
0002c0 e1 ee 15 3d 53 c0 01 3d 18 d0 be b8 d4 6f 4b bb
       0.036604766 0.031677555 -9.0986665e-05 -0.0031041997
0002d0 64 b2 14 bd c3 07 39 bd 9a cc f0 3c bc 95 76 3d
       -0.03630294 -0.045173418 0.029394437 0.06020139
0002e0 2b 23 1b 3d 4a b8 27 bc 6e 10 0b bd 31 c6 b7 bc
       0.037875336 -0.010236809 -0.033951215 -0.022433372
0002f0 ce b7 e8 bc 2a bf 23 3d fc bc 82 3c bf 7f 04 3c
       -0.028407957 0.03997723 0.015959255 0.008087098
000300 29 83 c2 bc b5 04 29 bc c9 64 0e bd 10 2f 05 3d
       -0.023744183 -0.010316064 -0.034764085 0.032515585
000310 ed a8 27 3c 56 8c d6 3c 7d b3 7e 3d be 2f 1c 3b
       0.010233146 0.026189964 0.062182892 0.0023832167
000320 ba bc f1 3c d8 2c 3f bc d2 d9 32 bd a6 6f 02 3b
       0.029508937 -0.011668406 -0.04366476 0.0019902973
000330 99 19 c5 bc de 17 d3 bd 4e d4 23 bd fa 1f 01 bd
       -0.024060057 -0.10307287 -0.03999739 -0.031524636
000340 d2 ce 1f be e9 19 d6 3c 56 35 93 bd f9 20 69 bd
       -0.1560624 0.026135402 -0.071879074 -0.05691621
000350 e4 b1 2e 3d bb 67 44 3c a7 1b 28 bd aa 96 44 3d
       0.04265012 0.011987622 -0.041041996 0.047995247
000360 be fd 9d 3d 66 3f 95 3d 22 16 29 bc 27 e6 c8 3c
       0.07714413 0.07287483 -0.010320218 0.024523808
000370 f7 fe c3 bc c4 b3 d3 3c 34 51 48 bd 30 f2 42 bd
       -0.023925288 0.025842555 -0.048905566 -0.04759425
000380 97 cc 20 bd 55 5f 86 3b 10 ff 6b bd 13 eb 37 3c
       -0.039257612 0.00410072 -0.057616293 0.01122548
000390 bd c5 ad 3c 3b 43 fa bb 6a 0f a3 3c 85 1f c4 bc
       0.021212453 -0.007637409 0.019904811 -0.023940811
0003a0 f5 8d 00 bb 2b b6 97 bc f6 f0 bc bc bc 9e 33 bd
       -0.0019615863 -0.018519482 -0.023064118 -0.043852553
0003b0 56 1a 2a bd 82 c3 0c 3d 67 a3 5a 3d 6c 72 b3 3c
       -0.041529022 0.03436614 0.05337849 0.021905147
0003c0 9c 9d 11 3e bf 53 f7 3d 9c 50 47 3c 88 36 79 bc
       0.1422028 0.1207652 0.012165215 -0.015210755
0003d0 73 55 80 bd ba 3b 4b 3d 3a 79 0a bc 0a 7e e2 bb
       -0.06266298 0.049617507 -0.008451754 -0.0069119977
0003e0 68 33 d5 3c 51 27 0b 3e 8d f2 fb 3d f1 ab e7 3c
       0.026025489 0.13589217 0.12302122 0.02828023
0003f0 68 2b 1b be 9d c1 20 be 03 87 1f 3d 07 d6 20 3c
       -0.15153277 -0.15698858 0.038947117 0.009816653

temporal_conv.bias f4 [128]
000000 28 2b be bc da f9 9f 3d cd 08 d7 bd bf 2f f6 3d
       -0.023213938 0.07811327 -0.104997255 0.120208256
000010 3b 6d a2 bc 62 fd e4 3d 64 77 ba bd c9 1c b6 3d
       -0.019827476 0.111811414 -0.09104803 0.08892209
000020 49 15 3d bd 1b 6d 90 3d b3 a0 aa 3d 5a e3 0f 3d
       -0.046162877 0.0705206 0.08331432 0.03512893
000030 2c 06 7a bd 1f c7 3c 3d d4 8f 37 bd 65 0a 17 3b
       -0.061041042 0.046088334 -0.0448149 0.0023046967
000040 ef a0 64 3d c2 d5 5d 3d 45 f9 8e 3c ca 02 9c 3d
       0.05581754 0.054158933 0.017452845 0.076177195
000050 74 66 b5 3c 3d 54 c8 bd 4d 27 aa 3c 8d 9d 8d bd
       0.02214358 -0.09781692 0.020770693 -0.06914816
000060 19 99 f3 3c de 1a b6 bd 08 e9 3c 3d f4 56 b1 3d
       0.029736089 -0.08891843 0.046120673 0.08659163
000070 50 e2 e5 bd aa d8 bc ba 02 a6 99 bd 9f 5e 59 bd
       -0.11224806 -0.0014407833 -0.075023666 -0.053068753
000080 d4 b0 61 3d 1a 2b 9d 3c 1f b0 d2 bd 4f a0 00 3e
       0.055100277 0.019185591 -0.10287499 0.12561153
000090 b7 3d 04 be fb ce 4f 3d 35 ae 5e 3c a4 66 96 3d
       -0.12914167 0.0507345 0.013591339 0.07343796
0000a0 6c bd 5b bd 6a 4c 0b 3e 0c a2 df 3c 6c 3c ae 3c
       -0.053647444 0.13603368 0.02729895 0.021269046
0000b0 f8 26 89 3d a1 12 4a 3d 31 f6 54 3d 72 e2 85 3d
       0.06696886 0.049334172 0.0519926 0.06537332
0000c0 0a fb 8c bd 74 53 06 3e 15 71 e1 bc 78 d6 04 3e
       -0.068838194 0.13117772 -0.027519742 0.12972438
0000d0 14 4e 61 bd f2 f7 eb 3d b8 98 67 3d 84 87 b4 bd
       -0.0550061 0.11521901 0.05654213 -0.0881491
0000e0 d7 d1 38 bd 1a 83 9a bd a2 65 b4 bd 57 fc 00 3e
       -0.045121994 -0.07544537 -0.088084474 0.1259626
0000f0 98 e8 56 3d 1c 34 31 3c 0d 34 31 3d 1e 48 f1 3d
       0.052467912 0.0108156465 0.04326253 0.117813334
000100 e2 b2 ef 3d fc 86 8c 3d 6a 77 10 be ef ef 24 3d
       0.11704041 0.06861684 -0.14108053 0.04026788
000110 90 cd 60 3d 52 ef ef 3d 85 c2 93 3d 39 69 e7 3d
       0.05488354 0.117155686 0.07214836 0.112993665
000120 e3 d2 80 3d 53 95 f3 3d 5a f5 a4 3c c8 57 ef 3d
       0.062902234 0.11893716 0.020136524 0.11686665
000130 ea 1f 6e 3d 28 32 12 3d 3b a5 10 bd 41 11 e9 bd
       0.058135904 0.035692364 -0.035313826 -0.11380244
000140 26 43 a2 bc b7 3f 76 bc df a1 d7 3c 30 b1 8a bd
       -0.01980741 -0.015029839 0.026322303 -0.06772077
000150 fb c5 13 bc 1a 80 b6 3b 26 de c6 3d 47 72 6b 3d
       -0.00901937 0.00556947 0.0971034 0.05748203
000160 ea 3e 8f 3d 65 31 57 bd 10 83 97 3d 16 4a a6 3d
       0.06994422 -0.05253734 0.07398045 0.081195995
000170 50 43 1a 3d d5 0e 77 bc 43 ec 31 3d 3d a6 47 3d
       0.03766185 -0.01507922 0.043438207 0.04874252
000180 22 ec 1f 3d c5 b4 da 3d 82 e3 09 3e 8b b4 a6 bd
       0.039043553 0.1067901 0.13465694 -0.081399046
000190 76 c9 1e 3d 40 be c4 bd 8f 54 93 3d e4 67 13 3e
       0.038766347 -0.096066 0.07193863 0.143951
0001a0 3f 86 a2 3d 25 c7 04 3d 52 54 98 3a e7 b5 51 3d
       0.07935762 0.03241648 0.0011621809 0.051198866
0001b0 08 29 1b 3e 62 98 98 bd fd 54 13 3d 54 1e 16 3e
       0.15152371 -0.0745094 0.035969723 0.14660007
0001c0 6c 5c a7 3d 02 66 ad 3a 9d 20 7d 3b c1 d7 a1 bd
       0.08171925 0.0013229253 0.0038624175 -0.0790248
0001d0 e3 d4 0f 3d a3 b2 c9 3d 8f 8f d9 3c 01 a1 d7 bd
       0.035115134 0.098485254 0.026557712 -0.10528756
0001e0 26 27 87 3d 2b 74 d0 bd 75 37 d9 3b 5c 2c 8c 3d
       0.06599264 -0.10178407 0.0066289254 0.068443984
0001f0 93 4f 95 3d c2 b4 ba 3d d2 91 88 bd d2 8f 88 3d
       0.07290568 0.09116508 -0.06668438 0.066680565

fc.weight f4 [30, 128]
000000 6d c2 d8 bb bd d0 b0 ba 9a c7 e5 3c 1b 3d 65 bc
       -0.0066149742 -0.0013489943 0.028049279 -0.013991619
000010 81 8a 9a bc 9e 7c e6 bd 13 88 8b 3c 95 09 ad 3d
       -0.018864872 -0.112542376 0.017032659 0.08449093
000020 0c 14 89 3c 54 49 1c be 3a 19 cc bd a4 4b 4e bc
       0.016733192 -0.15262347 -0.09965749 -0.012591276
000030 ce e8 39 bc 03 98 e7 3c 74 2c cb 3d 42 69 f8 3d
       -0.011347009 0.028270727 0.09920588 0.12129451
000040 c3 c4 03 bd 16 50 db bc fc 1c dd bc 02 18 69 bd
       -0.03217007 -0.026771586 -0.02699136 -0.05690766
000050 34 9a 84 3c a3 55 81 3d d5 ab 5e 3d 1f 3f 95 3d
       0.016186811 0.06315162 0.05436309 0.0728743
000060 d5 1c 0a 3e c1 f3 dc bd c1 9c d9 bc ae 9e 6b 3c
       0.13487561 -0.1078868 -0.026564004 0.014381094
000070 a0 e2 bc bd ef 9a f7 3d 0a d6 a0 bd 1d 46 5f 3d
       -0.09222913 0.12090098 -0.07853325 0.054510225
000080 bb f6 e4 3c f3 96 c4 3d b6 bb 8f 3d 84 b9 d3 bc
       0.027949682 0.09599104 0.07018225 -0.025845297
000090 52 6f af 3d 28 5d 00 bd d9 21 c2 3d 22 8c a1 bc
       0.085661545 -0.03133884 0.09479112 -0.01972014
0000a0 d7 83 d0 3d 50 d5 14 bd 3e 82 0a be ae ee 00 3d
       0.101813965 -0.036336243 -0.13526246 0.031477623
0000b0 df 34 fd 3b ed d4 a7 bd 1a a0 a1 bd ba b2 c0 3d
       0.00772725 -0.08194909 -0.07891865 0.094090894
0000c0 f9 45 7a 3d 42 95 94 bd 13 ff cd 3d 23 7a 73 bc
       0.061101887 -0.07255031 0.10058417 -0.014860663
0000d0 07 8a 95 bb b4 86 82 be 9f fa d9 bd e4 a5 98 bd
       -0.0045635733 -0.25493395 -0.10643505 -0.07453516
0000e0 ea 6b 0d be 15 76 d7 3c de 91 ba 3b 06 cf 51 3d
       -0.13810697 0.026301423 0.0056936583 0.051222824
0000f0 db d1 25 3e 7c 53 11 bd 74 06 1e bd 35 4d 39 3c
       0.16193335 -0.035480008 -0.038580373 0.0113099115
000100 a3 19 a7 bd 04 02 9e bc 7d de bd 3d 18 f5 c9 3d
       -0.08159187 -0.01928807 0.09270952 0.09861201
000110 88 e6 fb 3a 1c 00 58 bd b2 49 97 3d 2a 84 00 3e
       0.0019218484 -0.05273448 0.07387103 0.12550417
000120 ae 31 43 be ce dc a5 3c 12 a4 c9 3c 50 bf 40 3d
       -0.1906192 0.02024689 0.024614368 0.04705745
000130 dd 07 43 bd 16 3d 81 bd a2 cc 24 3d 44 56 3f 3d
       -0.04761492 -0.06310479 0.040234216 0.04671313
000140 75 c0 53 3d 41 05 6a bd 9b 00 33 be 7b d1 c0 3c
       0.051697213 -0.057133917 -0.174807 0.023537388
000150 23 6f 74 3d ca b5 21 bd 20 5f bb bd f4 e5 ee bd
       0.0596763 -0.03948001 -0.09149003 -0.11664954
000160 4f 5a 2a 3d 43 4c 0a bd 7e dc 82 bd 07 b3 37 bd
       0.04159003 -0.033764135 -0.06389712 -0.04484847
000170 64 e6 c8 bd 2b be d0 bc 86 0b c6 bc cc 28 99 bd
       -0.098095685 -0.025481304 -0.024175417 -0.074784845
000180 a9 5d 69 bd de 83 53 bd 1a aa a0 bd 07 39 83 bd
       -0.056974087 -0.05163943 -0.07844944 -0.064073615
000190 94 32 83 bd 63 0a 8b bb 18 97 eb 3b 8e be f3 bd
       -0.064061314 -0.0042431816 0.0071896426 -0.1190158
0001a0 b8 93 0f bd d4 a6 97 3d fa 60 1a bb be 5c 0c 3e
       -0.035052985 0.07404867 -0.0023556338 0.13707253
0001b0 e7 0c ce bd 4d 61 e1 3c ab 58 7a bd ad 8e 5f 3c
       -0.10061055 0.027512217 -0.061119717 0.013644856
0001c0 a2 22 a1 3c ab cd 1a bd 31 91 0c 3d 23 83 ee bb
       0.019669835 -0.037793797 0.034318153 -0.0072788163
0001d0 ec 7f 05 3d c8 71 16 bd 0a 19 3d bd 9c 35 10 3d
       0.0325927 -0.036729604 -0.046166457 0.035207376
0001e0 cc 36 b2 3d cd e1 14 be c6 b7 14 3b 43 f7 52 3e
       0.08701858 -0.14539261 0.0022692545 0.20602135
0001f0 c2 df 8c 3d 95 01 e7 bd 10 e9 4d bb 31 2f 2e be
       0.06878616 -0.112795986 -0.0031419434 -0.1701019
000200 86 9c ef 3d e6 a5 83 bd 45 8c 02 3e 1f 78 50 bd
       0.11699776 -0.06428127 0.12748821 -0.050895806
000210 b1 9a ff 3d 3e 1c c8 3b 24 2d e6 3c a6 d9 46 bd
       0.12480677 0.0061068824 0.028097697 -0.04854741
000220 59 eb 24 be 4c f2 13 bd 91 05 cb bd 54 d7 cc bd
       -0.16105403 -0.036119744 -0.09913171 -0.10002008
000230 b6 77 bc 3c 90 e6 10 bb 1d 29 24 3d 93 81 27 bd
       0.023006301 -0.0022110082 0.04007827 -0.040895056
000240 d3 59 9d bd 94 eb 97 bd 89 0b cc 3d 8a 37 d0 bd
       -0.07683148 -0.0741798 0.09963138 -0.10166843
000250 8b 0b 35 bd 25 86 c6 3c 2d fa e1 3d a0 d3 ad bd
       -0.04420046 0.024233887 0.11034045 -0.0848763
000260 1a af 48 3d 24 da a5 bd c8 43 9e 3d a7 f7 38 3d
       0.048995115 -0.08098248 0.07727772 0.045158055
000270 be 1b d1 3b e0 06 06 bd 62 7c e1 3d ea c3 01 be
       0.006381481 -0.0327214 0.11010052 -0.12672392
000280 a2 12 86 bc 76 ce bf bc 3f 05 75 3c af c8 16 3e
       -0.016366307 -0.023413878 0.014954864 0.14724992
000290 fd 0b d5 bd d8 40 35 3d 32 fd 56 3b 3a d2 16 3d
       -0.10402677 0.044251293 0.0032804725 0.03682158
0002a0 24 2b 31 3c 1d b0 d3 bd e8 b1 04 bd 62 8d d3 bc
       0.010813508 -0.10336325 -0.032396227 -0.025824253
0002b0 94 bb 4c bd 75 0f 9d 3c f9 32 66 3d 3f c0 87 3c
       -0.049983576 0.01917241 0.056200955 0.016571162
0002c0 c7 a0 f6 3c ec 56 1c be b0 d3 94 3c fd 91 ca bd
       0.030105961 -0.15267533 0.018167347 -0.09891126
0002d0 5c 61 dd bc e0 78 21 3e fc 26 0a 3e e2 a3 1d 3e
       -0.027023964 0.15768766 0.13491434 0.15394548
0002e0 31 e9 0e 3d e8 65 e8 3b 23 62 ad 3d eb 43 ac bd
       0.034890357 0.0070922263 0.08465984 -0.08411392
0002f0 18 d2 40 bd 28 e1 7e 3c 59 b9 0a 3d b2 06 a2 bd
       -0.04707536 0.015556611 0.033868168 -0.07911433
000300 5c b2 68 bd 18 fb 63 bd 10 fb a5 ba ec 27 b9 3d
       -0.05681072 -0.055659384 -0.0012663323 0.090408176
000310 e4 9b 8e 3d 9b b1 71 bd 27 57 9a bc 4a da c7 bd
       0.069633275 -0.05900727 -0.018840386 -0.09758432
000320 57 ce 7e 3d b5 04 8e bd 9f ea 6f 3d 9b 89 b7 bb
       0.0622085 -0.069344915 0.05857336 -0.0056011206
000330 62 50 f5 3b fa b3 1e 3d 98 3f 96 3d 5e f1 8f 3d
       0.007486389 0.038745858 0.07336348 0.07028459
000340 81 ef 20 be c7 67 13 be 94 84 1f 3d d4 0d 82 bd
       -0.15716363 -0.14395057 0.038944796 -0.06350294
000350 79 1d 62 3d ce 9d 8a 3d b2 83 03 3b 51 92 f9 bd
       0.05520389 0.0676838 0.002006751 -0.12186111
000360 00 82 34 3d f6 78 d0 3d fc 38 57 3d 7c 1c e6 bd
       0.04406929 0.101793215 0.05254458 -0.11235902
000370 18 23 12 bd 2d 33 90 3d 92 ae 20 3e 89 73 e3 3d
       -0.035678 0.07041011 0.15691593 0.11106021
000380 9f 4a a2 3d 1b b4 df 3d f7 fa 6d bd cc 0a b2 3c
       0.07924389 0.10923024 -0.058100667 0.021733664
000390 af 8b 5c bc 48 1f 83 bd 0d b8 19 3d f3 49 49 bd
       -0.013461038 -0.06402451 0.03752904 -0.04914279
0003a0 06 d7 1f bd 44 23 fb 3c e6 61 82 bd f0 fa f9 bc
       -0.03902342 0.030656464 -0.06366329 -0.030515164
0003b0 7a c9 9f bd 3e 72 ee 3d b5 84 cf bc b1 cd af 3c
       -0.078021005 0.11642884 -0.025331834 0.021460386
0003c0 d3 fc 2b be 80 5e e9 3d dd fb eb 3d ba 06 dd 3d
       -0.16795664 0.113949776 0.115226485 0.107922986
0003d0 6d 0e 05 bd 47 7c fa bd 4e a9 1d bc 79 da 79 3d
       -0.03248446 -0.12230735 -0.009622885 0.060999367
0003e0 24 b7 8f bc a3 fc 00 3e 1f 01 78 bd 6f 93 6a bc
       -0.017543383 0.12596373 -0.060547944 -0.0143173775
0003f0 f3 49 57 3c bb 24 54 3d 2d 53 cd 3d 01 88 83 3c
       0.013140189 0.05179284 0.1002563 0.016056063

fc.bias f4 [30]
000000 60 01 2e bb 55 bf a0 3d de d5 9e 3c 74 7d 53 3d
       -0.0026551113 0.07848994 0.01938909 0.051633313
000010 bd fb 2a bc 77 99 16 3c 7f b1 53 3c 0b 20 10 3e
       -0.010435996 0.009191862 0.012920736 0.14074723
000020 f7 b3 0c 3c 0e 9f 8b bc 82 2a 0a 3c 5b 4f 8f bc
       0.008587829 -0.017043617 0.008432986 -0.017493894
000030 07 3d d1 bc 40 6c 91 bc a9 e3 4f 3c 00 57 05 bb
       -0.025541795 -0.017751813 0.012688556 -0.0020346045
000040 46 f4 bd bd a6 9c 36 3c 31 3f 63 bd f8 f5 1a 3c
       -0.09275107 0.011145746 -0.055480186 0.009458058
000050 26 bb 1d bd ac ce ec bd 78 5a c8 3c 4b a1 a7 3d
       -0.038508557 -0.11562857 0.024457201 0.08185061
000060 90 9a a7 bc 8e 2d b7 39 6e 87 20 bd 35 40 37 3c
       -0.020459443 0.0003493842 -0.039191656 0.011184742
000070 cd 07 c4 3c 0e de b0 bd
       0.023929501 -0.086361036
