situation_analysis/best_models/model_window30_horizon10.pth (torch, 924498 bytes, 27 tensors)

adapt_adj f4 [30, 30]
00000000: f150 733f 0a6f 4bbd 88f4 4bbd 83a9 4bbd
00000010: f98c 4cbd 5769 4cbd c1fd 4dbd 0fa5 4ebd
00000020: 5e22 50bd e5f3 50bd eaee 53bd 2436 53bd
00000030: cdb7 4ebd 447b 4fbd 476b 4fbd e7a5 4ebd
00000040: f99a 4cbd 2732 4dbd c199 4bbd d816 4bbd
00000050: a92b 47bd 98ad 40bd 00b7 3fbd 565b 3bbd
00000060: dccf 35bd 8e67 32bd d3fd 2dbd 43b8 26bd
00000070: dd95 1fbd 7098 2bbd 2867 4ebd be17 733f
00000080: ffbc 4ebd c873 4ebd 1125 4fbd 92fc 4ebd
00000090: b88c 50bd 4024 51bd 6833 53bd 15ee 53bd
000000a0: efe8 56bd b958 56bd 2986 51bd 0728 52bd
000000b0: 8522 52bd 8154 51bd 9035 4fbd 43be 4fbd
000000c0: 560f 4ebd e49c 4dbd 9262 49bd be1b 43bd
000000d0: f2f8 41bd 846b 3dbd da81 37bd 7e29 34bd
000000e0: 3fd3 2fbd 240c 28bd 1d24 21bd bb75 2dbd
000000f0: 33d7 51bd e344 52bd c8de 723f e2ce 51bd
00000100: 7c84 52bd e501 52bd 72a7 53bd 7552 54bd
00000110: 6570 56bd d9e2 56bd 8d89 59bd 0553 59bd
00000120: d4fa 54bd fa64 55bd 6d57 55bd 74c8 54bd
00000130: 59b7 52bd 954b 53bd 3ad2 51bd e7ed 50bd
00000140: 017d 4cbd ba31 46bd 1eb7 45bd ea05 41bd
00000150: 5817 3bbd 8b85 37bd 832b 33bd 6398 2bbd
00000160: c480 24bd 8ff3 30bd d7e8 50bd 4742 51bd
00000170: 460a 51bd 9df5 723f b481 51bd 7660 51bd
00000180: 3bce 52bd 7b99 53bd a393 55bd e134 56bd
00000190: dbb4 58bd 4aeb 57bd 19c6 53bd 75c2 53bd
000001a0: 21ac 53bd 05df 52bd c0f8 50bd a168 51bd
000001b0: a951 50bd 208e 4fbd b75f 4bbd 09ef 44bd
000001c0: 6437 44bd 15f0 3fbd 1d48 3abd bdcc 36bd
000001d0: f641 32bd 084b 2bbd b031 24bd a5ab 30bd
000001e0: d119 4ebd 8732 4ebd 3fea 4dbd caca 4dbd
000001f0: ae1a 733f e0be 4dbd aa4f 4fbd fb18 50bd
00000200: 3923 52bd 3e19 53bd b9d5 55bd c8ea 54bd
00000210: 12a5 50bd f5bb 50bd b163 50bd 066c 4fbd
00000220: b064 4dbd 192a 4ebd c3b7 4cbd 01fe 4bbd
00000230: 85de 47bd f66c 41bd 5494 40bd 9240 3cbd
00000240: 54e4 36bd 5871 33bd 6b1e 2fbd 37b5 27bd
00000250: 93d2 20bd 203d 2dbd 958e 4fbd 78bf 4fbd
00000260: c907 4fbd 2ac6 4ebd fe46 4fbd 1d15 733f
00000270: 0f04 50bd 077c 50bd dad5 52bd c8cb 53bd
00000280: 029f 56bd a7d7 55bd 43a8 51bd 9e1f 52bd
00000290: 3595 51bd ffde 50bd 417d 4ebd 8712 4fbd
000002a0: a12e 4ebd dbe5 4dbd 32e1 49bd d4ad 43bd
000002b0: 79ea 42bd 237c 3ebd 2887 39bd 726a 36bd
000002c0: 8508 32bd ac9f 2abd 9aac 23bd 8c49 30bd
000002d0: 892d 4dbd 804c 4dbd 14e4 4cbd fe62 4cbd
000002e0: 6fe0 4cbd 3f84 4cbd 2f22 733f 9f40 4ebd
000002f0: d97e 50bd 7554 51bd ca2f 54bd cf89 53bd
00000300: 4b7f 4fbd de1a 50bd c592 4fbd 9596 4ebd
00000310: 1652 4cbd a905 4dbd e7cb 4bbd 076a 4bbd
00000320: e67c 47bd c29d 41bd cc03 41bd 5778 3cbd
00000330: 3163 37bd 6f64 34bd 2258 30bd d6cf 28bd
00000340: 62a7 21bd c868 2ebd 2a3f 55bd 9ef0 54bd
00000350: f9de 53bd 0f7e 53bd 516e 53bd ca04 53bd
00000360: 4a9b 54bd 0cac 723f aa00 57bd 539c 57bd
00000370: 73cf 5abd 141f 5abd 4101 56bd ffbd 56bd
00000380: 5e74 56bd 57c9 55bd 23c1 53bd 5eaa 54bd
00000390: e89c 53bd 8d58 53bd d03c 4fbd 66ee 48bd
000003a0: c57d 48bd 39e6 43bd 6a82 3ebd 9a71 3bbd
000003b0: f965 37bd 0915 30bd 9b29 29bd f49e 35bd
000003c0: 8b64 4dbd 7511 4dbd ca34 4cbd 1180 4bbd
000003d0: 3470 4bbd d6c3 4abd 750c 4cbd ac85 4cbd
000003e0: c21a 733f 20d5 4ebd 5bd4 51bd 0132 51bd
000003f0: b043 4dbd f9e7 4dbd f8bc 4dbd affa 4cbd
0.9504538 -0.049666442 -0.04979375 -0.049722206 -0.04993913 -0.049905147 -0.050290827 -0.05045038
-0.050814025 -0.051013846 -0.051741518 -0.051565304 -0.050468255 -0.050654665 -0.050639417 -0.050451186
-0.04995248 -0.050096657 -0.049707178 -0.049582332 -0.048625622 -0.047040552 -0.04680538 -0.0457414
-0.044387683 -0.04355579 -0.042478394 -0.04070307 -0.03896128 -0.041893423 -0.050391346 0.949581
-0.05047321 -0.050403386 -0.05057246 -0.05053384 -0.05091545 -0.05105996 -0.051562697 -0.051740725
-0.052468237 -0.052330706 -0.051153336 -0.051307704 -0.05130245 -0.05110598 -0.05058819 -0.050718557
-0.050307594 -0.05019845 -0.04916627 -0.04763388 -0.047356553 -0.046245113 -0.04480157 -0.043984883
-0.04292607 -0.041027203 -0.03934108 -0.042348605 -0.05123062 -0.051335227 0.9487119 -0.05122269
-0.05139588 -0.051271338 -0.05167336 -0.05183645 -0.05235328 -0.052462433 -0.053109694 -0.05305769
-0.05199702 -0.052098252 -0.05208533 -0.05194898 -0.051444385 -0.051585753 -0.05122588 -0.05100813
-0.0499239 -0.048387267 -0.048270337 -0.04712478 -0.04567656 -0.04480509 -0.043742668 -0.041893374
-0.040161863 -0.043201026 -0.051003303 -0.051088598 -0.05103519 0.94906026 -0.051149085 -0.051117383
-0.051466208 -0.051660042 -0.05214275 -0.052296523 -0.052906852 -0.052714624 -0.051702593 -0.05169912
-0.051677827 -0.05148222 -0.051018476 -0.051125173 -0.050859127 -0.05067265 -0.049651828 -0.048079524
-0.047904387 -0.04685982 -0.04547893 -0.044628847 -0.043519937 -0.041819602 -0.04008645 -0.043132443
-0.05031759 -0.050341155 -0.050272223 -0.050242223 0.94962585 -0.05023086 -0.050613083 -0.050805073
-0.051303122 -0.051537745 -0.052205775 -0.051981717 -0.050938673 -0.0509605 -0.050876323 -0.05064013
-0.05014485 -0.050333116 -0.049979936 -0.049802784 -0.048796196 -0.047223054 -0.047016457 -0.045960017
-0.044651344 -0.043809265 -0.04275362 -0.040944304 -0.03926332 -0.04229462 -0.050673086 -0.05071971
-0.050544534 -0.050481953 -0.050604813 0.9495409 -0.05078512 -0.05089953 -0.051473476 -0.051708013
-0.052397735 -0.052207615 -0.051185858 -0.051299684 -0.051167686 -0.050993916 -0.05041242 -0.05055478
-0.050337438 -0.050268035 -0.04928703 -0.047773197 -0.04758689 -0.046505105 -0.04529491 -0.044535108
-0.043465156 -0.04165618 -0.039959528 -0.04303889 -0.050092254 -0.050121784 -0.0500222 -0.049899094
-0.050018724 -0.049930807 0.94974035 -0.050354596 -0.05090222 -0.051105935 -0.051803388 -0.051645096
-0.050658505 -0.050806873 -0.05067708 -0.050436575 -0.04988297 -0.050054226 -0.049755003 -0.049661662
-0.048703097 -0.04726959 -0.04712276 -0.046013203 -0.04477233 -0.044041093 -0.0430528 -0.041213833
-0.03946627 -0.042580396 -0.05206219 -0.051987283 -0.051726315 -0.05163389 -0.051618878 -0.05151824
-0.051905908 0.9479377 -0.052490868 -0.052639317 -0.053420495 -0.053252295 -0.05224729 -0.05242729
-0.05235707 -0.052193966 -0.05169786 -0.051920287 -0.05166331 -0.05159812 -0.050595105 -0.04905548
-0.04894807 -0.04782698 -0.04651109 -0.045762636 -0.044774983 -0.04298881 -0.041299444 -0.044341043
-0.050144713 -0.050065476 -0.04985503 -0.04968268 -0.049667552 -0.04950317 -0.049816567 -0.049932167
0.94962704 -0.05049622 -0.05122791 -0.051073078 -0.05011338 -0.050270054 -0.050229043 -0.050043758

gc1.fc.weight f4 [128, 36]
00000000: 41e7 ff3d 8d92 28bc 8595 06be f4ba b0bd
00000010: 4aa1 8bbd 6af6 3bbc 065a e6bd e47f 95bd
00000020: 858b ac3d 5490 ba3c 9135 123e 1654 f63c
00000030: bfad a4bd 47fb a8bd 0160 013e d273 23bd
00000040: 2e5e d53d 5ee4 9bbd 7d67 93bd 10ae e23d
00000050: 9486 da3d 8cc8 d5bd c7fc da3a 1c91 e63d
00000060: ae02 35bd 657c 2d3e 6d0a 0d3d 082e c43d
00000070: 11da 093e 9fd5 023a 700f f8bd cd6b 983d
00000080: 5383 d3bd 13ef a53d 3b89 733c 2f9e cb3d
00000090: b7ab 0dbe 14e2 813c 5d8e 4fbd fec1 bbbd
000000a0: 9c20 91bd 4b85 24be 718c 2abe 9cac 993c
000000b0: 6a5b 03be 6a01 eebd a9e1 fc3d 4a53 b9bd
000000c0: b87b 57bd be5e 16be 674b 253d 065a f7bd
000000d0: 7da4 1cbe 95c6 89bd 6410 c1bd 2cfe 023e
000000e0: 2f31 04be 7d89 c93d 30c0 383e eba0 193e
000000f0: d3bd 1b3e 1706 ccbd b4e6 3cbd aa2f 1d3e
00000100: 6c22 efbd a40f 50be 2925 203e 6abe ac3d
00000110: 325d 143e 1ed5 0ebe d2f1 9e3d 6d3d ac3c
00000120: f7f2 21be 3839 af3d 13a5 333d 7de4 f8bd
00000130: a1f2 cf3c c799 d6bd ee18 ff3d 6d7c f3bd
00000140: a913 713d 89da 2abe 8f5b df3d 0b0b 65bd
00000150: 9154 7cbd 41ad 123c ea91 1a3e 71ee 54bd
00000160: b624 c3bd 7f25 e43d f79f fa3d fbfc c63d
00000170: 0f58 383d 7840 08be 05c3 3e3d fad7 033e
00000180: 41d9 143e e2ae 0cbe 9447 79bd 609b a23d
00000190: 6383 0bbe aa81 a8bd 2de6 24bc 0a77 f23d
000001a0: 7fa7 9fbd 7b07 72bd de7f b8bd c5e4 26bd
000001b0: 5b6f 0fbd 3b6f af3d f1d8 14be 9650 4c3d
000001c0: ca2e 16be d6cd 27bd b834 863d 5b82 05be
000001d0: a66e acbc 526e 1ebe 4e81 05be acb3 893d
000001e0: f68f 04be ab2a 4cbd 9be6 a83d 60d1 0fbd
000001f0: a5d6 d53d 3700 653d a5ec 9d3d 772d 5d3e
00000200: 7008 f5bd b8cf 7a3d a95b c5bd 8ac3 e53d
00000210: 955f 2cbd 8568 be3d ab73 1a3e dbe1 bcbc
00000220: 6d9f 23bc 5810 993a 5e60 86bd 1bb4 5b3d
00000230: 360f 003d 375a ca3d ad04 bd3c b967 a7bc
00000240: df3f 0d3e abaf 0ebe 617f 513d 9720 17be
00000250: 472d 8ebd 50cc c9bd 43ae 923b 0e4f c53d
00000260: 524b 1c3e 2cc4 ed3d c8b2 8bbd 83bb 293d
00000270: fb82 ac3c 3081 123e 8185 f1bd e8a8 c5bc
00000280: d777 d7bd 249f 0bbe 4355 a7bd c9cd 893c
00000290: 10fd b4bd 4bea a63d c555 c73d f067 65bd
000002a0: 56be 27be 6bc2 ef3b a876 193d 2bf3 b13d
000002b0: edd6 bdbd 32d0 813d 4138 243e 3832 023e
000002c0: ffbe dabd a0a3 31be 427d 283e 6450 ff3d
000002d0: 25bf b13d 9d24 90bd 2c96 ccbc 8b86 2e3d
000002e0: 57a6 e2bb 4713 293e c725 1cbc 60b9 973c
000002f0: 9cc1 d8bd e405 13bd d733 03bc b80c 183d
00000300: 267d edbd 35af 87bd d8dd a3bd 5b5b 043e
00000310: 649b b3bd 2995 c23d cdeb 313e 4eba 4bbd
00000320: 5112 55bd d1e2 f63d 0799 223e db0e 643a
00000330: 34ba 203e 99d4 d9bd cfe1 03bd 8e84 913d
00000340: f9e3 12be aa3d c9bd 706f 593a 0bc0 63bd
00000350: 97ca c9bd 9b4c 06be 1d2d d9bd dbf3 9f3d
00000360: 68bc 1f3e ec75 d73d 0cbf f7bd 4b5d e5bd
00000370: ebca b5bc ce98 84bc ad47 05be 07bd 823d
00000380: 6c15 073e 45c0 03be fa71 813d e11e 4b3d
00000390: 3f27 62bd 9ab7 7a3c 33fc e93c b06c d8bd
000003a0: 8dbe bdbd 8705 46bc d799 49bc 8e51 003e
000003b0: 96b6 303e 1571 c9bd 8fd7 893d 33e0 b53d
000003c0: 03ac cdbd 9965 f83d 3647 afbc de01 38bb
000003d0: ba57 1b3e 0714 9d3c 8a71 1e3e 8006 233e
000003e0: 6619 17be 2c47 debd 6f50 05be c2ed 333d
000003f0: 3e9a 46bd 6b76 b3bd e41a b23d e705 f63d
0.1249528 -0.010288847 -0.13142975 -0.086294085 -0.06817873 -0.011472324 -0.11247639 -0.07299784
0.08425049 0.0227739 0.14278246 0.030069392 -0.08040952 -0.08251052 0.12634279 -0.039905377
0.10418354 -0.07611917 -0.07197473 0.11068356 0.106702 -0.10438642 0.0016707414 0.11258146
-0.04419201 0.16941984 0.03443377 0.09579092 0.13462092 0.00049909385 -0.121123195 0.07442436
-0.103277825 0.081022404 0.014864261 0.099422805 -0.13835035 0.015854873 -0.050672878 -0.091678604
-0.07086298 -0.16066472 -0.16655137 0.018759064 -0.1282784 -0.116213635 0.12347729 -0.09049089
-0.05260822 -0.14684579 0.040355112 -0.120777175 -0.15297122 -0.0672733 -0.094269544 0.12792271
-0.12909387 0.09840677 0.18042064 0.15002792 0.15209131 -0.09962099 -0.046118453 0.15350214
-0.11676487 -0.20318466 0.15639175 0.08434756 0.14488676 -0.13948485 0.07760967 0.021025384
-0.1581534 0.085558355 0.0438586 -0.12152956 0.02538425 -0.104785495 0.12455927 -0.11888967
0.05885664 -0.16684927 0.10906135 -0.055918735 -0.061604086 0.00895244 0.15094724 -0.051985208
-0.095284864 0.11139964 0.12237542 0.09716221 0.045005854 -0.13305843 0.046572704 0.12875357
0.14536001 -0.13738587 -0.060859278 0.07939792 -0.13624339 -0.082278565 -0.010064644 0.11839111
-0.07795619 -0.059089165 -0.09008764 -0.040745515 -0.035018306 0.085661374 -0.14535882 0.04988154
-0.14666286 -0.040967785 0.06553024 -0.13038008 -0.021048855 -0.15471771 -0.13037607 0.06723723
-0.12945542 -0.04984538 0.082471095 -0.035111785 0.10441331 0.055908408 0.07711152 0.21599375
-0.119645 0.061233252 -0.096366234 0.11218937 -0.04208334 0.09297279 0.15083186 -0.023056915
-0.009986741 0.0011677844 -0.06561349 0.05363856 0.031264506 0.09880488 0.023073519 -0.020435201
0.13793896 -0.139342 0.05114687 -0.14758526 -0.0694223 -0.09853423 0.00447634 0.09634219
0.15263107 0.116096824 -0.06821209 0.04143859 0.02105855 0.14307094 -0.11793042 -0.024128392
-0.105209045 -0.13634926 -0.08170559 0.016821759 -0.0883733 0.081501566 0.09733156 -0.056007326
-0.16381201 0.0073168776 0.037466675 0.08688959 -0.092695095 0.06338538 0.16037084 0.1271447
-0.10680961 -0.17347574 0.16454032 0.12466505 0.08679036 -0.070382334 -0.024973951 0.04260878
-0.006916802 0.1651126 -0.009530491 0.01852101 -0.10583803 -0.03589429 -0.008007965 0.037121505
-0.11596136 -0.06625215 -0.08001298 0.12925474 -0.08769873 0.09501106 0.17375107 -0.04973822
-0.05201942 0.120549805 0.15878688 0.00086997234 0.15696031 -0.10636253 -0.03219777 0.07105361
-0.14344777 -0.098262146 0.00082944985 -0.05560307 -0.09853094 -0.1311516 -0.10604308 0.078101836
0.15599215 0.10520539 -0.12096986 -0.11199435 -0.022191485 -0.016186144 -0.13015623 0.0638371
0.13191766 -0.12866314 0.063205674 0.049589995 -0.05521321 0.015302563 0.02856264 -0.105676055
-0.0926486 -0.012086279 -0.012304745 0.1253111 0.17257151 -0.09836022 0.06730568 0.08880653
-0.10042574 0.12128753 -0.02139626 -0.0028077285 0.15170184 0.019174589 0.15472999 0.15920448
-0.14755782 -0.10853419 -0.13018964 0.043927915 -0.04848694 -0.08762821 0.08696535 0.120128445

gc1.fc.bias f4 [128]
00000000: d9c0 77be 3218 2a3d 24a2 99bd da42 1fbe
00000010: 6d7b c4bd 8a6d a23d 5112 ac3d e4eb 99bd
00000020: 1f45 093e 90de 5b3d dc4c ae3d 83c1 193d
00000030: b923 3dbe 3bc8 4abd 786f 15be 19dd 57bc
00000040: bec2 663c 89d7 0f3e 3faf 3dbe d0fd d3bc
00000050: 43d0 fcbd b80a a9bc 64f4 c8bd f030 18be
00000060: a5d7 c63d 10f1 8c3d 4125 b6bd 334a cc3d
00000070: 50b4 5f3d bb71 823c 52d4 37bd fb38 923b
00000080: 2603 ba3d 9f2e bebb 9646 c9bd c750 07bd
00000090: e2d3 08bd 53a2 0f3e 317e 80be e94b 14be
000000a0: 9b4b 17be 218f 73bd c8d3 2b3d ba3a d5bd
000000b0: 7453 0bbc 5826 5cbe 5e74 0ebe 7f96 d13c
000000c0: 0792 80bc ab0b 30be 037d dc3d 560b 35bb
000000d0: 3233 8f3d 74b4 f8bd b9a2 91bc 879c 493d
000000e0: e5d0 fdbd 0ff4 0b3e bac0 833d 2980 babc
000000f0: 0340 88bd f15d 34be 0cc9 ae3d 5922 71bd
00000100: 0acd a53d 0e67 c1bc aeb8 c9bd 586b 1c3e
00000110: cdc7 dabd 63c5 13bd 1178 86bd eca5 4bbd
00000120: 7145 45be 821f 11be 0a75 e13d b601 ed3c
00000130: 5e4e 28be 3b4d 36be c818 84bc 2dc5 31be
00000140: 517b 0dbd 70f6 29bc b183 21be 02f0 c93d
00000150: f7a4 89bd 7bfb 7cbd 5b8f 9cbd 09e5 80bd
00000160: 16d3 f6bd 3a3c f0bd f67f 0cbd 6c93 313d
00000170: a2b8 13be cbf2 e7bd 133e 0f3e f7fa 42bd
00000180: 5d65 613c 0f3e d8bd 45d8 30bd 0efb 823c
00000190: 7474 49be 74c1 0ebe 310b 173d dcfc 1fbe
000001a0: de73 1dbe 4319 68bd dd93 80bd aeeb 963b
000001b0: 2408 7f3d 291f 523c 9198 e03d 4fc4 38bc
000001c0: c901 403d 3274 13be c736 a03d 6183 593d
000001d0: 075d 82bb 5702 60bb c60e 48ba 356a 253d
000001e0: 1916 1ebe faf7 f3bd a72b 3e3c cbbe f73a
000001f0: 8f0b 82be a16d fe3d b764 f23d 3050 42be
-0.2419466 0.04152698 -0.07501629 -0.15552846 -0.09593854 0.07931049 0.08401931 -0.07515696
0.13405274 0.05367905 0.085107535 0.037538063 -0.18470658 -0.04950736 -0.14593303 -0.013175272
0.014084516 0.14047064 -0.18523882 -0.025877863 -0.1234441 -0.020634994 -0.09812239 -0.14862418
0.097091 0.068819165 -0.08893824 0.0997509 0.05461532 0.015923372 -0.04488022 0.004462359
0.09082632 -0.0058038975 -0.09827916 -0.03303602 -0.033405192 0.14026766 -0.25096276 -0.14482082
-0.14774935 -0.05946267 0.041950017 -0.10411592 -0.0085037835 -0.21499002 -0.13911578 0.025584457
-0.015694631 -0.17191951 0.107660316 -0.0027625165 0.069921866 -0.12143794 -0.017777788 0.04922154
-0.12393359 0.1366732 0.06433244 -0.02276619 -0.06652834 -0.17613961 0.085344404 -0.058870647
0.08095749 -0.02360871 -0.09849678 0.15275323 -0.1068264 -0.036076915 -0.065658696 -0.049718782
-0.19264771 -0.14172176 0.110086516 0.02893148 -0.16436145 -0.17802899 -0.016125098 -0.17360373
-0.03454143 -0.010373697 -0.15772893 0.09860231 -0.06720918 -0.061763268 -0.076445304 -0.06293685
-0.1205198 -0.11730237 -0.03430172 0.043353483 -0.144259 -0.11325606 0.13988523 -0.04760262
0.013757077 -0.10558712 -0.043175 0.015988853 -0.1967333 -0.13940984 0.036875907 -0.15623802
-0.15376231 -0.056664716 -0.06278203 0.004605732 0.062263623 0.012824812 0.109666 -0.011277272
0.046876702 -0.14399794 0.07822948 0.05310381 -0.003978375 -0.0034181082 -0.0007631596 0.04038449
-0.15438117 -0.11912532 0.011607087 0.0018901465 -0.25399444 0.12423254 0.11835616 -0.18975902

gc2.fc.weight f4 [128, 128]
00000000: 0db0 c4bc 468b 76bb 0830 bfbd 8c26 cdbd
00000010: 98f0 aebd 7fa6 00bc 267c b7bc 1cc7 62bd
00000020: 3ed4 10bc d011 ffbd 9a3b 2dbd 73a1 3ebd
00000030: 0cb6 6a3d f57d 80bd 940d d4bc fb97 8abd
00000040: 03c0 20bd 8779 44bd 0269 9abd 993e cc3a
00000050: db82 f6bd c323 10bc 1f07 ad3c cf10 d43c
00000060: 22d3 0ebe 74db aebd 09e9 73bd 4ede d9bd
00000070: f8d5 0ebe 90d7 9a3d 1b1f 8fbd 486d 1dbd
00000080: 6b36 e5bd e9c4 dbbd eaa7 acbd 9b57 86bd
00000090: be26 303d 9757 923c 2e5a 2dbe 2791 f8bc
000000a0: bf16 d6bd 9740 aebd cd83 eabd 36db a2bc
000000b0: 54ae f2bd b568 14bc 01ae ad3a 6a98 6bbc
000000c0: c553 9ebd fe41 25bd 412b afbd 82f4 b4bd
000000d0: bc93 773c a093 07be a587 dd3b e5fe ea3c
000000e0: e0af 90bd 6689 233c ad7d c03b ef38 2b3d
000000f0: 361b 63ba 4caf 07be 3a58 b3bd d452 b4bd
00000100: 45dd 0abe b483 bebd fe7b 09be 665a d7bd
00000110: d96f 43bd 6389 7dbd 291b 30be 77b6 08be
00000120: 920d 85bd 9da6 86bd 4291 c0bd c4aa 31bd
00000130: 5d10 08be 872a a3bd 5fe3 1dbc dd1e 34bc
00000140: fdb0 4eba ffc6 cb3c ab6b 5c3c bc9e 88bd
00000150: 6e42 173d e2d2 a2bc 9779 cb3c b447 11be
00000160: 5e78 053d d3f9 d9bd df1c 803c 00c7 93bd
00000170: 7395 67bd 4fb5 26bd 8bab 1b3b 76d7 c1ba
00000180: fd20 d8bd bdb7 01bd eef6 81bc 5896 c1bc
00000190: 6d59 3bbd 24ac bbbd 8a6d 08be c290 f9bb
000001a0: ec9e dfbd dd2e 8abc d544 b0bc 9b0a 223c
000001b0: fe5d d8bd 8238 873d 20f4 fabd 072b 05bd
000001c0: 17cb d7bd bf40 b9bd 4864 00be ca69 e7bd
000001d0: 549d bbbd 43e9 33bd bcef 98bd c6b4 afbd
000001e0: 6a9e c9bd ad2e ebbc 3be9 86bc 938c cf3c
000001f0: 20c7 043b 6317 8839 992c a8bc bd01 283c
00000200: b335 f2bd 6272 2f3d 683a 843d 9208 903c
00000210: bd84 19bd 625d 2a3c 26de ff3c bbb1 543d
00000220: 109c 9abd d855 fdbb 4110 febd aade a53d
00000230: 3eda bebd 03a4 a0bb 61bf 393d 1c9d 0b3c
00000240: 4c86 eebd ff49 efbd 6618 0bbd 7525 cebc
00000250: 248c 173c 40f4 a03c 99fc 18be 821a 5fbd
00000260: 470b c13b ba5d 0ebd 21ba c4bd 7f97 c03c
00000270: 3255 103d c545 00be 2acf 61bd 20b1 8cbb
00000280: 00e4 01be a8c4 f1bd f69b 00bd 46c4 1abe
00000290: a118 11be 13a5 42bd 7e63 afbc 126f e13b
000002a0: a6ab 33bd 03f3 a0bd e810 1dbe 3482 dcbd
000002b0: 5c15 00be 78ce f6bc 74d1 7d3d 1779 943b
000002c0: bbfb dfbd cd63 bc3c f74c f53b 5219 5cbd
000002d0: 4f69 c4bc bda0 9fbd 5ac4 69be 4c34 8bbd
000002e0: e4b2 a1bd a6fb 7fbc 6e1c 77bd b6c4 dcbd
000002f0: 71fd 11be 3e0f ffba e22d 04bd cc6f 8cbd
00000300: f43d c43d f3e0 97bd 39c9 a73d f3cd 7dbd
00000310: b987 09bc 98b1 10bd 42ec 12bd 01cf 8cbd
00000320: f145 7abc 2a28 febd cd56 19be 8057 3cbd
00000330: 461e e3bd b606 f9bc beed d83b 892c c5bc
00000340: 04c9 03be a704 26bd 99f1 51bc dd6d 963c
00000350: 873c d1bd 3eef ffbd 0e92 aebd 4a34 2ebd
00000360: ba4e 84bd ad36 3fbd 4e46 9dbd dd39 f4bb
00000370: 7759 6fbd e088 95bc 58a8 233d 2f7b 67bd
00000380: 0405 04be 56ad 3ebc 7af4 b43c 8dbd b0bd
00000390: 3ea1 6bb8 580a bdbd f177 e13c 8df3 bbbc
000003a0: 753c 7ebc 4f36 b4bd 5c4c 91bd cda5 6abd
000003b0: 5dbf 7a3c c340 6ebc ccb9 b7bd 3844 88bd
000003c0: b989 45bc 6f6c cabc 8b73 15be 9c39 77bd
000003d0: 9f32 02be 58ae ffbc b58b 9cbd 030c 0abe
000003e0: 38fa c03c d79e 09bd a4f8 463c 7f82 b8bd
000003f0: 6da8 14be 7e5e 06be 51aa b6bd e2c5 19be
-0.024009729 -0.0037619635 -0.09335333 -0.10017118 -0.08541983 -0.007852196 -0.022398066 -0.055365667
-0.008839665 -0.12454569 -0.04229317 -0.04654069 0.05730252 -0.062740244 -0.02588538 -0.06767269
-0.039245617 -0.04796746 -0.0753956 0.001558262 -0.120366774 -0.008797589 0.02112156 0.025886921
-0.13947728 -0.08537951 -0.05954841 -0.106381044 -0.1394881 0.075606465 -0.06988355 -0.038434297
-0.1119202 -0.10730917 -0.084304646 -0.06559678 0.043005697 0.017864032 -0.16928932 -0.030342652
-0.10453557 -0.08508413 -0.1145092 -0.019879919 -0.11849657 -0.009058167 0.001325071 -0.0143796
-0.077308215 -0.04034614 -0.08553172 -0.08835699 0.015110906 -0.13239908 0.006760555 0.028685996
-0.070647955 0.009981489 0.0058743567 0.041802343 -0.00086634175 -0.13250464 -0.08757062 -0.08804861
-0.1356097 -0.09302464 -0.13426206 -0.10515289 -0.047714088 -0.0618986 -0.17197861 -0.13350855
-0.06496729 -0.06574748 -0.09402706 -0.043375745 -0.13287492 -0.07967096 -0.009636729 -0.0109936865
-0.00078846497 0.024875162 0.013453404 -0.06670901 0.036928587 -0.019875947 0.024838252 -0.14187509
0.032585494 -0.10643353 0.015638767 -0.072156906 -0.05653901 -0.040700253 0.002375337 -0.0014788944
-0.10553167 -0.031669367 -0.015864816 -0.02363126 -0.04573958 -0.091636926 -0.13323036 -0.0076161334
-0.10918984 -0.01686805 -0.021517197 0.009890224 -0.105648026 0.06602575 -0.122535944 -0.032511737
-0.10536783 -0.090455525 -0.12538254 -0.112994745 -0.09160867 -0.043923628 -0.07467601 -0.08579402
-0.09844668 -0.02870878 -0.016468635 0.025335586 0.002026029 0.00025957366 -0.020529078 0.010254321
-0.118266486 0.042833693 0.064564526 0.017582212 -0.037480105 0.010398241 0.031233858 0.05192731
-0.07549298 -0.0077311806 -0.12405444 0.080991104 -0.0931897 -0.004902364 0.04534853 0.0085213445
-0.11646709 -0.116840355 -0.033958815 -0.025164345 0.009249721 0.019647717 -0.14940108 -0.05446864
0.005891237 -0.034757353 -0.09605814 0.023509739 0.0352375 -0.12526615 -0.055129208 -0.004293576
-0.12684631 -0.11805087 -0.031398736 -0.15113935 -0.14169551 -0.04752071 -0.021409746 0.0068796957
-0.04386487 -0.07858851 -0.1533848 -0.10767022 -0.12508148 -0.030127749 0.06196733 0.0045310366
-0.10936686 0.022996807 0.0074859816 -0.053735085 -0.023975996 -0.0779433 -0.22828808 -0.06797084
-0.07895449 -0.0156239625 -0.060329847 -0.10779707 -0.14256836 -0.0019459499 -0.03227032 -0.06857261
0.09582129 -0.074159525 0.08192677 -0.061963987 -0.008394175 -0.035325617 -0.035869844 -0.0687542
-0.015275464 -0.124100044 -0.14974518 -0.045981884 -0.110897586 -0.030398708 0.006620138 -0.024069088
-0.1286965 -0.04053178 -0.012813949 0.018362934 -0.10216623 -0.12496804 -0.085239515 -0.042530335
-0.064603284 -0.046683002 -0.07679425 -0.007453187 -0.05843493 -0.018253744 0.039955467 -0.05651396
-0.12892538 -0.011638006 0.022089232 -0.08629904 -5.6178535e-05 -0.092304885 0.027523013 -0.022943282
-0.015517344 -0.08799421 -0.070946425 -0.057287026 0.015304414 -0.014541808 -0.08970985 -0.06653637
-0.012056761 -0.024709908 -0.14594857 -0.060357675 -0.12714623 -0.031211063 -0.076438345 -0.13481145
0.023556814 -0.033598747 0.0121442415 -0.09009265 -0.14517374 -0.13121983 -0.08919204 -0.15016893

gc2.fc.bias f4 [128]
00000000: d26b f3bd cd68 b3bd 993a d93b f1ab 63bb
00000010: ee6e 85bd 379f ccbd 270a 233d 9a29 473d
00000020: 8b92 0cbe a68a 22bd 3467 403d 61fa eabc
00000030: 49c5 4d3c 1b46 8d3c 6a34 63bd 7fe9 e3bb
00000040: 0946 44bd 3361 2b3d 7578 13be f18c 3bbe
00000050: 0b77 0e3d fc5c 7ebc 7674 3c3d a171 433d
00000060: 1eba c23d a5c7 d63d 446c 9e3c 4f98 e5bc
00000070: 9c4e c23c a00a 933d e6ee b8bc 13a8 18bc
00000080: 64bb 1abd 496b 253d 9375 0bbd 7740 a0bc
00000090: 1b32 963c d65d 033d 05b9 19bc 67db 373d
000000a0: 2763 05be e108 eebd 4b33 973c 5307 83bd
000000b0: 0648 20be 73a2 c4bc 649e 4a3d d75c 05be
000000c0: ea03 54bd cb88 b63d e1af b63d 376d 40bd
000000d0: 2035 a3bd c3ed 07be 1e46 acbd 3725 79bc
000000e0: e514 83bd 9098 79bd 7228 13bd 6139 07bc
000000f0: 90e7 eb3a 35f2 e13d adbb ed3d 7fe7 883d
00000100: 5076 603d 2098 b8bb 6901 0ebe d1f4 84bc
00000110: 3da0 2bbd da16 dcbd e54c 3a3d 607a cd3c
00000120: 1242 933c cbac a4bb 16c7 cc3d d751 5ebd
00000130: acaa 883d f372 87bd 5bc5 f63d 98c1 43bd
00000140: 368a 9abb 3c0f efbd 934d 15bb 1a0b 573d
00000150: 5544 47bd 9192 44bd 5bab b1bc 5a14 08be
00000160: 8979 89bd c9e2 c53d d50a 873d 3e0c 7dbd
00000170: e683 8bbc face f3bc f4bf 94bc f78a 1cbd
00000180: 7f2a 66bc d42a 8a3d 57af 0ebd 3b08 3ebd
00000190: 825b 783d f87d cc3d 0bf7 9a3c d339 0e3d
000001a0: 15d8 e4ba b370 b23d b183 6a3d 930f d43d
000001b0: c0c6 eb3b c264 323d a658 27bd b299 903d
000001c0: af7f 983d 8e92 9d3c ba23 bebc dd07 24ba
000001d0: ab32 113c e948 b03c c7fc abbc 3262 3fbb
000001e0: 08d8 dbba d8a8 813d 7341 413d 66c4 adbc
000001f0: 63ac c93d fc52 07bd 10fd 153c 804e 7c3c
-0.118857995 -0.087602235 0.0066293 -0.0034739936 -0.06515299 -0.09991305 0.039804604 0.04862366
-0.13727777 -0.039683007 0.046973422 -0.028683843 0.0125592435 0.017245343 -0.055469908 -0.006955325
-0.047918353 0.041840743 -0.1440142 -0.18315484 0.034781497 -0.015525099 0.046009503 0.047715787
0.09508155 0.10487298 0.019338734 -0.028026728 0.023719124 0.07179761 -0.022574853 -0.009317416
-0.037776366 0.04038552 -0.034047674 -0.01956199 0.018334439 0.03207191 -0.009382491 0.044886973
-0.13026105 -0.11622787 0.018457076 -0.06397881 -0.15652475 -0.024003243 0.04946746 -0.13023697
-0.051761545 0.0891281 0.08920265 -0.046979155 -0.07969117 -0.13274293 -0.08411811 -0.015206627
-0.0640047 -0.06093651 -0.035927244 -0.008253426 0.0017998088 0.110325254 0.11608062 0.066847794
0.05480033 -0.005633369 -0.13867725 -0.016230019 -0.041900862 -0.10746546 0.04548349 0.025082767
0.01797584 -0.0050254813 0.0999891 -0.054277267 0.06673178 -0.06613722 0.12049361 -0.047792047
-0.004716183 -0.116728276 -0.0022781834 0.05250082 -0.04864915 -0.04799134 -0.021688154 -0.13289014
-0.06712634 0.096623965 0.06593863 -0.061779253 -0.017030668 -0.02976178 -0.018157937 -0.038218465
-0.014048218 0.0674645 -0.034835186 -0.046394568 0.060634144 0.09984964 0.018916627 0.034723114
-0.0017459417 0.08712902 0.057254497 0.10354533 0.0071953237 0.04355312 -0.040856026 0.07060565
0.07446229 0.019234922 -0.023210395 -0.0006257275 0.008862178 0.021519141 -0.020994557 -0.0029202816
-0.0016772756 0.063310325 0.047181558 -0.021211814 0.09847333 -0.033038124 0.009154573 0.015399575

temporal_conv.weight f4 [128, 128, 3]
00000000: bf44 633d 3306 f93d 7200 f73c 4428 5dbd
00000010: 525c 953c 300a 0b3d 0fa9 6a3d 25ee 433d
00000020: 66f6 183d f11c 37bc 7499 7abd 98d5 df3c
00000030: de8a 8abd a3df 57bd 4055 23bd 2a21 9a3d
00000040: f296 df3c a29e 083a 1797 ffbd a7d8 b1bd
00000050: fc0d 11bc a2e3 923d d334 e03c 71f9 36bc
00000060: 7e8e f7bd ef56 d83c 7271 5abc 9e7d cb3c
00000070: 5ea7 32bc 675b 3ebc a0da 15be 2bc7 52be
00000080: 60d2 f2bc 55ee aa3d f2b4 38bc 95e7 433d
00000090: 23c5 d4bb f1b5 1fbc bf0a f5bc 8d57 da3d
000000a0: 519d 683c 104e ea3c ac10 8bbd 71bb cebc
000000b0: 7bd2 9fbc 8bea 143e 738e 943d 0202 2b3d
000000c0: 675e f0bd be77 dcbd 84c8 4fbd b953 993d
000000d0: 0c81 f83c 76e4 a6bb 5af9 44bd 10c8 ecbb
000000e0: 09d5 0ebd 272c e23d a5ed 803d fee3 f73c
000000f0: 6ce9 483d 0968 553c 3151 293d ae99 8d3c
00000100: ad2c 7bbb 8ee1 a03c a589 4c3d 1649 893d
00000110: abec 0cbd 95f5 9cbd 71fe 3a3c 03c2 c7bc
00000120: b2fa b8bd 48e3 01be 22e8 8cbc 6132 b5bd
00000130: 46ac 313c 4c9b 85bb a9e5 cdbd 05e5 c1bd
00000140: 87c1 9ebc ee2b 79bd c6da 92bd 031c c1bb
00000150: bdf7 bb3d 2bdf 4c3a 0eda 403d dd57 1c3d
00000160: dba4 843c da6e e4bc 9252 23be 6e9e 63be
00000170: 6be2 1bbd ef9e 87bd 6110 67bd c761 04bd
00000180: 8f35 9bbd 4aa4 ecbd 100e 08bd fbaf bb3d
00000190: a5aa 0e3c 54e4 e3bc 41c4 01be 3b41 22be
000001a0: 7d38 f73b 8251 d73d 9874 d9bc 261c 07bc
000001b0: 1099 cd3c 441a 34bd 3f5d 14bd 7fea a93d
000001c0: d218 f63c 781f ca3c 05f4 39bd 69aa 23bd
000001d0: df22 f9bc f8a1 57bd bc1b 88bd ab50 bb3c
000001e0: 1cb8 163d 48d1 b53d da00 b33c 4523 083d
000001f0: bf4d b8bd a6bb 22bc 4744 07bd ab4e 1ebd
00000200: b84b 4339 9ae6 8dbd 01ee c4bd 31ed 0c3d
00000210: 6f8c 7c3c 42de 0c3d 24b3 ef3c e6eb aabd
00000220: 6099 90bd a915 0c3d 6159 213c e1cc 343d
00000230: e236 bcbc 94ea ed3c 9ef6 a03c 66b9 dabb
00000240: 33de b3bd c97f 90bb 48b3 36bd 432b 18be
00000250: 9da1 bcbd b6e2 0ebd e160 6dbd 7959 d7bd
00000260: 5bbf bfbc 9674 e53b 6075 fabc 0834 2bbd
00000270: 9a7b 913b 7c73 043d 1700 c83c 180e 963d
00000280: f55d 1f3d afd9 bc3c 3881 bf3d c7bf 073d
00000290: 4333 083b 1ba4 bb3d d753 323d b2be 09bd
000002a0: dfa1 0e3c b760 53bd 4e6e 42bd 3716 843d
000002b0: 460b 273c fb6e 1bbd 31e6 1e3d ad62 a73d
000002c0: e23b 3c3d 706c 11bc ad6f bdbc 51e3 bb3c
000002d0: 0bbf e3bd 5b7b ac3c 80ef a93c c8bf a1bd
000002e0: 7a0b 6fbd ceb9 8d3c 7a34 cc3d 7a6a 433e
000002f0: 2b9d e73b 07cc 25bd 1252 9dbb d3bb 2cba
00000300: 1879 2a3d 292a d1bc f301 133d 3160 eebc
00000310: 8852 aebd 35f9 403b 4e1c b93d 9344 a03d
00000320: 861d d6bc 0412 3cbd db81 85bd 402e 13bd
00000330: ebe9 093d c2ba 943d 3bf3 f0bc bedc 4fbd
00000340: 3b97 bbbd d067 de3c 89cc 243e b96e 193e
00000350: 029c f03c 9d28 5bbd 5937 94bd 9a82 f1bc
00000360: 03a5 20bd 0ae7 9fbb 122c 43bd d15b 21bd
00000370: 3c15 13bd f381 323d 20f5 613d e9ee 223d
00000380: c7f3 4abd d6bd 6bbe 26a6 47be 2f1a 7e3c
00000390: e584 803d d27c dc3c 8d0d 333d c1db 893d
000003a0: 98b8 d93d 5248 aabc bc8d a7bc 0f0b 74bd
000003b0: 2306 723c 697c 92bb c7b7 52bc 57d1 01bd
000003c0: a65f 85bd 32a9 83bd 1f8f 9ebc 7ea7 7c3d
000003d0: 6135 a93c 5c42 39bc b872 233e c2f7 3e3e
000003e0: 6cfb 703b aeb8 30bd 0c49 893d 949a 253d
000003f0: 3886 2fbe 0510 1cbe 8169 353d 1e0e 0cbe
0.055485483 0.121593855 0.03015158 -0.05399348 0.018232498 0.033945262 0.057290133 0.047834534
0.03734436 -0.011176334 -0.0611815 0.02732353 -0.06764768 -0.05270351 -0.039876223 0.07525857
0.027293656 0.00052116264 -0.1247999 -0.08683901 -0.008853432 0.07172324 0.027368939 -0.01116787
-0.12087725 0.02640864 -0.0133327115 0.024840172 -0.010904161 -0.011618472 -0.1463418 -0.20583789
-0.02964133 0.083462395 -0.0112736095 0.047828276 -0.006493227 -0.009747968 -0.02991235 0.1066123
0.014197663 0.028601676 -0.06790289 -0.025235863 -0.019509545 0.14542596 0.072537325 0.04174996
-0.11736756 -0.107650265 -0.050728336 0.07486672 0.030334972 -0.0050931526 -0.048089363 -0.0072259977
-0.034871135 0.11043578 0.06295327 0.030260082 0.049050733 0.013025292 0.041337196 0.017285194
-0.003832619 0.019638803 0.049935956 0.06703393 -0.03440539 -0.076640286 0.011413203 -0.024384504
-0.09032191 -0.12684357 -0.017200533 -0.088475 0.010844296 -0.0040773507 -0.1005357 -0.0946751
-0.01937939 -0.06083291 -0.07170634 -0.005893232 0.09178112 0.0007815237 0.047082953 0.03816973
0.01619189 -0.02788489 -0.15949467 -0.22228405 -0.038057726 -0.06622111 -0.056412105 -0.03231981
-0.07578575 -0.11554773 -0.033216536 0.09164425 0.008707677 -0.027818836 -0.12672521 -0.15845196
0.0075445757 0.10513593 -0.026544854 -0.008246457 0.0250974 -0.04397036 -0.03622174 0.0829668
0.030041132 0.024673209 -0.04539873 -0.039957438 -0.030412136 -0.0526447 -0.06645915 0.022865614
0.036796674 0.08877808 0.021850992 0.03323676 -0.08999204 -0.009932434 -0.0330241 -0.038649242
0.00018624857 -0.069287494 -0.09615708 0.03440589 0.015414341 0.03439165 0.029260226 -0.08345775
-0.07060504 0.034200344 0.00984797 0.0441407 -0.022975389 0.02904252 0.019648846 -0.0066749332
-0.087826155 -0.0044097644 -0.04460457 -0.14860253 -0.09210513 -0.034884177 -0.05795372 -0.105151124
-0.023406675 0.0070024235 -0.030573547 -0.041797668 0.0044397833 0.032336697 0.024414105 0.07326907
0.038907964 0.023053018 0.093508184 0.033141878 0.0020782507 0.0916216 0.043536987 -0.033629127
0.008705585 -0.051605906 -0.047468476 0.0644955 0.010195559 -0.037947636 0.038793746 0.08173118
0.045955546 -0.008875951 -0.02312454 0.022935541 -0.11120423 0.021054914 0.020744085 -0.078979075
-0.058360554 0.017300513 0.099709466 0.19083586 0.0070682964 -0.04047778 -0.0048010433 -0.0006589267
0.04161939 -0.025532799 0.03589053 -0.029098602 -0.08511835 0.0029445414 0.09038602 0.078255795
-0.026137125 -0.04591562 -0.065189086 -0.03593278 0.033670347 0.07262184 -0.029412856 -0.050747626
-0.09159704 0.027149111 0.16093649 0.14983644 0.029371265 -0.05350553 -0.07237119 -0.029481221
-0.039219867 -0.004879837 -0.04764945 -0.039394204 -0.035908923 0.04358096 0.05516541 0.039778624
-0.04954889 -0.23021635 -0.19496974 0.015509172 0.062753476 0.026914988 0.043714095 0.06731368
0.106309116 -0.020786438 -0.020453326 -0.05958086 0.014771971 -0.0044703973 -0.012861199 -0.031693783
-0.06512384 -0.06428756 -0.019355355 0.06168317 0.020655336 -0.011307325 0.1596173 0.186492
0.0036770953 -0.043144874 0.06703386 0.04043062 -0.17141044 -0.15240486 0.04429007 -0.1367726

temporal_conv.bias f4 [128]
00000000: 9180 a03d 3368 1e3d 573c 01be 3950 713d
00000010: 8091 32bd 1503 e6bd a814 0f3d f45c e43d
00000020: 5e0a 67bd 84af 0b3e 315f b33d 808f 7e3d
00000030: 9cc8 d0bc c3ef a83d d7af 933d 2134 853c
00000040: 5b1b 90bc 90d0 b93d 317c b53d 5c04 cc3c
00000050: 1c73 e7bd 5999 513d 2657 e13b 377e 103d
00000060: 2b60 363a 519b 1b3d bd1f 9c3d dbb3 a3bc
00000070: d265 abbc 6a66 dcbd 3a1c 9ebd 64dc 6a3d
00000080: af30 36bd 0d41 7b3b d503 90bc 458e 31bd
00000090: f99b 0c3e db3d be3d 3736 9fbd d479 b33c
000000a0: 44d5 d5bd 43e9 b33d b586 553c a01e c7bc
000000b0: 5c1c 273d c2f3 e13d 661b bb3d 4ce7 ed3c
000000c0: 24a5 e93c 7a69 7bbd a93a 953d 387f 023d
000000d0: f377 57bd 1db3 f0bd 1160 4a3d a4d7 c63d
000000e0: 6307 013e 171f 9c3d 176e 813d 4112 8dbd
000000f0: ab6f b63d 2071 ab3d 0b59 eb3d 9afb d0bd
00000100: 4ee2 9fbd b4ba 533b ee4e e33c ed63 893d
00000110: c9a8 9c3d 983a a1bd 5d90 d33b b64b d03d
00000120: 5941 3a3d 7c96 d63d 18ac ffbc 4205 db3d
00000130: 0eb1 9f3d 406e 143d d770 893c d423 ec3d
00000140: a685 693d 5ee2 973d 2bf4 073e 325e a2bd
00000150: f33a 6a3d 4da3 8d3c 8e63 d9bd a8b7 d63d
00000160: b6e0 553b 1df6 133d 4d1a bc3d c21c c13c
00000170: 920e 283d 7a9f 053e 4b55 023e 4135 103e
00000180: e342 75bd 7ea3 bc3d 507c ca3b abc1 5abd
00000190: 8260 3ebd 5c6c 5ebd ad04 bf3d 1aca d8bd
000001a0: 1104 b53c 6e72 44bc e8cd ce3d 8491 963d
000001b0: 7e7b 5c3d f6f8 233d 6b72 0f3d c18b e1bc
000001c0: d591 353d e9c2 1d3e d75d a83d 81b3 e2bd
000001d0: 07e6 1fbc e6dd 223d c843 a43d 3569 a53d
000001e0: aa37 333d eec6 d63a 6ca7 0c3e 0bae 923d
000001f0: 13cf d93c da81 c3bd b550 4abc bcf3 413d
0.07837022 0.03867359 -0.12620674 0.058914397 -0.04359579 -0.112310566 0.03493181 0.11150542
-0.05640637 0.13641173 0.08758391 0.06214857 -0.025486283 0.08248856 0.07211273 0.016260209
-0.01759117 0.09072983 0.08861578 0.024904422 -0.11301252 0.051171634 0.006876844 0.035276618
0.0006957079 0.03798992 0.07623241 -0.019983223 -0.020922575 -0.107617214 -0.077202275 0.057339087
-0.044480022 0.0038338334 -0.017579952 -0.04334857 0.13731374 0.09289142 -0.077740125 0.021908678
-0.10441068 0.087847255 0.013032605 -0.024306595 0.04079853 0.11032821 0.09136085 0.029040955
0.028521128 -0.061379887 0.07286579 0.031859607 -0.052604627 -0.11752913 0.049408022 0.09709099
0.12600474 0.076231174 0.06319826 -0.06888247 0.08908018 0.08371186 0.11491593 -0.10204239
-0.07806836 0.0032307329 0.027747598 0.067085125 0.07649381 -0.07872504 0.0064564184 0.10170691
0.045472477 0.10477921 -0.03120999 0.10694362 0.077974424 0.036237955 0.016777439 0.11530271
0.057012223 0.07416223 0.13276736 -0.079281226 0.057185125 0.017289782 -0.10614692 0.104842484
0.003263516 0.036123384 0.09184704 0.023573283 0.04102952 0.13049117 0.12727849 0.14082815
-0.05987824 0.09210871 0.00617937 -0.053407352 -0.046478756 -0.05430256 0.09327064 -0.10585423
0.022096666 -0.011990173 0.10097867 0.07351974 0.05382871 0.04003235 0.035021227 -0.02753246
0.04432853 0.15406384 0.082210235 -0.11069394 -0.009759433 0.0397624 0.08020741 0.08076707
0.043754257 0.001638619 0.13735741 0.07162102 0.026587998 -0.095462516 -0.012348344 0.047351584

fc.weight f4 [36, 128]
00000000: 4458 c43d fc1c 03bd a196 ac3c d8f9 32bd
00000010: d4c3 cebc 08f6 a53b 74d0 183d 619c 1c3e
00000020: 0280 fa3d 1131 4c3c af16 d3bc cd38 623d
00000030: 5f57 9b3c 77c0 d3bc 8406 82bd a9b7 be3d
00000040: d8d0 693d 89bb 863c 2e31 d53d 55e5 a6bc
00000050: 57cc 6ebd 6bf9 81bd 15db 903d b3ab aabd
00000060: fceb 45bd 1211 723d 6163 65bd 6815 82bd
00000070: d998 44bd a149 01bc 00c8 2ebe a96a 2e3d
00000080: 67f5 4dbd 949d 623b 1636 ed3d 4aa8 4bbb
00000090: 92d3 0c3e e8e5 e8bc 6cd3 2ebd 27ee 05bd
000000a0: 7e95 89bc d7eb 85bd fc44 99bd 84a1 00be
000000b0: fcf9 953d 1141 fb3d 92a4 7bba 9729 bebd
000000c0: 76fa 14bd 89b9 6d3d 1dd6 283d 678d db3b
000000d0: 8991 c43d 327e 1fbe 1fad 97bc a819 a0bc
000000e0: fdbe 103e fb46 6bb9 a5d6 8a3d 7613 5a3c
000000f0: 6027 903d 6787 87bd e1c0 fc3d 294f 85bd
00000100: 0cfd 973d 6b79 a0bd 6c67 53bd 13d2 b8bc
00000110: bd2b 6ebc cab9 e6bd 8448 813d df2d 793c
00000120: be61 4bbd 3521 a53d fbc3 353d ec61 d5bc
00000130: 3a28 19bb 3d23 683d 21cb 38bd 9ec0 423d
00000140: 2cee 4a3d b5ac 903d 358f 2f3d 81a4 54bd
00000150: fd38 3dbe 8f81 e0bd 9957 323a 88d0 553d
00000160: 8718 77bd 2cdf 8ebd e71b f23d 148d fc3c
00000170: 8baa 66bd 6326 923d b282 dbbd 9bae 92bd
00000180: 701f 1f3c 4a6f 66bd 2989 3cbd dce3 dbbd
00000190: 644b 993d fa1d 03be d0a2 1e3b dc61 eabd
000001a0: 9f08 753d 6b20 a2bd e21e b8bd 52d4 dcbd
000001b0: ba31 fbbd d6c6 a9bd e988 a73c 536f 5e3a
000001c0: f05c 20bd 98ab b73d 8b67 8c3d 6978 35bc
000001d0: 1b2f 09be d2cc d3bd f368 223d c511 da3c
000001e0: f828 323d 45df 3a3d 0add bdbd 25aa c53d
000001f0: fd9f 8c3d 8fc3 bebd 4f59 173e b54b 0b3e
00000200: e7bb 03bd 3a2e a8bd a8e3 2dbc fdd8 90bd
00000210: be4f 19bd dd5e 8dbc 72b0 123e 9630 ab3c
00000220: 1699 113e 24d7 563c 04d8 92bd 90b2 f4bd
00000230: 75fd 893c 9d41 bc3d 43af 64bc f843 bdbd
00000240: 6274 67bd 39ef 15bc 1451 843d 9d5b 64bd
00000250: 016f 373c a7a8 d73d 3b0e 023e 33db d1bd
00000260: 7bfa 02be 7c89 f13d b843 d8bd f364 bebd
00000270: 64c5 2dbd 4fe0 1a3c 2484 0dbe da3c 26bd
00000280: 4706 953d 6a1c c9ba 3dd9 1d3d e0f6 e1bd
00000290: 4c0c 643d 3b71 54bc 3d04 0bbe e350 2a3c
000002a0: 0cde bcbd 5328 f3bd 965d 7b3d fa20 293c
000002b0: 4ab3 423e e8cc bc3d 6018 b0bd 5493 333c
000002c0: a0e1 0abe 4db3 ed3d e6cd 6a3d 1743 803c
000002d0: 2581 bbbd eb56 2fbe f0be 8bbd 396e a13c
000002e0: 20fa 4e3c 13e3 c1bc 79a4 9cbd da18 fabd
000002f0: 64a0 ad3d b380 b2bd 4d55 0cbd 9c30 05bd
00000300: fd98 9cbc 7a94 51bd 1d04 d0bd f7f2 573b
00000310: d2e7 cabb e6a9 eabd 266f 6abd 4ed3 dabc
00000320: 26dd d43d 41d0 143c 6503 e53d 27a4 6c3d
00000330: d7c8 c43c 9104 523d 02f5 973d 546e b83d
00000340: ba73 6fbd 1ada 593d e1b1 e73c b251 8b3d
00000350: 27ab fe3d 5996 303c 8a55 a9bd 1684 623d
00000360: e675 213d 6154 4dbd 7608 8bbc e714 cfbd
00000370: 9eba 083c 95c3 df3d 0cd7 6e3c 1d35 303d
00000380: 63f6 8e3d 9750 6dbd b9f9 a3bd a79e 1dbd
00000390: 4436 1f3d 7f43 0abe e7fa 093e 53a2 1cbe
000003a0: 627c d83d 1559 683c 9ae1 58bd 3e1f bcbc
000003b0: 7190 d4bd fd39 8f3d 110f 1bbe 7416 64bd
000003c0: d284 c1bd 355c 0dbd 3f65 a63c c0ec 033c
000003d0: 5581 d2bc fda0 fc3c 5ae6 15bd c079 5fbd
000003e0: 4fd0 f03d f139 7cbd cdc3 c8bd f756 bbbc
000003f0: c156 b2bc 8873 f6bd 666f bbbd e5e6 0bbd
0.09587148 -0.032010064 0.02106792 -0.0436953 -0.025239863 0.0050647296 0.03730817 0.15294029
0.12231447 0.01246287 -0.025767652 0.05522995 0.01896256 -0.02584861 -0.06348899 0.09312374
0.057083935 0.016446846 0.10409771 -0.020373026 -0.058300342 -0.06346401 0.070730366 -0.0833353
-0.048320755 0.05909831 -0.05600298 -0.06351739 -0.04799733 -0.00789109 -0.17068481 0.042582188
-0.050282862 0.0034578787 0.11582582 -0.003107565 0.13752583 -0.02842994 -0.042682096 -0.032697823
-0.016794916 -0.065391235 -0.07483861 -0.12561613 0.07323071 0.1226827 -0.0009599413 -0.092852764
-0.03637167 0.05803827 0.04121982 0.006700206 0.09598071 -0.15575483 -0.018515168 -0.019543484
0.14135356 -0.00022437789 0.067792214 0.013310304 0.0703876 -0.06617623 0.12341476 -0.06509239
0.07421312 -0.07835659 -0.051612303 -0.022561109 -0.014536795 -0.11265905 0.063126594 0.01520869
-0.04965376 0.08062974 0.044376355 -0.02604767 -0.0023369924 0.05667423 -0.045115594 0.047546975
0.049543545 0.07064191 0.042861182 -0.051914696 -0.1847877 -0.10962211 0.0006803214 0.052200824
-0.060326125 -0.069761604 0.11821728 0.03082899 -0.056314986 0.07136228 -0.107182875 -0.071622096
0.009712085 -0.056258477 -0.046029244 -0.1073682 0.07485083 -0.12804404 0.002420593 -0.114444464
0.059822675 -0.079163395 -0.089902654 -0.107826844 -0.12265344 -0.08289878 0.020451026 0.00084852165
-0.039151132 0.08968276 0.06855687 -0.011076071 -0.13396876 -0.10341801 0.03965087 0.026619801
0.043496102 0.045623083 -0.092706755 0.09651593 0.06866453 -0.093146436 0.14780162 0.13603099
-0.03216162 -0.08211942 -0.0106133595 -0.07072637 -0.037429564 -0.017257148 0.14325121 0.020897191
0.14218554 0.013112817 -0.07170108 -0.119481206 0.01684449 0.09192202 -0.013957801 -0.0924148
-0.056507476 -0.009151273 0.06460777 -0.05575143 0.011195899 0.10530215 0.12700741 -0.10246887
-0.12790863 0.11793801 -0.10559791 -0.09296598 -0.042424574 0.009452893 -0.13819939 -0.040585376
0.07276588 -0.0015343551 0.038537253 -0.11033416 0.05567579 -0.012966449 -0.13575836 0.010395261
-0.092220396 -0.118729256 0.061368547 0.010322804 0.19013706 0.0921877 -0.08598399 0.010960419
-0.13562632 0.116064645 0.057325266 0.01565699 -0.09155492 -0.17123 -0.06823528 0.019705879
0.012632877 -0.023667848 -0.07648558 -0.12211771 0.08477858 -0.08715954 -0.034261037 -0.03251706
-0.01911592 -0.05116699 -0.101570345 0.0032951215 -0.006192186 -0.11458187 -0.057234906 -0.026712086
0.10393743 0.009082855 0.11182288 0.057773735 0.02402155 0.051273886 0.074197784 0.090054184
-0.058459975 0.053186513 0.028283061 0.068026915 0.124349885 0.010778033 -0.082682684 0.05530175
0.039419077 -0.050129298 -0.016971808 -0.10111409 0.008345274 0.10925976 0.014577638 0.043019403
0.06980588 -0.057938185 -0.08006615 -0.03848138 0.03887011 -0.1350231 0.13474618 -0.15296297
0.10570599 0.014181395 -0.052949525 -0.022964116 -0.103791125 0.06993482 -0.15142466 -0.055685475
-0.094491616 -0.034511764 0.02031195 0.008052051 -0.025696436 0.030838484 -0.036596633 -0.05455947
0.11758482 -0.061578695 -0.09802971 -0.022868617 -0.021769883 -0.120337546 -0.09152107 -0.034155745

fc.bias f4 [36]
00000000: bf03 57bc c160 e23d 4a6e 843d aa79 e03d
00000010: 3cb1 45bd 9552 8a3d e71f 41bd 0eb1 bb3b
00000020: 1e7f ef3c 2bac 103d 2920 233d f3b9 c13c
00000030: f358 6a3c 4ce4 8f3d 2690 d13c c843 cebd
00000040: 112e 27bd 98f8 a53c 7a7a 1cbd c0f1 3cbc
00000050: 1509 953c d09b 97bd 1510 4e3d 269c b0bc
00000060: 61c8 85bd 27ac 523d 6f02 0e3d d431 dabb
00000070: 7a06 143d 24ee 103c 0986 e13c f769 823c
00000080: b43e 463d d81f b2bd 98e9 ffbc 0fa3 473d
-0.013123452 0.110536106 0.064663485 0.109607056 -0.048264727 0.067540325 -0.047149565 0.0057278937
0.029235419 0.035320442 0.039825592 0.023648238 0.014303434 0.07025966 0.02558143 -0.10071522
-0.040815417 0.02026014 -0.03820274 -0.011532247 0.018192807 -0.07402766 0.050308306 -0.021558832
-0.0653236 0.05143371 0.03467029 -0.006658772 0.03613899 0.00884584 0.027529733 0.015919669
0.048399642 -0.0869748 -0.031239316 0.04873949

exp_avg f4 [30, 30]
00000000: 55dc 8438 7850 8838 f9f0 8b38 7c3e 8e38
00000010: 995e 9238 2908 9538 13ca 9838 a7e0 9d38
00000020: 86b2 a238 a5ea aa38 191e b738 cc6a b938
00000030: d999 b138 f3bb b538 319c ba38 78f3 bb38
00000040: ccd0 bd38 7ac6 c438 3247 c638 0cf1 c938
00000050: 3363 c438 cb69 b838 7edf b838 5966 b138
00000060: 8fb4 a838 722b a538 db39 9f38 3575 9238
00000070: 7d82 7d38 fe38 a038 dc1d 8c38 b835 8f38
00000080: e8ea 9238 8ec3 9438 f9c6 9738 4ca2 9a38
00000090: 7f77 9e38 96a3 a338 f934 a938 2e94 b138
000000a0: c0d8 bd38 beb8 c038 a2d3 b738 d60a bc38
000000b0: 3f2b c138 7321 c238 e3f9 c238 f394 c938
000000c0: 3f0f cb38 ff1a cf38 3700 c938 5562 bd38
000000d0: ae03 bd38 5737 b638 8065 ac38 411b a838
000000e0: 7513 a138 c708 9338 34a5 8038 f0f9 a238
000000f0: cc14 9238 d248 9538 8a8f 9738 4013 9b38
00000100: 6a06 9f38 a6a8 a138 ae60 a538 0b52 a938
00000110: bbca af38 bdd1 b638 f9a0 c138 3853 c538
00000120: e38e bd38 c380 c138 01ba c638 e08b c838
00000130: ca18 c938 f537 d038 2a5b d138 bfb4 d438
00000140: b648 ce38 5594 c238 65de c338 bbc7 bb38
00000150: 2149 b238 0c88 ae38 7292 a838 8e2b 9b38
00000160: 21e3 8638 1ecc a938 6c93 8e38 fb92 9138
00000170: b11e 9438 2dde 9438 e466 9938 9382 9c38
00000180: 5110 9f38 20fb a338 88d3 a838 0686 b138
00000190: fb46 bc38 50bd be38 17c2 b738 5cc9 ba38
000001a0: 0fb8 c038 bff8 c138 fec8 c338 69b0 ca38
000001b0: d4be cc38 06e3 cf38 1c5d c938 e239 bd38
000001c0: 181e be38 f329 b738 b114 ad38 b170 a938
000001d0: 5dcc a238 d92b 9638 4b52 8238 ff75 a538
000001e0: 903c 8d38 2f5b 8f38 eafe 9138 3484 9338
000001f0: 7ada 9638 0363 9938 909d 9c38 3f7a a138
00000200: 9233 a738 042c b038 6f2f bb38 8124 be38
00000210: 8062 b738 8b08 ba38 5c89 be38 6215 bf38
00000220: a6f0 c038 71c1 c738 18d7 c938 bb50 ce38
00000230: cc17 c938 1014 bd38 535e bd38 95d2 b638
00000240: da13 ae38 2d4d a938 3e44 a338 4207 9538
00000250: b48f 8138 6754 a438 6518 8638 f03c 8838
00000260: 4b7a 8938 eaf5 8a38 6e20 8e38 6977 9038
00000270: 78e0 9238 2aa8 9638 7351 9d38 595b a538
00000280: 985c b138 ef84 b338 2b10 ac38 cca6 b038
00000290: 57c2 b438 d114 b638 7380 b738 ecb8 bd38
000002a0: fa33 c038 8dd5 c438 f052 c038 5460 b538
000002b0: c04c b638 9e4e af38 646b a738 12d0 a338
000002c0: 3a7b 9d38 b7b4 8e38 e076 7638 3425 9e38
000002d0: feee 8b38 23b7 8e38 09b1 8f38 25ad 9038
000002e0: 6be1 9338 c198 9638 8411 9a38 68cd 9c38
000002f0: 4b74 a338 b721 ac38 0244 b838 ef5e ba38
00000300: 5fd9 b338 a724 b838 9d2b bc38 7991 bc38
00000310: 5e22 be38 44bb c438 94c4 c638 5960 ca38
00000320: 6759 c538 7827 bb38 bd6c bc38 1f77 b438
00000330: 3bf2 ac38 29a3 a838 6965 a338 a32d 9538
00000340: 6bad 8138 3e39 a538 f243 9838 79ca 9938
00000350: bbc8 9938 7665 9a38 99ab 9d38 9b1a a038
00000360: 7098 a338 475d a738 c824 ac38 64e0 b338
00000370: ca9d c038 8d75 c338 160d bc38 1be5 bf38
00000380: 7428 c538 a9a7 c638 ea77 c838 f712 d038
00000390: 2f59 d238 9e59 d638 4bc7 d038 2c77 c538
000003a0: d690 c738 d17a c038 2983 b838 cd32 b538
000003b0: 2e53 b038 b4e0 a238 7bba 8f38 c915 b238
000003c0: 3c4a 9138 9075 9338 f88c 9338 0d0b 9438
000003d0: aa5c 9638 8898 9838 1b39 9b38 54fd 9e38
000003e0: 45aa a338 19e8 aa38 678c b638 9831 b938
000003f0: ffa5 b238 dc53 b638 224c bb38 4b2e bc38
6.3352905e-05 6.499974e-05 6.672921e-05 6.782726e-05 6.979443e-05 7.1063936e-05 7.285564e-05 7.528188e-05
7.7580145e-05 8.149938e-05 8.731726e-05 8.84138e-05 8.468674e-05 8.665761e-05 8.898264e-05 8.9622044e-05
9.051114e-05 9.3829774e-05 9.454637e-05 9.629325e-05 9.3644856e-05 8.793509e-05 8.8154324e-05 8.4590814e-05
8.044496e-05 7.8759054e-05 7.592487e-05 6.983654e-05 6.0441427e-05 7.64001e-05 6.681282e-05 6.828777e-05
7.005577e-05 7.093615e-05 7.2373026e-05 7.3735224e-05 7.556285e-05 7.802916e-05 8.068415e-05 8.467618e-05
9.052595e-05 9.189684e-05 8.76554e-05 8.966557e-05 9.2110124e-05 9.256871e-05 9.297186e-05 9.612171e-05
9.682634e-05 9.8755576e-05 9.584467e-05 9.030538e-05 9.012908e-05 8.688744e-05 8.220505e-05 8.015941e-05
7.6807024e-05 7.011141e-05 6.134287e-05 7.7713165e-05 6.965696e-05 7.1184375e-05 7.226977e-05 7.3945615e-05
7.5829055e-05 7.7084915e-05 7.885821e-05 8.07383e-05 8.382412e-05 8.717503e-05 9.232941e-05 9.409193e-05
9.038837e-05 9.226941e-05 9.476022e-05 9.562797e-05 9.589044e-05 9.928636e-05 9.982877e-05 0.00010142614
9.836389e-05 9.27827e-05 9.339749e-05 8.9540576e-05 8.501323e-05 8.322307e-05 8.038142e-05 7.399089e-05
6.431924e-05 8.096568e-05 6.798547e-05 6.941516e-05 7.062907e-05 7.0985734e-05 7.3147734e-05 7.462981e-05
7.58475e-05 7.819221e-05 8.050265e-05 8.4649815e-05 8.97776e-05 9.095168e-05 8.762272e-05 8.906677e-05
9.189557e-05 9.24929e-05 9.335762e-05 9.6649695e-05 9.7630225e-05 9.9128156e-05 9.60177e-05 9.023004e-05
9.0655114e-05 8.733934e-05 8.253137e-05 8.0795384e-05 7.7628276e-05 7.1607246e-05 6.214211e-05 7.8897916e-05
6.7346846e-05 6.8357556e-05 6.96162e-05 7.034131e-05 7.193252e-05 7.314051e-05 7.468008e-05 7.699848e-05
7.972786e-05 8.4005325e-05 8.92569e-05 9.0667054e-05 8.744467e-05 8.8707624e-05 9.085491e-05 9.1115726e-05
9.200098e-05 9.525091e-05 9.624491e-05 9.837883e-05 9.5888594e-05 9.015959e-05 9.0297915e-05 8.71766e-05
8.300664e-05 8.072923e-05 7.785157e-05 7.1062255e-05 6.177966e-05 7.8358506e-05 6.394162e-05 6.496336e-05
6.555448e-05 6.626158e-05 6.777128e-05 6.888697e-05 7.003633e-05 7.1838804e-05 7.5015145e-05 7.884828e-05
8.4572646e-05 8.560146e-05 8.204611e-05 8.423402e-05 8.6192675e-05 8.682314e-05 8.7500455e-05 9.046667e-05
9.164955e-05 9.385785e-05 9.170722e-05 8.648695e-05 8.692732e-05 8.359294e-05 7.9831836e-05 7.811202e-05
7.509296e-05 6.8047484e-05 5.876168e-05 7.540957e-05 6.672552e-05 6.8051995e-05 6.851747e-05 6.898706e-05
7.0514936e-05 7.18101e-05 7.346555e-05 7.4769196e-05 7.794107e-05 8.207879e-05 8.786471e-05 8.886854e-05
8.575874e-05 8.780631e-05 8.972662e-05 8.991635e-05 9.0663074e-05 9.380889e-05 9.477991e-05 9.650057e-05
9.4103445e-05 8.9242065e-05 8.984793e-05 8.605257e-05 8.246718e-05 8.041255e-05 7.791335e-05 7.113374e-05
6.183501e-05 7.878475e-05 7.2605806e-05 7.333322e-05 7.3329975e-05 7.362191e-05 7.518306e-05 7.63435e-05
7.8008394e-05 7.980555e-05 8.20845e-05 8.577181e-05 9.184664e-05 9.32022e-05 8.966976e-05 9.150264e-05
9.401227e-05 9.472605e-05 9.559079e-05 9.9217454e-05 0.00010030192 0.00010221008 9.955334e-05 9.4158895e-05
9.516037e-05 9.17815e-05 8.798234e-05 8.640215e-05 8.4078274e-05 7.766616e-05 6.853506e-05 8.491759e-05
6.927966e-05 7.031404e-05 7.035764e-05 7.059248e-05 7.1698174e-05 7.276336e-05 7.401613e-05 7.581213e-05
7.804161e-05 8.149463e-05 8.704588e-05 8.830725e-05 8.5186206e-05 8.694056e-05 8.931036e-05 8.973161e-05
