situation_analysis/best_models/model_window60_horizon1.pth (torch, 938090 bytes, 27 tensors)

adapt_adj f4 [60, 60]
0	0x3f780b5d	0.9689234
1	0xbcff9fd7	-0.031204147
2	0xbcff31c3	-0.031151658
3	0xbd003c88	-0.031307727
4	0xbd009115	-0.03138836
5	0xbd00ad81	-0.031415466
6	0xbd00bf3f	-0.031432386
7	0xbd00efd7	-0.03147873
8	0xbd001a09	-0.03127483
9	0xbd002149	-0.031281743
10	0xbcfe2d08	-0.031027332
11	0xbcfc3c3d	-0.030790443
12	0xbcfccd80	-0.030859709
13	0xbcfc059f	-0.0307644
14	0xbcfb3865	-0.03066654
15	0xbcfb6030	-0.030685514
16	0xbcf9acd2	-0.030477915
17	0xbcf63caf	-0.030058233
18	0xbcf51736	-0.029918294
19	0xbcf3a7d7	-0.029743118
20	0xbcf2e674	-0.029650904
21	0xbcf378cb	-0.029720685
22	0xbcf2aa10	-0.029622108
23	0xbcf2d535	-0.02964268
24	0xbcf2f50a	-0.02965786
25	0xbcf125d2	-0.02943698
26	0xbcf06723	-0.029346054
27	0xbcefe021	-0.029281678
28	0xbcef461e	-0.02920824
29	0xbcef5eb9	-0.029219972
30	0xbcee5e92	-0.029097829
31	0xbcecb137	-0.028893096
32	0xbce9dd82	-0.028548006
33	0xbce90dbc	-0.028448932
34	0xbce8a84a	-0.028400559
35	0xbce7898b	-0.028263828
36	0xbce4b6af	-0.027919142
37	0xbce36247	-0.027756823
38	0xbce2bfc3	-0.02767933
39	0xbce318e7	-0.027721835
40	0xbce4ac3d	-0.02791416
41	0xbce3f050	-0.02782455
42	0xbce273a1	-0.027643027
43	0xbce0e69f	-0.027453719
44	0xbcdde2bc	-0.027085654
45	0xbcdd18d1	-0.026989372
46	0xbcdb15ba	-0.026743758
47	0xbcd92386	-0.026506197
48	0xbcd675c6	-0.026179206
49	0xbcd34b15	-0.025792638
50	0xbccf0e6a	-0.025275428
51	0xbccc6379	-0.024949776
52	0xbcc7971a	-0.024364043
53	0xbcc45188	-0.023964658
54	0xbcc0b290	-0.023522645
55	0xbcbb6390	-0.022874624
56	0xbcb49ada	-0.022046495
57	0xbcb021c6	-0.02150048
58	0xbca813d0	-0.02051726
59	0xbcb04f5e	-0.02152222
60	0xbcfc9c86	-0.030836355
61	0x3f780a7d	0.96891004
62	0xbcfe1ca2	-0.031019513
63	0xbcff6ebf	-0.031180738
64	0xbd000c38	-0.031261653
65	0xbd00206e	-0.031280927
66	0xbd001c65	-0.03127708
67	0xbd001adb	-0.03127561
68	0xbcfe7c08	-0.031065002
69	0xbcfe6765	-0.031055162
70	0xbcfc6391	-0.030809196
71	0xbcfab254	-0.030602612
72	0xbcfafca3	-0.030638045
73	0xbcfa4f95	-0.030555526
74	0xbcf99b6f	-0.030469624
75	0xbcf99976	-0.030468684
76	0xbcf7d366	-0.03025217
77	0xbcf4a191	-0.029862197
78	0xbcf34870	-0.029697627
79	0xbcf1c0b6	-0.029510837
80	0xbcf109a3	-0.02942354
81	0xbcf18546	-0.029482495
82	0xbcf0ca51	-0.029393347
83	0xbcf0d4d1	-0.029398354
84	0xbcf10462	-0.029421035
85	0xbcef3342	-0.029199246
86	0xbcee3322	-0.029077116
87	0xbcedb518	-0.029017016
88	0xbced177b	-0.02894186
89	0xbcecef10	-0.028922588
90	0xbcebce23	-0.028784817
91	0xbce9e139	-0.028549777
92	0xbce70716	-0.028201621
93	0xbce60802	-0.02807999
94	0xbce5ab6d	-0.028035844
95	0xbce46492	-0.027879987
96	0xbce18af6	-0.027532082
97	0xbce05d56	-0.027388256
98	0xbcdf80dc	-0.027283125
99	0xbcdfd52c	-0.027323328
100	0xbce148d4	-0.027500547
101	0xbce076b3	-0.02740035
102	0xbcdea1d6	-0.027176779
103	0xbcdd155e	-0.026987728
104	0xbcd9d6be	-0.026591655
105	0xbcd8e210	-0.026474983
106	0xbcd6ed73	-0.026236271
107	0xbcd52361	-0.026017847
108	0xbcd26f6c	-0.025687896
109	0xbccf11ea	-0.025277097
110	0xbccb0bfb	-0.024785986
111	0xbcc85174	-0.024452902
112	0xbcc3b986	-0.023892175
113	0xbcc0a9ae	-0.02351841
114	0xbcbd0334	-0.023072816
115	0xbcb7e351	-0.02244726
116	0xbcb17202	-0.021660808
117	0xbcad2349	-0.02113499
118	0xbca5837d	-0.0202043
119	0xbcad3431	-0.02114305
120	0xbcfcbd98	-0.030852124
121	0xbcfec0d9	-0.031097816
122	0x3f7806e0	0.9688549
123	0xbd002601	-0.031286243
124	0xbd006c27	-0.031353142
125	0xbd00889b	-0.031380277
126	0xbd00847c	-0.031376347
127	0xbd00702a	-0.031356968
128	0xbcff019d	-0.031128699
129	0xbcfecd37	-0.031103713
130	0xbcfca9b9	-0.030842649
131	0xbcfb167a	-0.030650366
132	0xbcfb4624	-0.030673094
133	0xbcfa796d	-0.030575478
134	0xbcf9ccef	-0.030493228
135	0xbcf9da52	-0.030499611
136	0xbcf833d0	-0.030298144
137	0xbcf5119f	-0.029915629
138	0xbcf3f7ab	-0.029781183
139	0xbcf241df	-0.029572425
140	0xbcf19d2e	-0.029493894
141	0xbcf1f8ef	-0.029537646
142	0xbcf12d69	-0.029440599
143	0xbcf148a5	-0.029453585
144	0xbcf18242	-0.029481057
145	0xbcefda54	-0.029278912
146	0xbceecf22	-0.029151503
147	0xbcee78d6	-0.029110353
148	0xbcedcad0	-0.029027373
149	0xbced91a9	-0.02900012
150	0xbceca469	-0.02888699
151	0xbceae229	-0.028672295
152	0xbce7f8d0	-0.028316885
153	0xbce710b2	-0.028206203
154	0xbce68ee8	-0.028144315
155	0xbce5174a	-0.027965207
156	0xbce28014	-0.027648963
157	0xbce14de9	-0.02750297
158	0xbce0c56b	-0.027437886
159	0xbce10318	-0.027467296
160	0xbce25a2d	-0.02763089
161	0xbce16bd4	-0.027517237
162	0xbcdfc7ac	-0.02731689
163	0xbcde2788	-0.02711846
164	0xbcdb29f3	-0.026753401
165	0xbcda2a67	-0.026631547
166	0xbcd884c5	-0.026430497
167	0xbcd6d12a	-0.026222784
168	0xbcd44faa	-0.025916893
169	0xbcd11c3c	-0.025526159
170	0xbccd1499	-0.025034236
171	0xbcca80d3	-0.024719631
172	0xbcc5d10c	-0.024147533
173	0xbcc2f499	-0.023798274
174	0xbcbf6e07	-0.023367895
175	0xbcba6546	-0.022753369
176	0xbcb43864	-0.021999545
177	0xbcb00f7c	-0.021491759
178	0xbca8c7db	-0.020603111
179	0xbcb07c1a	-0.021543551
180	0xbcf99b8a	-0.030469675
181	0xbcfb529b	-0.030679038
182	0xbcfbd49e	-0.030741032
183	0x3f780ff8	0.96899366
184	0xbcfe9706	-0.031077873
185	0xbcfe926e	-0.031075682
186	0xbcfe6e85	-0.03105856
187	0xbcfe11ba	-0.031014312
188	0xbcfc529f	-0.030801116
189	0xbcfbf538	-0.030756578
190	0xbcf9eda0	-0.030508816
191	0xbcf837fb	-0.030300131
192	0xbcf81b51	-0.030286463
193	0xbcf7494f	-0.030186323
194	0xbcf69733	-0.030101394
195	0xbcf6b890	-0.030117303
196	0xbcf545d2	-0.02994052
197	0xbcf23b8e	-0.029569414
198	0xbcf11c59	-0.029432463
199	0xbcef852d	-0.029238308
200	0xbceecdd0	-0.029150873
201	0xbceef7d6	-0.029170912
202	0xbcee50df	-0.029091297
203	0xbcee1df7	-0.029067023
204	0xbcee4d40	-0.02908957
205	0xbcec9fce	-0.028884795
206	0xbceb97b8	-0.028758869
207	0xbceb352f	-0.028711883
208	0xbcea8e00	-0.028632164
209	0xbcea2c71	-0.028585644
210	0xbce903ba	-0.02844416
211	0xbce74c8f	-0.028234748
212	0xbce4901f	-0.027900754
213	0xbce3a496	-0.027788442
214	0xbce310e0	-0.027718008
215	0xbce18ad5	-0.02753202
216	0xbcdec944	-0.02719558
217	0xbcdd7bd8	-0.027036592
218	0xbcdcd065	-0.026954839
219	0xbcdcda06	-0.02695943
220	0xbcde0c91	-0.027105602
221	0xbcdd233f	-0.026994346
222	0xbcdb7522	-0.026789252
223	0xbcd9ec28	-0.026601866
224	0xbcd6dcb8	-0.026228294
225	0xbcd5cac1	-0.026097657
226	0xbcd40321	-0.025880398
227	0xbcd23b3b	-0.025663009
228	0xbccfac99	-0.025350856
229	0xbccca350	-0.024980217
230	0xbcc89677	-0.02448581
231	0xbcc619d0	-0.02418223
232	0xbcc1cedf	-0.023658214
233	0xbcbeec5e	-0.023306068
234	0xbcbbc0f5	-0.022919158
235	0xbcb7176e	-0.02235004
236	0xbcb1382c	-0.02163323
237	0xbcad3448	-0.021143094
238	0xbca644af	-0.020296423
239	0xbcacf4aa	-0.021112759
240	0xbcf96392	-0.030442987
241	0xbcfb0327	-0.030641152
242	0xbcfb6443	-0.030687457
243	0xbcfd4fbc	-0.03092181
244	0x3f7809a4	0.9688971
245	0xbcfec1be	-0.031098243
246	0xbcfeb45a	-0.031091858
247	0xbcfe4b09	-0.031041639
248	0xbcfc8858	-0.030826733
249	0xbcfc4e14	-0.03079895
250	0xbcfa2693	-0.030535972
251	0xbcf88475	-0.030336598
252	0xbcf85a32	-0.030316446
253	0xbcf77822	-0.030208651
254	0xbcf68f3e	-0.0300976
255	0xbcf64e0b	-0.03006651

gc1.fc.weight f4 [128, 30]
0	0x3dfb8ba0	0.12282491
1	0x3e243a33	0.16037826
2	0x3d8352b0	0.06412256
3	0x3d336e81	0.043806557
4	0xbe43b2d8	-0.19111192
5	0x3cc38ce3	0.023870891
6	0xbde98fa1	-0.11404348
7	0x3ddbc201	0.10730363
8	0xbe370f0b	-0.17876832
9	0x3c9474f8	0.018122181
10	0x3df1a144	0.11798337
11	0xbe469af5	-0.19395049
12	0xbdd4c9c4	-0.10390046
13	0xbde26710	-0.11054814
14	0x3e0a5b81	0.13511468
15	0xbd37a0eb	-0.044831198
16	0xbd6d1ad4	-0.057886913
17	0xbd1f0710	-0.038825095
18	0x3caeea38	0.021351919
19	0xbd2679b7	-0.04064342
20	0x3df34a8b	0.11879452
21	0x3e02b21a	0.12763253
22	0x3cb6bb70	0.022306174
23	0xbd82ed96	-0.06392972
24	0x3de05001	0.109527595
25	0x3d4bddd8	0.049772114
26	0x3e34465d	0.17604966
27	0xbdaf6aca	-0.0856529
28	0x3d09d229	0.03364769
29	0xbe173b22	-0.14768651
30	0xbd7329c6	-0.05936601
31	0x3d6800c9	0.056641374
32	0xbdd6ad6c	-0.10482296
33	0x3e5596a7	0.2085825
34	0x3dc3d42c	0.09561953
35	0xbdffc8ac	-0.12489447
36	0xbc683061	-0.014171691
37	0x3d5b0ef3	0.053481054
38	0x3d8db4be	0.069192395
39	0xbe46e8e9	-0.19424786
40	0x3e3c9d5f	0.18419407
41	0xbe4aea97	-0.19816051
42	0xbb6391a6	-0.0034724264
43	0x3e3be4f3	0.18349056
44	0xbb8a9539	-0.0042292145
45	0x3d9f6511	0.07782949
46	0xba1e5f5c	-0.00060414313
47	0xbd5bdbb7	-0.053676333
48	0x3cbf4b13	0.023351228
49	0xbd45792e	-0.04821127
50	0xbdd08384	-0.101813346
51	0xbcb941f8	-0.022614464
52	0xbd1b06e6	-0.037848376
53	0xbd8c4129	-0.06848366
54	0xbdab74fb	-0.08371922
55	0xbdfe4b31	-0.124166854
56	0x3d96bbdd	0.07360051
57	0x3d025da3	0.03182758
58	0x3d85bf74	0.065306574
59	0x3e1aba4e	0.15110132
60	0x3e16d74f	0.14730571
61	0x3e4b00eb	0.19824569
62	0x3e1dd2ef	0.15412496
63	0xbda95021	-0.082672365
64	0x3e029c0c	0.1275484
65	0x3e10142a	0.14070192
66	0xbe8f39c0	-0.27973747
67	0x3de5a881	0.1121378
68	0xbad8df77	-0.001654609
69	0x3da5ab24	0.08089283
70	0xb7ab9912	-2.0456067e-05
71	0xbd752b53	-0.05985577
72	0x3de1ee28	0.11031753
73	0x3db27214	0.08713165
74	0x3e537768	0.20651019
75	0x3e207431	0.15669324
76	0xbdc3e358	-0.09564847
77	0x3b3afef8	0.002853332
78	0x3de6d6a8	0.11271411
79	0x3e29aed0	0.16570592
80	0xbd831b0b	-0.064016424
81	0x3e0c78ea	0.13718
82	0x3d62743a	0.055286624
83	0x3d007dd1	0.031369988
84	0xbd6f1e46	-0.05837848
85	0x3dd2527d	0.1026964
86	0xbd06696c	-0.032815382
87	0x3bb894bb	0.0056329644
88	0xbdfe8cf2	-0.12429227
89	0x3d8a907a	0.06765838
90	0x3d333cb6	0.04375907
91	0x3e13035b	0.14356749
92	0x3d9fd413	0.07804122
93	0xbd48785c	-0.04894291
94	0xbe22dad9	-0.15903796
95	0xbe26f5e9	-0.16304745
96	0xbd4fd9b0	-0.050744712
97	0xbe554919	-0.20828666
98	0xbdb61d05	-0.08892254
99	0x3dd17ddb	0.10229083
100	0x3de37b90	0.11107552
101	0x3d30a201	0.04312325
102	0xbd8d288e	-0.06892501
103	0xbe277d05	-0.16356285
104	0xbcdb41c3	-0.026764756
105	0xbdcff31d	-0.10153792
106	0xbcdcee63	-0.02696914
107	0x3ddea7f6	0.1087188
108	0xbe02b95e	-0.12766024
109	0xbdc7065a	-0.09718008
110	0x3dee2405	0.11627964
111	0xbe050a3a	-0.12992182
112	0x3de7113b	0.11282583
113	0x3c5be14a	0.013420412
114	0xbdbc2924	-0.091875345
115	0xbd9d1eaa	-0.07671864
116	0xbde4824b	-0.11157664
117	0xbdbf1d44	-0.09331754
118	0x3e021311	0.12702586
119	0xbe482f7e	-0.19549367
120	0xbe21399a	-0.1574463
121	0xbe004baa	-0.12528864
122	0xbdbc7def	-0.092037074
123	0x3c645fea	0.013938883
124	0xbc35a794	-0.011087317
125	0xbd347b78	-0.04406306
126	0xba055f3a	-0.0005087737
127	0xbddd1a88	-0.10796076
128	0xbd406b04	-0.046977058
129	0xbe2ac4a8	-0.16676581
130	0x3cfe2db9	0.031027662
131	0xbdfc7a33	-0.12327995
132	0xbe4253c6	-0.1897727
133	0xbe4df022	-0.20111135
134	0x3def448e	0.11682998
135	0x3df5e8a4	0.12007263
136	0xbdc081f3	-0.09399786
137	0x3cd596b4	0.026072837
138	0x3dbab943	0.09117367
139	0xbd6326c0	-0.055456877
140	0xbe207ec0	-0.15673351
141	0xbe430a0b	-0.190468
142	0xbdfddc06	-0.12395482
143	0xbde9f4fb	-0.114236794
144	0x3d8ff98d	0.0703002
145	0xbe224c3d	-0.15849395
146	0x3d7882d3	0.06067164
147	0xbd560676	-0.052252255
148	0x3de4bf54	0.111693054
149	0xbe162e95	-0.14666207
150	0x3e4b4c06	0.1985322
151	0xbd1ba83d	-0.03800224
152	0xbdd8509e	-0.105622515
153	0x3d2d05f7	0.042242017
154	0xbd7a08af	-0.061043438
155	0xbb5b67f2	-0.0033478704
156	0xbe74a191	-0.23889758
157	0xbe13cb19	-0.14432944
158	0xbde10244	-0.1098676
159	0x3d68fae2	0.056879885
160	0xbdbecd14	-0.09316459
161	0xbd90f474	-0.07077876
162	0xbe113c40	-0.1418314
163	0xbc95877a	-0.018253077
164	0xbdaaccf1	-0.08339871
165	0xbdc381d1	-0.09546245
166	0xbd9fde12	-0.078060284
167	0xbe0d3839	-0.13790978
168	0x3e2cd512	0.16878155
169	0xbe3f82b0	-0.18702197
170	0x3e29a9d0	0.16568685
171	0x3e23d18a	0.15997902
172	0x3e137fd5	0.14404233
173	0x3e2ed114	0.17071944
174	0x3dcf51a9	0.10122997
175	0x3b621905	0.0034499776
176	0x3e0df30d	0.13862248
177	0xbd32e374	-0.043673947
178	0x3db29484	0.08719733
179	0x3e29f7eb	0.1659848
180	0x3d22d88d	0.0397573
181	0xbdab316d	-0.083590366
182	0x3e0d6ff6	0.13812241
183	0xbe0a9ee7	-0.13537179
184	0x3d13f0a1	0.036118153
185	0xbd4103d4	-0.04712279
186	0x3db58d5e	0.08864854
187	0xbc8b11da	-0.016976286
188	0x3ca59894	0.020214356
189	0xbc98ea24	-0.018666334
190	0x3d1ff9b2	0.039056487
191	0x3de17518	0.11008662
192	0xbda47420	-0.080299616
193	0x3dab3061	0.08358837
194	0xbdbc60f8	-0.09198183
195	0xbe1ac3c6	-0.15113744
196	0xbe0fc1a9	-0.14038719
197	0xbd857596	-0.06516568
198	0xbe4aac63	-0.19792323
199	0xbdc9d1f8	-0.098545015
200	0x3d103afd	0.035212506
201	0xbe06ee31	-0.131768
202	0x3d24fdee	0.04028123
203	0x3db2536a	0.08707316
204	0xbe015510	-0.12630105
205	0x3cadd86c	0.021221362
206	0x3d6278e6	0.05529108
207	0xbd5bb7c8	-0.053642064
208	0xbe744bb1	-0.23856999
209	0xbd9fbdcf	-0.07799875
210	0x3d99505a	0.07486029
211	0xbd01bbaf	-0.03167313
212	0xbde45320	-0.11148667
213	0xbe00a8ba	-0.12564364
214	0xbd65f9d7	-0.05614647
215	0xbe17ddb7	-0.14830671
216	0xbb9dbed6	-0.004814009
217	0xbde103ba	-0.10987039
218	0xbe0b1625	-0.13582666
219	0xbdcd5fd1	-0.10028041
220	0xbdb9c413	-0.09070601
221	0xbe1aa81b	-0.1510319
222	0x3cb577c6	0.022151839
223	0xbc6f29b6	-0.014597347
224	0x3dc41e2d	0.09576068
225	0x3cdcb32d	0.026940906
226	0xbd18b5e8	-0.037282854
227	0xbdab6c3b	-0.08370253
228	0x3da60210	0.08105862
229	0x3d386cc9	0.04502562
230	0x3ddc4c92	0.10756792
231	0xbc718b82	-0.014742734
232	0x3dacbe58	0.08434743
233	0x3d77af57	0.06046995
234	0x3d3d79e8	0.046258837
235	0x3e060183	0.13086514
236	0xbdf9ebbb	-0.12203165
237	0xbe0e4c6a	-0.13896337
238	0x3e0b896c	0.13626641
239	0x3e0a9e5b	0.1353697
240	0x3e495014	0.19659454
241	0xbe124281	-0.14283182
242	0xbc4a49f4	-0.012346733
243	0xbca522e5	-0.02015824
244	0x3e35641b	0.17713968
245	0x3e19f5bc	0.15035146
246	0xbe0268cb	-0.12735288
247	0xbd4814da	-0.04884801
248	0xbe13ffba	-0.1445302
249	0xbda9886b	-0.08277973
250	0xbd36ab5b	-0.04459701
251	0xbb7fd1a5	-0.003903487
252	0xbdc7ef73	-0.09762468
253	0x3d15cada	0.036570407
254	0xbde7727a	-0.113011315
255	0x3dae1ef0	0.085019946

gc1.fc.bias f4 [128]
0	0xbd8602ef	-0.06543528
1	0xbcb88750	-0.02252546
2	0xbd197074	-0.03746076
3	0xbc61a25a	-0.013771618
4	0x3e38b2b4	0.1803692
5	0x3da66a64	0.08125761
6	0x3dcc4268	0.099736035
7	0x3b7c3655	0.0038484533
8	0x3df3727e	0.11887072
9	0x3dd08e56	0.101833984
10	0xbdc1d897	-0.09465139
11	0x3d0941ec	0.033510134
12	0x3dec40d4	0.115358025
13	0x3e1dc400	0.154068
14	0xbdfbd097	-0.12295645
15	0xbdf15a76	-0.11784832
16	0x3db7be3e	0.08971833
17	0xbe87ea29	-0.26545838
18	0x3d99a459	0.0750205
19	0xbd959873	-0.07304468
20	0xbd77237a	-0.060336567
21	0xbea3ff63	-0.32030782
22	0x3d0fb076	0.035080396
23	0xbe2a0a2f	-0.16605447
24	0x3d2a9da6	0.04165425
25	0xbcf6677c	-0.030078642
26	0xbdfa7bac	-0.1223062
27	0xbd3dc3a4	-0.046329156
28	0x3dbca499	0.09211082
29	0x3d8dae65	0.06918029
30	0x3e1f98c4	0.15585619
31	0x3dcbd295	0.09952275
32	0xbe31c989	-0.17362036
33	0xbe0f3525	-0.13985117
34	0x3df64436	0.12024729
35	0x3e31ec86	0.17375383
36	0x3d80ddf5	0.06292335
37	0x3e09795c	0.13425201
38	0xbdc301b6	-0.09521811
39	0x3dec168b	0.11527737
40	0xbd30e80c	-0.043190047
41	0xbd7e687a	-0.062111355
42	0x3e540458	0.20704782
43	0x3db2a236	0.087223455
44	0xbd81ae67	-0.06332093
45	0xbe5a8086	-0.2133809
46	0xbd8eef65	-0.06979255
47	0xbd19ccbf	-0.037548777
48	0xbe1679d5	-0.14694913
49	0xbe1fdf97	-0.15612637
50	0x3d3d3fd4	0.04620345
51	0xbe30b6fb	-0.17257302
52	0x3dc1e453	0.094673775
53	0xbdde0a6b	-0.10841831
54	0xbe36de89	-0.17858328
55	0x3db1620e	0.086612806
56	0xbdebb741	-0.11509562
57	0xbd37f8c8	-0.04491499
58	0xbe1f22e5	-0.15540655
59	0x3c8c5f9a	0.01713543
60	0xbe1092cc	-0.14118499
61	0x3de873ea	0.11350234
62	0xbde08474	-0.109627634
63	0x3b6d3e35	0.0036200408
64	0xbdf99add	-0.12187741
65	0xbe1af5d2	-0.15132836
66	0x3dfbf363	0.12302282
67	0xbcb71ae5	-0.022351691
68	0x3d5d5d86	0.05404427
69	0xbe4a6ddb	-0.19768469
70	0x3e181ec5	0.14855488
71	0xbdfd7b01	-0.12376977
72	0xbe06e86a	-0.13174596
73	0xbe232721	-0.15932895
74	0xbe2fb67a	-0.17159453
75	0xbd6b0646	-0.05737903
76	0xbd0e26c0	-0.034704924
77	0xbe388837	-0.18020712
78	0xbcfc72a1	-0.030816378
79	0xbd41127a	-0.04713676
80	0x3d718873	0.05896802
81	0xbe1fe144	-0.15613276
82	0x3d6f1053	0.058365177
83	0x3d2343f3	0.039859723
84	0x3d03c3a9	0.032169018
85	0xbc540c41	-0.012942375
86	0xbe1ba8cc	-0.1520111
87	0xbc509cd1	-0.0127327
88	0xbe0e9a65	-0.13926084
89	0xbe478c05	-0.19487007
90	0x3de6a8d6	0.11262672
91	0x3d493b11	0.049128596
92	0x3d86d866	0.065842435
93	0xbe2b18ed	-0.16708727
94	0xbe73e8c1	-0.23819257
95	0x3e0ca859	0.13736095
96	0xbdd5a466	-0.10431747
97	0xbd672f1b	-0.056441408
98	0xbcc12289	-0.023576038
99	0x3d93eb45	0.072226085
100	0xbe1f6e60	-0.15569448
101	0xbe3808bf	-0.17972086
102	0x3d90a4d9	0.07062692
103	0x3e3179dc	0.17331642
104	0x3dcc8a4b	0.09987315
105	0xbda1d912	-0.07902731
106	0x3e193b88	0.14964116
107	0xbdd43113	-0.10360923
108	0x3daf47bb	0.085586034
109	0xbda104a6	-0.07862215
110	0xbd21f632	-0.03954143
111	0xbc68d375	-0.014210572
112	0x3dbc50a2	0.09195067
113	0x3db1b504	0.08677104
114	0xba411394	-0.0007365283
115	0xbe209ad7	-0.15684067
116	0x3e0061ae	0.12537262
117	0xbb333ea9	-0.002735058
118	0xbdcd3462	-0.10019757
119	0xbdb2fbe3	-0.0873945
120	0x3d6fc604	0.05853845
121	0xbd8b5d6c	-0.06804928
122	0xbc3630e1	-0.011120052
123	0x3dcfbb80	0.10143185
124	0xbe6916d6	-0.22762617
125	0x3df9a688	0.121899664
126	0xbe00df69	-0.12585224
127	0x3d0f9929	0.035058174

gc2.fc.weight f4 [128, 128]
0	0xbdb89780	-0.09013271
1	0xbd43ec4c	-0.047832772
2	0xbd36175d	-0.044455875
3	0x3d5a1004	0.05323793
4	0xbdc9c643	-0.098522685
5	0xbd9c9685	-0.07645897
6	0xbd1cf86e	-0.03832286
7	0xbd4b7b2a	-0.049678005
8	0xbd8b8711	-0.06812871
9	0xbd374b99	-0.04474983
10	0xbc8e4353	-0.017366087
11	0xbdbdd81a	-0.09269734
12	0xbde75767	-0.112959675
13	0x3d926e88	0.071499884
14	0x3c412530	0.011788651
15	0xbdb2721f	-0.08713173
16	0x3c0f81ce	0.008758975
17	0xbd942ab2	-0.07234706
18	0xbd2e804b	-0.04260282
19	0x3dc389c8	0.09547764
20	0xbe0666d1	-0.13125159
21	0x3cfdafe7	0.030967666
22	0x3da0cf86	0.07852082
23	0x3d20f772	0.039298482
24	0xbda23ce2	-0.07921769
25	0xbd1e8d79	-0.038709138
26	0xbdcc46cb	-0.0997444
27	0x3d0c8f62	0.034316428
28	0x3c79fb16	0.015257617
29	0xbd6a8bde	-0.057262294
30	0x3c2a91e7	0.010410762
31	0xbdc55014	-0.09634414
32	0xbd1fa58b	-0.038976233
33	0xbc226940	-0.009912789
34	0x3d939718	0.07206553
35	0x3c7be137	0.01537352
36	0x3c8178e8	0.015804723
37	0xbd9c9f17	-0.076475315
38	0x3a43ba2b	0.0007466401
39	0xbda5a8c7	-0.08088832
40	0x3cdb7a82	0.026791815
41	0x3c545673	0.012960064
42	0x3dcd85c1	0.10035277
43	0x3d329432	0.04359836
44	0xbd805bce	-0.0626751
45	0xbd0b5ece	-0.03402596
46	0x3d0154d8	0.031575054
47	0x3d1badc3	0.03800751
48	0x3d07659c	0.033055887
49	0xbca1b27d	-0.01973843
50	0xbd85e13c	-0.06537101
51	0xbd3e401a	-0.04644785
52	0xbddf3149	-0.10898072
53	0xbd4823e3	-0.04886235
54	0x3d825a6a	0.06364901
55	0xbca20319	-0.019776868
56	0x3d9ab309	0.075536795
57	0xbc72fcec	-0.014830809
58	0xbdafe6e7	-0.08588963
59	0x3d6f39fc	0.058404908
60	0xbd811df4	-0.06304541
61	0x3d89d36f	0.06729781
62	0xbd1e447a	-0.038639523
63	0x3b1173ba	0.0022194223
64	0x3d1fa939	0.038979743
65	0xbd6d924d	-0.05800085
66	0xbdaa2a1b	-0.08308812
67	0xbd9572a1	-0.07297254
68	0xbddee289	-0.10883052
69	0xbdbd2721	-0.09235979
70	0x3d9fd161	0.07803608
71	0x3ca16a2c	0.019703947
72	0x3d8c3261	0.068455465
73	0xbc92d943	-0.017925864
74	0xbd83bc44	-0.06432393
75	0xbd87ec43	-0.0663686
76	0xbca5e1f8	-0.020249352
77	0x39b8e142	0.00035263045
78	0xbd5d5da4	-0.05404438
79	0x3d35b041	0.044357542
80	0xbd3b7e10	-0.04577452
81	0xbd11fdb0	-0.035642326
82	0x3d1defca	0.03855876
83	0xbc8f10ac	-0.017464004
84	0xbd9110b7	-0.07083266
85	0xbd453a0d	-0.048151065
86	0x3d1074e8	0.03526774
87	0xbc8363c4	-0.016038783
88	0xbde06ceb	-0.109582745
89	0xbe367298	-0.17817152
90	0x3d1ec468	0.038761526
91	0x3d589df0	0.052884996
92	0xbdb01d79	-0.085993715
93	0x3daca60f	0.08430111
94	0xbd1036bc	-0.03520845
95	0x3d4dabbc	0.050212607
96	0xbda54271	-0.08069313
97	0xbc90cc4a	-0.017675538
98	0xbdb9c5a6	-0.090709016
99	0xbdd75f45	-0.10516218
100	0xbbc7261a	-0.00607754
101	0xbd96fd1f	-0.07372498
102	0x3dc9da89	0.098561354
103	0x3c16548f	0.009175434
104	0x3d2d764f	0.042349156
105	0x3d34e3f5	0.04416271
106	0xbdc4ca05	-0.09608845
107	0x3bbc383d	0.005744009
108	0xbe0201d3	-0.12696008
109	0xbb3060b8	-0.0026913118
110	0x3d8287c7	0.06373554
111	0xbd94b030	-0.072601676
112	0xbb2d7ade	-0.002647094
113	0xbd5f9320	-0.05458367
114	0x3d5dcdb3	0.05415125
115	0x3bff1ce4	0.0077854265
116	0xbc638c4e	-0.013888432
117	0x3b94194e	0.004519618
118	0x3d9c5fa8	0.076354325
119	0xbe04d367	-0.12971269
120	0xbd559764	-0.05214633
121	0xbd884011	-0.06652845
122	0xbdb36b64	-0.087607175
123	0xbde9e0d3	-0.11419835
124	0xbdb47840	-0.08811998
125	0x3cfe3c89	0.031034725
126	0xbce750d6	-0.028236788
127	0xbcafe6d0	-0.021472365
128	0xbda0849d	-0.07837794
129	0x3c126289	0.008934625
130	0xbe2d80b1	-0.16943623
131	0xbd691071	-0.056900445
132	0xbdfdcb53	-0.12392297
133	0xbcc569b4	-0.024098255
134	0x3d03fc32	0.032222934
135	0xbd889824	-0.066696435
136	0x3d2d8f5d	0.04237305
137	0xbe069c7c	-0.13145632
138	0xbcbaeb9d	-0.022817427
139	0xbde09b0d	-0.109670736
140	0x3ba57aeb	0.0050500534
141	0xbd7ec040	-0.062195063
142	0xbd87d7a3	-0.06632926
143	0x3c5ae1ee	0.01335953
144	0xbdc20ff7	-0.09475701
145	0xbe105ec1	-0.14098646
146	0xbc2d4150	-0.010574654
147	0xbddaef26	-0.10690145
148	0xbd506ce0	-0.05088508
149	0x3d26a78c	0.04068713
150	0xbd978b0e	-0.073995695
151	0xbd74a8c0	-0.059731245
152	0xbd116614	-0.03549774
153	0xbe0a2e75	-0.13494284
154	0xbe144ddb	-0.14482825
155	0xbcb7e666	-0.02244873
156	0xbe09199b	-0.13388674
157	0xbd332463	-0.043735873
158	0xbe0b0e74	-0.13579732
159	0xbda750ef	-0.08169734
160	0x3cb6dd94	0.022322454
161	0xbd9a1798	-0.075240314
162	0xbc8b18ae	-0.016979542
163	0xbe493583	-0.1964932
164	0x3cbb75ee	0.022883382
165	0xbd8d201e	-0.068908915
166	0xbbe62af3	-0.007024163
167	0xbd527659	-0.051382396
168	0xbc90e5f2	-0.017687771
169	0x3c63166c	0.013860326
170	0xbe205456	-0.15657172
171	0xbe051846	-0.12997541
172	0x3cfa6a21	0.030568184
173	0x3a95d12d	0.0011430137
174	0xbd8f6c7e	-0.07003115
175	0xbe0dcccc	-0.13847655
176	0xbc30cd75	-0.010791172
177	0xbb854bab	-0.004067858
178	0xbcb33598	-0.021876141
179	0x3cb4b7b6	0.022060256
180	0xbd924c9e	-0.0714352
181	0xbddc67ff	-0.10762023
182	0xbdfe9194	-0.124301106
183	0xbba863ee	-0.0051388657
184	0xbd335f49	-0.043792043
185	0x3d394c36	0.045238696
186	0xbb695e1b	-0.003560907
187	0xbd9c9cee	-0.076471195
188	0xbe057a36	-0.13034901
189	0xbd53bda4	-0.051694527
190	0xbdd806cf	-0.10548174
191	0xbcf56737	-0.029956443
192	0xbe31d8b6	-0.17367825
193	0xbd0810d5	-0.033219177
194	0xbd74e4fd	-0.059788693
195	0xbd65d83b	-0.056114417
196	0xbdc14633	-0.094372176
197	0x3cef5ccb	0.029219052
198	0xbdf95160	-0.12173724
199	0xbd729cc5	-0.05923154
200	0x3dea99b6	0.11455099
201	0x3d66b00b	0.05632023
202	0x3cb51489	0.022104518
203	0x3bdf0cff	0.006806969
204	0x3d0a075a	0.033698417
205	0xbce0610a	-0.027390022
206	0xbdd6bd79	-0.10485358
207	0x3c18df65	0.009330605
208	0xbda69f7f	-0.0813589
209	0xbd12338c	-0.03569369
210	0x3d56495d	0.05231606
211	0xbe167cf0	-0.14696097
212	0xbcfb347f	-0.03066468
213	0xbde27c5f	-0.11058878
214	0xbc8c0a9a	-0.017094899
215	0xbdf8012e	-0.121096
216	0x3d985fec	0.07440171
217	0x3d38d9f7	0.045129742
218	0xbe07eee5	-0.13274725
219	0xbe321ec8	-0.17394555
220	0xbd913cca	-0.07091673
221	0xbca5d202	-0.020241741
222	0xbcb37112	-0.021904502
223	0xbe16742d	-0.14692755
224	0xbd89cc18	-0.06728381
225	0xbc079aa1	-0.0082766125
226	0xbc75708d	-0.0149804475
227	0x3a1c7de7	0.00059696886
228	0xbd31ab9d	-0.043376554
229	0xbdcfa3f5	-0.10138694
230	0xbc2cd477	-0.010548702
231	0x3d16dcc0	0.036831617
232	0xbdababf4	-0.08382407
233	0xbc82b567	-0.01595564
234	0xbda70ec5	-0.08157114
235	0xbdd0f60f	-0.10203182
236	0xbde8a72e	-0.11360012
237	0xbd90d464	-0.0707176
238	0xbcb9aa14	-0.022664107
239	0xbd84b83a	-0.06480451
240	0x3d269fa4	0.04067959
241	0xbe20d1af	-0.15704988
242	0xbd98b528	-0.07456428
243	0x3d0e676d	0.034766603
244	0xbcf03fc2	-0.029327277
245	0x3d0b1253	0.033953022
246	0xbe427476	-0.18989739
247	0xbd4a79b0	-0.049432456
248	0xbd963f34	-0.07336274
249	0xbd0ae831	-0.03391284
250	0xbdc4ddce	-0.096126184
251	0x3d720be7	0.059093382
252	0x3c0cdeec	0.008598071
253	0xbcd927a2	-0.026508156
254	0xbdef07c7	-0.11671405
255	0xbe29e858	-0.16592538

gc2.fc.bias f4 [128]
0	0xbd9a546c	-0.075356334
1	0xbe4cdecb	-0.20006864
2	0x3d1073ea	0.035266794
3	0xbd325cd4	-0.04354556
4	0x3c3d6673	0.01156007
5	0xbd6a0e40	-0.057142496
6	0xbd1d5987	-0.038415458
7	0xbdc9b52a	-0.098490074
8	0x3d3f9422	0.04677213
9	0xbe1ed449	-0.15510668
10	0xbe2d7fe3	-0.16943316
11	0xbe083246	-0.13300428
12	0xbbf5aaa5	-0.007497149
13	0x3d091fb5	0.033477504
14	0xbd6cfe81	-0.0578599
15	0x3d6dabed	0.05802529
16	0xbde71a8a	-0.11284359
17	0xbd38afde	-0.045089595
18	0xbd67a6d2	-0.056555577
19	0x3d584d55	0.052808125
20	0xbcb83d99	-0.02249031
21	0x3d81a8ea	0.06331046
22	0xbd78a986	-0.060708545
23	0x3d4fcb60	0.050731063
24	0x3c6878eb	0.014188985
25	0xbdd3c63e	-0.10340546
26	0x3db28018	0.08715838
27	0xbce28733	-0.027652359
28	0xbce744c9	-0.028231042
29	0x3d58430d	0.05279832
30	0xbc5bf53f	-0.01342517
31	0xbc99cf9a	-0.01877575
32	0xbd5dcb35	-0.05414887
33	0x3c0ef4a7	0.008725322
34	0xbc284916	-0.010271331
35	0xbc837e76	-0.016051512
36	0x3d5d2ad0	0.053995907
37	0xbd4a8153	-0.04943974
38	0xbd328e99	-0.043593023
39	0x3d41d13b	0.04731868
40	0xbdab62b7	-0.08368438
41	0xbc7f11ff	-0.015568255
42	0xbd836389	-0.06415469
43	0x3d9ebe55	0.07751147
44	0xbd49298e	-0.049111895
45	0xbccb3927	-0.024807526
46	0x3d4bd133	0.049760055
47	0xbd3590bb	-0.04432748
48	0x3d6d8c91	0.057995383
49	0x3d9803ae	0.07422577
50	0xbe023120	-0.12714052
51	0xbd840646	-0.06446509
52	0xbddfb473	-0.1092309
53	0xbc8d5de1	-0.017256679
54	0x3d13c264	0.036074057
55	0xbd382d95	-0.044965345
56	0xbd1b33da	-0.037891246
57	0xbd809f6a	-0.06280406
58	0xbd09da71	-0.033655588
59	0xbcee0cff	-0.029058931
60	0xbd75fc3b	-0.060055
61	0x3cb1550e	0.021647003
62	0xbc9562d7	-0.018235607
63	0xbd5cf155	-0.05394109
64	0x3d31d7b4	0.0434186
65	0x3c928760	0.017886817
66	0xbd688c42	-0.056774385
67	0xbe28ef17	-0.16497456
68	0xbd9d62c9	-0.076848574
69	0xbd204167	-0.039124873
70	0xbd689043	-0.056778204
71	0xbdd080e9	-0.10180838
72	0xbc79e6a8	-0.015252747
73	0x3d0ae4b4	0.033909515
74	0xbdaca8c1	-0.08430625
75	0xbd88e737	-0.06684726
76	0xbdb918a4	-0.09037903
77	0xbe0c3441	-0.13691808
78	0xbdab30b8	-0.08358902
79	0x3d16ba26	0.03679862
80	0xbd480e4d	-0.048841763
81	0xbd0f356b	-0.034963053
82	0x3d758675	0.05994268
83	0x3dcb529e	0.09927867
84	0xbd897b89	-0.067130156
85	0x3c6694b6	0.014073541
86	0x3d9689ba	0.07350488
87	0x3c808c5e	0.015691932
88	0x3d3c9acf	0.046046074
89	0xbd8315fc	-0.064006776
90	0xbdad0a6f	-0.08449256
91	0xbd415946	-0.04720428
92	0x3d0dfe60	0.03466642
93	0x3d56c6df	0.052435752
94	0xbd5ba1c2	-0.05362106
95	0xbd8eb1ce	-0.06967507
96	0x3c27a332	0.01023178
97	0x3d8f0088	0.06982523
98	0x3cc4483f	0.02396023
99	0x3c90ae43	0.01766122
100	0xbdd35c82	-0.10320379
101	0xbc7c2ac5	-0.015391056
102	0xbdb2eebb	-0.087369405
103	0xbd8e42fc	-0.0694637
104	0x3d95ce2b	0.07314714
105	0xbe30b818	-0.17257726
106	0xbdc38fc4	-0.095489055
107	0xbe154b90	-0.14579606
108	0xbc963379	-0.018335091
109	0xbcdc0c1f	-0.026861249
110	0xbe2e934b	-0.17048375
111	0xbde27bc7	-0.11058765
112	0xbb9c20b5	-0.004764641
113	0x3c482655	0.01221617
114	0xbdf21535	-0.11820451
115	0x3d51113c	0.051041827
116	0xbc22ace4	-0.009928916
117	0xbd35e096	-0.044403635
118	0x3d938257	0.07202595
119	0xbde408d4	-0.11134496
120	0x3c62510c	0.013813268
121	0xbd9174f2	-0.07102384
122	0xbc67c509	-0.014146098
123	0xbc90f619	-0.017695474
124	0x3d0865ad	0.03330009
125	0xbe0d980f	-0.13827537
126	0xbd690411	-0.056888644
127	0x3d83841a	0.06421681

temporal_conv.weight f4 [128, 128, 3]
0	0xbd88ed39	-0.06685872
1	0xbd1e7cd9	-0.038693283
2	0x3d21510c	0.039383933
3	0xbc129092	-0.008945601
4	0xbdbd69a6	-0.092486665
5	0x3ca16149	0.01969971
6	0xbb83f6ff	-0.004027247
7	0xbc825821	-0.015911164
8	0x3ba30ddc	0.0049760174
9	0xbda1c00b	-0.078979574
10	0x3bc4a5b6	0.0060011996
11	0xbcf78a4e	-0.030217316
12	0xbd97cd31	-0.07412184
13	0xbe08950c	-0.13338107
14	0x3d4ba34b	0.049716275
15	0xbdaf0898	-0.08546561
16	0xbd54e0c8	-0.05197218
17	0x3d4b9182	0.049699314
18	0xbda1bc8d	-0.07897291
19	0xbc9a2bbe	-0.018819686
20	0xbc07f36c	-0.008297782
21	0xbde02932	-0.109453574
22	0xbc1c5bdb	-0.009543384
23	0x3d42a5a2	0.04752124
24	0xbd54b1ed	-0.051927496
25	0xbdb4655f	-0.088083975
26	0xbc025e25	-0.007957016
27	0xbd8f81eb	-0.07007202
28	0xbcd867de	-0.026416715
29	0x3c0e2a10	0.008677021
30	0xbd944baa	-0.07240994
31	0xbda0b59e	-0.07847141
32	0x3c05993b	0.008154209
33	0xbcd628df	-0.026142536
34	0xbce3162b	-0.027720531
35	0xbd2f1e5f	-0.042753574
36	0xbd60ecfa	-0.0549135
37	0xbe0180dd	-0.12646814
38	0xbd15ff49	-0.036620412
39	0xbce9cb43	-0.028539306
40	0xbda9c6d8	-0.082898796
41	0xbcb1d485	-0.021707783
42	0x3d876d05	0.06612591
43	0x3d82047b	0.06348511
44	0xbc82cd99	-0.015967177
45	0xbd4da95b	-0.050210338
46	0xbcd8b6a3	-0.026454275
47	0xbd0d69fc	-0.034524903
48	0xbcb41141	-0.021980884
49	0xbd49caa2	-0.04926551
50	0x3cd8a954	0.02644793
51	0xbdd29e82	-0.10284139
52	0xbdb1cda7	-0.08681803
53	0xbb8b1a6e	-0.004245094
54	0xbdbd8c65	-0.09255294
55	0xbde5b547	-0.112162165
56	0xbc101a2f	-0.008795305
57	0x3d067a8c	0.032831714
58	0x3d611ff3	0.05496211
59	0x3be88393	0.007095763
60	0xb9e822a0	-0.00044276286
61	0xbd1240b6	-0.035706244
62	0x3c64c5cc	0.013963174
63	0xbdad1882	-0.0845194
64	0xbcbb2dc1	-0.022848966
65	0x3d31ad11	0.04337794
66	0x3d47ae1c	0.048750028
67	0x3dc6b702	0.09702875
68	0xbd07a1ae	-0.033113174
69	0xbd673f9b	-0.056457143
70	0xbd4decb5	-0.05027457
71	0x3d3fd0bb	0.04682992
72	0xbce508ad	-0.027958238
73	0xbd655dd3	-0.05599768
74	0x3d19e538	0.037572116
75	0xbdad4d0b	-0.084619604
76	0xbd6f5665	-0.058432
77	0x3cad42b0	0.021149963
78	0xbceea698	-0.029132172
79	0xbc89af7f	-0.016807316
80	0xbcf8d813	-0.03037647
81	0xbdd5b1e6	-0.10434322
82	0xbd42e340	-0.047580004
83	0x3c508a60	0.012728304
84	0x3b8e5f07	0.0043448242
85	0x3bfdd923	0.007746832
86	0x3c990295	0.018677989
87	0x3d836864	0.06416395
88	0x3cdfb97e	0.02731013
89	0xbc95db84	-0.01829315
90	0x3d474d87	0.04865792
91	0x3dc971ca	0.09836157
92	0x3cf46ce2	0.029837076
93	0x3ce2cf08	0.02768661
94	0x3d79c18f	0.060975607
95	0xbd35e016	-0.044403158
96	0xbd6118c6	-0.054955266
97	0xbd723167	-0.059129145
98	0x3d03369d	0.032034505
99	0xbdf611e6	-0.120151326
100	0xbd9e0840	-0.07716417
101	0xbd21060d	-0.03931241
102	0x3d165d6f	0.0367102
103	0x3ce9cd0f	0.028540162
104	0xbc3ad005	-0.011402135
105	0xbd33b5ea	-0.04387466
106	0xbd5d8d2a	-0.054089703
107	0xbcbec97d	-0.023289436
108	0xbde7e09e	-0.11322139
109	0xbd99542b	-0.07486757
110	0x3d148320	0.036257863
111	0x3d909c62	0.07061078
112	0x3db850a1	0.08999754
113	0x3b49cc8f	0.0030792092
114	0xbddedf56	-0.10882442
115	0xbdd7f95c	-0.105456084
116	0xbd0a6250	-0.033785164
117	0x3c0dcc95	0.008654733
118	0xbdc1e5c2	-0.09467651
119	0x3c5b5ccd	0.013388825
120	0xbdd6d0db	-0.10489055
121	0xbd0715d2	-0.032979794
122	0xbd47eb14	-0.048808172
123	0xbce30a0a	-0.027714748
124	0xbc816fc4	-0.015800364
125	0x3d3bce1c	0.045850858
126	0x3cf1417e	0.029450174
127	0x3cdb5afe	0.026776787
128	0xbc8b0c93	-0.01697377
129	0xbdd431dc	-0.103610724
130	0xbdabf0fc	-0.083955735
131	0xbcc1127b	-0.023568382
132	0x3dc295b6	0.09501211
133	0xbd58a3da	-0.052890636
134	0x3c94a4b9	0.018144952
135	0x3d83a79b	0.064284526
136	0x3d9ba3e7	0.07599621
137	0x3d3951e6	0.04524412
138	0xbdcb3af4	-0.09923354
139	0xbdc63547	-0.096781306
140	0x3bc23988	0.0059272684
141	0xbd8fd9a4	-0.070239335
142	0xbd44bea6	-0.04803338
143	0xbd18e90e	-0.037331633
144	0xbd880d57	-0.066431694
145	0xbb2fb42e	-0.0026810276
146	0xb9a0dc02	-0.00030681497
147	0x3be8eef9	0.007108566
148	0x3a33b0c6	0.00068546494
149	0xbc6b5816	-0.014364263
150	0xbd98e22e	-0.07465015
151	0xbd9743c2	-0.07385971
152	0xbb8a299d	-0.0042163865
153	0xbd48e666	-0.04904785
154	0xbd312fdf	-0.043258544
155	0xbbb1aa21	-0.0054218923
156	0xbd13cfff	-0.036087032
157	0xbde08234	-0.10962334
158	0x3c4d5af3	0.012533891
159	0xbdc562c5	-0.096379794
160	0xbdb89b82	-0.09014036
161	0x3b89f62c	0.004210254
162	0x3dbab0a2	0.09115721
163	0x3d4a3782	0.049369343
164	0x3c601d47	0.013678855
165	0xbde7ea84	-0.11324027
166	0xbd1360b9	-0.035980914
167	0x3d46d594	0.048543528
168	0xbdb51e11	-0.08843625
169	0xbde7d343	-0.11319592
170	0x3ce02a26	0.027363848
171	0xbd1acd5b	-0.0377935
172	0x3b8a5c98	0.004222464
173	0x3cea187e	0.028576132
174	0xbd10b873	-0.035332154
175	0xbcbc6068	-0.022995189
176	0x3c85d781	0.016338112
177	0xbcc40e22	-0.02393252
178	0xbd34f52d	-0.04417913
179	0xb9d2ca43	-0.00040205018
180	0xbd86069a	-0.06544228
181	0xbd70abf3	-0.058757734
182	0xb99b3c86	-0.00029608997
183	0x3d17f034	0.03709431
184	0x3db343c7	0.08753162
185	0xbd3fd617	-0.04683503
186	0xbd9e728e	-0.07736693
187	0xbc8c0112	-0.017090354
188	0xbc2fc408	-0.01072789
189	0xbcc51859	-0.024059461
190	0xbcff86f2	-0.031192277
191	0xbd20deab	-0.039274853
192	0x3d91d62b	0.071209274
193	0x3d4e659c	0.05038987
194	0xbb73c81a	-0.0037198127
195	0xbdb6b0a8	-0.08920413
196	0xbd9d3f24	-0.07678059
197	0x3ca589fc	0.020207398
198	0xbda51fde	-0.08062719
199	0xbde0b547	-0.10972076
200	0x3d4ea791	0.050452773
201	0x3dae2ccb	0.08504637
202	0x3ddd8272	0.10815896
203	0x3c801854	0.0156366
204	0xbd05d83c	-0.03267692
205	0xbd9370f5	-0.07199279
206	0x3c6c04ac	0.014405411
207	0xbe0401a2	-0.12891248
208	0xbd8f84dc	-0.07007763
209	0xbcb35ff6	-0.021896344
210	0xbcea47fe	-0.028598782
211	0xbd4048a4	-0.046944275
212	0xbcbfc765	-0.023410508
213	0xbd509a75	-0.05092855
214	0xbd8f39fe	-0.06993483
215	0xbc1cb8f6	-0.0095655825
216	0x3d037e66	0.032102965
217	0x3dc8890a	0.09791763
218	0x3ca777af	0.020442812
219	0xbdc07540	-0.09397364
220	0xbd0b03c7	-0.03393915
221	0xbd497294	-0.049181536
222	0xbd8b5f60	-0.06805301
223	0xbd471947	-0.04860809
224	0x3b953efd	0.004554628
225	0xbd16c987	-0.036813285
226	0xbcaa9b43	-0.020825988
227	0xbcb18324	-0.021668978
228	0xbc902523	-0.017595833
229	0xbcc50c3c	-0.024053685
230	0xbd44a68e	-0.0480104
231	0xbda96585	-0.082713164
232	0xbdfb2fc1	-0.12264968
233	0xbc7fd6b7	-0.015615157
234	0xbd91850b	-0.07105454
235	0xbdc9bc12	-0.09850325
236	0x3d4ed2c6	0.050493978
237	0xbd34f6d6	-0.044180714
238	0xbb9fbc34	-0.0048747305
239	0xbcae5141	-0.02127898
240	0xbd2705e7	-0.040777113
241	0xbd551bd1	-0.05202848
242	0xbc990148	-0.018677369
243	0xbd82d55d	-0.06388352
244	0xbd233a29	-0.039850388
245	0x3d203ae5	0.039118666
246	0xbdee4ce7	-0.11635762
247	0xbd68777d	-0.056754578
248	0xbd32690a	-0.043557204
249	0xbd157144	-0.03648497
250	0xbd704920	-0.058663487
251	0x3cb897e0	0.022533357
252	0xbccb4785	-0.024814377
253	0x3da4cd0b	0.08046921
254	0xbcbe7f7b	-0.023254147
255	0x3db4cc9e	0.0882809

temporal_conv.bias f4 [128]
0	0xbdb3d87a	-0.08781524
1	0x3dc8ac2a	0.09798463
2	0xbc0241d0	-0.007950261
3	0xbdca2163	-0.09869649
4	0xbdb550c2	-0.08853294
5	0xbda114ba	-0.078652814
6	0xbdc2ee32	-0.095180884
7	0xbd381091	-0.044937674
8	0xbc034346	-0.008011645
9	0xbb2e9b00	-0.002664268
10	0xbd1fba51	-0.038996045
11	0x3d6e8ea1	0.05824149
12	0x3d1facf8	0.038983315
13	0xbc1eff0c	-0.009704363
14	0x3cb92301	0.022599699
15	0x3e01ca84	0.1267491
16	0xbdd0f856	-0.10203616
17	0xbd970791	-0.0737449
18	0x395d06d6	0.00021078749
19	0xbe15ca58	-0.1462797
20	0xbc74e9ed	-0.01494835
21	0xbd5d775c	-0.054068908
22	0x3bb17d37	0.005416538
23	0x3d8e3334	0.0694336
24	0x3d1137e7	0.035453703
25	0xbd3530fb	-0.044236165
26	0xbde18e51	-0.11013473
27	0xbd908cb6	-0.070580885
28	0xbdae8c4e	-0.08522855
29	0x3d0f1853	0.034935307
30	0xbd4bd6e7	-0.049765494
31	0xbd5080e8	-0.050904185
32	0xbdf830f9	-0.12118716
33	0xbd58f554	-0.052968338
34	0x3ab70be2	0.0013965333
35	0xbd814e5c	-0.06313774
36	0xbd1ec27b	-0.03875969
37	0xbd72ea87	-0.059305694
38	0xbdd191bf	-0.10232877
39	0x3c81e523	0.015856331
40	0x3cd1fdb8	0.025633678
41	0xbc72e503	-0.014825108
42	0xbc7b16cc	-0.015325259
43	0xbcccff42	-0.02502406
44	0xbd9c007e	-0.076172814
45	0xbdca6a5b	-0.09883567
46	0xbd202bbe	-0.039104216
47	0xbc0687b1	-0.008211062
48	0xbdb7b3aa	-0.08969815
49	0x3d14aeb1	0.03629941
50	0x3d600838	0.054695338
51	0xbc779b21	-0.015112669
52	0xbdbdef0f	-0.092741124
53	0xbdfe908e	-0.12429915
54	0x3c158069	0.009124854
55	0x3e08211c	0.1329388
56	0xbdd6443e	-0.10462235
57	0xbcfc8351	-0.030824335
58	0xbd8facdb	-0.070153914
59	0xbcc6f75d	-0.024287874
60	0xbd891522	-0.06693484
61	0xbdd068b2	-0.10176219
62	0xbdd390c7	-0.103303485
63	0xbcb142c2	-0.021638278
64	0x3cb94644	0.022616513
65	0x3cd87ad4	0.026425757
66	0x3c426845	0.01186568
67	0xbbe863a0	-0.0070919544
68	0xbd0d65ae	-0.034520797
69	0x3cd85f90	0.026412755
70	0xbd6e06f8	-0.058112115
71	0xbda97f6b	-0.08276256
72	0x3c9da99e	0.019245919
73	0x3d558856	0.052131973
74	0xbda0f7d9	-0.07859773
75	0xbca7c139	-0.020477878
76	0xbdf23f4b	-0.118284784
77	0xbce4b476	-0.027918082
78	0xbd21fbc2	-0.039546736
79	0xbdb7c3cc	-0.08972892
80	0xbdc02662	-0.09382321
81	0x3e0d4527	0.13795911
82	0x3cd7bee2	0.026336137
83	0xbc2481ca	-0.01004071
84	0x3c94e846	0.018177163
85	0x3d12a87b	0.035805207
86	0xbd72c4bb	-0.059269648
87	0x3ce47bd1	0.027891072
88	0xbc983015	-0.018577615
89	0xbceed498	-0.029154107
90	0xbcae25c2	-0.021258239
91	0x3de58b06	0.11208157
92	0x3d51806f	0.051147874
93	0x3d8708a4	0.06593445
94	0x3dd5bbc3	0.10436203
95	0x3d4843d3	0.048892807
96	0xbdd589a0	-0.104266405
97	0x3c2ad71c	0.010427263
98	0x3d341694	0.043966845
99	0xbb1e1190	-0.0024119355
100	0x3d645227	0.05574241
101	0x3d0970e8	0.03355494
102	0xbc84d63c	-0.016215436
103	0xbd7e3947	-0.062066343
104	0xbda9232b	-0.08258661
105	0xbd464f6f	-0.048415598
106	0xbd13ab8b	-0.036052268
107	0x3af10be0	0.001839038
108	0xbdd18978	-0.10231298
109	0x3cf86ca9	0.03032525
110	0xbd8a6047	-0.06756645
111	0x3d539f3e	0.051665537
112	0xbcc65eeb	-0.024215182
113	0xbcfe1536	-0.031015974
114	0x3db32ff2	0.08749379
115	0xbd12760f	-0.03575712
116	0xbd625478	-0.055256337
117	0xbd156653	-0.036474537
118	0xbd19f11b	-0.03758345
119	0xbca777d0	-0.020442873
120	0xbd0dbb68	-0.034602553
121	0x3d89749b	0.06711694
122	0xbda2bc48	-0.07946068
123	0x3b3833de	0.0028107087
124	0xbd7f1e6a	-0.062284864
125	0xbd807759	-0.06272764
126	0xbd8158a4	-0.06315735
127	0xbd8293b1	-0.06375826

fc.weight f4 [30, 128]
0	0xbcea0679	-0.02856754
1	0xbd28395d	-0.04107033
2	0xbd084f9b	-0.033279043
3	0x3cb2da70	0.021832675
4	0xbdf18ece	-0.11794816
5	0x3c07d185	0.008289699
6	0xbd5923c1	-0.053012613
7	0xbe0597a6	-0.1304613
8	0xbc0d1184	-0.008610133
9	0x3da9c622	0.08289744
10	0xbc720da9	-0.014773765
11	0xbb69e6f4	-0.0035690637
12	0x3d8b11d1	0.067905076
13	0xbd778046	-0.060425065
14	0x3e0ce712	0.13760021
15	0x3e070718	0.131863
16	0xbd949d82	-0.07256605
17	0x3def9876	0.116990015
18	0x3e1bb752	0.1520665
19	0xbdca8866	-0.09889297
20	0xbdc9ad2d	-0.09847484
21	0xbae12461	-0.001717698
22	0xbc79a544	-0.015237156
23	0x3da577f0	0.08079517
24	0xbdae3713	-0.08506598
25	0x3e638e0d	0.22222157
26	0xbd0b6e52	-0.034040757
27	0xbe027020	-0.12738085
28	0xbcee1393	-0.029062068
29	0x3c8ad9a9	0.016949492
30	0x3d5a45ef	0.05328935
31	0xbd24f7ac	-0.04027526
32	0x3aa9367d	0.0012909916
33	0x3d5930aa	0.053024925
34	0xbd9a185d	-0.07524178
35	0xbde4cd2b	-0.11171945
36	0xbd099152	-0.033585854
37	0x3cbb4670	0.022860736
38	0xbd14d8f2	-0.036339708
39	0x3d46fb76	0.048579656
40	0xbd70492b	-0.05866353
41	0xbd9597e7	-0.07304364
42	0xbcd76d92	-0.026297364
43	0xbc2c3275	-0.010510077
44	0xbd55cd10	-0.052197516
45	0xbd89e651	-0.067333825
46	0x3d586bfb	0.052837353
47	0xbd548be7	-0.051891234
48	0xbd4d7ebd	-0.050169695
49	0xbe264e2c	-0.16240758
50	0xbcd68c62	-0.026189987
51	0xbd5c3977	-0.05376574
52	0xbdd30a2d	-0.10304675
53	0xbd10e8cc	-0.035378262
54	0x3c56d170	0.013111457
55	0x3cd9b6ff	0.026576517
56	0xbcd78f13	-0.02631334
57	0xbe1f017b	-0.15527909
58	0x3d7fad90	0.06242138
59	0x3d09013c	0.033448443
60	0xbd810f65	-0.063017644
61	0x3cfff977	0.031246884
62	0xbd570f80	-0.052505016
63	0xbe03cf75	-0.12872107
64	0xbcdb1f59	-0.026748346
65	0xbdf9519f	-0.12173771
66	0x3d069a6f	0.032862123
67	0xbce71a42	-0.028210763
68	0x3d2c2b40	0.042033434
69	0xbdb993f9	-0.09061427
70	0x3cdce6b3	0.026965475
71	0x3d813bee	0.06310259
72	0xbdcdf672	-0.10056771
73	0x3b4f1173	0.0031596094
74	0xbd7dd7de	-0.061973445
75	0xbd10b2ad	-0.03532665
76	0x3db20741	0.0869279
77	0xbc127dc2	-0.008941116
78	0xbd1df32f	-0.038561996
79	0xbca0b72d	-0.019618595
80	0xbd766e0f	-0.060163554
81	0x3c54905d	0.012973872
82	0x3e025b83	0.12730221
83	0xbda3962e	-0.07987629
84	0xbd2f0aac	-0.042734787
85	0x3d9b1b57	0.07573574
86	0xbe06535e	-0.1311774
87	0x3d56e43a	0.052463748
88	0x3d64c2dd	0.0558499
89	0xbe262f7b	-0.1622905
90	0xbd0b9ca5	-0.034084935
91	0x3e31ca19	0.1736225
92	0x3e2d4787	0.16921817
93	0x3ce8fe45	0.028441558
94	0x3d14cefa	0.0363302
95	0xbc8e1fab	-0.017349085
96	0x3d2cc8fd	0.042183865
97	0x3de80579	0.11329169
98	0xbdb62407	-0.088935904
99	0xbea43073	-0.32068214
100	0xbd37a10a	-0.044831313
101	0x3c8b52fa	0.01700734
102	0x3d6ce13c	0.057831988
103	0x3dd888f0	0.10572994
104	0xbcf1b394	-0.029504575
105	0x3dc861c6	0.09784274
106	0xbc3fcf15	-0.011707087
107	0x3d99d821	0.075119264
108	0xbd934918	-0.07191676
109	0x3dd570fa	0.10421939
110	0xbcb48520	-0.022036135
111	0x3dff80bc	0.12475726
112	0xbc4b01a3	-0.012390527
113	0x3c96f3bb	0.018426767
114	0xbd9e68b0	-0.07734811
115	0xbd912376	-0.07086842
116	0x3dc9e452	0.09858002
117	0xbdc747ff	-0.09730529
118	0x3cc7c270	0.024384707
119	0xbd699ee2	-0.057036288
120	0x3ca2306c	0.01979848
121	0xbd8ff7d7	-0.070296936
122	0x3c9b841d	0.018983895
123	0xbdb7c6e1	-0.0897348
124	0x3dd90a8e	0.10597716
125	0x3d0686a5	0.03284325
126	0xbdae4b39	-0.08510441
127	0xbdbdf55f	-0.092753164
128	0xbd7fab46	-0.0624192
129	0x3ce875d5	0.0283765
130	0x3c835b18	0.016034648
131	0xbada4fdd	-0.0016655881
132	0x3d7283c2	0.059207685
133	0x3bcf9c8e	0.0063358014
134	0x3ce341b4	0.02774129
135	0xbd84dfe5	-0.06488017
136	0x3dd4ebd8	0.10396546
137	0x3d07aa45	0.033121366
138	0xbe0ce3f9	-0.1375884
139	0x3cd78d61	0.026312532
140	0xbca035a3	-0.019556826
141	0x3d95f3ed	0.07321916
142	0xbd50f70f	-0.051016863
143	0x3ceb7392	0.028741632
144	0x3e01640b	0.1263582
145	0x3df08222	0.11743571
146	0x3d59ab12	0.05314166
147	0x3d551d9f	0.052030202
148	0x3d2b92d4	0.041888073
149	0x3da5c84e	0.08094846
150	0xbdf5c830	-0.12001073
151	0xbd9ae9d3	-0.0756413
152	0xbd00db0d	-0.031458903
153	0xbc298c47	-0.010348386
154	0xbd28e643	-0.04123522
155	0x3dc8f3b6	0.09812109
156	0x3dc57fba	0.096435025
157	0xbcbbefad	-0.022941435
158	0x3d999cb4	0.07500592
159	0x3db940f8	0.09045595
160	0xbca4327a	-0.0200436
161	0x3dd60439	0.10450024
162	0xbde766e8	-0.11298925
163	0xbd41cbe6	-0.047313593
164	0xbe0400d8	-0.12890947
165	0x3da46ba7	0.080283456
166	0x3da93c78	0.082634866
167	0xbdc52da8	-0.09627849
168	0xbca7ecc4	-0.02049864
169	0x3a02a5b2	0.0004983797
170	0x3bbbbb5e	0.005729123
171	0x3d9064ed	0.070505
172	0xbcf5099b	-0.029911807
173	0xbcc488c4	-0.023990996
174	0x3d784be4	0.06061925
175	0x3e06155e	0.13094088
176	0xbd680d64	-0.056653395
177	0xbd5e383c	-0.054252848
178	0x3d9b2e87	0.07577234
179	0x3db0e7b6	0.08637945
180	0x3e246715	0.16054948
181	0x3dba9d28	0.091120064
182	0x3c7a23d2	0.015267329
183	0xbdf29fc6	-0.118468806
184	0xbdc866f0	-0.09785259
185	0x3db38e8e	0.087674245
186	0x3cb41fee	0.021987882
187	0x3e2ed25b	0.17072432
188	0x3c8b4cf9	0.017004477
189	0xbbf66e19	-0.007520449
190	0xbdd18b2f	-0.10231625
191	0x3e018d97	0.12651668
192	0xbdeb36b7	-0.114850454
193	0xbd8c8034	-0.0686039
194	0xbdca5971	-0.09880341
195	0x3d2b9b0b	0.041895907
196	0xbda06c67	-0.07833176
197	0x3c8af2a3	0.016961401
198	0x3d935bfd	0.0719528
199	0xbdf3e075	-0.11908046
200	0xbdfb9742	-0.122847095
201	0x3dbf7a72	0.093495265
202	0x3c49c5cd	0.012315226
203	0x3c1319ba	0.008978302
204	0x3d3ce497	0.046116438
205	0x3da5b930	0.08091962
206	0xbba143c8	-0.00492141
207	0xbd498c19	-0.049205873
208	0x3cc824b4	0.024431564
209	0xbe0793c6	-0.13239965
210	0x3d95daa5	0.07317094
211	0x3c556838	0.013025336
212	0xbcd98332	-0.026551817
213	0xbe0479d1	-0.12937094
214	0xbdd9ed2b	-0.10640939
215	0x3d337724	0.043814793
216	0x3d237917	0.039910402
217	0x3dc1b92d	0.094591476
218	0x3da646c5	0.08118967
219	0xbd271e4f	-0.04080039
220	0xbd8f5b97	-0.06999891
221	0x3daa872b	0.083265625
222	0x3c16d55b	0.009206141
223	0xbd8e5227	-0.06949263
224	0x3d222802	0.039588936
225	0xbc24d6a0	-0.010060936
226	0xbd6fa11e	-0.058503263
227	0x3df8f193	0.121554516
228	0xbd0fbfcc	-0.03509502
229	0x3d991517	0.07474726
230	0xbcb2c781	-0.021823647
231	0xbe156d0f	-0.14592384
232	0x3d141e4e	0.036161713
233	0xbdb35046	-0.08755545
234	0xbd132029	-0.035919342
235	0x3c59600b	0.013267527
236	0x3dca6601	0.09882737
237	0xbd4dfe9c	-0.050291643
238	0xbd2b07d8	-0.041755527
239	0x3d107d7d	0.035275925
240	0xbcd8b3a4	-0.026452847
241	0x3d920f7b	0.07131859
242	0xbd72c64f	-0.059271153
243	0x3d53cb66	0.051707648
244	0xbd96dfec	-0.073669285
245	0x3d9858b8	0.07438797
246	0x3e1517d6	0.14559874
247	0x3b1abf91	0.0023612718
248	0xbda452b6	-0.08023588
249	0x3cfb2e53	0.030661738
250	0xbce7b1e9	-0.028283076
251	0xbda641c9	-0.08118016
252	0xbd2f4a86	-0.04279568
253	0x3c814eab	0.015784582
254	0xbbe13fb8	-0.006874051
255	0xbc9869ac	-0.018605076

fc.bias f4 [30]
0	0x3cad65d5	0.021166721
1	0x3d0c3143	0.034226667
2	0xbd255c4c	-0.040371224
3	0x3dab4cc6	0.08364253
4	0x3ba112e5	0.0049155825
5	0x3ceef76a	0.02917071
6	0x3ca165ad	0.019701803
7	0xbcaf86ed	-0.021426642
8	0x3daa77b0	0.0832361
9	0x3c829bba	0.015943397
10	0x3cb86517	0.02250914
11	0x3d0c97c6	0.03432443
12	0xbc3d9e4d	-0.011573386
13	0x3d6cdada	0.0578259
14	0xbd59abbe	-0.0531423
15	0xbd20b9de	-0.039239757
16	0xbcfee9b1	-0.031117292
17	0x3bafadd4	0.005361298
18	0xbb8a25b7	-0.0042159217
19	0x3c36f27a	0.011166209
20	0xbaf605dc	-0.0018770057
21	0xbd228ba6	-0.03968396
22	0xbc0ed7b0	-0.008718416
23	0xbd7edfd6	-0.062225185
24	0xbb2e5911	-0.002660338
25	0x3d87cdc2	0.06631042
26	0xbc8fae53	-0.017539179
27	0xbcf5387c	-0.02993416
28	0x3d888144	0.066652805
29	0x3d38bdcf	0.04510289
