situation_analysis/best_models/model_window60_horizon1.pth (torch, 956906 bytes, 27 tensors)

adapt_adj f4 [60, 60]
000000 4b 56 79 3f f7 2a d3 bc 67 ae d1 bc 1d 02 d1 bc
       0.973973 -0.025777323 -0.025595857 -0.025513703
000010 99 a6 d1 bc 9c 35 d1 bc 64 0d d1 bc fa 46 d3 bc
       -0.025592135 -0.025538258 -0.02551908 -0.02579068
000020 fa c2 d1 bc 18 00 cf bc 88 6d cc bc 32 1a cb bc
       -0.025605667 -0.0252686 -0.024954572 -0.024792764
000030 d0 d1 ca bc e4 61 ca bc 66 97 ca bc f8 69 cb bc
       -0.02475825 -0.024704881 -0.024730396 -0.024830803
000040 4a 95 cb bc 50 48 cb bc 03 b2 c9 bc cd 0a ca bc
       -0.02485146 -0.024814755 -0.024621015 -0.024663353
000050 23 1b c8 bc b9 60 ca bc 5d 05 c9 bc 94 ed c8 bc
       -0.024427002 -0.024704324 -0.02453869 -0.024527349
000060 f8 31 ca bc cd 0f ca bc 79 8e cb bc 4b 57 cb bc
       -0.02468203 -0.024665738 -0.02484821 -0.024821898
000070 06 a4 c9 bc 0c 64 c7 bc ef 62 c9 bc f4 84 ca bc
       -0.024614345 -0.024339698 -0.024583308 -0.0247216
000080 6f 38 cc bc d5 0b ce bc b7 d7 cd bc 1b 63 cd bc
       -0.024929253 -0.025152126 -0.025127275 -0.025071671
000090 f5 56 cf bc b0 e4 cf bc c3 df cf bc 04 fd ce bc
       -0.025310019 -0.025377601 -0.025375253 -0.025267132
0000a0 a2 bf cf bc e9 66 d1 bc 25 e2 cf bc c7 0e d1 bc
       -0.025359932 -0.025561767 -0.025376389 -0.025519742
0000b0 49 15 d0 bc 53 e8 d0 bc 71 a4 d3 bc b5 71 d2 bc
       -0.025400775 -0.025501406 -0.025835248 -0.025688985
0000c0 05 c2 d3 bc 3c c0 d5 bc d8 33 d6 bc 65 ea d7 bc
       -0.025849352 -0.026092641 -0.026147768 -0.026356885
0000d0 49 c5 d5 bc d7 82 d6 bc 85 b2 d7 bc 0d d6 d7 bc
       -0.02609505 -0.026185436 -0.026330242 -0.026347185
0000e0 53 d7 d7 bc 00 e5 d6 bc 2f 62 d6 bc df 2e e2 bc
       -0.026347792 -0.026232243 -0.026169864 -0.02761024
0000f0 f0 0c d1 bc cc 7b 79 3f 8b 3f cf bc d3 74 ce bc
       -0.025518864 0.97454524 -0.025298854 -0.02520219
000100 14 c2 ce bc 8b 8f ce bc bb 2c ce bc a8 bc d0 bc
       -0.025239028 -0.025214931 -0.025167814 -0.025480583
000110 51 04 cf bc e9 43 cc bc 98 f2 c9 bc 7a e2 c8 bc
       -0.025270613 -0.024934726 -0.02465181 -0.024522055
000120 3c df c8 bc 3f 2d c8 bc df 6d c8 bc a7 d4 c9 bc
       -0.024520509 -0.024435638 -0.024466453 -0.024637533
000130 d8 e2 c9 bc cc af c9 bc ef ca c7 bc f4 a3 c7 bc
       -0.0246443 -0.02461996 -0.024388758 -0.024370171
000140 11 dd c5 bc de 21 c8 bc 89 44 c7 bc 47 6f c7 bc
       -0.024153264 -0.024430212 -0.024324672 -0.024345053
000150 2e 36 c9 bc 93 6f c9 bc 02 e2 ca bc a6 94 ca bc
       -0.024561968 -0.024589336 -0.024765972 -0.024729084
000160 b4 ac c8 bc 2c a4 c6 bc fd ad c8 bc 7d 74 c9 bc
       -0.024496414 -0.024248205 -0.024497027 -0.024591679
000170 6a 6d cb bc 6b 00 cd bc d3 d0 cc bc 20 a2 cc bc
       -0.024832446 -0.025024613 -0.025001919 -0.024979651
000180 48 27 cf bc 48 a0 cf bc c5 6c cf bc 09 74 ce bc
       -0.025287285 -0.025344983 -0.02532042 -0.025201814
000190 fc d1 ce bc 4a c3 d0 bc fb 3c cf bc 98 a2 d0 bc
       -0.025246613 -0.025483746 -0.025297632 -0.025468156
0001a0 80 05 cf bc ef df cf bc b0 1f d2 bc 96 00 d1 bc
       -0.025271177 -0.025375335 -0.025649875 -0.025512975
0001b0 0e bc d1 bc 53 9f d3 bc c3 16 d4 bc c2 b8 d5 bc
       -0.025602367 -0.025832808 -0.02588976 -0.026089076
0001c0 a8 bf d3 bc 27 94 d4 bc b8 37 d6 bc bc 9a d6 bc
       -0.025848225 -0.02594955 -0.026149616 -0.02619683
0001d0 5a 8b d6 bc b0 a9 d5 bc 68 aa d4 bc 8e 1c e0 bc
       -0.026189495 -0.02608189 -0.025960162 -0.027357366
0001e0 7f d6 d2 bc 2c 42 d2 bc 9f 69 79 3f 15 fd d1 bc
       -0.025737045 -0.025666319 0.9742679 -0.025633374
0001f0 01 0e d2 bc 9a 80 d1 bc 7b ec d1 bc 9d 97 d4 bc
       -0.025641443 -0.025574017 -0.025625458 -0.025951201
000200 63 95 d2 bc aa 09 d0 bc db 71 cd bc 32 f6 cb bc
       -0.025705999 -0.025395233 -0.025078705 -0.024897669
000210 5e af cb bc 45 5e cb bc fd dc cb bc 7a 54 cd bc
       -0.024863895 -0.024825225 -0.024885649 -0.025064696
000220 59 b6 cd bc 15 91 cc bc 33 12 cb bc c3 57 cb bc
       -0.025111364 -0.024971524 -0.024788952 -0.024822121
000230 c0 63 c9 bc 8d 6b cb bc 4d 43 ca bc d7 b8 c9 bc
       -0.024583697 -0.024831558 -0.024690295 -0.024624271
000240 6b 4d cb bc 30 b0 cb bc 6e 53 cd bc 57 4b cd bc
       -0.02481719 -0.024864286 -0.025064196 -0.025060339
000250 3c b3 cb bc 64 a5 c9 bc 0d 91 cb bc 8d d8 cc bc
       -0.024865739 -0.024614997 -0.024849439 -0.025005603
000260 4b 9f ce bc ea f9 cf bc ef d3 cf bc 2f 92 cf bc
       -0.025222441 -0.025387723 -0.025369613 -0.02533826
000270 40 f8 d1 bc 33 e9 d2 bc 90 da d2 bc da 9c d1 bc
       -0.02563107 -0.025745964 -0.025738984 -0.025587488
000280 17 09 d2 bc f7 af d3 bc 65 43 d2 bc b9 e7 d2 bc
       -0.0256391 -0.025840743 -0.025666902 -0.02574526
000290 d1 3d d1 bc 83 70 d1 bc 8f 47 d4 bc c7 3d d3 bc
       -0.025542172 -0.025566345 -0.025913028 -0.025786294
0002a0 33 e9 d3 bc bc 7c d5 bc c9 bd d5 bc d0 7f d7 bc
       -0.025868034 -0.026060455 -0.026091473 -0.026306063
0002b0 ea e3 d5 bc e5 33 d6 bc bb 2a d7 bc 10 42 d7 bc
       -0.026109654 -0.026147792 -0.026265493 -0.026276618
0002c0 01 bd d7 bc 08 f2 d6 bc eb 9b d6 bc 93 e7 e1 bc
       -0.026335241 -0.026238456 -0.026197394 -0.027576244
0002d0 01 45 d5 bc 72 d2 d4 bc 01 f1 d4 bc 57 53 79 3f
       -0.02603388 -0.025979254 -0.025993826 0.9739279
0002e0 87 ad d5 bc 9b 37 d5 bc 4b ce d4 bc c5 04 d7 bc
       -0.02608372 -0.026027491 -0.025977274 -0.026247391
0002f0 5a 0b d5 bc 33 42 d2 bc 24 bd cf bc 2f 51 ce bc
       -0.02600639 -0.025666332 -0.025358744 -0.025185196
000300 d5 15 ce bc fb fd cc bc ce 4e cd bc 45 33 ce bc
       -0.025156895 -0.025023451 -0.025061991 -0.025170932
000310 f1 02 ce bc 1a ed cc bc fc ea ca bc 43 df ca bc
       -0.025147887 -0.025015403 -0.024770252 -0.024764663
000320 e2 6d c9 bc 18 83 cb bc 0d 59 ca bc 0d 8b ca bc
       -0.024588529 -0.024842784 -0.024700666 -0.024724508
000330 20 4c cc bc 4c 88 cc bc d2 14 ce bc c9 2e ce bc
       -0.024938643 -0.024967335 -0.025156412 -0.025168793
000340 fa ab cc bc 93 93 ca bc 96 3e cc bc 91 74 cd bc
       -0.024984349 -0.024728572 -0.024932187 -0.025079997
000350 3f 55 cf bc 3a a9 d0 bc ec 54 d0 bc 23 29 d0 bc
       -0.025309203 -0.025471319 -0.025431119 -0.02541024
000360 b7 77 d2 bc 3e 58 d3 bc 4c 2f d3 bc 1d dd d1 bc
       -0.02569185 -0.025798913 -0.025779389 -0.02561813
000370 7a 75 d2 bc 3a f6 d3 bc 7d 4b d2 bc fb 72 d3 bc
       -0.025690783 -0.025874246 -0.025670761 -0.025811663
000380 e3 12 d2 bc 66 4e d2 bc 40 10 d5 bc 9a 6a d4 bc
       -0.025643772 -0.025672149 -0.026008725 -0.025929738
000390 54 4f d5 bc 59 82 d7 bc 44 9b d7 bc e0 08 d9 bc
       -0.026038803 -0.026307272 -0.026319154 -0.02649349
0003a0 a5 98 d7 bc f7 ef d7 bc 9d c1 d8 bc 61 a4 d8 bc
       -0.026317904 -0.026359541 -0.02645951 -0.02644557
0003b0 11 99 d8 bc 72 b9 d7 bc f5 6a d7 bc bc d9 e2 bc
       -0.026440175 -0.026333544 -0.026296118 -0.027691714
0003c0 6d ef d7 bc 94 8e d7 bc 56 a6 d7 bc 85 ed d7 bc
       -0.026359284 -0.026313104 -0.026324432 -0.026358375
0003d0 0b 33 79 3f 44 07 d9 bc fb a9 d8 bc 85 5d da bc
       0.9734351 -0.026492722 -0.02644824 -0.026655922
0003e0 62 e3 d8 bc cb df d5 bc 44 79 d3 bc a7 46 d2 bc
       -0.026475612 -0.02610769 -0.02581466 -0.025668455
0003f0 71 c0 d1 bc 17 26 d1 bc 16 f9 d1 bc e7 30 d3 bc
       -0.025604459 -0.025530858 -0.025631469 -0.025780154

gc1.fc.weight f4 [128, 36]
000000 52 78 ac 3d 14 8c 0f be 2c 98 a0 bd da 1c b4 bd
       0.08421387 -0.1401828 -0.078415245 -0.087945655
000010 31 f2 e3 3d 3d 4e 35 3e 54 3e 28 3e c8 b6 40 3d
       0.11130179 0.17705627 0.16430026 0.047049314
000020 a4 48 2a 3e b0 96 ae bd c8 c0 bf 3d 76 fa 03 be
       0.16629273 -0.08524835 0.09362942 -0.12888512
000030 80 60 13 bd 09 e8 83 bd 01 5a f1 bc 07 b2 05 3c
       -0.0359807 -0.064407416 -0.029461863 0.008160121
000040 4a 46 7e bd 65 bc 91 3c a4 bc 67 3d b7 c9 b9 3d
       -0.06207875 0.017790029 0.056576386 0.09071677
000050 5d ca 27 3d d5 ef 37 3e 6b ee 8a 3d 6a c5 5b 3e
       0.040964473 0.17962582 0.06783756 0.21462026
000060 84 61 23 bd 78 e8 df bc 3d dc 2f 3e 98 91 25 bd
       -0.03988792 -0.02733253 0.17173858 -0.040422052
000070 fb 06 da 3d f8 b0 86 bc fd ad 7f bd fa f5 9e 3d
       0.10645863 -0.016441807 -0.062421788 0.0776176
000080 7a d2 0c 3d bc ec d3 3d 5a 21 2a be 60 cb 0b bd
       0.034380414 0.10347888 -0.16614285 -0.0341295
000090 b3 62 6a 3c e5 28 60 bd 7e 18 a5 3d b9 9a f2 bd
       0.014305758 -0.0547265 0.08061312 -0.11845917
0000a0 8b a5 b1 bd 85 6e c9 3d 4e 7f a7 3d 5b 1c de 3c
       -0.08674153 0.09835533 0.08178578 0.02711313
0000b0 00 ab f8 bd ce f7 c3 bd b8 9c 0f bd ac 91 d8 3d
       -0.12141991 -0.09568749 -0.035061568 0.1057466
0000c0 77 92 34 bd 7e 26 03 3e bf ee fa 3d 0c 33 56 3e
       -0.044084992 0.12807652 0.122525685 0.2091791
0000d0 4d d4 0e 3e da 0e 8a bd ef 4e 3a be 6c 61 46 3d
       0.13948174 -0.06741114 -0.18194173 0.048432752
0000e0 72 b4 87 bd 2c 6b 02 3e 43 7d ca bd 04 eb 15 be
       -0.06626214 0.12736195 -0.09887173 -0.14640433
0000f0 a3 cb d7 bd 56 79 cb bc bb 55 d6 bd d7 7b ab bd
       -0.105368875 -0.02483813 -0.104655705 -0.0837323
000100 83 f2 1d 3e 38 18 09 be 89 9f 62 3d a4 29 3c 3e
       0.15424542 -0.13388145 0.055327926 0.1837526
000110 99 e8 00 3e ed 8d a3 3d d2 2f 3f 3d 0f d7 a5 bd
       0.12588729 0.079860546 0.046676464 -0.0809766
000120 c4 bb 17 3e 93 27 19 3e 28 e9 33 3d 58 94 bd 3d
       0.1481772 0.14956503 0.043923527 0.0925681
000130 e5 19 fe 3d 70 65 2f bd 00 f8 13 3d fa a2 fc 3d
       0.12407283 -0.042821348 0.036125183 0.12335773
000140 79 77 09 3e 57 e4 6d bd 40 2b 2b 3e 7a 18 38 3e
       0.13424481 -0.05807909 0.16715717 0.17978087
000150 d9 6d 16 3e 1c ae 25 3d af 63 11 bd 3f b1 80 bd
       0.14690341 0.040449247 -0.035495456 -0.06283807
000160 8f ba 31 be 31 75 05 3e f5 62 b3 bd 3f 9c 02 be
       -0.17356323 0.13032986 -0.08759109 -0.12754916
000170 8d d4 c7 bd d1 86 f5 3d d2 f2 8b 3d df a4 63 ba
       -0.09757338 0.11988605 0.06833424 -0.00086839305
000180 88 86 32 bc 7c 4e 6e bd 94 d4 b4 bd ca 79 35 bd
       -0.010896333 -0.058180317 -0.088296086 -0.0443056
000190 4b 7e f3 bd 64 cb a5 3c e3 cb 2b be 5d fd e0 bc
       -0.11889323 0.020238586 -0.16776995 -0.027464563
0001a0 10 16 bf 3d 78 3b 35 3e b5 c9 6b bc d2 2d f4 bd
       0.0933038 0.17698467 -0.014391352 -0.11922802
0001b0 f6 72 01 3d 03 e6 f3 3c de 4f 1f 3d 8b 52 df 3d
       0.031603776 0.029772764 0.038894527 0.10904416
0001c0 6c 98 d2 bd 3f 14 45 3d 2d d9 f7 3d df 39 de bc
       -0.102829784 0.04811501 0.1210197 -0.027127204
0001d0 59 16 d4 bd 30 73 e7 3d 6e b0 0b 3e b9 60 13 be
       -0.10355825 0.11301267 0.13641521 -0.14392366
0001e0 2f d5 00 3d a0 c3 af 3c 45 c3 13 3e 4f 4d e0 3d
       0.031453308 0.021455586 0.14429958 0.109522454
0001f0 1d 19 ea bb 0d 16 ab bc 35 4f ad 3c 6b 16 1b be
       -0.007144107 -0.020884538 0.021155933 -0.1514527
000200 d4 72 f3 bd 0b c4 a9 bd c5 a0 ec 3c 66 e0 0d be
       -0.11887136 -0.08289345 0.028885255 -0.13855132
000210 01 59 7e bd 8b f8 33 3e 2d 2e a5 bd 8f 6a 27 be
       -0.0620966 0.1757528 -0.08065448 -0.16349243
000220 7a 49 9a 3c 13 05 21 3e 6f 0d e0 bd 34 cd d1 3c
       0.018833864 0.15724592 -0.10940062 0.025610544
000230 64 26 80 3d 67 6b 36 3c 32 64 1c be 57 30 ed bd
       0.062573224 0.011134005 -0.15272596 -0.11581486
000240 00 53 0d bc 88 fd 0d 3e aa fa 8f bd bf 3c d8 3a
       -0.008625746 0.13866246 -0.07030232 0.0016497596
000250 01 cc 4f bd 4f a6 8f 3d 9a a4 88 bd b3 f4 cd 3d
       -0.050731663 0.07014143 -0.0667202 0.10056438
000260 15 75 1d 3d b6 31 24 3d 23 b0 2f 3d 40 b1 de 3d
       0.038441736 0.04008647 0.042892586 0.108736515
000270 e8 82 1b bd 64 5c 1f 3c ad cc d4 bc 7d 04 1f 3e
       -0.03796664 0.0097266175 -0.025976503 0.15529056
000280 5d 2f 39 bd 41 ec 25 3d 17 57 95 bc e4 ba c6 bd
       -0.045211185 0.040508512 -0.018230004 -0.09703615
000290 7d af 4f bd c6 58 19 3e b7 2b ed 3d d3 7c cb bd
       -0.050704468 0.1497527 0.115806036 -0.09935918
0002a0 b7 0e e1 3d a2 3a c2 3d 03 1c 9b 3d 59 22 c3 3d
       0.10989135 0.094838396 0.07573702 0.09528036
0002b0 93 a5 82 3d bb f2 50 bd 02 5b a7 3c ab d0 1f bd
       0.06379237 -0.051012736 0.020429138 -0.03901736
0002c0 cb 32 38 bd cb 1e 14 3e 60 63 a1 bd 92 68 fb 3d
       -0.044970315 0.14464872 -0.078802824 0.122758046
0002d0 ea 22 d8 3c 0b 7f 31 bd 1e 03 44 bd 75 b6 ae bd
       0.026383836 -0.04333405 -0.047854535 -0.08530895
0002e0 ae fe 18 3d bb b2 06 3e f4 4b 0e 3e ee 7d 79 3d
       0.037352256 0.13154118 0.13896161 0.06091111
0002f0 26 02 0e 3e e1 ab 0f 3c c8 46 ae bc 43 89 87 3b
       0.13868007 0.0087690065 -0.021273986 0.004136236
000300 bf 79 1b 3d af ae 54 bc 4a ed 27 be 47 54 a0 3c
       0.037957903 -0.012981101 -0.16399112 0.019571437
000310 f0 fb 09 be 52 5a 28 be 9a 8e d2 bd 97 e0 db 3c
       -0.13475013 -0.16440704 -0.10281105 0.026840491
000320 6d 4d f0 bd c2 3c 2c be 57 38 ed 3c 13 4a a1 3d
       -0.11733518 -0.16820052 0.028957529 0.07875457
000330 74 ad a3 bd d4 ae 61 3d 41 1f 3f be 8d 3f 1d be
       -0.07992068 0.05509837 -0.18664266 -0.15356274
000340 eb cf 15 3e a7 b5 89 3d 3f 4a 34 3b ef 55 03 bc
       0.14630096 0.067241006 0.0027510074 -0.008016094
000350 b0 dd fc 3d 7c fb 0c 3e 9a 3b 04 bd 37 de 25 be
       0.12346971 0.13767809 -0.032283403 -0.1619805
000360 b5 06 18 3e f0 d0 26 3e ca 37 8b 3d 57 e4 ca 3d
       0.14846309 0.16290641 0.0679775 0.099068336
000370 c4 31 01 be 14 0c ae bc 34 fe ff bd e4 9a 14 3c
       -0.1261664 -0.021245994 -0.12499657 0.009070132
000380 aa 99 83 bd bb 86 aa 3d 35 54 dd bd 13 75 28 bd
       -0.064257935 0.08326479 -0.10807077 -0.041127276
000390 e9 90 f0 3d 24 9b 11 be 33 06 e5 b9 9d a5 04 3d
       0.117463894 -0.14219338 -0.00043682902 0.032384504
0003a0 ee a7 f0 bd 12 0f 27 3e d7 e5 2a 3e 8a 0d 4c bc
       -0.1175078 0.16314343 0.1668924 -0.0124544
0003b0 3c c9 ab bd 51 6e 68 bd 78 4f 5f bd 6c 6c 05 bd
       -0.08387992 -0.05674583 -0.054519147 -0.032574102
0003c0 c9 5f 96 3d 88 0b 5d 3d 17 51 04 bc 1a b0 3c bd
       0.07342488 0.053966075 -0.008075974 -0.04606638
0003d0 cb 56 b7 3d 31 fc 86 3c 47 f9 ab bd 30 cd ab 3d
       0.08952101 0.016477676 -0.08397155 0.08388746
0003e0 75 c9 65 3d 03 bb dc 3b 93 0f 21 3e 16 91 1b be
       0.056100328 0.0067361607 0.15728597 -0.15192065
0003f0 4b 04 8a 3d 2e 68 4a bc cb dc 26 be 96 f0 9a bd
       0.067391 -0.01235394 -0.16295163 -0.075654194

gc1.fc.bias f4 [128]
000000 30 d6 e2 bc f2 bd 9c 3d 86 5f c3 3c 5f af 59 3c
       -0.027690023 0.07653417 0.02384926 0.013286441
000010 fa 32 a6 bc b4 5d 97 3c e9 2f 71 bd cd 48 8e 3d
       -0.02028798 0.018477298 -0.05888358 0.069474794
000020 bd d6 c9 bd 52 15 17 bd c6 b2 e8 3c e6 13 9e bc
       -0.09855411 -0.036885567 0.028405558 -0.019296598
000030 62 f5 f7 3d 2e 56 78 bc a6 e2 cd bd b2 28 73 3d
       0.1210735 -0.015157266 -0.100529954 0.059364982
000040 0e 95 d2 3d 02 c4 ca bc ed c0 05 be a3 87 9d bd
       0.10282336 -0.024751667 -0.13061877 -0.07691886
000050 22 49 2a be 53 89 e0 bd 47 c3 50 3d 2b 1e 00 be
       -0.1662946 -0.109636925 0.05096748 -0.12511508
000060 5d 60 28 be 8f 3d ad 3d af 8c 95 3c c1 6e e7 bc
       -0.1644301 0.08459007 0.01825556 -0.028251054
000070 27 f7 05 be d8 6a 45 bb 88 5f 85 3d cf d5 f3 3d
       -0.13082562 -0.0030123498 0.06512362 0.11906015
000080 15 5c dc 3c 11 9f 09 3e cc fb c2 3d a1 2f 82 3d
       0.026899377 0.13439585 0.09520683 0.06356741
000090 ce 24 c7 bd 29 0c 82 3d ea 41 80 3d 27 68 4e be
       -0.09723817 0.063499756 0.06262572 -0.20156918
0000a0 4f f0 44 3c 50 b3 eb bd 60 21 39 be 1f 80 e6 3d
       0.012020185 -0.115088105 -0.18079138 0.11254906
0000b0 74 b9 bc 3d ef 07 a9 3d 10 b0 68 3d e3 4e 10 be
       0.0921506 0.08253466 0.05680853 -0.14092593
0000c0 79 b8 43 be c3 f9 94 3d 9f e7 2c be 28 08 dd 3d
       -0.1911334 0.07274201 -0.16885231 0.10792571
0000d0 46 e1 64 be c1 da 2c 3d 91 33 4b 3d 46 3d 8a 3b
       -0.2235156 0.042200807 0.049609724 0.00421873
0000e0 b2 1b a0 bd ee 63 92 3d 08 d5 d4 ba 88 c1 81 bd
       -0.078177825 0.07147966 -0.0016237805 -0.06335741
0000f0 bf 50 7f 3b dc 5e 09 bc e5 49 89 3d 34 6b 76 be
       0.003895804 -0.008384433 0.067035474 -0.24064332
000100 10 cb 02 3e 87 e3 bc bd 0a a1 aa 3d 09 59 19 3d
       0.12772775 -0.09223085 0.08331497 0.037438426
000110 3b 2c 49 be 27 bd 3f bd cc 45 fc bd 0f ff 26 be
       -0.19645779 -0.04681125 -0.12318 -0.16308235
000120 ae 6f 6e 3d ad 6e df bb db 52 9a bd c9 ed 6c be
       0.058211975 -0.0068186135 -0.07535335 -0.23137583
000130 0c 52 9f 3d 95 a6 25 3d 22 10 16 be b6 f8 58 bd
       0.07779321 0.040442068 -0.14654592 -0.052971564
000140 be 78 26 be 79 28 c9 3d c6 f6 d1 3d 99 09 fb 3d
       -0.16256997 0.09822173 0.102521464 0.1225769
000150 ab e4 07 be 43 61 04 3e 47 76 60 be 1e 15 a2 3d
       -0.13270824 0.12927727 -0.21920119 0.07914184
000160 7e ca 5f be 99 75 1b bd 68 d4 48 3d 1f a8 d0 bd
       -0.21854588 -0.037953947 0.04903069 -0.101883166
000170 6b 24 bb bd 30 89 2e be e0 70 be 3c b9 ff 5e be
       -0.091378056 -0.1704452 0.023247182 -0.21777238
000180 fd ec 13 be bc 9d f8 3c a5 08 ba 3d 57 04 be 3d
       -0.14445873 0.030348651 0.0908368 0.092781715
000190 e1 29 1c be aa 58 8b bc 28 74 93 3d 9b b0 08 3c
       -0.1525035 -0.017010052 0.071998894 0.008342887
0001a0 7b d8 47 be 59 88 96 bc 81 6f a2 bd aa ab be 3c
       -0.19516174 -0.018375563 -0.07931424 0.023275215
0001b0 6a 5b 1e bd 11 4a d2 bd 4d 03 7e be d2 08 17 bd
       -0.038661398 -0.10268033 -0.24805947 -0.036873646
0001c0 1d 8b a0 3d fa 48 65 bd 4e 92 c7 3d e0 ad d9 3b
       0.07839034 -0.0559778 0.09744702 0.006643042
0001d0 db e8 0a bd e1 0c c5 3c d9 70 3b 3d 44 a2 80 bd
       -0.033913475 0.024053993 0.045761917 -0.0628095
0001e0 8f d0 f5 bc a8 a9 34 be 7e c1 0d 3e 4b 1b 31 3d
       -0.030006675 -0.17642844 0.13843343 0.04323892
0001f0 9c fe f4 3c 77 cf 81 be 02 9f 36 be 89 99 0a be
       0.029906563 -0.25353596 -0.17834094 -0.13535132

gc2.fc.weight f4 [128, 128]
000000 34 51 93 bd 05 60 20 be 61 ed 57 bd 97 1b f0 3c
       -0.07193223 -0.15661629 -0.052716617 0.02931003
000010 65 e4 a4 bd 3a dd 66 bd 1d 7e a8 bd 06 5c 8c bd
       -0.08051375 -0.05636332 -0.08227179 -0.068534896
000020 2d f3 ff bd b3 2b a6 bd c9 09 84 bd 77 a4 f5 bc
       -0.12497554 -0.08113804 -0.06447179 -0.02998565
000030 6f 68 ff bc 5b 55 f9 bb e8 87 09 be 89 4b 21 bd
       -0.031177728 -0.007609052 -0.1343075 -0.039378677
000040 80 b0 c7 bd 21 e2 23 3d 02 5a a1 3c 10 c6 56 be
       -0.097504616 0.040010575 0.01969624 -0.20973992
000050 cb cb f4 bd dc 76 48 bd ff a4 cc bd 4d af 04 be
       -0.11952933 -0.048941478 -0.09992408 -0.12957497
000060 e0 cd 1a be 60 b1 80 bd cd 2a bf bd 65 7b d2 bd
       -0.15117598 -0.062838316 -0.093343355 -0.10277442
000070 27 31 92 3c 20 c2 81 bd 95 00 5c bd 20 fe 86 bd
       0.017845703 -0.063358545 -0.053711493 -0.06591439
000080 3a c3 95 3c 18 b3 33 bd 53 47 fa 3b c5 d6 34 bc
       0.018281568 -0.04387197 0.007637897 -0.011037533
000090 be d4 32 bd e3 3b 43 39 46 87 c0 bd af 15 b8 bd
       -0.043659918 0.00018618959 -0.09400801 -0.08988511
0000a0 7f d7 f5 bd 07 14 da 3c f8 f6 fa bd 6e ab 10 be
       -0.12003993 0.026620878 -0.12254137 -0.14127895
0000b0 a6 8f 9c bd c3 f2 be bc f6 40 0f be 54 a0 08 bd
       -0.07644586 -0.023309117 -0.13989624 -0.033356026
0000c0 cb 26 6a bd e3 9d 07 bd 99 ca 5f bd a5 56 d3 bd
       -0.057165902 -0.033109557 -0.05463657 -0.103192605
0000d0 39 86 01 bd d3 a1 cd bc 4a 2f 91 3c 0a 98 f4 bd
       -0.031622145 -0.025101578 0.017722744 -0.11943062
0000e0 ab 1f 64 bd cb 3a 9a bd 6f c0 89 bd ea 0a 95 bd
       -0.055694263 -0.07530745 -0.06726157 -0.07277472
0000f0 52 0b 88 bb 06 b5 c5 bd 5b e2 3c 3b 51 2c b0 bd
       -0.00415174 -0.09653668 0.0028821442 -0.08602203
000100 10 57 35 bd 69 1e e2 bc 8b 2a 2d be 79 66 fa bb
       -0.044272482 -0.027602391 -0.1691076 -0.00764161
000110 41 32 02 bd 48 bb b7 bc f1 f5 e9 bc c2 e6 d9 bd
       -0.031786207 -0.02242817 -0.028559657 -0.10639717
000120 15 76 e5 bd 67 48 f2 bd a5 48 ee bd 49 b1 0a be
       -0.11204163 -0.11830216 -0.116349496 -0.13544191
000130 d9 57 15 bd 99 5f 6e bc e2 9b 04 be 49 5e 0b be
       -0.03646073 -0.014549159 -0.1295009 -0.13610186
000140 88 d3 0f 3b 3b 14 0f be 54 ef 1e bd 7e 8b 22 be
       0.002194615 -0.13972561 -0.03880246 -0.15873525
000150 d0 dc 57 bd 2c e6 04 be bf 68 97 bd c0 96 47 bd
       -0.052700818 -0.12978429 -0.073930256 -0.04872775
000160 8e 32 2a 3d 08 bb ae bd 79 bf 95 bd b5 07 fa ba
       0.04155212 -0.08531767 -0.07311911 -0.0019075783
000170 6b 4d b0 bd 6a 17 04 be b1 02 f0 bd 3d 83 43 bc
       -0.08608516 -0.12899557 -0.11719263 -0.011933145
000180 d0 55 1a be f1 a3 5b bd c3 f9 ae bd ee 04 04 be
       -0.15071797 -0.053623144 -0.08543732 -0.12892506
000190 ab 0c 36 3c cc 5a 97 bc 58 8c 72 bd 56 e5 2b bc
       0.011111419 -0.018475913 -0.059215873 -0.01049169
0001a0 6c 00 02 be 51 e1 01 3d 1b 71 87 bd cd d4 d1 bd
       -0.12695473 0.03170902 -0.0661337 -0.10245667
0001b0 13 54 87 bd 8d 00 ca bc 4f bf 39 3d 89 4a 01 be
       -0.06607833 -0.024658466 0.04534846 -0.12626089
0001c0 44 be 0f 3c 15 7c 1e be 98 c7 13 be 42 f2 89 bd
       0.00877339 -0.15477021 -0.14431608 -0.0673566
0001d0 12 39 03 be 47 3d 19 bd 47 de 10 be dc 11 1b be
       -0.1281474 -0.037411954 -0.14147292 -0.15143532
0001e0 a5 b4 bf bc ac 0f 9a bc 7e 39 8e bb bb 34 a5 3b
       -0.023401568 -0.018806301 -0.0043403497 0.0050416864
0001f0 15 47 82 bd 5c b8 07 bd 31 a8 bd bd ae c1 b4 bd
       -0.06361214 -0.033134803 -0.092605956 -0.08826004
000200 76 c1 a2 3d 8b bd 0c 3d 51 a2 98 bd 35 97 8b bd
       0.07947056 0.03436045 -0.074528344 -0.0681595
000210 5d 56 45 3c 90 3f c8 3b c8 c4 c5 bd 74 0f 07 be
       0.012044516 0.006111093 -0.09656674 -0.13189489
000220 9f c9 91 bd 56 be a8 bd 52 9e 0f 3c 4a 96 b6 bb
       -0.07118534 -0.08239429 0.008765774 -0.005572115
000230 72 ff 93 bd 81 10 02 be 78 85 ed 3d b0 d9 a0 bd
       -0.07226457 -0.12701608 0.11597723 -0.078540206
000240 ff 8b bd bc 14 cf 96 bd 1c 88 9c 3d 8b 39 ef 3d
       -0.023138044 -0.07363716 0.07643148 0.11680897
000250 0c 6b 14 3e 5f 89 99 3d 92 ff 21 3d 3c c7 be bc
       0.1449396 0.074969046 0.03955037 -0.023288362
000260 50 3a d2 bd 3f c0 90 bd 06 13 63 bd 4b e6 a0 bd
       -0.102650285 -0.07067918 -0.055438064 -0.07856425
000270 88 06 1c bd 7b 5b d8 bd b3 ed b4 bd a4 60 f8 3c
       -0.038092166 -0.105643235 -0.088344 0.03031952
000280 58 31 ae 3c 01 8e ea bd fe f0 41 bc 5b f8 fe 3a
       0.021263763 -0.11452866 -0.011837242 0.0019452678
000290 bc bc 43 3d 9b 0e c3 3c db f0 8f 3d 22 80 78 3c
       0.047787413 0.023810675 0.070283614 0.015167268
0002a0 d2 ae 8a bd 06 01 de 3c 6c ac de 3c 6c bf e5 bc
       -0.067716256 0.027100097 0.027181827 -0.028045379
0002b0 73 64 06 be b0 cd 48 bc b1 f8 81 bd 17 88 0f bd
       -0.13124256 -0.012256071 -0.06346262 -0.035041895
0002c0 9d 86 c4 bc 3b 74 57 3d ab f2 9c bd 60 a9 d6 bb
       -0.02398997 0.05260108 -0.07663473 -0.006550953
0002d0 df 62 d5 3d 94 71 3d 3c 2b 2e 75 3d b1 81 82 bd
       0.10419249 0.011562724 0.059858482 -0.06372393
0002e0 bf d3 69 bd a0 26 e7 bd 1e 02 d7 bc d6 52 12 bd
       -0.057086702 -0.11286664 -0.026246127 -0.03572353
0002f0 fa 28 bd 3d 9f b8 69 bd eb bc 2b 3d 27 70 ba 3d
       0.09236331 -0.057060834 0.041928213 0.091034226
000300 45 a8 f0 3c b3 a1 4a 3b a9 0d 05 3d a2 aa 87 bc
       0.029377112 0.0030919134 0.03248373 -0.016560856
000310 5b af 1c 3d 44 68 d8 bb 74 98 ed bd de 8a 70 3d
       0.03825317 -0.0066042263 -0.11601344 0.058726184
000320 b6 39 f9 bd a8 b4 a6 bd 3d 71 76 bc ac 6d 83 bd
       -0.121692106 -0.08139926 -0.015041647 -0.064174026
000330 cc 8f a5 3c f4 5a 8a bd a4 d3 a4 bd cb fe b9 bc
       0.02021017 -0.06755629 -0.0804818 -0.022704503
000340 e3 79 0a 3e 73 7c 76 bc 60 a6 92 bd 6d 5e d0 bc
       0.13523059 -0.015044319 -0.0716064 -0.02543565
000350 9c 02 70 bc 3a f7 17 bd 10 fd 42 bc d3 9e 78 3b
       -0.01464906 -0.037101008 -0.011901155 0.0037936463
000360 79 41 99 3d a6 15 06 3d 54 ea 62 3d a9 da 9b bd
       0.07483191 0.03273549 0.055399254 -0.076100655
000370 d2 d7 61 bb 6f fd 70 bd 0d fb ce bb da 4f 87 bd
       -0.0034460914 -0.058835443 -0.0063165487 -0.06607027
000380 c7 67 cc 3c 0b 6f 46 bd b9 58 75 bd 9d bf d3 bc
       0.024951829 -0.048445743 -0.059899066 -0.025848204
000390 35 06 c3 bc 0a 1b 2b 3c 12 ff 3b 3d 2a 5b fc 3c
       -0.02380667 0.010443458 0.04589755 0.03080519
0003a0 26 0f ae bc fd fd 55 bd 9d 1a 94 bd 9a 51 be bd
       -0.021247458 -0.052244175 -0.072316386 -0.09292908
0003b0 7f 7e d8 3c 77 f5 3e bd 28 0e 9f 3d 59 27 8d 3c
       0.026427506 -0.046620812 0.07766372 0.017230676
0003c0 14 f6 b3 bd 4b 35 10 3d fd bd 9c bd 65 be c1 3d
       -0.0878717 0.035207074 -0.07653425 0.09460143
0003d0 f5 68 f3 3d 5e d7 f2 bd 03 3e 18 bd 01 86 55 3c
       0.11885253 -0.11857484 -0.037168514 0.013032437
0003e0 cd cd a9 3d 33 d6 58 bd 9f 4c 79 bd 16 ca 8e 3d
       0.082912065 -0.05293865 -0.060864087 0.069721386
0003f0 6a b3 0e bc 09 12 ab bc 63 76 e3 bc a2 2f ab bd
       -0.008709768 -0.020882623 -0.027766412 -0.083586946

gc2.fc.bias f4 [128]
000000 2b c7 a7 bd 01 f9 bc 3c f1 7b 08 3c cd 2e 0c be
       -0.08192285 0.023067953 0.008330331 -0.13689728
000010 85 16 e1 3c 89 f2 9e bd cd cf ad bd 7f 85 9d bd
       0.027476558 -0.07761104 -0.084869005 -0.07691478
000020 7b c3 43 3d 31 2f 00 3d 4d d0 9a bd 7e fe 38 be
       0.047793847 0.031295005 -0.075592615 -0.18065831
000030 52 77 f6 3c e7 6b 5c bd cd f4 10 bd b3 f5 1d bd
       0.030086193 -0.05381384 -0.03538971 -0.038564395
000040 f7 6e b4 bd 0b e6 a4 3d d6 60 9d bd 45 56 7a bd
       -0.08810227 0.0805169 -0.076844856 -0.06111743
000050 83 d7 ca bd f7 c7 da 3b 04 d5 63 3d f7 4c 65 be
       -0.09904387 0.0066766697 0.05562307 -0.22392641
000060 6d c9 8d bd 5c d4 05 be bc 2b 0d be 19 b3 00 be
       -0.069231845 -0.1306929 -0.13786215 -0.1256832
000070 77 29 f8 bd 4d 54 94 bd 1a 70 0d bd 01 97 86 3d
       -0.12117284 -0.072426416 -0.034530737 0.065717705
000080 8c 4d 28 bd eb 8e d6 bd 29 e3 9e bd 8e f1 ea bc
       -0.04108958 -0.10476478 -0.07758171 -0.028679635
000090 b9 86 6b bd f1 3e 66 3c 40 2b fa bc 57 63 48 bd
       -0.05750153 0.014053092 -0.030538201 -0.048922863
0000a0 70 7d bf ba 03 ba d6 bd ab 24 12 bc f3 c2 94 bd
       -0.0014609527 -0.10484698 -0.008919875 -0.07263746
0000b0 aa 19 d3 bc f2 e3 53 3c 79 e1 06 bd a9 67 6f bd
       -0.025769074 0.012932764 -0.03292987 -0.058448467
0000c0 b1 1a a9 bd 94 04 6f bd 83 ae f1 bd 3f c3 f1 3c
       -0.08257044 -0.058353975 -0.118008636 0.029512046
0000d0 f7 c3 96 3b 6d bb 49 3d 37 5f 1f be 4a 4c 89 bd
       0.0046009975 0.04925101 -0.15563665 -0.06704004
0000e0 b1 06 93 bc 41 ac d1 bd 0c 0a 40 bd 1b e2 89 bc
       -0.017947527 -0.10237933 -0.04688458 -0.016831448
0000f0 6e d2 a5 bd 79 53 56 bd 07 03 99 3b 4f df 1b bd
       -0.08096777 -0.0523257 0.0046695503 -0.03805476
000100 82 c6 93 bd 81 77 a2 bd 8d 6c 3a be ac f5 d9 3b
       -0.07215597 -0.0793295 -0.18205471 0.006651601
000110 d4 e5 03 3c f4 16 17 bd a7 e2 a9 bd fe 06 ed bc
       0.008050401 -0.036887124 -0.08295184 -0.028933998
000120 fc 94 27 3d 59 ec ed bd 79 9c e4 bd e8 37 d5 bc
       0.040913567 -0.11617345 -0.11162657 -0.026027635
000130 5e 9e 31 be 5c c6 d3 bc 47 30 91 bd 42 26 2b bd
       -0.17345569 -0.025851421 -0.07089286 -0.041784532
000140 3c 15 76 bd 73 86 f5 bd 99 fc 00 bd 1d 44 47 bd
       -0.060078844 -0.11988535 -0.031490896 -0.048648942
000150 34 73 4a 3a 58 cd 64 bc 59 5b b9 3c 8e 12 51 be
       0.0007722855 -0.013964973 0.022626566 -0.20417234
000160 33 32 f5 3c ed 8a a7 3c a9 ae d0 bd d5 cd ad bd
       0.029931163 0.020451987 -0.10189564 -0.08486525
000170 24 ec 75 3d f9 4a 44 bc a5 67 0f 3d d7 94 6d bd
       0.060039654 -0.0119807655 0.035010953 -0.058003273
000180 44 a9 89 3d 04 c1 cf bc b5 bc e0 3c e9 9a 9e bc
       0.06721738 -0.025360592 0.027433733 -0.019360976
000190 d8 c5 14 3d b5 6e d6 3b 0d ed d3 bd c0 6a 0a bc
       0.03632149 0.006543959 -0.10347948 -0.008448303
0001a0 80 8a 82 bd 8b 3a 83 bd 95 ad 8d 3d 8a 69 f2 bc
       -0.06374073 -0.064076506 0.06917874 -0.02959134
0001b0 28 d5 71 3d a2 75 fd bd 8e a9 94 bd d7 6b d4 bd
       0.059041172 -0.12375952 -0.072589025 -0.10372131
0001c0 f9 5d 74 bd d1 08 1d be 8a d2 19 bc bd cb 80 3d
       -0.05965993 -0.15335394 -0.009388575 0.0628886
0001d0 3d 7a 4a bd b3 5d 7d 3c 47 fa 93 bd 2e 59 58 bd
       -0.04943298 0.015464234 -0.07225471 -0.052819423
0001e0 ff 79 1f bd 72 39 be bd 16 93 9c 3c 59 ca e0 3c
       -0.038934704 -0.092883006 0.019113105 0.027440237
0001f0 e5 f0 34 bd 43 00 87 bd 79 77 58 bd 73 7a 3a be
       -0.044175047 -0.06591847 -0.052848313 -0.18210773

temporal_conv.weight f4 [128, 128, 3]
000000 0c 52 9a bd 49 a4 b2 bd b8 e0 25 bd db e9 7b 3d
       -0.075351804 -0.08722741 -0.04049751 0.06150232
000010 0a 1a 8a 3d 8c 8c 19 3c bc 7b 31 3a b4 8a 12 3d
       0.06743248 0.009371888 0.0006770452 0.03577681
000020 af 9d 9c 3c 08 8f 06 be 0f c4 5b bd da 72 2b 3c
       0.019118158 -0.131405 -0.053653773 0.010464394
000030 e2 6f ee bc 0c b3 34 bd 21 22 c3 3c 72 97 f2 3d
       -0.029106084 -0.044116065 0.023819985 0.11845292
000040 3a a7 f8 3d 89 04 07 3d 15 2e 83 3c 5e 95 17 bd
       0.12141271 0.03296331 0.016013185 -0.037007682
000050 b4 f6 27 3c aa 4e 16 bd b7 9b d9 bd c1 92 9f bc
       0.01025169 -0.036696114 -0.106254034 -0.019479157
000060 c1 3c 6c 3d d7 f3 f8 3c f0 2e 1f 3a 6e cc 44 3d
       0.057675127 0.03038971 0.0006072363 0.04804652
000070 8d fe f7 bb 58 2c 0c bd 9d ab fb bd 8b 08 e3 bd
       -0.0075681866 -0.034221977 -0.12288592 -0.11085614
000080 4a a7 8e bc 42 18 65 bd 03 4c ab 3c 8c 67 20 bd
       -0.017413754 -0.055931337 0.020910269 -0.03916125
000090 d1 50 d8 bd f1 ce a4 bd 3b d9 35 bd 23 c5 16 3e
       -0.105622895 -0.080472834 -0.04439662 0.14723639
0000a0 1b f3 7a 3d 5f f7 85 bc e3 c3 b7 3d 04 05 01 3e
       0.061267 -0.016353307 0.08972909 0.1259957
0000b0 f0 1f 55 bb bd 35 ee 3c 78 18 a6 3c a9 8a 4e 3d
       -0.0032520257 0.029078359 0.02027534 0.050425205
0000c0 9d 6a 01 bd 71 e7 cb 3c db 16 37 bd ec bf b9 bc
       -0.031595815 0.024890633 -0.04469953 -0.022674523
0000d0 df 84 d0 bd 92 85 c6 bc f5 91 17 bd e4 cf ac bd
       -0.10181593 -0.024233613 -0.03700443 -0.084380895
0000e0 5f 37 2c bd 1a 9c f1 bc 1c 96 d0 bd d1 da 1d 3c
       -0.042044993 -0.02949338 -0.10184881 0.009634689
0000f0 5c 10 47 bd ef 88 ea bd cc 7c cd bc ff 6a e2 bb
       -0.048599586 -0.11451899 -0.025083922 -0.0069097276
000100 40 2e 38 3c 67 57 d7 39 02 c6 f8 bc d8 29 11 bd
       0.011241496 0.00041073115 -0.030367855 -0.035440296
000110 58 7c 86 3b 1f 1b cf bd 62 0d 49 be 38 44 4a 3d
       0.0041041784 -0.10112595 -0.19634011 0.049381465
000120 e0 46 c8 bd de 76 28 bd b9 1d 25 bb 17 f5 4d bd
       -0.09779143 -0.041128986 -0.0025194718 -0.050282564
000130 60 80 0a bd e2 b6 84 3b 4a 22 82 be cb 08 48 be
       -0.033813834 0.0040501216 -0.25416785 -0.19534604
000140 81 5b 40 3d 06 57 79 bc 0a 4d 56 bd 9e be b0 3b
       0.046962265 -0.015218502 -0.052319564 0.005393817
000150 15 f2 cf bd 19 d5 e2 bd 7e 29 ec ba 09 cf 17 bd
       -0.10153595 -0.110758014 -0.0018017737 -0.03706268
000160 8a 2f e9 bc 49 b7 30 bd 9a 96 cf bd ea 5f 03 bd
       -0.028465051 -0.043143544 -0.10136147 -0.032073893
000170 3e 45 1d bc 46 ef b3 3b 30 18 00 3c 7d 6b c3 3c
       -0.009599028 0.00549117 0.007818267 0.023854965
000180 10 81 c2 bd 68 36 61 bd f3 d2 32 3d 27 de a6 3d
       -0.09497273 -0.054983526 0.043658208 0.08147841
000190 5f bc b4 3c 95 e1 6d 38 60 08 df ba fe 5d 1b bd
       0.022062479 5.6715293e-05 -0.0017016046 -0.037931435
0001a0 59 ee a2 3c 69 85 44 bb 7c 35 d5 bb 04 cf 4f bd
       0.019889044 -0.0029986745 -0.00650662 -0.050734535
0001b0 89 da 08 bd 85 20 76 3c 18 f7 3f 3b ab ff 67 bd
       -0.033411536 0.015022402 0.0029291566 -0.05664031
0001c0 dd 70 ae bd 32 54 16 3d d3 a3 dc 3c 3a 92 f3 39
       -0.08517621 0.03670139 0.026933586 0.0004645752
0001d0 04 0e 12 3d 11 b5 8c 3d 9f 5e a7 3d 06 46 4a 3d
       0.035657898 0.06870473 0.081723444 0.049383186
0001e0 28 0c 5f bd a0 84 96 bd 42 3a b5 bc 8c 0d 11 3e
       -0.054454952 -0.07349515 -0.022122506 0.14165324
0001f0 e3 76 99 3d 7e fa 86 bb b2 f6 c4 bd 9d 32 b4 bd
       0.07493379 -0.0041192165 -0.09617366 -0.08798716
000200 fd 5f 4e 3d c2 08 d5 3d 9c ef bf 3d 23 1d 47 bd
       0.05038451 0.10402061 0.09371874 -0.04861177
000210 33 47 c6 bd 0b 2d c5 bd 35 2c 09 bd 27 d5 4f be
       -0.09681549 -0.09627732 -0.033489425 -0.20296155
000220 b4 f8 2f be 1e 2e 33 bd ca f9 b8 bd 6d cb c9 bd
       -0.17184716 -0.043745153 -0.090320185 -0.098532535
000230 9c 22 4e bc 01 36 aa bd d2 b4 82 bd 60 da 08 3d
       -0.012581494 -0.08311082 -0.06382145 0.033411384
000240 80 34 c5 3d 5a a4 62 3b 43 34 62 3c 55 25 75 3d
       0.09629154 0.0034582824 0.0138064055 0.059850056
000250 7d 74 9d 3d 71 69 1c bd 10 22 5d bd e3 86 63 bd
       0.07688234 -0.038186494 -0.053987563 -0.05554856
000260 7d eb 47 3d f8 8e 31 bb e5 bb 9d bd d3 80 9c bc
       0.048808564 -0.0027093273 -0.07701854 -0.019104397
000270 ee e8 7d bd 65 3d 3a be 6d 41 3c bd df 20 76 3d
       -0.061989717 -0.18187483 -0.045960832 0.060089942
000280 63 3e 36 3c b1 61 3c 3d f0 f1 68 bd db 41 b3 bd
       0.011123273 0.045991603 -0.056871355 -0.08752795
000290 77 fc 16 bc 01 af aa bc 2a f2 80 3d d0 af 85 3b
       -0.009215466 -0.020835401 0.06296189 0.0040797964
0002a0 13 31 9b bd fc 5c 33 bd 47 25 f2 bc ec 1e a1 bc
       -0.075777195 -0.04378985 -0.02955879 -0.019668065
0002b0 df 05 52 bc 87 f8 50 bd 46 41 c5 3d 0f 7b 7a 3d
       -0.012818783 -0.051018264 0.096315905 0.061152514
0002c0 d4 e0 2e bd 3c 24 97 bc 5c a8 61 bd 28 8c 2d 3d
       -0.04269488 -0.018449895 -0.0550922 0.04236999
0002d0 ee ce 92 bd 02 d3 cd bd 98 e5 23 bc 21 7d c4 3d
       -0.07168375 -0.10050012 -0.01000347 0.09594179
0002e0 85 dd ca 3d d0 1c 4b bd 7d 46 ff bd 01 2b 58 bd
       0.09905533 -0.049588025 -0.124646164 -0.052775387
0002f0 4c ad 8b 3b 33 d1 c8 bd ae c0 7a bc 92 93 4d 3d
       0.004262602 -0.098055266 -0.0153047275 0.050189562
000300 83 2c a3 bb e1 18 40 bc 78 c2 a8 3b e7 ed fb bd
       -0.0049796714 -0.011724682 0.0051501356 -0.12301236
000310 f1 59 ca bd 5c 9c 9b 3c 66 76 14 3d e6 c1 8d bd
       -0.09880436 0.018995456 0.036245726 -0.06921749
000320 27 47 2c bd 25 f1 33 bd fc 86 bf bc 11 7c 31 bd
       -0.042060044 -0.043931145 -0.023379795 -0.04333121
000330 34 52 03 3e 53 31 a0 3d ac 62 b0 3c d9 6c 9c bc
       0.12824327 0.07821908 0.021531425 -0.019094871
000340 b4 36 82 bd 0d af d6 bb c9 b7 56 3d 8e 5f 00 3e
       -0.0635809 -0.0065516294 0.052421365 0.12536451
000350 2e 5e 2a 3d 1d 96 71 bd 13 42 1a be 24 7a 32 bd
       0.041593723 -0.05898105 -0.15064268 -0.043573514
000360 2c 9a 8e 3c c8 22 a3 3d 46 f0 9d 3c 99 0d c3 bd
       0.0174075 0.07965618 0.01927961 -0.09524078
000370 b7 9d 78 bd fe 4e 41 bc 7e 04 aa 3d bc 80 a4 3c
       -0.060697284 -0.011798618 0.08301638 0.020080917
000380 f0 38 ed 3c 0f 0b b4 3d 24 7d d8 3d ab db 90 bc
       0.028957814 0.08791172 0.10570744 -0.01768287
000390 37 4b 05 3c 86 c1 b5 3d c6 20 85 3c e4 9b 36 bd
       0.008135608 0.08874802 0.01625098 -0.044582263
0003a0 6e 7a ec bd a4 32 c3 bc 95 1b dc bd da ff 05 be
       -0.11546789 -0.023827858 -0.10747448 -0.13085881
0003b0 53 7c 2b bd 8f bf 43 3b f2 9c 27 bd 5b fe c3 bc
       -0.04186661 0.0029868816 -0.04092116 -0.023924997
0003c0 fa e4 d7 bb 6f f4 5f 3d 9f 00 4d bd bf 25 ad bd
       -0.0065885754 0.05467647 -0.05004942 -0.08454465
0003d0 7c b6 af bd 76 e2 01 bd 95 1e 95 3d 32 32 1f 3d
       -0.08579728 -0.03171011 0.07281224 0.03886623
0003e0 9e 16 e1 bb 84 56 2b be 50 c4 0e be 3a cf 56 3c
       -0.0068691513 -0.16732222 -0.13942075 0.01311093
0003f0 af e2 8b bd 75 91 e7 bd c5 9b 15 3d 81 7b 93 bd
       -0.06830346 -0.113070406 0.036525507 -0.07201291

temporal_conv.bias f4 [128]
000000 59 53 14 3d 11 7c ec 3c 29 38 d2 bd cf 0c ed 3d
       0.0362123 0.028867753 -0.10264618 0.11574709
000010 7d 2a 28 bd 9e 29 91 bc 1d 6e 20 bd 68 ce ad bd
       -0.041056145 -0.01772004 -0.039167512 -0.084866345
000020 af 08 d1 bd 08 04 e3 3c e7 f5 da bc 18 b6 a3 bd
       -0.102067344 0.027711883 -0.026728583 -0.07993716
000030 79 90 f2 bd 88 50 93 3d c2 9f b8 bb d2 3d f3 bd
       -0.11843962 0.071930945 -0.005634279 -0.11877026
000040 8b c9 f7 bc c3 3d d8 3d e3 5e 39 bd ee 47 c6 bd
       -0.03024747 0.10558655 -0.045256507 -0.09681688
000050 a6 6c a9 3d 31 20 28 3d 02 de 0e bc ab a5 19 bd
       0.08272676 0.041046325 -0.008719923 -0.03751151
000060 7e df 91 3d 59 d9 6b 3d 8c 9b 29 bd 59 86 82 bd
       0.07122706 0.057580326 -0.041408107 -0.06373281
000070 18 89 92 3d 83 38 af bd a9 f2 bb bd 73 3e 3b bd
       0.07155055 -0.08555701 -0.09177143 -0.045713853
000080 37 47 8a bd 1e c0 fc 3d 00 c3 90 3d a8 86 ed bd
       -0.067518644 0.12341331 0.07068443 -0.11597949
000090 8b 9b 38 3d 5a cf fe 3c 7b 5b b3 bd c7 86 b3 bd
       0.045070212 0.031104732 -0.08757683 -0.08765941
0000a0 fb b6 c7 3c 97 f9 9c 3d 32 cc 12 bd 44 b9 a2 bd
       0.024379244 0.07664793 -0.035839267 -0.07945493
0000b0 6d 3f 89 3c 74 e4 dd 3d 9a 6d 97 3c d1 f3 54 bd
       0.016753877 0.108345896 0.01848488 -0.051990334
0000c0 f1 91 b9 bd 64 59 0d 3d cc 0a 5b bb f2 43 2f 3d
       -0.09061039 0.034509078 -0.0033423183 0.042789407
0000d0 60 ee 57 bc 85 14 9a bd 20 96 95 3d df d9 15 3d
       -0.013179392 -0.07523445 0.07304025 0.03658473
0000e0 df d8 a2 3d 87 18 43 bc 22 cd c1 bd 34 9c b7 bd
       0.07951521 -0.011907703 -0.09462954 -0.0896534
0000f0 66 ff 88 3d 4e 61 e3 3c 6e e5 0d bd 89 7c 08 3e
       0.066893384 0.02775636 -0.03464263 0.13328756
000100 30 f2 2c bd a0 c2 22 bd 99 dc 35 bb 43 d5 7f bd
       -0.042223155 -0.03973639 -0.0027749895 -0.06245924
000110 99 94 f4 bd a9 a4 60 bd 7a a0 0a bc b2 86 0b be
       -0.11942405 -0.054844532 -0.008461112 -0.13625601
000120 63 cd 78 bd d7 f8 fc bd 89 54 cd 3d 68 47 e6 bc
       -0.060742747 -0.1235215 0.100258894 -0.028110221
000130 ec ae b5 bc eb 3c 6d bd cb 9a 51 bd 49 81 58 3d
       -0.022178136 -0.057919424 -0.051173013 0.05285767
000140 c2 e8 58 3c 4c c9 c0 bb 85 0f 11 bd f4 10 c7 bd
       0.013239088 -0.0058833715 -0.03541519 -0.097200304
000150 f5 e5 0a 3d 4d c0 a5 bd 01 48 04 bd 22 90 cb 3c
       0.03391071 -0.08093319 -0.03229523 0.024849001
000160 df 06 3b 3d 9b 98 ea bc 1e 47 a4 bd 93 d5 4e bd
       0.04566085 -0.028637221 -0.08021377 -0.05049665
000170 3e ab d5 bd 1e 9f 3c bb 68 ce 78 bd 48 5a 86 bd
       -0.104330525 -0.0028781365 -0.06074372 -0.065601885
000180 03 99 c0 3d 3e a3 b0 bd d9 57 3a 3d f7 86 a5 3c
       0.09404185 -0.08624886 0.045493934 0.020205958
000190 dd e9 6f 3d 06 0e 8c 3c d4 ab 0e bc 94 08 6e 3d
       0.05857264 0.01709653 -0.008707959 0.05811365
0001a0 4d 78 85 bd 05 9b 13 3d a5 07 ac bd 1a 29 cf ba
       -0.06517086 0.03603651 -0.083998956 -0.0015805096
0001b0 64 be 8e bd 3f 48 c6 bd b0 92 6f bc df ff c6 3c
       -0.06969908 -0.096817486 -0.014622375 0.02429193
0001c0 03 e5 73 bd 90 6a 26 3d f0 c9 bb 3d eb 5a 20 3d
       -0.059544574 0.04062897 0.09169376 0.039149206
0001d0 97 0e 06 bd 1c a0 9e 3c 3f 47 a8 3c f3 4d 11 bb
       -0.032728758 0.019363455 0.020541785 -0.0022171705
0001e0 9e f8 c5 bb c1 98 03 bd d3 d3 ac bc 67 ca d7 3d
       -0.0060416004 -0.0321281 -0.0210971 0.10536652
0001f0 24 76 bf bd 06 9f bf bc ee 3d 19 bd 57 be d0 bd
       -0.093487054 -0.023391258 -0.037412576 -0.101925544

fc.weight f4 [36, 128]
000000 5d 97 22 bd 52 4e d6 3c 7f e6 f3 3c c0 4a bf 3d
       -0.039695133 0.026160393 0.029772995 0.09340429
000010 b7 2b d5 bb 3e d5 3e 3c d2 7d b9 3a 2d 26 cc bc
       -0.0065054554 0.011647521 0.0014151877 -0.024920547
000020 81 77 a0 bd 6b ed db bd c9 6a 04 be 20 26 90 3b
       -0.078352936 -0.10738643 -0.1293136 0.004399076
000030 24 76 ca bd da d1 5c bc 79 e5 53 3d e5 e5 13 3d
       -0.09885815 -0.013477767 0.051732514 0.036107916
000040 42 46 e0 3b bb 83 fe bc 4c 12 f7 3c e3 15 09 be
       0.006844313 -0.031068673 0.030160092 -0.13387255
000050 d7 ce 30 bd a4 93 01 bd f5 07 61 bd 5c 9d 10 3d
       -0.043166008 -0.03163494 -0.05493923 0.03530632
000060 36 5f 8d 3d e5 27 e9 3c 89 90 5d bd 9f 0b 61 bd
       0.06902926 0.028461406 -0.054092918 -0.054942723
000070 7b de bc 3d 5d cd c3 3c 40 14 46 3d f7 4b d6 3d
       0.09222122 0.023901636 0.048359156 0.10463708
000080 7a 59 45 3d ff f0 43 bc cb e8 13 3e 47 63 c1 bd
       0.048181035 -0.011959313 0.14444272 -0.09442764
000090 97 6b 26 3e a2 f4 a5 bb ba 27 7f bc 29 20 4a bd
       0.1625198 -0.005064563 -0.015573436 -0.049347077
0000a0 fc a7 45 bd bf 38 d8 3c 8b 11 c5 3d 61 79 bd bd
       -0.048255906 0.026394246 0.09622487 -0.09251667
0000b0 d5 a6 36 3d 90 43 48 bd 48 4a 59 bc 1a 6b 39 bd
       0.044592697 -0.048892558 -0.013262339 -0.045268156
0000c0 9c 53 c2 bd c7 93 97 bd 2d 1c e5 3d fd 88 0f bd
       -0.094886035 -0.07401233 0.11187015 -0.03504275
0000d0 be d1 a8 3d e8 e8 be 3d ee 82 80 bd dc 36 be 3d
       0.0824313 0.09321767 -0.06274973 0.09287807
0000e0 65 73 ff bc 18 89 62 bd 53 65 99 3d 6c 99 a4 bb
       -0.031182954 -0.055306524 0.07490029 -0.005023172
0000f0 e4 fc 4e bd b7 72 df bd 9b d5 d3 bd d5 be 66 3d
       -0.050534144 -0.10910552 -0.103434764 0.056334335
000100 48 9c a2 3d 2f 2d 2b 3d c5 a9 d8 3c 12 56 e2 bc
       0.079399645 0.041791137 0.02644814 -0.027628932
000110 d8 c4 e8 3c e5 8e bf 3d 45 5f 8c 3d 83 7d 4c bd
       0.028414175 0.09353427 0.06854109 -0.049924385
000120 1d bb d4 3c 61 6e e0 3d 4e 54 9e 3d 96 a4 1e bd
       0.025968129 0.10958553 0.077309236 -0.03873118
000130 5b b4 1c bd 2a 39 5e 3d 62 d4 9f 3d a5 0b c6 bd
       -0.038257938 0.054253735 0.07804181 -0.0967019
000140 73 f4 57 bd 02 f7 67 3d 10 a9 06 bd 39 21 44 bd
       -0.05272336 0.05663205 -0.032876074 -0.047883246
000150 b6 8c 41 3d 05 3b d4 3c 0b 1c 4a bd 99 92 41 3d
       0.047253333 0.025907049 -0.04934315 0.047258947
000160 7e 9c dd bc 55 8c c5 bd 80 23 6c bd 93 55 76 bd
       -0.02705216 -0.09645907 -0.057651043 -0.060140204
000170 e9 42 0b bd b1 72 12 be a4 48 54 39 e1 66 85 bc
       -0.033999357 -0.14301564 0.00020244956 -0.016284408
000180 4d d4 b0 3d 76 a6 9e bd b5 2e 29 be 76 aa a1 3c
       0.08634243 -0.07746594 -0.16521724 0.019734602
000190 41 2e bf bd 9a 1b 21 3d 92 c9 7b bd ef 83 6a bd
       -0.09334994 0.039332964 -0.06147153 -0.057254728
0001a0 63 ca e9 bd e3 a3 d3 bd 65 f7 7e bb 64 e1 f4 3d
       -0.11415555 -0.10333993 -0.0038904783 0.11957052
0001b0 cb 42 18 bd 19 8a b8 bd 00 13 5d bc f7 d6 cd bc
       -0.037173074 -0.09010715 -0.0134932995 -0.025126917
0001c0 a0 0c 32 3c 1f 2b 99 3d 60 20 41 3d b6 9f fc bc
       0.010867268 0.07478928 0.047150016 -0.030837875
0001d0 83 0b 9d 3d 8c cf 00 be 5a e9 61 3d 38 cb e5 3d
       0.07668211 -0.12579173 0.055154182 0.112204015
0001e0 85 e5 03 3e cf c0 16 bd d8 cc 98 bd 6d f4 14 3e
       0.12880524 -0.03680497 -0.07460946 0.14546366
0001f0 61 8c cb bd df 19 86 3d 4b 91 95 3c df 36 60 bd
       -0.099388845 0.06547903 0.018257758 -0.05473983
000200 6e ce 5b bd 07 99 fe bc 7a 4f c0 3d 29 50 4e bd
       -0.053663664 -0.031078828 0.09390159 -0.050369415
000210 f5 e1 89 bc 8a 6d b9 3c b7 05 81 bd 51 df 5d 3d
       -0.016831378 0.02263524 -0.06299918 0.05416805
000220 20 01 e2 bb 55 c5 a5 bd 30 bb 7d ba 36 fb 85 bd
       -0.0068971068 -0.08094279 -0.0009679077 -0.06542055
000230 70 32 51 3d e6 8f 9a 3d cb 09 a9 bd 11 7b 23 3d
       0.05107349 0.07546978 -0.08253821 0.039912287
000240 ac 8c ab 3d 71 b5 b5 bc 18 f0 32 be 1a 41 e8 bc
       0.083764404 -0.022181245 -0.17474401 -0.028351355
000250 07 a1 bb bc aa f0 24 3e ec ae 47 bd 1b 39 8b 3d
       -0.022903932 0.16107431 -0.048750803 0.067980014
000260 8f 75 22 3d e0 c3 a5 3d b2 4f 9b bd 0d 23 22 3c
       0.039662894 0.08094001 -0.0758356 0.009896052
000270 e4 ee 77 bd dd a8 d7 bd c0 6d c2 3d 13 97 b9 bc
       -0.06053056 -0.10530255 0.094935894 -0.022655046
000280 6a a7 1e 3c 11 04 b0 bd 0d 93 ad 3d 31 9f 68 3d
       0.009683469 -0.085945256 0.08475313 0.05679244
000290 1a 40 0b 3d 77 8c 06 bd 6c 43 88 bb 24 e9 f4 bd
       0.03399668 -0.0328488 -0.004158428 -0.119585305
0002a0 b7 5f 80 bd 70 43 94 3d 62 34 89 bc c6 71 a1 bb
       -0.06268256 0.07239425 -0.01674861 -0.004926893
0002b0 78 89 d1 3d 14 39 d4 bd a7 b4 dd 3d 5c ef 21 bd
       0.10231298 -0.10362449 0.10825472 -0.03953491
0002c0 64 36 82 bd 6d fd 7b bd 49 76 b0 bd 8f bb 40 bd
       -0.063580304 -0.061520983 -0.08616311 -0.04705387
0002d0 60 8a 8e bd 8e ab 89 3c 57 be a0 bc 7f de 0e 3d
       -0.06959987 0.016805436 -0.019622011 0.034880158
0002e0 f1 d2 8d bd ba ab 67 bd 16 0f aa 3d 84 35 3b bd
       -0.069249995 -0.056560256 0.08303659 -0.045705333
0002f0 78 f8 2f bd c0 26 a3 bd 7a df 7f 3c 47 22 15 3d
       -0.042961568 -0.07966375 0.015617246 0.036409643
000300 81 00 b2 3d 8f ba 73 bb 13 d5 7d 3b 2e 15 34 bd
       0.08691502 -0.0037190055 0.0038731738 -0.04396551
000310 f0 36 40 bb b8 7b c9 39 19 20 0a bc fa c4 16 bc
       -0.002932962 0.00038429885 -0.008430504 -0.009202236
000320 d0 93 ee bd 8c d0 e5 3d bf d8 03 bc 04 f9 58 bd
       -0.11649287 0.11221418 -0.008047282 -0.052971855
000330 f3 dd 1c bc b5 e6 36 bc c1 f0 aa bd fa 65 a6 bc
       -0.009574401 -0.011163403 -0.083467014 -0.020312298
000340 c3 7f df bc 00 9c 44 3d 65 cd a1 3c e6 92 fb bb
       -0.027282601 0.048000336 0.01975126 -0.007677424
000350 51 a6 04 3e 4d 4c f8 bc e7 93 c7 bc 4d 76 76 bd
       0.1295407 -0.03030982 -0.024362518 -0.060171414
000360 6d 37 01 3d c9 73 84 bd ee a3 d6 3c ed 1e e0 3c
       0.031547 -0.06467397 0.026201215 0.027358497
000370 75 e0 9e bd 85 b1 04 bd ee 52 92 bd 7c ca 7a bd
       -0.077576555 -0.03239586 -0.07144724 -0.06122826
000380 a9 5e c6 3d 4a 14 2a bd e1 ca d4 bd bb 29 9e 3d
       0.09686024 -0.041523255 -0.103902586 0.07722803
000390 7e 46 d0 bd 66 21 b7 3c 22 d9 bb bd 1a ec 54 bd
       -0.10169695 0.022354793 -0.09172274 -0.051982976
0003a0 95 04 5b bd a5 11 9e bd 79 35 0f bc 8c 52 26 bd
       -0.053471167 -0.07718209 -0.008740776 -0.040606067
0003b0 1f 29 ed bc 66 d0 f9 bd 7f cb fb bc f5 29 fa 3d
       -0.028950272 -0.12197952 -0.030736683 0.12215034
0003c0 3a 0c 6c bc 62 02 2c 3c 27 35 3a 3d f9 da b7 bd
       -0.014407212 0.010498615 0.045460846 -0.089773126
0003d0 73 b5 3f 3d c7 0f 9d bd 1a 43 ce 3d 4d 75 4e bd
       0.046803903 -0.07669025 0.10071392 -0.050404835
0003e0 6d ec 8c 3d fb 2d 34 ba a9 f0 85 3c c1 09 b1 3b
       0.06881032 -0.00068733067 0.016350107 0.005402774
0003f0 eb c1 a1 bd cd 8a 1c bd c7 79 24 3d f7 72 99 bd
       -0.07898315 -0.03821831 0.0401552 -0.07492631

fc.bias f4 [36]
000000 0c ed 1d bd 2b 0a cd 3d ec 09 2b 3d 7b 61 17 3e
       -0.038556144 0.10011705 0.04175751 0.1478328
000010 de 32 26 3d b6 ec 90 3d 7f a4 e2 3a 50 f7 22 3d
       0.040575854 0.07076399 0.0017291455 0.039786637
000020 0c bf a7 bd b5 ae d0 3d 67 ef f2 3d c6 57 2a 3c
       -0.08190736 0.10189573 0.118620686 0.010396903
000030 e1 68 1b 3e a9 22 b7 3d 58 6a 9a 3d 27 f7 84 bd
       0.15176727 0.08942158 0.07539815 -0.06492453
000040 36 4b ca 3d 8e a5 ff 3d cc ca e9 3a fb bb 20 3d
       0.098776266 0.12482749 0.0017836927 0.039241772
000050 7d 7f 4f bd 9f 8f 31 be fd c6 79 3d 33 07 7f 3d
       -0.05065869 -0.17339943 0.060980786 0.062262725
000060 a9 4b ad 3c 68 16 0e bd 48 7a c8 3d 14 16 9b 3d
       0.021154242 -0.034689337 0.09788948 0.075725704
000070 13 b8 ed 3d 66 b8 e5 3d aa bd 4d bc 78 43 98 3d
       0.11607375 0.11216812 -0.0125574265 0.07434744
000080 8c 84 c8 3d a7 74 ad 3d 76 30 42 3d d3 3a e2 3d
       0.09790906 0.08469515 0.047409497 0.11046376
