situation_analysis/best_models/model_window30_horizon5.pth (torch, 924458 bytes, 27 tensors)

adapt_adj f4 [30, 30]
0.95104975 -0.049615588 -0.04987066 -0.05024879 -0.0510638 -0.051520873 -0.05230822 -0.052903686
-0.05319797 -0.0533307 -0.05340163 -0.053028703 -0.05257489 -0.05175585 -0.050941344 -0.050329063
-0.048653375 -0.047863957 -0.04714909 -0.04645699 -0.046012785 -0.04453196 -0.044078805 -0.042425197
-0.04127429 -0.039961327 -0.038673773 -0.03702344 -0.03469823 -0.037684247 -0.047901303 0.95170486
-0.048588373 -0.048915155 -0.049747508 -0.050259385 -0.05107279 -0.05166857 -0.051985532 -0.052156344
-0.052307874 -0.05193534 -0.051451966 -0.050681233 -0.04989426 -0.049285196 -0.04759934 -0.04677928
-0.046056964 -0.045299772 -0.04484892 -0.043337606 -0.04289957 -0.041164704 -0.04002478 -0.03864242
-0.0373113 -0.03563029 -0.033307023 -0.036386877 -0.046903335 -0.047369666 0.9525958 -0.047747366
-0.04862207 -0.049180992 -0.04995889 -0.05047847 -0.050716326 -0.05098811 -0.05108025 -0.050752107
-0.05025271 -0.049449626 -0.048684478 -0.0480129 -0.046381075 -0.045474946 -0.044721983 -0.04403848
-0.04355369 -0.042141177 -0.041707005 -0.039971422 -0.038794156 -0.037500978 -0.036192764 -0.03454415
-0.032228462 -0.035295416 -0.04725643 -0.047684513 -0.047750976 0.952025 -0.04890928 -0.049435005
-0.050317217 -0.050858743 -0.051114406 -0.051357906 -0.05142771 -0.051139258 -0.050694115 -0.04991144
-0.04910765 -0.048393883 -0.046913397 -0.04615474 -0.04543836 -0.04476497 -0.044336725 -0.042944312
-0.04250542 -0.040830743 -0.039671015 -0.03834404 -0.0370437 -0.03542505 -0.03306515 -0.036108278
-0.04751943 -0.047973868 -0.048096877 -0.048311777 0.9510647 -0.049483027 -0.05025697 -0.050882336
-0.05116652 -0.051329836 -0.051476486 -0.05110861 -0.05065557 -0.049892616 -0.049133208 -0.0484491
-0.046941146 -0.046258748 -0.04552215 -0.044764265 -0.044354916 -0.042983204 -0.04248695 -0.04083357
-0.039735157 -0.038358893 -0.037035327 -0.035396095 -0.033109717 -0.03618534 -0.046591762 -0.047024835
-0.047187142 -0.04732616 -0.04796541 0.9517213 -0.049197663 -0.049787246 -0.05013581 -0.05037399
-0.050508764 -0.0502063 -0.049732734 -0.048960008 -0.048221156 -0.04748065 -0.045952175 -0.04528773
-0.04455821 -0.04380813 -0.04329733 -0.041901633 -0.041451324 -0.039778236 -0.03869128 -0.037357576
-0.036059573 -0.034395147 -0.03210856 -0.035054285 -0.047981136 -0.048325364 -0.048429895 -0.048632976
-0.049201474 -0.049611174 0.94971514 -0.050838236 -0.05116419 -0.05139399 -0.05156788 -0.051301114
-0.050834443 -0.05009288 -0.049322817 -0.048560273 -0.04711267 -0.04644448 -0.045767225 -0.044978008
-0.044503365 -0.043108944 -0.04262722 -0.041037872 -0.0398935 -0.038469955 -0.03722649 -0.035587084
-0.033289976 -0.03618324 -0.0468185 -0.047230083 -0.047283042 -0.0474931 -0.04803995 -0.04832784
-0.048999757 0.95050764 -0.049808223 -0.04999827 -0.050081648 -0.049793884 -0.049347058 -0.048625134
-0.04783659 -0.047161322 -0.045599453 -0.044898227 -0.044266824 -0.04362557 -0.04317279 -0.041783974
-0.04128244 -0.039735246 -0.03866682 -0.03731396 -0.036085017 -0.034451585 -0.03222535 -0.035115797
-0.04734744 -0.047791913 -0.04788777 -0.04809197 -0.048621245 -0.04890403 -0.049473003 -0.05000038
0.9498009 -0.050496835 -0.05054553 -0.050339565 -0.049985543 -0.049253426 -0.04844203 -0.047823355
00000000: ff77 733f b739 4bbd 2d45 4cbd add1 4dbd
00000010: 4628 51bd 8d07 53bd 2541 56bd 89b1 58bd
00000020: 1de6 59bd 4b71 5abd abbb 5abd a034 59bd
00000030: c558 57bd f1fd 53bd dfa7 50bd d925 4ebd
00000040: c348 47bd ff0c 44bd 671f 41bd af49 3ebd
00000050: e777 3cbd 2567 36bd fa8b 34bd 0bc6 2dbd
00000060: 3b0f 29bd 7dae 23bd 6468 1ebd e4a5 17bd
00000070: bb1f 0ebd cc5a 1abd 2834 44bd eea2 733f
00000080: 9a04 47bd 425b 48bd 0bc4 4bbd c9dc 4dbd
00000090: b431 51bd 6ca2 53bd c8ee 54bd e4a1 55bd
000000a0: c840 56bd 27ba 54bd 4cbf 52bd 2097 4fbd
000000b0: ec5d 4cbd 46df 49bd 87f7 42bd a19b 3fbd
000000c0: 3aa6 3cbd 418c 39bd 80b3 37bd c682 31bd
000000d0: 76b7 2fbd 529c 28bd 06f1 23bd 8447 1ebd
000000e0: bcd3 18bd 11f1 11bd f26c 08bd 680a 15bd
000000f0: b61d 40bd b206 42bd 51dd 733f be92 43bd
00000100: f027 47bd 0272 49bd b1a1 4cbd 83c2 4ebd
00000110: ecbb 4fbd e9d8 50bd 8639 51bd 71e1 4fbd
00000120: c9d5 4dbd b18b 4abd 6069 47bd 2da9 44bd
00000130: 15fa 3dbd f043 3abd 662e 37bd b161 34bd
00000140: 5b65 32bd 3a9c 2cbd f7d4 2abd 13b9 23bd
00000150: 9fe6 1ebd a09a 19bd dd3e 14bd 2b7e 0dbd
00000160: fe01 04bd ed91 10bd f58f 41bd d650 43bd
00000170: 8796 43bd e9b7 733f 1955 48bd 5c7c 4abd
00000180: 6d19 4ebd 4251 50bd 575d 51bd ab5c 52bd
00000190: dda5 52bd 6677 51bd a2a4 4fbd f06f 4cbd
000001a0: 1a25 49bd aa38 46bd 4328 40bd c10c 3dbd
000001b0: 931d 3abd 795b 37bd 6d9a 35bd 60e6 2fbd
000001c0: 2a1a 2ebd 233e 27bd 137e 22bd a40e 1dbd
000001d0: 23bb 17bd db19 11bd 536f 07bd 46e6 13bd
000001e0: bca3 42bd 3f80 44bd 3b01 45bd 92e2 45bd
000001f0: fa78 733f b7ae 4abd 41da 4dbd ff69 50bd
00000200: fc93 51bd 3c3f 52bd 02d9 52bd 4357 51bd
00000210: 377c 4fbd 335c 4cbd e73f 49bd 9072 46bd
00000220: 5c45 40bd d079 3dbd 6f75 3abd bc5a 37bd
00000230: 80ad 35bd 280f 30bd cc06 2ebd 1a41 27bd
00000240: 55c1 22bd 371e 1dbd 5bb2 17bd 7ffb 10bd
00000250: 0e9e 07bd 1437 14bd 01d7 3ebd 1d9d 40bd
00000260: 4e47 41bd 13d9 41bd 6177 44bd 02a4 733f
00000270: 7d83 49bd b6ed 4bbd 355b 4dbd f554 4ebd
00000280: 47e2 4ebd 1fa5 4dbd 8db4 4bbd 4a8a 48bd
00000290: 8c83 45bd 127b 42bd 5938 3cbd a07f 39bd
000002a0: ab82 36bd 2770 33bd 8b58 31bd 0ca1 2bbd
000002b0: ddc8 29bd 81ee 22bd bf7a 1ebd 4204 19bd
000002c0: 34b3 13bd ede1 0cbd 4484 03bd 1595 0fbd
000002d0: de87 44bd d1f0 45bd 6d5e 46bd 5f33 47bd
000002e0: 7c87 49bd 1635 4bbd 8820 733f c13b 50bd
000002f0: 8b91 51bd 8182 52bd d738 53bd 1e21 52bd
00000300: c737 50bd 312e 4dbd b906 4abd 23e7 46bd
00000310: 37f9 40bd 913c 3ebd 6a76 3bbd dc3a 38bd
00000320: 2949 36bd 0193 30bd e199 2ebd 5417 28bd
00000330: 5e67 23bd ac92 1dbd ce7a 18bd c3c3 11bd
00000340: 125b 08bd e134 14bd c1c4 3fbd 5574 41bd
00000350: ddab 41bd 2088 42bd 8ac5 44bd 6af3 45bd
00000360: f8b3 48bd 7854 733f b503 4cbd fcca 4cbd
00000370: 6a22 4dbd acf4 4bbd 2420 4abd 262b 47bd
00000380: 4df0 43bd 3b2c 41bd 7ec6 3abd 34e7 37bd
00000390: 2151 35bd bab0 32bd f4d5 30bd ac25 2bbd
000003a0: c717 29bd 6dc1 22bd 1961 1ebd 86d6 18bd
000003b0: e2cd 13bd 1b1d 0dbd bbfe 03bd 95d5 0fbd
000003c0: 64ef 41bd 74c1 43bd f725 44bd 16fc 44bd
000003d0: 1227 47bd 984f 48bd 34a4 4abd 33cd 4cbd
000003e0: 2726 733f c5d5 4ebd d408 4fbd dc30 4ebd
000003f0: a4bd 4cbd f6bd 49bd 266b 46bd 6ce2 43bd

gc1.fc.weight f4 [128, 36]
-0.1307105 -0.14562571 0.023154518 0.10741013 -0.016274542 0.010339723 0.0900706 -0.16304117
-0.13151273 -0.08985496 0.1364259 -0.031891983 -0.037698425 -0.14765643 -0.074391305 -0.017749924
-0.01344458 -0.07207284 -0.061157763 -0.0030460306 0.15704542 -0.26977473 -0.07136525 -0.018602509
0.15151691 -0.008010197 -0.09995965 -0.0118414145 0.13524407 -0.16541407 0.102538936 -0.063000254
0.107676655 -0.04069337 0.008375571 -0.025555246 0.024205878 0.17036144 -0.09508931 0.03382882
-0.076015465 -0.010463457 -0.06924631 0.12867947 -0.05032485 0.13070919 0.14205398 0.054385457
-0.14142132 0.10917825 -0.11717142 -0.19447787 0.08489042 0.052264016 -0.09813865 -0.13135894
0.10533958 -0.16975804 0.1347459 0.08012377 -0.07309101 0.0073301997 -0.07489293 -0.16677019
0.18168013 -0.0039193085 -0.062925786 -0.16209698 -0.07336548 0.08512155 -0.07075314 0.08023329
-0.1631038 0.18288052 0.011337005 -0.11626298 -0.12268068 -0.10943075 0.04316999 -0.105949156
-0.08673341 -0.12023999 -0.024982339 0.10795724 0.13223785 0.10209285 0.053900298 0.010231452
-0.03816868 0.051837295 -0.055431325 -0.110132225 0.12397395 -0.044172414 0.10308807 0.01593217
0.1263138 -0.09772105 0.14208023 -0.07872269 -0.14455403 0.090874344 -0.14648326 -0.0055153896
0.113684796 0.08512165 -0.099710256 -0.10901837 -0.18848836 -0.16017033 -0.01360331 -0.085728906
0.08091428 0.09130051 0.042144775 -0.029928468 0.082135476 -0.026173064 -0.10599686 0.05201381
-0.037886005 -0.17559116 0.19110398 -0.07604775 0.09989135 0.046329226 -0.09246981 -0.18085632
0.12334425 0.034270477 0.00741387 -0.035279863 0.1232637 0.087101795 0.08074831 0.13153006
0.10922002 0.07368248 0.11284217 0.13435727 -0.052270066 0.14839998 0.08287806 0.104190774
-0.02460048 0.1622575 0.18319535 0.1506145 0.054896884 -0.0025385546 -0.06492941 0.05340714
0.10327277 -0.03856791 0.15864348 -0.08801292 -0.061925415 -0.08906371 -0.049815822 0.113928944
0.08616915 0.10627351 -0.039647445 -0.059307788 0.038496435 0.074506834 -0.13626638 0.08334427
0.04153741 0.15326579 -0.15573914 -0.03544248 0.037999555 0.083246656 -0.120693 0.06174171
0.09431394 -0.10593484 -0.11560814 -0.11760257 -0.09088475 -0.040320568 -0.043048702 -0.16338128
-0.06444793 -0.09184359 0.15266281 -0.17261857 0.17146137 -0.09164131 -0.11020455 -0.17087007
0.072956905 -0.07610007 0.027220342 -0.1197674 -0.13528956 -0.021989403 -0.08430772 0.00136644
0.13084851 0.0772925 -0.02056687 0.1237793 0.04039129 0.10495791 0.0611632 0.0097814845
-0.037137967 0.02234297 0.15639773 0.11492082 0.024929209 -0.12414843 -0.113523215 0.094450526
0.016993016 0.08285211 -0.052142188 0.10643677 0.103258006 -0.106707215 0.06049177 -0.07195058
0.081511654 0.065962546 0.14700618 0.065777406 0.17206717 -0.06877992 0.039104044 0.067960665
0.16975293 -0.02526421 -0.04044015 0.004135556 -0.06933062 -0.074075416 0.071309656 -0.1347508
0.22508459 -0.15232679 -0.16293834 0.022210704 -0.05453869 0.12048792 -0.006098978 0.209166
-0.033844143 0.12433861 0.10354168 0.064862035 0.134197 0.017316973 -0.03332602 -0.041744
00000000: f9d8 05be e81e 15be 8bae bd3c d8f9 db3d
00000010: 3052 85bc f167 293c ef76 b83d 44f4 26be
00000020: 46ab 06be e105 b8bd 3bb3 0b3e 2ba1 02bd
00000030: aa69 1abd 3f33 17be 785a 98bd 4a68 91bc
00000040: a846 5cbc ed9a 93bd 9080 7abd ea9f 47bb
00000050: 84d0 203e ea1f 8abe f227 92bd 4a64 98bc
00000060: 4027 1b3e 343d 03bc a5b7 ccbd 7e02 42bc
00000070: 6c7d 0a3e 4e62 29be efff d13d 4706 81bd
00000080: 9485 dc3d 17ae 26bd b139 093c 3c59 d1bc
00000090: 684b c63c 3b73 2e3e 2fbe c2bd 1790 0a3d
000000a0: ffad 9bbd eb6e 2bbc 02d1 8dbd 8dc4 033e
000000b0: 6e21 4ebd a1d8 053e 9976 113e 49c3 5e3d
000000c0: c0d0 10be d998 df3d 92f7 efbd 3525 47be
000000d0: 07db ad3d cb12 563d ebfc c8bd f582 06be
000000e0: 47bc d73d 0dd5 2dbe d4fa 093e ee17 a43d
000000f0: bdb0 95bd 2c32 f03b 7761 99bd cec5 2abe
00000100: 5b0a 3a3e 8b6d 80bb 3cdf 80bd c0fc 25be
00000110: a440 96bd 3554 ae3d 06e7 90bd 5a51 a43d
00000120: af04 27be 0845 3b3e d8be 393c 491b eebd
00000130: 0240 fbbd 3b1d e0bd 04d3 303d dffb d8bd
00000140: 49a1 b1bd 6240 f6bd c3a7 ccbc af18 dd3d
00000150: 5c69 073e 0e16 d13d 8fc6 5c3d d2a1 273c
00000160: c356 1cbd 5853 543d f50b 63bd 018d e1bd
00000170: 0ee6 fd3d 22ee 34bd d71f d33d 2f84 823c
00000180: 6858 013e f921 c8bd 7b7d 113e 5d39 a1bd
00000190: f905 14be 541c ba3d b5ff 15be 71ba b4bb
000001a0: 93d3 e83d 4254 ae3d e434 ccbd 0645 dfbd
000001b0: 1803 41be b103 24be 6be0 5ebc a392 afbd
000001c0: 63b6 a53d c3fb ba3d 00a0 2c3d 8c2c f5bc
000001d0: a536 a83d e568 d6bc e214 d9bd 6f0c 553d
000001e0: 5b2e 1bbd 2bce 33be c3b0 433e ecbe 9bbd
000001f0: d693 cc3d b7c3 3d3d d060 bdbd 6632 39be
00000200: e99b fc3d 335f 0c3d 0df0 f23b 9e81 10bd
00000210: ae71 fc3d 6d62 b23d 5f5f a53d d1af 063e
00000220: bfae df3d d7e6 963d cc19 e73d f494 093e
00000230: 2319 56bd 2af6 173e f9bb a93d f961 d53d
00000240: f286 c9bc d526 263e 9097 3b3e b03a 1a3e
00000250: 8edb 603d e15d 26bb b6f9 84bd 72c1 5a3d
00000260: ad80 d33d 63f9 1dbd 7073 223e 1e40 b4bd
00000270: 81a5 7dbd 0967 b6bd ad0b 4cbd 9453 e93d
00000280: 7479 b03d eda5 d93d 5c65 22bd b9ec 72bd
00000290: 70ae 1d3d 0a97 983d 6a89 0bbe 67b0 aa3d
000002a0: 2223 2a3d b5f1 1c3e 157a 1fbe 222c 11bd
000002b0: 6ca5 1b3d 397d aa3d e42d f7bd e0e4 7c3d
000002c0: ab27 c13d 5ef4 d8bd f6c3 ecbd 9ed9 f0bd
000002d0: c921 babd 2e27 25bd d653 30bd 6c4d 27be
000002e0: 47fd 83bd 7e18 bcbd a453 1c3e ecc2 30be
000002f0: 9293 2f3e 70ae bbbd ecb2 e1bd 90f8 2ebe
00000300: 6e6a 953d 5ada 9bbd 32fd de3c 9c48 f5bd
00000310: 5989 0abe 1f23 b4bc 87a9 acbd 1e1a b33a
00000320: 27fd 053e 884b 9e3d da7b a8bc 0080 fd3d
00000330: 5671 253d 2cf4 d63d 4386 7a3d 8542 203c
00000340: fb1d 18bd 9b08 b73c ba26 203e 9b5b eb3d
00000350: 5738 cc3c 8841 febd dc7e e8bd 476f c13d
00000360: f034 8b3c 5eae a93d 0c93 55bd 85fb d93d
00000370: ef78 d33d 5089 dabd 38c6 773d d35a 93bd
00000380: 95ef a63d 5f17 873d ca88 163e 4eb6 863d
00000390: 6032 303e 7ddc 8cbd 902b 203d f62e 8b3d
000003a0: b6d3 2d3e e3f6 cebc 92a4 25bd 8f83 873b
000003b0: 36fd 8dbd dab4 97bd cc0a 923d 1dfc 09be
000003c0: 937c 663e 8efb 1bbe 4fd9 26be 39f3 b53c
000003d0: f663 5fbd 5fc2 f63d f0d9 c7bb 9d2f 563e
000003e0: 28a0 0abd 3ea5 fe3d a90d d43d 63d6 843d
000003f0: f06a 093e 53dc 8d3c dd80 08bd c2fb 2abd

gc1.fc.bias f4 [128]
-0.10212384 0.095686994 0.0839581 0.07770549 -0.08962888 -0.069650464 -0.13782316 0.05047881
0.06792013 0.08164791 -0.19272104 0.018197715 -0.005516875 -0.12451763 -0.04308721 0.043283798
0.11872455 0.07869414 -0.089295015 0.013406257 0.036067985 0.018371727 0.01439933 -0.041946106
-0.10077705 -0.07190312 -0.025505835 -0.0071330345 -0.09159981 -0.13163233 -0.21360646 0.03467678
0.030926112 -0.12373612 -0.06628586 0.06511932 0.040069934 -0.034028552 0.078558 -0.0021311322
0.061425414 -0.11385702 0.10349012 -0.057070922 -0.15723893 -0.1687003 0.109249674 -0.045590743
0.11354545 -0.10504429 -0.11721733 0.07813802 -0.17968738 0.118689835 -0.011943181 0.12725343
-0.14631252 -0.19846196 -0.102401406 -0.081987545 -0.05223787 -0.10896118 0.0987985 0.11283441
0.06853355 -0.10554843 -0.13421726 -0.13782905 0.016614158 0.0035716344 0.0984326 -0.011788558
-0.17112456 -0.060453866 0.10346332 0.16023925 -0.04539833 0.006407953 0.15115015 -0.23432535
0.03297474 -0.15554133 0.09204266 -0.14381552 0.08391434 -0.15736875 -0.038337506 -0.080463156
-0.04048997 -0.00823365 -0.1027838 -0.17163682 -0.14026956 0.064515166 -0.009362793 0.12378519
-0.17628685 -0.12854674 -0.10689691 0.04404572 -0.041212086 -0.17581053 0.023390409 0.14084609
0.030425116 0.009107898 0.094272576 0.027600745 -0.023863064 -0.18671526 -0.05274992 0.04628856
0.017054819 0.08941895 0.08601816 0.08520427 0.09399879 0.099580035 -0.19429985 -0.0758987
0.13039537 -0.08102309 0.011695683 -0.069915526 -0.007138354 0.011876434 -0.091046095 -0.15562661
00000000: 4e26 d1bd 8bf7 c33d 39f2 ab3d 0e24 9f3d
00000010: 598f b7bd e7a4 8ebd 8421 0dbe dec2 4e3d
00000020: b619 8b3d 0537 a73d aa58 45be 6013 953c
00000030: e7c6 b4bb 1903 ffbd 377c 30bd 5a4a 313d
00000040: db25 f33d 652a a13d 4ee0 b6bd eba5 5b3c
00000050: 06bc 133d 4e80 963c 2beb 6b3c aecf 2bbd
00000060: 3364 cebd f141 93bd 9df1 d0bc 3bbc e9bb
00000070: ae98 bbbd a0ca 06be a7bb 5abe 3d09 0e3d
00000080: c258 fd3c 5d69 fdbd e2c0 87bd 475d 853d
00000090: 5f20 243d 8661 0bbd 04e3 a03d 77aa 0bbb
000000a0: 3799 7b3d df2d e9bd a1f2 d33d 33c3 69bd
000000b0: 3e03 21be c5bf 2cbe 4bbe df3d 5cbd 3abd
000000c0: 848a e83d 7621 d7bd a40f f0bd d406 a03d
000000d0: f8ff 37be a813 f33d 55ad 43bc b94e 023e
000000e0: f3d2 15be 9d39 4bbe d4b7 d1bd 16e9 a7bd
000000f0: 60f7 55bd 0a27 dfbd de56 ca3d ba15 e73d
00000100: 515b 8c3d c629 d8bd 4070 09be 0f23 0dbe
00000110: 6a1a 883c 1512 6a3b 0897 c93d cc24 41bc
00000120: 473b 2fbe 799e 77bd 94e4 d33d c215 243e
00000130: 99f3 39bd cef9 d13b 1bc7 1a3e fcf2 6fbe
00000140: 8510 073d 3a46 1fbe dd80 bc3d 6044 13be
00000150: 48db ab3d 4625 21be ca07 1dbd dec9 a4bd
00000160: d0d8 25bd 6ee6 06bc 5080 d2bd 90c1 2fbe
00000170: d3a2 0fbe 8720 843d 6666 19bc 1783 fd3d
00000180: 8a84 34be c2a1 03be c4ec dabd 4969 343d
00000190: 01ce 28bd ad07 34be 3e9d bf3c f539 103e
000001a0: 183e f93c 4b39 153c fb11 c13d f51a e23c
000001b0: 797c c3bc 4932 3fbe 4d10 58bd 1399 3d3d
000001c0: 8cb6 8b3c 4821 b73d 4a2a b03d 947f ae3d
000001d0: 7082 c03d 9ef0 cb3d 8af6 46be c770 9bbd
000001e0: 5d86 053e 6fef a5bd 409f 3f3c df2f 8fbd
000001f0: dae8 e9bb 6095 423c 6076 babd 955c 1fbe

gc2.fc.weight f4 [128, 128]
-0.06535195 0.10172519 0.05921982 -0.11279181 0.10894226 0.0075960476 -0.11567766 -0.0022389386
0.008836748 -0.13825886 -0.0068595507 -0.05409864 -0.023853783 -0.0462142 0.03679101 -0.014499682
0.0074056354 -0.053669915 -0.10114512 0.029246047 -0.01652471 -0.049819626 -0.049763978 0.03516611
-0.000800862 0.010673072 -0.085493356 -0.013393308 -0.058116235 0.07936463 -0.12424011 -0.03642412
0.010166501 -0.006361368 -0.0886449 0.053275038 0.04900773 0.007000575 -0.009751919 -0.014810749
-0.07609929 0.075703315 -0.08087166 -0.11650226 -0.0077797496 0.07718456 -0.013546657 0.039542783
0.03434165 -0.014765456 -0.1797975 -0.024188925 0.049001362 -0.050971445 -0.08840193 -0.08073288
0.009916818 0.07295596 -0.16455498 0.07266529 -0.13452831 -0.13078524 -0.014427284 0.008057651
-0.020895334 0.055086553 0.0012739417 0.061371956 0.089522146 0.11345003 0.028230183 -0.03874465
0.02164858 -0.089428686 -0.024237279 0.04057155 0.036755025 0.10295903 0.08282381 0.110468335
-0.108649306 -0.05314559 0.062485963 -0.024184778 0.042363152 -0.09879817 0.07259355 0.036180243
-0.08998857 -0.07377636 -0.11828864 -0.043127615 -0.13399531 0.08258807 -0.10564607 -4.5487934e-05
-0.11428603 -0.07516645 -0.08023097 0.066658236 -0.008753719 -0.006016017 0.02070766 0.015464777
-0.083861314 0.050127152 -0.1151152 0.09733515 -0.10916863 0.042627804 0.034996986 0.009279006
-0.076765314 -0.028551765 -0.0942549 0.10235537 0.11276959 -0.1197389 -0.10357097 -0.00762233
-0.040376704 0.047260303 -0.007990516 0.091701396 -0.014626451 0.017188625 -0.06958405 0.05043727
-0.031774323 0.03387897 -0.007691585 -0.052352566 0.022108667 -0.051997606 -0.08348748 -0.028996343
0.05465809 -0.054060817 0.12905487 -0.043018065 -0.023616666 0.004754597 -0.036971718 0.03039614
-0.085647225 0.013104688 -0.01895843 -0.08147218 0.041138094 -0.024292909 0.0074073253 -0.102872334
-0.051403057 -0.07450494 -0.034826927 -0.10269311 0.009209999 -0.113736354 -0.0020211951 -0.06060137
-0.022101972 -0.020043194 0.059254132 0.01999779 -0.05956815 -0.096088484 0.11858625 -0.069564134
-0.10421394 0.019303508 0.015535428 -0.09896612 -0.14019981 -0.028186537 -0.11499785 -0.11317608
0.005251064 -0.0235416 0.069578454 -0.019401545 -0.023716198 -0.07162844 0.01620913 -0.038684476
0.080316454 -0.1576043 -0.098719865 0.046559565 0.094902076 -0.070498 -0.079107635 -0.020239843
-0.12942073 0.040825743 0.02345452 -0.1115833 -0.027596366 0.045765813 -0.11126794 -0.021479229
-0.056994632 -0.025522616 -0.015829096 0.008273036 -0.07872486 -0.036030706 -0.0039706235 -0.028180847
0.019771457 0.0051708976 -0.030259391 -0.07026523 0.019590892 0.117899224 -0.0578537 -0.083918795
0.013622698 0.014119594 -0.09934153 -0.08524731 0.047655206 -0.028977098 0.051768437 -0.0760313
0.13657495 -0.00573351 -0.022260789 0.06754737 -0.08853149 -0.04525842 -0.03646498 -0.06528925
-0.11562735 -0.0030191664 -0.06550417 0.0068255644 0.029539755 0.1280405 -0.025920408 -0.08413269
-0.038272135 -0.09488481 -0.08298189 -0.0530937 -0.044246998 -0.024614649 -0.026533216 -0.021030974
-0.103820994 -0.09287409 -0.15673055 -0.19283512 -0.005492391 -0.007340879 -0.14246795 -0.11947695
00000000: 3ed7 85bd 4c55 d03d 7b90 723d 64ff e6bd
00000010: 1f1d df3d 44e8 f83b 69e8 ecbd 28bb 12bb
00000020: 02c8 103c bb93 0dbe 15c6 e0bb 8996 5dbd
00000030: 0269 c3bc 1a4b 3dbd 2cb2 163d 1390 6dbc
00000040: f9aa f23b fcd4 5bbd 2c25 cfbd 6895 ef3c
00000050: d45e 87bc aa0f 4cbd 50d5 4bbd 570a 103d
00000060: f0f0 51ba 1cde 2e3c 2417 afbd 9b6f 5bbc
00000070: 4a0b 6ebd ec89 a23d 9971 febd 7531 15bd
00000080: 6591 263c 0673 d0bb 758b b5bd ed36 5a3d
00000090: 54bc 483d 1465 e53b 83c6 1fbc c9a8 72bc
000000a0: f2d9 9bbd 570a 9b3d 0aa0 a5bd bd98 eebd
000000b0: 45ed febb f012 9e3d ccf2 5dbc 9df7 213d
000000c0: d4a9 0c3d d0ea 71bc d61c 38be da27 c6bc
000000d0: a7b5 483d 6fc7 50bd 120c b5bd 4857 a5bd
000000e0: 267a 223c ef69 953d 1a81 28be 8ad1 943d
000000f0: cac1 09be 91ec 05be 6a60 6cbc 3d04 043c
00000100: b12c abbc 70a2 613d 64fa a63a 2961 7b3d
00000110: 6357 b73d 7d58 e83d fc42 e73c b6b2 1ebd
00000120: 5d58 b13c 6326 b7bd 428d c6bc 5b2e 263d
00000130: 708c 163d 2fdc d23d 889f a93d 393d e23d
00000140: 8783 debd 31af 59bd 48f1 7f3d 281f c6bc
00000150: fc84 2d3d b256 cabd edab 943d bc31 143d
00000160: ed4b b8bd 0f18 97bd 5141 f2bd 95a6 30bd
00000170: 1136 09be ef23 a93d f75c d8bd 4cca 3eb8
00000180: cb0e eabd def0 99bd 2350 a4bd 1d84 883d
00000190: c26b 0fbc 0222 c5bb 1ca3 a93c fa5f 7d3c
000001a0: 7bbf abbd 2152 4d3d 85c1 ebbd a757 c73d
000001b0: cd93 dfbd 7e9a 2e3d 0059 0f3d f906 183c
000001c0: 2237 9dbd 64e5 e9bc b708 c1bd b19f d13d
000001d0: bef3 e63d ab39 f5bd 041d d4bd bdc4 f9bb
000001e0: 0b62 25bd 0594 413d a7ea 02bc f1cd bb3d
000001f0: c8a3 6fbc 29cf 8c3c 1582 8ebd 5097 4e3d
00000200: cb25 02bd adc4 0a3d b109 fcbb a56f 56bd
00000210: 3c1d b53c 71fb 54bd 7cfb aabd bd89 edbc
00000220: 29e1 5f3d e06e 5dbd f626 043e b633 30bd
00000230: bd77 c1bc 73cc 9b3b a86f 17bd 5301 f93c
00000240: d067 afbd 0cb5 563c b64e 9bbc e3da a6bd
00000250: 6b80 283d ec01 c7bc 26b9 f23b bbae d2bd
00000260: 038c 52bd 0c96 98bd aea6 0ebd c450 d2bd
00000270: 89e5 163c 9bee e8bd 0776 04bb 2439 78bd
00000280: 320f b5bc a031 a4bc 76b4 723d 68d2 a33c
00000290: bcfd 73bd 0aca c4bd 59dd f23d a477 8ebd
000002a0: 1e6e d5bd 6422 9e3c 4f88 7e3c c0ae cabd
000002b0: 8a90 0fbe 74e7 e6bc fe83 ebbd dcc8 e7bd
000002c0: 1e11 ac3b 50da c0bc 267f 8e3d fdef 9ebc
000002d0: 7948 c2bc eeb1 92bd 02c9 843c 9d73 1ebd
000002e0: f47c a43d 0663 21be a42d cabd 3eb5 3e3d
000002f0: 055c c23d 4161 90bd 2f03 a2bd 07ce a5bc
00000300: de86 04be e538 273d b223 c03c c985 e4bd
00000310: c611 e2bc ef74 3b3d 72e0 e3bd 35f5 afbc
00000320: 3473 69bd ce14 d1bc 05ac 81bc a18b 073c
00000330: 803a a1bd ef94 13bd 011c 82bb 85db e6bc
00000340: c0f7 a13c a270 a93b 8be2 f7bc 38e7 8fbd
00000350: 147d a03c 2675 f13d 00f8 6cbd 9edd abbd
00000360: bd31 5f3c df55 673c 9273 cbbd 2496 aebd
00000370: 1b32 433d 6161 edbc 240b 543d 4cb6 9bbd
00000380: 4eda 0b3e 2be0 bbbb 425c b6bc 4756 8a3d
00000390: ff4f b5bd e560 39bd 4e5c 15bd 5fb6 85bd
000003a0: 08ce ecbd 35dd 45bb 0d27 86bd fca8 df3b
000003b0: 5bfd f13c 0d1d 033e 0957 d4bc c34d acbd
000003c0: 3ec3 1cbd f852 c2bd 69f2 a9bd c878 59bd
000003d0: 573c 35bd a9a4 c9bc 305c d9bc 2649 acbc
000003e0: 1aa0 d4bd c534 bebd f97d 20be 9276 45be
000003f0: 84f9 b3bb c28b f0bb 1ee3 11be 55b0 f4bd

gc2.fc.bias f4 [128]
0.042433012 -0.11501632 -0.096922934 -0.012605126 -0.12947477 -0.070816584 -0.1659171 0.031068182
0.02766819 0.017340861 0.038604457 -0.010198047 -0.06685701 0.023107838 0.011444315 -0.024829762
0.00041435787 0.110613145 0.069940254 0.00035319655 -0.041307107 -0.0069684996 -0.12929738 -0.18956585
-0.13868262 0.0072722193 -0.094490506 -0.00095151865 0.09687383 -0.1401772 -0.06866597 0.026157841
0.10899981 0.08142837 -0.029663224 0.07145289 0.07257419 0.10573674 -0.023488846 0.008828222
0.06429129 0.013222286 -0.05197049 0.036876902 -0.015958624 -0.14462607 0.110935606 0.038605563
-0.006500213 0.017593905 -0.10002691 -0.048483368 -0.06353056 -0.032289673 0.025227005 -0.05426039
-0.01303857 -0.04388948 0.067454986 0.06612764 -0.19330181 -0.18403745 0.02730968 0.092979096
0.09600575 -0.11178973 -0.12872757 -0.009042512 0.039400216 0.012227971 -0.08687873 0.055644516
0.06529067 -0.06916022 0.048306488 -0.052921925 -0.045256205 0.043191183 0.008883099 -0.029540336
0.043813683 -0.02915893 0.02582267 -0.10054436 -0.015050125 0.041260768 0.03955057 -0.06153285
-0.030776335 0.059155833 -0.06534262 -0.10009332 -0.059695043 0.036868673 0.018403437 0.09668213
0.025176188 0.10801779 -0.03447411 -0.08043978 -0.1296425 -0.039500657 -0.012626494 -0.039968546
-0.008167587 0.019110465 0.047958788 -0.0135888755 0.06431904 -0.009986419 -0.073968016 -0.05561203
0.02931308 0.021761937 -0.084066644 -0.01543449 0.034449127 0.09900411 -0.07958484 -0.087970085
0.08572993 -0.06038368 -0.009616709 0.0026104527 0.061773703 -0.013140718 0.07556547 -0.106279194
00000000: 3dce 2d3d ad8d ebbd 887f c6bd bb85 4ebc
00000010: 0995 04be 4908 91bd 2ce6 29be b382 fe3c
00000020: 66a8 e23c 6c0e 8e3c b51f 1e3d b615 27bc
00000030: 54ec 88bd a64c bd3c f080 3b3c c967 cbbc
00000040: 2c3e d939 2589 e23d d63c 8f3d 3d2d b939
00000050: a431 29bd 0358 e4bb 8866 04be 8d1d 42be
00000060: d102 0ebe cc4b ee3b 3d84 c1bd 566f 79ba
00000070: c965 c63d 9d8a 0fbe bea0 8cbd f848 d63c
00000080: 4b3b df3d ebc3 a63d 4a00 f3bc e555 923d
00000090: c7a1 943d 818c d83d ae6b c0bc 3fa4 103c
000000a0: 27ab 833d 49a2 583c 02df 54bd 3c0c 173d
000000b0: a9bb 82bc db18 14be 3532 e33d de20 1e3d
000000c0: bdff d4bb 1821 903c e9da ccbd 7f96 46bd
000000d0: 4f1c 82bd 2d42 04bd dda8 ce3c 2540 5ebd
000000e0: ba9f 55bc 75c5 33bd d725 8a3d ee6d 873d
000000f0: e9f0 45be 5074 3cbe 8db8 df3c d36b be3d
00000100: aa9e c43d 04f2 e4bd 29d1 03be 0b27 14bc
00000110: 1f62 213d d457 483c 7aed b1bd 81eb 633d
00000120: 1db7 853d e0a3 8dbd 06dd 453d a9c4 58bd
00000130: 925e 39bd 3de9 303d 6b8a 113c 93fe f1bc
00000140: fa75 333d b5de eebc 108a d33c 34ea cdbd
00000150: cd94 76bc 0d01 293d c7ff 213d df09 7cbd
00000160: a71e fcbc 634d 723d 5ad2 85bd bafd ccbd
00000170: ca82 74bd 9b03 173d cec2 963c 4801 c63d
00000180: 4b3e ce3c 6e38 dd3d b934 0dbd 9dbd a4bd
00000190: 01c1 04be 71cb 21bd 5bdf 4ebc 0fb6 23bd
000001a0: 58d1 05bc 8d8d 9c3c 6f70 443d e0a3 5ebc
000001b0: b3b9 833d 149e 23bc 8b7c 97bd 71c9 63bd
000001c0: fc21 f03c 1746 b23c 222b acbd f1e0 7cbc
000001d0: 871a 0d3d abc2 ca3d 60fd a2bd a929 b4bd
000001e0: 2c93 af3d e154 77bd 678f 1dbc 2114 2b3b
000001f0: 6c06 7d3d 2b4c 57bc 12c2 9a3d e8a8 d9bd

temporal_conv.weight f4 [128, 128, 3]
-0.052273706 -0.108251214 -0.035922296 -0.10296338 -0.10982684 -0.005207563 -0.09887629 -0.0727166
0.002102937 0.058658395 0.04711401 -0.028888367 -0.051367216 -0.017454663 -0.045876916 -0.028645627
-0.053960145 0.0033816623 -0.051026925 -0.057180807 0.0019282227 0.0014323182 -0.0048298035 0.01404101
0.1043337 -0.02675861 -0.03145283 -0.043317746 -0.025320696 0.04937445 -0.022994213 -0.034095585
0.020953689 -0.04820066 -0.022526463 -0.03259266 -0.068036444 -0.054530315 -0.02246113 -0.046525158
-0.08153551 -0.047017854 -0.057855386 -0.043491155 -0.015334792 -0.086429246 -0.013238681 -0.04934416
-0.08419423 -0.07133036 0.0060319025 -0.101609804 -0.020254288 0.013788563 -0.035534658 -0.09625605
-0.017834395 -0.07422557 -0.043448865 -0.028708214 0.035144325 0.05427076 -0.015028531 0.089830935
-0.085555635 -0.008394265 -0.05770936 -0.060373005 -0.02279799 0.019653358 0.03710151 0.0244068
0.10821018 0.012776659 -0.028604802 -0.027734093 -0.09876341 0.012392824 0.014667196 0.088798404
-0.0424951 -0.07362395 -0.10124514 -0.044222362 0.026194992 -0.0990265 0.03180352 0.07842473
0.05027585 -0.0114657665 -0.0711483 -0.008516793 0.008862539 -0.08661433 -0.09188781 0.032543667
-0.03481285 -0.08448112 0.04391068 0.052076846 -0.059556223 -0.024047071 -0.06904767 -0.022179937
0.03280988 -0.07892889 -0.08253458 0.017015666 -0.050970122 -0.08641618 0.04224834 -0.06645153
-0.03786102 -0.013911124 -0.073342025 -0.0410653 -0.02361817 0.035082087 0.10958478 -0.0052024224
-0.039631516 -0.09320321 -0.030776152 -0.055974387 -0.08197649 0.048372526 0.0298513 0.09126626
0.049195692 -0.082985714 -0.08991 0.048526615 -0.06735082 -0.102939256 -0.025274763 0.035043713
0.028671725 0.046283092 -0.10102718 -0.06365001 0.0019525562 -0.025763093 -0.010365415 -0.026623612
-0.10092157 -0.081415534 -0.002616234 -0.050346673 -0.07326012 0.03260518 0.08204452 0.092832185
0.046337977 -0.0574935 -0.105328955 0.011435514 -0.059182998 -0.014676604 -0.0394847 -0.021180853
-0.028992118 0.039246928 -0.06244847 -0.07338958 0.02393299 -0.050074503 -0.041444883 -0.0024250578
-0.09862958 -0.106355496 0.0348112 -0.024944633 -0.09819579 0.03858134 0.036212217 0.031914286
-0.049057983 -0.06611486 -0.07125194 0.007989648 -0.034734603 0.009549573 0.048679784 0.070640974
0.062364724 0.019900845 -0.013559428 -0.049219996 -0.043845784 -0.04113915 -0.101461336 0.022848507
-0.046092127 -0.09331877 0.0476453 -0.06266054 -0.07743388 -0.04860984 -0.023325847 -0.10575422
0.041532975 -0.10155314 -0.044715997 -0.027568001 -0.028634071 -0.08211347 -0.03832875 -0.04809164
-0.10893688 -0.03267791 -0.09066541 -0.061913077 -0.024907857 -0.07995954 -0.036198772 -0.002340128
-0.08756133 -0.065474376 0.04345121 -0.10515693 -0.10306373 -0.038279988 -0.019646198 -0.051140632
-0.00787685 0.04760693 0.010757083 -0.045327663 -0.06780687 -0.031716358 0.035901297 -0.099169925
-0.06761759 0.00656306 0.03008124 0.1033525 -0.028073998 0.021628626 0.09602778 -0.02614277
-0.10071701 -0.10124577 0.049100082 -0.07225731 -0.03645847 -0.045038387 0.0031826752 0.041656047
0.012381418 -0.0598192 -0.025975369 0.032284386 0.016007291 0.039020468 0.04415247 -0.056974687
00000000: f41c 56bd d0b2 ddbd 4223 13bd 77de d2bd
00000010: e5ec e0bd 34a4 aabb a77f cabd 71ec 94bd
00000020: 6ed1 093b c943 703d 9ffa 403d 4ca7 ecbc
00000030: 6e66 52bd 15fd 8ebc 6fe9 3bbd 3caa eabc
00000040: 5005 5dbd e19e 5d3b 9c01 51bd 6c36 6abd
00000050: 6bbc fc3a a0bc bb3a 5443 9ebb 440c 663c
00000060: e8ac d53d df34 dbbc afd4 00bd f36d 31bd
00000070: 596d cfbc dd3c 4a3d 5c5e bcbc d0a7 0bbd
00000080: 12a7 ab3c 0e6e 45bd 6b89 b8bc e27f 05bd
00000090: b156 8bbd 2e5b 5fbd 6700 b8bc 2a91 3ebd
000000a0: 17fc a6bd cb95 40bd c5f9 6cbd c823 32bd
000000b0: c83e 7bbc d101 b1bd 0de7 58bc 1a1d 4abd
000000c0: 066e acbd a715 92bd 44a7 c53b cd18 d0bd
000000d0: 52ec a5bc 6de9 613c ca8c 11bd e421 c5bd
000000e0: 7019 92bc 9303 98bd 70f7 31bd 7d2d ebbc
000000f0: 7ff3 0f3d 044b 5e3d 3a3a 76bc 48f9 b73d
00000100: cb37 afbd 1988 09bc a660 6cbd af49 77bd
00000110: dac2 babc 1400 a13c c1f7 173d c5f0 c73c
00000120: 4d9d dd3d 3155 513c 9e54 eabc 9c32 e3bc
00000130: 7844 cabd 450b 4b3c ae4e 703c f0db b53d
00000140: 580f 2ebd 27c8 96bd 9d59 cfbd 8222 35bd
00000150: e196 d63c 68ce cabd 6844 023d 259d a03d
00000160: 0dee 4d3d e9da 3bbc 33b6 91bd 058a 0bbc
00000170: 2f34 113c db62 b1bd ad2f bcbd 824c 053d
00000180: eb97 0ebd 7004 adbd afdb 333d 884e 553d
00000190: 3af1 73bd 5dfe c4bc dd68 8dbd b3b2 b5bc
000001a0: a763 063d 78a5 a1bd e407 a9bd 7064 8b3c
000001b0: 0cc6 50bd f7fa b0bd 980c 2d3d bd17 88bd
000001c0: 2814 1bbd 7ceb 63bc 5834 96bd 1734 28bd
000001d0: e47a c1bc 3cb2 0f3d fc6d e03d 1579 aabb
000001e0: a854 22bd 53e1 bebd 451e fcbc 6645 65bd
000001f0: 4ae3 a7bd 4522 463d b78a f43c cee9 ba3d
00000200: 6c81 493d 6af4 a9bd bc22 b8bd d8c3 463d
00000210: 3aef 89bd d1d1 d2bd 050d cfbc ff89 0f3d
00000220: f7e0 ea3c 5793 3d3d 57e7 cebd f05a 82bd
00000230: eaec ff3a 1f0d d3bc b4d3 29bc c319 dabc
00000240: f8af cebd 30bd a6bd 1f75 2bbb 5038 4ebd
00000250: 6709 96bd 028d 053d f506 a83d cd1e be3d
00000260: e4cc 3d3d 4e7e 6bbd b5b6 d7bd 065c 3b3c
00000270: df69 72bd 2476 70bc b5ba 21bd 7883 adbc
00000280: e180 edbc 63c1 203d f8c9 7fbd 474d 96bd
00000290: 1e0f c43c ec1a 4dbd 1cc2 29bd b8ed 1ebb
000002a0: 4efe c9bd e9d0 d9bd 3096 0e3d b058 ccbc
000002b0: e01a c9bd 7807 1e3d 4353 143d 8eb8 023d
000002c0: 06f1 48bd 3a67 87bd 8aec 91bd 03e7 023c
000002d0: df45 0ebd d075 1c3c 7464 473d 37ac 903d
000002e0: 2772 7f3d 1907 a33c 5d28 5ebc e89a 49bd
000002f0: a397 33bd 8681 28bd f6ca cfbd cb2c bb3c
00000300: 19cb 3cbd e91d bfbd b827 433d 2b54 80bd
00000310: a795 9ebd 1d1b 47bd d915 bfbc ab95 d8bd
00000320: 7b1e 2a3d 18fb cfbd 1f28 37bd 4ad6 e1bc
00000330: 0092 eabc 1b2b a8bd 9bfe 1cbd bdfb 44bd
00000340: 4d1a dfbd 46d9 05bd c9ae b9bd 9198 7dbd
00000350: 900b ccbc d4c1 a3bd 2a45 14bd d55c 19bb
00000360: 5b53 b3bd 6e17 86bd e5f9 313d 845c d7bd
00000370: 1413 d3bd 7acb 1cbd 10f1 a0bc d778 51bd
00000380: e70d 01bc 7cff 423d 7a3e 303c 80a9 39bd
00000390: 54de 8abd 03e9 01bd 3d0d 133d 9a19 cbbd
000003a0: 177b 8abd f00e d73b ef6c f63c 7aaa d33d
000003b0: 71fb e5bc 842e b13c 36aa c43d 5d29 d6bc
000003c0: b844 cebd f159 cfbd 2b1d 493d a4fb 93bd
000003d0: 7a55 15bd 2c7a 38bd 6e94 503b 889f 2a3d
000003e0: 6edb 4a3c fa04 75bd 4cca d4bc a23c 043d
000003f0: b921 833c edd3 1f3d 38d9 343d 4a5e 69bd

temporal_conv.bias f4 [128]
-0.08877132 0.06230737 -0.016937884 0.07357698 -0.038230993 0.0899537 0.010445277 0.007516392
0.14011474 -0.059975162 0.04132063 0.03217509 -0.07560866 -0.046721466 0.11739429 0.1505279
0.075290985 -0.08306442 0.09526756 0.11865973 -0.09273101 0.0838322 0.061400693 0.024517851
0.027350089 0.09277032 0.12792528 0.11284857 -0.07295194 0.03751595 0.075831786 0.078007646
0.0712299 0.04613995 0.065092 0.10263234 0.08799081 0.06438125 0.036981933 0.1208124
-0.110678144 0.044042926 -0.09586759 0.03124647 0.02115895 -0.03414429 0.051311407 0.07271695
-0.04480931 0.049071644 -0.1292708 0.085285775 0.13303174 0.09283412 0.087510474 -0.038950253
0.15937598 -0.09437932 0.08026042 0.11102998 -0.095280685 0.14054884 0.09994989 -0.020584371
-0.108088866 -0.03901497 0.03611156 0.07404544 0.15822358 0.056447905 0.029599095 -0.0828735
0.09522354 -0.06664023 -0.0021159064 -0.06587663 -0.08531038 0.14834377 0.06511763 -0.025457988
-0.0412751 -0.0358879 0.12939152 0.050551236 -0.046846643 -0.028146269 -0.11035042 0.0030559434
0.05048148 -0.07272847 -0.07833414 0.11790586 0.08818755 0.025176542 -0.024193738 0.08766808
0.018839061 0.0065623713 0.09200222 0.105511725 0.041625407 0.05593673 -0.0955102 0.059718046
0.044276956 -0.039773926 0.18336965 0.01924068 -0.015632436 0.034949273 0.116536394 0.0639983
-0.11007669 -0.0048046177 -0.011293225 0.027583564 0.07071814 0.06212911 0.10252028 0.025028288
0.043991704 -0.027033601 0.1091452 -0.034303922 0.09524724 0.03130716 0.022897448 0.14119086
00000000: bdcd b5bd 0336 7f3d 51c1 8abc 87af 963d
00000010: 1a98 1cbd a539 b83d ab22 2b3c 114c f63b
00000020: 3d7a 0f3e 84a8 75bd d23f 293d 07ca 033d
00000030: b7d8 9abd 025f 3fbd 6b6c f03d fc23 1a3e
00000040: 2932 9a3d ae1d aabd a31b c33d df03 f33d
00000050: c1e9 bdbd 37b0 ab3d 4b7f 7b3d a9d9 c83c
00000060: 4b0d e03c 5efe bd3d d8fe 023e 271d e73d
00000070: d467 95bd 53aa 193d b24d 9b3d 79c2 9f3d
00000080: fbe0 913d 3ffd 3c3d f44e 853d e730 d23d
00000090: 8734 b43d 51da 833d 5e7a 173d 7e6c f73d
000000a0: 39ab e2bd 5b66 343d 3a56 c4bd 99f8 ff3c
000000b0: 8955 ad3c e2da 0bbd e92b 523d a0ec 943d
000000c0: f889 37bd 59ff 483d 915f 04be 4faa ae3d
000000d0: 7939 083e d11f be3d b138 b33d 4d8a 1fbd
000000e0: 7533 233e f249 c1bd 935f a43d b063 e33d
000000f0: 8522 c3bd 09ec 0f3e 87b2 cc3d 8ea0 a8bc
00000100: b25d ddbd 29ce 1fbd b7e9 133d 23a5 973d
00000110: 5d05 223e eb35 673d cd79 f23c 95b9 a9bd
00000120: 8f04 c33d ac7a 88bd 05ab 0abb 54ea 86bd
00000130: 35b7 aebd 6ee7 173e 645c 853d 458d d0bc
00000140: 1410 29bd 31ff 12bd 367f 043e d00e 4f3d
00000150: 44e2 3fbd 0193 e6bc 67ff e1bd 3946 483b
00000160: abc5 4e3d aaf2 94bd a66d a0bd a178 f13d
00000170: ad9b b43d 093f ce3c f231 c6bc 538b b33d
00000180: 6054 9a3c 2909 d73b a96b bc3d 8816 d83d
00000190: 677f 2a3d ea1d 653d da9a c3bd e99a 743d
000001a0: c15b 353d fce9 22bd 41c5 3b3e a19e 9d3c
000001b0: 980f 80bc f826 0f3d a2aa ee3d 8a11 833d
000001c0: e36f e1bd 0e70 9dbb 3807 39bc edf6 e13c
000001d0: acd4 903d 187b 7e3d 27f6 d13d 2008 cd3c
000001e0: a530 343d 9275 ddbc 8587 df3d 4582 0cbd
000001f0: fc10 c33d f03b 003d 6e93 bb3c 5694 103e

fc.weight f4 [36, 128]
0.10247691 -0.032435782 -0.10109821 -0.05412471 0.0906265 -0.021321919 0.047063846 0.10888659
0.023170494 0.09491285 0.083884805 -0.13411386 0.06056088 0.06646764 0.16616291 0.10622747
-0.084409386 0.09718863 -0.07899614 0.014351189 0.15165348 0.04469449 0.088763915 0.0026747384
-0.030030224 -0.030893242 -0.010914585 0.11645204 0.053502873 -0.05231005 -0.02680049 -0.052755103
-0.12577721 -0.059744984 0.10886137 -0.04734366 -0.06441324 -0.0019421953 -0.06772904 -0.053139362
0.008943305 0.11676555 0.03179607 -0.054354146 -0.09115215 0.083261855 -0.060258206 -0.06541802
0.1351484 -0.0085706655 0.000971649 0.0391763 0.05496221 -0.17030543 -0.0008628733 0.009592723
0.018850114 0.11990568 0.07944813 0.0064684483 -0.025553064 -0.09481097 0.13545391 0.08933447
0.077802725 0.05574137 0.08589733 -0.00021101894 -0.031104567 -0.021183493 -0.039950773 0.022948807
-0.12426971 0.0141608175 -0.018634709 0.060301136 0.02334238 0.06114824 0.08345356 0.1133996
0.12505992 0.009393514 -0.06662311 0.16425245 0.14067563 0.09317864 -0.023997255 -0.036100324
-0.028809417 0.09208723 -0.09015399 0.011174445 -0.04673964 0.030717434 -0.025468891 0.07986247
-0.033652786 0.01463645 -0.053406842 0.0222013 0.056055196 -0.03192453 -0.024065582 -0.10210963
0.07974809 0.11876423 -0.08826214 -0.023256196 -0.0075785466 0.09088561 -0.08962371 0.0070801107
0.015444408 -0.00632364 0.050159868 0.0262091 0.03655019 0.01925841 0.060759485 0.083413206
-0.002460125 0.010104381 -0.053628176 -0.14473324 0.04259585 -0.021582764 0.063313596 -0.04205735
0.058828615 -0.021992566 -0.021188151 -0.08253447 -0.09962092 -0.024459297 -0.08412499 0.05181428
-0.081243604 0.02170915 0.03431091 0.011135122 0.025325099 0.0825865 0.11762068 0.05386375
-0.052839894 -0.022632016 -0.020888787 0.06279374 -0.075342156 0.13084647 0.07940348 -0.036078725
-0.022295529 0.11577965 -0.043357972 0.006816906 0.026347322 -0.12695393 0.025100432 -0.12040356
-0.11031795 -0.042260274 0.060485866 -0.044346146 0.10457561 -0.025649847 -0.03600074 -0.04119301
0.11565124 0.02255146 -0.01050005 0.019811008 -0.01233778 -0.05290489 -0.03670734 -0.10003715
-0.013007883 -0.01473225 -0.029850353 -0.040251035 -0.11843427 0.021779083 0.030736757 -0.058060672
-0.08187314 0.12616904 0.16223711 0.08597765 -0.007776217 -0.06499925 0.10032465 -0.08751592
0.0030029824 0.009260411 -0.13992082 0.12950753 -0.023691423 -0.04536296 0.093308285 -0.015804408
-0.01209964 -0.070128575 -0.0752958 0.04265653 0.041740455 -0.060348783 -0.11930506 -0.04034116
-0.06851702 0.019477475 0.023399035 0.020928355 0.018110817 0.10272225 0.057140138 -0.0027504214
0.11738 0.02097564 -0.112289324 0.08916214 -0.043594018 -0.034865633 -0.013480046 -0.101211704
-0.050929923 -0.03676079 -0.0537781 0.0816672 0.017082263 0.08088768 -0.10415311 0.015067129
-0.0700869 0.03754806 -0.08787565 0.18603261 -0.03601634 -0.09115567 -0.11118367 0.12145526
0.01984392 -0.072393976 0.088033944 0.06454399 -0.011076976 0.11019921 0.09811997 0.068541355
-0.093638025 0.0028243535 -0.01355145 0.003934934 0.0671592 0.035006527 -0.06456902 -0.07478163
00000000: 6adf d13d 62db 04bd 940c cfbd dfb1 5dbd
00000010: 639a b93d 4eab aebc 05c6 403d efff de3d
00000020: 0cd0 bd3c ab61 c23d cccb ab3d 2555 09be
00000030: af0e 783d 3020 883d 9c26 2a3e ca8d d93d
00000040: d4de acbd d50a c73d bac8 a1bd 4021 6b3c
00000050: 0d4b 1b3e 9211 373d dbc9 b53d aa4a 2f3b
00000060: f201 f6bc d313 fdbc 16d3 32bc 687e ee3d
00000070: d425 5b3d 1043 56bd b48c dbbc bc15 58bd
00000080: becb 00be 28b7 74bd b6f2 de3d 6deb 41bd
00000090: 17eb 83bd 4391 feba 86b5 8abd a9a8 59bd
000000a0: f186 123c c722 ef3d 993c 023d 74a2 5ebd
000000b0: faad babd 3185 aa3d 4fd1 76bd e2f9 85bd
000000c0: 5864 0a3e fa6b 0cbc 43b6 7e3a 5477 203d
000000d0: 0e20 613d 8c64 2ebe 7232 62ba cc2a 1d3c
000000e0: 8e6b 9a3c 1c91 f53d b4b5 a23d 47f5 d33b
000000f0: a954 d1bc 412c c2bd 6eb4 0a3e fef4 b63d
00000100: 0957 9f3d 1051 643d f0ea af3d f744 5db9
00000110: 01cf febc 0189 adbc 6ca3 23bd 23ff bb3c
00000120: 1e81 febd c602 683c d1a7 98bc 53fe 763d
00000130: 8538 bf3c 9476 7a3d b3e9 aa3d 0d3e e83d
00000140: b50f 003e 41e7 193c b271 88bd cb31 283e
00000150: 460d 103e 71d4 be3d e495 c4bc efdd 13bd
00000160: ba01 ecbc 3b98 bc3d a8a2 b8bd 0515 373c
00000170: 1172 3fbd 21a3 fb3c 23a4 d0bc ef8e a33d
00000180: 81d7 09bd b9cd 6f3c 22c1 5abd 80df b53c
00000190: 229a 653d 4cc3 02bd 2f25 c5bc db1e d1bd
000001a0: f752 a33d a93a f33d c8c2 b4bd c783 bebc
000001b0: 7555 f8bb 3c22 ba3d a38c b7bd 4600 e83b
000001c0: 8b0a 7d3c 8936 cfbb 6f74 4d3d 77b4 d63c
000001d0: a7b5 153d d0c3 9d3c f0de 783d 8bd4 aa3d
000001e0: 0c3a 21bb d88c 253c 38a9 5bbd f334 14be
000001f0: fc78 2e3d 56ce b0bc 8faa 813d 5444 2cbd
00000200: 46f6 703d c129 b4bc c692 adbc d507 a9bd
00000210: 0e06 ccbd dd5e c8bc b949 acbd 363b 543d
00000220: 0c63 a6bd 63d7 b13c 9989 0c3d 1670 363c
00000230: 9576 cf3c 1c23 a93d 1ce3 f03d 3ca0 5c3d
00000240: a56e 58bd c766 b9bc f61e abbc 019a 803d
00000250: fd4c 9abd 9efc 053e 4b9e a23d 49c7 13bd
00000260: 1da5 b6bc e21d ed3d 2198 31bd 5a60 df3b
00000270: 57d6 d73c 3600 02be 6c9f cd3c 2496 f6bd
00000280: 61ee e1bd 1c19 2dbd 07c0 773d 4ea4 35bd
00000290: bd2b d63d a11f d2bc 8375 13bd 00ba 28bd
000002a0: 8fda ec3d d7bd b83c 6708 2cbc b24a a23c
000002b0: 6624 4abc ccb2 58bd 705a 16bd 47e0 ccbd
000002c0: 041f 55bc 895f 71bc ba88 f4bc 45de 24bd
000002d0: ab8d f2bd 0c6a b23c a7cb fb3c 07d1 6dbd
000002e0: 1bad a7bd 7532 013e 7c21 263e 0d15 b03d
000002f0: a3cf febb 541e 85bd 0377 cd3d 8c3b b3bd
00000300: afcd 443b fbb8 173c 6747 0fbe 9f9d 043e
00000310: 8414 c2bc 83ce 39bd 6a18 bf3d 3f78 81bc
00000320: 923d 46bc 929f 8fbd af34 9abd 9db8 2e3d
00000330: 0af8 2a3d 4930 77bd 3656 f4bd c63c 25bd
00000340: a752 8cbd 3a8f 9f3c 55af bf3c f171 ab3c
00000350: 235d 943c 0b60 d23d c70b 6a3d 6a40 34bb
00000360: ed64 f03d 1bd5 ab3c f2f7 e5bd a49a b63d
00000370: a48f 32bd 44cf 0ebd 69db 5cbc 1548 cfbd
00000380: e59b 50bd 7b92 16bd 6d46 5cbd 2241 a73d
00000390: 1af0 8b3c 71a8 a53d 3a4e d5bd 1fdc 763c
000003a0: b889 8fbd ffcb 193d 26f8 b3bd 557f 3e3e
000003b0: df85 13bd d3af babd 44b4 e3bd 89bd f83d
000003c0: b78f a23c 4b43 94bd 244b b43d a42f 843d
000003d0: 347c 35bc 20b0 e13d 1ff3 c83d 695f 8c3d
000003e0: 4bc5 bfbd ca18 393b e706 5ebc 9ef0 803b
000003f0: c38a 893d 0163 0f3d c33c 84bd 1c27 99bd

fc.bias f4 [36]
0.002144841 -0.08973227 -0.07532731 0.003884974 -0.101798445 -0.082208306 0.06586771 -0.056859083
0.10655884 -0.102003366 -0.09453683 -0.0043558907 -0.076906644 -0.06412841 -0.10364683 0.033579595
-0.019633574 -0.057336017 -0.06534512 0.060038477 -0.074294776 -0.09646748 -0.09918969 -0.08164744
-0.14610903 -0.049069192 -0.104549326 -0.008210026 -0.09836784 -0.09810472 0.10516264 -0.07697553
-0.014426189 -0.072416924 -0.08842224 -0.10049145
00000000: 7690 0c3b 8dc5 b7bd 3445 9abd 0c9b 7e3b
00000010: b47b d0bd d45c a8bd a6e5 863d 12e5 68bd
00000020: 853b da3d 24e7 d0bd 879c c1bd dcbb 8ebb
00000030: 3b81 9dbd c155 83bd ca44 d4bd c28a 093d
00000040: 97d6 a0bc 2cd9 6abd aad3 85bd e8ea 753d
00000050: dc27 98bd be90 c5bd f723 cbbd c636 a7bd
00000060: 9b9d 15be c7fc 48bd f51d d6bd 5883 06bc
00000070: 1475 c9bd 21eb c8bd 835f d73d 59a5 9dbd
00000080: d25b 6cbc 534f 94bd b816 b5bd 76ce cdbd

exp_avg f4 [30, 30]
0.0001127275 0.00011750846 0.00011816288 0.00012069679 0.00012572797 0.0001280141 0.00013294154 0.0001377182
0.00014100748 0.00014388598 0.00014651821 0.00014831136 0.00014677942 0.0001452345 0.00014369086 0.00014185728
0.00013814453 0.0001361461 0.00013601143 0.00013573188 0.00013618551 0.00013278383 0.00013361506 0.00012811895
0.00012356369 0.00011933311 0.00011171243 0.000102724516 9.0788635e-05 0.00010733586 0.00011473778 0.00011804403
0.00011863769 0.00012106012 0.00012592075 0.00012840757 0.00013335083 0.00013806923 0.00014145987 0.00014405641
0.00014659013 0.0001482683 0.00014623247 0.00014471963 0.00014292209 0.00014069208 0.00013697453 0.00013499527
0.00013467603 0.00013413739 0.00013441002 0.0001310654 0.00013209523 0.00012690618 0.00012207945 0.00011803292
0.00011092023 0.00010196458 9.048636e-05 0.000106892054 0.000103021295 0.000106372805 0.00010612692 0.00010846163
0.00011337384 0.00011623996 0.00012120432 0.00012539848 0.00012827686 0.00013178287 0.00013411237 0.00013585595
0.00013431214 0.00013232288 0.00013054568 0.00012809604 0.00012443474 0.00012180652 0.00012137578 0.000121054065
0.0001215764 0.000118320124 0.00011933338 0.000114023765 0.00010948343 0.00010556309 9.847741e-05 9.008966e-05
7.875296e-05 9.518064e-05 0.000102236896 0.000105461855 0.000104943916 0.00010680667 0.00011203895 0.00011453356
0.000119836084 0.00012428178 0.0001271618 0.00013067097 0.00013338253 0.00013541606 0.00013395783 0.00013222474
0.00013030722 0.00012761157 0.00012480123 0.00012262685 0.00012251157 0.00012202539 0.00012246474 0.00011951623
0.00012052611 0.0001153065 0.00011085967 0.00010726317 0.00010035663 9.181631e-05 8.04445e-05 9.7050695e-05
0.00010762371 0.00011069996 0.00011030814 0.0001114231 0.00011535869 0.000118294025 0.00012320591 0.00012776967
0.0001308965 0.00013414181 0.00013694604 0.00013898914 0.00013747388 0.00013586083 0.00013360662 0.00013100477
0.00012802925 0.0001261296 0.00012582041 0.00012481704 0.00012523335 0.00012251273 0.00012328589 0.00011795147
0.00011353205 0.00010962989 0.00010248416 9.425289e-05 8.342638e-05 9.981488e-05 9.401307e-05 9.7203614e-05
9.668677e-05 9.725707e-05 0.000100836565 0.000102356134 0.0001078584 0.00011191625 0.00011500792 0.00011792204
0.00012075569 0.00012269239 0.00012128726 0.00011976382 0.000117752 0.000115016446 0.000112192305 0.00011096946
0.00011075506 0.00010958314 0.00010939887 0.00010664355 0.00010762821 0.00010244604 9.8507844e-05 9.511506e-05
8.8192246e-05 8.006947e-05 6.955411e-05 8.517337e-05 0.00010211897 0.000104759994 0.0001049336 0.00010612331
0.00010908062 0.00011112137 0.000115836156 0.00012012457 0.00012318396 0.00012634824 0.00012988895 0.00013161944
0.0001308045 0.00012925746 0.00012719535 0.00012412238 0.0001214245 0.00012002461 0.0001193167 0.00011800209
0.00011788386 0.0001149841 0.00011537488 0.000110638735 0.000106893465 0.000102578226 9.601423e-05 8.7813896e-05
7.7467994e-05 9.244948e-05 9.2743314e-05 9.5863965e-05 9.55865e-05 9.7129494e-05 0.000100387384 0.0001018107
0.000106414875 0.00011017141 0.00011270508 0.00011571931 0.0001185167 0.000120497614 0.000119430406 0.00011844869
0.00011664236 0.00011383451 0.00011059137 0.00010906377 0.00010899038 0.000108074535 0.00010811162 0.00010465327
0.00010490781 0.0001005837 9.683726e-05 9.250412e-05 8.667569e-05 7.887184e-05 6.8702095e-05 8.397615e-05
8.95724e-05 9.3002454e-05 9.286335e-05 9.41789e-05 9.7039665e-05 9.824913e-05 0.00010229948 0.00010651485
0.0001084113 0.00011189358 0.0001146229 0.00011706679 0.00011616469 0.000115079165 0.00011326339 0.000110802706
00000000: 1e68 ec38 e06e f638 37ce f738 991e fd38
00000010: d8d5 0339 863b 0639 3966 0b39 7368 1039
00000020: 68db 1339 19e0 1639 afa2 1939 0784 1b39
00000030: cde8 1939 174a 1839 b9ab 1639 86bf 1439
00000040: e4da 1039 71c2 0e39 4a9e 0e39 4053 0e39
00000050: 05cd 0e39 e33b 0b39 051b 0c39 ab57 0639
00000060: e090 0139 7a42 fa38 2747 ea38 ce6d d738
00000070: c765 be38 8019 e138 609f f038 688e f738
00000080: 20cd f838 a8e1 fd38 9809 0439 25a5 0639
00000090: 17d4 0b39 adc6 1039 d854 1439 d90d 1739
000000a0: fdb5 1939 7878 1b39 fb55 1939 e1bf 1739
000000b0: 5bdd 1539 be86 1339 d2a0 0f39 848d 0d39
000000c0: d237 0d39 3ba7 0c39 6af0 0c39 9a6e 0939
000000d0: 0b83 0a39 1e12 0539 7402 0039 7188 f738
000000e0: d89d e838 d1d5 d538 7fc3 bd38 3c2b e038
000000f0: 230d d838 7714 df38 7590 de38 e575 e338
00000100: 1ec3 ed38 dac5 f338 132f fe38 667d 0339
00000110: 0f82 0639 322f 0a39 84a0 0c39 8e74 0e39
00000120: 24d6 0c39 27c0 0a39 17e3 0839 8551 0639
00000130: b27a 0239 6172 ff38 208b fe38 68de fd38
00000140: d5f6 fe38 a222 f838 9f42 fa38 0b20 ef38
00000150: 789a e538 c161 dd38 a885 ce38 85ee bc38
00000160: 2c28 a538 b89b c738 0468 d638 672b dd38
00000170: 5615 dc38 65fd df38 74f6 ea38 bd31 f038
00000180: 8250 fb38 a351 0239 bc56 0539 b904 0939
00000190: 9adc 0b39 79fe 0d39 0877 0c39 cfa5 0a39
000001a0: 14a3 0839 78cf 0539 13dd 0239 6595 0039
000001b0: 7376 0039 e2e7 ff38 e169 0039 caa4 fa38
000001c0: f6c2 fc38 b5d0 f138 557d e838 7af2 e038
000001d0: 8e76 d238 828d c038 50b4 a838 b287 cb38
000001e0: 0ab4 e138 9727 e838 3b55 e738 d2ab e938
000001f0: baec f138 9f14 f838 d630 0139 e9f9 0539
00000200: 4341 0939 6ba8 0c39 2c99 0f39 9dbd 1139
00000210: dd26 1039 dd75 0e39 c118 0c39 535e 0939
00000220: 973f 0639 a841 0439 a9ee 0339 52e1 0239
00000230: 1251 0339 c376 0039 4e46 0139 b75c f738
00000240: 0e18 ee38 19e9 e538 c4ec d638 a3a9 c538
00000250: 32f5 ae38 b553 d138 e228 c538 cbd9 cb38
00000260: 50c4 ca38 7ef6 cb38 3878 d338 08a8 d638
00000270: 0a32 e238 94b4 ea38 6830 f138 ea4c f738
00000280: 383e fd38 fda6 0039 9a5b fe38 b629 fb38
00000290: a0f1 f638 fc34 f138 c948 eb38 46b8 e838
000002a0: 2c45 e838 00d0 e538 126d e538 d2a5 df38
000002b0: 75b6 e138 4dd8 d638 ff95 ce38 8278 c738
000002c0: daf3 b838 f8ea a738 94dd 9138 1b9f b238
000002d0: b428 d638 98b2 db38 cc0f dc38 858e de38
000002e0: 36c2 e438 d509 e938 10ed f238 63eb fb38
000002f0: f12a 0139 597c 0439 cd32 0839 5303 0a39
00000300: 9128 0939 4989 0739 be5f 0539 d926 0239
00000310: 48a5 fe38 b9b5 fb38 aa39 fa38 e477 f738
00000320: 6a38 f738 9e23 f138 6bf5 f138 b806 e838
00000330: fe2b e038 441f d738 3f5b c938 ba28 b838
00000340: 5076 a238 70e1 c138 307f c238 930a c938
00000350: 9d75 c838 00b2 cb38 1187 d238 3483 d538
00000360: 0d2b df38 d30b e738 145c ec38 55ae f238
00000370: 2b8c f838 aab3 fc38 b676 fa38 a867 f838
00000380: e49d f438 70ba ee38 4aed e738 2ab9 e438
00000390: c491 e438 13a6 e238 fcb9 e238 4c79 db38
000003a0: f401 dc38 76f0 d238 1c15 cb38 c5fe c138
000003b0: a8c5 b538 ff67 a538 2814 9038 5a1c b038
000003c0: d1d8 bb38 500a c338 a2bf c238 e981 c538
000003d0: c681 cb38 1a0b ce38 9d89 d638 ba60 df38
000003e0: e05a e338 69a8 ea38 b361 f038 c181 f538
000003f0: 719d f338 a856 f138 d287 ed38 c05e e838
